checkpoints/model_epoch_0070.npz (npz, 388310 bytes, 10 tensors)

weight_0 f8 [784, 64]
00000000: 4b12 e521 0000 0000 7f7a 510e 0000 0000
00000010: 53cc fd0d 0000 0000 4eb4 301a 0000 0000
00000020: 3d4c 6e04 0000 0000 1108 d11d 0000 0080
00000030: c0ab ec0b 0000 0080 b5a1 761f 0000 0080
00000040: e1a6 b903 0000 0000 d8a0 b121 0000 0080
00000050: 734b f221 0000 0000 1f60 f002 0000 0080
00000060: 8d1a 0920 0000 0000 ed4b f404 0000 0000
00000070: 0cb9 1a21 0000 0080 3dc3 9208 0000 0080
00000080: d089 ce17 0000 0000 9f28 670e 0000 0080
00000090: 2127 1913 0000 0000 8bf0 9602 0000 0000
000000a0: 68d6 3a12 0000 0000 113b 4d14 0000 0080
000000b0: 712a 2714 0000 0000 9774 cf11 0000 0000
000000c0: 2194 7204 0000 0000 c148 9217 0000 0000
000000d0: 0986 800f 0000 0080 1f7e 9c06 0000 0080
000000e0: 2f7e 0a00 0000 0000 8035 ac02 0000 0000
000000f0: 19d8 c121 0000 0000 5fc6 950a 0000 0000
00000100: 226b 8b03 0000 0080 d6cb e208 0000 0000
00000110: aa54 1103 0000 0000 8eff cb1c 0000 0080
00000120: f533 4207 0000 0000 275b a30d 0000 0080
00000130: fdfe 9718 0000 0080 73d7 d321 0000 0000
00000140: 618b ea0d 0000 0080 79ec 041b 0000 0080
00000150: 70ee c10c 0000 0080 30c8 570d 0000 0000
00000160: 687b 821e 0000 0000 456c f30e 0000 0080
00000170: a32a 901e 0000 0000 5d66 6315 0000 0000
00000180: fa22 840b 0000 0080 11ac 0915 0000 0000
00000190: d2af e31f 0000 0080 7f41 8e0a 0000 0080
000001a0: ef69 e421 0000 0080 b6d9 8b03 0000 0080
000001b0: d591 4501 0000 0000 b807 5c0e 0000 0080
000001c0: 8297 980a 0000 0080 51b1 1114 0000 0000
000001d0: 2598 da22 0000 0000 f823 8323 0000 0080
000001e0: 9f02 7c01 0000 0080 1078 ad18 0000 0080
000001f0: 58bc 1802 0000 0000 f717 260d 0000 0080
00000200: a417 a708 0000 0080 6eeb 1411 0000 0000
00000210: 0cdd 2b12 0000 0080 16f1 ae08 0000 0080
00000220: cbe4 521b 0000 0080 342b 881f 0000 0080
00000230: a0a2 3403 0000 0080 209c 830a 0000 0000
00000240: f671 880b 0000 0000 b937 901a 0000 0080
00000250: 37b1 381c 0000 0000 d45e 4621 0000 0080
00000260: 26e7 0a23 0000 0080 22a7 2b16 0000 0000
00000270: 53ff 3b01 0000 0080 af93 ee1e 0000 0000
00000280: b735 fc05 0000 0000 536a 8516 0000 0000
00000290: d7db 0410 0000 0080 e7d5 1822 0000 0000
000002a0: 2e1e bd1e 0000 0080 45da 8101 0000 0080
000002b0: 4fc0 e815 0000 0080 4292 6506 0000 0080
000002c0: e702 780d 0000 0000 43fd c60e 0000 0000
000002d0: d893 a810 0000 0080 d035 5502 0000 0080
000002e0: 0b15 3708 0000 0000 26df 9614 0000 0080
000002f0: 698f b11b 0000 0000 934a 121f 0000 0000
00000300: 9938 5a21 0000 0080 60c3 6a02 0000 0000
00000310: b9cc 1221 0000 0080 41a9 f514 0000 0080
00000320: 9695 6208 0000 0080 48e3 a30a 0000 0080
00000330: e44d 9f15 0000 0000 b273 290b 0000 0080
00000340: 489f e400 0000 0080 47d1 861d 0000 0000
00000350: d5d0 361e 0000 0080 1926 1c15 0000 0000
00000360: 2033 611f 0000 0080 66af 2115 0000 0000
00000370: 339b 8b12 0000 0000 7281 1211 0000 0000
00000380: 618a ce16 0000 0080 d790 2b16 0000 0000
00000390: b527 0322 0000 0080 56b2 6c01 0000 0080
000003a0: e1bb 961e 0000 0080 064c 2b24 0000 0000
000003b0: f201 9221 0000 0000 f388 a41e 0000 0000
000003c0: 7ca5 0d04 0000 0000 e630 c11f 0000 0080
000003d0: 4551 8f0f 0000 0000 a2e5 6617 0000 0000
000003e0: 658b fd1a 0000 0000 ef9a c920 0000 0080
000003f0: 862d 8712 0000 0000 5957 8d14 0000 0080
00000400: 688c ff10 0000 0000 212c 5904 0000 0080
00000410: 0244 e10e 0000 0000 6d16 fe06 0000 0000
00000420: d793 ed01 0000 0000 df8a d008 0000 0080
00000430: f088 a721 0000 0000 ef93 c81d 0000 0080
00000440: 5f74 7d09 0000 0080 bb8e 570a 0000 0000
00000450: 2160 8201 0000 0080 2c32 0402 0000 0080
00000460: c246 890a 0000 0080 9ff3 c909 0000 0000
00000470: 90cb 3405 0000 0080 0c59 0014 0000 0000
00000480: 197f 3721 0000 0000 2e88 b21e 0000 0080
00000490: 0afb 1e1b 0000 0000 77ab 411d 0000 0000
000004a0: 33a6 ca0d 0000 0080 6601 c700 0000 0000
000004b0: 5d53 0d1e 0000 0080 1f13 940d 0000 0000
000004c0: 7902 a00b 0000 0000 bb2a 7513 0000 0080
000004d0: a5d2 1d21 0000 0000 470a 300b 0000 0000
000004e0: 49ae c411 0000 0080 94a4 9006 0000 0080
000004f0: 15a4 2f04 0000 0000 8073 b512 0000 0080
00000500: 2f72 dd01 0000 0080 1511 ac0f 0000 0080
00000510: edb4 4220 0000 0080 a672 7f1d 0000 0080
00000520: 7684 6319 0000 0000 1cad 4914 0000 0080
00000530: a001 6702 0000 0000 593c b810 0000 0080
00000540: 749c 7c14 0000 0000 bb84 d31e 0000 0000
00000550: 58a8 660d 0000 0000 73ef c702 0000 0080
00000560: d853 8f22 0000 0080 d8d3 8114 0000 0080
00000570: bdbd 9d06 0000 0000 5d87 2c07 0000 0000
00000580: 570b ef0d 0000 0080 68ce 5a0e 0000 0080
00000590: 33f2 fc0b 0000 0080 432c 6608 0000 0080
000005a0: 504e 871e 0000 0080 7f56 291c 0000 0080
000005b0: 66ff 640d 0000 0080 52c5 7804 0000 0080
000005c0: 5172 0a00 0000 0000 aa46 f211 0000 0080
000005d0: b14c b00f 0000 0080 3d05 4a00 0000 0080
000005e0: c4ef 6f20 0000 0080 9017 4e04 0000 0000
000005f0: f719 1609 0000 0000 d714 9202 0000 0000
00000600: ffb1 f622 0000 0080 efcd 4719 0000 0080
00000610: 1d5c de0f 0000 0080 d998 ab1f 0000 0080
00000620: eabb 0c02 0000 0080 a6c5 4618 0000 0080
00000630: 5fc8 8b1b 0000 0080 3d9f 8e15 0000 0080
00000640: 1f51 0708 0000 0000 c29b 3e0c 0000 0080
00000650: c01e 9600 0000 0080 d821 511a 0000 0000
00000660: dac9 2b1f 0000 0000 aa72 4405 0000 0000
00000670: 83db 690f 0000 0080 f1cb 5515 0000 0000
00000680: 56ce f515 0000 0000 01fa c117 0000 0080
00000690: c097 a118 0000 0080 8e06 f522 0000 0000
000006a0: 8020 5e1a 0000 0000 415a 1614 0000 0080
000006b0: c119 8b1a 0000 0080 7a6e dc1c 0000 0000
000006c0: e117 e111 0000 0080 3e72 570e 0000 0000
000006d0: 48bb 521d 0000 0000 7fc1 fe01 0000 0000
000006e0: de47 0d22 0000 0000 75fb 791c 0000 0000
000006f0: 3a4b c800 0000 0080 dfa0 a00d 0000 0080
00000700: a1a4 ae1c 0000 0000 8108 1f0c 0000 0080
00000710: b9b5 4604 0000 0080 5250 d805 0000 0000
00000720: 191c f300 0000 0080 eca7 4f19 0000 0000
00000730: 2dc5 2221 0000 0080 31f8 ef08 0000 0080
00000740: f0e5 3101 0000 0080 3a4f 6a04 0000 0000
00000750: fae6 a911 0000 0000 54de ca1e 0000 0000
00000760: e799 ee1c 0000 0080 3ec7 0012 0000 0080
00000770: 5252 0607 0000 0000 19c3 ef0a 0000 0080
00000780: fa1a 6b02 0000 0000 7295 9e22 0000 0000
00000790: a719 ed10 0000 0000 61f6 511a 0000 0080
000007a0: e74f 7a18 0000 0000 1ae9 380e 0000 0000
000007b0: eded 7b1d 0000 0000 907b 2307 0000 0000
000007c0: ee95 8d0f 0000 0000 281c e10d 0000 0080
000007d0: 3c2e 8315 0000 0000 df2e db18 0000 0080
000007e0: ce95 f90e 0000 0080 6ea0 6a03 0000 0000
000007f0: c0d1 061e 0000 0000 4ae7 c90c 0000 0000
2.809556444e-315 1.18684844e-315 1.159753507e-315 2.170921987e-315 3.67275264e-316 -2.47150585e-315 -9.8842694e-316 -2.60801613e-315
3.0878376e-316 -2.79289962e-315 2.813838017e-315 -2.43612303e-316 2.65544244e-315 4.10662844e-316 -2.74403781e-315 -7.1064409e-316
1.973355817e-315 -1.193868285e-315 1.583063013e-315 2.1465379e-316 1.511079343e-315 -1.682815816e-315 1.670490736e-315 1.47631e-315
3.68661355e-316 1.95384608e-315 -1.28497167e-315 -5.48013657e-316 3.397507e-318 2.21540617e-316 2.79815016e-315 8.77400346e-316
-2.93813814e-316 7.36558233e-316 2.5428291e-316 -2.38698567e-315 6.01669137e-316 -1.13046919e-315 -2.038585985e-315 2.803977573e-315
-1.153519337e-315 -2.23963669e-315 -1.05747874e-315 1.10599899e-315 2.528962715e-315 -1.23928457e-315 2.53339363e-315 1.772884437e-315
-9.545797e-316 1.74383142e-315 -2.643327183e-315 -8.7496575e-316 -2.8093435e-315 -2.93953674e-316 1.0541648e-316 -1.19026497e-315
-8.78312445e-316 1.66353793e-315 2.8890545e-315 -2.943628217e-315 -1.23043843e-316 -2.04553873e-315 1.7379012e-316 -1.08991035e-315
-7.1722666e-316 1.41591142e-315 -1.50623088e-315 -7.1976822e-316 -2.264882666e-315 -2.61369448e-315 -2.65714196e-316 8.71518677e-316
9.5597476e-316 -2.20184834e-315 2.339289327e-315 -2.7581705e-315 -2.904696387e-315 1.83772453e-315 -1.0231706e-316 2.563962834e-315
4.9611554e-316 1.866788797e-315 -1.32782059e-315 2.826317186e-315 -2.54794846e-315 -1.2493555e-316 -1.816062386e-315 -5.3023063e-316
1.11643456e-315 1.224897366e-315 -1.38083123e-315 -1.93371207e-316 6.80958797e-316 -1.70666008e-315 2.295534805e-315 2.575526836e-315
-2.76459796e-315 2.00349864e-316 -2.74147237e-315 -1.737352047e-315 -6.95044387e-316 -8.81969983e-316 1.792280936e-315 -9.25216824e-316
-7.4025777e-317 2.44747603e-315 -2.504462657e-315 1.749814003e-315 -2.601076655e-315 1.751606616e-315 1.537231518e-315 1.41512979e-315
-1.890466073e-315 1.837696335e-315 -2.819297254e-315 -1.18085434e-316 -2.53552008e-315 2.998075743e-315 2.782661126e-315 2.539988733e-315
3.3598043e-316 -2.63215776e-315 1.28976179e-315 1.939797703e-315 2.23724737e-315 -2.717772663e-315 1.535797635e-315 -1.7035742e-315
1.408991626e-315 -3.60435044e-316 1.23340541e-315 5.79614007e-316 1.59815884e-316 -7.3064783e-316 2.789631473e-315 -2.468768637e-315
-7.8663519e-316 8.57254937e-316 -1.25104857e-316 -1.6713954e-316 -8.7335345e-316 8.1140424e-316 -4.31546895e-316 1.65792184e-315
2.75335445e-315 -2.54452083e-315 2.24807368e-315 2.425086633e-315 -1.14319195e-315 6.443615e-317 -2.491028537e-315 1.12552122e-315
9.6360473e-316 -1.61285633e-315 2.74504156e-315 9.27350027e-316 -1.472821276e-315 -5.44176807e-316 3.46987545e-316 -1.55078052e-315
-1.5459266e-316 -1.29907054e-315 -2.67409377e-315 -2.445089805e-315 2.10448435e-315 -1.681664895e-315 1.99133435e-316 -1.385901216e-315
1.69815716e-315 2.55520157e-315 1.11081558e-315 -2.3051816e-316 -2.8646838e-315 -1.699846175e-315 5.4841791e-316 5.9465123e-316
-1.154976346e-315 -1.18986869e-315 -9.936967e-316 -6.96206335e-316 -2.530524634e-315 -2.334317723e-315 -1.110278104e-315 -3.7066632e-316
3.382497e-318 -1.487584595e-315 -1.3004411e-315 -2.396715e-317 -2.68873878e-315 3.5684733e-316 7.53170385e-316 2.13080745e-316
-2.898153343e-315 -2.09551113e-315 -1.315354986e-315 -2.62516584e-315 -1.69904087e-316 -2.0122864e-315 -2.283302797e-315 -1.78687938e-315
6.65492823e-316 -1.014957564e-315 -4.860752e-317 2.18142184e-315 2.58378259e-315 4.3661511e-316 -1.27763259e-315 1.76847984e-315
1.82028941e-315 -1.969288437e-315 -2.041693317e-315 2.89761271e-315 2.18562942e-315 -1.665046765e-315 -2.20019148e-315 2.39230662e-315
-1.482020976e-315 1.18878075e-315 2.43061108e-315 1.65378075e-316 2.82257584e-315 2.360429636e-315 -6.485332e-317 -1.129585997e-315
2.37748073e-315 -1.0047338e-315 -3.54457047e-316 4.8449272e-316 -7.8716718e-317 2.09805338e-315 -2.74664348e-315 -7.40823615e-316
-9.904704e-317 3.6598388e-316 1.464150627e-315 2.552400774e-315 -2.39818978e-315 -1.492280294e-315 5.8228009e-316 -9.06537383e-316
2.00460664e-316 2.869623636e-315 1.40301825e-315 -2.181690657e-315 2.0289746e-315 1.178893565e-315 2.443950563e-315 5.91722187e-316
1.289201053e-315 -1.150464544e-315 1.783174753e-315 -2.060340536e-315 -1.241279847e-315 2.83196126e-316 2.488921856e-315 1.060060026e-315

bias_0 f8 [1, 64]
00000000: a7f2 916e 8df6 bebf c6fa a42c 1d91 d3bf
00000010: e60a b025 43b6 b2bf b826 332f 8f37 b3bf
00000020: 1fd8 aa84 c028 c8bf 9bef 0e78 d686 dfbf
00000030: bf38 863a 0dab a1bf 2947 f81c 0a22 d5bf
00000040: a057 2fc2 8dbc d3bf 70c9 8f8e 1879 a93f
00000050: 507d 5ec4 a6f6 cd3f b041 43bb 6fe8 b7bf
00000060: a493 29a8 7f4f dfbf 70d3 a692 92ab c2bf
00000070: 86be 3a4b 4b2e d9bf e814 a07f fbf8 dfbf
00000080: 1c76 8a56 0f62 d23f 4de1 eee7 ab16 ccbf
00000090: 71a5 3938 b2fa ccbf f763 12df 1b69 ad3f
000000a0: 3cfa 7134 a4b0 cebf bb50 07e1 4313 d73f
000000b0: b6c1 bc15 5436 c6bf a8c5 9b1c f831 d8bf
000000c0: 009d c6b3 1719 cf3f 43e0 edb5 cfc5 c5bf
000000d0: 2c85 2fbe 30c2 a4bf 627a bf24 2d99 d33f
000000e0: 3338 3660 6d01 d03f d84b 3476 c173 c3bf
000000f0: d0fd 826d 85b1 76bf 84b5 1544 b754 b7bf
00000100: 27b2 def7 9c5c d4bf ed9b 77e7 7894 9b3f
00000110: 30ea 8ff7 bdde c5bf e561 a9b5 e51f dbbf
00000120: be52 2d36 721d c2bf bd3e 196e bbd5 d3bf
00000130: 2ef4 7104 f694 c5bf 4a55 6d48 cee6 b63f
00000140: 8d6e b68c 2d57 c0bf e156 ecd3 30a8 a6bf
00000150: 9e30 1889 2a79 653f d4a5 31b2 47e1 b3bf
00000160: d5a0 378e aee5 d8bf 6ef2 a6da fa2f 9abf
00000170: 5177 a80b e932 973f 74f5 32a4 f633 c13f
00000180: eed2 0d82 ed72 e4bf 5c30 c9ec 5b68 d2bf
00000190: c462 d029 2616 d1bf 9289 7914 4cbf bf3f
000001a0: 17cb f539 f7a3 a6bf 1bd1 a297 b69a c83f
000001b0: f03e de32 c3ac c1bf 75b1 0d0e 4e02 e1bf
000001c0: f88a d11b 0aa8 dbbf 6451 b7e9 bf2a b53f
000001d0: af8b 46a9 ea7d dabf 4b38 81a0 3a1e d3bf
000001e0: 435b 1140 fc98 ab3f fead 3222 8012 803f
000001f0: 2fc9 feea 6552 cb3f 0986 6e9a 58aa cfbf
-0.12094959210839794 -0.30573205337342946 -0.07309360189541855 -0.07506651785220242 -0.1887436530866475 -0.4926048443264734 -0.0345081457081604 -0.3302026064785531
-0.308383407243463 0.04975201359038095 0.23408970440230314 -0.09339044877856995 -0.48922721311674366 -0.14586097870565196 -0.393450568643836 -0.4995716806736952
0.28723510218864745 -0.2194418795095409 -0.22640063996668006 0.05744254205746551 -0.2397656684951971 0.3605508515877422 -0.1735329729213057 -0.37804987710759486
0.24295326498143055 -0.17009922393094898 -0.04054405519105794 0.3062241419665154 0.25008711238558873 -0.15197008392041655 -0.005540391161218364 -0.09113641178347193
-0.31815265852017877 0.02693356430782139 -0.17086004817959255 -0.42382185688395985 -0.14152362485278575 -0.30992017509286623 -0.16860842911765545 0.089459316904443
-0.1276604592393266 -0.04425194346383222 0.0026212530872325576 -0.0776562509578505 -0.38901866806419366 -0.025573653789012267 0.02265514501242844 0.13439829843074913
-0.639029268275946 -0.2876195728647468 -0.26697687228583455 0.12401271343109091 -0.044219709229670716 0.1922214737329647 -0.1380847929362896 -0.531531360100003
-0.43213131634381297 0.08268355804404376 -0.4139353421289184 -0.29872003244679907 0.053901560612465114 0.007847786944998877 0.21345209097268866 -0.24738605061160993

weight_1 f8 [64, 32]
00000000: d8ce bb60 9cb1 0ac0 c5d2 7468 b8e7 e23f
00000010: aeda 2b5f a135 15c0 3099 3669 21cc bdbf
00000020: 6cd7 bac9 3262 0cc0 87e1 5c2d 4b76 cfbf
00000030: 1abf 23a9 2614 fcbf d7b8 50f8 8812 f23f
00000040: 0633 3577 7014 f2bf 9612 7ee8 89ef 03c0
00000050: e250 7dd2 83ff cdbf 68b3 30ec 1472 9fbf
00000060: f3c8 f90b 7fcd f53f 1a6e 6afb dd20 f33f
00000070: 882b 89ce c6cb e63f 1a3c 8fc5 8602 e03f
00000080: f398 f0cd 1d42 f2bf 6fc7 a123 2270 0fc0
00000090: 13e1 046e f12c ec3f 6f67 51cb 999a 00c0
000000a0: c79e 3142 d483 debf f658 a41b 2e80 f3bf
000000b0: 301e 808a 6698 11c0 2792 27ac 5a3e f03f
000000c0: 68b8 b97e b686 0ec0 f64f 027d f339 f73f
000000d0: 84ed 3cf7 14cd d5bf 9e8e 059e 044a da3f
000000e0: e21a 9418 af8a f4bf f625 db73 2722 0ec0
000000f0: 6ffc ccd4 9a1e e23f 4b22 e688 2a57 b23f
00000100: 4989 2339 3cb5 da3f ea3d eee6 7f36 fbbf
00000110: 48e6 888d 807e 763f 982c 9f23 dab5 01c0
00000120: 00e2 545f e9c0 cb3f 2abc a57e dfa5 d2bf
00000130: dea5 72fb 0e8e e63f cd6d b3bb 2bf1 00c0
00000140: d50c 4f13 a23d ca3f 0d07 3a16 fac8 d53f
00000150: 2121 765f c596 d33f 29d5 ae79 a644 0cc0
00000160: b7a0 5f29 b8e3 05c0 bcaa 38f3 fd3e e33f
00000170: aca6 7418 ac1e cb3f 960b eb0f a32e 803f
00000180: e7ad 5d4f ca48 c53f a4ad 90c2 0c87 f8bf
00000190: bb5d f78f 4a7d 10c0 8fb5 ef16 9bfe 09c0
000001a0: d484 a313 f7fc e23f bc53 2feb 078f eabf
000001b0: ef30 7f26 25e4 c8bf d1bd 8c9b 1f54 0bc0
000001c0: d2e0 4040 f74c d53f 10d7 0081 0250 01c0
000001d0: 36be 00fe 2483 d4bf f2c1 f2af ab3e 0dc0
000001e0: 389c 38e1 f96f f1bf 2b2a 5356 a8fe fdbf
000001f0: 6ff2 8d52 2411 f7bf fde2 6174 003c e3bf
00000200: 4fd9 4c40 1675 00c0 d77a 0704 1a77 d63f
00000210: 2a53 1caa 09bb 02c0 ddb2 7a49 1fd2 eb3f
00000220: 906a 0938 fb3e fdbf 0c5a ee97 98c6 f5bf
00000230: e237 33bc 1559 ea3f 370e f73e 4651 f2bf
00000240: b264 1087 fedf b93f e9bb e125 3604 d8bf
00000250: 1f60 4731 385b 00c0 4510 464d 1122 d83f
00000260: 219a 3a3e 1d02 d93f fa0c 2ff1 3e4b c03f
00000270: f55d 1446 c7ab 10c0 6e4c beb9 b30e ffbf
00000280: 7ba9 12bd 3898 f2bf 1405 6dc0 9a27 e8bf
00000290: 31d3 c98f bbaf e63f e40a bdef 3851 e23f
000002a0: 0a07 edb0 6224 e5bf b83b b3e5 e28a cc3f
000002b0: c4ab 1ed8 b102 ddbf be0e b11b 3e27 febf
000002c0: 8112 1489 2dfd d73f f8ea 8bce a636 fcbf
000002d0: bcdb 9a92 1ae3 e7bf f4e3 4f38 d169 efbf
000002e0: cbe9 4009 e061 10c0 1a0e 454b 42a8 eebf
000002f0: e980 caa7 d5ee 05c0 4bfc 2de6 21e9 c2bf
00000300: dcb2 fccd 3484 0ac0 1ca9 11a1 d5d7 fbbf
00000310: 9ddb 30d1 f337 13c0 2de4 723a 8e99 ecbf
00000320: fdff 45b3 1700 ebbf 84d9 b35a 7d4f 0ac0
00000330: 895c 9ce7 205e 00c0 4f1c 6e68 11f4 05c0
00000340: 954c 3366 e680 c4bf 09c8 2269 6e27 f4bf
00000350: 2307 4514 27f1 e63f 4472 3f59 3ea1 0cc0
00000360: d972 a0dd 9baf 02c0 d530 968c 8e2e 0bc0
00000370: 8147 d4c7 bc04 e03f a914 e5b4 e2a3 f4bf
00000380: ffc8 4ec1 8c72 f33f 39b2 ccfc bb75 0dc0
00000390: f2e7 d6a3 002d c63f 9f9b 828c a423 b1bf
000003a0: 3de4 eb96 a7d8 06c0 f326 1266 4104 0540
000003b0: b94f 53c3 bbd4 fabf 1d67 ab9b 329d dc3f
000003c0: 8261 4c8f 2e1a fabf a693 1abc edba f8bf
000003d0: b076 dd41 a638 fcbf c756 87eb 094b f1bf
000003e0: 4996 fa0b 6217 e63f 0015 87cd 599a 09c0
000003f0: 55d7 2d21 9fa7 e83f f64a baed b135 f3bf
00000400: 90dc d754 c731 fdbf bd3c 8e49 bd5d febf
00000410: eef7 fbea 1dc6 0ec0 4ce8 8fc7 d224 c2bf
00000420: 6c8f 5318 7110 f9bf c0d5 73d8 0a31 13c0
00000430: 585e 9801 a52e ed3f 9337 d9e4 1411 fcbf
00000440: 1556 5c68 c1d6 f43f ed31 a082 1fa6 00c0
00000450: 8502 cb30 59a7 1140 fc42 1cca 4445 10c0
00000460: c609 92af 0093 08c0 f8d8 4a0b fb7e 10c0
00000470: 31d5 fa2b 39db c53f 2b10 ca14 f697 fcbf
00000480: 5e5d af60 d1ae e13f 2a39 bba6 be46 0bc0
00000490: e51c e027 8247 eabf 686c 47bd 3d30 edbf
000004a0: ead1 66b2 4cfe 03c0 0d6b 1f04 0db0 fb3f
000004b0: 8d5c fa98 57a1 e23f 78ed 6715 20e8 e4bf
000004c0: fa3d ef0e 6bbb d8bf 09b8 b457 5a31 05c0
000004d0: 6c82 5034 b2af 03c0 338b 376b 103a f1bf
000004e0: 0565 d44e 51aa e53f 7bd0 1e63 ff9b fbbf
000004f0: 67f7 b8b1 32be f33f c5a8 bde8 d0ae 00c0
00000500: 3946 d0a5 2176 07c0 dd1f b36c 92ca 0a40
00000510: e213 ec94 f54e 05c0 8c77 99df c42e edbf
00000520: d27c 1be4 ceea 04c0 e8e3 b894 58b3 0540
00000530: d54d 5edf a98e fabf d157 29e9 6f95 03c0
00000540: c2ce 480d f7bb d93f 70e4 6138 3618 04c0
00000550: 1f74 9120 3b47 01c0 73d7 e62f 88cc 00c0
00000560: 7227 534a c945 0640 b907 12a5 4bd9 0c40
00000570: 677e 21bf 8275 fd3f a255 d59e dfe4 f5bf
00000580: d153 b3de ab7f fabf 227a aaef d561 0ac0
00000590: 108a 7465 08ea f2bf acb9 5b9a 5183 d1bf
000005a0: 78f8 4b83 aa4c f03f 37da 3ffe b5f8 ecbf
000005b0: 1656 3168 10b5 eabf f4b5 3de8 4e21 01c0
000005c0: 937d aeb8 891d 07c0 b917 dac6 5ffe 0b40
000005d0: a381 5c59 5a6b fbbf 8c99 dfd4 8f68 fbbf
000005e0: ce92 c7ec 9083 e6bf f6fb 1eeb 0b43 d9bf
000005f0: ebbd f253 f9cb 02c0 5192 ded2 2abc 0140
00000600: 940f 7e37 eb5c 05c0 78a3 fedf 9689 d13f
00000610: eb27 8797 98c7 12c0 5de2 419f ed4e 04c0
00000620: 170a 2f5f 07b8 f9bf fd41 6da6 44a8 dabf
00000630: fcc2 92eb 4b5b 04c0 0499 b882 f2a1 c63f
00000640: 8cb0 f531 5e5b f5bf 2f7e a1da f441 02c0
00000650: 4bcf f5e1 3019 c83f 3be0 bf2e 47be 0bc0
00000660: a4c0 c145 0aab d63f f4df f285 9d2b b9bf
00000670: 6586 e29a 071f fe3f bc74 27a8 2a08 b5bf
00000680: 3952 6db3 cb88 ca3f ce38 2998 9ac0 0ec0
00000690: a612 a602 c3ae ebbf 893c 09bf 7ed7 0ac0
000006a0: 0943 86f7 ab69 d4bf 288c 6abe a685 c83f
000006b0: 9000 63d2 f4ad 0fc0 75ee b26b f275 e43f
000006c0: 05fd fb9a f25c 11c0 5aa2 a0c8 666c e93f
000006d0: b0f1 07b7 fb38 d2bf f303 b3f9 76c9 ebbf
000006e0: 8f1a c85b 506e cd3f c59f 81fa ee9d 0dc0
000006f0: eeb1 2e06 41ce e63f 3bfc 3bc0 6790 d63f
00000700: f192 ff73 3281 0b40 bb57 d31c aad9 ffbf
00000710: c29d 79ae d7ef 0440 f117 3234 2126 ecbf
00000720: 1483 b34f 73c2 ef3f 0ee0 08cd 421e b53f
00000730: e2a4 e362 3985 e7bf 83d0 f8ac 7d02 efbf
00000740: 0883 a115 63f5 f2bf 0826 4627 943d c63f
00000750: 22de d42c da09 e4bf 2f32 fd23 d870 01c0
00000760: 20d1 c949 3311 ddbf 09b4 d492 0d3d 0940
00000770: bcd6 5cc2 1b7d 0240 b0cf 0547 1664 83bf
00000780: a5b1 9790 81dc 0640 ba70 8982 d4c7 f3bf
00000790: 1672 4049 0175 f8bf c035 ab35 5be2 edbf
000007a0: 1a37 739b 4095 0c40 7425 d53d 13b5 f2bf
000007b0: e653 a756 8e5b b2bf 8b90 cd30 839f efbf
000007c0: da04 f6b7 91f9 02c0 0e0b c9ac 9895 00c0
000007d0: 0821 b61d e23a fdbf 699a 5ab1 8d2c f0bf
000007e0: 0dc7 74cd fec0 eebf 595b 5723 b998 9a3f
000007f0: f58d f283 bb5c c0bf ca8d 075b 0cc8 02c0
-3.3367240483583878 0.5907861747897064 -5.3023733969227305 -0.11639603441890212 -3.5479484329361437 -0.24579753603917373 -1.7549196822182638 1.1295251560036854
-1.1299900681071349 -2.4919622577165894 -0.23436019685562487 -0.030708624759586384 1.3626699893762264 1.1955241986205523 0.7123750718977684 0.5003084047874637
-1.1411417049908408 -3.929752615332226 0.8804862164315942 -2.075488651677851 -0.4767962118553268 -1.2187939719929637 -4.398828662938783 1.0152231907642404
-3.8157777691295003 1.451648224178823 -0.340642205661162 0.4107677024059998 -1.2838583908175498 -3.766676812291503 0.5662359386696049 0.07164254991779122
0.41731172161066304 -1.7008055706718275 0.0054917356106272755 -2.213794973654853 0.21682469515668856 -0.2913740860739745 0.7048411284533207 -2.117759195721851
0.20500589316188803 0.340391656594975 0.3060773308029799 -3.533520651481599 -2.736191104155377 0.6014394522111028 0.21187354272961068 0.007901452945025682
0.16628388285913262 -1.532971153278461 -4.122354745362311 -3.2493192474273154 0.5933795341080903 -0.8299598306135674 -0.19446243648270164 -3.4160759117437256
0.3328226211047084 -2.1640672758466124 -0.32050442509623467 -3.6556009050329914 -1.0898379132938896 -1.8746722576203279 -1.441685030439796 -0.6010744355290566
-2.0571713469936763 0.35101938622930845 -2.3413270273107587 0.8693996844427506 -1.8278762997566993 -1.3609853682334032 0.8233746219427724 -1.144842382390278
0.101074130987757 -0.37525705050842234 -2.0445407724291864 0.3770793203950727 0.39075404240648665 0.1272963216452821 -4.1677523565226595 -1.9410893684005504
-1.1621634851131535 -0.7548345335309556 0.7089517410628102 0.5724148447410156 -0.6606915908416522 0.2229884740431467 -0.4532894716782574 -1.8845807153419822
0.3748277510315248 -1.7633426731323976 -0.7464726317765478 -0.9816671466679723 -4.095581192576399 -0.9580394239532695 -2.741618452899378 -0.14773963679542343
-3.314553841852428 -1.740193967033128 -4.804641026122138 -0.8937445775583278 -0.8437613011774371 -3.2888133131156696 -2.0459611982910855 -2.7441738279917796
-0.1601837157273606 -1.2596267802114218 0.7169375797168168 -3.5787322018134393 -2.3357465090360674 -3.397732828458269 0.5005782988466622 -1.2900111261563245
1.2154662657817992 -3.6824874639480893 0.17324836730932663 -0.06695011549400796 -2.855788401674117 2.6270778631486507 -1.6769368772411168 0.44709458543876385
-1.6313920590965556 -1.545636877804307 -1.7638304303031127 -1.080820007356509 0.6903543695413613 -3.200366597828747 0.7704616210964824 -1.200609139083722
-1.8246529878795492 -1.897885596586817 -3.846736751379459 -0.1417487596916679 -1.5665141058206826 -4.797892934865956 0.9119439154773756 -1.7541703166384408
1.3024305416669268 -2.0811147885453836 4.413426172629106 -4.067645223593669 -3.071778651851875 -4.124004532283145 0.17075266501857692 -1.7870999157030478
0.552590073430945 -3.4095433259855286 -0.821229055291863 -0.9121388146262577 -2.499169725191895 1.730481163124469 0.5821950900889462 -0.6533356111607835
-0.3864390989155876 -2.649098096087077 -2.4607891165799654 -1.0766758144533923 0.6770407237665103 -1.7255853530778313 1.2339350645338187 -2.0853594000701343
-2.9326813654122614 3.348912095276303 -2.663554347471732 -0.9119591109444953 -2.6146524258507293 2.7125712984966306 -1.6598299718215135 -2.447967359136762
0.40209747597985424 -2.511822166907727 -2.159780744971172 -2.0998691313097253 2.784075337088262 3.6061013122680063 1.8411891428039782 -1.3683773235728514
-1.656169767307109 -3.297771332159088 -1.1821369135947215 -0.27364006113102834 1.0187173012523356 -0.90536021860209 -0.8346025500310954 -2.141263784774077
-2.889422838997868 3.4992061171824074 -1.7137092104604583 -1.7130277934425946 -0.7035603165246245 -0.3947171970466451 -2.349596649022478 2.216878554742188
-2.6703705153794974 0.274022787804419 -4.694918029426826 -2.538539165685775 -1.6074289053073068 -0.41652027371040373 -2.5445784000552276 0.17681723959794493
-1.3348066283752216 -2.2822053032430385 0.1882687667199384 -3.467909207563961 0.35418946087066616 -0.0983217670462862 1.882575612086293 -0.08215586285901372
0.2072996736630033 -3.844044865377419 -0.8650832225544789 -3.355222218007445 -0.3189496915083941 0.19157871530214376 -3.9599396168196748 0.6393978217597139
-4.340769216184758 0.7944826048379341 -0.2847279822742861 -0.8683428646983188 0.2299290130760778 -3.7021159716423164 0.7126774903059052 0.35256379864580695
3.4380845129365913 -1.9906407476423584 2.617110598646577 -0.8796545047232468 0.992486625353282 0.08249299531678408 -0.7350127154760708 -0.9690540674551048
-1.184908947463727 0.1737542335288682 -0.6262026668181913 -2.1800997554439827 -0.4541748257245377 3.1548110457574734 2.3110881027776866 -0.00946824459308701
2.857669000272113 -1.236286649617837 -1.5285656796833158 -0.9338813827723058 3.5728771347556973 -1.1692078032814068 -0.07170953383986464 -0.9882217362578712
-2.371859967418101 -2.073045110593177 -1.8268757973292526 -1.0108773162734457 -0.9610589993301076 0.025973217756326637 -0.12782997076747873 -2.3476798164062744

bias_1 f8 [1, 32]
00000000: a5de 12c7 5218 e6bf b6ef b350 6976 eabf
00000010: b6a8 ffec 4ec9 b83f 9519 5d72 9e3f f1bf
00000020: ab11 5c30 8b3f b43f 5567 4d35 644f c23f
00000030: a7cf 4b79 5b22 fbbf 3fcc bd5f bd86 e8bf
00000040: a232 9039 eb82 f9bf 1135 e849 f386 fbbf
00000050: 3a30 528f 68c8 f6bf a7b5 6177 8e2a ab3f
00000060: e94d f44f d958 f0bf f9b4 3518 4e9a e0bf
00000070: 86d8 2ec7 1907 f2bf 0c8d c9a7 3e68 f5bf
00000080: bd4b 99e6 4d8f f8bf b997 bd5e bd6c f1bf
00000090: 3341 c00f 45f0 f6bf 43d6 3e6a 3c18 f4bf
000000a0: 3532 34d9 912f e8bf 4422 b8f6 130d f6bf
000000b0: 2f34 6082 fcb1 f1bf 090c 5bd8 dba8 f5bf
000000c0: 0be8 962a 4c19 e8bf f69b a6ac 058c eabf
000000d0: 4ce3 51fd 3a12 f9bf 705a c24c 63cc f1bf
000000e0: 545b e40c 1f3f fabf 033b 81f4 9769 ebbf
000000f0: 22a0 7144 34de fcbf 0834 5265 962e f8bf
-0.6904691589506525 -0.8269545150974327 0.09682172094440741 -1.0780319659548685 0.07909460001616846 0.1430478344216747 -1.6958880174761164 -0.7664477224301506
-1.5944626091542564 -1.7204468619341393 -1.4239278410414173 0.05305905539794802 -1.0216916201796897 -0.5188360665175927 -1.1267335682473756 -1.3379503778640496
-1.5349864013448802 -1.0890477848820252 -1.4336596122048604 -1.2559169912541541 -0.7558068506492136 -1.3781928670379253 -1.1059537022404233 -1.3537252856629058
-0.7530880767656084 -0.8295925495229983 -1.5669507880504225 -1.1123993872075992 -1.6404104713053203 -0.8566398406490808 -1.8042490647876623 -1.5113738973479958

weight_2 f8 [32, 10]
00000000: 0095 e897 6e78 0540 3a57 694a 70e7 03c0
00000010: aeaf 0871 a4d9 fcbf 356f be4f a811 e5bf
00000020: 50db c2d8 6934 ca3f 2643 95c4 6795 e0bf
00000030: 24bb 5f20 58c0 fdbf 9a65 db60 8c23 d6bf
00000040: fa5f bf25 5202 02c0 5a61 5d37 1be6 f93f
00000050: 06f1 c6af 91a2 0cc0 3097 07be 6e93 09c0
00000060: 599e cfc6 98c8 dabf 7642 9c91 cdfe f1bf
00000070: 9d4f 00b4 a63d f0bf 486e d4e3 9bcc e03f
00000080: ee6e 7c59 4296 0340 5fe1 f420 6c97 fbbf
00000090: 9524 29ff a3ac e13f 2682 7cd8 f781 fbbf
000000a0: e92a 64a2 d151 f43f d340 fbd6 603e 19c0
000000b0: 16fa 4d34 1ef3 03c0 0792 f804 ef52 fcbf
000000c0: 108c 6672 aa33 da3f 9067 b9c8 054c 07c0
000000d0: 4c56 bd08 57eb 04c0 8923 9652 3171 f1bf
000000e0: 06ee 6d4b 12d4 fb3f 7d38 474e b1e5 0040
000000f0: 1ed9 bc54 2484 13c0 325d c9c4 cbd8 f03f
00000100: fdda 5c10 2c1b 1dc0 c795 6009 360e f33f
00000110: 926b 0d7d c515 d43f de2b 54a1 4834 f8bf
00000120: f5d7 3380 b4a7 16c0 7f96 298e 8815 fa3f
00000130: ac68 7d37 050f 12c0 20d2 dfc2 35b0 f13f
00000140: 3b3b e1b2 ff6b f83f ddc7 5314 74f7 11c0
00000150: 60ac e7ac b3e5 fa3f 5ad3 3556 fcfd bcbf
00000160: d30c 965a 868b 04c0 451b 01d6 d639 ccbf
00000170: ac32 87f0 c818 00c0 b6a1 65cc bdf5 03c0
00000180: 61ca af4a 22c1 0240 1c01 d2cb fae3 0fc0
00000190: deb5 89d7 ebef d83f 8891 1765 db92 0bc0
000001a0: 4eb3 229f 006c c33f 6cab a23a c581 edbf
000001b0: a7be 7b14 cf22 f9bf 957f e0a1 3c78 f3bf
000001c0: 5425 6de2 16dc fc3f 51a9 c0fa db9d 13c0
000001d0: 051e d858 ee37 0140 4cd1 ee72 b548 0bc0
000001e0: 1399 3f39 8625 d4bf 1981 4c3b 10c1 04c0
000001f0: e61a ec83 b381 f7bf 5ea8 4667 6e10 ff3f
00000200: 9448 f33c 4f8d 0dc0 0f39 aa29 6962 f63f
00000210: 80d0 62ed 7cea f9bf 5ad6 1f51 8f4f ffbf
00000220: bba4 a50c 4dd0 12c0 c4a3 20ca e9a2 0ec0
00000230: 7416 0d7d 7b59 10c0 e11d eee7 364f f23f
00000240: 8530 f881 d4cf a6bf 36cd 00ec e171 04c0
00000250: 6c18 d7ba b1c5 0140 a2ec 6e85 fa55 e5bf
00000260: cc04 ff6f a540 d8bf 3e5c 86b7 a620 0fc0
00000270: b2f6 756b 484c ee3f 6f44 7d37 7ddf cbbf
00000280: 7b79 934b a49b f5bf 8d5a 01d2 08f9 f9bf
00000290: 0d0d b608 bedf b4bf 77f3 1865 f128 0b40
000002a0: c2e0 d67b ccc6 03c0 d58d a2e2 f556 ebbf
000002b0: de00 f304 f37a e8bf 430e dbfc 9ba5 03c0
000002c0: e2a4 effd e10a d8bf 8c8d 8e48 f507 00c0
000002d0: 7121 6b80 22d5 b93f 48c3 7330 0cb6 fabf
000002e0: fd1c 53b5 2478 00c0 12b1 8723 a33e 0dc0
000002f0: 06e5 85cb 4da5 07c0 348c ac39 a3db 0a40
00000300: 556f ee4a 1283 fabf af15 9edc ced6 f23f
00000310: 03a0 4483 8579 eebf 0f43 990c 2da3 03c0
00000320: 7a81 1709 31bb 03c0 4a72 f5d9 fb31 f43f
00000330: 4602 ad20 7e65 f63f a6ed 187b 098c f53f
00000340: d442 b093 86ee 0fc0 8db7 eb68 21ba d6bf
00000350: 974f 59a0 61a6 04c0 ff1f 6892 2ebf 08c0
00000360: 22c1 adb0 fea1 febf 458e 06fe c427 0bc0
00000370: 24aa e98f 67ef 12c0 9dec 86e6 c0f2 0740
00000380: a711 4a6b 1ed3 fcbf 38e6 7002 58f1 febf
00000390: bdd5 3568 fe1a 00c0 c803 2ef1 b02c f9bf
000003a0: e24e 2a34 309c 04c0 46c0 4fd6 cebb fabf
000003b0: effd 7f95 9757 0740 4eb0 44c6 5c3e 0ac0
000003c0: e0cf edee e791 01c0 3be9 01a2 ed24 0a40
000003d0: c5ff 414a 8d60 edbf 9935 ccbd a21b 01c0
000003e0: 36b0 ca5a e5f6 ddbf 409f c510 7d26 dabf
000003f0: 74e1 32a6 26c3 ff3f a9c7 86b0 de65 09c0
00000400: 0250 5f35 a636 01c0 3591 e846 ab99 f0bf
00000410: 3a01 0a72 0295 ff3f d17e bba9 337a f63f
00000420: 9ab9 5e51 4190 02c0 91b7 d210 59e6 d4bf
00000430: 8f2b fc86 f1d4 e4bf 0260 e2f5 b284 e5bf
00000440: 5b6b 92e9 9d3f fe3f 6c38 607c a5db f4bf
00000450: 96cf 18fb 974d fbbf 0511 2a74 32b9 f1bf
00000460: 3098 b7ee 355e f83f 26e2 d305 36b6 09c0
00000470: 1434 84e6 0eae f93f 3e91 4bcb a200 0dc0
00000480: 3526 3484 5b88 f73f 91b9 dff3 9b67 eebf
00000490: 3b3f 5309 d9ca f63f 304c a64e 0896 0cc0
000004a0: 6e1d 3b89 3892 0ac0 a074 cc90 d59c febf
000004b0: ba69 63dc 5f41 b4bf 4048 23e5 69d2 02c0
000004c0: 74bd 6b61 ccbb fabf d850 c549 f27e ecbf
000004d0: dece 27d6 5a16 1040 bbac 9074 47c0 e4bf
000004e0: 84c1 83d9 1742 803f 032c ef31 594d f2bf
000004f0: b99f 643b 979b d8bf 7ca1 99ea 67e7 ffbf
00000500: 2137 77f3 3f8a 0140 573f a646 2e45 05c0
00000510: 4407 48e0 b705 ff3f 747d 19ec dd36 05c0
00000520: de31 b053 32bd 04c0 1af2 6ccf ff20 d8bf
00000530: 99c7 9182 7b64 f2bf 0f7f cbe7 bdaf f53f
00000540: 640a 4642 ab1e 03c0 cace 6242 2c4e 01c0
00000550: fc0a 9729 acad 08c0 9881 05a9 b371 c73f
00000560: 7f4b 7cb3 ef23 08c0 bc62 ccb6 ffdd 00c0
00000570: f188 5f2b 6702 f1bf c157 bcf3 ff43 f53f
00000580: 67de 0469 60d9 c7bf 1270 25ca 81fe 00c0
00000590: 7fa4 6255 3b53 ea3f 3b4c b52b 2516 f13f
000005a0: 55d1 a50b 90fe febf ca45 6b8d 1057 0940
000005b0: 6a30 588e 8020 e4bf c964 368c 8568 06c0
000005c0: 9bde e44e ed22 0ac0 e195 fcfb 3fdb e7bf
000005d0: db1e 9c38 c4c7 f2bf ba27 18c4 5772 0840
000005e0: 4941 41dd ac89 f6bf 48a4 642d 9f0b 05c0
000005f0: 69e2 f3e2 d652 01c0 bac3 de24 29f6 10c0
00000600: f882 fb59 b70e 01c0 e282 4652 dcf6 f0bf
00000610: d934 a8d6 1929 14c0 5866 7595 3d26 fdbf
00000620: 8c62 1388 c763 0dc0 2880 b99b e2d7 0e40
00000630: f8b1 ed1d 5690 fdbf 88fe 66a3 22c0 fc3f
00000640: d2d7 2865 b254 0440 0923 9cba 8986 10c0
00000650: 5f8a d7f2 22bb 0ec0 9e8c 07ee c90e f6bf
00000660: 6b13 3a08 6f90 01c0 494c db8d 6d37 d93f
00000670: 1cb3 803c df76 f03f fe77 20b8 a517 f53f
00000680: 72a1 5751 0795 02c0 98c8 291a 54eb 9b3f
00000690: 3138 023c 245e 17c0 3d95 c140 007d 1dc0
000006a0: e942 0cae f214 0240 d7b1 5fd5 43e4 0140
000006b0: cf44 e1ad 62ea 13c0 91b7 2cb2 71d6 04c0
000006c0: 6e65 87e7 c26b 13c0 9b1e 7912 6c06 0340
000006d0: daa7 1806 7ba4 06c0 9b4d 8684 8d01 21c0
000006e0: af36 b5ae 21f6 ffbf 2f71 9437 6777 0bc0
000006f0: 2c39 c7b1 3139 06c0 c596 0569 0363 0740
00000700: 8648 1bb1 cc85 b3bf 2244 7a4a 9d0f eabf
00000710: c28a 035e 50eb 04c0 2c54 cbcf 2a35 01c0
00000720: 7f3f 7049 ab38 ea3f 083b 8531 431e f43f
00000730: 6c54 9191 ed89 f5bf 2331 0d28 0c7d 0cc0
00000740: a35f 37ee e580 c63f e9a9 b870 bbc3 02c0
00000750: b786 6b28 7e2c 0140 f3f2 9d12 1b56 f8bf
00000760: 54be 2385 bbd2 b83f 8a8f 1dbb 318b f43f
00000770: 103b 41e1 2b43 01c0 5eed e232 95bc 04c0
00000780: 3fda 58c1 00c7 fcbf 41fc 1990 a556 12c0
00000790: e62b b2a3 6ee9 04c0 0a6d 9b2f 3afb f33f
000007a0: f74e c5d0 7c6f 10c0 650e c071 4f97 f93f
000007b0: 5424 c318 501d f0bf 0707 0e5a 3f29 00c0
000007c0: 2215 ab95 d7a4 e63f 4d2f 77e0 9c25 10c0
000007d0: abaa 9a26 f4db 0bc0 de46 dc8b 981b e6bf
000007e0: b2df c632 3ace e43f afea 1cdc 39ba f4bf
000007f0: 36c1 370b 7481 f03f 8911 c084 fc85 ebbf
2.6838046901563075 -2.488007146205658 -1.803135339297096 -0.6584054524896376 0.20472453197518314 -0.5182379569542703 -1.859459043942203 -0.3459196992749526
-2.2511332463291156 1.6186782992063713 -3.579379437693322 -3.1969885679308376 -0.4184934560312051 -1.1247077644258332 -1.0150515586183027 0.5249766778756078
2.448368739232925 -1.7244683539739396 0.5523242934806541 -1.7192305046556924 1.269975313511788 -6.310916289410858 -2.493709953908602 -1.770247477929958
0.409403430671035 -2.9121204072552658 -2.6149120981961342 -1.0901349283251156 1.7392752596341565 2.1121545901760883 -4.87904484179151 1.0529287039733615
-7.276535278003164 1.1909695020961963 0.3138288232054772 -1.5127645780473737 -5.663774493374139 1.6302571824284369 -4.514668337849951 1.1055200207021088
1.5263669002049045 -4.491653745282716 1.6810795549488589 -0.11325051407568534 -2.568127353386083 -0.2205151123946171 -2.0121020118006836 -2.4949909180179146
2.344303687562658 -3.986318199487995 0.38964363144518 -3.4467075250451593 0.15173347254076436 -0.9220911164496619 -1.570998268140025 -1.2168546984976036
1.803732761838849 -4.904159467705839 2.152310079665542 -3.410502336419233 -0.31479030218760434 -2.594269240638948 -1.4691653397764468 1.94151153890791
-3.69399879090731 1.3990260722671939 -1.6197480461969747 -1.9569237870140541 -4.703418920145107 -3.8295474806986665 -4.087385133670626 1.1443394717951991
-0.04455436789075499 -2.5556066930527335 2.221530399026099 -0.6667454343909365 -0.3789456933701103 -3.890942987239696 0.9468118761867201 -0.21775784692229957
-1.3504984810057 -1.623299427350193 -0.08153903687166437 3.394991674255319 -2.472069709296279 -0.8543652941192997 -0.7650084587731063 -2.4558639292097566
-0.3756642322392293 -2.003885809755678 0.10090842852799199 -1.669445218340302 -2.058663765524783 -3.655584600046617 -2.955714788459434 3.3572449212820406
-1.6569998671538617 1.1774433725234805 -0.9523341716603685 -2.4546757683059535 -2.466402121572341 1.2622030748381285 1.3997784878157673 1.346688729142309
-3.9914676225820163 -0.35511050459069154 -2.5812408950095675 -3.0933505476023124 -1.9145495320809194 -3.3944187017203 -4.733793495785481 2.9935319909978504
-1.8015426817883993 -1.9339218230583253 -2.0131805554799187 -1.5734109326442525 -2.576263816395895 -1.6708515521568343 2.917769592255119 -3.280450390788281
-2.1962431589436022 3.2680313736756523 -0.9180361223552543 -2.138493998331523 -0.4681943308485218 -0.4085991538799938 1.9851442806376243 -3.1747411528712814
-2.1516842050277782 -1.0375168580877248 1.9738792853023157 1.404834425942614 -2.3204370839150217 -0.3265593208587854 -0.6509940754343563 -0.6724486162593168
1.8905314563659974 -1.3036246164733951 -1.7064437683556881 -1.1077141320866428 1.523000652779512 -3.213970227745693 1.6049946789310114 -3.625310505145676
1.4707904018599838 -0.9501476061976054 1.424523388315676 -3.5732580322742464 -3.321396896473451 -1.9132896095464176 -0.07912253504347336 -2.35274104131625
-1.67084920935653 -0.8904963913760424 4.021830888919537 -0.6484715725577169 0.007938562703629477 -1.1438838911587943 -0.3844965057382939 -1.993995586783142
2.1925047894245755 -2.658779670666188 1.93889606103808 -2.6517904706267306 -2.5923811472077736 -0.377014114917786 -1.1495318508500303 1.355405717324121
-2.3899750878929797 -2.1631703554538477 -3.0848010300845754 0.1831574034977279 -3.017547037344627 -2.108397892105442 -1.0630866712822888 1.3291015168119744
-0.18632130744821326 -2.124270991580496 0.8226601283723908 1.0679065425254197 -1.937149091242721 3.167512039982033 -0.6289675502935215 -2.8010359720325124
-3.267054191932244 -0.7455139085402004 -1.173771115429125 3.05583146284786 -1.4086121218461634 -2.6306747003878037 -2.1654489260366074 -4.240391326996297
-2.1321856527214287 -1.0602687085994877 -5.040137628571039 -1.821836074659947 -3.673720419971067 3.8554126897797865 -1.8477383774835499 1.7969080336478402
2.54135588675397 -4.131384769229734 -3.8413752529170746 -1.3786105440165453 -2.1955242769931167 0.3940080533331565 1.0290214885128028 1.318273276563104
-2.3227678637378455 0.027264894577861826 -5.841935098300426 -7.372071277442328 2.2602285001270173 2.2364575071171475 -4.978892056345287 -2.6047090454002917
-4.855235688818864 2.3781358187878374 -2.830312774302894 -8.503032819170405 -1.9975907158399584 -3.433302339761347 -2.7779268158839354 2.923346348269521
-0.07626036952868462 -0.8144060568466822 -2.6148993820982875 -2.1509605630804085 0.8194176134438605 1.257388299407184 -1.346173828719908 -3.5610583428407536
0.17580865985541747 -2.345572357783784 2.1467250020803834 -1.521021912310229 0.0969655227706821 1.2839829739759545 -2.157798538020309 -2.59208144907977
-1.798584704649002 -4.5846159473285875 -2.613980559229719 1.2488347873357406 -4.1088745708873295 1.5994409983985858 -1.0071564643169681 -2.0201403651743735
0.7076223300179303 -4.0367312500710115 -3.4823992744398615 -0.6908686381959475 0.6501742355094307 -1.2954653356706947 1.0316048086352345 -0.8601057617930091

bias_2 f8 [1, 10]
00000000: 8ed0 cfc0 0156 e9bf 914e 4daa 65e9 b6bf
00000010: bf5b 9326 2d23 ccbf 90b7 ef36 d804 ba3f
00000020: 38b3 8cb0 83ff d4bf 2fb2 22a5 edd6 b1bf
00000030: ff79 3691 37ba d6bf 0212 bc83 4c5b dcbf
00000040: 1d5d d54c 69db ec3f ba3e c538 69a9 e43f
-0.7917488828520776 -0.08949885757220445 -0.21982349761557704 0.10163642255039762 -0.3280953621022493 -0.06968579560879883 -0.35511578732430843 -0.4430724417182149
0.9017836094525681 0.6456800564573861

loss_history f4 [70]
00000000: 0800 233f cc0b 9d3e a6ae 7e3e 9257 603e
00000010: 4fa6 4d3e 16c9 413e a10b 353e 2571 303e
00000020: d4f6 283e 60b4 253e af0f 263e 1876 1e3e
00000030: a98f 203e 89cc 163e 38d6 193e a387 203e
00000040: 0efc 193e b240 1b3e 8118 163e 31ba 133e
00000050: 67ed 183e 31a7 173e 1e79 1b3e 31e3 1a3e
00000060: eab8 143e 7ae0 153e a5d1 0e3e 332d 193e
00000070: 1620 163e 2e81 163e d14f 1c3e ec0c 1a3e
00000080: f983 193e 216a 253e fdaf 1e3e 40dd 293e
00000090: 97a0 213e a084 243e 098b 1e3e 368b 253e
000000a0: a956 233e eb31 2d3e e3c4 273e 7f83 263e
000000b0: 4155 2e3e f6c5 2c3e 1e2e 263e 712d 333e
000000c0: bec8 363e c87f 313e b9dc 333e ef07 2d3e
000000d0: 4616 353e cb57 363e 7c41 313e 4b6d 413e
000000e0: bf02 3d3e 2f91 333e 8883 393e e147 3d3e
000000f0: 6671 333e cacb 3f3e 189e 3c3e 7453 4c3e
00000100: 6a1a 403e 9ad8 3d3e 68fe 433e 88d8 4e3e
00000110: 18a2 423e 0a2f 4e3e
0.6367192 0.30673063 0.2487131 0.21908405 0.20082973 0.18924364 0.17680217 0.17230661
0.16500407 0.16182089 0.1621692 0.15474737 0.15679802 0.14726461 0.15023124 0.15676741
0.15037557 0.15161398 0.14657785 0.14426495 0.14934312 0.14809872 0.15182921 0.15125729
0.14523664 0.14636412 0.1394716 0.14958648 0.14660677 0.14697716 0.15264823 0.15043992
0.1499175 0.16153766 0.15496822 0.16588306 0.15783916 0.16066217 0.15482725 0.16166386
0.15951027 0.16913573 0.163837 0.162611 0.1702471 0.16872391 0.1622853 0.17497803
0.17850015 0.17333901 0.17564668 0.16897558 0.17684278 0.17806928 0.17310137 0.18889348
0.18458079 0.17535852 0.18116581 0.18484451 0.17523727 0.18730083 0.18419683 0.1995371
0.18760076 0.18539658 0.19140017 0.20199788 0.19007146 0.20135131

accuracy_history f4 [70]
00000000: 8ca5 a042 fd22 b642 efae b942 e557 bb42
00000010: 5555 bc42 0a17 bd42 1be8 bd42 291c be42
00000020: 8988 be42 3aed be42 1fc5 be42 291c bf42
00000030: cd4c bf42 5ccf bf42 41a7 bf42 8988 bf42
00000040: 52b8 bf42 52b8 bf42 1be8 bf42 a70d c042
00000050: 44c4 bf42 85eb bf42 cd8c bf42 0ef4 bf42
00000060: f628 c042 07fa bf42 0a57 c042 b1e4 bf42
00000070: 2c39 c042 7ef1 bf42 f6e8 bf42 1111 c042
00000080: 33f3 bf42 4bbe bf42 85eb bf42 6a83 bf42
00000090: 9ad9 bf42 b5c1 bf42 e5d7 bf42 b5c1 bf42
000000a0: 7b94 bf42 6666 bf42 bc7b bf42 749a bf42
000000b0: a470 bf42 e557 bf42 4b7e bf42 c92f bf42
000000c0: 1111 bf42 263f bf42 031d bf42 7e31 bf42
000000d0: 8f02 bf42 4f1b bf42 da40 bf42 6ac3 be42
000000e0: 8ce5 be42 cd4c bf42 66e6 be42 f6e8 be42
000000f0: 77f7 be42 03dd be42 8ca5 be42 b581 be42
00000100: 9d76 be42 c92f bf42 89c8 be42 41e7 bd42
00000110: 3a6d be42 180b be42
80.32333 91.06834 92.84167 93.67167 94.166664 94.545 94.95333 95.055
95.26667 95.46333 95.385 95.555 95.65 95.905 95.82667 95.76667
95.86 95.86 95.95333 96.026665 95.88333 95.96 95.775 95.97667
96.08 95.988335 96.17 95.94666 96.111664 95.971664 95.955 96.03333
95.975 95.871666 95.96 95.75667 95.925 95.878334 95.92167 95.878334
95.79 95.7 95.74167 95.80167 95.72 95.67167 95.746666 95.59333
95.53333 95.62334 95.55666 95.596664 95.505 95.55334 95.62666 95.38167
95.44833 95.65 95.45 95.455 95.48333 95.43166 95.32333 95.253334
95.23167 95.59333 95.39167 94.95167 95.21333 95.02167

val_loss_history f4 [14]
00000000: 01d0 de3d 1e1f 003e 1526 7f3e ee55 df3d
00000010: 14be 313e b478 423e 3bab 663e 1c85 623e
00000020: 949a 913e 2c64 0f3e 412e 083e 2533 803e
00000030: 7137 be3e 9d7b 9e3e
0.10879517 0.1251187 0.24916871 0.10905062 0.17357665 0.18991357 0.22526257 0.2212109
0.28438246 0.14003056 0.13298894 0.2503902 0.37151673 0.30953684

val_accuracy_history f4 [14]
00000000: 6666 c142 6666 c142 6666 c042 3333 c342
00000010: cdcc c042 9a99 c042 cdcc c242 3333 c242
00000020: 6666 c042 cdcc c242 0000 c242 9a99 c042
00000030: cdcc be42 3333 c042
96.7 96.7 96.2 97.6 96.4 96.3 97.4 97.1
96.2 97.4 97.0 96.3 95.4 96.1
