checkpoints/model_epoch_0085.npz (npz, 387164 bytes, 10 tensors)

weight_0 f8 [784, 64]
00000000: 4b12 e521 0000 0000 7f7a 510e 0000 0000
00000010: 53cc fd0d 0000 0000 4eb4 301a 0000 0000
00000020: 3d4c 6e04 0000 0000 1108 d11d 0000 0080
00000030: c0ab ec0b 0000 0080 b5a1 761f 0000 0080
00000040: e1a6 b903 0000 0000 d8a0 b121 0000 0080
00000050: 734b f221 0000 0000 1f60 f002 0000 0080
00000060: 8d1a 0920 0000 0000 ed4b f404 0000 0000
00000070: 0cb9 1a21 0000 0080 3dc3 9208 0000 0080
00000080: d089 ce17 0000 0000 9f28 670e 0000 0080
00000090: 2127 1913 0000 0000 8bf0 9602 0000 0000
000000a0: 68d6 3a12 0000 0000 113b 4d14 0000 0080
000000b0: 712a 2714 0000 0000 9774 cf11 0000 0000
000000c0: 2194 7204 0000 0000 c148 9217 0000 0000
000000d0: 0986 800f 0000 0080 1f7e 9c06 0000 0080
000000e0: 2f7e 0a00 0000 0000 8035 ac02 0000 0000
000000f0: 19d8 c121 0000 0000 5fc6 950a 0000 0000
00000100: 226b 8b03 0000 0080 d6cb e208 0000 0000
00000110: aa54 1103 0000 0000 8eff cb1c 0000 0080
00000120: f533 4207 0000 0000 275b a30d 0000 0080
00000130: fdfe 9718 0000 0080 73d7 d321 0000 0000
00000140: 618b ea0d 0000 0080 79ec 041b 0000 0080
00000150: 70ee c10c 0000 0080 30c8 570d 0000 0000
00000160: 687b 821e 0000 0000 456c f30e 0000 0080
00000170: a32a 901e 0000 0000 5d66 6315 0000 0000
00000180: fa22 840b 0000 0080 11ac 0915 0000 0000
00000190: d2af e31f 0000 0080 7f41 8e0a 0000 0080
000001a0: ef69 e421 0000 0080 b6d9 8b03 0000 0080
000001b0: d591 4501 0000 0000 b807 5c0e 0000 0080
000001c0: 8297 980a 0000 0080 51b1 1114 0000 0000
000001d0: 2598 da22 0000 0000 f823 8323 0000 0080
000001e0: 9f02 7c01 0000 0080 1078 ad18 0000 0080
000001f0: 58bc 1802 0000 0000 f717 260d 0000 0080
00000200: a417 a708 0000 0080 6eeb 1411 0000 0000
00000210: 0cdd 2b12 0000 0080 16f1 ae08 0000 0080
00000220: cbe4 521b 0000 0080 342b 881f 0000 0080
00000230: a0a2 3403 0000 0080 209c 830a 0000 0000
00000240: f671 880b 0000 0000 b937 901a 0000 0080
00000250: 37b1 381c 0000 0000 d45e 4621 0000 0080
00000260: 26e7 0a23 0000 0080 22a7 2b16 0000 0000
00000270: 53ff 3b01 0000 0080 af93 ee1e 0000 0000
00000280: b735 fc05 0000 0000 536a 8516 0000 0000
00000290: d7db 0410 0000 0080 e7d5 1822 0000 0000
000002a0: 2e1e bd1e 0000 0080 45da 8101 0000 0080
000002b0: 4fc0 e815 0000 0080 4292 6506 0000 0080
000002c0: e702 780d 0000 0000 43fd c60e 0000 0000
000002d0: d893 a810 0000 0080 d035 5502 0000 0080
000002e0: 0b15 3708 0000 0000 26df 9614 0000 0080
000002f0: 698f b11b 0000 0000 934a 121f 0000 0000
00000300: 9938 5a21 0000 0080 60c3 6a02 0000 0000
00000310: b9cc 1221 0000 0080 41a9 f514 0000 0080
00000320: 9695 6208 0000 0080 48e3 a30a 0000 0080
00000330: e44d 9f15 0000 0000 b273 290b 0000 0080
00000340: 489f e400 0000 0080 47d1 861d 0000 0000
00000350: d5d0 361e 0000 0080 1926 1c15 0000 0000
00000360: 2033 611f 0000 0080 66af 2115 0000 0000
00000370: 339b 8b12 0000 0000 7281 1211 0000 0000
00000380: 618a ce16 0000 0080 d790 2b16 0000 0000
00000390: b527 0322 0000 0080 56b2 6c01 0000 0080
000003a0: e1bb 961e 0000 0080 064c 2b24 0000 0000
000003b0: f201 9221 0000 0000 f388 a41e 0000 0000
000003c0: 7ca5 0d04 0000 0000 e630 c11f 0000 0080
000003d0: 4551 8f0f 0000 0000 a2e5 6617 0000 0000
000003e0: 658b fd1a 0000 0000 ef9a c920 0000 0080
000003f0: 862d 8712 0000 0000 5957 8d14 0000 0080
00000400: 688c ff10 0000 0000 212c 5904 0000 0080
00000410: 0244 e10e 0000 0000 6d16 fe06 0000 0000
00000420: d793 ed01 0000 0000 df8a d008 0000 0080
00000430: f088 a721 0000 0000 ef93 c81d 0000 0080
00000440: 5f74 7d09 0000 0080 bb8e 570a 0000 0000
00000450: 2160 8201 0000 0080 2c32 0402 0000 0080
00000460: c246 890a 0000 0080 9ff3 c909 0000 0000
00000470: 90cb 3405 0000 0080 0c59 0014 0000 0000
00000480: 197f 3721 0000 0000 2e88 b21e 0000 0080
00000490: 0afb 1e1b 0000 0000 77ab 411d 0000 0000
000004a0: 33a6 ca0d 0000 0080 6601 c700 0000 0000
000004b0: 5d53 0d1e 0000 0080 1f13 940d 0000 0000
000004c0: 7902 a00b 0000 0000 bb2a 7513 0000 0080
000004d0: a5d2 1d21 0000 0000 470a 300b 0000 0000
000004e0: 49ae c411 0000 0080 94a4 9006 0000 0080
000004f0: 15a4 2f04 0000 0000 8073 b512 0000 0080
00000500: 2f72 dd01 0000 0080 1511 ac0f 0000 0080
00000510: edb4 4220 0000 0080 a672 7f1d 0000 0080
00000520: 7684 6319 0000 0000 1cad 4914 0000 0080
00000530: a001 6702 0000 0000 593c b810 0000 0080
00000540: 749c 7c14 0000 0000 bb84 d31e 0000 0000
00000550: 58a8 660d 0000 0000 73ef c702 0000 0080
00000560: d853 8f22 0000 0080 d8d3 8114 0000 0080
00000570: bdbd 9d06 0000 0000 5d87 2c07 0000 0000
00000580: 570b ef0d 0000 0080 68ce 5a0e 0000 0080
00000590: 33f2 fc0b 0000 0080 432c 6608 0000 0080
000005a0: 504e 871e 0000 0080 7f56 291c 0000 0080
000005b0: 66ff 640d 0000 0080 52c5 7804 0000 0080
000005c0: 5172 0a00 0000 0000 aa46 f211 0000 0080
000005d0: b14c b00f 0000 0080 3d05 4a00 0000 0080
000005e0: c4ef 6f20 0000 0080 9017 4e04 0000 0000
000005f0: f719 1609 0000 0000 d714 9202 0000 0000
00000600: ffb1 f622 0000 0080 efcd 4719 0000 0080
00000610: 1d5c de0f 0000 0080 d998 ab1f 0000 0080
00000620: eabb 0c02 0000 0080 a6c5 4618 0000 0080
00000630: 5fc8 8b1b 0000 0080 3d9f 8e15 0000 0080
00000640: 1f51 0708 0000 0000 c29b 3e0c 0000 0080
00000650: c01e 9600 0000 0080 d821 511a 0000 0000
00000660: dac9 2b1f 0000 0000 aa72 4405 0000 0000
00000670: 83db 690f 0000 0080 f1cb 5515 0000 0000
00000680: 56ce f515 0000 0000 01fa c117 0000 0080
00000690: c097 a118 0000 0080 8e06 f522 0000 0000
000006a0: 8020 5e1a 0000 0000 415a 1614 0000 0080
000006b0: c119 8b1a 0000 0080 7a6e dc1c 0000 0000
000006c0: e117 e111 0000 0080 3e72 570e 0000 0000
000006d0: 48bb 521d 0000 0000 7fc1 fe01 0000 0000
000006e0: de47 0d22 0000 0000 75fb 791c 0000 0000
000006f0: 3a4b c800 0000 0080 dfa0 a00d 0000 0080
00000700: a1a4 ae1c 0000 0000 8108 1f0c 0000 0080
00000710: b9b5 4604 0000 0080 5250 d805 0000 0000
00000720: 191c f300 0000 0080 eca7 4f19 0000 0000
00000730: 2dc5 2221 0000 0080 31f8 ef08 0000 0080
00000740: f0e5 3101 0000 0080 3a4f 6a04 0000 0000
00000750: fae6 a911 0000 0000 54de ca1e 0000 0000
00000760: e799 ee1c 0000 0080 3ec7 0012 0000 0080
00000770: 5252 0607 0000 0000 19c3 ef0a 0000 0080
00000780: fa1a 6b02 0000 0000 7295 9e22 0000 0000
00000790: a719 ed10 0000 0000 61f6 511a 0000 0080
000007a0: e74f 7a18 0000 0000 1ae9 380e 0000 0000
000007b0: eded 7b1d 0000 0000 907b 2307 0000 0000
000007c0: ee95 8d0f 0000 0000 281c e10d 0000 0080
000007d0: 3c2e 8315 0000 0000 df2e db18 0000 0080
000007e0: ce95 f90e 0000 0080 6ea0 6a03 0000 0000
000007f0: c0d1 061e 0000 0000 4ae7 c90c 0000 0000
2.809556444e-315 1.18684844e-315 1.159753507e-315 2.170921987e-315 3.67275264e-316 -2.47150585e-315 -9.8842694e-316 -2.60801613e-315
3.0878376e-316 -2.79289962e-315 2.813838017e-315 -2.43612303e-316 2.65544244e-315 4.10662844e-316 -2.74403781e-315 -7.1064409e-316
1.973355817e-315 -1.193868285e-315 1.583063013e-315 2.1465379e-316 1.511079343e-315 -1.682815816e-315 1.670490736e-315 1.47631e-315
3.68661355e-316 1.95384608e-315 -1.28497167e-315 -5.48013657e-316 3.397507e-318 2.21540617e-316 2.79815016e-315 8.77400346e-316
-2.93813814e-316 7.36558233e-316 2.5428291e-316 -2.38698567e-315 6.01669137e-316 -1.13046919e-315 -2.038585985e-315 2.803977573e-315
-1.153519337e-315 -2.23963669e-315 -1.05747874e-315 1.10599899e-315 2.528962715e-315 -1.23928457e-315 2.53339363e-315 1.772884437e-315
-9.545797e-316 1.74383142e-315 -2.643327183e-315 -8.7496575e-316 -2.8093435e-315 -2.93953674e-316 1.0541648e-316 -1.19026497e-315
-8.78312445e-316 1.66353793e-315 2.8890545e-315 -2.943628217e-315 -1.23043843e-316 -2.04553873e-315 1.7379012e-316 -1.08991035e-315
-7.1722666e-316 1.41591142e-315 -1.50623088e-315 -7.1976822e-316 -2.264882666e-315 -2.61369448e-315 -2.65714196e-316 8.71518677e-316
9.5597476e-316 -2.20184834e-315 2.339289327e-315 -2.7581705e-315 -2.904696387e-315 1.83772453e-315 -1.0231706e-316 2.563962834e-315
4.9611554e-316 1.866788797e-315 -1.32782059e-315 2.826317186e-315 -2.54794846e-315 -1.2493555e-316 -1.816062386e-315 -5.3023063e-316
1.11643456e-315 1.224897366e-315 -1.38083123e-315 -1.93371207e-316 6.80958797e-316 -1.70666008e-315 2.295534805e-315 2.575526836e-315
-2.76459796e-315 2.00349864e-316 -2.74147237e-315 -1.737352047e-315 -6.95044387e-316 -8.81969983e-316 1.792280936e-315 -9.25216824e-316
-7.4025777e-317 2.44747603e-315 -2.504462657e-315 1.749814003e-315 -2.601076655e-315 1.751606616e-315 1.537231518e-315 1.41512979e-315
-1.890466073e-315 1.837696335e-315 -2.819297254e-315 -1.18085434e-316 -2.53552008e-315 2.998075743e-315 2.782661126e-315 2.539988733e-315
3.3598043e-316 -2.63215776e-315 1.28976179e-315 1.939797703e-315 2.23724737e-315 -2.717772663e-315 1.535797635e-315 -1.7035742e-315
1.408991626e-315 -3.60435044e-316 1.23340541e-315 5.79614007e-316 1.59815884e-316 -7.3064783e-316 2.789631473e-315 -2.468768637e-315
-7.8663519e-316 8.57254937e-316 -1.25104857e-316 -1.6713954e-316 -8.7335345e-316 8.1140424e-316 -4.31546895e-316 1.65792184e-315
2.75335445e-315 -2.54452083e-315 2.24807368e-315 2.425086633e-315 -1.14319195e-315 6.443615e-317 -2.491028537e-315 1.12552122e-315
9.6360473e-316 -1.61285633e-315 2.74504156e-315 9.27350027e-316 -1.472821276e-315 -5.44176807e-316 3.46987545e-316 -1.55078052e-315
-1.5459266e-316 -1.29907054e-315 -2.67409377e-315 -2.445089805e-315 2.10448435e-315 -1.681664895e-315 1.99133435e-316 -1.385901216e-315
1.69815716e-315 2.55520157e-315 1.11081558e-315 -2.3051816e-316 -2.8646838e-315 -1.699846175e-315 5.4841791e-316 5.9465123e-316
-1.154976346e-315 -1.18986869e-315 -9.936967e-316 -6.96206335e-316 -2.530524634e-315 -2.334317723e-315 -1.110278104e-315 -3.7066632e-316
3.382497e-318 -1.487584595e-315 -1.3004411e-315 -2.396715e-317 -2.68873878e-315 3.5684733e-316 7.53170385e-316 2.13080745e-316
-2.898153343e-315 -2.09551113e-315 -1.315354986e-315 -2.62516584e-315 -1.69904087e-316 -2.0122864e-315 -2.283302797e-315 -1.78687938e-315
6.65492823e-316 -1.014957564e-315 -4.860752e-317 2.18142184e-315 2.58378259e-315 4.3661511e-316 -1.27763259e-315 1.76847984e-315
1.82028941e-315 -1.969288437e-315 -2.041693317e-315 2.89761271e-315 2.18562942e-315 -1.665046765e-315 -2.20019148e-315 2.39230662e-315
-1.482020976e-315 1.18878075e-315 2.43061108e-315 1.65378075e-316 2.82257584e-315 2.360429636e-315 -6.485332e-317 -1.129585997e-315
2.37748073e-315 -1.0047338e-315 -3.54457047e-316 4.8449272e-316 -7.8716718e-317 2.09805338e-315 -2.74664348e-315 -7.40823615e-316
-9.904704e-317 3.6598388e-316 1.464150627e-315 2.552400774e-315 -2.39818978e-315 -1.492280294e-315 5.8228009e-316 -9.06537383e-316
2.00460664e-316 2.869623636e-315 1.40301825e-315 -2.181690657e-315 2.0289746e-315 1.178893565e-315 2.443950563e-315 5.91722187e-316
1.289201053e-315 -1.150464544e-315 1.783174753e-315 -2.060340536e-315 -1.241279847e-315 2.83196126e-316 2.488921856e-315 1.060060026e-315

bias_0 f8 [1, 64]
00000000: d1e6 9849 a8fd babf f228 db95 161b d7bf
00000010: f1b9 b922 8b39 b2bf 7574 5c90 5197 b1bf
00000020: e199 5199 242d cdbf 5fe4 e23e 449d e1bf
00000030: 2e59 b5cc 5597 a8bf 6722 01e7 5b7a d9bf
00000040: b737 143e 8934 d4bf 3683 4daa e2d3 ac3f
00000050: 70ab f609 90b9 d03f 32b2 7b80 e48a bfbf
00000060: 68c2 081b ad0b e1bf a8ef fafa 2e5f c2bf
00000070: b47d 8c8e edc4 dbbf 79f7 41ab bef8 e1bf
00000080: abb6 32e2 baea d43f f7cf a10a cd23 d2bf
00000090: ccc0 8093 7f00 d1bf c1e5 04f9 a29b 913f
000000a0: 264b 0cfe cb1b d4bf 85d2 14f9 8030 da3f
000000b0: 5030 4a4d a501 ccbf 543f 2168 4e6d ddbf
000000c0: 37f4 505c 9441 d13f cca2 3b6d 7da8 c9bf
000000d0: dec4 ee7a 4336 aebf 0052 3df8 fdf8 d43f
000000e0: 35bb 07c8 f6c9 d23f c11a 5b21 3aea c5bf
000000f0: 9e5f 1e04 5fe4 92bf 4561 8fe5 b546 c3bf
00000100: b720 3ef9 bdaf d9bf aa71 e6ba 880b 973f
00000110: 77f0 0ac3 b5c2 c3bf ffa4 c310 dfc7 ddbf
00000120: be2c 0bb8 c12d c4bf 517f 8065 86f6 d6bf
00000130: 376f d462 9683 cbbf 6c9d d01a 69b6 bd3f
00000140: d82f 7eb4 0073 c7bf 594b 6fd9 cf83 b5bf
00000150: 449c f67a 407c 97bf c71f 8791 3d3c b6bf
00000160: 4a06 5704 e84a dbbf 6ef2 a6da fa2f 9abf
00000170: b6e9 cff1 a370 993f edff eb2d 4e10 c43f
00000180: 2f25 f874 6e9f e5bf dde5 d2dd 279b d5bf
00000190: 0d4d 960a b527 d2bf 8253 86dd 36b9 c33f
000001a0: beaf 4f16 f5d1 acbf 4793 cb11 dbcf c73f
000001b0: 881a 775a c4f3 c4bf 3262 accd 72ff e2bf
000001c0: 426c 7c05 efcd dcbf 301d 0081 51cc bd3f
000001d0: 8307 3747 ca69 ddbf f0c6 9e27 7fe5 d6bf
000001e0: 1643 fa40 f651 a73f 736d a2e8 32de a43f
000001f0: a9c3 e1d1 db43 cd3f d6ff f6fa d828 d1bf
-0.10543300434883497 -0.3610283339918531 -0.07119054410734528 -0.06871518873636424 -0.2279401539446573 -0.5504475811241142 -0.04802959560281504 -0.39809320029283984
-0.31570654928588787 0.0563040573968067 0.26132584546092286 -0.1232130826644571 -0.5326753166210212 -0.14352977042096637 -0.43389452858715605 -0.56161435555235
0.32682678308160956 -0.2834351161793615 -0.26565541653236546 0.017195269059106403 -0.31419658479096524 0.4092104370531973 -0.2188002231017685 -0.45979652565892093
0.2696276570821427 -0.20045440515175128 -0.059007748371536314 0.3276972698415932 0.29357690366935013 -0.17121054295258456 -0.018449291826612695 -0.1505954142474001
-0.40135144558054087 0.022504936606866068 -0.15437957786150822 -0.46532417904980145 -0.15764638411051196 -0.3587966910581502 -0.21495323014902976 0.11606461434040732
-0.18319710553293933 -0.08404254015412728 -0.022934920792661254 -0.08685669711041931 -0.4264469187147354 -0.025573653789012267 0.024843751558344805 0.15674760095862386
-0.675711849647234 -0.33759495413286605 -0.2836735347165849 0.15408979241024318 -0.05628934762339054 0.18603075379282982 -0.16368917863129107 -0.5936826722200463
-0.45006919418091595 0.11639890098023353 -0.4595819182833269 -0.35775736684000403 0.045547194892725226 0.04075774278427504 0.22863338230265853 -0.268118138392308

weight_1 f8 [64, 32]
00000000: 0fd5 6bdc 5410 10c0 6797 97f7 ddde e43f
00000010: 6f31 751b 73f7 17c0 7d0e 481e c085 d6bf
00000020: 811c 3dbc 253d 10c0 f22a 00d3 517c dfbf
00000030: bcff 2d8c 9f3f 01c0 85a7 e6bd bceb f63f
00000040: cb85 ca68 e607 f5bf ad65 1a8a 3ca2 06c0
00000050: 7524 dbcd 842a b7bf 3f33 1ebd d3af b7bf
00000060: cf63 5f6f 1daa f63f 27a7 73c0 36a9 f23f
00000070: cf27 45b0 dbb1 e53f fceb 323a 9bc8 e13f
00000080: 402d 441d 5b97 f5bf 64db ed4f 09ef 11c0
00000090: d980 ae2d e8c9 ec3f d2c3 a49e 3e0f 01c0
000000a0: 8de9 15d3 ebe7 e3bf d89e 3998 35db f5bf
000000b0: d978 768b a451 12c0 1df9 f00c 1d46 f13f
000000c0: 2a5c c87b 8f71 10c0 8740 bc22 b0d6 f53f
000000d0: fb4b 1735 47a7 d2bf 4c3d d63b 7f3e e13f
000000e0: 8791 8a0c 8f5e f7bf 1ff5 1145 88d3 10c0
000000f0: c563 97a9 836f d93f b006 b32e c8f6 acbf
00000100: d5cc f014 2d86 db3f 0d45 9bad c9c4 febf
00000110: 260e 0b70 7966 ccbf 73c6 d033 0353 04c0
00000120: 04ba f702 6f46 c23f 241a e35b c7a0 f6bf
00000130: b4fb 64f4 ba06 e43f d4e3 41ea 95db 02c0
00000140: 9dff 7ead ef18 cd3f b441 6d95 c90d d43f
00000150: 0b73 2da5 e26b 9f3f fb51 3acf c38b 13c0
00000160: 661f d8cc 8a2f 08c0 5e6e 15e0 e5a9 e23f
00000170: 9ce2 881c 9008 c73f 47e3 f269 f85f 81bf
00000180: 82bd 8073 c56f d03f bf9c 9654 c434 f9bf
00000190: c5e0 3d9c 9904 12c0 8eb4 4261 28ed 0cc0
000001a0: 3dcd 34ba 7f2a de3f 6e97 aa65 d840 f0bf
000001b0: 0b38 67db 5631 c5bf 6a32 49a5 70ea 0dc0
000001c0: 0e04 c91e b5f5 d73f 300b 41c4 8208 05c0
000001d0: bb7a bb48 d31e d4bf 7217 6967 2427 0fc0
000001e0: 3c01 b6c0 3526 f5bf 8449 cbb3 2f4d febf
000001f0: aa01 1429 f046 fdbf 9f4a 70ac 1654 e0bf
00000200: aa6d 2a60 742a 06c0 d99e ff03 ee08 d63f
00000210: 3a80 ebf4 9939 09c0 7227 e138 1f13 e83f
00000220: 93f9 a109 c370 03c0 428a d2d4 2199 fdbf
00000230: bacf 1c9b 9478 e83f 0a66 b3f9 da3e efbf
00000240: 783f c001 3de0 b93f 6c4a 9293 8d59 dbbf
00000250: f693 876a c3cc 03c0 f6e2 4041 3b20 d43f
00000260: 29dc ad33 3a8b e03f 6b7b e530 8c43 a93f
00000270: c5c0 9b51 053c 12c0 52a2 421a cdd8 00c0
00000280: 2904 7eb5 434a f4bf d513 6fab ba12 edbf
00000290: 460b 1b8c d94a e83f de07 8b91 f4c9 e33f
000002a0: 8d26 1715 3239 e9bf 964b e3fc 27f4 cc3f
000002b0: 4bc6 638c 86f8 debf fcc4 5880 fb4b 01c0
000002c0: 631a 8085 47fb dd3f 43c1 9b5b c853 febf
000002d0: c95c 21dd 02ee f1bf 02af b645 e1de f3bf
000002e0: 1cf6 a042 0123 12c0 f5bc 94af 7e7e f6bf
000002f0: 151a a79c e053 09c0 3827 4b76 3bef c9bf
00000300: 0a3c 1999 310e 10c0 10e3 895c fa60 ffbf
00000310: 9645 930e 181a 17c0 afda dc51 ba7c efbf
00000320: c4f7 75c9 4d3b f1bf 3e93 97a3 541e 10c0
00000330: f7c0 d114 b20f 03c0 64c9 d773 c128 09c0
00000340: 15ec 72c2 165e c5bf 0766 74cc 5270 f4bf
00000350: e76d 165f c1d4 e53f a532 1b9e 25b3 11c0
00000360: c37e de16 28c2 05c0 1f59 bb5e 2e25 0fc0
00000370: c703 04c1 ac1c de3f 12da f5f1 1730 f5bf
00000380: 3814 0b9a aa7f f43f 27a9 6a8d f3ed 0fc0
00000390: 0b36 5650 faa1 92bf d63d f734 cb52 b5bf
000003a0: 5b2e 6703 21db 08c0 c910 66fd 324d 0640
000003b0: 5e04 c440 6910 fabf 3a0f 0aee 7335 d33f
000003c0: df02 6553 21a3 febf a9a2 7f9f 594d ffbf
000003d0: cbb8 4f2e 1792 00c0 f54f cac4 d4c5 f3bf
000003e0: a11a d7a3 994a e63f 5474 4ee5 2047 0dc0
000003f0: 42dd 0f42 56a2 e83f 7924 e31f 6510 f8bf
00000400: 8db7 8695 481f 01c0 4203 ea4c 8357 01c0
00000410: 3cfd c07d c52a 12c0 d696 9ac5 f866 c9bf
00000420: 5bfa f1c3 499c 00c0 958c b69d c2d9 15c0
00000430: 62f5 ccf8 7e63 ee3f 02d1 ba43 cca9 01c0
00000440: a9d3 3d9d 4bd0 f23f e7dd d870 6287 02c0
00000450: 5938 f88c ac0c 1340 c578 41da 4b22 13c0
00000460: 750f 03aa f2cb 0ac0 cb9e 5b35 fb6a 12c0
00000470: 0806 35fd 45da c33f d43b 4eaa 815e febf
00000480: f8cc bbcc 124b e13f acaf 562c 4c72 0ec0
00000490: c608 24ed e3f7 f1bf 8a74 ed9c 2e9c f2bf
000004a0: ed50 ffb3 5bed 05c0 9554 327f 1129 fc3f
000004b0: 3560 bde2 a705 e63f 153c 1c5a 7462 f1bf
000004c0: 2e16 7932 3d4c e2bf 7e78 66bb ebdc 06c0
000004d0: 8996 b52f 4899 0bc0 0b18 c80f 3e1e f4bf
000004e0: 3317 120f 2391 e63f 4bd6 f3e6 7550 ffbf
000004f0: 4404 764f 6b87 f43f 3870 2a90 0a4e 03c0
00000500: 3047 dabb 1005 09c0 6bab 77a7 2278 0e40
00000510: e4cc 6ac2 5ff4 08c0 e641 3f0b d917 eebf
00000520: a9fd 2243 d6f3 08c0 a94f f662 6c9f 0940
00000530: f419 c6f5 d064 fbbf bcbd ae6a 5c8c 06c0
00000540: 3e94 58a8 0a12 d93f 0d77 ba45 f420 05c0
00000550: 1801 5b9e 3cfa 01c0 34f8 4abc 3259 04c0
00000560: 8054 b2aa ead1 0640 34d3 54ec 877f 0f40
00000570: a30b 022c 996d fe3f a2df a581 82b9 f6bf
00000580: 2358 a9d7 ed62 ffbf 6062 1944 a80e 0ec0
00000590: ae94 c28f 12a3 f4bf c3e9 e69e 2204 60bf
000005a0: 5ad8 33f7 e3e5 ea3f 2ad0 2683 652a f0bf
000005b0: 0d82 dc21 2fc2 eabf 0fb8 e54e 891a 03c0
000005c0: f7ab 8737 fc4a 09c0 d947 12ec 6f03 1040
000005d0: 65a1 987e a9fa ffbf 021d 159d 3ec3 febf
000005e0: 2965 89f9 0633 e8bf 7eb8 b2ec bdf8 d5bf
000005f0: fa54 cc12 b067 04c0 1c63 df1d a175 0240
00000600: bcd4 7e70 043c 09c0 2272 a616 a688 d63f
00000610: 8584 a756 7b68 16c0 33e1 68fc 05e9 07c0
00000620: b98d 6af5 5ab6 02c0 5712 1a71 7afe e1bf
00000630: 2351 1a64 5aef 06c0 0dcb a606 d36e c83f
00000640: ace3 aea0 0409 fbbf 0d72 c025 9bf0 04c0
00000650: 1651 42e9 7f0d c83f bff1 e372 cbbd 11c0
00000660: 568e 80a0 d1ac ce3f c768 7068 203d afbf
00000670: ec5f 1d99 8b6f fd3f 6b46 bf07 046a c6bf
00000680: 77d1 5288 6406 c93f dcdf 8c97 b51b 12c0
00000690: 267f 644c b476 f0bf b0b4 5f2d acb1 0cc0
000006a0: 9666 9b83 4227 ddbf 5d4a 88bf b9a6 c63f
000006b0: 84f5 f875 43f4 10c0 b131 799f 42e2 e23f
000006c0: 75ba 8b3d 8cec 12c0 9c40 36ff d23d ea3f
000006d0: aa58 6a96 e789 dcbf 282d 4971 4ab5 edbf
000006e0: 1b79 7c31 fa6e d23f 6a11 b7e8 1e88 10c0
000006f0: a73b 7e5a dd99 e73f fbb0 1089 664a d03f
00000700: 0517 1799 100f 0e40 2fe7 7416 7ab5 00c0
00000710: dcfd d2da bac0 0540 29d3 65ce d71f eebf
00000720: 53db 8b44 b64c f63f 00ee 7241 c7c0 e2bf
00000730: ecd4 2161 e551 f0bf 09b8 e28a 9bad efbf
00000740: dec9 71db c149 f2bf 1073 1bd9 c263 be3f
00000750: 307c 5cd9 31eb e5bf 1caf fc8c 40bf 05c0
00000760: 962c e3d7 291d e1bf 6613 9b38 25ce 0c40
00000770: ed63 7a01 7b99 0240 c07f 620a 9bfd a2bf
00000780: 1905 2a14 165a 0940 e7b8 e652 ce62 f4bf
00000790: 64db b4be 60e5 f8bf 5e9e 90e6 2a75 f1bf
000007a0: 962b 2e83 b930 1040 9401 d935 63ed f3bf
000007b0: 8dcf 36cc 4676 bebf dd23 a75d 3b50 f0bf
000007c0: a802 1410 12a9 05c0 b06b 3890 1b78 02c0
000007d0: 92bf 7d58 3b64 fdbf fded 5684 6612 f0bf
000007e0: e5c4 3a18 39b2 f1bf bc5f 94c6 0265 b33f
000007f0: ee75 f167 0a98 d0bf 44f2 58df b3f4 03c0
-4.015948719102439 0.6522054515632875 -5.991650036838435 -0.3519134803502551 -4.059714261274281 -0.49196286778958076 -2.1560660316026468 1.4325530450828137
-1.3144287198450566 -2.82921703236635 -0.09049253488332616 -0.09252665869844366 1.4165319777005043 1.166311980976795 0.6779612009788653 0.5557380806634451
-1.349452127763314 -4.483433960812224 0.8996468441219135 -2.132443656352259 -0.6220606920972372 -1.3660179086963833 -4.57972925100895 1.0796175485152795
-4.110898908714299 1.3649140698289857 -0.2914598482577159 0.5388790291489527 -1.4605856408971662 -4.206574515553512 0.39743129312188 -0.0565702969556815
0.4300644592760368 -1.9230438977722912 -0.22187726946695924 -2.5405334518516667 0.14277446408182481 -1.4142526234951527 0.6258215688065918 -2.357219534049799
0.22732349368561425 0.3133415183301864 0.03068498738444973 -4.8864891414018485 -3.023213959069767 0.5832394959101739 0.17994882005020407 -0.008483830197620569
0.25682197837428344 -1.575382547782098 -4.504492226864561 -3.61579967484301 0.4713439291401363 -1.0158313723890973 -0.1655682154946024 -3.7394726670229845
0.374371795715036 -2.6291556675290835 -0.31438142874496194 -3.8941124037691504 -1.3218286063930256 -1.8938443206030522 -1.8298188786139726 -0.5102647178594742
-2.770729781431972 0.34429502859573585 -3.153125680386464 0.7523342238357442 -2.430059504752714 -1.849885779702746 0.764719298319043 -0.976422774979427
0.10107785504101041 -0.4273408833625243 -2.47498210169078 0.3144672524681903 0.5169955262525764 0.04934347245101985 -4.558614039546403 -2.1058599521241286
-1.268130978540521 -0.9085362766569413 0.7591369377554222 0.6184027521742299 -0.788231888954401 0.22620105598488455 -0.48391879758773787 -2.162100794514684
0.4684618762698049 -1.895454748006231 -1.1206081998732762 -1.2419140551746186 -4.534184495043089 -1.4058825358040938 -3.165955756997628 -0.20261328960469327
-4.013861076512521 -1.9611762633123284 -5.77548239492298 -0.9839755629426089 -1.0769784802973712 -4.029619747282423 -2.3826638819228907 -3.1449002313831205
-0.1669338654954521 -1.277422712946988 0.6822211129360171 -4.424948187265419 -2.719803026833547 -3.8931548500942337 0.47050017213046796 -1.3242415858818544
1.2811685578647154 -3.991187195603874 -0.018196021226279096 -0.08329458277807275 -3.106996561609589 2.7876949116490306 -1.6290066270742254 0.3001375031092156
-1.9148267037964428 -1.956384299317657 -2.0713332765654733 -1.2357986151810085 0.6966064643864521 -3.6597307123725304 0.7698165216706132 -1.5040026898953143
-2.140275161908852 -2.1677309044756905 -4.541768994239927 -0.19845494888902832 -2.076312571355897 -5.462656463877598 0.9496455058467002 -2.2079091349970676
1.1758533613440056 -2.3161057296926972 4.7623769785405665 -4.78349247955902 -3.349583938806911 -4.604473909108218 0.15509867538098399 -1.8980728771746174
0.5404142378523877 -3.805809351344541 -1.1230201018629926 -1.1631303911192696 -2.7408975660601897 1.7600264519326505 0.688190405703614 -1.0865367431576989
-0.5718065248299291 -2.8578714981695716 -3.4498447158137577 -1.2573834053487214 0.705216912684341 -1.9571436902600847 1.2830613235421575 -2.4131060851050528
-3.1274733234394247 3.808659847583319 -3.1193232716410524 -0.940411111800185 -3.11906101656469 3.202843449727841 -1.71211334233669 -2.818535645921399
0.39172617378273233 -2.6410909125833144 -2.247185933258276 -2.5435538015726937 2.852498372618868 3.9372709716211833 1.9017574042379486 -1.4202904762623594
-1.9616526054646861 -3.757156879448573 -1.289812623560731 -0.0019550968347321353 0.8405628040479869 -1.0103507159337917 -0.8362041150431324 -2.387957207093684
-3.161613878085969 4.0033566366346 -1.9986967988171156 -1.9226671348604332 -0.7562289117587727 -0.3433070003037598 -2.550628802166668 2.3074362119481417
-3.154305342550826 0.3520903798287539 -5.602032999014345 -2.988780948591875 -2.3390406773703174 -0.5623142441768988 -2.8668716259509366 0.19088208985120794
-1.6897016789136883 -2.6174834203104695 0.18791197671510734 -4.435346408045404 0.23964901291866408 -0.06101323389903395 1.8397327405018542 -0.17511034372596454
0.19550758987828562 -4.527059905980391 -1.0289805397114349 -3.5867541832763763 -0.4555212292885725 0.1769630608765337 -4.23853859264398 0.5901196589198233
-4.731003724721281 0.8200469002349737 -0.4459170311832944 -0.9283802235235372 0.28802351791991193 -4.132930408643327 0.7375323073809924 0.2545410479094838
3.7573558769389614 -2.088611770098303 2.719106397212938 -0.9413870841222877 1.3937285115805096 -0.5860325125026407 -1.0199941438889324 -0.9899423325166491
-1.143007142262483 0.11870973396748874 -0.6849602933251671 -2.7183848394978565 -0.534809991507603 3.6006569311452266 2.324941646144444 -0.03709110738532173
3.1689874244044742 -1.2741225469904351 -1.5560004662963474 -1.0911053663675356 4.04758267373372 -1.2454559424805653 -0.11899225698181067 -1.0195878656688742
-2.7075539833170588 -2.308646322938749 -1.8369706589400931 -1.0044922990335856 -1.1060114809482056 0.07576005314001483 -0.259279824740445 -2.494483704473426

bias_1 f8 [1, 32]
00000000: 6e2d 4fa8 54c5 edbf 39be d8ce 9b56 edbf
00000010: 0ff0 9c49 62ca bf3f ed59 106d c09d f4bf
00000020: 4410 4903 0edf b83f d3fc a579 233c c33f
00000030: e523 ef2e ef53 00c0 33f2 56d3 6d94 edbf
00000040: 4922 fb46 8643 ffbf 08a7 28ea be76 00c0
00000050: ea82 10c1 c7f7 fcbf 739c 9330 77c2 b43f
00000060: 6e1b 6e94 2ac4 f4bf d3b1 22d0 1c4b e5bf
00000070: 7711 5d37 32b2 f6bf 0e4f bd1f 1968 f8bf
00000080: df49 c598 8098 fcbf 3706 a5ec 0ddd f5bf
00000090: 377d 1ec7 3907 fcbf cf0f 3077 02af f9bf
000000a0: cff1 aa6b 8a32 f1bf 7528 58cc 87ba fabf
000000b0: 8efb b2b6 a2b8 f4bf e36f d6b6 3291 fabf
000000c0: ccd5 fb6d 3de9 edbf bedb 8eca bf6c f1bf
000000d0: 595c bafa 7f7f fdbf 5d2c 7202 b696 f3bf
000000e0: ffe5 27f8 eaa7 fdbf 1caf 6227 51b7 f1bf
000000f0: fbd6 5a54 0348 02c0 44a7 992c 76b4 fcbf
-0.930338219384266 -0.9168223419164355 0.12418188378518401 -1.2885135898883349 0.09715354519090719 0.15027278365957972 -2.040983549759846 -0.9243687751509867
-1.953985478658199 -2.0579813283592365 -1.8104932347852647 0.08109230934097571 -1.297892169766523 -0.6654190125605574 -1.4185049212111076 -1.5254145850967151
-1.7872320144275518 -1.366468357461043 -1.7517640855874796 -1.6052269607325689 -1.0748390393992968 -1.670539663524804 -1.2950770508466323 -1.6604487554641245
-0.9347216747398135 -1.0890500938819367 -1.8436279100476638 -1.2242946715876066 -1.8534955686176315 -1.107255128716992 -2.2851626005384538 -1.79405801221806

weight_2 f8 [32, 10]
00000000: 261d 70f6 174a 0840 f371 b1e8 3596 06c0
00000010: c689 3b72 81fb 02c0 69fd 2c48 d0bc edbf
00000020: ecc4 89c4 ebd7 c23f 8235 ee5f 0bd9 e6bf
00000030: 3afb 644e 2615 00c0 f97d f9b5 4d93 dabf
00000040: e243 d6e5 fd65 05c0 de57 d17b 2ebe 0040
00000050: 32c8 2009 dcec 0fc0 813f 6cee 2ed9 0dc0
00000060: f780 b980 0baa dbbf bd0b dc4c 8194 f6bf
00000070: 2f00 86f1 f16b ecbf b6ee ebd6 fa0e df3f
00000080: cf28 8082 5a3c 0740 1f2b 478c 854e febf
00000090: 32ae 95c3 c934 df3f 05f4 7179 5e36 01c0
000000a0: de72 60eb 076a f43f c0a3 488e 9777 1fc0
000000b0: 6704 c717 b1e8 08c0 074b 080c daa2 ffbf
000000c0: 3115 170a e596 e73f f67c 9919 07ef 0ac0
000000d0: b5e7 4e0a 517f 0ac0 c26e 875e ca19 f4bf
000000e0: 4f51 fd11 8324 0140 028c eeb6 878e 0240
000000f0: 5369 02ef 1995 16c0 92e9 6728 2955 f13f
00000100: 66fd 1c1e 3132 21c0 8c68 5a62 57d6 f83f
00000110: dbc1 038a 1a49 b2bf 723d f809 fe16 00c0
00000120: cb4c d95c bb92 19c0 f334 39d3 adbc 0040
00000130: e701 36f1 86bf 16c0 fa30 020f f2f7 f83f
00000140: 8b08 d2e8 c72f 0040 e8f2 d6b3 e485 16c0
00000150: 84ee 04a8 7b95 0140 3f86 b4aa a9ce 953f
00000160: b9e5 58b4 9728 09c0 9bdb 6fad ba44 d3bf
00000170: 0f86 3c7e 5c2a 04c0 4ae6 c063 d47f 08c0
00000180: 6655 ce26 ce57 0540 36a6 5e35 f3b2 14c0
00000190: e6b6 a4bd 9a5e b23f dd92 d170 b147 11c0
000001a0: 4b08 5881 aa09 da3f 7904 eb3b 9032 f2bf
000001b0: da21 6eec 562e febf b2d2 3eda 0121 f4bf
000001c0: 960c 0b3d 77c8 0040 b92f da7f 658c 17c0
000001d0: 6001 7f79 e921 0640 944a aec1 9aa9 11c0
000001e0: 827c 24eb 190f d6bf b5a2 0b10 ecea 08c0
000001f0: 27bd e9ca 1dba ffbf 9d45 9a65 93a8 0240
00000200: 29fa 6378 cf40 12c0 81b7 2bf0 d269 f93f
00000210: bfa1 056f c57f 02c0 76b1 12e0 53f2 03c0
00000220: 6014 7ecd 4f5e 16c0 259b 99b7 8bdc 12c0
00000230: 7c05 32f6 0e45 11c0 5ca6 ee4f 180d f93f
00000240: 8afd 9aac 4852 c1bf decf 491e 44a3 07c0
00000250: 531a 9802 f3c7 0240 6aff a6d9 9e10 f1bf
00000260: 1e07 470b 9ae8 ddbf 5979 1922 a14f 10c0
00000270: 6e88 3fb0 84b2 ee3f 6c3a 557a 3c1f d2bf
00000280: e09f 03e6 60a4 f6bf af48 1208 0cc0 ffbf
00000290: b486 95df 3119 e4bf 350f 4d92 f5fe 1040
000002a0: 0ade 99c8 5f2d 05c0 bb04 68d3 31eb ecbf
000002b0: e7b4 fe4a 8925 f1bf 215d dda1 d577 08c0
000002c0: 7e01 e1a7 dcc6 d4bf 3c86 a7c9 2d53 02c0
000002d0: 7907 847e fdf1 b4bf 10d4 4e60 12dd fcbf
000002e0: 7866 af7e a358 00c0 fc15 5b3c 578e 11c0
000002f0: b620 b3bc 93db 0ac0 9e94 51e5 f081 0f40
00000300: 6c08 5661 2ec5 febf 906d f314 3f60 fa3f
00000310: 2911 bb1a f2a1 f1bf 4129 e6d6 050f 07c0
00000320: 4e6c ed83 caf1 09c0 6b0b ebc8 5b21 fa3f
00000330: daf5 a4ff 8e95 fc3f e378 8a81 779f fb3f
00000340: 0b8b cfa8 8ad5 12c0 ed5e c19e fc33 dfbf
00000350: 1b90 d365 4a05 09c0 09f1 9a59 b707 10c0
00000360: 9fe9 e598 776a 04c0 48a2 b321 eab8 11c0
00000370: dcd9 571b c14c 16c0 82a4 6d94 d4ca 0c40
00000380: eab3 0c6d 7654 00c0 ec29 fd2b da5f 02c0
00000390: 00f5 1293 a6ab 03c0 2fdd 545c 11e7 fcbf
000003a0: b182 ece1 bfb5 08c0 a525 9107 93e1 01c0
000003b0: ff5b 54dd d6dc 0c40 6fa5 6781 bca5 11c0
000003c0: d5ab 7b79 0302 05c0 a235 c995 c74b 1040
000003d0: f145 6d26 a83c f3bf c37a 54f0 106d 04c0
000003e0: 303c 58b9 0a62 e5bf 655c c64d aecf dcbf
000003f0: f05f afe4 540f 0240 8837 b93b 63f9 0fc0
00000400: 7d66 f56d 4a4a 03c0 a650 0c12 ec7f f8bf
00000410: 541c 1295 8f66 0440 d152 ee29 01c1 f73f
00000420: 4041 9283 aaf6 08c0 8b3d 4e5e 0cea dabf
00000430: 8601 b3c5 3c39 ebbf d532 8b1a 0117 e5bf
00000440: f867 5074 5c6c 0340 cc0f 5d40 a073 febf
00000450: e7a7 9588 d875 01c0 ef62 5b71 917f f7bf
00000460: 8e60 a3a4 8e53 fc3f 6afa a1c4 dd6d 10c0
00000470: 128b bde3 85de fd3f de08 33f1 62a6 12c0
00000480: d1ed 6b12 8b66 fc3f 10f2 bfa5 0662 f6bf
00000490: 6125 1b8e 4ad0 fa3f 5a45 a45e d6a5 11c0
000004a0: eb16 efd8 c815 11c0 dbdd 40ac f29f 05c0
000004b0: feee 5ba4 6b9b d0bf 3439 aeef ddc5 02c0
000004c0: ee71 9da8 812e fbbf 0312 107c c1ae efbf
000004d0: 7c30 4725 1c37 1140 db6c 913b 01f7 efbf
000004e0: e630 db4f f439 b7bf c137 d566 00a2 f1bf
000004f0: 0319 615d 1816 e0bf 2418 5afa f667 01c0
00000500: b4f5 78c8 fa72 0340 9c58 cf3c 1c3a 09c0
00000510: 521e a83a a821 0240 9369 d350 c07d 0cc0
00000520: 5637 d1dc 748c 08c0 a020 f5cb fc67 e7bf
00000530: 14d1 ecff c2cd fabf d238 3144 b283 fc3f
00000540: 0fd3 ab5e 4f43 06c0 278d 9187 413e 04c0
00000550: c122 fad1 a3da 0cc0 e614 e71d b28f b93f
00000560: 05cc 39f6 b3c9 0cc0 9871 fc29 fde7 04c0
00000570: 723c f88e 4ae5 f7bf a37e f3ae e417 fa3f
00000580: a8e6 e2d8 b974 c1bf a990 8504 bf76 02c0
00000590: e5a9 8650 10b9 ed3f 3a56 638d ed8a f33f
000005a0: bd82 76cd 8dd7 02c0 f8d3 444c d585 0f40
000005b0: b974 e217 83a5 f2bf 9383 337e a356 0cc0
000005c0: 9ef2 c4fb c2ce 0dc0 4bc8 e2bd f703 efbf
000005d0: d79c 51fe 9542 f9bf dfab 762c 513a 0c40
000005e0: 7665 1c48 af30 fdbf 3182 e2e1 6ffd 0ac0
000005f0: 7987 1b7b 5cb6 03c0 bf73 32b2 4821 14c0
00000600: 19ab d44a f7df 06c0 3511 96a8 b8e7 fabf
00000610: 9562 5e3e aae0 15c0 7780 bc5d c3b5 00c0
00000620: 9308 0f29 1309 10c0 b148 b0fd d2fb 1340
00000630: 23f7 6b48 693e 02c0 f1df 1f5d 5fa2 ff3f
00000640: 8aaa 9138 d1c4 0940 f8de feb8 8683 12c0
00000650: b55c dd53 578f 12c0 7f63 0d2a ebc9 f9bf
00000660: c239 6555 ca4e 04c0 2a86 b8f8 cb02 d13f
00000670: f0f3 0c25 de9a f13f 6f74 8a01 01e4 fb3f
00000680: dd7c 6b28 ab34 05c0 7ecb 01eb d033 c4bf
00000690: 5b6a cb3e 01e1 1cc0 8618 8bef a1f4 21c0
000006a0: 1985 602a ae54 0740 a206 9049 81b3 0640
000006b0: df07 b2a5 88ed 17c0 213e e515 11a9 10c0
000006c0: fd88 04fc 3296 19c0 3bde df40 6601 0840
000006d0: 9303 9e06 adef 11c0 3398 3403 10d3 25c0
000006e0: 9292 fb58 30e1 02c0 920d 4030 ac8f 0dc0
000006f0: 2822 6175 23b7 09c0 d697 b8ab 9de3 0c40
00000700: 7a1f 7911 9398 afbf 8d24 3160 897f eabf
00000710: 1039 9234 82a3 07c0 3162 c78a a6e8 05c0
00000720: 0620 bf37 55a3 ec3f cdc9 86aa ac4e f43f
00000730: 19b9 d899 32d6 fabf 2a5e 6335 0493 0ec0
00000740: 51da db95 373a c93f 6b8d 06bd 1395 06c0
00000750: 1e59 b862 2270 0440 9da1 4cdb fa83 00c0
00000760: 5123 9665 0905 c23f 3bd8 efb2 c269 f83f
00000770: 70ac 711f 9840 04c0 2e48 65ae d862 0ac0
00000780: 3575 7034 2354 ffbf 28ab b54e 3826 16c0
00000790: ac23 f5d1 0713 09c0 76ea 5d7d e72f f63f
000007a0: bcc6 30a6 3035 14c0 6ba5 d128 e4c4 fd3f
000007b0: 76a1 6813 0cc7 f2bf 910c 9617 7c93 03c0
000007c0: fc6a ad9f 5605 ec3f 06ee 0959 5e86 15c0
000007d0: 5b66 5409 466b 0fc0 adf7 c1d4 aa54 f3bf
000007e0: 92b8 b948 314d e33f 06ae b443 e715 fabf
000007f0: 95c5 b836 2f5d f43f 6dce eca1 f8bd ebbf
3.0361785176243243 -2.82334501067657 -2.37280549282261 -0.9292985353167015 0.1472143850001325 -0.7139946817057281 -2.0103269695822776 -0.41524069567637373
-2.6748006778729954 2.0928620980512127 -3.9906540597085263 -3.7310465456757247 -0.43225371905101845 -1.4112561228109677 -0.8881768910650915 0.48528929699362366
2.9044695086823604 -1.894170330010361 0.48759693241183577 -2.1515473831082113 1.2758864588169483 -7.866789076980183 -3.1136190278635243 -1.9772587270751403
0.7371697613786293 -3.366712760922037 -3.3121662907915046 -1.2562965099850065 2.1428281217032814 2.319594792513727 -5.645606741449529 1.0832912042957088
-8.598030987776564 1.5523294298095918 -0.07142797345637268 -2.0112267283326952 -6.393292856944025 2.0921284200509205 -5.687038201257088 1.5605335794708126
2.023330515775404 -5.630755243296086 2.1979897619729076 0.02129616836930936 -3.1448206033353157 -0.30106989800645473 -2.5206842291088445 -3.0624168198817516
2.66787367169552 -5.174755891706402 0.07175604944196898 -4.320012820044863 0.4068399680255694 -1.1373445835636444 -1.8863133655123563 -1.2580584073267969
2.097883679294294 -5.887105939571421 2.7665585986980403 -4.415629411948107 -0.3446717068017692 -3.114708066325273 -1.9829385687151644 2.3323123872475677
-4.563291436292766 1.5883359319372803 -2.312388293609018 -2.493324041910621 -5.592101298160827 -4.715376728773468 -4.3174398868590025 1.5656970140793396
-0.13532360485076494 -2.9547197691226605 2.3476314737957096 -1.0665577413601235 -0.4673218832141276 -4.077763111882029 0.959291786417692 -0.2831565088899086
-1.4151314721038872 -1.9843864741601853 -0.6280755392910664 4.24898365588506 -2.6471553489643656 -0.9037102822332125 -1.0716641358842993 -3.0585129399947992
-0.32463756937433874 -2.290614676880777 -0.08181747759593162 -1.8039726030376677 -2.0432805917051233 -4.389004653033677 -3.35721537992148 3.938447753479138
-1.923139934748657 1.6484976595300829 -1.1020375293893017 -2.882335356615983 -3.243062048609807 1.6331441734662018 1.786513327227445 1.7264323291961368
-4.708536756198337 -0.48754802230312927 -3.1275833087147595 -4.0075353623217405 -2.5519859261668922 -4.430580641354545 -5.57495539401722 3.5990382762871045
-2.0412415046216568 -2.296802848494954 -2.458813809410117 -1.80641304080002 -3.0887448931028634 -2.2351437178774227 3.6078316966409143 -4.411851903868736
-2.625983189665457 4.074003544240812 -1.202308797936322 -2.5532549644261464 -0.6682180042279295 -0.4501758346099847 2.2574861398716095 -3.9967713037394255
-2.411274775554203 -1.5312309937481046 2.5500785490180906 1.484620250504282 -3.1204424170502136 -0.42053517541440816 -0.8507369862855263 -0.6590581434662349
2.4279107176816943 -1.9032289995384302 -2.1825419111892077 -1.4686445644385306 1.7703997069529893 -4.107291290651668 1.866826905833197 -4.662486809482486
1.775034973105779 -1.3989321207619732 1.675852351285663 -4.411950567985821 -4.271273984520785 -2.7030995805068705 -0.25948611307806846 -2.346614716057184
-1.6988541208767134 -0.990082495031459 4.30381830451017 -0.9989019549788297 -0.0907280631028616 -1.1020511643323376 -0.5026971648992745 -2.1757640417809103
2.4311423932947154 -3.153374171331121 2.2664341528468777 -3.5614019693868584 -3.068582272658129 -0.7314437850518694 -1.6752347943375456 1.7821524299393343
-2.782866229647318 -2.530398425225616 -3.606757774778402 0.09984887342496371 -3.598487781180213 -2.6132758407749854 -1.4934793076279473 1.6308333238629664
-0.13637469377663547 -2.307981524778445 0.9288407871984502 1.2214179537744614 -2.355250935725364 3.940348239756073 -1.1654082234374938 -3.5423040255995573
-3.7259578389624286 -0.9692343434055685 -1.5787563261345008 3.5284751390185956 -1.8243859116394936 -3.3737485549211432 -2.464043580796837 -5.032503876046518
-2.8593583913947325 -1.6815725884817543 -5.469399427901085 -2.088751537623519 -4.00886215357072 4.99592205418064 -2.2804742486904543 1.9771417272258953
3.2211021823362147 -4.6284436135826965 -4.639981565843461 -1.6117965357463786 -2.538471858169232 0.2657957009233508 1.1003095099724725 1.7431650219143895
-2.65071708276774 -0.15783130145026897 -7.219731312909597 -8.977797971467464 2.9163478193955936 2.837648939807722 -5.981966580382475 -4.1651042386215815
-6.39667886521988 3.000683314163124 -4.484058478731543 -10.912231540842276 -2.359955496957192 -3.6951526422069003 -3.214423100497033 3.611140576907
-0.061710925944281805 -0.8280684355496689 -2.954838190758103 -2.7385989038559946 0.8949380959320485 1.2692076359932003 -1.6772943505889713 -3.8217853709172873
0.197089145825617 -2.8227915542244566 2.5547530853756504 -2.0644433148156183 0.14077870807912032 1.525820445034255 -2.5315401512685227 -3.298264849153404
-1.9580413864526467 -5.537324170911951 -3.1342922594962683 1.3866953751700328 -5.051943394400663 1.8605691523065058 -1.1735955007698897 -2.4470140307108257
0.8756516569804655 -5.381219283324304 -3.9273796776658805 -1.2081707297179307 0.6031729145450007 -1.6303475041157767 1.2727501046723309 -0.8669398462865964

bias_2 f8 [1, 10]
00000000: 9b4d f962 517f e9bf 9f94 449c b8b2 c2bf
00000010: 7cb5 6c44 380d cabf 7c08 2921 95ef b53f
00000020: 0839 4239 0312 dabf 163a 72c2 ee63 903f
00000030: 407c 8018 d1e2 dabf c124 2404 1dea d3bf
00000040: 650c 7d83 2559 e93f 7d45 47dd f3ce e63f
-0.7967917378504582 -0.14607913618343546 -0.20352843609854776 0.0856869893987397 -0.4073494013945411 0.016006212823919418 -0.420093797614701 -0.3111641445580738
0.792132145703715 0.7127627679675893

loss_history f4 [85]
00000000: 0800 233f cc0b 9d3e a6ae 7e3e 9257 603e
00000010: 4fa6 4d3e 16c9 413e a10b 353e 2571 303e
00000020: d4f6 283e 60b4 253e af0f 263e 1876 1e3e
00000030: a98f 203e 89cc 163e 38d6 193e a387 203e
00000040: 0efc 193e b240 1b3e 8118 163e 31ba 133e
00000050: 67ed 183e 31a7 173e 1e79 1b3e 31e3 1a3e
00000060: eab8 143e 7ae0 153e a5d1 0e3e 332d 193e
00000070: 1620 163e 2e81 163e d14f 1c3e ec0c 1a3e
00000080: f983 193e 216a 253e fdaf 1e3e 40dd 293e
00000090: 97a0 213e a084 243e 098b 1e3e 368b 253e
000000a0: a956 233e eb31 2d3e e3c4 273e 7f83 263e
000000b0: 4155 2e3e f6c5 2c3e 1e2e 263e 712d 333e
000000c0: bec8 363e c87f 313e b9dc 333e ef07 2d3e
000000d0: 4616 353e cb57 363e 7c41 313e 4b6d 413e
000000e0: bf02 3d3e 2f91 333e 8883 393e e147 3d3e
000000f0: 6671 333e cacb 3f3e 189e 3c3e 7453 4c3e
00000100: 6a1a 403e 9ad8 3d3e 68fe 433e 88d8 4e3e
00000110: 18a2 423e 0a2f 4e3e be8c 3e3e 0265 4e3e
00000120: dca0 553e a274 4a3e de59 533e 57b4 4e3e
00000130: dba0 583e 97a1 4e3e 1540 553e 1577 613e
00000140: 555e 5a3e 21ea 633e ff6e 533e 7e9e 5e3e
00000150: 740e 603e
0.6367192 0.30673063 0.2487131 0.21908405 0.20082973 0.18924364 0.17680217 0.17230661
0.16500407 0.16182089 0.1621692 0.15474737 0.15679802 0.14726461 0.15023124 0.15676741
0.15037557 0.15161398 0.14657785 0.14426495 0.14934312 0.14809872 0.15182921 0.15125729
0.14523664 0.14636412 0.1394716 0.14958648 0.14660677 0.14697716 0.15264823 0.15043992
0.1499175 0.16153766 0.15496822 0.16588306 0.15783916 0.16066217 0.15482725 0.16166386
0.15951027 0.16913573 0.163837 0.162611 0.1702471 0.16872391 0.1622853 0.17497803
0.17850015 0.17333901 0.17564668 0.16897558 0.17684278 0.17806928 0.17310137 0.18889348
0.18458079 0.17535852 0.18116581 0.18484451 0.17523727 0.18730083 0.18419683 0.1995371
0.18760076 0.18539658 0.19140017 0.20199788 0.19007146 0.20135131 0.18608376 0.20155719
0.20862144 0.19771054 0.2063975 0.20185982 0.21155111 0.20178829 0.20825227 0.22018082
0.21325047 0.22257282 0.2064781 0.21740147 0.21880513

accuracy_history f4 [85]
00000000: 8ca5 a042 fd22 b642 efae b942 e557 bb42
00000010: 5555 bc42 0a17 bd42 1be8 bd42 291c be42
00000020: 8988 be42 3aed be42 1fc5 be42 291c bf42
00000030: cd4c bf42 5ccf bf42 41a7 bf42 8988 bf42
00000040: 52b8 bf42 52b8 bf42 1be8 bf42 a70d c042
00000050: 44c4 bf42 85eb bf42 cd8c bf42 0ef4 bf42
00000060: f628 c042 07fa bf42 0a57 c042 b1e4 bf42
00000070: 2c39 c042 7ef1 bf42 f6e8 bf42 1111 c042
00000080: 33f3 bf42 4bbe bf42 85eb bf42 6a83 bf42
00000090: 9ad9 bf42 b5c1 bf42 e5d7 bf42 b5c1 bf42
000000a0: 7b94 bf42 6666 bf42 bc7b bf42 749a bf42
000000b0: a470 bf42 e557 bf42 4b7e bf42 c92f bf42
000000c0: 1111 bf42 263f bf42 031d bf42 7e31 bf42
000000d0: 8f02 bf42 4f1b bf42 da40 bf42 6ac3 be42
000000e0: 8ce5 be42 cd4c bf42 66e6 be42 f6e8 be42
000000f0: 77f7 be42 03dd be42 8ca5 be42 b581 be42
00000100: 9d76 be42 c92f bf42 89c8 be42 41e7 bd42
00000110: 3a6d be42 180b be42 0ad7 be42 5278 be42
00000120: 66e6 bd42 7737 be42 60ec bd42 b124 be42
00000130: abea bd42 4fdb bd42 82ce bd42 ae47 bd42
00000140: f2cb bd42 e557 bd42 33b3 bd42 4f5b bd42
00000150: 1b68 bd42
80.32333 91.06834 92.84167 93.67167 94.166664 94.545 94.95333 95.055
95.26667 95.46333 95.385 95.555 95.65 95.905 95.82667 95.76667
95.86 95.86 95.95333 96.026665 95.88333 95.96 95.775 95.97667
96.08 95.988335 96.17 95.94666 96.111664 95.971664 95.955 96.03333
95.975 95.871666 95.96 95.75667 95.925 95.878334 95.92167 95.878334
95.79 95.7 95.74167 95.80167 95.72 95.67167 95.746666 95.59333
95.53333 95.62334 95.55666 95.596664 95.505 95.55334 95.62666 95.38167
95.44833 95.65 95.45 95.455 95.48333 95.43166 95.32333 95.253334
95.23167 95.59333 95.39167 94.95167 95.21333 95.02167 95.42 95.235
94.95 95.10833 94.96167 95.07166 94.958336 94.92834 94.903336 94.64
94.89833 94.67167 94.85 94.67834 94.70333

val_loss_history f4 [17]
00000000: 01d0 de3d 1e1f 003e 1526 7f3e ee55 df3d
00000010: 14be 313e b478 423e 3bab 663e 1c85 623e
00000020: 949a 913e 2c64 0f3e 412e 083e 2533 803e
00000030: 7137 be3e 9d7b 9e3e fee0 8d3e aa57 5d3e
00000040: d959 9a3e
0.10879517 0.1251187 0.24916871 0.10905062 0.17357665 0.18991357 0.22526257 0.2212109
0.28438246 0.14003056 0.13298894 0.2503902 0.37151673 0.30953684 0.27710718 0.21615472
0.30146673

val_accuracy_history f4 [17]
00000000: 6666 c142 6666 c142 6666 c042 3333 c342
00000010: cdcc c042 9a99 c042 cdcc c242 3333 c242
00000020: 6666 c042 cdcc c242 0000 c242 9a99 c042
00000030: cdcc be42 3333 c042 3333 bf42 9a99 c042
00000040: 6666 c042
96.7 96.7 96.2 97.6 96.4 96.3 97.4 97.1
96.2 97.4 97.0 96.3 95.4 96.1 95.6 96.3
96.2
