checkpoints/model_epoch_0090.npz (npz, 386835 bytes, 10 tensors)

weight_0 f8 [784, 64]
2.809556444e-315 1.18684844e-315 1.159753507e-315 2.170921987e-315 3.67275264e-316 -2.47150585e-315 -9.8842694e-316 -2.60801613e-315
3.0878376e-316 -2.79289962e-315 2.813838017e-315 -2.43612303e-316 2.65544244e-315 4.10662844e-316 -2.74403781e-315 -7.1064409e-316
1.973355817e-315 -1.193868285e-315 1.583063013e-315 2.1465379e-316 1.511079343e-315 -1.682815816e-315 1.670490736e-315 1.47631e-315
3.68661355e-316 1.95384608e-315 -1.28497167e-315 -5.48013657e-316 3.397507e-318 2.21540617e-316 2.79815016e-315 8.77400346e-316
-2.93813814e-316 7.36558233e-316 2.5428291e-316 -2.38698567e-315 6.01669137e-316 -1.13046919e-315 -2.038585985e-315 2.803977573e-315
-1.153519337e-315 -2.23963669e-315 -1.05747874e-315 1.10599899e-315 2.528962715e-315 -1.23928457e-315 2.53339363e-315 1.772884437e-315
-9.545797e-316 1.74383142e-315 -2.643327183e-315 -8.7496575e-316 -2.8093435e-315 -2.93953674e-316 1.0541648e-316 -1.19026497e-315
-8.78312445e-316 1.66353793e-315 2.8890545e-315 -2.943628217e-315 -1.23043843e-316 -2.04553873e-315 1.7379012e-316 -1.08991035e-315
-7.1722666e-316 1.41591142e-315 -1.50623088e-315 -7.1976822e-316 -2.264882666e-315 -2.61369448e-315 -2.65714196e-316 8.71518677e-316
9.5597476e-316 -2.20184834e-315 2.339289327e-315 -2.7581705e-315 -2.904696387e-315 1.83772453e-315 -1.0231706e-316 2.563962834e-315
4.9611554e-316 1.866788797e-315 -1.32782059e-315 2.826317186e-315 -2.54794846e-315 -1.2493555e-316 -1.816062386e-315 -5.3023063e-316
1.11643456e-315 1.224897366e-315 -1.38083123e-315 -1.93371207e-316 6.80958797e-316 -1.70666008e-315 2.295534805e-315 2.575526836e-315
-2.76459796e-315 2.00349864e-316 -2.74147237e-315 -1.737352047e-315 -6.95044387e-316 -8.81969983e-316 1.792280936e-315 -9.25216824e-316
-7.4025777e-317 2.44747603e-315 -2.504462657e-315 1.749814003e-315 -2.601076655e-315 1.751606616e-315 1.537231518e-315 1.41512979e-315
-1.890466073e-315 1.837696335e-315 -2.819297254e-315 -1.18085434e-316 -2.53552008e-315 2.998075743e-315 2.782661126e-315 2.539988733e-315
3.3598043e-316 -2.63215776e-315 1.28976179e-315 1.939797703e-315 2.23724737e-315 -2.717772663e-315 1.535797635e-315 -1.7035742e-315
1.408991626e-315 -3.60435044e-316 1.23340541e-315 5.79614007e-316 1.59815884e-316 -7.3064783e-316 2.789631473e-315 -2.468768637e-315
-7.8663519e-316 8.57254937e-316 -1.25104857e-316 -1.6713954e-316 -8.7335345e-316 8.1140424e-316 -4.31546895e-316 1.65792184e-315
2.75335445e-315 -2.54452083e-315 2.24807368e-315 2.425086633e-315 -1.14319195e-315 6.443615e-317 -2.491028537e-315 1.12552122e-315
9.6360473e-316 -1.61285633e-315 2.74504156e-315 9.27350027e-316 -1.472821276e-315 -5.44176807e-316 3.46987545e-316 -1.55078052e-315
-1.5459266e-316 -1.29907054e-315 -2.67409377e-315 -2.445089805e-315 2.10448435e-315 -1.681664895e-315 1.99133435e-316 -1.385901216e-315
1.69815716e-315 2.55520157e-315 1.11081558e-315 -2.3051816e-316 -2.8646838e-315 -1.699846175e-315 5.4841791e-316 5.9465123e-316
-1.154976346e-315 -1.18986869e-315 -9.936967e-316 -6.96206335e-316 -2.530524634e-315 -2.334317723e-315 -1.110278104e-315 -3.7066632e-316
3.382497e-318 -1.487584595e-315 -1.3004411e-315 -2.396715e-317 -2.68873878e-315 3.5684733e-316 7.53170385e-316 2.13080745e-316
-2.898153343e-315 -2.09551113e-315 -1.315354986e-315 -2.62516584e-315 -1.69904087e-316 -2.0122864e-315 -2.283302797e-315 -1.78687938e-315
6.65492823e-316 -1.014957564e-315 -4.860752e-317 2.18142184e-315 2.58378259e-315 4.3661511e-316 -1.27763259e-315 1.76847984e-315
1.82028941e-315 -1.969288437e-315 -2.041693317e-315 2.89761271e-315 2.18562942e-315 -1.665046765e-315 -2.20019148e-315 2.39230662e-315
-1.482020976e-315 1.18878075e-315 2.43061108e-315 1.65378075e-316 2.82257584e-315 2.360429636e-315 -6.485332e-317 -1.129585997e-315
2.37748073e-315 -1.0047338e-315 -3.54457047e-316 4.8449272e-316 -7.8716718e-317 2.09805338e-315 -2.74664348e-315 -7.40823615e-316
-9.904704e-317 3.6598388e-316 1.464150627e-315 2.552400774e-315 -2.39818978e-315 -1.492280294e-315 5.8228009e-316 -9.06537383e-316
2.00460664e-316 2.869623636e-315 1.40301825e-315 -2.181690657e-315 2.0289746e-315 1.178893565e-315 2.443950563e-315 5.91722187e-316
1.289201053e-315 -1.150464544e-315 1.783174753e-315 -2.060340536e-315 -1.241279847e-315 2.83196126e-316 2.488921856e-315 1.060060026e-315
00000000: 4b12 e521 0000 0000 7f7a 510e 0000 0000
00000010: 53cc fd0d 0000 0000 4eb4 301a 0000 0000
00000020: 3d4c 6e04 0000 0000 1108 d11d 0000 0080
00000030: c0ab ec0b 0000 0080 b5a1 761f 0000 0080
00000040: e1a6 b903 0000 0000 d8a0 b121 0000 0080
00000050: 734b f221 0000 0000 1f60 f002 0000 0080
00000060: 8d1a 0920 0000 0000 ed4b f404 0000 0000
00000070: 0cb9 1a21 0000 0080 3dc3 9208 0000 0080
00000080: d089 ce17 0000 0000 9f28 670e 0000 0080
00000090: 2127 1913 0000 0000 8bf0 9602 0000 0000
000000a0: 68d6 3a12 0000 0000 113b 4d14 0000 0080
000000b0: 712a 2714 0000 0000 9774 cf11 0000 0000
000000c0: 2194 7204 0000 0000 c148 9217 0000 0000
000000d0: 0986 800f 0000 0080 1f7e 9c06 0000 0080
000000e0: 2f7e 0a00 0000 0000 8035 ac02 0000 0000
000000f0: 19d8 c121 0000 0000 5fc6 950a 0000 0000
00000100: 226b 8b03 0000 0080 d6cb e208 0000 0000
00000110: aa54 1103 0000 0000 8eff cb1c 0000 0080
00000120: f533 4207 0000 0000 275b a30d 0000 0080
00000130: fdfe 9718 0000 0080 73d7 d321 0000 0000
00000140: 618b ea0d 0000 0080 79ec 041b 0000 0080
00000150: 70ee c10c 0000 0080 30c8 570d 0000 0000
00000160: 687b 821e 0000 0000 456c f30e 0000 0080
00000170: a32a 901e 0000 0000 5d66 6315 0000 0000
00000180: fa22 840b 0000 0080 11ac 0915 0000 0000
00000190: d2af e31f 0000 0080 7f41 8e0a 0000 0080
000001a0: ef69 e421 0000 0080 b6d9 8b03 0000 0080
000001b0: d591 4501 0000 0000 b807 5c0e 0000 0080
000001c0: 8297 980a 0000 0080 51b1 1114 0000 0000
000001d0: 2598 da22 0000 0000 f823 8323 0000 0080
000001e0: 9f02 7c01 0000 0080 1078 ad18 0000 0080
000001f0: 58bc 1802 0000 0000 f717 260d 0000 0080
00000200: a417 a708 0000 0080 6eeb 1411 0000 0000
00000210: 0cdd 2b12 0000 0080 16f1 ae08 0000 0080
00000220: cbe4 521b 0000 0080 342b 881f 0000 0080
00000230: a0a2 3403 0000 0080 209c 830a 0000 0000
00000240: f671 880b 0000 0000 b937 901a 0000 0080
00000250: 37b1 381c 0000 0000 d45e 4621 0000 0080
00000260: 26e7 0a23 0000 0080 22a7 2b16 0000 0000
00000270: 53ff 3b01 0000 0080 af93 ee1e 0000 0000
00000280: b735 fc05 0000 0000 536a 8516 0000 0000
00000290: d7db 0410 0000 0080 e7d5 1822 0000 0000
000002a0: 2e1e bd1e 0000 0080 45da 8101 0000 0080
000002b0: 4fc0 e815 0000 0080 4292 6506 0000 0080
000002c0: e702 780d 0000 0000 43fd c60e 0000 0000
000002d0: d893 a810 0000 0080 d035 5502 0000 0080
000002e0: 0b15 3708 0000 0000 26df 9614 0000 0080
000002f0: 698f b11b 0000 0000 934a 121f 0000 0000
00000300: 9938 5a21 0000 0080 60c3 6a02 0000 0000
00000310: b9cc 1221 0000 0080 41a9 f514 0000 0080
00000320: 9695 6208 0000 0080 48e3 a30a 0000 0080
00000330: e44d 9f15 0000 0000 b273 290b 0000 0080
00000340: 489f e400 0000 0080 47d1 861d 0000 0000
00000350: d5d0 361e 0000 0080 1926 1c15 0000 0000
00000360: 2033 611f 0000 0080 66af 2115 0000 0000
00000370: 339b 8b12 0000 0000 7281 1211 0000 0000
00000380: 618a ce16 0000 0080 d790 2b16 0000 0000
00000390: b527 0322 0000 0080 56b2 6c01 0000 0080
000003a0: e1bb 961e 0000 0080 064c 2b24 0000 0000
000003b0: f201 9221 0000 0000 f388 a41e 0000 0000
000003c0: 7ca5 0d04 0000 0000 e630 c11f 0000 0080
000003d0: 4551 8f0f 0000 0000 a2e5 6617 0000 0000
000003e0: 658b fd1a 0000 0000 ef9a c920 0000 0080
000003f0: 862d 8712 0000 0000 5957 8d14 0000 0080
00000400: 688c ff10 0000 0000 212c 5904 0000 0080
00000410: 0244 e10e 0000 0000 6d16 fe06 0000 0000
00000420: d793 ed01 0000 0000 df8a d008 0000 0080
00000430: f088 a721 0000 0000 ef93 c81d 0000 0080
00000440: 5f74 7d09 0000 0080 bb8e 570a 0000 0000
00000450: 2160 8201 0000 0080 2c32 0402 0000 0080
00000460: c246 890a 0000 0080 9ff3 c909 0000 0000
00000470: 90cb 3405 0000 0080 0c59 0014 0000 0000
00000480: 197f 3721 0000 0000 2e88 b21e 0000 0080
00000490: 0afb 1e1b 0000 0000 77ab 411d 0000 0000
000004a0: 33a6 ca0d 0000 0080 6601 c700 0000 0000
000004b0: 5d53 0d1e 0000 0080 1f13 940d 0000 0000
000004c0: 7902 a00b 0000 0000 bb2a 7513 0000 0080
000004d0: a5d2 1d21 0000 0000 470a 300b 0000 0000
000004e0: 49ae c411 0000 0080 94a4 9006 0000 0080
000004f0: 15a4 2f04 0000 0000 8073 b512 0000 0080
00000500: 2f72 dd01 0000 0080 1511 ac0f 0000 0080
00000510: edb4 4220 0000 0080 a672 7f1d 0000 0080
00000520: 7684 6319 0000 0000 1cad 4914 0000 0080
00000530: a001 6702 0000 0000 593c b810 0000 0080
00000540: 749c 7c14 0000 0000 bb84 d31e 0000 0000
00000550: 58a8 660d 0000 0000 73ef c702 0000 0080
00000560: d853 8f22 0000 0080 d8d3 8114 0000 0080
00000570: bdbd 9d06 0000 0000 5d87 2c07 0000 0000
00000580: 570b ef0d 0000 0080 68ce 5a0e 0000 0080
00000590: 33f2 fc0b 0000 0080 432c 6608 0000 0080
000005a0: 504e 871e 0000 0080 7f56 291c 0000 0080
000005b0: 66ff 640d 0000 0080 52c5 7804 0000 0080
000005c0: 5172 0a00 0000 0000 aa46 f211 0000 0080
000005d0: b14c b00f 0000 0080 3d05 4a00 0000 0080
000005e0: c4ef 6f20 0000 0080 9017 4e04 0000 0000
000005f0: f719 1609 0000 0000 d714 9202 0000 0000
00000600: ffb1 f622 0000 0080 efcd 4719 0000 0080
00000610: 1d5c de0f 0000 0080 d998 ab1f 0000 0080
00000620: eabb 0c02 0000 0080 a6c5 4618 0000 0080
00000630: 5fc8 8b1b 0000 0080 3d9f 8e15 0000 0080
00000640: 1f51 0708 0000 0000 c29b 3e0c 0000 0080
00000650: c01e 9600 0000 0080 d821 511a 0000 0000
00000660: dac9 2b1f 0000 0000 aa72 4405 0000 0000
00000670: 83db 690f 0000 0080 f1cb 5515 0000 0000
00000680: 56ce f515 0000 0000 01fa c117 0000 0080
00000690: c097 a118 0000 0080 8e06 f522 0000 0000
000006a0: 8020 5e1a 0000 0000 415a 1614 0000 0080
000006b0: c119 8b1a 0000 0080 7a6e dc1c 0000 0000
000006c0: e117 e111 0000 0080 3e72 570e 0000 0000
000006d0: 48bb 521d 0000 0000 7fc1 fe01 0000 0000
000006e0: de47 0d22 0000 0000 75fb 791c 0000 0000
000006f0: 3a4b c800 0000 0080 dfa0 a00d 0000 0080
00000700: a1a4 ae1c 0000 0000 8108 1f0c 0000 0080
00000710: b9b5 4604 0000 0080 5250 d805 0000 0000
00000720: 191c f300 0000 0080 eca7 4f19 0000 0000
00000730: 2dc5 2221 0000 0080 31f8 ef08 0000 0080
00000740: f0e5 3101 0000 0080 3a4f 6a04 0000 0000
00000750: fae6 a911 0000 0000 54de ca1e 0000 0000
00000760: e799 ee1c 0000 0080 3ec7 0012 0000 0080
00000770: 5252 0607 0000 0000 19c3 ef0a 0000 0080
00000780: fa1a 6b02 0000 0000 7295 9e22 0000 0000
00000790: a719 ed10 0000 0000 61f6 511a 0000 0080
000007a0: e74f 7a18 0000 0000 1ae9 380e 0000 0000
000007b0: eded 7b1d 0000 0000 907b 2307 0000 0000
000007c0: ee95 8d0f 0000 0000 281c e10d 0000 0080
000007d0: 3c2e 8315 0000 0000 df2e db18 0000 0080
000007e0: ce95 f90e 0000 0080 6ea0 6a03 0000 0000
000007f0: c0d1 061e 0000 0000 4ae7 c90c 0000 0000

bias_0 f8 [1, 64]
-0.12941182396705372 -0.374529692740675 -0.07009528999328624 -0.08863479890007683 -0.21352885243159336 -0.5986233962359121 -0.046978944562155456 -0.42100941121103136
-0.34166280184216924 0.06175491248186131 0.2679971835261218 -0.1295678336641531 -0.5563173002847495 -0.1488551217794479 -0.42699686855261443 -0.5609404920994568
0.3389059151297007 -0.28909168847128014 -0.27813484857844606 0.026158902293995073 -0.315021900679947 0.41325538683461843 -0.20661289311121325 -0.473779786765061
0.2969695273218292 -0.18961942234279197 -0.07800328126721252 0.3417510307102534 0.30127236416271963 -0.1841766927506247 -0.027586613187794828 -0.16850941700615968
-0.44041027134303357 0.03088258439117186 -0.18748242916964028 -0.5050238203336881 -0.1657325745216545 -0.34706579787856956 -0.23045854957734083 0.10614929177302111
-0.17271298768409454 -0.09398975668570077 -0.03357862173991601 -0.09816139394462181 -0.44982744528033736 -0.025573653789012267 0.025480641633280364 0.16042114230546828
-0.6983436036249304 -0.3524929549546629 -0.30798084754488236 0.16117832428956674 -0.053178266213912785 0.2014664714617823 -0.16233431098332188 -0.6219040021152015
-0.4442199996843072 0.1354466921665855 -0.5078441374058772 -0.36123823085783663 0.04421818744910095 0.021596688275012984 0.21710323400949408 -0.2606643877898332
00000000: fbbc d30f 9190 c0bf a9ef 6c63 4bf8 d7bf
00000010: ecf2 1fd2 c3f1 b1bf ce38 902a c5b0 b6bf
00000020: ec19 f9d6 e954 cbbf a584 ae40 ec27 e3bf
00000030: d077 fdcc 9f0d a8bf 036a 1d75 d1f1 dabf
00000040: 84ff 0aa8 cddd d5bf 0631 f402 579e af3f
00000050: 228c aaa8 dd26 d13f d2bd 19c4 ad95 c0bf
00000060: 1c81 5df0 59cd e1bf fb41 f143 af0d c3bf
00000070: 8c62 7bac ea53 dbbf d137 9279 39f3 e1bf
00000080: 04cb 796f a2b0 d53f 73e4 e16c 7a80 d2bf
00000090: fc6d a11b f6cc d1bf 5b6a 6837 66c9 9a3f
000000a0: ab6c 3c9e 5129 d4bf d76e d6b8 c672 da3f
000000b0: 011c 6c91 4a72 cabf c75a 6a74 6852 debf
000000c0: 995f f079 8c01 d33f b508 d300 7345 c8bf
000000d0: 65fb 05e6 05f8 b3bf d196 11b7 3fdf d53f
000000e0: 721e d1e1 0b48 d33f de51 0614 1a93 c7bf
000000f0: b3c1 cb45 aa3f 9cbf 8203 8e71 b791 c5bf
00000100: 8469 0f90 ae2f dcbf df77 e727 af9f 9f3f
00000110: dbda ed9a 6cff c7bf ec17 01b7 2729 e0bf
00000120: e1e7 b999 b936 c5bf e7b5 dc76 5336 d6bf
00000130: c956 c26e aa7f cdbf bf9f a898 992c bb3f
00000140: 2a4c d98c 751b c6bf d9c3 1f73 b60f b8bf
00000150: 9375 6f94 3731 a1bf f4cf b8e8 1a21 b9bf
00000160: 36a0 940d f9c9 dcbf 6ef2 a6da fa2f 9abf
00000170: a6f0 fbe9 9817 9a3f 42fc e413 ae88 c43f
00000180: 5c13 5eaf d458 e6bf 8371 669c 3e8f d6bf
00000190: f7f9 ff4c f5b5 d3bf 2eea d2c7 7da1 c43f
000001a0: 5554 7e84 2e3a abbf 9b9d 1541 a7c9 c93f
000001b0: 7595 58e6 5ec7 c4bf 03c3 ca38 a3e6 e3bf
000001c0: ffe2 b7b8 196e dcbf 867a 9a34 5156 c13f
000001d0: 4ff4 3359 4240 e0bf 095b e6f4 861e d7bf
000001e0: 39ee f629 c4a3 a63f 4f52 5f37 711d 963f
000001f0: 399b f6ec 09ca cb3f 2d82 32af b9ae d0bf

weight_1 f8 [64, 32]
-4.304350248106376 0.6230707637326209 -6.239012682824199 -0.5903619808132718 -4.268581663219139 -0.5405870998554038 -2.28613599160653 1.4454892022292642
-1.4366169011128718 -2.9227378313073524 -0.012808659042663343 -0.1691646969890328 1.3619201738618358 1.2278231164614397 0.6577953851416578 0.6005454789903267
-1.4305879663288152 -4.697458306174233 0.8728236326952471 -2.1707506453790453 -0.7355823145076121 -1.3936463919680744 -4.674258298114739 1.0600922570834184
-4.185383898258418 1.298004857421975 -0.20213259293438873 0.5276922331160924 -1.499057630359856 -4.390320691658043 0.4204432150830872 -0.04435091423661806
0.36185259403977255 -2.017922764421317 -0.4415362531722013 -2.6558695611647285 0.15227792673668727 -1.8830440271954056 0.6037968881579379 -2.4531087294014844
0.1769069982184768 0.29087485494617776 -0.02102002564024883 -5.420303115552182 -3.059244647277718 0.6248534072521674 0.16279385061471685 -0.015152000843405398
0.2062461161513329 -1.6184970788497908 -4.632497423907992 -3.8058879112908017 0.4785251404952372 -1.080817678283257 -0.18712293511001363 -3.8072701449648134
0.3597567222719104 -2.806439408289019 -0.4130385216303571 -3.9943959444386836 -1.358824277919751 -1.938352261921671 -1.9108503806017012 -0.49875078078199786
-2.9361854100928406 0.33829189960215533 -3.3409136395187717 0.7928522167089624 -2.6150058301317722 -1.9942555516923106 0.7510794396438087 -0.825405613243197
0.08576740349512088 -0.481733697256474 -2.557702634603332 0.24101899333403834 0.5242084983125038 0.03213224402286687 -4.687729531284881 -2.167802576712326
-1.3378210970181128 -0.9789383761036812 0.8119559389044906 0.5603635341643779 -0.7754380492994425 0.15043052676056753 -0.475601073170054 -2.2942038338720487
0.4089139409382474 -1.9611884257829995 -1.1827933064201175 -1.3606735245392796 -4.668736487030125 -1.4654220697443103 -3.2804311358605127 -0.2250973625926172
-4.194193687364714 -2.006013630015392 -6.050555360559072 -0.9675650577816575 -1.121497560688334 -4.222476061466983 -2.4780554711405327 -3.212706104250974
-0.1983069397184737 -1.3190992195195095 0.6797037418416317 -4.645840982214484 -2.783293606613707 -4.065761793122662 0.45392279212534536 -1.3522060798656297
1.2635002503204524 -4.125248438071094 -0.08375803365481638 -0.1133100471408659 -3.1890831432011777 2.708477623310489 -1.6488158235034633 0.19057012490259098
-2.0193652447140136 -2.024244056091846 -2.126249714587834 -1.311927279041139 0.6986073924440093 -3.7563358920448215 0.731937159714525 -1.5555007392593705
-2.256188362936619 -2.2597140010021417 -4.819237510449518 -0.1931283351677929 -2.155911102029839 -5.66475651594955 0.980108855083447 -2.3893271529888187
1.1720787799173678 -2.508794118211587 4.954950976721219 -4.987874133751275 -3.422039129521551 -4.7393876383920555 0.09966627050261952 -1.9379817749806574
0.4449743419839499 -3.9686424765282298 -1.177208379668972 -1.2003065485641708 -2.8024454467130826 1.8481943840573904 0.6595117914714955 -1.2473303061115926
-0.7322521354881183 -2.967402802664274 -3.8394704528497616 -1.3212290254349297 0.763215728541852 -2.0248213194722884 1.31302244535482 -2.589470784440636
-3.1935638179109316 3.907680047259063 -3.1989921332583084 -0.9741248106349468 -3.2355596958116375 3.230996498616041 -1.7055240320897271 -2.9466796405179605
0.3555431077093494 -2.70858940496353 -2.255339212062286 -2.619064046052111 2.8459428552961206 4.072792436604784 1.9477067761143658 -1.417265155655696
-2.0454380880136847 -3.8393169434145578 -1.40328536652181 -0.0008328211944345261 0.687862673588272 -1.0243286691372664 -0.794871004423689 -2.4744405562519494
-3.2675572874413246 4.15321903418601 -2.1294564306619836 -1.9797931409363707 -0.7518137340508393 -0.33335479025009823 -2.621890888076671 2.271655977833475
-3.3343971638265386 0.3316046843702295 -5.893266407767345 -3.1196878469968192 -2.4843049012201863 -0.636097024258151 -2.9979459903899826 0.09596879166980572
-1.7928524092775795 -2.7593093331823173 0.28100694341063265 -4.735531957887808 0.24273002137409164 -0.08497035584141313 1.8907862957670336 -0.18389670803466418
0.17796037515217125 -4.753042610911029 -1.116572064095031 -3.6561486265699212 -0.4713755669567755 0.1788120841783401 -4.331842309744595 0.5380726254242674
-4.8730460776434725 0.7119303323870123 -0.5180473026058091 -1.0227198422370534 0.2496330011326795 -4.252286241258462 0.7080141823151056 0.24081085003515101
3.872712639876854 -2.110964638776663 2.7404800015944804 -0.9701121740182618 1.6029132935333295 -0.7790610427138568 -1.047405020696023 -0.9975080297760713
-1.0829189867498255 0.0824668815222226 -0.7139157837537875 -2.883823190370061 -0.5772964678192399 3.8058289819235265 2.3870302861493755 -0.03216999798724552
3.2763172942983796 -1.256931596708981 -1.5117899139412314 -1.122222210622569 4.180597638166846 -1.2433851903213378 -0.11610256037755225 -1.021286550768377
-2.745838240803513 -2.3429520967852597 -1.8640447234670936 -0.9870712650128923 -1.1197377413973304 0.07384039540148078 -0.2642565497852857 -2.5205132104200736
00000000: e295 6897 a737 11c0 4469 2a19 32f0 e33f
00000010: 933c a0bd bff4 18c0 0ea2 0ccf 3ee4 e2bf
00000020: 7253 4f12 0713 11c0 1b97 5051 7d4c e1bf
00000030: c444 b1aa 014a 02c0 aebb 2449 b920 f73f
00000040: 0692 f200 62fc f6bf f2f9 415f c461 07c0
00000050: 2f03 8d1d 6d3b 8abf 9852 9a54 30a7 c5bf
00000060: cdfc e7ce 6cca f53f 4d98 27da 29a5 f33f
00000070: a494 54e8 a80c e53f 7fc5 0027 ab37 e33f
00000080: 40ef 1635 b0e3 f6bf 175e 9d82 32ca 12c0
00000090: 9b43 b3d3 2bee eb3f 2264 ad83 b25d 01c0
000000a0: 1270 0aec e389 e7bf 780f bb28 604c f6bf
000000b0: 73d6 6dc4 70b2 12c0 5fa8 6e4c 23f6 f03f
000000c0: 4be6 d046 d5bd 10c0 0cd3 cabd a0c4 f43f
000000d0: caef 0d16 7bdf c9bf 45c7 72d2 dae2 e03f
000000e0: fa6f 93da 23fc f7bf 5b7e 363a b08f 11c0
000000f0: 53d8 a6a8 8ae8 da3f bd50 63bc 29b5 a6bf
00000100: dce8 57c8 9728 d73f 0659 b8b0 b424 00c0
00000110: ebde d745 2142 dcbf b127 5d8a 383f 05c0
00000120: 044e 9ed5 d77d c33f ebb7 1bc6 f220 febf
00000130: c413 02da 4d52 e33f ee7d 3278 f79f 03c0
00000140: e914 e475 e3a4 c63f b53e 4e91 b19d d23f
00000150: ba69 be0a 4686 95bf 6ad0 9ef0 63ae 15c0
00000160: b62a f441 5579 08c0 bc26 9e92 ccfe e33f
00000170: b8a7 30cc 6dd6 c43f ff2a bb20 0308 8fbf
00000180: d703 e6d1 4566 ca3f 5a4d 6531 5de5 f9bf
00000190: d0f4 9967 ad87 12c0 cde2 795c 7572 0ec0
000001a0: 126a 2fe9 27a0 de3f d1a4 527a 074b f1bf
000001b0: 5784 50f3 a4f3 c7bf d649 bd0c 4a75 0ec0
000001c0: fb22 2b0f 4106 d73f 9774 2681 9673 06c0
000001d0: 23ff 981f 396f dabf 0a1d 65dc 85f4 0fc0
000001e0: 7ed1 aa86 bebd f5bf 9c4c 51a9 7d03 ffbf
000001f0: 40bc 43d9 d792 febf 960a 1465 88eb dfbf
00000200: 92ba bac6 4e7d 07c0 10c0 5211 93a6 d53f
00000210: 9af2 23ee 30ba 0ac0 666f aa9c 0b5f e93f
00000220: 521f 3a2d 88eb 04c0 9928 6682 78e8 ffbf
00000230: 34fb bebf d708 e83f 330f 5a08 b969 eabf
00000240: 960a 1341 daf4 b53f 0f41 c692 b9d4 debf
00000250: 631d 84cc 2c76 04c0 19d2 0adb b5d9 ce3f
00000260: ff32 91e6 50c6 e03f 235b 7332 a373 a03f
00000270: a972 952b 3cc0 12c0 d04f 99e0 a857 01c0
00000280: 5977 3918 b767 f5bf e244 c592 7653 efbf
00000290: 8a68 6c05 8bfb e93f 656c a381 7fee e13f
000002a0: a315 ba74 63d0 e8bf 3bdb 60b8 4e41 c33f
000002b0: fd4d cd7b 3f70 debf c5b4 268a 875a 02c0
000002c0: f053 cd60 a52b da3f de81 601d 0761 ffbf
000002d0: a608 90ac b8ec f2bf 3fde 069a 51c5 f5bf
000002e0: c9be f541 c9ac 12c0 1137 8669 5e72 f7bf
000002f0: 8568 eaad 523e 0ac0 8225 6089 fdcf ccbf
00000300: cd48 c1b5 dac6 10c0 88f8 c1df 500c 00c0
00000310: 6ef4 d0c8 c433 18c0 1296 fdfe 4af6 eebf
00000320: e533 1b6d a7f1 f1bf 0693 c0c3 d0e3 10c0
00000330: 99c7 31bf 0ed3 03c0 0a57 0b42 9fb3 09c0
00000340: 6d91 542e 1f62 c9bf 273f 80c8 071b f5bf
00000350: 61b7 c50f 22c0 e53f 641c a456 5795 12c0
00000360: f792 3c70 2f44 06c0 1127 3b0f 5743 10c0
00000370: 6297 c52e 120d dd3f 999a a7d7 a2a2 f5bf
00000380: 96d3 d909 4c37 f43f cd8f 6520 4180 10c0
00000390: c81f 539f 2a71 b5bf 903a c722 e301 bdbf
000003a0: 0931 e205 3e83 09c0 e687 f050 f6aa 0540
000003b0: e731 71b3 8c61 fabf cd8f 0613 9a64 c83f
000003c0: 49ce 25f7 a827 00c0 824b 20de a631 00c0
000003d0: cc45 da35 8f02 01c0 2e64 6375 a7fd f4bf
000003e0: b44e e9e3 fd5a e63f ebfc 08d5 f90c 0ec0
000003f0: b46e 767a 076c e73f 785d 40be 54e3 f8bf
00000400: af6d 037c ac0c 02c0 a9f0 24ef e413 02c0
00000410: 0826 ac32 e646 13c0 2301 bde5 6db8 c8bf
00000420: 6d69 e251 4e3f 01c0 9239 9fee b5a8 16c0
00000430: 1f4f e33e 0d5d ef3f 0e41 ec8d 571d 03c0
00000440: 734a c1ad d5c0 f23f 6aed 90a6 0212 04c0
00000450: 1d34 39ab ded1 1340 ae1a e446 95f3 13c0
00000460: 416b 170d 5660 0bc0 9bd7 7708 22f5 12c0
00000470: c5b2 528c ba83 b93f 4593 7c2d f901 ffbf
00000480: f254 98a9 757a dc3f 3da4 71a0 c7bf 0fc0
00000490: 1016 3474 d8d5 f2bf be1f b4a3 7434 f3bf
000004a0: 87a7 b384 686b 06c0 73d6 4246 3492 fd3f
000004b0: 4749 f678 b81a e53f 7ff1 809f 10f5 f3bf
000004c0: c71f cb07 9c6e e7bf af03 3cae 3dbd 07c0
000004d0: 9495 e748 3cb7 0ec0 b94d ec0b c123 f5bf
000004e0: 8529 3c64 436c e83f 3104 1b85 d532 00c0
000004f0: 0968 dbd2 2302 f53f c1f5 6875 3cb7 04c0
00000500: 49ee dc2f 6b8c 09c0 dfac b1c1 ed42 0f40
00000510: b10b 0430 8997 09c0 fbc6 7ccb 072c efbf
00000520: 2f22 2e1f 6de2 09c0 0a5f 38b1 14d9 0940
00000530: 01e1 4591 d349 fbbf 6982 7ec6 cc92 07c0
00000540: d882 fbe0 37c1 d63f 3ae2 04ec 30ab 05c0
00000550: 2a8d e948 ef0a 02c0 d362 bfd9 d7f3 04c0
00000560: eb40 0eb0 7dc4 0640 6e74 ba19 8a4a 1040
00000570: a0bd 9994 ce29 ff3f 35d3 543a 1ead f6bf
00000580: a517 f0a4 0e5d 00c0 bd8d 37cd ebb6 0ec0
00000590: 2daa 425b db73 f6bf aacc 91e5 354a 4bbf
000005a0: 8e6c e694 f802 e63f d5cb 6475 a663 f0bf
000005b0: b33a 1151 956f e9bf 41fc 877d a7cb 03c0
000005c0: 89ef 3a13 f523 0ac0 81d0 5373 e59c 1040
000005d0: d499 ff73 2009 01c0 57ab 9292 3bad ffbf
000005e0: ead2 0dad db0e e8bf 01b4 8554 af55 d5bf
000005f0: f1c1 0fee a1f9 04c0 1f76 24f8 592c 0240
00000600: c314 946b d8ac 0ac0 b283 a4da 0239 d53f
00000610: 93e7 df6d b492 17c0 d2a3 e4e6 1ef5 08c0
00000620: 0444 803f dbdf 03c0 94b1 8825 e85a e4bf
00000630: c731 7f1b cbfb 07c0 5d90 a825 6991 b83f
00000640: a36e 0602 86af fcbf 6486 8cc5 1013 06c0
00000650: 1d72 f98b 04fc d13f f829 214a 2ff1 12c0
00000660: bd90 c7ff c611 cf3f eae5 7703 9ec0 b5bf
00000670: d5b5 8021 a940 fe3f b4eb 6c65 ed89 c7bf
00000680: 8198 a1d3 67c7 c63f e66d 299a 1d03 13c0
00000690: 5fa5 2eab 7add f1bf 0c77 e3d9 ca3f 0dc0
000006a0: aa9e 0d6d 042b debf 1279 d67a 50e3 c63f
000006b0: e920 6f78 ce53 11c0 263e 2215 e437 e13f
000006c0: e884 7dca ff7d 13c0 7c3e d41e 22c8 e63f
000006d0: 8922 cfef d793 e0bf 060e 367b 0f5d f0bf
000006e0: 1000 ef63 f9f3 cf3f 52be 0d53 5702 11c0
000006f0: d0b8 c45b 0da8 e63f b422 b6d2 e3d2 ce3f
00000700: 859d b8c3 50fb 0e40 3d77 b46d 41e3 00c0
00000710: c785 71c7 80ec 0540 4384 9baf 280b efbf
00000720: edc9 e068 88a5 f93f c765 816c 11ee e8bf
00000730: d4e3 58c4 2bc2 f0bf 0157 acf5 95eb efbf
00000740: 65ed 04dc a253 f1bf 091c 24af 8c1c b53f
00000750: 6243 eae9 65d8 e6bf b5af 90e4 1112 07c0
00000760: 9128 2c71 3679 e2bf 823e 1c77 5672 0e40
00000770: b095 ac55 a318 0340 9103 8902 9678 a0bf
00000780: 5fa5 72d7 e535 0a40 41c9 524e 641c f4bf
00000790: cccd ec9e 4a30 f8bf 0880 d746 9ff4 f1bf
000007a0: 52a5 5696 eeb8 1040 922c 8cde e7e4 f3bf
000007b0: 0daf cdbb e5b8 bdbf 3251 f690 3057 f0bf
000007c0: acdb 220a 7af7 05c0 6d4c 3eab 5dbe 02c0
000007d0: 1629 598f 20d3 fdbf b4a7 417a 1696 efbf
000007e0: 0260 361f 72ea f1bf 6f81 5f43 34e7 b23f
000007f0: e638 c54d 94e9 d0bf 181f 7fd4 022a 04c0

bias_1 f8 [1, 32]
-1.0622959014048818 -1.0109568209442554 0.15304188876430858 -1.382373096487007 0.08906230599291705 0.13216213474313834 -2.0944077041849156 -1.027705171894759
-2.0867263470045456 -2.1594137488139293 -1.8530074324568782 0.11257905044375821 -1.3909669084653742 -0.7110761012462804 -1.4950436650274292 -1.6329303990935626
-1.9489406865537438 -1.5071167083650514 -1.782994841590088 -1.7493500288253834 -1.1632715993567382 -1.786564257312201 -1.4214797520802116 -1.8024926599544469
-1.0709961887259223 -1.2666757594232325 -1.8892326248319289 -1.3343114605343578 -1.9366799125472973 -1.12557013005081 -2.3993460820550294 -1.936163379289602
00000000: 4757 b3fc 29ff f0bf b2fa 390f e12c f0bf
00000010: 4894 9469 e096 c33f db82 8440 331e f6bf
00000020: a5c1 8b8b c9cc b63f b9e3 3e57 b0ea c03f
00000030: 9db7 8fd3 58c1 00c0 207d 73fa 7a71 f0bf
00000040: 46b0 4095 9db1 00c0 3982 2db7 7a46 01c0
00000050: 045b 1a1f eba5 fdbf 9ce4 de0b fbd1 bc3f
00000060: 06d5 5a84 6641 f6bf 1b3d faaa 22c1 e6bf
00000070: 1728 f6e7 b2eb f7bf 6c04 4ca0 7b20 fabf
00000080: 4f79 e96d dc2e ffbf d6ed da68 261d f8bf
00000090: dd0e 5999 2587 fcbf a3fc b074 56fd fbbf
000000a0: 17a5 39ae c29c f2bf 23bc 1567 c495 fcbf
000000b0: 6ac5 718d 61be f6bf e58c 1c8b 02d7 fcbf
000000c0: e57e 4be6 cc22 f1bf 6ebd 15cd 4d44 f4bf
000000d0: ab07 23fd 4b3a febf dcc4 5af9 5659 f5bf
000000e0: 5d5f 7313 a4fc febf 5dc3 1ed3 5502 f2bf
000000f0: 59b2 d15b dc31 03c0 dc2f 9c73 86fa febf

weight_2 f8 [32, 10]
3.2436328933316236 -2.929158369900511 -2.6110489033055915 -1.013101940696399 0.06374787973884219 -0.847528512935381 -2.084674598904392 -0.44902548224853855
-2.8539719423911842 2.328154535786899 -4.115056164274591 -3.8296150801296456 -0.40822840552313827 -1.4833942103432913 -0.8364507455348026 0.5479764577089681
2.9894631528394333 -1.9107980542690635 0.4070945039352058 -2.238590966945573 1.3385621601784965 -8.303332642112174 -3.371445448409287 -2.179676975563451
0.8866278514766531 -3.6312659939182717 -3.6753144356851024 -1.2983985455839382 2.2505263031260463 2.3983655510547184 -5.919540532544655 1.0574216874239284
-9.057767305947626 1.6228874554409367 -0.2694655739068701 -2.102112480553405 -6.6211832421182075 2.384192770877059 -6.196530162860143 1.6960356455124828
2.3013415390015997 -5.996132238912896 2.3103419908646696 0.033539380688883375 -3.400969441114017 -0.3373886248086354 -2.699672007481124 -3.274127390247841
2.743176050580307 -5.560309718835448 -0.04877597354074404 -4.586611386948193 0.514830963431094 -1.3253348177955622 -2.0135248934928938 -1.3002040676478657
2.2352096792713394 -6.202783636703523 3.0058076326778185 -4.789941840040236 -0.318571572629939 -3.2982293799881237 -2.1708783499279884 2.4633868567006187
-4.765354445809432 1.6473493791684428 -2.51788145248512 -2.6204067586082793 -5.837033241108955 -5.010050944734872 -4.388090928311725 1.6985320727299174
-0.19314224007524755 -3.1058188334410786 2.429387083537283 -1.2223851845025093 -0.4906717088640377 -4.150629246328578 0.9881642674049467 -0.36338933802793477
-1.4128699653652839 -2.044820865223087 -0.7889293060626601 4.48090553600966 -2.6503338040930706 -0.9458720248286651 -1.1131100042061228 -3.210490937600695
-0.3076321327071595 -2.365128200963962 -0.20320725594824884 -1.8070791730511353 -2.0427159637856582 -4.500471691867928 -3.4797107702626313 4.106515099795997
-1.933825122742641 1.7000669688122032 -1.1650208353299547 -3.070923104671491 -3.508340303750197 1.7571057826221634 1.9282414744787444 1.874056506062283
-4.921554088441413 -0.5558550510906692 -3.2583044467320663 -4.317751275695738 -2.743720518596158 -4.841956106065322 -5.810621214226292 3.7799147338980483
-2.093092643727739 -2.4359529634995023 -2.66237150548634 -1.9045969645628373 -3.213118844979563 -2.370286801256655 3.8436278455035855 -4.770425958696314
-2.776052166994475 4.354561810796714 -1.232924237526848 -2.6710272236135886 -0.7555273652050508 -0.41570169097904947 2.30055714511554 -4.222462509817267
-2.564118207131513 -1.7472147777248217 2.7915642242690692 1.5435918474076469 -3.4470402591722187 -0.4801498366091126 -0.947818667078425 -0.6436312529446806
2.612194716230387 -2.0572795524277634 -2.3584669763049555 -1.6816092243178573 1.8423050986609162 -4.354847822335704 2.02925294575123 -5.112412644261893
1.8712309218140397 -1.5474722887580452 1.7530560494230392 -4.794326676316932 -4.579273096268204 -3.110631705440241 -0.34291884036663733 -2.386096378101283
-1.7578262236463014 -1.0816099094651823 4.4673632684358 -1.1435182639199477 -0.17349181336672753 -1.0884802291376805 -0.5741463299142683 -2.319955136317072
2.5309611422148928 -3.2512488442950542 2.3363626437343896 -3.8204348705608027 -3.285731421127358 -0.7571038048915585 -1.8319983319420559 1.855097860669421
-2.940624440847417 -2.710525835030913 -3.7420300815734326 0.10015862842377628 -3.750126218123611 -2.703778567804708 -1.640288245093789 1.6956722661983084
-0.1110703665695693 -2.3604903008217226 0.9772760885802654 1.2832939215793324 -2.4671249384730443 4.188305498306274 -1.3500837094668172 -3.7005627922395967
-3.895251980141931 -0.9578185191463964 -1.6669387018105837 3.6445979946356606 -1.9999719941576457 -3.6595702733532463 -2.565843769711644 -5.225717320479726
-3.1044563764942406 -1.7656186483450884 -5.668585459237631 -2.1200409956655237 -4.160612323180239 5.363189501800813 -2.4372491915004075 2.0280871930262423
3.5078635821001805 -4.703759022840634 -4.939739928295742 -1.7337485187368793 -2.71216661035483 0.29209180434828375 1.0960273124612654 1.8637939233975764
-2.7848483517216183 -0.2142380913244637 -7.786316201177851 -9.425143910164769 3.1727444023801166 3.080801490964256 -6.391592124923527 -4.71794138872926
-7.0347677612227475 3.1887478066542845 -5.157910307740798 -11.791850413416746 -2.4599565593897204 -3.75025879667207 -3.3245657960346824 3.782132013702045
-0.05456120857692077 -0.8453645117414378 -3.038785993287418 -2.8788033583133963 0.9408059139949999 1.2859722962163094 -1.7546372754355448 -3.9537498026819144
0.15245297324489185 -3.0475128728974847 2.806147977306808 -2.3195126824334653 0.17650852775505727 1.6076948045127182 -2.7170916875658606 -3.6757922125547022
-1.996383573437587 -5.802564854317566 -3.3451210631122086 1.4234134458068333 -5.276741756094623 1.9825617728281244 -1.265556625222018 -2.573452255474195
0.8530226845828236 -5.840214818678033 -4.052609860915585 -1.3219742315608165 0.6576553945101948 -1.7360307581929297 1.363396830356703 -0.831204880472767
00000000: a4b6 68cd f5f2 0940 0b38 5c95 ea6e 07c0
00000010: 2aa2 7f9b 6de3 04c0 f5e1 6c61 aa35 f0bf
00000020: 4eec aaf2 c751 b03f e984 af1d f41e ebbf
00000030: 2fc5 48e0 69ad 00c0 9eff 5460 d5bc dcbf
00000040: 822c e23d efd4 06c0 0ce9 397c 0fa0 0240
00000050: e00c 7b48 d175 10c0 e866 2b3b 0da3 0ec0
00000060: 6549 c108 6a20 dabf be00 4891 fbbb f7bf
00000070: 6d2d 995a 34c4 eabf 72d0 9aec 0589 e13f
00000080: de56 50a8 6bea 0740 7789 05fb a092 febf
00000090: 871d 321b d60d da3f d037 8161 a2e8 01c0
000000a0: 7b13 da27 c06a f53f b45c 836a 4e9b 20c0
000000b0: da53 2964 b8f8 0ac0 1c1d 6f7b fa6f 01c0
000000c0: 3d14 3a5f 415f ec3f b5a5 772f d50c 0dc0
000000d0: 1046 3e41 0b67 0dc0 ca4f a78d 3dc6 f4bf
000000e0: 95b6 35ef 1301 0240 7410 2d47 da2f 0340
000000f0: bc80 8a08 9cad 17c0 0d12 d900 33eb f03f
00000100: 6ba5 23ad 931d 22c0 d751 23d6 58f7 f93f
00000110: f4fb d488 ec3e d1bf 28ec 2359 20d1 00c0
00000120: 41e2 b675 177c 1ac0 7536 d2a8 d312 0340
00000130: c1a5 f833 3fc9 18c0 c838 e545 f622 fb3f
00000140: 6481 b7c0 2569 0240 147d f216 0afc 17c0
00000150: dcb6 ea94 947b 0240 8caa 5fde 122c a13f
00000160: a53d 6277 2f35 0bc0 ba1c 6675 c697 d5bf
00000170: fa76 30a3 ed98 05c0 206b 80b3 6931 0ac0
00000180: 8a4d 0349 06f2 0540 e81d b8d4 c13d 16c0
00000190: 0149 6016 2af9 a8bf 619d c9a7 b058 12c0
000001a0: 79f3 dcc8 7e79 e03f b6e9 2a48 9234 f5bf
000001b0: f3de 79f0 b21b 00c0 b3c7 cac7 a2cd f4bf
000001c0: 6962 c19c b5e1 0140 e938 7f83 a6cf 18c0
000001d0: e858 43df e40b 0840 09dc 8283 e628 13c0
000001e0: 4960 7805 7a63 d4bf f40a ce15 c662 0ac0
000001f0: ff47 e477 f55d 01c0 3667 172b 04b5 0340
00000200: 1c66 6a13 b90f 13c0 71d4 c905 8b5b fa3f
00000210: 4f07 ed07 9f24 04c0 f884 93d1 97f6 04c0
00000220: 50e9 f03d 1f59 17c0 81b8 7bcb 4a0a 14c0
00000230: 7fe4 53b5 678d 11c0 3c50 79f7 2f2d fb3f
00000240: 1eb8 4c8a e2b8 c8bf 4371 678b b7d8 08c0
00000250: 8af0 c87e 626f 0340 ecd9 68c4 e38e f3bf
00000260: b32e a94f 2a67 dfbf a135 9b8d 3e9a 10c0
00000270: ba8f 72ab 0a9f ef3f 69e2 a25a c541 d7bf
00000280: aae9 6b89 1d9b f6bf 1f7e b20a cb5b 00c0
00000290: a8a4 0cac e83e e9bf e281 3680 72ec 1140
000002a0: 0b81 a035 e233 05c0 b1e4 9a68 9544 eebf
000002b0: caa6 8e6f 4ccf f1bf 7ecb 68df 15af 09c0
000002c0: 4a43 4baf 3eb0 d3bf 77e6 8f55 c8eb 02c0
000002d0: d4c6 4d03 b202 cabf fd98 d8d9 cbe9 fcbf
000002e0: ebcf 9b77 7b57 00c0 0f96 b4a6 7b00 12c0
000002f0: 2889 ae99 72d6 0bc0 ae9d 584b 126d 1040
00000300: 26ce a59c f2f0 febf a7ee 006c 7933 fb3f
00000310: 8069 2ee3 eca3 f2bf 3bc2 f821 4091 08c0
00000320: 34c4 9eb8 1411 0cc0 4798 fff3 1a1d fc3f
00000330: 19d5 7abb 13da fe3f e74b c6ac 22fc fd3f
00000340: 6267 fddf abaf 13c0 d406 3888 90c9 e1bf
00000350: 3a01 f9eb 0111 0ac0 7c80 2597 6045 11c0
00000360: 95e0 45be 23f3 05c0 4cdf d0bd 295e 13c0
00000370: d52e d27c 133e 17c0 d515 9eef 433d 0e40
00000380: 7678 225b a7be 00c0 df98 46e8 d47c 03c0
00000390: ceed 8e6e 894c 05c0 6cbb adaa 3a79 febf
000003a0: c3c9 2aa7 77b4 09c0 624d 2ced 58f6 02c0
000003b0: 7576 b3f4 bfbf 0e40 475c e28a ea14 13c0
000003c0: 80d9 a9d6 5a35 06c0 3421 5740 126b 1140
000003d0: 0efa e9c3 0eba f3bf 182b 6185 435e 05c0
000003e0: 5f3d 99b9 472d e8bf 1167 e943 db9a dabf
000003f0: 8fcd 2681 8a67 0240 4501 5136 cde3 10c0
00000400: fda9 1568 5083 04c0 03a8 967b 97f4 fbbf
00000410: a65a bf9f 1f55 0640 1ecf 6f5d 8db2 f83f
00000420: cf1e e9d7 8993 0bc0 d09d 5a61 c6ba debf
00000430: 167c 34d0 8754 eebf ca96 c291 a098 e4bf
00000440: b7f2 e757 c6e5 0440 0c41 63fb 4e75 00c0
00000450: 0568 1fef 23de 02c0 d38d f112 dfe7 fabf
00000460: 030b 40e9 147a fd3f 65f4 3f3a 5d6b 11c0
00000470: 6c81 eaf7 e83b 0040 fe0b db4c 1c73 14c0
00000480: a348 c7d5 8ff0 fd3f c5e9 7a4d 72c2 f8bf
00000490: 093b 0580 840c fc3f 857c e4f8 632d 13c0
000004a0: c9b2 6ff7 2c51 12c0 e021 26e0 92e2 08c0
000004b0: 1aa5 23dd 61f2 d5bf 7a64 a8b2 b916 03c0
000004c0: f1ca e963 0e20 fcbf 6feb 4231 464e f1bf
000004d0: 3b22 057a 94de 1140 51a3 9ece d94b f2bf
000004e0: 8e54 44d0 fa34 c6bf a2d2 a73e 6a6a f1bf
000004f0: e934 c31f 685f e2bf 355a 75a3 448f 02c0
00000500: 0214 2a8e 683f 0440 8d3d 0bc1 8e02 0ac0
00000510: 807b d3e5 deb0 0240 0074 4c28 4090 0ec0
00000520: ee73 298e 2d49 0ac0 0ff7 35c2 313a e8bf
00000530: 6d48 a07b dd4f fdbf 9146 2718 7bae fd3f
00000540: 4410 5a1b 6686 07c0 ed5d 432b 28af 05c0
00000550: 810c a877 adef 0dc0 ad09 7ef1 fea3 b93f
00000560: 5fb4 b52c 4200 0ec0 88c6 62a8 56a1 05c0
00000570: 910e 0be3 9e3e fabf 22e5 003e 7921 fb3f
00000580: 8b95 f887 1b6f bcbf 9e6f 24bd 48e2 02c0
00000590: 66ae f380 d845 ef3f d06b 0535 5f88 f43f
000005a0: 161a efff abbc 03c0 9c87 1328 d3c0 1040
000005b0: 875b 3060 f199 f5bf 45b5 4baa c09a 0dc0
000005c0: 561c c3de 7929 0fc0 de94 e705 73a6 eebf
000005d0: 1369 8bea c7ab fabf 0138 50fe 2228 0d40
000005e0: f92a 3da2 e2ff ffbf 50ba 8bc7 cc46 0dc0
000005f0: 7674 2c19 d986 04c0 9a67 f670 22e7 14c0
00000600: 1f36 8739 edd5 08c0 1b99 fd56 f93f fcbf
00000610: ee06 a8aa a1ac 16c0 6a80 b40d d8f5 00c0
00000620: 2993 8d8e 77a4 10c0 aaf0 e1f2 e773 1540
00000630: d392 0d81 7c7f 03c0 8adf 3bc7 8539 0040
00000640: f598 1fc8 1a10 0c40 3676 8d34 a6d0 12c0
00000650: 361a 0b2f 4bc2 13c0 d769 3716 6fbd fbbf
00000660: a537 6668 84b2 05c0 aac0 c6d2 a1b1 d23f
00000670: d9b3 68ef 5389 f13f 309e b793 19d2 fd3f
00000680: fab5 9792 5e47 06c0 68e4 e55d 276c cbbf
00000690: cc7e 0113 3025 1fc0 a380 6c76 acd9 22c0
000006a0: 3c51 36d1 c761 0940 b246 8940 7ba5 0840
000006b0: b8ab a786 fd90 19c0 e225 0407 2cdf 12c0
000006c0: 9aa0 f528 9a23 1cc0 d12c c635 8e82 0940
000006d0: c7ca 5d3d b3a1 14c0 e4e5 d96a 6d95 27c0
000006e0: b846 61b4 fdad 03c0 5ef1 19af 8700 0ec0
000006f0: 0ef4 baf3 b598 0ac0 0d0a e06d ce41 0e40
00000700: 09ac ef5c 72ef abbf 891c 64e0 390d ebbf
00000710: ddb2 e507 6f4f 08c0 6c91 1c0e ca07 07c0
00000720: c1bd 0f01 151b ee3f 28fa bcaf 5793 f43f
00000730: 4e69 2589 fe12 fcbf a5ae 9893 47a1 0fc0
00000740: 19e4 213b 9483 c33f 9fde d96d 4e61 08c0
00000750: 8227 f2b5 fd72 0640 f7ab 4daa 5c8e 02c0
00000760: 7627 16d9 d497 c63f c04c f52f 1eb9 f93f
00000770: 6da1 1291 9abc 05c0 ec82 5ebf 0568 0dc0
00000780: 10fa e2e6 2ff1 ffbf 10da a88f d335 17c0
00000790: 4ed2 f9d4 cec2 0ac0 10d5 662d 4dc6 f63f
000007a0: c074 df30 621b 15c0 938b 89b1 92b8 ff3f
000007b0: ff08 c94d b83f f4bf 02a2 d822 6e96 04c0
000007c0: 71f0 a03a f64b eb3f ce58 ff45 615c 17c0
000007d0: 7551 005c df35 10c0 c355 ab73 ce26 f5bf
000007e0: 4cb2 6e53 830b e53f 969e 3430 c8c6 fbbf
000007f0: 33a2 dd31 79d0 f53f f6fe 3cfa 3a99 eabf

bias_2 f8 [1, 10]
-0.8192644693813598 -0.12421754151205157 -0.17581929328050572 0.12213937120255795 -0.395030194408247 0.016812003344661437 -0.3959557038769236 -0.31800304763894716
0.7752023682671146 0.6466800563932839
00000000: 4691 d81e 6a37 eabf a93f 6286 b8cc bfbf
00000010: 2ca3 5221 3f81 c6bf 2b76 de9c 8644 bf3f
00000020: cf9e 7ab9 2c48 d9bf 32a8 2e72 2a37 913f
00000030: 1e3a b497 5657 d9bf 92ce 6874 295a d4bf
00000040: efa5 6f32 75ce e83f 29e8 a55f 9ab1 e43f

loss_history f4 [90]
0.6367192 0.30673063 0.2487131 0.21908405 0.20082973 0.18924364 0.17680217 0.17230661
0.16500407 0.16182089 0.1621692 0.15474737 0.15679802 0.14726461 0.15023124 0.15676741
0.15037557 0.15161398 0.14657785 0.14426495 0.14934312 0.14809872 0.15182921 0.15125729
0.14523664 0.14636412 0.1394716 0.14958648 0.14660677 0.14697716 0.15264823 0.15043992
0.1499175 0.16153766 0.15496822 0.16588306 0.15783916 0.16066217 0.15482725 0.16166386
0.15951027 0.16913573 0.163837 0.162611 0.1702471 0.16872391 0.1622853 0.17497803
0.17850015 0.17333901 0.17564668 0.16897558 0.17684278 0.17806928 0.17310137 0.18889348
0.18458079 0.17535852 0.18116581 0.18484451 0.17523727 0.18730083 0.18419683 0.1995371
0.18760076 0.18539658 0.19140017 0.20199788 0.19007146 0.20135131 0.18608376 0.20155719
0.20862144 0.19771054 0.2063975 0.20185982 0.21155111 0.20178829 0.20825227 0.22018082
0.21325047 0.22257282 0.2064781 0.21740147 0.21880513 0.22823915 0.22826017 0.22781684
0.22046597 0.23145746
00000000: 0800 233f cc0b 9d3e a6ae 7e3e 9257 603e
00000010: 4fa6 4d3e 16c9 413e a10b 353e 2571 303e
00000020: d4f6 283e 60b4 253e af0f 263e 1876 1e3e
00000030: a98f 203e 89cc 163e 38d6 193e a387 203e
00000040: 0efc 193e b240 1b3e 8118 163e 31ba 133e
00000050: 67ed 183e 31a7 173e 1e79 1b3e 31e3 1a3e
00000060: eab8 143e 7ae0 153e a5d1 0e3e 332d 193e
00000070: 1620 163e 2e81 163e d14f 1c3e ec0c 1a3e
00000080: f983 193e 216a 253e fdaf 1e3e 40dd 293e
00000090: 97a0 213e a084 243e 098b 1e3e 368b 253e
000000a0: a956 233e eb31 2d3e e3c4 273e 7f83 263e
000000b0: 4155 2e3e f6c5 2c3e 1e2e 263e 712d 333e
000000c0: bec8 363e c87f 313e b9dc 333e ef07 2d3e
000000d0: 4616 353e cb57 363e 7c41 313e 4b6d 413e
000000e0: bf02 3d3e 2f91 333e 8883 393e e147 3d3e
000000f0: 6671 333e cacb 3f3e 189e 3c3e 7453 4c3e
00000100: 6a1a 403e 9ad8 3d3e 68fe 433e 88d8 4e3e
00000110: 18a2 423e 0a2f 4e3e be8c 3e3e 0265 4e3e
00000120: dca0 553e a274 4a3e de59 533e 57b4 4e3e
00000130: dba0 583e 97a1 4e3e 1540 553e 1577 613e
00000140: 555e 5a3e 21ea 633e ff6e 533e 7e9e 5e3e
00000150: 740e 603e 86b7 693e 09bd 693e d148 693e
00000160: d5c1 613e 2f03 6d3e

accuracy_history f4 [90]
80.32333 91.06834 92.84167 93.67167 94.166664 94.545 94.95333 95.055
95.26667 95.46333 95.385 95.555 95.65 95.905 95.82667 95.76667
95.86 95.86 95.95333 96.026665 95.88333 95.96 95.775 95.97667
96.08 95.988335 96.17 95.94666 96.111664 95.971664 95.955 96.03333
95.975 95.871666 95.96 95.75667 95.925 95.878334 95.92167 95.878334
95.79 95.7 95.74167 95.80167 95.72 95.67167 95.746666 95.59333
95.53333 95.62334 95.55666 95.596664 95.505 95.55334 95.62666 95.38167
95.44833 95.65 95.45 95.455 95.48333 95.43166 95.32333 95.253334
95.23167 95.59333 95.39167 94.95167 95.21333 95.02167 95.42 95.235
94.95 95.10833 94.96167 95.07166 94.958336 94.92834 94.903336 94.64
94.89833 94.67167 94.85 94.67834 94.70333 94.48333 94.33 94.525
94.48 94.42333
00000000: 8ca5 a042 fd22 b642 efae b942 e557 bb42
00000010: 5555 bc42 0a17 bd42 1be8 bd42 291c be42
00000020: 8988 be42 3aed be42 1fc5 be42 291c bf42
00000030: cd4c bf42 5ccf bf42 41a7 bf42 8988 bf42
00000040: 52b8 bf42 52b8 bf42 1be8 bf42 a70d c042
00000050: 44c4 bf42 85eb bf42 cd8c bf42 0ef4 bf42
00000060: f628 c042 07fa bf42 0a57 c042 b1e4 bf42
00000070: 2c39 c042 7ef1 bf42 f6e8 bf42 1111 c042
00000080: 33f3 bf42 4bbe bf42 85eb bf42 6a83 bf42
00000090: 9ad9 bf42 b5c1 bf42 e5d7 bf42 b5c1 bf42
000000a0: 7b94 bf42 6666 bf42 bc7b bf42 749a bf42
000000b0: a470 bf42 e557 bf42 4b7e bf42 c92f bf42
000000c0: 1111 bf42 263f bf42 031d bf42 7e31 bf42
000000d0: 8f02 bf42 4f1b bf42 da40 bf42 6ac3 be42
000000e0: 8ce5 be42 cd4c bf42 66e6 be42 f6e8 be42
000000f0: 77f7 be42 03dd be42 8ca5 be42 b581 be42
00000100: 9d76 be42 c92f bf42 89c8 be42 41e7 bd42
00000110: 3a6d be42 180b be42 0ad7 be42 5278 be42
00000120: 66e6 bd42 7737 be42 60ec bd42 b124 be42
00000130: abea bd42 4fdb bd42 82ce bd42 ae47 bd42
00000140: f2cb bd42 e557 bd42 33b3 bd42 4f5b bd42
00000150: 1b68 bd42 77f7 bc42 f6a8 bc42 cd0c bd42
00000160: c3f5 bc42 bfd8 bc42

val_loss_history f4 [18]
0.10879517 0.1251187 0.24916871 0.10905062 0.17357665 0.18991357 0.22526257 0.2212109
0.28438246 0.14003056 0.13298894 0.2503902 0.37151673 0.30953684 0.27710718 0.21615472
0.30146673 0.38999167
00000000: 01d0 de3d 1e1f 003e 1526 7f3e ee55 df3d
00000010: 14be 313e b478 423e 3bab 663e 1c85 623e
00000020: 949a 913e 2c64 0f3e 412e 083e 2533 803e
00000030: 7137 be3e 9d7b 9e3e fee0 8d3e aa57 5d3e
00000040: d959 9a3e fdac c73e

val_accuracy_history f4 [18]
96.7 96.7 96.2 97.6 96.4 96.3 97.4 97.1
96.2 97.4 97.0 96.3 95.4 96.1 95.6 96.3
96.2 95.3
00000000: 6666 c142 6666 c142 6666 c042 3333 c342
00000010: cdcc c042 9a99 c042 cdcc c242 3333 c242
00000020: 6666 c042 cdcc c242 0000 c242 9a99 c042
00000030: cdcc be42 3333 c042 3333 bf42 9a99 c042
00000040: 6666 c042 9a99 be42
