checkpoints/model_epoch_0080.npz (npz, 387373 bytes, 10 tensors)

weight_0 f8 [784, 64]
2.809556444e-315 1.18684844e-315 1.159753507e-315 2.170921987e-315 3.67275264e-316 -2.47150585e-315 -9.8842694e-316 -2.60801613e-315
3.0878376e-316 -2.79289962e-315 2.813838017e-315 -2.43612303e-316 2.65544244e-315 4.10662844e-316 -2.74403781e-315 -7.1064409e-316
1.973355817e-315 -1.193868285e-315 1.583063013e-315 2.1465379e-316 1.511079343e-315 -1.682815816e-315 1.670490736e-315 1.47631e-315
3.68661355e-316 1.95384608e-315 -1.28497167e-315 -5.48013657e-316 3.397507e-318 2.21540617e-316 2.79815016e-315 8.77400346e-316
-2.93813814e-316 7.36558233e-316 2.5428291e-316 -2.38698567e-315 6.01669137e-316 -1.13046919e-315 -2.038585985e-315 2.803977573e-315
-1.153519337e-315 -2.23963669e-315 -1.05747874e-315 1.10599899e-315 2.528962715e-315 -1.23928457e-315 2.53339363e-315 1.772884437e-315
-9.545797e-316 1.74383142e-315 -2.643327183e-315 -8.7496575e-316 -2.8093435e-315 -2.93953674e-316 1.0541648e-316 -1.19026497e-315
-8.78312445e-316 1.66353793e-315 2.8890545e-315 -2.943628217e-315 -1.23043843e-316 -2.04553873e-315 1.7379012e-316 -1.08991035e-315
-7.1722666e-316 1.41591142e-315 -1.50623088e-315 -7.1976822e-316 -2.264882666e-315 -2.61369448e-315 -2.65714196e-316 8.71518677e-316
9.5597476e-316 -2.20184834e-315 2.339289327e-315 -2.7581705e-315 -2.904696387e-315 1.83772453e-315 -1.0231706e-316 2.563962834e-315
4.9611554e-316 1.866788797e-315 -1.32782059e-315 2.826317186e-315 -2.54794846e-315 -1.2493555e-316 -1.816062386e-315 -5.3023063e-316
1.11643456e-315 1.224897366e-315 -1.38083123e-315 -1.93371207e-316 6.80958797e-316 -1.70666008e-315 2.295534805e-315 2.575526836e-315
-2.76459796e-315 2.00349864e-316 -2.74147237e-315 -1.737352047e-315 -6.95044387e-316 -8.81969983e-316 1.792280936e-315 -9.25216824e-316
-7.4025777e-317 2.44747603e-315 -2.504462657e-315 1.749814003e-315 -2.601076655e-315 1.751606616e-315 1.537231518e-315 1.41512979e-315
-1.890466073e-315 1.837696335e-315 -2.819297254e-315 -1.18085434e-316 -2.53552008e-315 2.998075743e-315 2.782661126e-315 2.539988733e-315
3.3598043e-316 -2.63215776e-315 1.28976179e-315 1.939797703e-315 2.23724737e-315 -2.717772663e-315 1.535797635e-315 -1.7035742e-315
1.408991626e-315 -3.60435044e-316 1.23340541e-315 5.79614007e-316 1.59815884e-316 -7.3064783e-316 2.789631473e-315 -2.468768637e-315
-7.8663519e-316 8.57254937e-316 -1.25104857e-316 -1.6713954e-316 -8.7335345e-316 8.1140424e-316 -4.31546895e-316 1.65792184e-315
2.75335445e-315 -2.54452083e-315 2.24807368e-315 2.425086633e-315 -1.14319195e-315 6.443615e-317 -2.491028537e-315 1.12552122e-315
9.6360473e-316 -1.61285633e-315 2.74504156e-315 9.27350027e-316 -1.472821276e-315 -5.44176807e-316 3.46987545e-316 -1.55078052e-315
-1.5459266e-316 -1.29907054e-315 -2.67409377e-315 -2.445089805e-315 2.10448435e-315 -1.681664895e-315 1.99133435e-316 -1.385901216e-315
1.69815716e-315 2.55520157e-315 1.11081558e-315 -2.3051816e-316 -2.8646838e-315 -1.699846175e-315 5.4841791e-316 5.9465123e-316
-1.154976346e-315 -1.18986869e-315 -9.936967e-316 -6.96206335e-316 -2.530524634e-315 -2.334317723e-315 -1.110278104e-315 -3.7066632e-316
3.382497e-318 -1.487584595e-315 -1.3004411e-315 -2.396715e-317 -2.68873878e-315 3.5684733e-316 7.53170385e-316 2.13080745e-316
-2.898153343e-315 -2.09551113e-315 -1.315354986e-315 -2.62516584e-315 -1.69904087e-316 -2.0122864e-315 -2.283302797e-315 -1.78687938e-315
6.65492823e-316 -1.014957564e-315 -4.860752e-317 2.18142184e-315 2.58378259e-315 4.3661511e-316 -1.27763259e-315 1.76847984e-315
1.82028941e-315 -1.969288437e-315 -2.041693317e-315 2.89761271e-315 2.18562942e-315 -1.665046765e-315 -2.20019148e-315 2.39230662e-315
-1.482020976e-315 1.18878075e-315 2.43061108e-315 1.65378075e-316 2.82257584e-315 2.360429636e-315 -6.485332e-317 -1.129585997e-315
2.37748073e-315 -1.0047338e-315 -3.54457047e-316 4.8449272e-316 -7.8716718e-317 2.09805338e-315 -2.74664348e-315 -7.40823615e-316
-9.904704e-317 3.6598388e-316 1.464150627e-315 2.552400774e-315 -2.39818978e-315 -1.492280294e-315 5.8228009e-316 -9.06537383e-316
2.00460664e-316 2.869623636e-315 1.40301825e-315 -2.181690657e-315 2.0289746e-315 1.178893565e-315 2.443950563e-315 5.91722187e-316
1.289201053e-315 -1.150464544e-315 1.783174753e-315 -2.060340536e-315 -1.241279847e-315 2.83196126e-316 2.488921856e-315 1.060060026e-315
00000000: 4b12 e521 0000 0000 7f7a 510e 0000 0000
00000010: 53cc fd0d 0000 0000 4eb4 301a 0000 0000
00000020: 3d4c 6e04 0000 0000 1108 d11d 0000 0080
00000030: c0ab ec0b 0000 0080 b5a1 761f 0000 0080
00000040: e1a6 b903 0000 0000 d8a0 b121 0000 0080
00000050: 734b f221 0000 0000 1f60 f002 0000 0080
00000060: 8d1a 0920 0000 0000 ed4b f404 0000 0000
00000070: 0cb9 1a21 0000 0080 3dc3 9208 0000 0080
00000080: d089 ce17 0000 0000 9f28 670e 0000 0080
00000090: 2127 1913 0000 0000 8bf0 9602 0000 0000
000000a0: 68d6 3a12 0000 0000 113b 4d14 0000 0080
000000b0: 712a 2714 0000 0000 9774 cf11 0000 0000
000000c0: 2194 7204 0000 0000 c148 9217 0000 0000
000000d0: 0986 800f 0000 0080 1f7e 9c06 0000 0080
000000e0: 2f7e 0a00 0000 0000 8035 ac02 0000 0000
000000f0: 19d8 c121 0000 0000 5fc6 950a 0000 0000
00000100: 226b 8b03 0000 0080 d6cb e208 0000 0000
00000110: aa54 1103 0000 0000 8eff cb1c 0000 0080
00000120: f533 4207 0000 0000 275b a30d 0000 0080
00000130: fdfe 9718 0000 0080 73d7 d321 0000 0000
00000140: 618b ea0d 0000 0080 79ec 041b 0000 0080
00000150: 70ee c10c 0000 0080 30c8 570d 0000 0000
00000160: 687b 821e 0000 0000 456c f30e 0000 0080
00000170: a32a 901e 0000 0000 5d66 6315 0000 0000
00000180: fa22 840b 0000 0080 11ac 0915 0000 0000
00000190: d2af e31f 0000 0080 7f41 8e0a 0000 0080
000001a0: ef69 e421 0000 0080 b6d9 8b03 0000 0080
000001b0: d591 4501 0000 0000 b807 5c0e 0000 0080
000001c0: 8297 980a 0000 0080 51b1 1114 0000 0000
000001d0: 2598 da22 0000 0000 f823 8323 0000 0080
000001e0: 9f02 7c01 0000 0080 1078 ad18 0000 0080
000001f0: 58bc 1802 0000 0000 f717 260d 0000 0080
00000200: a417 a708 0000 0080 6eeb 1411 0000 0000
00000210: 0cdd 2b12 0000 0080 16f1 ae08 0000 0080
00000220: cbe4 521b 0000 0080 342b 881f 0000 0080
00000230: a0a2 3403 0000 0080 209c 830a 0000 0000
00000240: f671 880b 0000 0000 b937 901a 0000 0080
00000250: 37b1 381c 0000 0000 d45e 4621 0000 0080
00000260: 26e7 0a23 0000 0080 22a7 2b16 0000 0000
00000270: 53ff 3b01 0000 0080 af93 ee1e 0000 0000
00000280: b735 fc05 0000 0000 536a 8516 0000 0000
00000290: d7db 0410 0000 0080 e7d5 1822 0000 0000
000002a0: 2e1e bd1e 0000 0080 45da 8101 0000 0080
000002b0: 4fc0 e815 0000 0080 4292 6506 0000 0080
000002c0: e702 780d 0000 0000 43fd c60e 0000 0000
000002d0: d893 a810 0000 0080 d035 5502 0000 0080
000002e0: 0b15 3708 0000 0000 26df 9614 0000 0080
000002f0: 698f b11b 0000 0000 934a 121f 0000 0000
00000300: 9938 5a21 0000 0080 60c3 6a02 0000 0000
00000310: b9cc 1221 0000 0080 41a9 f514 0000 0080
00000320: 9695 6208 0000 0080 48e3 a30a 0000 0080
00000330: e44d 9f15 0000 0000 b273 290b 0000 0080
00000340: 489f e400 0000 0080 47d1 861d 0000 0000
00000350: d5d0 361e 0000 0080 1926 1c15 0000 0000
00000360: 2033 611f 0000 0080 66af 2115 0000 0000
00000370: 339b 8b12 0000 0000 7281 1211 0000 0000
00000380: 618a ce16 0000 0080 d790 2b16 0000 0000
00000390: b527 0322 0000 0080 56b2 6c01 0000 0080
000003a0: e1bb 961e 0000 0080 064c 2b24 0000 0000
000003b0: f201 9221 0000 0000 f388 a41e 0000 0000
000003c0: 7ca5 0d04 0000 0000 e630 c11f 0000 0080
000003d0: 4551 8f0f 0000 0000 a2e5 6617 0000 0000
000003e0: 658b fd1a 0000 0000 ef9a c920 0000 0080
000003f0: 862d 8712 0000 0000 5957 8d14 0000 0080
00000400: 688c ff10 0000 0000 212c 5904 0000 0080
00000410: 0244 e10e 0000 0000 6d16 fe06 0000 0000
00000420: d793 ed01 0000 0000 df8a d008 0000 0080
00000430: f088 a721 0000 0000 ef93 c81d 0000 0080
00000440: 5f74 7d09 0000 0080 bb8e 570a 0000 0000
00000450: 2160 8201 0000 0080 2c32 0402 0000 0080
00000460: c246 890a 0000 0080 9ff3 c909 0000 0000
00000470: 90cb 3405 0000 0080 0c59 0014 0000 0000
00000480: 197f 3721 0000 0000 2e88 b21e 0000 0080
00000490: 0afb 1e1b 0000 0000 77ab 411d 0000 0000
000004a0: 33a6 ca0d 0000 0080 6601 c700 0000 0000
000004b0: 5d53 0d1e 0000 0080 1f13 940d 0000 0000
000004c0: 7902 a00b 0000 0000 bb2a 7513 0000 0080
000004d0: a5d2 1d21 0000 0000 470a 300b 0000 0000
000004e0: 49ae c411 0000 0080 94a4 9006 0000 0080
000004f0: 15a4 2f04 0000 0000 8073 b512 0000 0080
00000500: 2f72 dd01 0000 0080 1511 ac0f 0000 0080
00000510: edb4 4220 0000 0080 a672 7f1d 0000 0080
00000520: 7684 6319 0000 0000 1cad 4914 0000 0080
00000530: a001 6702 0000 0000 593c b810 0000 0080
00000540: 749c 7c14 0000 0000 bb84 d31e 0000 0000
00000550: 58a8 660d 0000 0000 73ef c702 0000 0080
00000560: d853 8f22 0000 0080 d8d3 8114 0000 0080
00000570: bdbd 9d06 0000 0000 5d87 2c07 0000 0000
00000580: 570b ef0d 0000 0080 68ce 5a0e 0000 0080
00000590: 33f2 fc0b 0000 0080 432c 6608 0000 0080
000005a0: 504e 871e 0000 0080 7f56 291c 0000 0080
000005b0: 66ff 640d 0000 0080 52c5 7804 0000 0080
000005c0: 5172 0a00 0000 0000 aa46 f211 0000 0080
000005d0: b14c b00f 0000 0080 3d05 4a00 0000 0080
000005e0: c4ef 6f20 0000 0080 9017 4e04 0000 0000
000005f0: f719 1609 0000 0000 d714 9202 0000 0000
00000600: ffb1 f622 0000 0080 efcd 4719 0000 0080
00000610: 1d5c de0f 0000 0080 d998 ab1f 0000 0080
00000620: eabb 0c02 0000 0080 a6c5 4618 0000 0080
00000630: 5fc8 8b1b 0000 0080 3d9f 8e15 0000 0080
00000640: 1f51 0708 0000 0000 c29b 3e0c 0000 0080
00000650: c01e 9600 0000 0080 d821 511a 0000 0000
00000660: dac9 2b1f 0000 0000 aa72 4405 0000 0000
00000670: 83db 690f 0000 0080 f1cb 5515 0000 0000
00000680: 56ce f515 0000 0000 01fa c117 0000 0080
00000690: c097 a118 0000 0080 8e06 f522 0000 0000
000006a0: 8020 5e1a 0000 0000 415a 1614 0000 0080
000006b0: c119 8b1a 0000 0080 7a6e dc1c 0000 0000
000006c0: e117 e111 0000 0080 3e72 570e 0000 0000
000006d0: 48bb 521d 0000 0000 7fc1 fe01 0000 0000
000006e0: de47 0d22 0000 0000 75fb 791c 0000 0000
000006f0: 3a4b c800 0000 0080 dfa0 a00d 0000 0080
00000700: a1a4 ae1c 0000 0000 8108 1f0c 0000 0080
00000710: b9b5 4604 0000 0080 5250 d805 0000 0000
00000720: 191c f300 0000 0080 eca7 4f19 0000 0000
00000730: 2dc5 2221 0000 0080 31f8 ef08 0000 0080
00000740: f0e5 3101 0000 0080 3a4f 6a04 0000 0000
00000750: fae6 a911 0000 0000 54de ca1e 0000 0000
00000760: e799 ee1c 0000 0080 3ec7 0012 0000 0080
00000770: 5252 0607 0000 0000 19c3 ef0a 0000 0080
00000780: fa1a 6b02 0000 0000 7295 9e22 0000 0000
00000790: a719 ed10 0000 0000 61f6 511a 0000 0080
000007a0: e74f 7a18 0000 0000 1ae9 380e 0000 0000
000007b0: eded 7b1d 0000 0000 907b 2307 0000 0000
000007c0: ee95 8d0f 0000 0000 281c e10d 0000 0080
000007d0: 3c2e 8315 0000 0000 df2e db18 0000 0080
000007e0: ce95 f90e 0000 0080 6ea0 6a03 0000 0000
000007f0: c0d1 061e 0000 0000 4ae7 c90c 0000 0000

bias_0 f8 [1, 64]
-0.11482335113690284 -0.3394676091955478 -0.07915425305742471 -0.06111458426173826 -0.2152180301502056 -0.5425792437903313 -0.02417601336825718 -0.37864965499744907
-0.32336954345188434 0.0566477806011304 0.24741116879921218 -0.10755129454132342 -0.5084447193243473 -0.15711577830697776 -0.42930513375508866 -0.5536817516617828
0.29732997592054494 -0.2719053317978834 -0.24345453434597691 0.037434748280724996 -0.2720007369463687 0.3850102548011157 -0.20434612165158902 -0.4331991978720301
0.2701396344641963 -0.19070809105674905 -0.040897685558504905 0.32355093013820657 0.27700426006264184 -0.16681200844634167 -0.026320116518914985 -0.11586017496259235
-0.4003449093119272 0.023711228746243845 -0.1523826023599428 -0.45684837057627464 -0.15109487523898557 -0.342751883906192 -0.1932781737044366 0.08618696468591287
-0.17847567390557686 -0.06085087125716835 -0.040380000585029996 -0.07741361797162312 -0.405672551600723 -0.025573653789012267 0.016041242955219328 0.14859313387229164
-0.6615756594465643 -0.3221070722724449 -0.27889544589925 0.1585634526596035 -0.04997837969736312 0.1781720956744127 -0.15467958363058137 -0.555306469186756
-0.4482419114929777 0.11111218078466205 -0.4372226565828342 -0.34731601925386724 0.0593262858026026 0.05508766122910026 0.23248971454138112 -0.2666807177472298
00000000: 343b f329 1065 bdbf b9f4 e259 d6b9 d5bf
00000010: fe8f 3800 7443 b4bf 67f4 6c29 694a afbf
00000020: 3199 80b0 438c cbbf 1b2c 7225 cf5c e1bf
00000030: cbaa 0ecb 98c1 98bf 3ac4 36c3 cb3b d8bf
00000040: a77d 692b 16b2 d4bf 0f4b 251a f000 ad3f
00000050: 3731 544f 2bab cf3f ea8b b24c 7b88 bbbf
00000060: 964d 2adc 2d45 e0bf 94cc c1ac 5e1c c4bf
00000070: a9e9 5e3d bc79 dbbf 71f0 f8ca c2b7 e1bf
00000080: d3bf ac4e 7407 d33f 1b84 eb9e e566 d1bf
00000090: ba18 8aa7 8429 cfbf ad0c 33b7 a52a a33f
000000a0: 1a0b 6bc7 7568 d1bf f2b4 3f0d 02a4 d83f
000000b0: f36c c782 0328 cabf 22e2 e020 89b9 dbbf
000000c0: b222 d8bf f749 d13f 0dee 156b 1f69 c8bf
000000d0: cd67 e99b 8af0 a4bf b22c e2f5 0eb5 d43f
000000e0: 2797 7413 70ba d13f e3b5 6d8c 185a c5bf
000000f0: 64dd b31e a9f3 9abf 3688 5f2e 03a9 bdbf
00000100: 1959 2741 409f d9bf 1868 0da0 c147 983f
00000110: 07c3 ceea 4581 c3bf 83c8 b6f2 003d ddbf
00000120: 7850 dfad 1357 c3bf 373f 0199 a5ef d5bf
00000130: 35ab 8bd5 56bd c8bf 75e1 aa52 5910 b63f
00000140: 712b 4777 4ad8 c6bf 2d1d f76b d827 afbf
00000150: 30af d9fb afac a4bf 3d02 74fd 60d1 b3bf
00000160: 7aa3 8001 8af6 d9bf 6ef2 a6da fa2f 9abf
00000170: 57f9 8497 1d6d 903f 5721 328d 1905 c33f
00000180: 52e2 a4b7 a02b e5bf 011c 4efb 669d d4bf
00000190: dbff c848 6cd9 d1bf 8dc5 c1a5 ce4b c43f
000001a0: 374f 9d24 c496 a9bf 0b9e fddd 57ce c63f
000001b0: eeaf 8664 8acc c3bf 5842 8d12 12c5 e1bf
000001c0: 75c4 a3d7 feaf dcbf f348 a80e d971 bc3f
000001d0: 1afc c5bc 74fb dbbf 02a0 04f8 6c3a d6bf
000001e0: 9472 a1d2 0360 ae3f 02c3 c82e 7334 ac3f
000001f0: 2849 4e14 39c2 cd3f a2ae 4c00 4c11 d1bf

weight_1 f8 [64, 32]
-3.7527829734045426 0.5961562549984023 -5.687361677710038 -0.1805413881580407 -3.863323390955619 -0.34634430436077585 -2.048763383702202 1.3588523438465716
-1.2909267381430367 -2.75698309819415 -0.09286401337086664 -0.03221116990827913 1.4065729108790512 1.111145636442247 0.6739233484129297 0.5302397715837192
-1.2753044671922158 -4.2801779998372 0.9027394281951864 -2.1065287242532116 -0.5407043447414259 -1.3082996014141666 -4.53747421476296 1.095869165748118
-4.039158734289696 1.335728861936501 -0.345270621312941 0.513197932810035 -1.3823092642352448 -4.082841636271051 0.4578687274967232 -0.023265379715931695
0.37507396630435863 -1.832345505001057 -0.09646755568482845 -2.4224654038553455 0.16810936028908127 -0.9539477278765323 0.682694702267437 -2.3117887478929084
0.16451527680006015 0.3326111564576282 0.13359323288203478 -4.419978594497096 -2.927144092161211 0.6482125583457534 0.12878030914699826 -0.008384626268814427
0.24513804371646178 -1.5302880989611225 -4.409419601554909 -3.5243767127318186 0.5387565251692954 -0.9855617640394219 -0.20968621575635746 -3.659115022078857
0.3029041888095966 -2.4676303944527134 -0.3430839208705247 -3.8405713053098487 -1.2376473596576762 -1.8711602922003234 -1.7266633173706458 -0.5157141150177945
-2.514291030833214 0.40470873036516714 -2.849326829462455 0.857545819462407 -2.1878868274542755 -1.6350586969484937 0.7638081208354285 -1.0768500640504068
0.15251518579599221 -0.3811260264300291 -2.368512589051381 0.31361111965019606 0.4737499675967893 0.07337510275540698 -4.426364801753345 -2.0557102798210574
-1.1949150418026309 -0.8992294894515866 0.7907220763152115 0.6200675146974106 -0.6906096684697647 0.23765260437122904 -0.45972639833901235 -2.1004797418754744
0.36500606304138566 -1.8533802427678587 -1.0320080098100586 -1.1102778761749754 -4.389435953168508 -1.2622610981733344 -3.0617313416811505 -0.17050160493602895
-3.7968368405987185 -1.8586168641702359 -5.4340738051141315 -0.9180653434028723 -0.9508443593498482 -3.763657767269755 -2.300535660273237 -3.0064237680443013
-0.14638129362967003 -1.272235980842912 0.7000107428555541 -4.092764876331853 -2.568741696804801 -3.690624238755375 0.5354865850706297 -1.3206048572711884
1.2444040213870486 -3.9067476918432646 0.04827806683667448 -0.05212414848002761 -3.055287356040622 2.7413988836968786 -1.7243670591419555 0.3820171580705747
-1.8516869698877725 -1.7736590501398688 -1.9752206024432621 -1.1576842478675382 0.6493766737702513 -3.5615844937134944 0.8087573237708294 -1.359166832543414
-2.047959317367704 -2.078298541424838 -4.332190614211107 -0.15380893635513482 -1.8814893905574692 -5.24408611489036 0.976678939441821 -2.06403252235177
1.1882273037448925 -2.278210229603221 4.659737968543162 -4.519420092680349 -3.2627324665212245 -4.453036059249274 0.11737378761987127 -1.904269093374719
0.5344098414074637 -3.705438262950629 -1.0015739551700429 -1.0750500106161949 -2.6762158549008297 1.7590060005409969 0.6769701915972463 -0.9341498217918475
-0.5327387962370946 -2.7998123752223765 -3.1790123844734763 -1.1811286565274683 0.6947086019753902 -1.9000342194367066 1.2480733169250486 -2.3688808176657665
-3.07533103499369 3.718705235914396 -2.994202475263623 -0.9651541621169252 -2.93697620119066 3.066473958131105 -1.6819390938119807 -2.6898801371172887
0.4036538588846648 -2.623462062467164 -2.2729835291871874 -2.415114616967187 2.876944258438012 3.8837568915605623 1.8993874479753856 -1.42389136857471
-1.9033239663147652 -3.6395385547769 -1.2719115725692405 -0.002534677668424569 0.8844567987747525 -1.0005237872240378 -0.8523213792468489 -2.2645132249608726
-3.125628056255253 3.841272406430875 -1.9166704979416893 -1.8348125491381626 -0.7672774987002569 -0.3773465037921382 -2.51969875642491 2.308643494370115
-2.9866908824955125 0.3727980121666469 -5.262574951765127 -2.843448866569226 -2.0729571281289005 -0.5221997955389514 -2.716518487349586 0.18726706167990242
-1.558965130087126 -2.4594234846918512 0.1860350983081297 -4.102578075883656 0.3217391855729185 -0.1347830244053203 1.8828529355360681 -0.15722842312832627
0.19961362333858748 -4.229833543879248 -0.9793252454007988 -3.5116371376687114 -0.4054813269124178 0.16715814700459997 -4.145169770850811 0.6015819717382508
-4.585851984454704 0.8081664106841537 -0.37152464027967197 -0.9261029903791831 0.28411919335841973 -3.994806220012299 0.7148069028865797 0.27615822206151514
3.678176156296919 -2.0299808801445836 2.7405018046744662 -0.9434369022027012 1.2398675980810565 -0.41165475421541886 -0.9308851305762872 -1.0056543431099496
-1.162275091970408 0.13466727681381427 -0.70642147519109 -2.5687226552587084 -0.5084867476199689 3.4269615254986494 2.258985932832969 -0.03876147310097545
3.041330339409115 -1.2635789688218968 -1.5699433449673499 -1.0397169687575567 3.890792880704264 -1.2166455708311055 -0.1198633164523869 -1.0385637929761795
-2.5872613064712224 -2.2452739031058564 -1.8317280128001114 -1.0099483639594808 -1.0805200717706287 0.07612672544442792 -0.2202291132133577 -2.4619881408230175
00000000: b010 5e14 b305 0ec0 66c4 5048 b613 e33f
00000010: 3a27 59bd dbbf 16c0 014b dbee fa1b c7bf
00000020: ab35 1018 16e8 0ec0 6faa 184d 812a d6bf
00000030: 31f2 910e de63 00c0 a19f 8ef4 dbbd f53f
00000040: 66b3 9dcb a2a7 f4bf f5f2 9227 4d0e 06c0
00000050: bc36 679c efc5 b7bf b4d7 a482 fb7d a0bf
00000060: 09a4 ba98 5281 f63f 08cd 99a5 40c7 f13f
00000070: 1638 aeb2 c790 e53f ddb2 bf65 b9f7 e03f
00000080: 4888 30a8 a567 f4bf 1870 49fb e61e 11c0
00000090: e00e 1dcc 3de3 ec3f 6504 56bb 2bda 00c0
000000a0: 6c06 af32 734d e1bf 5119 1790 cbee f4bf
000000b0: 9966 fba3 5f26 12c0 d953 391b ae88 f13f
000000c0: 0c82 2c3a 1928 10c0 fb72 253a 255f f53f
000000d0: 73c1 b3f2 e918 d6bf ad67 3912 1e6c e03f
000000e0: 3992 ad51 f01d f6bf 0b20 1a70 d454 10c0
000000f0: 7769 9da2 b84d dd3f c529 0934 e1d2 97bf
00000100: 2eed b63c 3601 d83f fc3b 2f85 4951 fdbf
00000110: 0099 ca04 19b2 b8bf 4a00 aa8a 3561 03c0
00000120: 37ea 4b86 9b84 c53f c457 aa62 bd86 eebf
00000130: e283 6c8f a2d8 e53f c8af 5b19 8b7e 02c0
00000140: 073a c62a d60e c53f d04b d14d 8049 d53f
00000150: fefd 1843 9519 c13f 518a 61de 0eae 11c0
00000160: 9918 9485 ca6a 07c0 b672 5e43 28be e43f
00000170: 35db 1388 df7b c03f c3f0 e87c f52b 81bf
00000180: 6d41 62f4 ae60 cf3f c0ef a75f 0f7c f8bf
00000190: 2814 5ce4 3ea3 11c0 b8bc ff6a ec31 0cc0
000001a0: ac7a 0353 7e3d e13f aa98 17d3 b889 efbf
000001b0: 273b 8c77 ffd6 cabf 4e0c c118 de45 0dc0
000001c0: 568d 3040 c862 d33f e351 1601 b5bd 03c0
000001d0: df07 fb42 16f5 d5bf 3b18 d272 7db9 0ec0
000001e0: 155e 5b51 67cd f3bf e52f 49c6 45f0 fdbf
000001f0: e9f4 f4b6 69a0 fbbf c9c8 42e3 ba80 e0bf
00000200: 3170 b09d 441d 04c0 a5bd 5472 bfe6 d93f
00000210: bf40 61dd 6bcb 06c0 ae33 2dee 0371 eb3f
00000220: 5a1f 1acf ca80 01c0 4df2 e64e 3329 fabf
00000230: 4509 6dba 1d71 e83f 0bac fc21 c73a f1bf
00000240: 248e 911b 9e85 c33f 53f8 ca6a 5e64 d8bf
00000250: a81e 71ba b6f2 02c0 6ccf a35f 3412 d43f
00000260: 13cb 5362 eb51 de3f 2cd4 acf2 b5c8 b23f
00000270: d9c8 7ef9 98b4 11c0 420f 2f3b 1872 00c0
00000280: 01a7 203c 5f1e f3bf 0e63 19ec 7cc6 ecbf
00000290: 37f8 3f62 984d e93f 00ff 1dd4 97d7 e33f
000002a0: 1c21 8c72 7919 e6bf 38b5 ca89 666b ce3f
000002b0: d154 7e45 286c ddbf 1f20 aa52 c8cd 00c0
000002c0: 91af e663 425c d73f 10d9 9b0a 72a7 fdbf
000002d0: 0b82 b5d4 1a83 f0bf 3d4d fabb b2c3 f1bf
000002e0: 38fb 6a4c c88e 11c0 26ae 7ab1 3832 f4bf
000002f0: 1b45 6d00 6d7e 08c0 1cd1 8e20 ffd2 c5bf
00000300: a8f4 54fe eb5f 0ec0 da7b 7609 e5bc fdbf
00000310: d80f f4d7 7dbc 15c0 fc33 3092 ca60 edbf
00000320: 25cc 5f26 516d eebf 6f14 7e9a f81b 0ec0
00000330: 183e 813d 7f67 02c0 c356 8de7 270d 08c0
00000340: 895b 714a 9fbc c2bf 943c a81d 145b f4bf
00000350: 8339 eded 7c66 e63f 4d40 78c1 fd5e 10c0
00000360: 732f 5d72 c88c 04c0 de3b 3a00 6686 0dc0
00000370: 0767 4ac3 b422 e13f 2fb2 0e8f 3221 f5bf
00000380: 63e4 ed30 14e9 f33f c085 11ef 0441 0fc0
00000390: e3f0 5a1c e7b7 a83f 186d 1b32 04b0 aabf
000003a0: 3f9d 507f 3a71 08c0 ea26 b689 62ee 0540
000003b0: c507 d5e9 0197 fbbf 8022 1b18 f872 d83f
000003c0: 9f8e 2184 82a0 fdbf bdae e94f e860 fcbf
000003d0: 5211 1eeb 809a ffbf 8af7 faea df85 f2bf
000003e0: 981c 1497 b1c7 e43f 7b85 d302 207e 0cc0
000003f0: d6e0 ff09 57e1 e93f 594f 79b8 25bf f5bf
00000400: ec0f 9d7e 3862 00c0 15f4 55fc 5aa0 00c0
00000410: a74c c0c6 2954 11c0 2c2a bddf 02b0 c3bf
00000420: e071 839e 941a febf 7a72 e3b5 f1f9 14c0
00000430: d906 f330 f440 ef3f c80c ab7b 2383 00c0
00000440: f3c6 1ca2 fa02 f33f c777 ec48 c639 02c0
00000450: 184a 9b59 92a3 1240 20ca 5bdc e213 12c0
00000460: d772 ba7a 131a 0ac0 9389 49af e8cf 11c0
00000470: c028 3c63 350c be3f 713f 6dde e277 febf
00000480: e72d f0aa e219 e13f 8fc2 e5d0 bca4 0dc0
00000490: f7b0 5f69 7206 f0bf 7f93 d2a3 6733 f1bf
000004a0: 9baf aedb e368 05c0 54a9 dc79 e324 fc3f
000004b0: 67dd 2864 bda9 e53f 7720 c52a 8ee4 edbf
000004c0: 64c2 643b 320c e1bf 2721 d407 0466 06c0
000004d0: f623 870b 9e6e 09c0 5976 8229 e7e5 f2bf
000004e0: 6b7e b788 0d3b e63f 472f 1c48 8a66 febf
000004f0: d440 f3b9 1bf8 f33f 3bf8 3fc9 77f3 02c0
00000500: b45f 5d28 479a 08c0 f9ba dd87 e8bf 0d40
00000510: 47e0 666d 20f4 07c0 c77e 3cfb 8ae2 eebf
00000520: 20f4 e960 ed7e 07c0 8fab a17f 2388 0840
00000530: d294 9cf7 38e9 fabf 48a1 98e0 df84 05c0
00000540: dd15 b4fe 76d5 d93f d4be 84ad d9fc 04c0
00000550: 22a5 11fd 112f 02c0 9fb9 bf9c 2752 03c0
00000560: f73f f359 fb03 0740 18f0 1622 ef11 0f40
00000570: 80cb b717 e463 fe3f 6a5c d150 42c8 f6bf
00000580: 1f3d d0d4 0374 febf 1462 ca63 c61d 0dc0
00000590: cd6b f9f2 bf59 f4bf 6a1a 23b6 9ac3 64bf
000005a0: 1acc 2e58 784d ec3f f6f4 0f3b 2502 f0bf
000005b0: a07f 317c 3746 ebbf 1188 141c b91d 02c0
000005c0: 639c 4848 4901 09c0 c12e 0507 edba 0e40
000005d0: a7e1 1daf aeaa febf bb6b 4d67 645b fdbf
000005e0: 26fa 7b8a 898d e8bf e404 43f3 7126 d8bf
000005f0: 53ef 54d2 5728 04c0 dd8a 9314 1a78 0240
00000600: 08a3 7c30 bee4 07c0 7240 9131 ecdb d73f
00000610: eb51 ba72 e00c 15c0 d11a 8e1e 62bf 06c0
00000620: f596 fa8b 6a95 00c0 752a 7a58 dcb5 e0bf
00000630: b92a 710b 6ebb 05c0 c23f c4f8 5df8 c73f
00000640: e941 956b 85f1 f8bf 7a20 4e38 e6ac 03c0
00000650: b41e 9283 ffcf c73f e0d3 243a 0a69 10c0
00000660: aa26 f8f3 5f97 d43f a83b f0f4 9140 c1bf
00000670: 51e1 5466 2a20 fe3f 673d ab9b 0f20 c4bf
00000680: 49a3 0970 f08c c93f cbf0 097c 59eb 10c0
00000690: 6a98 a4e5 a156 efbf 3aa6 2d36 d517 0cc0
000006a0: ac8f 8ef3 67f3 d9bf 1886 522b 7065 c53f
000006b0: 2db0 6862 a794 10c0 d553 cfd5 2840 e33f
000006c0: 5e1e 2695 e957 12c0 14a7 f3cd 7fdc e93f
000006d0: e132 ea48 0fc7 d7bf 2e01 0dbd a2a2 edbf
000006e0: e4fa e844 022f d23f 4d7b a6f6 5cf5 0fc0
000006f0: 054b dbb9 b2df e63f 49a5 1189 93ac d13f
00000700: 2cc7 e19e e76c 0d40 6dcf 9d9d 663d 00c0
00000710: 81a5 cd35 8cec 0540 d89a 1996 a230 eebf
00000720: 260d 1268 7fd6 f33f f647 a62e 8d58 dabf
00000730: 0d0d 059d cfc9 edbf 32cd 2b02 2917 f0bf
00000740: 227e 4fc4 ad98 f2bf ebdb e0fe c63c c13f
00000750: ea68 a435 019b e6bf bba4 a676 be8c 04c0
00000760: ff44 efff 8545 e0bf f455 e5cd 6a6a 0b40
00000770: 1c22 7d37 6712 0240 917f a036 8bd8 a3bf
00000780: 01c2 4000 a554 0840 220e b094 9e37 f4bf
00000790: 6352 b3e9 7c1e f9bf 328f 9e42 aea2 f0bf
000007a0: 5713 9104 5820 0f40 83af 9858 6177 f3bf
000007b0: 9831 27c0 5caf bebf 4b47 5a11 f59d f0bf
000007c0: 4600 4c0e b6b2 04c0 2537 032a 52f6 01c0
000007d0: f94b 6208 c24e fdbf c0ac 9d9d bf28 f0bf
000007e0: a1d2 2e6a cf49 f1bf daa8 2284 0a7d b33f
000007f0: 2471 70b3 7730 ccbf 31cc 9fd6 26b2 03c0

bias_1 f8 [1, 32]
-0.9210664260142742 -0.9072439118468214 0.10725172904373255 -1.1436850799984493 0.07173072963253542 0.1664883514337676 -1.9005330266558482 -0.8841746734690396
-1.8528688047309063 -1.9581314088349282 -1.6794193184894262 0.08492989184732609 -1.1657355532777005 -0.6078839197055309 -1.337853229843612 -1.5248029874772402
-1.6941598212164866 -1.2600479431072038 -1.6341783932803728 -1.477420290349169 -0.9404498508765935 -1.576920893363663 -1.2357884406433288 -1.5751445280120366
-0.970494077739648 -1.0254442805868567 -1.7633713430508298 -1.199191231126214 -1.8066796030535115 -1.0150321986383524 -2.1255553381645873 -1.7261822696510563
00000000: e098 254c 6079 edbf 1012 5c62 2408 edbf
00000010: 35aa ae6c d974 bb3f 8443 f8b9 884c f2bf
00000020: 45d4 e3f1 f15c b23f a057 4984 7d4f c53f
00000030: b746 a751 9568 febf 3908 50af 284b ecbf
00000040: ce90 81c2 59a5 fdbf 7776 a399 8154 ffbf
00000050: 50ec 92ca e6de fabf a5e4 ef23 f7bd b53f
00000060: 87cb d152 daa6 f2bf 13c9 5cfa c873 e3bf
00000070: aa6b d0c9 d867 f5bf eeec 40d1 9765 f8bf
00000080: fb26 2554 471b fbbf a399 3008 2829 f4bf
00000090: 2381 2f3e 9825 fabf b0f1 5775 83a3 f7bf
000000a0: a260 2149 2a18 eebf 3e04 1667 113b f9bf
000000b0: 2e68 9519 cac5 f3bf 948f a4bf ca33 f9bf
000000c0: a04f 9b98 490e efbf 4eda 0f43 3868 f0bf
000000d0: e8b5 91de c436 fcbf a064 f524 e32f f3bf
000000e0: 0671 17df 28e8 fcbf 839e 1867 923d f0bf
000000f0: 7e0a 3a28 2301 01c0 a661 b14c 719e fbbf

weight_2 f8 [32, 10]
2.891058020774504 -2.689712798132911 -2.156336562836524 -0.8062696513405522 0.15523299861420903 -0.6103570938122846 -1.989615010064031 -0.3720864759939951
-2.5065495616549507 1.8950867002986846 -3.786963624694991 -3.538796164609276 -0.4235839816255466 -1.2190164077611245 -0.9563716647337642 0.5472081474629823
2.662240354221397 -1.7794294209278325 0.5182189755003398 -1.966957124033129 1.2493124378684648 -7.312549836705948 -2.9051235684981536 -1.8946042983731415
0.5616342187416227 -3.187941598673033 -3.0806177355539672 -1.245227869410123 2.0392477134800213 2.278746070133201 -5.356052094132206 1.059162827262908
-8.18818097823155 1.4452028708850961 0.0390002462486393 -1.8147550457561128 -6.120607226740856 1.9428949844943775 -5.291568470337895 1.397743560125118
1.8614993252309682 -5.2181345900942135 2.0224562140310955 -0.03985905932128042 -2.9775326071979626 -0.3125025879602262 -2.3843294597299907 -2.897776090345477
2.5694822159055524 -4.704853067846883 0.2005742991572742 -3.963367087617784 0.30080274884831726 -1.0309095979923486 -1.820808179496949 -1.247357227578206
1.96002497322192 -5.556927760613128 2.51854964380766 -4.003556273343127 -0.3663159797175609 -2.9415001990581593 -1.782431357425823 2.1584927843870454
-4.268000162988039 1.5471188969658833 -2.0621074396441106 -2.300321431653871 -5.341880053632199 -4.4198134011159205 -4.2071413153344706 1.3996318594292818
-0.0933999053415078 -2.7727741545714584 2.3139962813805557 -0.9586787871471631 -0.4823099562360057 -4.027034065724401 0.9802462589125218 -0.21439116527039295
-1.3804404609643424 -1.935993089206463 -0.40477991335735836 3.9487981987708523 -2.614161942877415 -0.870194771314846 -1.0203432930727419 -2.858440157586743
-0.34396188748239026 -2.219852351690733 0.02520663256910454 -1.718960475238798 -2.114514282194514 -4.1546462805343705 -3.2852354593142263 3.7711612037122664
-1.852302129586789 1.4667642620380492 -1.0826508694407033 -2.7192009464684643 -2.961246772810709 1.5022271460159922 1.6308314046398538 1.5965859390330275
-4.484328796370049 -0.40988422363148946 -3.031749866508903 -3.683166825217144 -2.329901438774806 -4.069760792637254 -5.296865020327887 3.3723384867590465
-1.9730781023311847 -2.192623153811879 -2.325561068821511 -1.7335284103955015 -2.949214794141347 -2.028773839126492 3.3670699265772006 -3.9733245223633458
-2.4261633830396643 3.751209228321668 -1.0764883777919507 -2.369425422008365 -0.5735978878076958 -0.3872778761568757 2.1062942394375064 -3.6787074056158313
-2.269597279154296 -1.2919517448653548 2.360314614865984 1.451166936133371 -2.8161662576797566 -0.30399208640110353 -0.7913781093348774 -0.5857499544760406
2.1690273840345706 -1.7222158305803261 -2.01188205482398 -1.31821909987556 1.6841563191306785 -3.8427594529514995 1.76671253084657 -4.295083162165528
1.6751225625138908 -1.2169984043120832 1.5820765841219224 -4.108236742220262 -3.983423018571182 -2.3418516498469284 -0.1842242226013549 -2.3518206413777247
-1.6622476551879821 -0.9855008097154889 4.2281491363180566 -0.926873263498777 -0.0541574094906647 -1.1520511933191584 -0.4740858040482806 -2.114882857354757
2.393279020157945 -2.965091723463801 2.138258405059954 -3.2220997239505276 -2.8720459630596804 -0.629481008725604 -1.495584243143531 1.586761399399219
-2.6405783619316905 -2.389717979835226 -3.489992042694292 0.09936462418643864 -3.3796341045665415 -2.4332398726572464 -1.4006721825823611 1.5223696417960033
-0.15429053963565034 -2.2610886808311457 0.9432531339014678 1.1680893217966017 -2.1348556060573913 3.6519707511384056 -0.9914796260877347 -3.2836629189170705
-3.599992786779731 -0.9026935570524862 -1.4557703482189661 3.411069445060467 -1.6611139883549888 -3.097396343052914 -2.3176839858023373 -4.786253014938736
-2.6588456198754904 -1.4979375865149147 -5.3583444735837364 -2.0053926275960032 -3.8755122138611755 4.627303343445968 -2.133775257423484 1.9146483653430608
3.0096528336344135 -4.4799512846974165 -4.363216773398374 -1.5182903712347051 -2.445630928485623 0.31902738941144254 1.0091547299577972 1.5623018906716153
-2.5319485984581833 -0.09970381753396056 -6.7230526739307495 -8.497093118394794 2.693132938686874 2.6607466334157213 -5.659470408380909 -3.6649230002104796
-5.921179674839603 2.761141442204649 -3.9142147613325293 -10.117924225495099 -2.23725445440058 -3.68545290972624 -3.0285516182301566 3.3572216597894005
-0.04350344083575065 -0.8036472955678762 -2.843817321873933 -2.538681951233699 0.8808960276682826 1.2586315573051652 -1.5035458618716186 -3.7028511649946356
0.2193424944054519 -2.6018491938687913 2.3956745067505114 -1.9080274381859514 0.10126404756640935 1.460477432979098 -2.3939284544939827 -3.013308725236611
-1.9480403530799832 -5.1883697024893936 -2.924352381136803 1.3167806518513072 -4.755105265543717 1.7910203051920075 -1.1118519510155487 -2.2791156094194283
0.8119699339765771 -4.93470026395427 -3.712736962612238 -1.016391759413545 0.6108325827053523 -1.491792195836169 1.1874252681388142 -0.7957426158990856
00000000: 1685 1007 e320 0740 74e8 bc24 8884 05c0
00000010: 556a 4462 2d40 01c0 d57a 0803 f6cc e9bf
00000020: e46d 27c6 acde c33f 90c5 9999 0b88 e3bf
00000030: 0cb1 7d8c 76d5 ffbf f565 6bcb 43d0 d7bf
00000040: a2e3 48db 690d 04c0 e3e0 8d6e 4652 fe3f
00000050: 20a7 b995 b34b 0ec0 16a8 115d 744f 0cc0
00000060: 6b3c 0cfd ff1b dbbf 61f1 4959 1781 f3bf
00000070: 7348 dbbf 989a eebf 05aa 2ea9 ba82 e13f
00000080: 62c7 bbab 444c 0540 dccd 06fc 8a78 fcbf
00000090: 4519 fef5 3f95 e03f 3eb4 8508 a878 ffbf
000000a0: f018 f209 2ffd f33f b816 7c10 0d40 1dc0
000000b0: 9d4e ec6c b13d 07c0 8cfa c598 4c50 febf
000000c0: b7e9 3953 e8f8 e13f 7bde 5e86 e780 09c0
000000d0: 7674 4de9 1aa5 08c0 a3f2 f20e 74ec f3bf
000000e0: 3cb7 ee1a 6150 0040 8de2 3838 df3a 0240
000000f0: 6ce1 8feb 986c 15c0 b9ba 83b8 54f2 f03f
00000100: b477 d641 5960 20c0 ba96 a80b 8d1f f73f
00000110: 3103 591c d7f7 a33f 3560 3c96 3c09 fdbf
00000120: 8d0d fa75 807b 18c0 d473 1f0d 1916 ff3f
00000130: 8295 d2ec 902a 15c0 70e9 ee59 285d f63f
00000140: 0a4a 3684 b3c8 fd3f f552 8aac 5edf 14c0
00000150: 21d8 0686 fd2d 0040 20ec 7718 6868 a4bf
00000160: cb82 959d fcd1 07c0 1917 cdda 0a00 d4bf
00000170: f16f e352 1b13 03c0 0751 193b a52e 07c0
00000180: 61be 27b1 4c8e 0440 ef8c ab00 c5d1 12c0
00000190: f438 a62b 6bac c93f a2e3 bacd f9b4 0fc0
000001a0: 5a6d 362c 5a40 d33f 8127 0810 9b7e f0bf
000001b0: bba8 f3c1 0722 fdbf c00a 2eda 2cf5 f3bf
000001c0: 814d 7525 435c ff3f 8845 5845 4b3a 16c0
000001d0: 010d 0c5b fd25 0440 46d1 7641 a403 10c0
000001e0: 66e7 3894 b871 d7bf eb0e a141 3188 07c0
000001f0: 0824 38be d684 fcbf 35c1 6cdd 9744 0140
00000200: d96c 7da2 6e12 11c0 7ddf 97be ffc0 f83f
00000210: c4e0 702f 327f 00c0 22ee 39ec 0e67 02c0
00000220: 2405 06ce 155e 15c0 94dc 7090 e3ad 11c0
00000230: 430c 5cda 1cd4 10c0 d403 6b60 e464 f63f
00000240: 622a e462 0ee9 b7bf b1a0 4837 a42e 06c0
00000250: c4c2 7c7b 1083 0240 f64f c522 7fad eebf
00000260: ce67 2494 2ade debf 28a8 70d1 ae1b 10c0
00000270: b8c7 0167 2d5e ef3f 219f b171 2b71 cbbf
00000280: 18ac 9ebc 4816 f6bf c2c7 b6e3 d3f9 febf
00000290: f3a4 7c02 eae7 d9bf d0cb 9182 2397 0f40
000002a0: bdd9 98bc cde9 04c0 9d51 7eb4 a2d8 ebbf
000002b0: c10b 277d 5353 f0bf e343 93df 15de 06c0
000002c0: c5aa 73b8 7803 d6bf e0ae 23f3 41c2 01c0
000002d0: 0e3b 1b7a c4cf 993f ad46 04b3 dc80 fbbf
000002e0: 539a c776 86ea 00c0 665f 3598 5b9e 10c0
000002f0: 2950 4b87 2948 0ac0 fd1a af90 562b 0e40
00000300: bf2e ce8e 07a3 fdbf e751 86cd dd77 f73f
00000310: 97bd d3b7 8952 f1bf a6ac 026d ecc0 05c0
00000320: 3cdc e425 a2b0 07c0 6ad5 f454 1f09 f83f
00000330: 947c c3ab e217 fa3f a467 96b2 9d8b f93f
00000340: 7eae 53e3 f3ef 11c0 b430 e909 8b3b dabf
00000350: ff76 f212 0641 08c0 8328 202b 2077 0dc0
00000360: 7387 935d a3a3 02c0 20ae 8b5f 6f47 10c0
00000370: e289 4662 fd2f 15c0 bc60 bd99 8cfa 0a40
00000380: 7975 1f58 ba91 ffbf 5e98 1002 7e8a 01c0
00000390: 7983 fbc2 bf9a 02c0 655e 5549 88bc fbbf
000003a0: 4ebb 0ded fd97 07c0 ac3a 50c7 ed3a 00c0
000003b0: 1ef4 8f5b c2ef 0a40 2990 ff5d 5ec9 0fc0
000003c0: bf43 0759 c868 03c0 7bc2 e0fb 7902 0e40
000003d0: 933f 92e0 4b39 f1bf 06b2 ce50 95f4 02c0
000003e0: 150a 26f5 e95a e2bf 3ab8 2325 29c9 d8bf
000003f0: 2819 51cb b0d9 0040 4f62 f525 fe6d 0dc0
00000400: 5e77 489e 2228 02c0 324f c397 d5ab f4bf
00000410: 3ff6 f8a0 ece1 0240 6aab 3bd2 fa37 f73f
00000420: 86aa c62c 8287 06c0 9679 5539 9b74 d3bf
00000430: b3a2 4b2f f852 e9bf 6b75 43b0 76be e2bf
00000440: 8f74 7407 2b5a 0140 86ef cf2f 328e fbbf
00000450: b406 679e 5518 00c0 73d9 2ee9 6c17 f5bf
00000460: be49 80e5 4df2 fa3f 8492 06ab f8bd 0ec0
00000470: e7b5 d65b 7444 fc3f a367 cc47 2a2e 11c0
00000480: 3d9f ec50 4dcd fa3f 92df 9c51 d378 f3bf
00000490: 0523 4989 2f50 f93f 163f d09c d56e 10c0
000004a0: b42c 37e3 0cde 0fc0 dc68 c1b7 1cbc 02c0
000004b0: 8a17 9ac9 a894 c7bf 5933 2657 87d0 02c0
000004c0: 3d29 4eff 9098 fabf fc1a 7dfe 3889 efbf
000004d0: 0563 5ced 9fe9 1040 ff72 481e f2a8 edbf
000004e0: 9d6c 321d 85ba abbf 19fa 693b cd6e f2bf
000004f0: 9aa7 f8fb 6b57 debf 7fad 19b4 47eb 00c0
00000500: 1940 8e78 6f25 0340 a256 6f02 82b8 07c0
00000510: 7809 0139 271b 0140 8f8b 5638 dcc6 09c0
00000520: e999 df3b f3f9 06c0 f4be 3d5b b524 e4bf
00000530: 176e 4bbe e9ed f7bf f198 cfeb 5f63 f93f
00000540: c62c 588c e71f 05c0 a171 d075 241e 03c0
00000550: b560 b5f2 80eb 0bc0 e794 42c3 f56f b93f
00000560: f079 fc9a 7d09 0bc0 b016 6377 4677 03c0
00000570: 1dbb 093c 2769 f6bf 3cfe fe44 a05b f83f
00000580: 9d9d e8da cabf c3bf 5534 8ca9 b516 02c0
00000590: 1e9a 3e32 212f ee3f 87c5 be6d 7eb0 f23f
000005a0: 0d97 0d2d 2f14 01c0 3db4 f070 3c37 0d40
000005b0: e14e 167b 33ba efbf 99b1 7e10 f144 0ac0
000005c0: 5370 a804 c9cc 0cc0 f935 3b99 dde2 ecbf
000005d0: 5164 41d9 d54a f7bf 4a5b f7c6 de49 0b40
000005e0: d69a ee42 ec93 fabf 504c e1bb 77c7 08c0
000005f0: 2adf cbe6 9d8a 02c0 4f2c a682 1f25 13c0
00000600: 1bd3 33da 5045 05c0 de7d 1867 8df7 f7bf
00000610: 5afa 8ada f16e 15c0 9250 394a 0b0b 00c0
00000620: 2a42 2e8c 0c01 0fc0 6a16 c3ce 5b82 1240
00000630: c92e 1dc3 f811 01c0 1ad0 0753 66a2 fe3f
00000640: 3330 66dd c413 0840 5bcb 7d59 78eb 11c0
00000650: 2c6b 0c19 ef73 11c0 5e8e 24d8 ea4a f8bf
00000660: 7674 bff2 a690 03c0 cb39 03db f16a d43f
00000670: f55b 1c6e 7f25 f03f ec9d 6e44 30ff f83f
00000680: 5a3f 4c44 6e41 04c0 0b3f 987b 3086 b9bf
00000690: 8d45 8feb 67e4 1ac0 0425 3dfd 82fe 20c0
000006a0: 2386 3b48 898b 0540 74b3 eb87 3549 0540
000006b0: fdb3 f235 4ca3 16c0 0219 6226 c351 0dc0
000006c0: 3cb4 84b9 49af 17c0 a631 0f53 d116 0640
000006d0: 9d8c 2bd4 4f50 0fc0 aed0 6790 603c 24c0
000006e0: b5d8 d3a9 e5e5 01c0 26c7 31bc ce7b 0dc0
000006f0: 075f 5445 793a 08c0 1bbf 9107 97db 0a40
00000700: a158 4e3f 1546 a6bf b473 7f88 7ab7 e9bf
00000710: 8bf9 c94b 23c0 06c0 21f4 9b7b 384f 04c0
00000720: e75e c0dd 4c30 ec3f 816d 05d8 5a23 f43f
00000730: 5165 0c1b 860e f8bf 14dc 7c6e 709f 0dc0
00000740: e217 0c34 6a13 cc3f c952 664f 96d0 04c0
00000750: c4d5 5265 572a 0340 b511 6ec7 4787 febf
00000760: d5ed 8ecc 70ec b93f 640f b395 1d5e f73f
00000770: b41f 28f6 c326 03c0 3d24 dd9a 411b 08c0
00000780: e644 7c5c 2c2b ffbf 2dff befc e3c0 14c0
00000790: c8b2 77dc 1265 07c0 924f bb96 8811 f53f
000007a0: ce30 9250 3a05 13c0 8558 54e8 04a8 fc3f
000007b0: 70b0 7945 25ca f1bf 9113 f2f6 a03b 02c0
000007c0: 3e78 f85e a8fb e93f 11fc e410 22bd 13c0
000007d0: 3b8f c86f afb3 0dc0 64ae 6901 2443 f0bf
000007e0: 5d9f c1c5 f08b e33f c1b5 587e 61de f7bf
000007f0: 939a 51a3 b1ff f23f f33d ea37 b976 e9bf

bias_2 f8 [1, 10]
-0.7343750344309351 -0.13502789631346057 -0.2474511965210712 0.09579904237028151 -0.442082069174587 0.010630194763051513 -0.43131507134982544 -0.34242730055377885
0.85300792283694 0.7015086589040124
00000000: d526 7c12 0080 e7bf 1864 5b17 9848 c1bf
00000010: 3d00 3516 7bac cfbf 23ee f739 4986 b83f
00000020: df2e 5097 124b dcbf 4cfd db96 48c5 853f
00000030: c30a 6e87 aa9a dbbf edb4 4832 54ea d5bf
00000040: 9808 7a45 d74b eb3f 4d50 7b49 c272 e63f

loss_history f4 [80]
0.6367192 0.30673063 0.2487131 0.21908405 0.20082973 0.18924364 0.17680217 0.17230661
0.16500407 0.16182089 0.1621692 0.15474737 0.15679802 0.14726461 0.15023124 0.15676741
0.15037557 0.15161398 0.14657785 0.14426495 0.14934312 0.14809872 0.15182921 0.15125729
0.14523664 0.14636412 0.1394716 0.14958648 0.14660677 0.14697716 0.15264823 0.15043992
0.1499175 0.16153766 0.15496822 0.16588306 0.15783916 0.16066217 0.15482725 0.16166386
0.15951027 0.16913573 0.163837 0.162611 0.1702471 0.16872391 0.1622853 0.17497803
0.17850015 0.17333901 0.17564668 0.16897558 0.17684278 0.17806928 0.17310137 0.18889348
0.18458079 0.17535852 0.18116581 0.18484451 0.17523727 0.18730083 0.18419683 0.1995371
0.18760076 0.18539658 0.19140017 0.20199788 0.19007146 0.20135131 0.18608376 0.20155719
0.20862144 0.19771054 0.2063975 0.20185982 0.21155111 0.20178829 0.20825227 0.22018082
00000000: 0800 233f cc0b 9d3e a6ae 7e3e 9257 603e
00000010: 4fa6 4d3e 16c9 413e a10b 353e 2571 303e
00000020: d4f6 283e 60b4 253e af0f 263e 1876 1e3e
00000030: a98f 203e 89cc 163e 38d6 193e a387 203e
00000040: 0efc 193e b240 1b3e 8118 163e 31ba 133e
00000050: 67ed 183e 31a7 173e 1e79 1b3e 31e3 1a3e
00000060: eab8 143e 7ae0 153e a5d1 0e3e 332d 193e
00000070: 1620 163e 2e81 163e d14f 1c3e ec0c 1a3e
00000080: f983 193e 216a 253e fdaf 1e3e 40dd 293e
00000090: 97a0 213e a084 243e 098b 1e3e 368b 253e
000000a0: a956 233e eb31 2d3e e3c4 273e 7f83 263e
000000b0: 4155 2e3e f6c5 2c3e 1e2e 263e 712d 333e
000000c0: bec8 363e c87f 313e b9dc 333e ef07 2d3e
000000d0: 4616 353e cb57 363e 7c41 313e 4b6d 413e
000000e0: bf02 3d3e 2f91 333e 8883 393e e147 3d3e
000000f0: 6671 333e cacb 3f3e 189e 3c3e 7453 4c3e
00000100: 6a1a 403e 9ad8 3d3e 68fe 433e 88d8 4e3e
00000110: 18a2 423e 0a2f 4e3e be8c 3e3e 0265 4e3e
00000120: dca0 553e a274 4a3e de59 533e 57b4 4e3e
00000130: dba0 583e 97a1 4e3e 1540 553e 1577 613e

accuracy_history f4 [80]
80.32333 91.06834 92.84167 93.67167 94.166664 94.545 94.95333 95.055
95.26667 95.46333 95.385 95.555 95.65 95.905 95.82667 95.76667
95.86 95.86 95.95333 96.026665 95.88333 95.96 95.775 95.97667
96.08 95.988335 96.17 95.94666 96.111664 95.971664 95.955 96.03333
95.975 95.871666 95.96 95.75667 95.925 95.878334 95.92167 95.878334
95.79 95.7 95.74167 95.80167 95.72 95.67167 95.746666 95.59333
95.53333 95.62334 95.55666 95.596664 95.505 95.55334 95.62666 95.38167
95.44833 95.65 95.45 95.455 95.48333 95.43166 95.32333 95.253334
95.23167 95.59333 95.39167 94.95167 95.21333 95.02167 95.42 95.235
94.95 95.10833 94.96167 95.07166 94.958336 94.92834 94.903336 94.64
00000000: 8ca5 a042 fd22 b642 efae b942 e557 bb42
00000010: 5555 bc42 0a17 bd42 1be8 bd42 291c be42
00000020: 8988 be42 3aed be42 1fc5 be42 291c bf42
00000030: cd4c bf42 5ccf bf42 41a7 bf42 8988 bf42
00000040: 52b8 bf42 52b8 bf42 1be8 bf42 a70d c042
00000050: 44c4 bf42 85eb bf42 cd8c bf42 0ef4 bf42
00000060: f628 c042 07fa bf42 0a57 c042 b1e4 bf42
00000070: 2c39 c042 7ef1 bf42 f6e8 bf42 1111 c042
00000080: 33f3 bf42 4bbe bf42 85eb bf42 6a83 bf42
00000090: 9ad9 bf42 b5c1 bf42 e5d7 bf42 b5c1 bf42
000000a0: 7b94 bf42 6666 bf42 bc7b bf42 749a bf42
000000b0: a470 bf42 e557 bf42 4b7e bf42 c92f bf42
000000c0: 1111 bf42 263f bf42 031d bf42 7e31 bf42
000000d0: 8f02 bf42 4f1b bf42 da40 bf42 6ac3 be42
000000e0: 8ce5 be42 cd4c bf42 66e6 be42 f6e8 be42
000000f0: 77f7 be42 03dd be42 8ca5 be42 b581 be42
00000100: 9d76 be42 c92f bf42 89c8 be42 41e7 bd42
00000110: 3a6d be42 180b be42 0ad7 be42 5278 be42
00000120: 66e6 bd42 7737 be42 60ec bd42 b124 be42
00000130: abea bd42 4fdb bd42 82ce bd42 ae47 bd42

val_loss_history f4 [16]
0.10879517 0.1251187 0.24916871 0.10905062 0.17357665 0.18991357 0.22526257 0.2212109
0.28438246 0.14003056 0.13298894 0.2503902 0.37151673 0.30953684 0.27710718 0.21615472
00000000: 01d0 de3d 1e1f 003e 1526 7f3e ee55 df3d
00000010: 14be 313e b478 423e 3bab 663e 1c85 623e
00000020: 949a 913e 2c64 0f3e 412e 083e 2533 803e
00000030: 7137 be3e 9d7b 9e3e fee0 8d3e aa57 5d3e

val_accuracy_history f4 [16]
96.7 96.7 96.2 97.6 96.4 96.3 97.4 97.1
96.2 97.4 97.0 96.3 95.4 96.1 95.6 96.3
00000000: 6666 c142 6666 c142 6666 c042 3333 c342
00000010: cdcc c042 9a99 c042 cdcc c242 3333 c242
00000020: 6666 c042 cdcc c242 0000 c242 9a99 c042
00000030: cdcc be42 3333 c042 3333 bf42 9a99 c042
