checkpoints/model_epoch_0040.npz (npz, 395037 bytes, 10 tensors)

weight_0 f8 [784, 64]
2.809556444e-315 1.18684844e-315 1.159753507e-315 2.170921987e-315 3.67275264e-316 -2.47150585e-315 -9.8842694e-316 -2.60801613e-315
3.0878376e-316 -2.79289962e-315 2.813838017e-315 -2.43612303e-316 2.65544244e-315 4.10662844e-316 -2.74403781e-315 -7.1064409e-316
1.973355817e-315 -1.193868285e-315 1.583063013e-315 2.1465379e-316 1.511079343e-315 -1.682815816e-315 1.670490736e-315 1.47631e-315
3.68661355e-316 1.95384608e-315 -1.28497167e-315 -5.48013657e-316 3.397507e-318 2.21540617e-316 2.79815016e-315 8.77400346e-316
-2.93813814e-316 7.36558233e-316 2.5428291e-316 -2.38698567e-315 6.01669137e-316 -1.13046919e-315 -2.038585985e-315 2.803977573e-315
-1.153519337e-315 -2.23963669e-315 -1.05747874e-315 1.10599899e-315 2.528962715e-315 -1.23928457e-315 2.53339363e-315 1.772884437e-315
-9.545797e-316 1.74383142e-315 -2.643327183e-315 -8.7496575e-316 -2.8093435e-315 -2.93953674e-316 1.0541648e-316 -1.19026497e-315
-8.78312445e-316 1.66353793e-315 2.8890545e-315 -2.943628217e-315 -1.23043843e-316 -2.04553873e-315 1.7379012e-316 -1.08991035e-315
-7.1722666e-316 1.41591142e-315 -1.50623088e-315 -7.1976822e-316 -2.264882666e-315 -2.61369448e-315 -2.65714196e-316 8.71518677e-316
9.5597476e-316 -2.20184834e-315 2.339289327e-315 -2.7581705e-315 -2.904696387e-315 1.83772453e-315 -1.0231706e-316 2.563962834e-315
4.9611554e-316 1.866788797e-315 -1.32782059e-315 2.826317186e-315 -2.54794846e-315 -1.2493555e-316 -1.816062386e-315 -5.3023063e-316
1.11643456e-315 1.224897366e-315 -1.38083123e-315 -1.93371207e-316 6.80958797e-316 -1.70666008e-315 2.295534805e-315 2.575526836e-315
-2.76459796e-315 2.00349864e-316 -2.74147237e-315 -1.737352047e-315 -6.95044387e-316 -8.81969983e-316 1.792280936e-315 -9.25216824e-316
-7.4025777e-317 2.44747603e-315 -2.504462657e-315 1.749814003e-315 -2.601076655e-315 1.751606616e-315 1.537231518e-315 1.41512979e-315
-1.890466073e-315 1.837696335e-315 -2.819297254e-315 -1.18085434e-316 -2.53552008e-315 2.998075743e-315 2.782661126e-315 2.539988733e-315
3.3598043e-316 -2.63215776e-315 1.28976179e-315 1.939797703e-315 2.23724737e-315 -2.717772663e-315 1.535797635e-315 -1.7035742e-315
1.408991626e-315 -3.60435044e-316 1.23340541e-315 5.79614007e-316 1.59815884e-316 -7.3064783e-316 2.789631473e-315 -2.468768637e-315
-7.8663519e-316 8.57254937e-316 -1.25104857e-316 -1.6713954e-316 -8.7335345e-316 8.1140424e-316 -4.31546895e-316 1.65792184e-315
2.75335445e-315 -2.54452083e-315 2.24807368e-315 2.425086633e-315 -1.14319195e-315 6.443615e-317 -2.491028537e-315 1.12552122e-315
9.6360473e-316 -1.61285633e-315 2.74504156e-315 9.27350027e-316 -1.472821276e-315 -5.44176807e-316 3.46987545e-316 -1.55078052e-315
-1.5459266e-316 -1.29907054e-315 -2.67409377e-315 -2.445089805e-315 2.10448435e-315 -1.681664895e-315 1.99133435e-316 -1.385901216e-315
1.69815716e-315 2.55520157e-315 1.11081558e-315 -2.3051816e-316 -2.8646838e-315 -1.699846175e-315 5.4841791e-316 5.9465123e-316
-1.154976346e-315 -1.18986869e-315 -9.936967e-316 -6.96206335e-316 -2.530524634e-315 -2.334317723e-315 -1.110278104e-315 -3.7066632e-316
3.382497e-318 -1.487584595e-315 -1.3004411e-315 -2.396715e-317 -2.68873878e-315 3.5684733e-316 7.53170385e-316 2.13080745e-316
-2.898153343e-315 -2.09551113e-315 -1.315354986e-315 -2.62516584e-315 -1.69904087e-316 -2.0122864e-315 -2.283302797e-315 -1.78687938e-315
6.65492823e-316 -1.014957564e-315 -4.860752e-317 2.18142184e-315 2.58378259e-315 4.3661511e-316 -1.27763259e-315 1.76847984e-315
1.82028941e-315 -1.969288437e-315 -2.041693317e-315 2.89761271e-315 2.18562942e-315 -1.665046765e-315 -2.20019148e-315 2.39230662e-315
-1.482020976e-315 1.18878075e-315 2.43061108e-315 1.65378075e-316 2.82257584e-315 2.360429636e-315 -6.485332e-317 -1.129585997e-315
2.37748073e-315 -1.0047338e-315 -3.54457047e-316 4.8449272e-316 -7.8716718e-317 2.09805338e-315 -2.74664348e-315 -7.40823615e-316
-9.904704e-317 3.6598388e-316 1.464150627e-315 2.552400774e-315 -2.39818978e-315 -1.492280294e-315 5.8228009e-316 -9.06537383e-316
2.00460664e-316 2.869623636e-315 1.40301825e-315 -2.181690657e-315 2.0289746e-315 1.178893565e-315 2.443950563e-315 5.91722187e-316
1.289201053e-315 -1.150464544e-315 1.783174753e-315 -2.060340536e-315 -1.241279847e-315 2.83196126e-316 2.488921856e-315 1.060060026e-315
00000000: 4b12 e521 0000 0000 7f7a 510e 0000 0000
00000010: 53cc fd0d 0000 0000 4eb4 301a 0000 0000
00000020: 3d4c 6e04 0000 0000 1108 d11d 0000 0080
00000030: c0ab ec0b 0000 0080 b5a1 761f 0000 0080
00000040: e1a6 b903 0000 0000 d8a0 b121 0000 0080
00000050: 734b f221 0000 0000 1f60 f002 0000 0080
00000060: 8d1a 0920 0000 0000 ed4b f404 0000 0000
00000070: 0cb9 1a21 0000 0080 3dc3 9208 0000 0080
00000080: d089 ce17 0000 0000 9f28 670e 0000 0080
00000090: 2127 1913 0000 0000 8bf0 9602 0000 0000
000000a0: 68d6 3a12 0000 0000 113b 4d14 0000 0080
000000b0: 712a 2714 0000 0000 9774 cf11 0000 0000
000000c0: 2194 7204 0000 0000 c148 9217 0000 0000
000000d0: 0986 800f 0000 0080 1f7e 9c06 0000 0080
000000e0: 2f7e 0a00 0000 0000 8035 ac02 0000 0000
000000f0: 19d8 c121 0000 0000 5fc6 950a 0000 0000
00000100: 226b 8b03 0000 0080 d6cb e208 0000 0000
00000110: aa54 1103 0000 0000 8eff cb1c 0000 0080
00000120: f533 4207 0000 0000 275b a30d 0000 0080
00000130: fdfe 9718 0000 0080 73d7 d321 0000 0000
00000140: 618b ea0d 0000 0080 79ec 041b 0000 0080
00000150: 70ee c10c 0000 0080 30c8 570d 0000 0000
00000160: 687b 821e 0000 0000 456c f30e 0000 0080
00000170: a32a 901e 0000 0000 5d66 6315 0000 0000
00000180: fa22 840b 0000 0080 11ac 0915 0000 0000
00000190: d2af e31f 0000 0080 7f41 8e0a 0000 0080
000001a0: ef69 e421 0000 0080 b6d9 8b03 0000 0080
000001b0: d591 4501 0000 0000 b807 5c0e 0000 0080
000001c0: 8297 980a 0000 0080 51b1 1114 0000 0000
000001d0: 2598 da22 0000 0000 f823 8323 0000 0080
000001e0: 9f02 7c01 0000 0080 1078 ad18 0000 0080
000001f0: 58bc 1802 0000 0000 f717 260d 0000 0080
00000200: a417 a708 0000 0080 6eeb 1411 0000 0000
00000210: 0cdd 2b12 0000 0080 16f1 ae08 0000 0080
00000220: cbe4 521b 0000 0080 342b 881f 0000 0080
00000230: a0a2 3403 0000 0080 209c 830a 0000 0000
00000240: f671 880b 0000 0000 b937 901a 0000 0080
00000250: 37b1 381c 0000 0000 d45e 4621 0000 0080
00000260: 26e7 0a23 0000 0080 22a7 2b16 0000 0000
00000270: 53ff 3b01 0000 0080 af93 ee1e 0000 0000
00000280: b735 fc05 0000 0000 536a 8516 0000 0000
00000290: d7db 0410 0000 0080 e7d5 1822 0000 0000
000002a0: 2e1e bd1e 0000 0080 45da 8101 0000 0080
000002b0: 4fc0 e815 0000 0080 4292 6506 0000 0080
000002c0: e702 780d 0000 0000 43fd c60e 0000 0000
000002d0: d893 a810 0000 0080 d035 5502 0000 0080
000002e0: 0b15 3708 0000 0000 26df 9614 0000 0080
000002f0: 698f b11b 0000 0000 934a 121f 0000 0000
00000300: 9938 5a21 0000 0080 60c3 6a02 0000 0000
00000310: b9cc 1221 0000 0080 41a9 f514 0000 0080
00000320: 9695 6208 0000 0080 48e3 a30a 0000 0080
00000330: e44d 9f15 0000 0000 b273 290b 0000 0080
00000340: 489f e400 0000 0080 47d1 861d 0000 0000
00000350: d5d0 361e 0000 0080 1926 1c15 0000 0000
00000360: 2033 611f 0000 0080 66af 2115 0000 0000
00000370: 339b 8b12 0000 0000 7281 1211 0000 0000
00000380: 618a ce16 0000 0080 d790 2b16 0000 0000
00000390: b527 0322 0000 0080 56b2 6c01 0000 0080
000003a0: e1bb 961e 0000 0080 064c 2b24 0000 0000
000003b0: f201 9221 0000 0000 f388 a41e 0000 0000
000003c0: 7ca5 0d04 0000 0000 e630 c11f 0000 0080
000003d0: 4551 8f0f 0000 0000 a2e5 6617 0000 0000
000003e0: 658b fd1a 0000 0000 ef9a c920 0000 0080
000003f0: 862d 8712 0000 0000 5957 8d14 0000 0080
00000400: 688c ff10 0000 0000 212c 5904 0000 0080
00000410: 0244 e10e 0000 0000 6d16 fe06 0000 0000
00000420: d793 ed01 0000 0000 df8a d008 0000 0080
00000430: f088 a721 0000 0000 ef93 c81d 0000 0080
00000440: 5f74 7d09 0000 0080 bb8e 570a 0000 0000
00000450: 2160 8201 0000 0080 2c32 0402 0000 0080
00000460: c246 890a 0000 0080 9ff3 c909 0000 0000
00000470: 90cb 3405 0000 0080 0c59 0014 0000 0000
00000480: 197f 3721 0000 0000 2e88 b21e 0000 0080
00000490: 0afb 1e1b 0000 0000 77ab 411d 0000 0000
000004a0: 33a6 ca0d 0000 0080 6601 c700 0000 0000
000004b0: 5d53 0d1e 0000 0080 1f13 940d 0000 0000
000004c0: 7902 a00b 0000 0000 bb2a 7513 0000 0080
000004d0: a5d2 1d21 0000 0000 470a 300b 0000 0000
000004e0: 49ae c411 0000 0080 94a4 9006 0000 0080
000004f0: 15a4 2f04 0000 0000 8073 b512 0000 0080
00000500: 2f72 dd01 0000 0080 1511 ac0f 0000 0080
00000510: edb4 4220 0000 0080 a672 7f1d 0000 0080
00000520: 7684 6319 0000 0000 1cad 4914 0000 0080
00000530: a001 6702 0000 0000 593c b810 0000 0080
00000540: 749c 7c14 0000 0000 bb84 d31e 0000 0000
00000550: 58a8 660d 0000 0000 73ef c702 0000 0080
00000560: d853 8f22 0000 0080 d8d3 8114 0000 0080
00000570: bdbd 9d06 0000 0000 5d87 2c07 0000 0000
00000580: 570b ef0d 0000 0080 68ce 5a0e 0000 0080
00000590: 33f2 fc0b 0000 0080 432c 6608 0000 0080
000005a0: 504e 871e 0000 0080 7f56 291c 0000 0080
000005b0: 66ff 640d 0000 0080 52c5 7804 0000 0080
000005c0: 5172 0a00 0000 0000 aa46 f211 0000 0080
000005d0: b14c b00f 0000 0080 3d05 4a00 0000 0080
000005e0: c4ef 6f20 0000 0080 9017 4e04 0000 0000
000005f0: f719 1609 0000 0000 d714 9202 0000 0000
00000600: ffb1 f622 0000 0080 efcd 4719 0000 0080
00000610: 1d5c de0f 0000 0080 d998 ab1f 0000 0080
00000620: eabb 0c02 0000 0080 a6c5 4618 0000 0080
00000630: 5fc8 8b1b 0000 0080 3d9f 8e15 0000 0080
00000640: 1f51 0708 0000 0000 c29b 3e0c 0000 0080
00000650: c01e 9600 0000 0080 d821 511a 0000 0000
00000660: dac9 2b1f 0000 0000 aa72 4405 0000 0000
00000670: 83db 690f 0000 0080 f1cb 5515 0000 0000
00000680: 56ce f515 0000 0000 01fa c117 0000 0080
00000690: c097 a118 0000 0080 8e06 f522 0000 0000
000006a0: 8020 5e1a 0000 0000 415a 1614 0000 0080
000006b0: c119 8b1a 0000 0080 7a6e dc1c 0000 0000
000006c0: e117 e111 0000 0080 3e72 570e 0000 0000
000006d0: 48bb 521d 0000 0000 7fc1 fe01 0000 0000
000006e0: de47 0d22 0000 0000 75fb 791c 0000 0000
000006f0: 3a4b c800 0000 0080 dfa0 a00d 0000 0080
00000700: a1a4 ae1c 0000 0000 8108 1f0c 0000 0080
00000710: b9b5 4604 0000 0080 5250 d805 0000 0000
00000720: 191c f300 0000 0080 eca7 4f19 0000 0000
00000730: 2dc5 2221 0000 0080 31f8 ef08 0000 0080
00000740: f0e5 3101 0000 0080 3a4f 6a04 0000 0000
00000750: fae6 a911 0000 0000 54de ca1e 0000 0000
00000760: e799 ee1c 0000 0080 3ec7 0012 0000 0080
00000770: 5252 0607 0000 0000 19c3 ef0a 0000 0080
00000780: fa1a 6b02 0000 0000 7295 9e22 0000 0000
00000790: a719 ed10 0000 0000 61f6 511a 0000 0080
000007a0: e74f 7a18 0000 0000 1ae9 380e 0000 0000
000007b0: eded 7b1d 0000 0000 907b 2307 0000 0000
000007c0: ee95 8d0f 0000 0000 281c e10d 0000 0080
000007d0: 3c2e 8315 0000 0000 df2e db18 0000 0080
000007e0: ce95 f90e 0000 0080 6ea0 6a03 0000 0000
000007f0: c0d1 061e 0000 0000 4ae7 c90c 0000 0000

bias_0 f8 [1, 64]
-0.08379093564945322 -0.26670631731199745 -0.06571041478795371 -0.06632677417832554 -0.0748783764118691 -0.34175965987022394 -0.02200756219352373 -0.22555012216309966
-0.2127768688882547 0.044447420793170316 0.16047168159910394 -0.04741406290053952 -0.42397661074333287 -0.13053794895026835 -0.328726360774247 -0.32043023610485977
0.2760825734736083 -0.13920407469913332 -0.1583834185021685 0.05228363338281094 -0.11879782494709941 0.27730387329076056 -0.1653506109305599 -0.25564605727612155
0.16314855377089704 -0.12067095287432918 -0.0415275242825554 0.26282912383142254 0.1805277077519139 -0.11143680422193221 0.03030373613940576 -0.07337659745326754
-0.1943658631741505 -0.01209608431305179 -0.123841887963123 -0.3321919581178939 -0.052811254538971994 -0.2621569390513678 -0.06747552930150957 0.08245951684395883
-0.10204240291753104 0.011841994740406975 0.015448841501144804 -0.008958216783457831 -0.22543810884497692 -0.025573653789012267 0.04723750601904338 0.09444178983491702
-0.4480496072564411 -0.17694573863742588 -0.15109277709330335 0.06956610423679792 0.013968096448076645 0.15067962070683055 -0.009451011777944964 -0.39819684408503453
-0.38293936620787694 0.046470806586302246 -0.3253669864241331 -0.2027728699401412 0.04934826892817079 0.038444613994669016 0.18533529979034122 -0.1628271269881017
00000000: eccd 50a0 5273 b5bf d476 9f5f b711 d1bf
00000010: d156 85d2 65d2 b0bf 1ff1 f19d cafa b0bf
00000020: 97d6 ddb1 3a2b b3bf 4005 8fe8 63df d5bf
00000030: 9f21 8b7f 2689 96bf 0c50 268f d3de ccbf
00000040: e633 9cbe 453c cbbf af7c 65f5 cfc1 a63f
00000050: cb7d 3308 568a c43f e17d 0ef3 a746 a8bf
00000060: 9f56 5acb 6e22 dbbf cb6c d0ae 77b5 c0bf
00000070: 78f1 364a da09 d5bf 5a13 2ed2 ed81 d4bf
00000080: 7823 043e 56ab d13f 7cbf 266a 70d1 c1bf
00000090: fb05 5969 e845 c4bf 5f8e fd9e ebc4 aa3f
000000a0: 65d5 fbc4 8869 bebf e2a0 b5be 58bf d13f
000000b0: 0b02 2975 352a c5bf d68b d647 815c d0bf
000000c0: 3af8 6a43 0de2 c43f 7922 2ca4 4ae4 bebf
000000d0: f7d6 5a7d 1843 a5bf f2b4 d23e 31d2 d03f
000000e0: 0a7d 682c 881b c73f 4d36 b455 1f87 bcbf
000000f0: 6754 a94e f107 9f3f a981 5a06 cfc8 b2bf
00000100: 4859 e508 fbe0 c8bf 1213 46f4 d4c5 88bf
00000110: b72f ad1a 1ab4 bfbf 5a13 070f a242 d5bf
00000120: 5613 36a6 130a abbf 2749 e9e5 2dc7 d0bf
00000130: 9859 a187 1346 b1bf 42b9 1620 111c b53f
00000140: 6d07 566f 731f babf 1d1e 09a1 9d40 883f
00000150: cc6a 1168 a4a3 8f3f 6866 ec80 af58 82bf
00000160: 1b71 61ec 27db ccbf 6ef2 a6da fa2f 9abf
00000170: 6a27 feae 832f a83f f077 b74e 562d b83f
00000180: 55bb 8942 d8ac dcbf a3a1 4e70 28a6 c6bf
00000190: f386 2314 0257 c3bf c36f 9b8e 15cf b13f
000001a0: 9074 742b 4e9b 8c3f ce04 8e45 7849 c33f
000001b0: 8ec9 0054 0d5b 83bf f4cc ad9d 0e7c d9bf
000001c0: e2ae 8d1d 1482 d8bf a689 0385 05cb a73f
000001d0: 4cf1 780d d0d2 d4bf 1059 741e 76f4 c9bf
000001e0: 2048 5222 2d44 a93f 3eff a02f 03af a33f
000001f0: 5f6a b22d 11b9 c73f 7a63 a8f0 84d7 c4bf

weight_1 f8 [64, 32]
-2.0397061039567927 0.44351402285196717 -3.55348602592113 0.16435238620683779 -2.18593674205712 0.2820605664345449 -0.99900580351935 0.5954130921214399
-0.464226805545103 -1.7538748424855362 -0.03273063129933511 -0.015757590976355592 1.3155767863073813 0.9688706891438208 0.7450109558774057 0.5905843148848346
-0.42734799370181936 -2.419180237456193 0.6895895401608344 -1.769966340081157 -0.28596423154505496 -0.8418562920655068 -3.46911176217441 0.9808699900290355
-2.801312006111974 1.2806946816476463 -0.32333463249201844 0.17161847206188147 -0.6896271143584664 -2.818854164726684 0.632669588509213 0.00013700517893741395
0.6414713215699345 -1.1295651510990972 0.04206456674588497 -1.2420885861043096 0.2258070806160021 0.12487511660486252 0.6778532953929934 -1.7426146133307925
0.22118399258319876 0.27753648529164204 0.593608473747471 -1.4827368397560847 -1.7039192843326032 0.4061444916800991 0.43650735758484416 -0.23694494953046075
-0.0418834542769703 -1.1874966013446628 -2.870670128173253 -2.0368640079690636 0.570966653862375 -0.42611677864944264 -0.02441998470236061 -2.705974443460868
0.23620115173370712 -1.3159224666182867 0.029164496280634535 -2.691708199953355 -0.7148324037121122 -1.5855177155103517 -0.9009894231818396 -0.5836134700239929
-0.9289145322993334 0.28863482465674617 -0.9704937914881825 0.651414316722136 -0.8484559685566465 -0.7405786192948891 0.6872184318650933 -1.105305862751913
-0.006997103502285863 -0.054029482736851674 -1.0663449926835755 0.367360052826432 0.2983193210777201 0.24158697508399976 -3.1703395272791246 -1.561468633085281
-0.6628544361171801 -0.14798469476667658 0.5792058136488762 0.5032256594897049 -0.3589433954026296 0.18352195317331269 -0.28059675843396886 -1.2558454415608127
0.22109148627859 -1.4919916399487856 -0.04574468135262064 -0.6199824702427931 -2.9794380172609864 -0.10470127579673597 -2.0109632189835716 -0.08676108932903939
-1.8126961061504736 -1.2474656886457693 -2.8138998902344072 -0.6568640861892366 -0.3540172789603088 -1.7430752664353966 -1.2445973940576744 -1.934820864192256
0.27900823338284136 -0.8586009795262465 0.7628388821380488 -2.0755491943857955 -1.535488867229701 -2.1608914662188887 0.38434900153751544 -1.0095968487261555
1.0835800600211796 -2.655564009653857 0.40164968100345855 -0.0038240635359846286 -1.9241905707490548 2.2109053565133387 -1.3829052581771033 0.5140842171021799
-0.7975846684408829 -1.0161776536069236 -1.1114790562519126 -0.7853030456781833 0.704115840070631 -2.266359080113223 0.7159574207357925 -0.650220882524967
-1.1028465254948951 -1.3631368459970405 -2.5357209718562697 -0.13080905608832183 -0.898055084526336 -3.272140690114061 0.9031535672415012 -0.8687101832347326
1.4479855541807531 -1.3163816476648227 3.226616124936636 -2.750772986680733 -2.22915565418585 -2.9598045734140976 0.14443217011149495 -1.4176755742468685
0.4665661024845757 -2.2316747043181553 -0.48356761931685976 -0.40612954789838057 -1.6435879410939935 1.3371049838151547 0.39896983178323453 0.04898778808003102
-0.2190586504518752 -2.019220065631271 -0.7395843151064141 -0.7551803700964769 0.6032674532497572 -1.2860597597821197 1.3946609064789364 -1.1613797373214574
-2.2507610884617515 2.1927221627287365 -1.6210276134500337 -0.8390518404593881 -1.4235572496264453 1.51930693966613 -1.1477484757394467 -1.3424906789947118
0.4567802348377446 -1.8114045527369471 -1.5098179648507106 -1.2614847711142116 1.8863991875604367 2.2788972462428565 1.2571757626308486 -0.9024077495013622
-0.6118129280402336 -1.9507249673110056 -0.9823748229783159 -0.37148950063300457 0.9970877945226521 -0.7181780997799396 -0.72856396563233 -1.3589118334044734
-1.950544850590959 2.0628860636980395 -0.6713423074353839 -1.1838847925863838 -0.2861104466075031 -0.3910419908005647 -1.612555458128789 1.7279368819390686
-1.5431015218018147 0.15297009763291017 -2.7462709411160215 -1.7402431556919185 -0.8388172539137393 -0.11899097183060794 -1.8693941299379928 0.4046258405378809
-0.37151611394720785 -1.4999469615545469 0.11252195589679903 -2.073221006428183 0.49930496819420733 0.031228214166638693 1.6481110626053137 0.09124875359085796
0.361243607518037 -2.253143072543293 -0.5663699678572159 -2.4833640251448945 -0.3188370040648946 0.17910877981461587 -3.0535775138437535 0.7425069400800721
-3.1834295649774114 0.7633046452228829 -0.025531661940162154 -0.789583925263924 0.2569005084165792 -2.6823521694054424 0.6155443160036258 0.41392278525114423
2.5855557615079765 -1.7444866227111178 1.748175724817295 -0.5590659223270757 0.5737963341413154 0.6368323829004644 -0.3409036421217385 -0.899849166094927
-1.1344621033937283 0.3539640081364939 -0.16345801535471616 -1.3614872264866622 -0.13407177071481557 2.1470405861451547 2.0082797986575556 -0.030640154312949093
1.9966512803620042 -1.072461543277027 -1.2479396619376646 -0.6265517548260119 2.4203775485242303 -0.871211333299263 0.0020287979243129185 -0.7699640615971682
-1.8812023236143862 -1.7577290524729592 -1.5777151377918233 -0.7884928355482007 -0.6273882628442335 -0.18945194856164835 0.10738993102694645 -1.9783106119175162
00000000: 6991 0f6f 5151 00c0 b4dc dda3 8862 dc3f
00000010: 7dfe e014 8a6d 0cc0 3493 e3bd 7f09 c53f
00000020: b914 1267 cc7c 01c0 7ef7 14c3 470d d23f
00000030: 6727 d404 dbf7 efbf bfb2 c8c1 9f0d e33f
00000040: 8689 ef58 e4b5 ddbf 5c0a 1c11 df0f fcbf
00000050: d622 04be 11c2 a0bf eff6 a007 c222 90bf
00000060: 5d12 893e 9a0c f53f 469f 7d1a fd00 ef3f
00000070: 0bf7 5437 21d7 e73f f2bf be13 11e6 e23f
00000080: 4b79 3d66 ab59 dbbf e907 182b 7b5a 03c0
00000090: 5bf1 5415 1e11 e63f cbb5 9a39 c851 fcbf
000000a0: 3ff4 93eb 3c4d d2bf 384d 4b9b 7cf0 eabf
000000b0: 07aa e5aa bdc0 0bc0 85ae 1976 4963 ef3f
000000c0: 0725 e144 1669 06c0 8467 ddb4 b97d f43f
000000d0: dae9 0dbe 83b1 d4bf 3a98 7216 98f7 c53f
000000e0: c757 d3e1 6c11 e6bf 588e 8d69 038d 06c0
000000f0: 6144 fa4a d43e e43f b34b 9d86 21f5 213f
00000100: 61df 6edd ee86 e43f 30c0 6ae8 b212 f2bf
00000110: 9deb fca4 7c89 a53f a3d8 0048 98df f3bf
00000120: 35b9 3915 3fe7 cc3f 21ee e6cd d0f7 bf3f
00000130: 085c e664 f9b0 e53f 5a99 5cdc bfe1 fbbf
00000140: e492 45cf c14f cc3f 918f f163 28c3 d13f
00000150: aff6 ab32 d7fe e23f 7a3a b543 4ab9 f7bf
00000160: 52b7 13de 4043 fbbf 47dc 4d77 45fe d93f
00000170: 0094 528e bcef db3f 00c5 974c 3654 cebf
00000180: 15e8 b984 bf71 a5bf 022f ae6f fcff f2bf
00000190: b2dd 70e6 21f7 06c0 4d03 655b 7f4b 00c0
000001a0: 2641 2edc 5b45 e23f e8e0 244f 7f45 dbbf
000001b0: 1d6e a96e 8d01 99bf 51cf d3ed d5a5 05c0
000001c0: aba5 fcde d63b ce3f b427 63b7 040e f5bf
000001d0: 7a26 eb36 4cdd 9d3f c365 094f 9e88 05c0
000001e0: 2111 8234 e8df e6bf 8c87 f5d2 475e f9bf
000001f0: f673 53c5 e7d4 ecbf 9142 e827 f6ac e2bf
00000200: 1927 20f8 aab9 edbf 7acb 1833 fe78 d23f
00000210: 8d35 edfe 480e efbf e4f7 4ed6 62d8 e43f
00000220: 657f a121 8d26 ebbf d6a0 bfee d1b2 e7bf
00000230: 1635 4282 b1fd e53f 648b 4933 55af f1bf
00000240: 683f 58ab fea8 7cbf 3bc8 bf9a c0a9 abbf
00000250: e144 5dc4 bf0f f1bf 54c4 2fbd d382 d73f
00000260: 7ecc f2eb a917 d33f 550b 906e 52ec ce3f
00000270: 1e0a 57f8 da5c 09c0 354c 8d88 c6fb f8bf
00000280: c937 a481 1a36 e5bf ea6b 2a98 29f1 c2bf
00000290: c0cc 68a1 da88 e23f a685 c0b2 6c1a e03f
000002a0: bda5 17b8 edf8 d6bf 251c 7db9 a57d c73f
000002b0: bd99 351b 4cf5 d1bf 9459 c563 f117 f4bf
000002c0: 38cb 7ecf b94c cc3f 5ec4 37a0 32df f7bf
000002d0: 8d3a c0cc d86b a7bf a527 397a e5d6 e3bf
000002e0: 9ac2 6499 e3d5 07c0 3a7e 65eb b3cd babf
000002f0: 55f2 57e2 7316 00c0 82ca 3b89 f935 b6bf
00000300: 960b d8a1 cd00 fdbf e6d9 f994 9ef5 f3bf
00000310: ba32 16f2 dd82 06c0 b730 03d5 0705 e5bf
00000320: af9e d616 38a8 d6bf 7ce7 fce3 a2e3 fbbf
00000330: f1a1 02f5 dee9 f3bf e92f f5b8 06f5 febf
00000340: 236b 6c59 45db d13f 151f ecc2 a879 ebbf
00000350: c5cd 5c16 2d69 e83f 5502 3989 b99a 00c0
00000360: 7afa 41c6 5c91 f8bf c8ec 0c77 8149 01c0
00000370: 03a6 f68d 2c99 d83f a5c6 7606 4f27 f0bf
00000380: 0c38 860b 5856 f13f fd2e ef57 983e 05c0
00000390: baf4 16dd a0b4 d93f f36a 657a a453 6fbf
000003a0: 6138 4a0d 7cc9 febf 4535 c625 efaf 0140
000003b0: be64 9543 6120 f6bf fdfe 7abe 6073 e03f
000003c0: bad3 5748 d085 e9bf 1eaf d27f 4342 f0bf
000003d0: 90a7 4c43 9ec8 f1bf 3c62 54da 3321 e9bf
000003e0: 9b5d 36f1 1d88 e63f aaa1 90de 8021 02c0
000003f0: 9170 6c89 1fe9 e63f 29df 3306 9cce e4bf
00000400: f81f f865 42a5 f1bf 617a d894 68cf f5bf
00000410: 6c3b af13 2849 04c0 a4c1 f5e4 59be c0bf
00000420: 1482 4104 debc ecbf 299b 1f19 582d 0ac0
00000430: ee2c 524f a2e6 ec3f 4240 564c 79cc ebbf
00000440: 9d96 84e6 f22a f73f 6f66 dc33 e60f f5bf
00000450: f6ca 6a1d 1cd0 0940 a81c 8444 9501 06c0
00000460: aa5f 438f 4fd5 01c0 12eb 2a05 aead 07c0
00000470: 4641 8fdb c07c c23f 33a7 3b95 ccae f6bf
00000480: dffa e511 38dc dd3f 07db 7244 78da 01c0
00000490: 1eb6 9799 c5f2 debf 7b6b 8ac9 06fe d9bf
000004a0: 2e94 71de 224c fabf 0ce0 0c32 c864 f53f
000004b0: 1260 e6c2 b888 d93f 910a 6a67 ed14 a93f
000004c0: a760 cc25 1d0a ccbf 9a81 8ad9 5c27 00c0
000004d0: 0c88 c0b9 acaa e7bf 4da8 0406 702a e8bf
000004e0: 855d ce8b f74d e33f 0074 0f66 b393 f4bf
000004f0: 5063 65f4 8750 f63f 1086 60eb 0295 f2bf
00000500: b26b 9007 8f01 02c0 1313 d1ea b18a 0140
00000510: a8e4 9aa6 baef f9bf 6a7e cd3e 83d9 eabf
00000520: 9311 72f7 e3c6 f6bf e03a 27cb 144f f83f
00000530: 3b5b 7581 2d5d f2bf 5479 9781 d77a f5bf
00000540: 8996 852a e33b dd3f 874a 1d57 83fb fcbf
00000550: 3d27 dfe1 3628 f8bf bf66 c5a7 0a2f f4bf
00000560: 655e 1cea b02e fe3f d175 bc7a 2e3b 0240
00000570: 752c 1d55 641d f43f 6d7d 7837 86e0 ecbf
00000580: 607d a6b4 f893 e3bf 8876 2162 2b36 ffbf
00000590: 8961 2353 9d6f efbf 0cac 01e6 7bc6 d7bf
000005a0: dbe5 96a9 24e8 ef3f b643 68a3 50fb e6bf
000005b0: e8ea ad60 6550 e7bf f0e9 a955 1abe f5bf
000005c0: c3b5 6a84 6e35 ffbf 74a8 9768 ca80 0040
000005d0: 9865 dbdc a27b e5bf 833e 262e 31f1 f2bf
000005e0: 9548 ce30 a24f d2bf 6079 76fc d406 d9bf
000005f0: 2264 baf3 06cd f9bf 2eb0 d724 a1a5 fb3f
00000600: fabe a838 8bb0 f8bf 15b5 4c2f 8694 c33f
00000610: 3c63 30e6 5cf8 05c0 d48d 0c35 09d8 fbbf
00000620: 4629 1c48 97d7 eabf b21e 883c 3176 bebf
00000630: 59b0 b6d1 09e9 fdbf 6982 0ec8 63e5 d93f
00000640: f0c6 d585 ebc6 d7bf 15c8 9962 c8ff f7bf
00000650: f8a0 a828 3dce bc3f fde9 1fe5 f495 00c0
00000660: d6f6 47d3 9cf4 df3f 0498 3bfa 49fa 9f3f
00000670: d30c a1b4 a95e fa3f 2237 790c 145c b73f
00000680: 3575 0b82 9d1e d73f 5a42 0ee0 6f06 02c0
00000690: 1b44 2ce9 b31f e2bf 617b 40f5 eddd 03c0
000006a0: 63a7 4d52 d367 d4bf 8278 dd57 09ed c63f
000006b0: 4b14 2e0c ba6d 08c0 584d 16ea 9dc2 e73f
000006c0: 7594 75eb a977 09c0 d0bf 03dd fd6c e83f
000006d0: f09d 2ed4 f824 9abf 6b96 0e82 4544 e9bf
000006e0: 1466 7ed4 0e71 d03f b49b df0d 7575 05c0
000006f0: 282d 4ffe 89b2 e33f ec43 6efe b57d da3f
00000700: 014a eddb 37af 0440 eda8 0dce 6ae9 fbbf
00000710: a505 dc1b 87f8 fb3f e27d 9637 dee3 e1bf
00000720: d173 3621 8a5c e23f 79eb 324e ee60 e43f
00000730: 8a02 8082 5dd1 d5bf 1abd 767a 90cb ecbf
00000740: f809 0abc c126 f2bf 8511 baa7 58a7 d63f
00000750: 64d9 1b37 31ec c4bf 4ee9 7ad4 a6c8 f5bf
00000760: 90ba 4487 4329 c1bf c56c 659d 232d 0140
00000770: 039d c3ff f410 0040 02c1 dff2 2160 9fbf
00000780: cabd ea9c 48f2 ff3f f67a 696f cd28 f1bf
00000790: 0175 3694 8ff7 f3bf 0b55 0744 b60c e4bf
000007a0: e312 77e7 ee5c 0340 b498 0d97 f6e0 ebbf
000007b0: 6413 8697 b29e 603f 21f7 f4ab 8ba3 e8bf
000007c0: f553 919b 6719 febf 5a9b b97f a81f fcbf
000007d0: 2e85 733a 523e f9bf 1dea b953 553b e9bf
000007e0: 72ed d98c 9013 e4bf 2f2d 9e21 f63f c8bf
000007f0: b530 ae11 e87d bb3f 683f 3807 29a7 ffbf

bias_1 f8 [1, 32]
-0.3502419355892675 -0.4872169376342453 0.019697298882142465 -0.6325562623663303 0.04204136224307227 0.030441239339431776 -0.9172737137146183 -0.2676654744395616
-0.856111593586399 -1.0451396248080527 -0.743224295360957 -0.01098319734364195 -0.4262343525219521 -0.19569640804524888 -0.5686481997819463 -0.687869927067086
-0.8789888958397243 -0.448927099750729 -0.8599561623781474 -0.5378495392451418 -0.37710775790518236 -0.7421419697563282 -0.4606737419523119 -0.7238408617921052
-0.27989280109521486 -0.4364163709289599 -0.7990647774681321 -0.5939380118028412 -0.9585697270359673 -0.7090190516493674 -0.9857624885633172 -0.7569233300796538
00000000: 09cb c226 5d6a d6bf 1591 4cf3 8f2e dfbf
00000010: 86c7 125a 872b 943f cec9 77a1 e63d e4bf
00000020: 0a9a d307 7286 a53f 4278 a6fd fc2b 9f3f
00000030: e44f 3c67 4e5a edbf 931e bf5e 6e21 d1bf
00000040: c8c2 0524 4465 ebbf 66de c453 e4b8 f0bf
00000050: e35f 4551 7ec8 e7bf 41f1 2bcb 5b7e 86bf
00000060: 80dd 2073 6c47 dbbf bbdf 3f74 940c c9bf
00000070: 79c4 9fb5 5d32 e2bf 16f6 14cb 0703 e6bf
00000080: 74b8 2552 ad20 ecbf b2eb edba 38bb dcbf
00000090: c50c 2dc9 c284 ebbf eb3f a73c 1036 e1bf
000000a0: 3a52 d193 8822 d8bf 5bf5 2284 a0bf e7bf
000000b0: 70e9 f3b7 ad7b ddbf 3ffa 9c4f b429 e7bf
000000c0: f8be c57e c3e9 d1bf 800c 25ee 3eee dbbf
000000d0: 808e d34b f091 e9bf 426c 114a 8a01 e3bf
000000e0: 99c3 916b 9aac eebf 2366 e2b8 48b0 e6bf
000000f0: c018 40c6 5d8b efbf 58b0 8846 b738 e8bf

weight_2 f8 [32, 10]
1.8474475906806134 -1.623091098305785 -0.6029828965758455 -0.2607898314217953 0.1175270711297457 -0.02856150369332137 -1.1594983620855204 -0.136036076433846
-1.4119532587696821 0.6144550745817212 -2.405463171576769 -2.406834848286856 -0.6251104644480155 -0.7503882156938372 -1.2787058803837748 0.5407452890133703
1.6489642660795798 -1.2560620308143664 0.3733484097776345 -1.1645233101979697 0.8912281721233286 -3.162081062150458 -1.3247125958504014 -1.269554630206819
0.1427837588635225 -2.1239479774459196 -1.9280234478261027 -0.7661352594548682 0.9713397415727983 1.7318162587907244 -3.0570349398842223 0.7236300032898269
-4.903663892035503 0.7226860131629054 0.5773835128441925 -0.8461984167122542 -3.7803347278449078 0.9984725965129793 -2.495823269082445 0.5810273947671902
0.6920093974728996 -2.2770104860024083 0.924216613705357 -0.5177295400506957 -1.5401873369941768 -0.14419608248684104 -0.8986998380793412 -1.5691359612054483
1.741266707351321 -2.4841031942298555 0.6143422901412069 -1.8382853232476175 -0.09870841857267845 -0.7115639138144432 -0.8793032186983027 -1.0878684000336745
1.0899150359517198 -3.0959039594939926 1.455937772025488 -2.098267893689516 -0.0938490478432096 -1.5089881602390354 -0.6971638138900527 1.2591677951024505
-2.1559468560015653 1.0890995753591732 -0.974972829144284 -1.02289309413627 -2.713475427357258 -2.1460785773687814 -2.7001993627570835 0.5871793572972223
0.21470069357024324 -1.6325710064373051 1.5311149011665093 -0.011436804185277715 -0.11930739558795976 -2.866584297980332 0.6626558062373448 0.21762489764203388
-1.262930237551898 -0.8548187602775789 0.6372229260221132 1.8785257997104159 -1.9371655836594932 -0.5098751889867393 -0.4475558156581007 -1.295127367057411
-0.37593418842383614 -1.3614590031291984 0.3402317981312123 -1.289947806738264 -1.5329177399483107 -2.0729406539799036 -2.113365656681541 1.8755893252412477
-1.0011977004492594 0.6613683030610789 -0.3866584577799087 -1.5040092582565958 -0.8002584645370545 0.6052506752948171 0.7807459560047022 0.7235200779213357
-2.5699171143020547 -0.15395762651653594 -1.5094269783647563 -1.4530915246773308 -0.8597793593093248 -1.6018214108811004 -2.4399550524237985 1.9016941647515464
-1.4266657614136626 -1.4642098584487104 -1.1589332360452553 -1.052812959837402 -1.4313104602893783 -0.6951650333113006 1.9275407957165027 -1.75384975960534
-1.102565853593367 2.0452240355693116 -0.493742054216992 -1.4028504431470867 -0.33496690500758153 -0.3827176080880779 1.250857624293708 -1.8108999997577673
-1.923260719861531 -0.5796264181520571 1.2439175409307879 1.0915166592755727 -0.9930340095064926 -0.1524422790782868 -0.5610649519881877 -0.721770986220006
1.2215068003293557 -0.533919260490233 -0.8540072736693778 -0.7416763436894429 1.0925073850169047 -1.8149253564231576 1.137090632002642 -1.9502716215093518
0.9940808345167303 -0.3185535824942176 0.9614738288887811 -2.341681003082961 -2.003285803243969 -0.5693026280266401 0.17789357165812947 -2.011489090848877
-1.3055334388281097 -0.520784199927495 3.0258920716166764 -0.11482997772335328 0.00790249368485211 -0.8503122551475494 -0.2736097555518239 -1.1829015097185434
1.3824518600138425 -1.6474314376133559 1.3932605005467713 -1.2759274270135124 -1.5852621994583869 -0.08438560423022025 -0.2696774067257517 0.8001416822216668
-1.6558664228890116 -1.2116762848685476 -1.945980347111854 0.258161769013537 -2.326109558969738 -1.0651837919081262 -0.6240916234850357 0.9542921599513924
-0.32443482641222865 -1.6402776892572766 0.4833221168431163 0.7417039676300072 -1.191161661709392 1.8647292558100126 0.155477692780922 -1.4292178389567785
-2.1840877137168455 -0.43320656765961363 -0.848979636440613 2.036339808757273 -0.9572108167301321 -1.5712882453688952 -1.394100198193149 -2.1515032976296045
-0.9783335321594249 -0.004922580880427638 -3.5012978399322905 -1.4538429290220924 -2.7831314066638595 2.080594922422714 -1.1955292784591314 1.1700115007198244
1.5596439302689504 -2.85374333701002 -2.309217835568712 -0.9082781892129138 -1.4078001035869905 0.3369528583440231 0.7836227771636748 0.8212324641457377
-1.6719410592028359 0.06737686413996034 -3.181691016118276 -3.7863899691983476 1.239480120324809 1.3303930700257833 -2.8811207294749686 -0.8699075213580358
-2.5879250182496008 1.4517335040701693 -0.7145530068659508 -4.398788465737513 -1.0101083589982 -2.619621743423136 -1.916346933613373 1.6749089769205716
-0.17504634164175967 -0.5892366893850277 -1.6756169846250633 -1.0035086638038493 0.5824806057646844 1.160822931931282 -0.87038307586277 -2.7701893436610088
0.21591129121340835 -1.4086027967948607 1.3250212739978664 -0.8321085864251955 0.01669714298428628 0.8672533499742402 -1.3921610471508077 -1.0785845338825406
-1.1709558154463497 -2.7260955638986 -1.3976065764137127 0.8385404638105833 -2.4627560899387113 1.0633223416221234 -0.8657660069736584 -1.0927082621568538
0.7726027327651525 -1.7723514265699785 -2.3530337120314573 -0.056919711138061685 0.5269018460431307 -0.6193782498127277 0.716431585405112 -0.6198442366036164
00000000: 73c1 7034 258f fd3f de6e 1a5f 2ef8 f9bf
00000010: 40e6 9ac9 a24b e3bf 6f80 45d5 c7b0 d0bf
00000020: c89c e50e 4116 be3f cb4b 2611 3a3f 9dbf
00000030: 1ac4 8e27 4e8d f2bf e904 ae51 a169 c1bf
00000040: b257 de4c 5c97 f6bf 4c12 46b0 9da9 e33f
00000050: be3c ad79 633e 03c0 101f 02a1 3241 03c0
00000060: 9121 26a9 e700 e4bf b1ae b625 2e03 e8bf
00000070: 1e38 174c 9475 f4bf 6be9 7810 c94d e13f
00000080: db59 b15a 2862 fa3f 5185 0180 d418 f4bf
00000090: 088c 80ba f0e4 d73f d9ad cb31 e3a1 f2bf
000000a0: ce64 91f1 f084 ec3f b4e5 e927 f14b 09c0
000000b0: 866d bcd5 0532 f5bf 1e94 1384 1850 f4bf
000000c0: f500 5cfb bc46 c23f d948 ec6f d8fd 00c0
000000d0: 2f59 651d 2fd9 febf ed79 7517 2e84 e8bf
000000e0: 4187 eb14 3715 ef3f e9fe 22f7 84b5 fb3f
000000f0: a941 0cbc ce74 08c0 fe17 d11b fa27 e73f
00000100: 6879 3b11 5a9d 13c0 34f6 f96a 3e20 e73f
00000110: fb4a 1dfd ec79 e23f 7798 b6b3 0e14 ebbf
00000120: 2c37 4022 203e 0ec0 e236 7fcd 7cf3 ef3f
00000130: 7470 aa30 72f7 03c0 805d 53c3 c697 e23f
00000140: f076 55e4 f024 e63f 3b3c 1046 5137 02c0
00000150: 9719 49b8 2e93 ed3f 871b 568a 3d91 e0bf
00000160: 33a7 217a 9ba4 f8bf b503 3f69 0475 c2bf
00000170: 9c14 af29 26c2 ecbf c6ad 454f 2e1b f9bf
00000180: 1c00 9b7a 3adc fb3f d6d9 d87e 71df 03c0
00000190: 6999 9629 b1a8 e33f 7e0b 01df 9d69 fdbf
000001a0: 5a0a 9c75 f444 b9bf f418 5baf 21c5 e6bf
000001b0: b474 f280 4023 ecbf 92f1 07b2 e867 f1bf
000001c0: 024d adbf 4a70 f13f 3aab 8c4b 69c4 08c0
000001d0: eac4 bd67 854b f73f 6e25 6dad 40c9 00c0
000001e0: aa50 3fbf 7d06 b8bf 2272 e4c4 d024 f8bf
000001f0: d698 937c 2a4f e6bf 6543 4221 8d25 f43f
00000200: a586 b310 613f 01c0 0a15 24ad f36c f13f
00000210: b739 f537 fa32 efbf 97e9 2926 c55d f0bf
00000220: 0cfe d79a 32b5 05c0 9c8f c33e 2b2b 01c0
00000230: 12c6 9d1f 029a 05c0 b34a 0f5d 2cca e23f
00000240: f406 a8f4 4f7b cb3f 8bbc 90c6 021f fabf
00000250: d9da ae56 727f f83f 067b 92df 2d6c 87bf
00000260: ffa1 38f2 ed8a bebf d16b 98bf c3ee 06c0
00000270: b367 09f3 7934 e53f 317d 15f5 21db cb3f
00000280: 7ca3 3656 f634 f4bf 6bc8 6cdf ac5a ebbf
00000290: 4cd8 7055 2164 e43f fc2c a711 710e fe3f
000002a0: 8311 cc56 a1fe febf f9ac b7c5 e550 e0bf
000002b0: a3b6 d825 c1a4 dcbf a0a8 5a79 d7b8 f4bf
000002c0: a9a2 2e45 4e0f d8bf 018e 543c 89c8 f5bf
000002d0: e619 8297 5bc6 d53f eacd b74f a0a3 f4bf
000002e0: 6394 88c0 d486 f8bf eb23 dbe8 6195 00c0
000002f0: 887e df40 2ce8 00c0 b334 caf3 6902 fe3f
00000300: da28 44e1 e704 f0bf 6844 08dc ed29 e53f
00000310: 7ebc b81d 03bf d8bf 257e 1103 6c10 f8bf
00000320: 1815 b1a3 b79b e9bf afbd 08aa 365e e33f
00000330: 4dc8 70f1 defb e83f ff7c 1594 1327 e73f
00000340: 39dd 3ab4 308f 04c0 eadc 6d2d e2b4 c3bf
00000350: 7a6d 3ce7 9c26 f8bf b557 09e6 dc3f f7bf
00000360: de4c c000 5083 ebbf 3e45 dc7c 0fa1 f9bf
00000370: 21f6 8e27 0785 03c0 7fa1 49dc 566d fe3f
00000380: 9083 397a 9fd3 f6bf bb49 0851 676d f7bf
00000390: 37fd b093 fd8a f2bf d9e7 f466 52d8 f0bf
000003a0: 71d9 15cc a5e6 f6bf 18a2 6cbd ca3e e6bf
000003b0: 5fee 7404 35d7 fe3f 6ba3 f9c3 c40f fcbf
000003c0: d8ea ad17 1ca4 f1bf 4f1b 4e6b 9e5c 0040
000003d0: d265 e145 7899 dfbf fbee 674e 1372 f6bf
000003e0: 62fe 8f07 1970 d5bf 6ddd 95fe 717e d8bf
000003f0: 1fb3 c448 8303 f43f 8893 3447 72f9 fcbf
00000400: 7fc9 5708 adc5 febf e78a bbb3 4c8c e2bf
00000410: e07e 5314 16e7 f33f 4e0b 2a2c da76 f13f
00000420: 2bad 5442 efc6 efbf 0da0 9585 3a83 c3bf
00000430: 0f13 777c 3ef4 e1bf ed87 a077 bf18 e7bf
00000440: 5519 f4b6 4a8b f33f 6052 50d8 dd15 e1bf
00000450: 5e98 de0f 0754 ebbf ce9d 0b07 d0bb e7bf
00000460: cf93 1406 e97a f13f 354c a82b ef09 fdbf
00000470: 0ca1 50f2 8531 f23f 6231 0b04 5034 ffbf
00000480: 458d 3a9c 82cf ef3f fc85 b590 2e63 d4bf
00000490: dd30 61c3 64c4 ee3f 103f ef3f c3bb 02c0
000004a0: a0ca 0bb5 ba06 00c0 39d7 1c25 ba37 e2bf
000004b0: b45b 3870 37c5 c63f 52a7 ab97 8717 00c0
000004c0: 4d9e f907 77e3 f4bf a9c9 5ea0 43aa e0bf
000004d0: f58d 06e7 0635 0840 0316 ec56 7f65 bdbf
000004e0: d55e 77bf 2e2f 803f 3be5 e70b c235 ebbf
000004f0: 7a8b fd7d d282 d1bf 2d15 2a22 2aed f2bf
00000500: 76dc 70d7 851e f63f de39 2f11 e15b fabf
00000510: f682 ca85 cb4a f63f ba7a b1e0 326a f4bf
00000520: 0c24 64e5 3b5d f9bf e107 6c82 4b9a b5bf
00000530: 44dc 9606 6542 d1bf 19df a9ba c29a e93f
00000540: 1da5 4dca 6d7e fabf 4a96 0dac 0663 f3bf
00000550: f610 d849 bc22 ffbf c566 bff0 b885 d03f
00000560: 0a81 1554 df9b 02c0 4198 e728 fe0a f1bf
00000570: bd6c 12ff 8ef8 e3bf f940 3ab6 8f89 ee3f
00000580: f2ee 474a 8ac3 d4bf c97e 7bd1 933e fabf
00000590: 4894 51e3 bfee de3f 2e19 89f5 09bc e73f
000005a0: 57a7 d487 ff0e f3bf 2393 1958 eed5 fd3f
000005b0: 4634 e06a b1e6 c33f d5dd 5286 13de f6bf
000005c0: f812 b0fa 0279 01c0 3eab 200a a8b9 dbbf
000005d0: d86f af57 d72a ebbf 393e 9186 6c4a 0040
000005e0: be77 2794 78a1 eebf 952d a724 ff23 f9bf
000005f0: 1863 6902 3c4e f6bf 4471 645c 4736 01c0
00000600: 7e8e a61f 824e efbf 0a2b 4b3e b329 74bf
00000610: 5d84 2071 a802 0cc0 56bb 9acd f042 f7bf
00000620: e9bb 2066 da43 06c0 d43b 60f3 0ea5 0040
00000630: 7647 064f e320 f3bf 8491 b8fa 5db8 f23f
00000640: 8d8f 9e31 4df4 f83f 6916 fd62 77d4 06c0
00000650: 35dc 5833 4779 02c0 b7dd ca6b 9d10 edbf
00000660: 7462 c366 5986 f6bf 3867 b8b8 a290 d53f
00000670: 9e32 0a13 7013 e93f 056c fd4d 8947 ea3f
00000680: 3cda a144 45c0 fabf 5ff8 fc33 9c3f b13f
00000690: d9a3 616b 1a74 09c0 f3df fcd2 864a 0ec0
000006a0: 2b65 4d1b e9d4 f33f 585f 693e 4a49 f53f
000006b0: 9861 6706 890c 07c0 b4de 584c 48d6 ebbf
000006c0: d30e 2f08 12b4 04c0 5fd2 27e9 4c3a f73f
000006d0: 57ed 7744 9edd e6bf 6375 e900 5c98 11c0
000006e0: 1504 f561 6729 f0bf 9a24 9f3e fcf4 04c0
000006f0: 938c fa66 5ba9 febf 2969 fa5a 6dcc fa3f
00000700: eb61 5124 eb67 c6bf 5762 d0e6 06db e2bf
00000710: 7563 59c1 53cf fabf a0a4 c419 5f0e f0bf
00000720: eb08 0a5e aea3 e23f 9077 1111 bb92 f23f
00000730: ca51 ba9b 2dda ebbf 8f03 d607 5929 06c0
00000740: e4a2 4c2f fba2 cb3f e59b 1416 a389 f6bf
00000750: 9333 e581 4933 f53f 1958 ad2f a2a0 eabf
00000760: e571 374c 0e19 913f b58b ef18 8ac0 eb3f
00000770: 0172 84a9 4a46 f6bf 5ef3 2fdb e141 f1bf
00000780: 0873 462a 3cbc f2bf a9b8 e530 0bcf 05c0
00000790: 57f1 a5b6 985c f6bf 540d 8ecf 52d5 ea3f
000007a0: 287e 0277 b9b3 03c0 76f8 a549 5e03 f13f
000007b0: 8417 bee9 5ab4 ebbf dd85 a0a8 bb7b f1bf
000007c0: 8fd9 c05d 29b9 e83f 2a31 622b 8d5b fcbf
000007d0: 177c bc56 03d3 02c0 5ce6 ab93 9424 adbf
000007e0: fca1 9e42 61dc e03f 8d94 d955 f2d1 e3bf
000007f0: 485d a4ee 01ed e63f a973 9a94 c3d5 e3bf

bias_2 f8 [1, 10]
-0.39396830522629384 -0.07634124029739962 -0.2572563173145654 -0.09519947677019827 -0.38648917851686093 -0.12772085459450686 -0.4693165561278902 -0.4183294074338846
1.1154627416604859 0.5582965416159481
00000000: ebe0 a6d6 c636 d9bf 27d5 697a 198b b3bf
00000010: 9b8c 6333 e376 d0bf 3206 532f fe5e b8bf
00000020: 8038 7f1b 3dbc d8bf f312 c02e 2859 c0bf
00000030: cb99 024f 4809 debf cc8c f8b4 e8c5 dabf
00000040: 9c69 b575 efd8 f13f 99bb 76b5 90dd e13f

loss_history f4 [40]
0.6367192 0.30673063 0.2487131 0.21908405 0.20082973 0.18924364 0.17680217 0.17230661
0.16500407 0.16182089 0.1621692 0.15474737 0.15679802 0.14726461 0.15023124 0.15676741
0.15037557 0.15161398 0.14657785 0.14426495 0.14934312 0.14809872 0.15182921 0.15125729
0.14523664 0.14636412 0.1394716 0.14958648 0.14660677 0.14697716 0.15264823 0.15043992
0.1499175 0.16153766 0.15496822 0.16588306 0.15783916 0.16066217 0.15482725 0.16166386
00000000: 0800 233f cc0b 9d3e a6ae 7e3e 9257 603e
00000010: 4fa6 4d3e 16c9 413e a10b 353e 2571 303e
00000020: d4f6 283e 60b4 253e af0f 263e 1876 1e3e
00000030: a98f 203e 89cc 163e 38d6 193e a387 203e
00000040: 0efc 193e b240 1b3e 8118 163e 31ba 133e
00000050: 67ed 183e 31a7 173e 1e79 1b3e 31e3 1a3e
00000060: eab8 143e 7ae0 153e a5d1 0e3e 332d 193e
00000070: 1620 163e 2e81 163e d14f 1c3e ec0c 1a3e
00000080: f983 193e 216a 253e fdaf 1e3e 40dd 293e
00000090: 97a0 213e a084 243e 098b 1e3e 368b 253e

accuracy_history f4 [40]
80.32333 91.06834 92.84167 93.67167 94.166664 94.545 94.95333 95.055
95.26667 95.46333 95.385 95.555 95.65 95.905 95.82667 95.76667
95.86 95.86 95.95333 96.026665 95.88333 95.96 95.775 95.97667
96.08 95.988335 96.17 95.94666 96.111664 95.971664 95.955 96.03333
95.975 95.871666 95.96 95.75667 95.925 95.878334 95.92167 95.878334
00000000: 8ca5 a042 fd22 b642 efae b942 e557 bb42
00000010: 5555 bc42 0a17 bd42 1be8 bd42 291c be42
00000020: 8988 be42 3aed be42 1fc5 be42 291c bf42
00000030: cd4c bf42 5ccf bf42 41a7 bf42 8988 bf42
00000040: 52b8 bf42 52b8 bf42 1be8 bf42 a70d c042
00000050: 44c4 bf42 85eb bf42 cd8c bf42 0ef4 bf42
00000060: f628 c042 07fa bf42 0a57 c042 b1e4 bf42
00000070: 2c39 c042 7ef1 bf42 f6e8 bf42 1111 c042
00000080: 33f3 bf42 4bbe bf42 85eb bf42 6a83 bf42
00000090: 9ad9 bf42 b5c1 bf42 e5d7 bf42 b5c1 bf42

val_loss_history f4 [8]
0.10879517 0.1251187 0.24916871 0.10905062 0.17357665 0.18991357 0.22526257 0.2212109
00000000: 01d0 de3d 1e1f 003e 1526 7f3e ee55 df3d
00000010: 14be 313e b478 423e 3bab 663e 1c85 623e

val_accuracy_history f4 [8]
96.7 96.7 96.2 97.6 96.4 96.3 97.4 97.1
00000000: 6666 c142 6666 c142 6666 c042 3333 c342
00000010: cdcc c042 9a99 c042 cdcc c242 3333 c242
