checkpoints/model_epoch_0095.npz (npz, 386607 bytes, 10 tensors)

weight_0 f8 [784, 64]
000000 4b 12 e5 21 00 00 00 00 7f 7a 51 0e 00 00 00 00
       2.809556444e-315 1.18684844e-315
000010 53 cc fd 0d 00 00 00 00 4e b4 30 1a 00 00 00 00
       1.159753507e-315 2.170921987e-315
000020 3d 4c 6e 04 00 00 00 00 11 08 d1 1d 00 00 00 80
       3.67275264e-316 -2.47150585e-315
000030 c0 ab ec 0b 00 00 00 80 b5 a1 76 1f 00 00 00 80
       -9.8842694e-316 -2.60801613e-315
000040 e1 a6 b9 03 00 00 00 00 d8 a0 b1 21 00 00 00 80
       3.0878376e-316 -2.79289962e-315
000050 73 4b f2 21 00 00 00 00 1f 60 f0 02 00 00 00 80
       2.813838017e-315 -2.43612303e-316
000060 8d 1a 09 20 00 00 00 00 ed 4b f4 04 00 00 00 00
       2.65544244e-315 4.10662844e-316
000070 0c b9 1a 21 00 00 00 80 3d c3 92 08 00 00 00 80
       -2.74403781e-315 -7.1064409e-316
000080 d0 89 ce 17 00 00 00 00 9f 28 67 0e 00 00 00 80
       1.973355817e-315 -1.193868285e-315
000090 21 27 19 13 00 00 00 00 8b f0 96 02 00 00 00 00
       1.583063013e-315 2.1465379e-316
0000a0 68 d6 3a 12 00 00 00 00 11 3b 4d 14 00 00 00 80
       1.511079343e-315 -1.682815816e-315
0000b0 71 2a 27 14 00 00 00 00 97 74 cf 11 00 00 00 00
       1.670490736e-315 1.47631e-315
0000c0 21 94 72 04 00 00 00 00 c1 48 92 17 00 00 00 00
       3.68661355e-316 1.95384608e-315
0000d0 09 86 80 0f 00 00 00 80 1f 7e 9c 06 00 00 00 80
       -1.28497167e-315 -5.48013657e-316
0000e0 2f 7e 0a 00 00 00 00 00 80 35 ac 02 00 00 00 00
       3.397507e-318 2.21540617e-316
0000f0 19 d8 c1 21 00 00 00 00 5f c6 95 0a 00 00 00 00
       2.79815016e-315 8.77400346e-316
000100 22 6b 8b 03 00 00 00 80 d6 cb e2 08 00 00 00 00
       -2.93813814e-316 7.36558233e-316
000110 aa 54 11 03 00 00 00 00 8e ff cb 1c 00 00 00 80
       2.5428291e-316 -2.38698567e-315
000120 f5 33 42 07 00 00 00 00 27 5b a3 0d 00 00 00 80
       6.01669137e-316 -1.13046919e-315
000130 fd fe 97 18 00 00 00 80 73 d7 d3 21 00 00 00 00
       -2.038585985e-315 2.803977573e-315
000140 61 8b ea 0d 00 00 00 80 79 ec 04 1b 00 00 00 80
       -1.153519337e-315 -2.23963669e-315
000150 70 ee c1 0c 00 00 00 80 30 c8 57 0d 00 00 00 00
       -1.05747874e-315 1.10599899e-315
000160 68 7b 82 1e 00 00 00 00 45 6c f3 0e 00 00 00 80
       2.528962715e-315 -1.23928457e-315
000170 a3 2a 90 1e 00 00 00 00 5d 66 63 15 00 00 00 00
       2.53339363e-315 1.772884437e-315
000180 fa 22 84 0b 00 00 00 80 11 ac 09 15 00 00 00 00
       -9.545797e-316 1.74383142e-315
000190 d2 af e3 1f 00 00 00 80 7f 41 8e 0a 00 00 00 80
       -2.643327183e-315 -8.7496575e-316
0001a0 ef 69 e4 21 00 00 00 80 b6 d9 8b 03 00 00 00 80
       -2.8093435e-315 -2.93953674e-316
0001b0 d5 91 45 01 00 00 00 00 b8 07 5c 0e 00 00 00 80
       1.0541648e-316 -1.19026497e-315
0001c0 82 97 98 0a 00 00 00 80 51 b1 11 14 00 00 00 00
       -8.78312445e-316 1.66353793e-315
0001d0 25 98 da 22 00 00 00 00 f8 23 83 23 00 00 00 80
       2.8890545e-315 -2.943628217e-315
0001e0 9f 02 7c 01 00 00 00 80 10 78 ad 18 00 00 00 80
       -1.23043843e-316 -2.04553873e-315
0001f0 58 bc 18 02 00 00 00 00 f7 17 26 0d 00 00 00 80
       1.7379012e-316 -1.08991035e-315
000200 a4 17 a7 08 00 00 00 80 6e eb 14 11 00 00 00 00
       -7.1722666e-316 1.41591142e-315
000210 0c dd 2b 12 00 00 00 80 16 f1 ae 08 00 00 00 80
       -1.50623088e-315 -7.1976822e-316
000220 cb e4 52 1b 00 00 00 80 34 2b 88 1f 00 00 00 80
       -2.264882666e-315 -2.61369448e-315
000230 a0 a2 34 03 00 00 00 80 20 9c 83 0a 00 00 00 00
       -2.65714196e-316 8.71518677e-316
000240 f6 71 88 0b 00 00 00 00 b9 37 90 1a 00 00 00 80
       9.5597476e-316 -2.20184834e-315
000250 37 b1 38 1c 00 00 00 00 d4 5e 46 21 00 00 00 80
       2.339289327e-315 -2.7581705e-315
000260 26 e7 0a 23 00 00 00 80 22 a7 2b 16 00 00 00 00
       -2.904696387e-315 1.83772453e-315
000270 53 ff 3b 01 00 00 00 80 af 93 ee 1e 00 00 00 00
       -1.0231706e-316 2.563962834e-315
000280 b7 35 fc 05 00 00 00 00 53 6a 85 16 00 00 00 00
       4.9611554e-316 1.866788797e-315
000290 d7 db 04 10 00 00 00 80 e7 d5 18 22 00 00 00 00
       -1.32782059e-315 2.826317186e-315
0002a0 2e 1e bd 1e 00 00 00 80 45 da 81 01 00 00 00 80
       -2.54794846e-315 -1.2493555e-316
0002b0 4f c0 e8 15 00 00 00 80 42 92 65 06 00 00 00 80
       -1.816062386e-315 -5.3023063e-316
0002c0 e7 02 78 0d 00 00 00 00 43 fd c6 0e 00 00 00 00
       1.11643456e-315 1.224897366e-315
0002d0 d8 93 a8 10 00 00 00 80 d0 35 55 02 00 00 00 80
       -1.38083123e-315 -1.93371207e-316
0002e0 0b 15 37 08 00 00 00 00 26 df 96 14 00 00 00 80
       6.80958797e-316 -1.70666008e-315
0002f0 69 8f b1 1b 00 00 00 00 93 4a 12 1f 00 00 00 00
       2.295534805e-315 2.575526836e-315
000300 99 38 5a 21 00 00 00 80 60 c3 6a 02 00 00 00 00
       -2.76459796e-315 2.00349864e-316
000310 b9 cc 12 21 00 00 00 80 41 a9 f5 14 00 00 00 80
       -2.74147237e-315 -1.737352047e-315
000320 96 95 62 08 00 00 00 80 48 e3 a3 0a 00 00 00 80
       -6.95044387e-316 -8.81969983e-316
000330 e4 4d 9f 15 00 00 00 00 b2 73 29 0b 00 00 00 80
       1.792280936e-315 -9.25216824e-316
000340 48 9f e4 00 00 00 00 80 47 d1 86 1d 00 00 00 00
       -7.4025777e-317 2.44747603e-315
000350 d5 d0 36 1e 00 00 00 80 19 26 1c 15 00 00 00 00
       -2.504462657e-315 1.749814003e-315
000360 20 33 61 1f 00 00 00 80 66 af 21 15 00 00 00 00
       -2.601076655e-315 1.751606616e-315
000370 33 9b 8b 12 00 00 00 00 72 81 12 11 00 00 00 00
       1.537231518e-315 1.41512979e-315
000380 61 8a ce 16 00 00 00 80 d7 90 2b 16 00 00 00 00
       -1.890466073e-315 1.837696335e-315
000390 b5 27 03 22 00 00 00 80 56 b2 6c 01 00 00 00 80
       -2.819297254e-315 -1.18085434e-316
0003a0 e1 bb 96 1e 00 00 00 80 06 4c 2b 24 00 00 00 00
       -2.53552008e-315 2.998075743e-315
0003b0 f2 01 92 21 00 00 00 00 f3 88 a4 1e 00 00 00 00
       2.782661126e-315 2.539988733e-315
0003c0 7c a5 0d 04 00 00 00 00 e6 30 c1 1f 00 00 00 80
       3.3598043e-316 -2.63215776e-315
0003d0 45 51 8f 0f 00 00 00 00 a2 e5 66 17 00 00 00 00
       1.28976179e-315 1.939797703e-315
0003e0 65 8b fd 1a 00 00 00 00 ef 9a c9 20 00 00 00 80
       2.23724737e-315 -2.717772663e-315
0003f0 86 2d 87 12 00 00 00 00 59 57 8d 14 00 00 00 80
       1.535797635e-315 -1.7035742e-315
000400 68 8c ff 10 00 00 00 00 21 2c 59 04 00 00 00 80
       1.408991626e-315 -3.60435044e-316
000410 02 44 e1 0e 00 00 00 00 6d 16 fe 06 00 00 00 00
       1.23340541e-315 5.79614007e-316
000420 d7 93 ed 01 00 00 00 00 df 8a d0 08 00 00 00 80
       1.59815884e-316 -7.3064783e-316
000430 f0 88 a7 21 00 00 00 00 ef 93 c8 1d 00 00 00 80
       2.789631473e-315 -2.468768637e-315
000440 5f 74 7d 09 00 00 00 80 bb 8e 57 0a 00 00 00 00
       -7.8663519e-316 8.57254937e-316
000450 21 60 82 01 00 00 00 80 2c 32 04 02 00 00 00 80
       -1.25104857e-316 -1.6713954e-316
000460 c2 46 89 0a 00 00 00 80 9f f3 c9 09 00 00 00 00
       -8.7335345e-316 8.1140424e-316
000470 90 cb 34 05 00 00 00 80 0c 59 00 14 00 00 00 00
       -4.31546895e-316 1.65792184e-315
000480 19 7f 37 21 00 00 00 00 2e 88 b2 1e 00 00 00 80
       2.75335445e-315 -2.54452083e-315
000490 0a fb 1e 1b 00 00 00 00 77 ab 41 1d 00 00 00 00
       2.24807368e-315 2.425086633e-315
0004a0 33 a6 ca 0d 00 00 00 80 66 01 c7 00 00 00 00 00
       -1.14319195e-315 6.443615e-317
0004b0 5d 53 0d 1e 00 00 00 80 1f 13 94 0d 00 00 00 00
       -2.491028537e-315 1.12552122e-315
0004c0 79 02 a0 0b 00 00 00 00 bb 2a 75 13 00 00 00 80
       9.6360473e-316 -1.61285633e-315
0004d0 a5 d2 1d 21 00 00 00 00 47 0a 30 0b 00 00 00 00
       2.74504156e-315 9.27350027e-316
0004e0 49 ae c4 11 00 00 00 80 94 a4 90 06 00 00 00 80
       -1.472821276e-315 -5.44176807e-316
0004f0 15 a4 2f 04 00 00 00 00 80 73 b5 12 00 00 00 80
       3.46987545e-316 -1.55078052e-315
000500 2f 72 dd 01 00 00 00 80 15 11 ac 0f 00 00 00 80
       -1.5459266e-316 -1.29907054e-315
000510 ed b4 42 20 00 00 00 80 a6 72 7f 1d 00 00 00 80
       -2.67409377e-315 -2.445089805e-315
000520 76 84 63 19 00 00 00 00 1c ad 49 14 00 00 00 80
       2.10448435e-315 -1.681664895e-315
000530 a0 01 67 02 00 00 00 00 59 3c b8 10 00 00 00 80
       1.99133435e-316 -1.385901216e-315
000540 74 9c 7c 14 00 00 00 00 bb 84 d3 1e 00 00 00 00
       1.69815716e-315 2.55520157e-315
000550 58 a8 66 0d 00 00 00 00 73 ef c7 02 00 00 00 80
       1.11081558e-315 -2.3051816e-316
000560 d8 53 8f 22 00 00 00 80 d8 d3 81 14 00 00 00 80
       -2.8646838e-315 -1.699846175e-315
000570 bd bd 9d 06 00 00 00 00 5d 87 2c 07 00 00 00 00
       5.4841791e-316 5.9465123e-316
000580 57 0b ef 0d 00 00 00 80 68 ce 5a 0e 00 00 00 80
       -1.154976346e-315 -1.18986869e-315
000590 33 f2 fc 0b 00 00 00 80 43 2c 66 08 00 00 00 80
       -9.936967e-316 -6.96206335e-316
0005a0 50 4e 87 1e 00 00 00 80 7f 56 29 1c 00 00 00 80
       -2.530524634e-315 -2.334317723e-315
0005b0 66 ff 64 0d 00 00 00 80 52 c5 78 04 00 00 00 80
       -1.110278104e-315 -3.7066632e-316
0005c0 51 72 0a 00 00 00 00 00 aa 46 f2 11 00 00 00 80
       3.382497e-318 -1.487584595e-315
0005d0 b1 4c b0 0f 00 00 00 80 3d 05 4a 00 00 00 00 80
       -1.3004411e-315 -2.396715e-317
0005e0 c4 ef 6f 20 00 00 00 80 90 17 4e 04 00 00 00 00
       -2.68873878e-315 3.5684733e-316
0005f0 f7 19 16 09 00 00 00 00 d7 14 92 02 00 00 00 00
       7.53170385e-316 2.13080745e-316
000600 ff b1 f6 22 00 00 00 80 ef cd 47 19 00 00 00 80
       -2.898153343e-315 -2.09551113e-315
000610 1d 5c de 0f 00 00 00 80 d9 98 ab 1f 00 00 00 80
       -1.315354986e-315 -2.62516584e-315
000620 ea bb 0c 02 00 00 00 80 a6 c5 46 18 00 00 00 80
       -1.69904087e-316 -2.0122864e-315
000630 5f c8 8b 1b 00 00 00 80 3d 9f 8e 15 00 00 00 80
       -2.283302797e-315 -1.78687938e-315
000640 1f 51 07 08 00 00 00 00 c2 9b 3e 0c 00 00 00 80
       6.65492823e-316 -1.014957564e-315
000650 c0 1e 96 00 00 00 00 80 d8 21 51 1a 00 00 00 00
       -4.860752e-317 2.18142184e-315
000660 da c9 2b 1f 00 00 00 00 aa 72 44 05 00 00 00 00
       2.58378259e-315 4.3661511e-316
000670 83 db 69 0f 00 00 00 80 f1 cb 55 15 00 00 00 00
       -1.27763259e-315 1.76847984e-315
000680 56 ce f5 15 00 00 00 00 01 fa c1 17 00 00 00 80
       1.82028941e-315 -1.969288437e-315
000690 c0 97 a1 18 00 00 00 80 8e 06 f5 22 00 00 00 00
       -2.041693317e-315 2.89761271e-315
0006a0 80 20 5e 1a 00 00 00 00 41 5a 16 14 00 00 00 80
       2.18562942e-315 -1.665046765e-315
0006b0 c1 19 8b 1a 00 00 00 80 7a 6e dc 1c 00 00 00 00
       -2.20019148e-315 2.39230662e-315
0006c0 e1 17 e1 11 00 00 00 80 3e 72 57 0e 00 00 00 00
       -1.482020976e-315 1.18878075e-315
0006d0 48 bb 52 1d 00 00 00 00 7f c1 fe 01 00 00 00 00
       2.43061108e-315 1.65378075e-316
0006e0 de 47 0d 22 00 00 00 00 75 fb 79 1c 00 00 00 00
       2.82257584e-315 2.360429636e-315
0006f0 3a 4b c8 00 00 00 00 80 df a0 a0 0d 00 00 00 80
       -6.485332e-317 -1.129585997e-315
000700 a1 a4 ae 1c 00 00 00 00 81 08 1f 0c 00 00 00 80
       2.37748073e-315 -1.0047338e-315
000710 b9 b5 46 04 00 00 00 80 52 50 d8 05 00 00 00 00
       -3.54457047e-316 4.8449272e-316
000720 19 1c f3 00 00 00 00 80 ec a7 4f 19 00 00 00 00
       -7.8716718e-317 2.09805338e-315
000730 2d c5 22 21 00 00 00 80 31 f8 ef 08 00 00 00 80
       -2.74664348e-315 -7.40823615e-316
000740 f0 e5 31 01 00 00 00 80 3a 4f 6a 04 00 00 00 00
       -9.904704e-317 3.6598388e-316
000750 fa e6 a9 11 00 00 00 00 54 de ca 1e 00 00 00 00
       1.464150627e-315 2.552400774e-315
000760 e7 99 ee 1c 00 00 00 80 3e c7 00 12 00 00 00 80
       -2.39818978e-315 -1.492280294e-315
000770 52 52 06 07 00 00 00 00 19 c3 ef 0a 00 00 00 80
       5.8228009e-316 -9.06537383e-316
000780 fa 1a 6b 02 00 00 00 00 72 95 9e 22 00 00 00 00
       2.00460664e-316 2.869623636e-315
000790 a7 19 ed 10 00 00 00 00 61 f6 51 1a 00 00 00 80
       1.40301825e-315 -2.181690657e-315
0007a0 e7 4f 7a 18 00 00 00 00 1a e9 38 0e 00 00 00 00
       2.0289746e-315 1.178893565e-315
0007b0 ed ed 7b 1d 00 00 00 00 90 7b 23 07 00 00 00 00
       2.443950563e-315 5.91722187e-316
0007c0 ee 95 8d 0f 00 00 00 00 28 1c e1 0d 00 00 00 80
       1.289201053e-315 -1.150464544e-315
0007d0 3c 2e 83 15 00 00 00 00 df 2e db 18 00 00 00 80
       1.783174753e-315 -2.060340536e-315
0007e0 ce 95 f9 0e 00 00 00 80 6e a0 6a 03 00 00 00 00
       -1.241279847e-315 2.83196126e-316
0007f0 c0 d1 06 1e 00 00 00 00 4a e7 c9 0c 00 00 00 00
       2.488921856e-315 1.060060026e-315

bias_0 f8 [1, 64]
000000 f7 c1 85 70 db 95 be bf 78 43 a3 60 a2 d4 d8 bf
       -0.1194741391862023 -0.38797816693573095
000010 eb 1d f7 2d 8e dc b5 bf 34 d6 f2 ee bc 39 b6 bf
       -0.08539665815543855 -0.08681851228433218
000020 80 d1 77 61 f9 b9 cb bf 54 72 ff 06 21 8a e3 bf
       -0.21661298045331634 -0.6106114517857102
000030 61 db 2f 34 fb 76 a7 bf c2 11 9d d5 74 f5 da bf
       -0.04582963001296637 -0.4212314687795492
000040 a6 60 12 df 9f b1 d6 bf c9 e5 cc 1c f5 d9 b2 3f
       -0.35459133896211836 0.07363826707014377
000050 cd 5c 6e 0e 9e b7 d0 3f 36 90 11 f5 15 5a c2 bf
       0.26120711716926054 -0.14337419954529346
000060 ea c2 96 17 0d 5e e2 bf 14 f0 18 5c 57 36 c4 bf
       -0.5739808521958285 -0.15790836331314095
000070 f8 53 b1 3c 06 f8 dc bf da 0e b2 9e 35 c8 e2 bf
       -0.4526382057859446 -0.5869396304628609
000080 6b 0d e5 a0 f6 85 d6 3f 10 85 72 86 d9 9c d2 bf
       0.35192647659660875 -0.29082334642051055
000090 58 4e fa 6d e6 64 d3 bf 96 41 c8 01 4e 80 8f 3f
       -0.303033454322962 0.015381440572156884
0000a0 19 cb 56 3e 3d b5 d4 bf 47 95 ee 0b 40 84 db 3f
       -0.3235619648723272 0.42994691052657114
0000b0 7b de 82 10 97 7f cb bf 95 39 a1 b5 6e 40 de bf
       -0.2148312407132272 -0.47268264519962006
0000c0 f3 c8 9f 72 c6 0d d3 3f ba 98 e2 03 d6 37 c5 bf
       0.2977157706619799 -0.16576647939399952
0000d0 09 6c 1c ca 40 7f b5 bf d6 f4 1b 04 98 a7 d5 3f
       -0.08397297796584281 0.3383541145447685
0000e0 17 fb 26 97 5f a9 d3 3f 6e 68 08 81 34 d0 c8 bf
       0.3072127319427848 -0.19385391521865664
0000f0 f5 06 c2 3f ff 08 91 bf 9b b5 e5 fd fe 93 c5 bf
       -0.01663588358542874 -0.16857898137406555
000100 7b 13 f3 8f 1c ec db bf 08 9a 93 18 5e 73 a8 3f
       -0.4362861066586487 0.04775518465048739
000110 36 5e d4 3c 90 a6 c9 bf 76 7a 16 d1 3e 8c e1 bf
       -0.2003956124324177 -0.5483697971101964
000120 b5 9b f9 92 c2 5e c5 bf dc 07 38 7e b1 f3 d7 bf
       -0.16695434738650552 -0.3742488606077339
000130 31 a4 9f d0 bb 0f d1 bf 65 6c dd 16 1b 48 be 3f
       -0.26658530591390944 0.11828774746156652
000140 cf a8 ed 02 01 c1 c5 bf 09 38 3e cc 10 3c b9 bf
       -0.16995251315103707 -0.09857277857210546
000150 41 ac 60 22 0f 26 a4 bf 91 ec ba c9 f5 47 be bf
       -0.03935286802910599 -0.11828552413037331
000160 a3 b5 9f 51 c9 db df bf 6e f2 a6 da fa 2f 9a bf
       -0.4977896973712978 -0.025573653789012267
000170 70 a9 59 13 45 33 a2 3f 1a b7 f3 d7 2c 25 c4 3f
       0.03554740773400311 0.15738449615985745
000180 4a 7e 88 e3 9f b2 e6 bf 1e a6 88 c5 51 5f d8 bf
       -0.7093047565467228 -0.3808178357163302
000190 a6 4a 6b ea 00 83 d5 bf 1c cf 4d d7 98 fd c5 3f
       -0.336120823788557 0.17180166733634727
0001a0 af 64 43 cc df e6 b8 bf 64 ed 08 82 63 cf ca 3f
       -0.09727286087890506 0.20945400094374655
0001b0 3b c0 86 86 c4 88 c8 bf 53 f3 91 08 da 33 e5 bf
       -0.1916738182894749 -0.662579552401079
0001c0 6f 30 a8 e6 a4 53 dd bf 41 17 d4 70 80 fd c2 3f
       -0.45823023343178354 0.14836125859454266
0001d0 80 38 63 2a 41 c4 df bf 1b 23 b4 35 d8 37 d7 bf
       -0.49635342730915255 -0.36278348202226746
0001e0 e7 1c 52 18 03 b4 a7 3f 2e c3 e0 66 e1 3c a1 3f
       0.04629525825390051 0.03366760617098517
0001f0 19 42 f0 dc 9b 49 cc 3f 58 f0 79 72 e7 e8 d2 bf
       0.2209963635255157 -0.2954653375561569

weight_1 f8 [64, 32]
000000 55 86 41 b8 1e f6 11 c0 b1 38 fa ea 22 51 e2 3f
       -4.49035156154567 0.5724043454554445
000010 1a a5 f5 25 7b ea 19 c0 ac bf 27 6a 2c ec e6 bf
       -6.478985398405053 -0.7163297723145567
000020 d8 33 c6 00 f9 06 12 c0 88 c2 48 5d 52 ef e6 bf
       -4.506809246156045 -0.7167140790898694
000030 98 ea 7a 00 01 6d 03 c0 ae 59 a3 cc e4 7b f8 3f
       -2.4282245671759703 1.5302474969554214
000040 ae 82 a0 72 ad 75 f8 bf 9a 4f 7b c8 53 c4 08 c0
       -1.528729865800567 -3.0958629286414636
000050 95 c3 68 10 7d 60 86 3f 58 27 4f d3 bf 31 c2 bf
       0.01092622476889619 -0.14214322870094054
000060 f3 d9 e6 82 a6 09 f7 3f 58 32 f1 d9 5b e0 f3 3f
       1.4398560632085917 1.242275096260661
000070 fc e4 34 a5 1c 84 e4 3f b1 d5 c9 ec 3b 72 e5 3f
       0.6411269404117372 0.6701945900701302
000080 c8 b7 5a 3f c7 a2 f7 bf 5b a3 9f 90 36 6d 13 c0
       -1.4772407984523728 -4.8566534612117165
000090 03 8c 16 71 f4 b7 ef 3f a9 75 27 b2 67 6e 01 c0
       0.9912054260970539 -2.1789087217609517
0000a0 13 3c 04 25 6b 7b e8 bf 97 f0 a6 a1 48 c5 f6 bf
       -0.7650657389621095 -1.4231649698768132
0000b0 eb 23 65 3c ee fd 12 c0 a9 d0 41 4f fc 11 f1 3f
       -4.747979110406031 1.0668910118084034
0000c0 d2 b8 a6 54 8d 2a 11 c0 3a f6 a1 eb 2a 88 f4 3f
       -4.291554758716488 1.283244057121364
0000d0 c2 d6 89 50 25 ca c3 bf 94 75 ac db 4b 71 e3 3f
       -0.15460649902859386 0.6075801172734594
0000e0 62 5f b1 5b 06 fc f7 bf a0 84 5f be 88 fa 11 c0
       -1.4990295011284265 -4.494662260608635
0000f0 a2 78 5c 5c f1 6e da 3f 84 f3 f8 c0 23 28 bd bf
       0.4130214120831487 -0.11389373265497055
000100 77 e1 57 a4 e9 d4 d9 3f d7 e8 06 4d 87 4e 00 c0
       0.4036201577105411 -2.0383440034612295
000110 8e 37 a8 d5 2f d6 e2 bf 49 78 94 80 d1 3d 06 c0
       -0.5886458561887922 -2.780184750109616
000120 34 fa 8b 0d ff 00 c1 3f c6 04 d7 86 79 ee 01 c0
       0.1328429046770495 -2.2414427313202365
000130 bc d3 42 51 a8 34 e3 3f 42 f3 8e 4a d9 d4 03 c0
       0.6001779162530663 -2.4789300751566836
000140 49 84 e3 23 81 a0 c9 3f ff 3d 12 bc 8d 08 d4 3f
       0.20021070721034764 0.313022073424662
000150 90 9e 58 fa 97 21 a3 bf 8a 6f 6f 72 5c 19 17 c0
       -0.03736567431434168 -5.774766719867225
000160 09 01 93 ee 52 85 08 c0 30 39 80 e2 7e 0a e5 3f
       -3.0650995863544535 0.6575312064976853
000170 36 57 37 9b 9b b8 c1 3f 65 66 ba ba 75 7c 8f 3f
       0.138446284093044 0.01537410713290228
000180 d7 7e ea 62 4e bd c2 3f 8e 23 f3 b2 31 fe f9 bf
       0.1464021666515609 -1.6245591154313135
000190 91 52 45 36 4d e3 12 c0 16 3a 9e 15 9f 4b 0f c0
       -4.72197422788726 -3.9119245232498185
0001a0 c5 cc 8e 8b ce d1 df 3f 93 d2 64 ac 6e 62 f2 bf
       0.49718059185688573 -1.1490313276418973
0001b0 85 15 7d ca 3a 8f c6 bf 37 a0 30 d4 9d 7b 0e c0
       -0.17624602210177556 -3.8103596284236363
0001c0 f9 eb cf db 51 79 d7 3f dd a3 14 8a 37 69 07 c0
       0.36677977052721605 -2.9263754642056328
0001d0 f8 94 8c 0d 1f b3 d9 bf e7 eb f8 d1 03 33 10 c0
       -0.4015576965633296 -4.049819260423624
0001e0 61 7f 28 2f d7 fb f6 bf cd f6 69 ef 87 40 ff bf
       -1.4364845125309886 -1.9532546379190763
0001f0 b7 d1 22 42 95 34 ff bf 6e 3a 4b 56 07 ab e0 bf
       -1.9503376563489903 -0.5208775220324477
000200 83 cb e0 18 45 38 09 c0 a7 13 58 bd b5 a2 d3 3f
       -3.152475542411993 0.3068060254157054
000210 5a fe 89 b0 93 8f 0d c0 40 87 bf ef c2 3d ec 3f
       -3.6951059143173497 0.882539242036934
000220 0b 6c 3b b1 b2 13 07 c0 4b 09 5b 2c 5d 1d 02 c0
       -2.8846181722888153 -2.264337870147903
000230 bd 42 1f 76 ac 79 e6 3f 74 8b a7 81 0e 5f e4 bf
       0.70235274382329 -0.6366035969079875
000240 b8 0e 47 e1 43 2c b9 3f 4f 64 ed f3 0d 59 e1 bf
       0.09833168268147119 -0.5421209110455808
000250 74 d3 69 db 83 ca 04 c0 bc 50 c6 e3 78 bf ca 3f
       -2.598884309927991 0.20896826860246687
000260 06 f6 f2 3e 14 c4 e0 3f 4c 8b 8c ef f8 bd ad 3f
       0.5239354352449375 0.058089999429532385
000270 ea 94 bf 6c 91 5b 13 c0 93 ed c5 6d 6e a4 01 c0
       -4.839421939080447 -2.205288751223358
000280 80 ac b2 b6 80 c4 f7 bf fa 69 87 75 5f 9c f0 bf
       -1.4854743134153807 -1.0381769743895561
000290 43 c5 2a 5b ec 4f eb 3f 99 61 f5 bb bd 91 e3 3f
       0.8535062580687413 0.6115406676354268
0002a0 b4 59 b4 59 8d f7 e7 bf 77 6e 69 70 9b a6 c0 3f
       -0.7489687683144468 0.13008444775447334
0002b0 1b fd 2b 02 d4 1f dd bf b3 6c d4 4e 86 39 03 c0
       -0.4550676366051946 -2.403088203294453
0002c0 34 f0 c8 8c 6f 38 d5 3f a0 37 03 55 67 68 00 c0
       0.33156956432845 -2.0509783403021657
0002d0 8b 6c f2 44 98 ee f3 bf 9e 4f 83 01 44 6c f7 bf
       -1.2457506840935675 -1.4639320429896325
0002e0 79 3a 03 9d 46 51 13 c0 29 f0 8f cd 73 9c fa bf
       -4.829370930978819 -1.6631963758254733
0002f0 cd 26 41 46 39 3c 0b c0 b9 b4 86 21 16 2c d0 bf
       -3.404406117308872 -0.2526908233074426
000300 36 82 a3 38 e3 bc 11 c0 7e 02 74 92 4c 03 01 c0
       -4.434460530261779 -2.1266108934071886
000310 7b 3e 49 d1 a8 54 19 c0 04 f3 4d 7a aa bc ee bf
       -6.33267523774668 -0.9605305088767584
000320 11 eb 17 92 8f 83 f1 bf 9e 68 18 f6 18 8d 11 c0
       -1.0946193415426857 -4.3877905323408
000330 6f 69 c8 43 0a 34 04 c0 b1 2c 43 6a aa 70 0a c0
       -2.5254102035079806 -3.305012540984159
000340 d1 fc 71 62 22 7d c6 bf fc 7e b4 a3 e7 2d f6 bf
       -0.17569379622361805 -1.3862072367409715
000350 1f e2 63 98 b4 eb e7 3f 03 a1 d6 1f 40 59 13 c0
       0.7475226379747858 -4.837158677554046
000360 74 fe 30 d1 21 53 07 c0 d7 c8 f4 1f 43 d2 10 c0
       -2.9155918448521394 -4.205334185901129
000370 f2 0f 4e cc 60 a2 e1 3f c2 9e e6 a8 a4 9e f5 bf
       0.5510715475397758 -1.3512312505426256
000380 b6 c5 7c d5 a0 e7 f4 3f e5 18 25 b6 e2 f2 10 c0
       1.3065498675681346 -4.237192960752712
000390 da cc f4 ab 16 09 c3 bf 24 43 58 f7 81 5d ab bf
       -0.14871486088086422 -0.05344778198571579
0003a0 f3 f7 6a 0d 96 16 0a c0 6e 53 1c 5d 96 e1 05 40
       -3.2610283897656642 2.7351500772733095
0003b0 86 a9 03 b9 13 61 f9 bf f4 97 60 87 6d 67 b4 3f
       -1.586200449669009 0.07970318369970625
0003c0 10 6f 48 cd 7c 8c 00 c0 6b 52 20 a4 9d 15 01 c0
       -2.0685974157075933 -2.135554582821262
0003d0 dc 6b e5 90 3f 40 02 c0 94 95 61 3f 06 cb f6 bf
       -2.2813712425245125 -1.4245665050342255
0003e0 b6 0d 7f b5 8c f3 e6 3f 08 26 b8 ca 4b 7d 0f c0
       0.7172301812028568 -3.93617971777417
0003f0 37 14 40 c7 08 3a e9 3f 6c 47 09 65 88 37 fa bf
       0.7883342639548861 -1.6385578104713785
000400 2e 7b dd 61 4d b2 02 c0 d2 32 91 e2 ae f6 02 c0
       -2.337061657496995 -2.3704507542191573
000410 58 a1 b3 8b ef 28 14 c0 a2 d6 bb 31 0b 3b c9 bf
       -5.039976294363747 -0.1971143715706392
000420 25 49 f4 a7 08 2d 02 c0 f4 fa df 22 aa b8 17 c0
       -2.2719891663956724 -5.930336518212005
000430 a5 0b c1 9c 61 3a f0 3f 2e c7 e7 20 c1 6c 03 c0
       1.0142532466131595 -2.428102738450341
000440 d8 c2 17 57 4a 06 f2 3f 96 e1 20 07 30 c9 04 c0
       1.1265357400954397 -2.598236137095408
000450 e8 de a0 11 51 29 14 40 04 fb 02 2e f5 ce 14 c0
       5.040348315662165 -5.202107161456983
000460 00 4b 34 6d 30 f6 0b c0 82 25 87 17 03 89 13 c0
       -3.4952095538695858 -4.883800857185067
000470 2a ee f3 4c 7a db bb 3f 2f f1 db d2 6c f3 fe bf
       0.10881771448833236 -1.9344299542127137
000480 30 b9 ce 03 2b e0 dc 3f 56 8a c8 ad 18 48 10 c0
       0.4511821305449244 -4.070406642308248
000490 88 0d 0f d7 8f 69 f3 bf 97 4a a6 bc cf 96 f3 bf
       -1.2132719422087082 -1.22431920710793
0004a0 6c f5 b1 7c aa 16 07 c0 a4 3b 0a e1 ae 43 fe 3f
       -2.8860673658188514 1.8915241995452812
0004b0 e6 7f 44 b3 dd d8 e5 3f 8b f8 57 75 8a 0e f5 bf
       0.6827229024238448 -1.3160500129447736
0004c0 ed 01 d5 06 70 f1 e9 bf 67 0a e5 46 15 ef 08 c0
       -0.8107223637999234 -3.1167398012778906
0004d0 5d 08 63 21 3c 4e 10 c0 ae 16 09 50 ea 5f f5 bf
       -4.076401254338717 -1.3359168173205194
0004e0 b8 f4 08 77 ff 04 e7 3f d5 cd 73 44 97 92 00 c0
       0.7193600964452775 -2.071577582153376
0004f0 49 02 ff 82 eb 66 f4 3f 7d b6 bc 08 42 d9 05 c0
       1.2751269452129625 -2.731082981356677
000500 e8 79 98 47 fc b8 09 c0 aa f9 37 1e 41 2f 10 40
       -3.2153249352843325 4.04614684311529
000510 9a e0 1c 5d 32 a3 0a c0 a2 1a 47 bf f9 54 ee bf
       -3.3296859049260776 -0.947872994984966
000520 ec c9 5a 55 2a b7 0a c0 8c b8 f9 10 98 4f 0a 40
       -3.3394362133342295 3.2888642622193114
000530 3c e0 e1 0b 6e bc fa bf 29 e4 88 35 74 54 08 c0
       -1.6710033859399251 -3.0412372763062376
000540 14 6f 0d 86 aa a4 d0 3f f6 fa c4 77 90 66 06 c0
       0.2600504216295445 -2.8000802380550978
000550 61 22 33 e3 df 7e 02 c0 f0 98 a3 27 fb b9 05 c0
       -2.3119504690151165 -2.7158110710907906
000560 b0 f5 21 ea 4d 07 06 40 d3 72 5f c6 d2 bd 10 40
       2.753566579018944 4.185374354911533
000570 57 87 84 7e d4 5a ff 3f da e2 40 6c 97 a6 f6 bf
       1.9596753065202017 -1.4156717518473472
000580 2e fe b5 b2 33 3b 01 c0 70 f1 7d 34 ca 17 10 c0
       -2.15390720003031 -4.0232322885388925
000590 af 42 1f b5 7a e3 f6 bf 33 3f af c6 db f6 95 bf
       -1.4305369448740455 -0.02144950294660859
0005a0 11 c2 f6 65 9d 4a e6 3f d6 3b 80 17 92 27 f1 bf
       0.6966082564813992 -1.0721608083729186
0005b0 b0 2f f9 44 41 9b e5 bf 4a 8b c8 6d b3 78 04 c0
       -0.6752020213257222 -2.55893598335516
0005c0 0a df d9 95 7c 30 0b c0 8e 7b 0f 59 89 61 11 40
       -3.3986751277078655 4.345250503129945
0005d0 2b fd 4e 0c 52 cd 01 c0 dd 05 82 e7 52 e7 ff bf
       -2.2252541505437384 -1.9939755481030865
0005e0 e7 bf b1 0b ff f3 e9 bf 4d 4c 6a 52 be da d1 bf
       -0.8110347011952371 -0.27897604034769047
0005f0 d0 5e d5 88 2a c2 05 c0 c2 0f 01 4f 98 3a 02 40
       -2.719807690631434 2.27861081811895
000600 21 13 ed 70 a0 3f 0c c0 7c 43 d1 89 6c 86 cf 3f
       -3.5310677358960594 0.24628979424826614
000610 57 cf dd b5 46 be 18 c0 60 81 9f 2d 78 9b 0a c0
       -6.1858166138298065 -3.3259128155042816
000620 b1 10 5e 08 47 73 05 c0 0e 39 62 7a 2a c6 e8 bf
       -2.681287827845232 -0.7741901769930182
000630 20 92 02 42 e1 33 08 c0 8e 3b e0 72 5c a3 a7 3f
       -3.0253319890055224 0.0461682214955693
000640 2f 9a b7 42 fd ec fd bf 7a c3 8f 6b 80 85 06 c0
       -1.8703587156429753 -2.8151863482711947
000650 25 0e 77 e8 eb 5e d5 3f 99 25 ba 0b 99 28 14 c0
       0.33391854955354666 -5.039646323429587
000660 55 90 d5 a8 5c 7a c9 3f e7 1f 4f 34 50 99 bd bf
       0.19904669040545522 -0.11562062527730142
000670 f4 d1 28 1c b2 dc fd 3f aa 47 2c 8a 6c e6 c8 bf
       1.8663807964304597 -0.19453198191382387
000680 cf 8f f5 a7 b8 68 c6 3f 19 1b bf a3 96 d7 13 c0
       0.17507084084638655 -4.960535582102943
000690 36 cb 1c ee a4 28 f3 bf 31 0a 81 23 f9 b8 0d c0
       -1.1974229146259865 -3.715318944335444
0006a0 99 a9 f9 0c 86 c4 df bf 89 8a 29 d1 d7 7b c5 3f
       -0.49636985079873736 0.16784188950540038
0006b0 e0 0c e7 23 3a 71 11 c0 b9 9f 16 4a 2c 89 df 3f
       -4.360573349930945 0.4927473758239063
0006c0 31 0a ea b4 c3 08 14 c0 3d 58 7f c8 b4 1d e5 3f
       -5.008559061798722 0.6598762432065609
0006d0 82 7b 9c 1b ef e8 e1 bf 37 c1 c6 45 78 13 f0 bf
       -0.5596843280107893 -1.0047533727302616
0006e0 2d 48 16 b7 bd da d5 3f e8 58 3e c5 b5 ac 11 c0
       0.34147589568704256 -4.418662149362923
0006f0 b8 20 8d 98 94 a3 e6 3f b2 c1 f2 9e 25 17 c3 3f
       0.7074683169858167 0.1491438890566435
000700 0f 7a aa ca 70 bd 0f 40 06 3a 31 5d d5 26 01 c0
       3.967500289275683 -2.1439616470954688
000710 93 a5 31 38 9e e0 05 40 ff 8f d4 ca 5c 54 ef bf
       2.734676779761409 -0.9790481530694705
000720 c8 7c 97 56 0a 36 fd 3f 6d ea fb e0 4f a9 ec bf
       1.825693453072562 -0.8956679720134396
000730 4b 45 c0 58 13 d4 f0 bf d5 e3 50 0c 96 c0 ef bf
       -1.0517762629354646 -0.9922590485140242
000740 cf 60 f2 7e 57 1f ed bf 27 e9 b3 a1 bd 63 b4 3f
       -0.9100759009770857 0.07964692304441155
000750 79 23 9a 03 7a c2 e6 bf 46 68 64 c5 a6 1c 08 c0
       -0.7112398214677419 -3.013989965559662
000760 c4 e7 c0 bb 75 71 e2 bf 66 64 b4 23 e0 91 0f 40
       -0.5763500849782237 3.9462282933641744
000770 df 2d a4 97 1d f4 02 40 62 9d 9e bf be cc 94 bf
       2.369197067926265 -0.02031229061654239
000780 26 e8 76 f0 39 09 0b 40 8e 48 7c b6 da fd f2 bf
       3.379505041722058 -1.1869761589373726
000790 d8 ec e0 61 9d 0a f6 bf 26 e2 27 4c 86 18 f2 bf
       -1.3775914977439268 -1.1309874510608409
0007a0 68 55 7f 70 15 35 11 40 ef d4 86 8a 8c c2 f3 bf
       4.301839597484424 -1.2349973117064186
0007b0 1c bb ac 49 38 cb bb bf d8 f2 2f 91 cd 29 f0 bf
       -0.10856963919352974 -1.0102058097247006
0007c0 28 de 27 99 b3 12 06 c0 72 9f c6 55 5c 1f 03 c0
       -2.7591316190044104 -2.3903128339042548
0007d0 4f 1f 97 27 f6 c7 fd bf d4 50 a0 32 e7 d8 ed bf
       -1.8613187357422765 -0.9327274311822529
0007e0 8c 88 47 b0 4f 26 f2 bf 08 ee 2b fb 47 f9 b1 3f
       -1.1343533407130364 0.07020997888678704
0007f0 18 ee b9 64 64 86 d1 bf 42 ee 3a ad e9 33 04 c0
       -0.2738276466040772 -2.5253480466469975

bias_1 f8 [1, 32]
000000 70 10 c0 86 64 aa f1 bf 16 51 df 50 4f 11 f1 bf
       -1.1040997756654427 -1.0667260321689063
000010 0e 7b 41 66 0e 47 c3 3f 3b 87 26 4e 6e 4c f7 bf
       0.15060596459348868 -1.4561598828081077
000020 2f 63 2e a6 cd e8 b8 3f c9 08 44 34 38 25 c1 3f
       0.09730229670675493 0.13394835044898049
000030 ec 9c c5 68 c6 99 01 c0 f9 90 24 65 20 c8 f0 bf
       -2.2000854668909735 -1.0488590193645548
000040 4f 24 f2 18 7a e6 00 c0 20 7e 01 25 bc fa 01 c0
       -2.1125375698943922 -2.2474291697578934
000050 85 ce 33 0d bf 03 fe bf c8 a0 1e 7b b0 34 c0 3f
       -1.8759146228520944 0.12660795222951138
000060 40 b4 8c 01 f4 a7 f7 bf 82 7f 0b 0d dd ba e9 bf
       -1.4785041866810076 -0.8040604834350094
000070 c1 ae ed f8 cc fd f9 bf ee a4 b2 10 54 e4 f9 bf
       -1.6244630550162784 -1.618244233346839
000080 37 df de ef 6c 6a 00 c0 c2 2c 17 da 42 ad f9 bf
       -2.0519655933275334 -1.6048000830804061
000090 a9 fe b5 52 49 61 fe bf c1 46 bc 16 33 77 fd bf
       -1.8987515669722745 -1.8416014564613052
0000a0 77 aa 65 a4 8b d9 f3 bf fa 38 fc 7f 33 bc fd bf
       -1.2406116887820227 -1.858447551672326
0000b0 81 ac 80 78 bd 43 f7 bf 4f d2 82 04 70 de fd bf
       -1.4540381152280875 -1.8668060470783023
0000c0 4e d0 e6 46 ae 92 f2 bf f5 7d 1a 55 22 bb f5 bf
       -1.1608107347101568 -1.3581870388369428
0000d0 8b a9 73 12 ee 9d ff bf 97 e5 1e 58 95 2d f7 bf
       -1.9760571213506377 -1.448628753873299
0000e0 0b 8a f4 c8 a1 0c 00 c0 3e be d4 6b 16 eb f1 bf
       -2.0061679553630305 -1.119894429411843
0000f0 9d 4b 50 09 94 40 04 c0 24 5e e9 38 b6 4b 00 c0
       -2.5315323569897843 -2.0369686552255803

weight_2 f8 [32, 10]
000000 06 0a eb d3 3f 50 0b 40 59 f9 2d 77 5a e1 08 c0
       3.414184241876913 -3.110035830584064
000010 eb b2 ca 39 17 dc 06 c0 7d 78 71 6c 2a af f0 bf
       -2.857466174600963 -1.0427650676788567
000020 98 64 0d 32 5f d1 a4 bf 77 5d cf 50 5e 81 ee bf
       -0.04065988050451458 -0.9532920435257627
000030 a8 8c b8 47 15 01 01 c0 51 8d a2 a0 7c 1e e0 bf
       -2.125528869933607 -0.5037215363885627
000040 de df 1e aa 7f a1 07 c0 aa 82 8d b2 78 53 04 40
       -2.9538567820236343 2.5407575559077786
000050 70 ca ad 10 67 68 11 c0 bf 29 f8 26 9e 17 10 c0
       -4.351955662352893 -4.023064240357086
000060 73 d8 cc 97 ba 7a d7 bf fb 46 ec 0f 50 6e f9 bf
       -0.36686577629314526 -1.5894318220129537
000070 a8 33 3c 1d f9 20 e7 bf 7d a2 ec 52 7f d3 df 3f
       -0.7227750369071275 0.4972837743576191
000080 2d 54 13 13 b8 f7 09 40 cf ee 47 a0 21 8a ff bf
       3.2459565630220113 -1.9712234745956498
000090 17 d3 6e 33 0a cb d5 3f 73 b6 4b b5 d3 2a 03 c0
       0.34051756880516976 -2.395911613820141
0000a0 ee 01 c7 4e 2c 88 f5 3f 5f 65 61 18 75 92 21 c0
       1.345745380138506 -8.786049615754278
0000b0 69 08 bb d9 b7 ac 0c c0 f8 d7 81 a5 95 39 02 c0
       -3.5843350420191666 -2.2781174593210345
0000c0 a9 d5 da a7 41 6e ef 3f c8 43 c1 9e 0f 6f 0e c0
       0.9822090414442545 -3.8042290117959716
0000d0 fb 57 6b 68 a0 25 10 c0 54 0f 49 34 fe 20 f7 bf
       -4.036744720031488 -1.4455549280546238
0000e0 7d 91 bb 79 19 32 02 40 b5 78 d4 16 c0 a3 04 40
       2.274462653195029 2.579956224784008
0000f0 6c 12 e5 29 09 b0 18 c0 f8 e1 16 c7 9f 14 f0 3f
       -6.171909956556743 1.005035188382065
000100 41 77 61 e7 63 0e 23 c0 0b 17 56 a3 73 dd fb 3f
       -9.528105955741582 1.74156535914648
000110 a8 ad 13 1a c1 07 dc bf f0 35 35 eb 97 a0 02 c0
       -0.43797328516549294 -2.32841476207863
000120 1b cf 4b 4c da ae 1b c0 ab 43 6e 3e 61 96 05 40
       -6.920754615904822 2.698427665462494
000130 36 fa 01 13 18 82 1a c0 33 bc 26 a8 b7 47 fd 3f
       -6.627044960971537 1.8300091331873432
000140 7e 04 5f bc 93 15 04 40 a2 9f 7e 14 b3 72 19 c0
       2.5105356899735503 -6.362011261204232
000150 32 e5 3c 20 99 7c 03 40 7c f1 7a f0 74 42 9a 3f
       2.4358389395316857 0.025644137552022425
000160 cf 42 bc fb 6c cf 0c c0 a8 79 83 1c da 2c d1 bf
       -3.601282087977189 -0.2683625486805803
000170 5d 71 e0 dd fd da 06 c0 28 76 22 ef 2a 82 0c c0
       -2.8569295248145594 -3.563558452834304
000180 6b 07 1a 8c 40 3a 06 40 a5 f6 54 00 c7 a7 17 c0
       2.7784434266513265 -5.913845067201383
000190 80 71 b5 08 8e 58 d1 bf e7 bb ee 19 21 5e 13 c0
       -0.2710299572989001 -4.841923146434943
0001a0 64 29 6b 0e 44 e2 e4 3f 3d 8e d4 97 01 e3 f7 bf
       0.6526203424084938 -1.4929214411612428
0001b0 1e 8a e9 48 8f 68 00 c0 a8 41 e4 16 ea 89 f4 bf
       -2.0510545440931898 -1.2836705106929944
0001c0 42 a9 16 03 4a 57 03 40 31 3b 16 38 97 13 1a c0
       2.4176216355600966 -6.519131542546163
0001d0 9c a8 83 a9 35 8d 09 40 f0 ac c3 6f 5c 7e 14 c0
       3.1939500087074304 -5.123399492567145
0001e0 7c 3c 4f d0 d5 89 d8 bf 1b c6 77 6e 0c 17 0c c0
       -0.383412793566954 -3.511254179983337
0001f0 13 0f 8c a8 52 64 03 c0 8b 13 df dc 90 51 05 40
       -2.423985783361681 2.6648270850732323
000200 98 bf 1d ff 3c d1 13 c0 b6 c3 5b 66 ae 8a fa 3f
       -4.9543342458636275 1.6588577268960143
000210 af 75 d4 00 9e 85 06 c0 07 82 96 6d 84 1c 06 c0
       -2.8152427735173755 -2.7639244615131733
000220 67 ec 70 06 2b 85 18 c0 ae 20 20 be 0e 0c 15 c0
       -6.130046940462399 -5.261774988852421
000230 88 eb fd c1 9b 63 12 c0 43 2e 0f d2 ab 72 fd 3f
       -4.597273856280374 1.8404958920899765
000240 e2 06 90 22 51 ae d4 bf 87 bc 41 90 5c 4a 0a c0
       -0.3231394612813415 -3.2863093633710068
000250 2e 24 eb ba d9 a0 04 40 e2 37 0a e5 db 7b f5 bf
       2.5785402873048247 -1.342739004790467
000260 1b 56 90 41 b6 ab e0 bf f5 58 24 53 f1 d6 10 c0
       -0.5209609299224128 -4.209904955953097
000270 80 cb e9 15 ed 41 f0 3f 4f 0a 19 94 c0 15 e1 bf
       1.0160952430712484 -0.533905305150549
000280 ec 58 fd 18 34 fa f7 bf c8 cf 33 0f 16 47 01 c0
       -1.4985848404081095 -2.159710043686548
000290 e0 3b 83 a0 a4 ce ef bf c3 c3 a0 31 bc 0c 13 40
       -0.9939749846470214 4.762436652600573
0002a0 ea 05 e3 e2 5d 06 06 c0 85 36 e8 c7 c4 a3 ee bf
       -2.7531087613613083 -0.9574912933764642
0002b0 e0 4c e6 8c 88 2f f4 bf 30 62 e1 9f e3 f7 0a c0
       -1.2616048339739834 -3.371039628091488
0002c0 c5 88 ae 4e d0 9b d9 bf 9b 8d 12 56 56 a9 03 c0
       -0.40013511356131587 -2.457684204522321
0002d0 db 5f 52 e4 84 8e d5 bf 1a 51 1f 8b b7 ea fd bf
       -0.33682367608116487 -1.8698039469209733
0002e0 fb c4 29 c6 04 c5 00 c0 04 23 c8 c4 8a 80 12 c0
       -2.0962005120751406 -4.625529360499744
0002f0 58 26 c7 c3 4a a9 0c c0 97 41 0c fb 6a f1 10 40
       -3.582662133708066 4.235759661315021
000300 7f 34 a3 d5 89 cb ff bf ab 46 33 5d ff 7c fd 3f
       -1.9871919961181275 1.843016971648846
000310 0f 07 ca 80 d2 7c f1 bf 58 ba ce 1d 2e 4a 09 c0
       -1.0929741888834916 -3.1612207726205206
000320 19 fb c2 07 57 e1 0d c0 18 3d b8 50 27 66 fe 3f
       -3.7350292784098085 1.899939837752589
000330 1e 8f 92 af 6e 42 00 40 65 9a 67 38 25 3b 00 40
       2.0324376789666436 2.0288795858971747
000340 5c 30 e7 3c e0 f2 14 c0 c7 71 a8 e0 fa 0c e3 bf
       -5.237183524714137 -0.5953344714976588
000350 86 2c b0 ab fb e4 0b c0 d8 6e 8d 5c bd 8e 12 c0
       -3.486808148683454 -4.639394231922516
000360 3f ff 6e 61 92 08 08 c0 3c b7 32 77 aa e4 14 c0
       -3.004185448837148 -5.223306524725384
000370 d6 4b d1 3f e5 8e 18 c0 28 d1 66 5f 87 ca 0f 40
       -6.139546391629628 3.9738910153629554
000380 d6 ca 56 d2 cc 10 01 c0 10 19 e1 a9 d2 ff 04 c0
       -2.1332031662690083 -2.6249135276622226
000390 f0 15 b0 46 d9 60 06 c0 8d 00 39 52 df 8f fe bf
       -2.7972894213187303 -1.9101250850508535
0003a0 78 87 fc c1 03 30 0b c0 5a e8 c6 4b 81 70 04 c0
       -3.39844466735752 -2.5549341125561513
0003b0 31 68 21 23 b5 6f 10 40 97 0e bd 20 6c 87 14 c0
       4.109089421190263 -5.132248412646411
0003c0 45 9e d3 02 0a de 07 c0 e7 91 a1 b9 4c 8b 12 40
       -2.9834175320463907 4.636034870611616
0003d0 d7 37 ae 2f 70 ce f4 bf 16 28 05 2c 30 bb 06 c0
       -1.300399957897289 -2.8414004744599977
0003e0 62 20 dd e0 16 0e ea bf 17 3f 4b 82 b0 02 de bf
       -0.8142198936339009 -0.46891415332810155
0003f0 d6 dd bc 2e 54 31 03 40 5d f6 62 a9 4f da 11 c0
       2.3990863467586037 -4.463194510140593
000400 db 5b 74 d3 79 39 05 c0 79 c6 6a b5 f0 2a 00 c0
       -2.6530643958935634 -2.020966927834533
000410 7e e6 fd 4d 4e f6 07 40 44 c1 7f 09 e2 3e f9 3f
       2.9952665417775384 1.5778522845321996
000420 d0 e4 1d 8f 73 68 0e c0 2f d7 ce d0 87 41 e1 bf
       -3.801001661395823 -0.5392493322640116
000430 57 e3 06 fd 27 ac f0 bf 2f 68 e4 93 5b a1 e5 bf
       -1.0420303233970196 -0.6759469879646128
000440 6a 8c fe 99 cc 3e 07 40 2b 1d 3d 7e 61 09 02 c0
       2.9056636839682612 -2.2545804846191877
000450 15 04 e8 3a 63 e1 03 c0 e7 ed 42 2f 4f 7b fc bf
       -2.485052547650876 -1.7801048132085897
000460 ac 5a 0c 74 75 c7 fe 3f 6e f1 e7 27 37 8b 12 c0
       1.9236959965834712 -4.63595259049576
000470 f2 4c d1 96 71 a3 00 40 b4 63 d6 39 ae ee 15 c0
       2.0798064978240456 -5.483086494169516
000480 6b a4 0d c2 26 ef ff 3f 65 68 a6 ea 3f 4a fb bf
       1.9958865719038623 -1.7056273618714155
000490 a0 44 03 cf 0a a9 fd 3f 2c eb 0e 0d fc 47 14 c0
       1.8537700735508125 -5.070297435794412
0004a0 2a e1 7b 53 d2 29 13 c0 97 e8 b5 94 a9 32 0b c0
       -4.790841392932899 -3.3997375123991094
0004b0 26 57 15 70 f4 6d dd bf 8a c4 d9 4d a0 59 03 c0
       -0.45983611055031515 -2.418762787063831
0004c0 36 a2 6d c6 f1 83 fe bf dd 12 1a ae 06 0a f2 bf
       -1.9072129965881124 -1.1274477768758324
0004d0 4f e9 98 50 0f 9a 12 40 5a 75 03 8e 2d cb f3 bf
       4.650449046452493 -1.237103991260787
0004e0 c4 2c df 71 ca 4f ca bf d8 7b 2b 58 10 53 f1 bf
       -0.20556002197404244 -1.0827792591223808
0004f0 05 41 4b 6d 46 87 e3 bf 2f ff 3b e7 98 77 03 c0
       -0.6102630743644403 -2.4333971085724424
000500 26 59 01 60 d1 fa 04 40 e1 96 a0 cf b3 77 0b c0
       2.622469663659234 -3.433448431099223
000510 fc 28 15 02 66 10 03 40 db 17 d5 46 fe 68 10 c0
       2.383007065077548 -4.102532488590408
000520 e7 a9 24 e5 d9 dd 0b c0 fc a1 38 24 df 33 eb bf
       -3.4833257581533306 -0.8500819880910622
000530 70 2a 37 27 ce ff ff bf 0f 48 2b 01 2e 02 00 40
       -1.999952462373269 2.001064309247347
000540 93 37 a7 7d 52 51 08 c0 1e 46 82 7c 1e b8 06 c0
       -3.039708120027123 -2.8399018981224478
000550 3e 8e 1c d8 93 2a 0f c0 86 b0 a5 23 1b 6d b3 3f
       -3.8957898029055107 0.07588357563298773
000560 92 b4 78 8a c2 0e 10 c0 1d 2d 6d b1 41 46 06 c0
       -4.014413989655752 -2.7843049870913448
000570 86 75 4b 92 d6 35 fd bf f7 09 d2 96 3b 3b fd 3f
       -1.8256440844191686 1.8269611255096814
000580 4a 7e 8d c3 21 b6 b4 bf 04 e8 7d 9b 89 81 03 c0
       -0.08090411209331552 -2.4382507465170438
000590 b2 ae fc 08 8d 2f f0 3f 8c ad 93 ce 0b b8 f3 3f
       1.0116091109329486 1.2324331349762785
0005a0 6d 3b 81 3b 75 ba 04 c0 d4 2c 12 79 e3 e2 11 40
       -2.5910439156354443 4.471570865377732
0005b0 94 f1 e7 27 a1 71 f9 bf 6a e8 1b 58 55 26 0f c0
       -1.5902415808514876 -3.8937174685971074
0005c0 8d cd 93 9b e2 03 10 c0 c3 c7 2d 91 9b c2 f0 bf
       -4.003794127365279 -1.0475116416023276
0005d0 3e 11 60 83 79 8c fd bf 1b f5 3e b3 3e 39 0e 40
       -1.8467955715032782 3.777951622351464
0005e0 fd 9d 27 d4 b7 24 01 c0 9e 02 4e a5 00 fd 0f c0
       -2.142928750475902 -3.998536387866195
0005f0 94 ea c4 92 1a 6e 05 c0 8e ce 88 e9 f3 da 15 c0
       -2.6787616220802395 -5.463821076369312
000600 f4 a5 49 38 f3 50 0b c0 8a 60 1d 82 e6 93 fd bf
       -3.414526405093733 -1.8486085016830054
000610 f9 bf 23 00 97 21 17 c0 11 2b e9 21 1a b2 01 c0
       -5.782802583868027 -2.2119639062197014
000620 18 22 a6 c4 ab 13 11 c0 ab f6 ab 7c 06 26 17 40
       -4.26920993103024 5.787134120937178
000630 c2 0d 8e 5c 5d 65 04 c0 dc c2 d4 d1 97 ec ff 3f
       -2.5494944792605745 1.9952619740035322
000640 a0 80 5d ef 11 1f 0e 40 6d 51 2a da 13 46 13 c0
       3.7651709270867997 -4.818435105164423
000650 41 96 f1 1f 46 11 15 c0 d7 3a 58 64 8e d4 fb bf
       -5.266869067306801 -1.7393936080658727
000660 ce 2e c2 df a5 85 07 c0 05 57 f3 84 76 f4 d2 3f
       -2.9402577859053514 0.2961708353371793
000670 3f 5d 2e ba ff ff f1 3f fb 07 3f 01 4a 5b 00 40
       1.1249997399043676 2.0445747468338573
000680 0f 42 35 60 2e df 06 c0 1b b7 4e f1 c6 ae d1 bf
       -2.8589751735928597 -0.276292548801267
000690 b1 a3 d5 e0 a7 70 20 c0 93 bb a7 e9 53 e7 23 c0
       -8.220030809477835 -9.951812078213868
0006a0 eb 9e fd 11 20 3e 0b 40 01 09 84 c4 76 e1 09 40
       3.405334606697456 3.235089812545198
0006b0 f6 e9 57 97 f1 e1 1a c0 e5 2e 1f 33 e8 92 14 c0
       -6.720648159733619 -5.143463896539946
0006c0 b8 f9 48 aa 0c 8f 1e c0 e2 a7 31 91 53 59 0b 40
       -7.6396967513123215 3.4186164229658837
0006d0 40 09 f3 17 c4 0a 17 c0 07 91 c1 99 5f 1c 29 c0
       -5.760513662537335 -12.555416874769902
0006e0 3a 0c ff 51 2c 8c 04 c0 55 e3 b9 72 ba c6 0e c0
       -2.568443909259739 -3.8470353091219445
0006f0 de f3 84 94 ae 1c 0c c0 3e 58 f8 4a 1d 13 10 40
       -3.514004860217468 4.018666430862195
000700 7f a7 ef 70 db 04 c9 bf ab 4c 1a bd e4 ae eb bf
       -0.1954607297369044 -0.8650993054783574
000710 8b 2e 5e ca 52 5f 09 c0 dc 14 30 4d 32 37 08 c0
       -3.1715446290962226 -3.026951411275702
000720 89 75 39 a7 bb 3e ec 3f 0a 13 62 bc ef 1a f5 3f
       0.882657839403394 1.3190762861933671
000730 bc 81 f5 18 41 b9 ff bf ed b7 9f 2a 2c 5f 10 c0
       -1.9827280974351273 -4.092941919325296
000740 6a f5 6a 8d e6 c3 a7 3f 7f b1 78 e4 dc 60 0a c0
       0.04641647793094246 -3.2972963189442335
000750 4a ff 1c 54 8c e7 08 40 16 f5 24 d4 84 70 04 c0
       3.113060624251294 -2.5549408506182187
000760 bc c8 d6 30 fb 61 c2 3f 85 f0 d0 1b a3 8c fa 3f
       0.14361514935223407 1.6593352400368826
000770 f8 03 15 d1 e5 62 07 c0 53 c3 64 52 f3 f8 0f c0
       -2.9232899031198905 -3.9965578495979712
000780 b1 68 54 77 58 4d 01 c0 59 1e 90 73 34 24 18 c0
       -2.1627663920054023 -6.035356336280153
000790 c4 45 6b 68 38 9d 0c c0 87 1c b9 88 fb d1 f7 3f
       -3.576767745755861 1.4887652722116245
0007a0 74 a3 ae e9 96 0d 16 c0 4c e4 83 8f ca 9b 00 40
       -5.5132709992257 2.0760699474454096
0007b0 cf f1 94 31 6d c6 f3 bf 0a 06 cc 91 9d b7 05 c0
       -1.2359439789571416 -2.714656008757406
0007c0 f4 d1 51 07 61 75 eb 3f 34 ab 1f 0c 56 45 19 c0
       0.8580784934006815 -6.317711057122143
0007d0 5c c2 e3 d1 f5 2d 11 c0 f2 c4 fd 18 a1 ed f7 bf
       -4.294883040930099 -1.4955149627897382
0007e0 97 34 b1 89 38 ac e6 3f ca 21 a3 bf 21 84 fd bf
       0.708523053102584 -1.8447587476567713
0007f0 55 61 57 89 bf 3d f8 3f c3 e7 b2 90 eb dc ec bf
       1.5150752415557538 -0.9019677950047867

bias_2 f8 [1, 10]
000000 18 27 76 87 27 e5 eb bf c9 be 10 a8 80 46 b9 bf
       -0.8717229505284392 -0.0987320337596841
000010 b8 90 8f 02 b2 01 c8 bf cc a6 91 82 23 84 c3 3f
       -0.1875517380241314 0.15247005343854025
000020 3d ae 18 fa 80 e5 d5 bf f7 36 94 7c 57 98 a0 bf
       -0.3421328012798062 -0.03241227527369788
000030 0a 74 c9 81 68 f4 d8 bf 6e 49 76 68 a8 eb d5 bf
       -0.38991749453072144 -0.3425084133279118
000040 d1 08 ca 59 af 9a e6 3f dd f5 d4 ca 60 74 e7 3f
       0.7063824418730978 0.7329563104209985

loss_history f4 [95]
000000 08 00 23 3f cc 0b 9d 3e a6 ae 7e 3e 92 57 60 3e
       0.6367192 0.30673063 0.2487131 0.21908405
000010 4f a6 4d 3e 16 c9 41 3e a1 0b 35 3e 25 71 30 3e
       0.20082973 0.18924364 0.17680217 0.17230661
000020 d4 f6 28 3e 60 b4 25 3e af 0f 26 3e 18 76 1e 3e
       0.16500407 0.16182089 0.1621692 0.15474737
000030 a9 8f 20 3e 89 cc 16 3e 38 d6 19 3e a3 87 20 3e
       0.15679802 0.14726461 0.15023124 0.15676741
000040 0e fc 19 3e b2 40 1b 3e 81 18 16 3e 31 ba 13 3e
       0.15037557 0.15161398 0.14657785 0.14426495
000050 67 ed 18 3e 31 a7 17 3e 1e 79 1b 3e 31 e3 1a 3e
       0.14934312 0.14809872 0.15182921 0.15125729
000060 ea b8 14 3e 7a e0 15 3e a5 d1 0e 3e 33 2d 19 3e
       0.14523664 0.14636412 0.1394716 0.14958648
000070 16 20 16 3e 2e 81 16 3e d1 4f 1c 3e ec 0c 1a 3e
       0.14660677 0.14697716 0.15264823 0.15043992
000080 f9 83 19 3e 21 6a 25 3e fd af 1e 3e 40 dd 29 3e
       0.1499175 0.16153766 0.15496822 0.16588306
000090 97 a0 21 3e a0 84 24 3e 09 8b 1e 3e 36 8b 25 3e
       0.15783916 0.16066217 0.15482725 0.16166386
0000a0 a9 56 23 3e eb 31 2d 3e e3 c4 27 3e 7f 83 26 3e
       0.15951027 0.16913573 0.163837 0.162611
0000b0 41 55 2e 3e f6 c5 2c 3e 1e 2e 26 3e 71 2d 33 3e
       0.1702471 0.16872391 0.1622853 0.17497803
0000c0 be c8 36 3e c8 7f 31 3e b9 dc 33 3e ef 07 2d 3e
       0.17850015 0.17333901 0.17564668 0.16897558
0000d0 46 16 35 3e cb 57 36 3e 7c 41 31 3e 4b 6d 41 3e
       0.17684278 0.17806928 0.17310137 0.18889348
0000e0 bf 02 3d 3e 2f 91 33 3e 88 83 39 3e e1 47 3d 3e
       0.18458079 0.17535852 0.18116581 0.18484451
0000f0 66 71 33 3e ca cb 3f 3e 18 9e 3c 3e 74 53 4c 3e
       0.17523727 0.18730083 0.18419683 0.1995371
000100 6a 1a 40 3e 9a d8 3d 3e 68 fe 43 3e 88 d8 4e 3e
       0.18760076 0.18539658 0.19140017 0.20199788
000110 18 a2 42 3e 0a 2f 4e 3e be 8c 3e 3e 02 65 4e 3e
       0.19007146 0.20135131 0.18608376 0.20155719
000120 dc a0 55 3e a2 74 4a 3e de 59 53 3e 57 b4 4e 3e
       0.20862144 0.19771054 0.2063975 0.20185982
000130 db a0 58 3e 97 a1 4e 3e 15 40 55 3e 15 77 61 3e
       0.21155111 0.20178829 0.20825227 0.22018082
000140 55 5e 5a 3e 21 ea 63 3e ff 6e 53 3e 7e 9e 5e 3e
       0.21325047 0.22257282 0.2064781 0.21740147
000150 74 0e 60 3e 86 b7 69 3e 09 bd 69 3e d1 48 69 3e
       0.21880513 0.22823915 0.22826017 0.22781684
000160 d5 c1 61 3e 2f 03 6d 3e d3 26 69 3e 73 2f 6d 3e
       0.22046597 0.23145746 0.22768717 0.23162632
000170 9d 49 62 3e 2e 58 70 3e 87 96 6b 3e
       0.22098394 0.23471138 0.2300664

accuracy_history f4 [95]
000000 8c a5 a0 42 fd 22 b6 42 ef ae b9 42 e5 57 bb 42
       80.32333 91.06834 92.84167 93.67167
000010 55 55 bc 42 0a 17 bd 42 1b e8 bd 42 29 1c be 42
       94.166664 94.545 94.95333 95.055
000020 89 88 be 42 3a ed be 42 1f c5 be 42 29 1c bf 42
       95.26667 95.46333 95.385 95.555
000030 cd 4c bf 42 5c cf bf 42 41 a7 bf 42 89 88 bf 42
       95.65 95.905 95.82667 95.76667
000040 52 b8 bf 42 52 b8 bf 42 1b e8 bf 42 a7 0d c0 42
       95.86 95.86 95.95333 96.026665
000050 44 c4 bf 42 85 eb bf 42 cd 8c bf 42 0e f4 bf 42
       95.88333 95.96 95.775 95.97667
000060 f6 28 c0 42 07 fa bf 42 0a 57 c0 42 b1 e4 bf 42
       96.08 95.988335 96.17 95.94666
000070 2c 39 c0 42 7e f1 bf 42 f6 e8 bf 42 11 11 c0 42
       96.111664 95.971664 95.955 96.03333
000080 33 f3 bf 42 4b be bf 42 85 eb bf 42 6a 83 bf 42
       95.975 95.871666 95.96 95.75667
000090 9a d9 bf 42 b5 c1 bf 42 e5 d7 bf 42 b5 c1 bf 42
       95.925 95.878334 95.92167 95.878334
0000a0 7b 94 bf 42 66 66 bf 42 bc 7b bf 42 74 9a bf 42
       95.79 95.7 95.74167 95.80167
0000b0 a4 70 bf 42 e5 57 bf 42 4b 7e bf 42 c9 2f bf 42
       95.72 95.67167 95.746666 95.59333
0000c0 11 11 bf 42 26 3f bf 42 03 1d bf 42 7e 31 bf 42
       95.53333 95.62334 95.55666 95.596664
0000d0 8f 02 bf 42 4f 1b bf 42 da 40 bf 42 6a c3 be 42
       95.505 95.55334 95.62666 95.38167
0000e0 8c e5 be 42 cd 4c bf 42 66 e6 be 42 f6 e8 be 42
       95.44833 95.65 95.45 95.455
0000f0 77 f7 be 42 03 dd be 42 8c a5 be 42 b5 81 be 42
       95.48333 95.43166 95.32333 95.253334
000100 9d 76 be 42 c9 2f bf 42 89 c8 be 42 41 e7 bd 42
       95.23167 95.59333 95.39167 94.95167
000110 3a 6d be 42 18 0b be 42 0a d7 be 42 52 78 be 42
       95.21333 95.02167 95.42 95.235
000120 66 e6 bd 42 77 37 be 42 60 ec bd 42 b1 24 be 42
       94.95 95.10833 94.96167 95.07166
000130 ab ea bd 42 4f db bd 42 82 ce bd 42 ae 47 bd 42
       94.958336 94.92834 94.903336 94.64
000140 f2 cb bd 42 e5 57 bd 42 33 b3 bd 42 4f 5b bd 42
       94.89833 94.67167 94.85 94.67834
000150 1b 68 bd 42 77 f7 bc 42 f6 a8 bc 42 cd 0c bd 42
       94.70333 94.48333 94.33 94.525
000160 c3 f5 bc 42 bf d8 bc 42 0e f4 bc 42 93 1f bd 42
       94.48 94.42333 94.47667 94.56167
000170 ab 2a bd 42 74 5a bc 42 33 b3 bc 42
       94.583336 94.17667 94.35

val_loss_history f4 [19]
000000 01 d0 de 3d 1e 1f 00 3e 15 26 7f 3e ee 55 df 3d
       0.10879517 0.1251187 0.24916871 0.10905062
000010 14 be 31 3e b4 78 42 3e 3b ab 66 3e 1c 85 62 3e
       0.17357665 0.18991357 0.22526257 0.2212109
000020 94 9a 91 3e 2c 64 0f 3e 41 2e 08 3e 25 33 80 3e
       0.28438246 0.14003056 0.13298894 0.2503902
000030 71 37 be 3e 9d 7b 9e 3e fe e0 8d 3e aa 57 5d 3e
       0.37151673 0.30953684 0.27710718 0.21615472
000040 d9 59 9a 3e fd ac c7 3e 97 76 a8 3e
       0.30146673 0.38999167 0.32902977

val_accuracy_history f4 [19]
000000 66 66 c1 42 66 66 c1 42 66 66 c0 42 33 33 c3 42
       96.7 96.7 96.2 97.6
000010 cd cc c0 42 9a 99 c0 42 cd cc c2 42 33 33 c2 42
       96.4 96.3 97.4 97.1
000020 66 66 c0 42 cd cc c2 42 00 00 c2 42 9a 99 c0 42
       96.2 97.4 97.0 96.3
000030 cd cc be 42 33 33 c0 42 33 33 bf 42 9a 99 c0 42
       95.4 96.1 95.6 96.3
000040 66 66 c0 42 9a 99 be 42 cd cc be 42
       96.2 95.3 95.4
