checkpoints/model_epoch_0145.npz (npz, 384348 bytes, 10 tensors)

weight_0 f8 [784, 64]
0	0x0000000021e5124b	2.809556444e-315
1	0x000000000e517a7f	1.18684844e-315
2	0x000000000dfdcc53	1.159753507e-315
3	0x000000001a30b44e	2.170921987e-315
4	0x00000000046e4c3d	3.67275264e-316
5	0x800000001dd10811	-2.47150585e-315
6	0x800000000becabc0	-9.8842694e-316
7	0x800000001f76a1b5	-2.60801613e-315
8	0x0000000003b9a6e1	3.0878376e-316
9	0x8000000021b1a0d8	-2.79289962e-315
10	0x0000000021f24b73	2.813838017e-315
11	0x8000000002f0601f	-2.43612303e-316
12	0x0000000020091a8d	2.65544244e-315
13	0x0000000004f44bed	4.10662844e-316
14	0x80000000211ab90c	-2.74403781e-315
15	0x800000000892c33d	-7.1064409e-316
16	0x0000000017ce89d0	1.973355817e-315
17	0x800000000e67289f	-1.193868285e-315
18	0x0000000013192721	1.583063013e-315
19	0x000000000296f08b	2.1465379e-316
20	0x00000000123ad668	1.511079343e-315
21	0x80000000144d3b11	-1.682815816e-315
22	0x0000000014272a71	1.670490736e-315
23	0x0000000011cf7497	1.47631e-315
24	0x0000000004729421	3.68661355e-316
25	0x00000000179248c1	1.95384608e-315
26	0x800000000f808609	-1.28497167e-315
27	0x80000000069c7e1f	-5.48013657e-316
28	0x00000000000a7e2f	3.397507e-318
29	0x0000000002ac3580	2.21540617e-316
30	0x0000000021c1d819	2.79815016e-315
31	0x000000000a95c65f	8.77400346e-316
32	0x80000000038b6b22	-2.93813814e-316
33	0x0000000008e2cbd6	7.36558233e-316
34	0x00000000031154aa	2.5428291e-316
35	0x800000001ccbff8e	-2.38698567e-315
36	0x00000000074233f5	6.01669137e-316
37	0x800000000da35b27	-1.13046919e-315
38	0x800000001897fefd	-2.038585985e-315
39	0x0000000021d3d773	2.803977573e-315
40	0x800000000dea8b61	-1.153519337e-315
41	0x800000001b04ec79	-2.23963669e-315
42	0x800000000cc1ee70	-1.05747874e-315
43	0x000000000d57c830	1.10599899e-315
44	0x000000001e827b68	2.528962715e-315
45	0x800000000ef36c45	-1.23928457e-315
46	0x000000001e902aa3	2.53339363e-315
47	0x000000001563665d	1.772884437e-315
48	0x800000000b8422fa	-9.545797e-316
49	0x000000001509ac11	1.74383142e-315
50	0x800000001fe3afd2	-2.643327183e-315
51	0x800000000a8e417f	-8.7496575e-316
52	0x8000000021e469ef	-2.8093435e-315
53	0x80000000038bd9b6	-2.93953674e-316
54	0x00000000014591d5	1.0541648e-316
55	0x800000000e5c07b8	-1.19026497e-315
56	0x800000000a989782	-8.78312445e-316
57	0x000000001411b151	1.66353793e-315
58	0x0000000022da9825	2.8890545e-315
59	0x80000000238323f8	-2.943628217e-315
60	0x80000000017c029f	-1.23043843e-316
61	0x8000000018ad7810	-2.04553873e-315
62	0x000000000218bc58	1.7379012e-316
63	0x800000000d2617f7	-1.08991035e-315
64	0x8000000008a717a4	-7.1722666e-316
65	0x000000001114eb6e	1.41591142e-315
66	0x80000000122bdd0c	-1.50623088e-315
67	0x8000000008aef116	-7.1976822e-316
68	0x800000001b52e4cb	-2.264882666e-315
69	0x800000001f882b34	-2.61369448e-315
70	0x800000000334a2a0	-2.65714196e-316
71	0x000000000a839c20	8.71518677e-316
72	0x000000000b8871f6	9.5597476e-316
73	0x800000001a9037b9	-2.20184834e-315
74	0x000000001c38b137	2.339289327e-315
75	0x8000000021465ed4	-2.7581705e-315
76	0x80000000230ae726	-2.904696387e-315
77	0x00000000162ba722	1.83772453e-315
78	0x80000000013bff53	-1.0231706e-316
79	0x000000001eee93af	2.563962834e-315
80	0x0000000005fc35b7	4.9611554e-316
81	0x0000000016856a53	1.866788797e-315
82	0x800000001004dbd7	-1.32782059e-315
83	0x000000002218d5e7	2.826317186e-315
84	0x800000001ebd1e2e	-2.54794846e-315
85	0x800000000181da45	-1.2493555e-316
86	0x8000000015e8c04f	-1.816062386e-315
87	0x8000000006659242	-5.3023063e-316
88	0x000000000d7802e7	1.11643456e-315
89	0x000000000ec6fd43	1.224897366e-315
90	0x8000000010a893d8	-1.38083123e-315
91	0x80000000025535d0	-1.93371207e-316
92	0x000000000837150b	6.80958797e-316
93	0x800000001496df26	-1.70666008e-315
94	0x000000001bb18f69	2.295534805e-315
95	0x000000001f124a93	2.575526836e-315
96	0x80000000215a3899	-2.76459796e-315
97	0x00000000026ac360	2.00349864e-316
98	0x800000002112ccb9	-2.74147237e-315
99	0x8000000014f5a941	-1.737352047e-315
100	0x8000000008629596	-6.95044387e-316
101	0x800000000aa3e348	-8.81969983e-316
102	0x00000000159f4de4	1.792280936e-315
103	0x800000000b2973b2	-9.25216824e-316
104	0x8000000000e49f48	-7.4025777e-317
105	0x000000001d86d147	2.44747603e-315
106	0x800000001e36d0d5	-2.504462657e-315
107	0x00000000151c2619	1.749814003e-315
108	0x800000001f613320	-2.601076655e-315
109	0x000000001521af66	1.751606616e-315
110	0x00000000128b9b33	1.537231518e-315
111	0x0000000011128172	1.41512979e-315
112	0x8000000016ce8a61	-1.890466073e-315
113	0x00000000162b90d7	1.837696335e-315
114	0x80000000220327b5	-2.819297254e-315
115	0x80000000016cb256	-1.18085434e-316
116	0x800000001e96bbe1	-2.53552008e-315
117	0x00000000242b4c06	2.998075743e-315
118	0x00000000219201f2	2.782661126e-315
119	0x000000001ea488f3	2.539988733e-315
120	0x00000000040da57c	3.3598043e-316
121	0x800000001fc130e6	-2.63215776e-315
122	0x000000000f8f5145	1.28976179e-315
123	0x000000001766e5a2	1.939797703e-315
124	0x000000001afd8b65	2.23724737e-315
125	0x8000000020c99aef	-2.717772663e-315
126	0x0000000012872d86	1.535797635e-315
127	0x80000000148d5759	-1.7035742e-315
128	0x0000000010ff8c68	1.408991626e-315
129	0x8000000004592c21	-3.60435044e-316
130	0x000000000ee14402	1.23340541e-315
131	0x0000000006fe166d	5.79614007e-316
132	0x0000000001ed93d7	1.59815884e-316
133	0x8000000008d08adf	-7.3064783e-316
134	0x0000000021a788f0	2.789631473e-315
135	0x800000001dc893ef	-2.468768637e-315
136	0x80000000097d745f	-7.8663519e-316
137	0x000000000a578ebb	8.57254937e-316
138	0x8000000001826021	-1.25104857e-316
139	0x800000000204322c	-1.6713954e-316
140	0x800000000a8946c2	-8.7335345e-316
141	0x0000000009c9f39f	8.1140424e-316
142	0x800000000534cb90	-4.31546895e-316
143	0x000000001400590c	1.65792184e-315
144	0x0000000021377f19	2.75335445e-315
145	0x800000001eb2882e	-2.54452083e-315
146	0x000000001b1efb0a	2.24807368e-315
147	0x000000001d41ab77	2.425086633e-315
148	0x800000000dcaa633	-1.14319195e-315
149	0x0000000000c70166	6.443615e-317
150	0x800000001e0d535d	-2.491028537e-315
151	0x000000000d94131f	1.12552122e-315
152	0x000000000ba00279	9.6360473e-316
153	0x8000000013752abb	-1.61285633e-315
154	0x00000000211dd2a5	2.74504156e-315
155	0x000000000b300a47	9.27350027e-316
156	0x8000000011c4ae49	-1.472821276e-315
157	0x800000000690a494	-5.44176807e-316
158	0x00000000042fa415	3.46987545e-316
159	0x8000000012b57380	-1.55078052e-315
160	0x8000000001dd722f	-1.5459266e-316
161	0x800000000fac1115	-1.29907054e-315
162	0x800000002042b4ed	-2.67409377e-315
163	0x800000001d7f72a6	-2.445089805e-315
164	0x0000000019638476	2.10448435e-315
165	0x800000001449ad1c	-1.681664895e-315
166	0x00000000026701a0	1.99133435e-316
167	0x8000000010b83c59	-1.385901216e-315
168	0x00000000147c9c74	1.69815716e-315
169	0x000000001ed384bb	2.55520157e-315
170	0x000000000d66a858	1.11081558e-315
171	0x8000000002c7ef73	-2.3051816e-316
172	0x80000000228f53d8	-2.8646838e-315
173	0x800000001481d3d8	-1.699846175e-315
174	0x00000000069dbdbd	5.4841791e-316
175	0x00000000072c875d	5.9465123e-316
176	0x800000000def0b57	-1.154976346e-315
177	0x800000000e5ace68	-1.18986869e-315
178	0x800000000bfcf233	-9.936967e-316
179	0x8000000008662c43	-6.96206335e-316
180	0x800000001e874e50	-2.530524634e-315
181	0x800000001c29567f	-2.334317723e-315
182	0x800000000d64ff66	-1.110278104e-315
183	0x800000000478c552	-3.7066632e-316
184	0x00000000000a7251	3.382497e-318
185	0x8000000011f246aa	-1.487584595e-315
186	0x800000000fb04cb1	-1.3004411e-315
187	0x80000000004a053d	-2.396715e-317
188	0x80000000206fefc4	-2.68873878e-315
189	0x00000000044e1790	3.5684733e-316
190	0x00000000091619f7	7.53170385e-316
191	0x00000000029214d7	2.13080745e-316
192	0x8000000022f6b1ff	-2.898153343e-315
193	0x800000001947cdef	-2.09551113e-315
194	0x800000000fde5c1d	-1.315354986e-315
195	0x800000001fab98d9	-2.62516584e-315
196	0x80000000020cbbea	-1.69904087e-316
197	0x800000001846c5a6	-2.0122864e-315
198	0x800000001b8bc85f	-2.283302797e-315
199	0x80000000158e9f3d	-1.78687938e-315
200	0x000000000807511f	6.65492823e-316
201	0x800000000c3e9bc2	-1.014957564e-315
202	0x8000000000961ec0	-4.860752e-317
203	0x000000001a5121d8	2.18142184e-315
204	0x000000001f2bc9da	2.58378259e-315
205	0x00000000054472aa	4.3661511e-316
206	0x800000000f69db83	-1.27763259e-315
207	0x000000001555cbf1	1.76847984e-315
208	0x0000000015f5ce56	1.82028941e-315
209	0x8000000017c1fa01	-1.969288437e-315
210	0x8000000018a197c0	-2.041693317e-315
211	0x0000000022f5068e	2.89761271e-315
212	0x000000001a5e2080	2.18562942e-315
213	0x8000000014165a41	-1.665046765e-315
214	0x800000001a8b19c1	-2.20019148e-315
215	0x000000001cdc6e7a	2.39230662e-315
216	0x8000000011e117e1	-1.482020976e-315
217	0x000000000e57723e	1.18878075e-315
218	0x000000001d52bb48	2.43061108e-315
219	0x0000000001fec17f	1.65378075e-316
220	0x00000000220d47de	2.82257584e-315
221	0x000000001c79fb75	2.360429636e-315
222	0x8000000000c84b3a	-6.485332e-317
223	0x800000000da0a0df	-1.129585997e-315
224	0x000000001caea4a1	2.37748073e-315
225	0x800000000c1f0881	-1.0047338e-315
226	0x800000000446b5b9	-3.54457047e-316
227	0x0000000005d85052	4.8449272e-316
228	0x8000000000f31c19	-7.8716718e-317
229	0x00000000194fa7ec	2.09805338e-315
230	0x800000002122c52d	-2.74664348e-315
231	0x8000000008eff831	-7.40823615e-316
232	0x800000000131e5f0	-9.904704e-317
233	0x00000000046a4f3a	3.6598388e-316
234	0x0000000011a9e6fa	1.464150627e-315
235	0x000000001ecade54	2.552400774e-315
236	0x800000001cee99e7	-2.39818978e-315
237	0x800000001200c73e	-1.492280294e-315
238	0x0000000007065252	5.8228009e-316
239	0x800000000aefc319	-9.06537383e-316
240	0x00000000026b1afa	2.00460664e-316
241	0x00000000229e9572	2.869623636e-315
242	0x0000000010ed19a7	1.40301825e-315
243	0x800000001a51f661	-2.181690657e-315
244	0x00000000187a4fe7	2.0289746e-315
245	0x000000000e38e91a	1.178893565e-315
246	0x000000001d7beded	2.443950563e-315
247	0x0000000007237b90	5.91722187e-316
248	0x000000000f8d95ee	1.289201053e-315
249	0x800000000de11c28	-1.150464544e-315
250	0x0000000015832e3c	1.783174753e-315
251	0x8000000018db2edf	-2.060340536e-315
252	0x800000000ef995ce	-1.241279847e-315
253	0x00000000036aa06e	2.83196126e-316
254	0x000000001e06d1c0	2.488921856e-315
255	0x000000000cc9e74a	1.060060026e-315

bias_0 f8 [1, 64]
0	0xbfbbb79314c49b14	-0.10826987511664427
1	0xbfdc770c842da3ce	-0.4447661677173159
2	0xbf89417b4358e8c8	-0.012331927292610692
3	0x3f7f5600d980759e	0.007650378531278616
4	0xbfd15b21b3937fdd	-0.27118723427520114
5	0xbfe97bb12993a171	-0.7963491260571073
6	0xbf7dfc1eaabdd994	-0.007320518296060636
7	0xbfe566a276d73c3f	-0.6687786408527997
8	0xbfe2bb274b35be3f	-0.585345885176089
9	0xbf7a67f0e01ad5dd	-0.006446782035415902
10	0x3fd7a1c41315e3d3	0.36924840797251796
11	0xbfd0eb66f03c823d	-0.2643678041513658
12	0xbfe7c63633f03cda	-0.7429457678244049
13	0xbfcd0995a18b64d1	-0.2268549956122912
14	0xbfe7703448b50d2f	-0.7324468059600003
15	0xbfe9e2b92b738e3a	-0.8089261864337864
16	0x3fcf3ee764c7613f	0.24410717411843483
17	0xbfe15cbdbc55cd2f	-0.5425709417744765
18	0xbfdb2a3cf770909d	-0.42445301212343073
19	0xbf6449a9c8386022	-0.0024765316063728596
20	0xbfde1b741a987f33	-0.4704256305430931
21	0x3fdcf7efe1c801c8	0.45263287590935564
22	0xbfd183bd69916762	-0.2736657648980466
23	0xbfe52b8a97917a9b	-0.6615651092832481
24	0x3fdbba8232f68998	0.43325858094081005
25	0xbfbdd8e996a264b9	-0.1165910713920252
26	0xbfbb3ca436a8c4db	-0.1063940652318424
27	0x3fd322ae6c695750	0.2989917811113303
28	0x3fdd3018af20c45e	0.45606057264655486
29	0xbfc5f7db2bef3c5e	-0.17162646908988938
30	0xbf4b3636fe725075	-0.0008304375195558172
31	0xbfd0a4b1ef933c58	-0.26005218883523673
32	0xbfe3ccb6ded5f4f8	-0.6187395431767575
33	0x3f9c48f88c87da17	0.02762211187106275
34	0xbfd35fb883724e5e	-0.3027173312814052
35	0xbfe7bc053b9e3b20	-0.7417017139831366
36	0xbfce5602ac4748c4	-0.2369998303607358
37	0xbfdc61cf940d4d85	-0.4434699006862604
38	0xbfd775a388f3e627	-0.3665551030568132
39	0x3f8bcbfb444c0e74	0.013572657605897855
40	0xbfc7d08667dc3e63	-0.18605117865853335
41	0xbfc6c337db8b3247	-0.17783258647831898
42	0x3fa3dfff83df6932	0.038818344924680295
43	0xbfcf7fdb0de3e37d	-0.24608934572441035
44	0xbfe8cfb8c8cf519f	-0.7753566667620823
45	0xbf9a2ffadaa6f26e	-0.025573653789012267
46	0x3faea84fdd1ba01e	0.059877868405067355
47	0x3fcf1a425073ba33	0.24298886230777014
48	0xbfea6bfae4c90fab	-0.8256811588730576
49	0xbfe07cc4fe94591a	-0.5152306530242499
50	0xbfe117ecae5de777	-0.5341704755403346
51	0x3fd2d94163f15782	0.29451021919282294
52	0xbfc7a5336f50ba7f	-0.18472903189963927
53	0x3fd39f60d35dc86f	0.30660267487758736
54	0xbfdb2ac54119dea1	-0.4244855056526636
55	0xbfeca1441be5141f	-0.894685797197443
56	0xbfe68de597eee061	-0.7048213927692012
57	0x3fcad394dd0ed866	0.20958195489737647
58	0xbfe5db1926064188	-0.682995390192489
59	0xbfe4b5469d20e9a5	-0.6471283978383339
60	0xbf81696d80ef8dfc	-0.008501868722254884
61	0x3fadbd6865d80240	0.0580856918641115
62	0x3fc09f62bb337863	0.12986406460453556
63	0xbfd43d50b359abfc	-0.31624238505054314

weight_1 f8 [64, 32]
0	0xc0192b837336f18f	-6.292493629673472
1	0x3fe44685f511f6ac	0.6336087976958047
2	0xc0229accfc47d41d	-9.302345165031563
3	0xbff6e697e94c963e	-1.4312972176789027
4	0xc01c54548acc86cd	-7.08235375283557
5	0xc006f3dca3a3e12d	-2.86907317966338
6	0xc00d63a31fa709d4	-3.673650977406604
7	0x3ff9dd3506d87972	1.6165056483656284
8	0xbffe6223f01e2ffc	-1.898960054360031
9	0xc010cd2f8ce38c88	-4.200376702679144
10	0x3fc391c988733bc4	0.15288657343486822
11	0x3fa02944cacce737	0.0315648553427778
12	0x3ff3ffcda51959be	1.2499519776516617
13	0x3ff069463352d1d0	1.0257017140221372
14	0x3fdbd4000b4e02e4	0.43481446365335175
15	0x3fe5362eed0adeeb	0.662864172910273
16	0xc0017a37a444f5d2	-2.1846764405770296
17	0xc017a84597fb0698	-5.9143279787982905
18	0x3ff0605fd09acf17	1.0235288761732073
19	0xc001419c366218fb	-2.1570362328230863
20	0xbff775abe0927529	-1.4662283680293717
21	0xbff8c5381863e5f9	-1.548149199747398
22	0xc01410b42a17b04b	-5.016312272735443
23	0x3ff245991052769a	1.1419916761000537
24	0xc0148da602e34f94	-5.138328595279649
25	0x3ff2814471102db0	1.156559411671747
26	0xbfd41838bacc99dd	-0.31397836916076277
27	0x3ff00ca5ea3abbaa	1.0030879163348154
28	0xbfff74b9b5b0fb55	-1.9659974191015028
29	0xc0173e34be9d3c4a	-5.81074807963075
30	0xbfcc964f24aa8c16	-0.22333707132665442
31	0xbfe46745c3fadf25	-0.6376065089925517
32	0x3fd569b23bd41cf9	0.3345761856330252
33	0xc0061617541ec8bd	-2.760786683263261
34	0xc0135ad71b2274cf	-4.838711189249081
35	0xc00d129e134b9e7d	-3.634090567345821
36	0x3fa7badfaa5aa31d	0.046347608132526676
37	0xc01d0f7c95d60cbe	-7.265123692693292
38	0x3fc461ce320b859e	0.15923478549579512
39	0xc007d89f38fcc620	-2.98077244302182
40	0x3fa3083d07a108b0	0.03717222898605266
41	0x3fccc117ea91966a	0.22464274362134812
42	0xbfdfa5ba66da9093	-0.4944902424269994
43	0xc0257dad7b1f31a8	-10.745464179571016
44	0xc00b51ffc7ec4e4c	-3.4150386446943113
45	0x3fe3d88a47840935	0.6201831242363257
46	0x3f91a5c36056b430	0.017233898882910548
47	0xbf86c1da16d9f4d8	-0.011111930677765988
48	0x3fd3d19086114709	0.30966580479172073
49	0xbffcdbf1e11b3108	-1.8036974709712599
50	0xc014572340ef9b0c	-5.085095419525498
51	0xc0129b51e11c7c56	-4.6516795323978695
52	0x3fe08f14483bd069	0.5174657259763197
53	0xbffdeba686a67073	-1.8700318584224334
54	0xbfc191e6f29d65d6	-0.13726507994105813
55	0xc010c647704aef6a	-4.1936318917977164
56	0x3fd21bc70a282dbc	0.28294540397538603
57	0xc00dd7457d4299ab	-3.7301130090665615
58	0xbfe4fa40a266a16a	-0.6555483981983745
59	0xc0125c70869d14a4	-4.590273001992646
60	0xbffb20115e898942	-1.6953290646420816
61	0xc00083a85494283f	-2.064285908481025
62	0xc004b12afccc1178	-2.586507773378056
63	0xbfcde8cb91ecdde4	-0.2336668455625236
64	0xc01450c35c0bb572	-5.078870237555167
65	0x3fc2b27760ebac9e	0.14607135994387915
66	0xc01accb6fbd7d23b	-6.699916777656251
67	0x3ff3014fcbf0680c	1.1878202406283007
68	0xc0147ada30e13040	-5.119972957367338
69	0xc011acaf0f2417f4	-4.418636547639824
70	0x3fe37cfca4a1123b	0.609007188359619
71	0x3fe7b385ec5efa1a	0.7406644455548446
72	0xbfcb865ef6922d8e	-0.2150381759605406
73	0xbfcacd5367f170b3	-0.20939104628894753
74	0xc00cdb283dee441d	-3.607010349115184
75	0x3fb93b8f42e4d594	0.09856505759383644
76	0x3fe95c86537a00df	0.7925445204164382
77	0x3fcabcb63a454878	0.2088840279125781
78	0xc01730cf24f3d51f	-5.797665192968707
79	0xc0032a227e88126a	-2.395573605086885
80	0xbffe563e11aa9553	-1.896055287369866
81	0xbff772fdf5f92059	-1.4655742271734395
82	0x3ff4d99ab0514784	1.3031260383035894
83	0x3febb5fb39ebeacd	0.865964520576506
84	0xbfe44d8a227e6149	-0.6344652818398028
85	0x3fe61530632a5ddb	0.6900865494562213
86	0xbfe5a00f137cf2ed	-0.675788438856754
87	0xc0084455ccc14958	-3.0333667751776083
88	0x3fd64a7c556b2523	0.3482962450185189
89	0xc001becce54ddaad	-2.218164245069906
90	0xbffeb7da514ecab9	-1.9198859382710636
91	0xc0013634f2d8a4d7	-2.151468178974578
92	0xc0176d126d533c3a	-5.856515606122281
93	0xc00948759ae59dcc	-3.1603805638621676
94	0xc0144e3fc922decc	-5.076415198090853
95	0x3fbb7c81566486e8	0.10736854895779013
96	0xc0175a5786ccbdba	-5.838224512335211
97	0xc006ca9341d7bc7c	-2.848913683315514
98	0xc022b9a21397c055	-9.362564670824364
99	0xbff915a461bcd40d	-1.5677837198138633
100	0xbffae17c29b14115	-1.680050051556525
101	0xc01b07101df1323a	-6.756897418829391
102	0xc0098c898179e347	-3.1936216464349942
103	0xc011b5632435c619	-4.427136007101148
104	0xbfde40406c0570e1	-0.47267160939169456
105	0xbffb600549c89be8	-1.710942543237019
106	0x3ff13fb4e8aa6d36	1.0780533874993359
107	0xc01d2a1ab57e7845	-7.291117511600594
108	0xc00df0d63839b41f	-3.742596091519331
109	0xc015eee8396e9d4b	-5.48330774057042
110	0x3fe72b338239cb1e	0.7240235846969403
111	0xbfd55829eabdfbc5	-0.3335060875323815
112	0x3ff2e150eb5a197a	1.1800088113246532
113	0xc012c74dad54298d	-4.694632251989231
114	0xbff0a82bc7480967	-1.0410573753766472
115	0xbfc628b05805c2e4	-0.17311672494863395
116	0xc00eb560571f95c2	-3.838562660838506
117	0x4004598f3b16f3e5	2.5437302223567593
118	0xbff96bc5027a3cfe	-1.5888109299447133
119	0xbfd74a2b382e8bad	-0.3639019058847975
120	0xc001b93ed2f327bc	-2.215451858563908
121	0xc0074feeaeaed329	-2.914029469213706
122	0xc0096576e1689f28	-3.1745431528141985
123	0xbffd34c495ef1d9d	-1.8253827912138612
124	0x3febb2bde0b1c106	0.8655690563737444
125	0xc013e433a1e03879	-4.9728532116988555
126	0x3fee18ac85839670	0.9405119521804419
127	0xc0020312ae18ec72	-2.251500473151787
128	0xc00a202f062bb496	-3.2657146913612207
129	0xc008d5021d2d0985	-3.1040079383248576
130	0xc01f6d17b4062814	-7.856535733104483
131	0xbfed1c9b423efcde	-0.9097420019023976
132	0xc011104b6d59e316	-4.265912731753607
133	0xc020c229192a325f	-8.37921980514619
134	0x3ff16d283c50f85a	1.0891496997933445
135	0xc00aadb8aa9c9fe6	-3.334824879555515
136	0x3fe7cdde59078416	0.7438804377417252
137	0xc00bf85e0464ed2d	-3.4962730735111536
138	0x40150d1f49aad5d4	5.262814665843923
139	0xc01ef75628eae412	-7.741539611183741
140	0xc010a3c50b6da8b4	-4.159931353157095
141	0xc01882eaab701942	-6.127848318783721
142	0xbfb7a16b9b9a9673	-0.09230682896539992
143	0xbffd0c9c599c2c5b	-1.815578794516816
144	0x3fd603426459f9a9	0.34394893455455616
145	0xc016109cf8851a59	-5.516223796009023
146	0xbffbcfea5a3bdddc	-1.7382606053123402
147	0xbff98c56995d96d3	-1.596762274822528
148	0xc00b6e91b6d40032	-3.4289888652274607
149	0x3fff84fd0304c83e	1.9699678533475118
150	0x3fe66a316a0552d1	0.7004630156248713
151	0xbffd56bf07a7e1c6	-1.8336782740644693
152	0xc004f9ee8fc2c2d8	-2.622037051325929
153	0xc01019fc4845a203	-4.025376443147709
154	0xc01bc35855454b45	-6.940766651491519
155	0xbffc7845364656ef	-1.7793628807170838
156	0x3fe56da786413ec9	0.6696355459370916
157	0xc0056a299c201d32	-2.67683717701916
158	0x3ff0dae73ad21677	1.0534431741411063
159	0xc00e746062b517c8	-3.8068244658961454
160	0xc00ced5e28fa098c	-3.615902252321751
161	0x4016d96b451b7c88	5.712323264887466
162	0xc01377068618cb3a	-4.866235823882386
163	0xbfeca5a43a6f4afb	-0.8952199116996263
164	0xc0149f77dc239c4c	-5.155730666802878
165	0x4006d46ca9717759	2.8537228811027657
166	0xbff44cfba5486544	-1.2687946754798114
167	0xc0124affd27649b0	-4.573241508931844
168	0xbb5a70235975fbfd	-8.747613446895733e-23
169	0xc00a80eef1829d10	-3.312955748365887
170	0xc00595e30ed9c520	-2.6981869850357185
171	0xc011e60208f6ca4f	-4.474617137968905
172	0x4001e40e260a813a	2.2363551113086517
173	0x40168e5be08ef28d	5.639022358631917
174	0x40035bffeacfc411	2.41992171713401
175	0xbff88c977bab1699	-1.534324153022146
176	0xc007d39883b62327	-2.978318242069139
177	0xc015c316c69d89df	-5.440516570439711
178	0xbffefc5f1609d2c8	-1.936614118659394
179	0xbf9b54c5bfcf6a94	-0.026690568763891934
180	0xbfdc3ebe6b0878a5	-0.4413295788998631
181	0xbff23ddf5664cb83	-1.140105569339284
182	0x35ebf7ceb755b7e2	5.980150242773556e-49
183	0xc00940f8229792b1	-3.156723280192033
184	0xc010ab45c8753405	-4.167258388665691
185	0x40179b487496d59b	5.901643583017541
186	0xc009ccd72ad46e84	-3.225019774063016
187	0xc002e42f17b1f295	-2.3614179469280523
188	0xbff295a9f742fa34	-1.1615390452058252
189	0xbfd23af3e845d1ff	-0.28484819109806375
190	0xc0090317478f9d95	-3.12650924593954
191	0x40062214171463f6	2.766639881429451
192	0xc013aa97e06887e3	-4.916594988231711
193	0x3fd57bfba7212f40	0.3356923229336992
194	0xc022e3e62115afdd	-9.445115121743521
195	0xc01039b6a820f8f8	-4.056360842716678
196	0xc014e6c7acea17e7	-5.225371076381612
197	0xc00af57f6151e740	-3.3698718646163854
198	0xc00f5ce897762297	-3.920365508358667
199	0xbfdccf0886c474dc	-0.45013631020431233
200	0xc00366774d26d801	-2.425032236812513
201	0xc00f84f7b6545fb4	-3.9399255985735753
202	0x3fd50723962263db	0.32856073056751506
203	0xc020da8f2a818757	-8.426873520194631
204	0xbfa6d2b5ea109dac	-0.04457634432065602
205	0xbfccbc21691fd591	-0.2244912875463965
206	0x3ffd421de36e9f79	1.8286417850558492
207	0xbfd992fe7c157e87	-0.39959680669378667
208	0x3fd2475bde16ff90	0.2856053990217271
209	0xc01c18d79fc9caa4	-7.024260040942554
210	0xbffaa9f1bc58126a	-1.6664903027714453
211	0xc010044f40844567	-4.004208572457492
212	0xbfee6796317b6224	-0.9501448599285749
213	0x3fcf14b888da0bf0	0.24281984979833693
214	0xc0141af28d5a2a7d	-5.02631588805036
215	0x3fc01e39bd3b15be	0.12592241039071256
216	0xc01963c717b04f89	-6.347439165245199
217	0x3fe1bfa5b6c8115c	0.5546444482757056
218	0xbff89ce9666ff368	-1.5383085252244317
219	0xbff8c2f3a30c81b1	-1.5475956315132005
220	0x3fd257a4723b9dff	0.28659926562838217
221	0xc01547f1222fcb64	-5.320255788962502
222	0x3fe1db9e71444008	0.558058949683983
223	0x3fc3cb55747b784f	0.15464275539028668
224	0x401041c0cc3b923e	4.064212027679387
225	0xc00275928f4c13c2	-2.3074084467975533
226	0x3fe3cd02a4de8095	0.618775674829538
227	0xbff0deb162b108b8	-1.0543683867586378
228	0x4011a8dbb6dd7a81	4.414900643604256
229	0xc008fa9bdc816296	-3.1223675944314193
230	0xbff391c454cdbadb	-1.2230876267091648
231	0xbf72fba5e1dac3cc	-0.004634521462933482
232	0xbfc88ef63fc799a9	-0.1918628512787113
233	0xbfce45cd2d523af9	-0.236505171899317
234	0xbfede031111a8741	-0.9336171468787385
235	0xc014c99cd006a09f	-5.196887255100733
236	0xbfde03c3f29cff81	-0.4689798230428935
237	0x4016651121deb366	5.598698167054726
238	0x400313bc1e24dfba	2.3846361498835593
239	0xaf3fc0c61cf75346	-4.184333167642705e-81
240	0x4010384a5133a9de	4.054970997598927
241	0xbff543f602316d1a	-1.329092033926662
242	0xbfbce034dda6e235	-0.11279611979888034
243	0xbff67beb62d1d908	-1.4052537784714918
244	0x4014a71dac7d06dc	5.163199133997946
245	0xbff9717376ad7c46	-1.5901980052801874
246	0xbfbc82a5135c96bc	-0.1113684818525042
247	0xaefea3bf239b5198	-2.5235085957181245e-82
248	0xc007f649729074f1	-2.9952572775206296
249	0xc0034271029fc78b	-2.4074421124468635
250	0xbffe2cf38fc84d33	-1.8859744659901707
251	0x3f9a78bdc91288c9	0.025851216695294697
252	0xbff4a83a7e3d5e3c	-1.2910714083899526
253	0x966a9aba8cdcf491	-1.0861417732887878e-200
254	0xbfe0b75125f4dc1a	-0.5223775616967743
255	0xc0066adf3d24be76	-2.8021836067999244

bias_1 f8 [1, 32]
0	0xbffd31c953b7751c	-1.8246548910313498
1	0xbfff79ab7188c9da	-1.9672045168814436
2	0x3fbd49f225e0fa17	0.11440957474494727
3	0xc0047115af2ede2c	-2.5552171407869277
4	0x3fb9daa1e5483696	0.10099231574732878
5	0x3fb7851077b97741	0.0918741504951557
6	0xc00940a47f1ac3f4	-3.156563752178494
7	0xbff70146990942a2	-1.437811467931319
8	0xc0097e410b565984	-3.1866474996306255
9	0xc0088f093adfd4cf	-3.0698418235357177
10	0xc006a108ba2fe6f3	-2.8286299272411894
11	0x3fb668e25f345004	0.08753790687870838
12	0xc0030a90cc4e08d5	-2.3801589928926696
13	0xbffa29d67ebe6932	-1.635214324086132
14	0xc005270df2b49162	-2.6440695725779486
15	0xc001306894ea9366	-2.1486369737707944
16	0xc006ef51d76f1acc	-2.866855319097658
17	0xc0044c7500b9029f	-2.5373325401745457
18	0xc002785a235fefef	-2.308765674939415
19	0xc005c4b61434a33c	-2.7210504129947406
20	0xbfffe63788e5b1cf	-1.9937053058193788
21	0xc006aaac080245c9	-2.83333593613563
22	0xc00287b7ace8db18	-2.316268301826664
23	0xc006cb3d6c801523	-2.8492382504069993
24	0xc001cccbd4b263c3	-2.224998151487371
25	0xc004301656f3203e	-2.5234801094957495
26	0xc00532e77cc3f8e5	-2.6498555896097167
27	0xc000917fcba5ab74	-2.0710445318158524
28	0xc006822a00cc0c69	-2.8135566770811704
29	0xbff8de82f7591d25	-1.5543241178546137
30	0xc00e682289579d6c	-3.8008471231329874
31	0xc005007c71dc98fc	-2.625237359566311

weight_2 f8 [32, 10]
0	0x4014b38df4cc4974	5.175346207588849
1	0xc0138e24a71d7a18	-4.888811694311265
2	0xc012b076951c2f51	-4.672327356190935
3	0xbff493f1532e867c	-1.2861188172613813
4	0xbff5818ae70ddd0b	-1.3441266084244627
5	0xc00a0d50165dec64	-3.256500410786929
6	0xc00efdc0f43c0984	-3.8739031868764773
7	0xbffac5903f4fe5e6	-1.6732332680825208
8	0xc01095ce22dfe999	-4.146294159809622
9	0x401523df46e654c2	5.285031421478552
10	0xc019ad652cf69087	-6.419331266926867
11	0xc013cb1f87601556	-4.948362460364782
12	0xbfe9ff8dcc8decb5	-0.8124455447390547
13	0xc0061822ef277da8	-2.761785381691613
14	0xbff0ae5658ab9277	-1.0425628150634603
15	0xbfe005e38bb99a9e	-0.5007188538555345
16	0x401759f639b43f70	5.837853337885335
17	0xc008e38877de71e4	-3.1111001362571518
18	0xbfd222e927b7e297	-0.28338078383198123
19	0xc00e0d8bcf832a48	-3.756614323797553
20	0xbffb23357fa50ff3	-1.69609594212761
21	0xc02ab98a6ea9328d	-13.362384279397952
22	0xc01c9ec7e38ae474	-7.155059390404052
23	0xc013d7d17bd47a4d	-4.960760054439175
24	0x3fe7bc9cc2a023bc	0.7417739678650075
25	0xc019f0794966f038	-6.484837672145709
26	0xc023110de638a60d	-9.533309168257825
27	0xc005289e5ecd269b	-2.6448333174092347
28	0x400f065e5a23ba71	3.878109649863568
29	0x4015d33087072902	5.456239805042289
30	0xc020ba34aa00ce9b	-8.363683045004384
31	0xbfebaa69723e62ff	-0.8645522338220814
32	0xc02cb224095c189f	-14.347931187145432
33	0x3feab342217a997c	0.8343821195492604
34	0xc001dc1bea02799c	-2.2324751169209787
35	0xc010001073f1534b	-4.000062762836772
36	0xc02454592526d1f5	-10.16474262331847
37	0x401c91e5b7618430	7.142477860762526
38	0xc025aeb821eb8ee6	-10.841248569492972
39	0x400dcd137c87454a	3.725134823682912
40	0x40135e29a99aeefe	4.841955804902453
41	0xc021c89eea450548	-8.891837426114435
42	0x4001612ece4885ed	2.1724525562174137
43	0xbff5791bd3f88ad0	-1.3420675544845615
44	0xc0154b08c30c374e	-5.323275611515625
45	0xbfe5d79d15fefb09	-0.6825700215921141
46	0xc01404e9c6a35428	-5.004798034399791
47	0xc018063be62f4409	-6.006087872156976
48	0x4013214f69826339	4.782529495795466
49	0xc023144fdd72fa3e	-9.53967182186636
50	0xc00244dbb0b4cee3	-2.2836221509149808
51	0xc01b9ca1093e8db5	-6.902958054011312
52	0xbf87cc072468ff35	-0.01161962108483259
53	0xc00b45250d0f6c68	-3.4087620754558436
54	0xc00d33a878fff203	-3.6502236798389744
55	0xbfff9b6867bcbf50	-1.975441365455442
56	0x400ee2425a8871c7	3.8604781220330753
57	0xc022cd0f8ea38054	-9.400509316881802
58	0x401b6d7bf0068c25	6.8569180969234695
59	0xc02117ed939910d9	-8.546734440264503
60	0xbff5c32736ac6adb	-1.3601448188480194
61	0xc014c4c65f982dcc	-5.192162984526885
62	0xc016210931319597	-5.532261627818477
63	0x4016ccff34cb2b2e	5.7001922844890895
64	0xc01bf0aecf5734da	-6.985041846940669
65	0x3ffdc54f43df3600	1.8606712962385927
66	0xc0150e45b6cff772	-5.263937813227914
67	0xc0117971a082a7f7	-4.368597515081993
68	0xc0207cfeb3b75d98	-8.24413072217321
69	0xc02013c26fed9e20	-8.038592813259186
70	0xc01749933a06f4e7	-5.821850687670326
71	0x400cc0704757775b	3.5939641545836998
72	0xbff2e8c69381fb74	-1.1818300020238128
73	0xc01271a10deedf49	-4.610965936379054
74	0x400bf3419e46b348	3.493777500660517
75	0xc0043711c0e74ebe	-2.526889330920169
76	0xbff223867c61da0c	-1.1336731775933258
77	0xc01370a42187cc82	-4.860001109994416
78	0x3fe45e9d237c6ab4	0.6365495389066695
79	0xc001745017afc6f9	-2.1817933893697696
80	0xc001dc402579e02e	-2.232544224531032
81	0xc00ab0507cbbbddc	-3.33609101722662
82	0xc00efa8e048eaeec	-3.872341189960812
83	0x40204744b5523e66	8.139196077622909
84	0xc00e931a2d082a4c	-3.8218272703282192
85	0xbff7a4e4ceafb31c	-1.4777572702107085
86	0xc003fd444f173b60	-2.4986654452290367
87	0xc013e5266b3afca7	-4.973779368853832
88	0xbff5e3e40d781af2	-1.368137409795676
89	0xc00cc770ae9860bd	-3.597382892632679
90	0xbff655bfb6053273	-1.3959347829978952
91	0xc003c42782772a4a	-2.470778483640321
92	0xc004497d99121c78	-2.5358840902950384
93	0xc0169cd9afad34ff	-5.653174157091825
94	0xc0150284fb08dbd6	-5.252460405746168
95	0x4018e24db9145785	6.220999614588327
96	0xc0098e34db8da18a	-3.194436755428062
97	0x400c7d38d595a353	3.561143559102143
98	0xbffda5ab33a68458	-1.8529464738460515
99	0xc015ae0d4c052a72	-5.419972598853393
100	0xc0188c7dd7839e89	-6.13719879856911
101	0x400c179a7376a027	3.511525060708681
102	0x400cf7c0afa01360	3.62097298819792
103	0x400d90513ff4f011	3.6954674717544624
104	0xc020c6d15fa460c6	-8.388316143813778
105	0xbffbf92975f90c00	-1.7483305557550466
106	0xc01937a13c20383e	-6.30432599970487
107	0xc020bc4d3ae30345	-8.36777671834137
108	0xc01876034a70f715	-6.115246928353163
109	0xc023da651536fa79	-9.926552451096756
110	0xc0207dd366f5fe2f	-8.24575349572032
111	0x401966cf35d867b7	6.350399819691964
112	0xc008969e39d132d2	-3.0735439793555566
113	0xc010db1e504b125a	-4.2139828248806115
114	0xc010fa44edad37d8	-4.244403566071888
115	0xc002cf2201d108f4	-2.3511390821378146
116	0xc012a4376017ce1c	-4.660367490246724
117	0xc00c2428110fc248	-3.5176545460638273
118	0x401a1601d8bb5b23	6.521491419253638
119	0xc0214796e4874f9c	-8.639823094861462
120	0xc011f7fc08efb07f	-4.492172374371989
121	0x401d3711d9c7786e	7.303779032516202
122	0xbfffe258486f4fa3	-1.9927599744305347
123	0xc00eb47d94ec2f34	-3.8381301531389003
124	0xbfff7f1b7c45c4c8	-1.9685320715328078
125	0xbff1e4e12751b7e6	-1.1183787856966716
126	0x4004156897dcda96	2.5104534019731757
127	0xc0165defa29f4289	-5.591734448404744
128	0xc00f26708288f109	-3.893769283107876
129	0xc009b4de2239a879	-3.213314311394296
130	0x4014670f4ae658b7	5.100644274052846
131	0x400516f1d744e23e	2.6362034624001174
132	0xc01b3a2ce374491f	-6.806811861011993
133	0xbff8f348466d3204	-1.559395098785104
134	0xc00485ddcc097b08	-2.565364450492215
135	0xbffce9c22e08364d	-1.8070699499252385
136	0x4014148f700f1ed7	5.020078421519165
137	0xc00f31bea95d8a02	-3.899289439360701
138	0xc0109304f3aa97b0	-4.143573577201025
139	0xc00ab23d731b770e	-3.3370312683827086
140	0x40086e2275bc299b	3.0537766645476956
141	0xc020357805997f7b	-8.104431319224878
142	0x400afc041db4e509	3.3730547257260963
143	0xc02403e5a90a24cb	-10.007611544121024
144	0x400ae284095bda46	3.36060340224802
145	0xc010f9237c553c95	-4.243299429609711
146	0x400a077d1381f95b	3.2536565326728755
147	0xc022b720ded9d797	-9.357672657100734
148	0xc01fe9df78028a8f	-7.9783915282774975
149	0xc0206cdb89b3406d	-8.212612441188151
150	0xbff06dfac5d2676f	-1.026850483648072
151	0xc0096350b98e1e7a	-3.173493814134244
152	0xc00472c35b338810	-2.5560366749859966
153	0xbffa8645e1224083	-1.6577814859665814
154	0x401833efacafe07f	6.050718973383595
155	0xc0028b2b6d271fbd	-2.3179539229931536
156	0xbfeb8df4c59d1749	-0.8610786304131831
157	0xbff4e856037a2ded	-1.306722653945026
158	0xbff0415c182b40f1	-1.0159569686985004
159	0xc00cade6c5edcc17	-3.5849128211207346
160	0x400eefaf91598cf3	3.8670340877011937
161	0xc013b0033cf9c0fb	-4.921887352699055
162	0x400ce21b6f0dbb38	3.6104038883271663
163	0xc018c2c8a6c93d69	-6.190218549759586
164	0xc014954ab982bcb1	-5.1457928644223765
165	0xbffb8f3dc2f4d149	-1.7224710097771825
166	0xc013cafda306c2f5	-4.948233172691052
167	0x4009627aa1a3d21c	3.1730854633444903
168	0xc010fbe1e030e04a	-4.245978835089838
169	0xc01183cf9207ae10	-4.3787215058505495
170	0xc01343de78208f2a	-4.816278340327509
171	0x3fc07ea89d6a39ee	0.12886531530644113
172	0xc0162c387bfa8542	-5.543184220471916
173	0xc00b721c5258e4d1	-3.430718081796478
174	0xc00efd0bcf44d1c1	-3.8735576813580512
175	0x400d1e20174994c4	3.639709646161096
176	0xbfd9515b74222fd1	-0.3955906519047377
177	0xc00ef7ff121220e6	-3.871091977289427
178	0x3ff2922a9f75fe88	1.160685179609489
179	0x3fe88f717a853cb6	0.767510165498513
180	0xc010375cd34d3e09	-4.0540650382895445
181	0x401c135414ba3e60	7.018875430934344
182	0xc00b250cf8d320e3	-3.393091148322229
183	0xc015e4c8ca713536	-5.473422206077251
184	0xc0161fbe57bee70a	-5.53099953749348
185	0xbffd17cbdfea79c5	-1.818309664413037
186	0xc00957cce3e28450	-3.167871265745397
187	0x4014c34382b36746	5.190687219810405
188	0xc00ee3fb7698190f	-3.8613194718519774
189	0xc017df05beacbab4	-5.967795352261124
190	0xc00faf83beef9985	-3.9607005040044805
191	0xc01f0aa881fb24a5	-7.760408431008874
192	0xc01c0dadea00bfc6	-7.013358742042277
193	0xc0124504f68efd64	-4.567401745297818
194	0xc01b21be19a51ef8	-6.782951737120804
195	0xc0092cc2f12ff9f3	-3.1468561976209855
196	0xc0181001c2f49307	-6.015631719758637
197	0x40249df5ab6ac2d3	10.308514935285904
198	0xc011e87bd37ee97c	-4.477034859295937
199	0x3ffe88dd3b145034	1.9084141071116507
200	0x401a6f2b16b46fb5	6.608562807810746
201	0xc01667dc981d45ac	-5.601427437578803
202	0xc01fd7e1a0e70841	-7.960821642018403
203	0xc001b06ae3b276ae	-2.2111413754308478
204	0xc0108047a3578491	-4.125273277489343
205	0xbfd9b1ad5698cc4f	-0.40146954972005217
206	0xbfed2923c57df0dc	-0.9112719399704718
207	0x400dbf0f3e692493	3.7182907939755494
208	0xc00ed32070d6c000	-3.8530892196213244
209	0xbff26c8728dc7a3c	-1.1514960857526964
210	0xc02a6594c028d646	-13.198400502190577
211	0xc02ce350c459565e	-14.443975578217927
212	0x4016c6689b49b413	5.693758417485713
213	0x4015d0c2ba7caae6	5.453867830142121
214	0xc026fe545ea12165	-11.496737439316982
215	0xc0238f4605da5e87	-9.779831107050326
216	0xc02d7f31c3118b22	-14.748426528827228
217	0x4016da698effa2cb	5.7132932990577485
218	0xc0298583470d9ca5	-12.760767193233116
219	0xc034a2918c25a69b	-20.63503337783059
220	0xc00cf1bddaafd034	-3.618037899485012
221	0xc014537af0ac68dc	-5.081523666880653
222	0xc019291e9b69a25f	-6.290155819246677
223	0x401d172d0f501bd5	7.272632827057312
224	0xbffc2f0e89fd88ab	-1.7614884748696038
225	0xbff62961b8561016	-1.3851029587394854
226	0xc012ccd072cb7d73	-4.700013917608305
227	0xc012c64c74dc71ea	-4.6936510333584724
228	0x3fbb72fef44fcf04	0.10722344841616055
229	0x3feee207403e2dc6	0.9650913481468073
230	0xc008a0ccaaf5982d	-3.078515372867534
231	0xc0160690a17acb76	-5.5064110976407985
232	0xbfea28e34ae8075c	-0.8174911940588845
233	0xc0131ed54f420398	-4.780110586551835
234	0x40174d3f96274026	5.825437875886598
235	0xc0157835110d6302	-5.36738993305403
236	0xbfd6dc48a5f75cc6	-0.3571950550808193
237	0x3ffc6700d93fcaea	1.7751472936912998
238	0xc01078a979aa5473	-4.117833996792899
239	0xc01c120b3e924cdf	-7.017621019057713
240	0xc0084a63ebcb3ff7	-3.0363233968164383
241	0xc0208f5959bee291	-8.279978565741915
242	0xc016723d747672ed	-5.611562556962537
243	0x400329c996bb3845	2.3954040313610983
244	0xc01e4caddf9e1c0b	-7.574882024789086
245	0x4010295af97be8e0	4.0403861028555355
246	0xc0081069e599f565	-3.008014482270186
247	0xc0145dcf21a24ba9	-5.091610456019148
248	0x3fc33a9805cb7b56	0.15022564204169936
249	0xc026264b691e08eb	-11.07479408733021
250	0xc0194e8a47654e88	-6.326699367101931
251	0xc00359933d32f72b	-2.418737867467731
252	0x3fddb2e1bc295538	0.46404307723181004
253	0xc006351cbef690bb	-2.7759337347980284
254	0x3ffb1db2d17a526b	1.6947506125190113
255	0xc000ba64338f1891	-2.0910114315075323

bias_2 f8 [1, 10]
0	0xbfe9552a2d9cd024	-0.7916460886831413
1	0xbfd0b96fb7254051	-0.26131813893608064
2	0xbfd4c7fd29219f5c	-0.3247063543008062
3	0x3fda2197915362a7	0.40830029670682183
4	0xbfc8e761707843c6	-0.1945611762207859
5	0xbfc3be9d5e4523d8	-0.15425459960013543
6	0xbfda9b8504f84067	-0.41574216351819476
7	0xbfc2731ecdc847bf	-0.1441381935879331
8	0x3fd99a8c5e0e0417	0.40005788025888606
9	0x3fe9e2d2fca12b29	0.8089384969874561

loss_history f4 [145]
0	0x3f230008	0.6367192
1	0x3e9d0bcc	0.30673063
2	0x3e7eaea6	0.2487131
3	0x3e605792	0.21908405
4	0x3e4da64f	0.20082973
5	0x3e41c916	0.18924364
6	0x3e350ba1	0.17680217
7	0x3e307125	0.17230661
8	0x3e28f6d4	0.16500407
9	0x3e25b460	0.16182089
10	0x3e260faf	0.1621692
11	0x3e1e7618	0.15474737
12	0x3e208fa9	0.15679802
13	0x3e16cc89	0.14726461
14	0x3e19d638	0.15023124
15	0x3e2087a3	0.15676741
16	0x3e19fc0e	0.15037557
17	0x3e1b40b2	0.15161398
18	0x3e161881	0.14657785
19	0x3e13ba31	0.14426495
20	0x3e18ed67	0.14934312
21	0x3e17a731	0.14809872
22	0x3e1b791e	0.15182921
23	0x3e1ae331	0.15125729
24	0x3e14b8ea	0.14523664
25	0x3e15e07a	0.14636412
26	0x3e0ed1a5	0.1394716
27	0x3e192d33	0.14958648
28	0x3e162016	0.14660677
29	0x3e16812e	0.14697716
30	0x3e1c4fd1	0.15264823
31	0x3e1a0cec	0.15043992
32	0x3e1983f9	0.1499175
33	0x3e256a21	0.16153766
34	0x3e1eaffd	0.15496822
35	0x3e29dd40	0.16588306
36	0x3e21a097	0.15783916
37	0x3e2484a0	0.16066217
38	0x3e1e8b09	0.15482725
39	0x3e258b36	0.16166386
40	0x3e2356a9	0.15951027
41	0x3e2d31eb	0.16913573
42	0x3e27c4e3	0.163837
43	0x3e26837f	0.162611
44	0x3e2e5541	0.1702471
45	0x3e2cc5f6	0.16872391
46	0x3e262e1e	0.1622853
47	0x3e332d71	0.17497803
48	0x3e36c8be	0.17850015
49	0x3e317fc8	0.17333901
50	0x3e33dcb9	0.17564668
51	0x3e2d07ef	0.16897558
52	0x3e351646	0.17684278
53	0x3e3657cb	0.17806928
54	0x3e31417c	0.17310137
55	0x3e416d4b	0.18889348
56	0x3e3d02bf	0.18458079
57	0x3e33912f	0.17535852
58	0x3e398388	0.18116581
59	0x3e3d47e1	0.18484451
60	0x3e337166	0.17523727
61	0x3e3fcbca	0.18730083
62	0x3e3c9e18	0.18419683
63	0x3e4c5374	0.1995371
64	0x3e401a6a	0.18760076
65	0x3e3dd89a	0.18539658
66	0x3e43fe68	0.19140017
67	0x3e4ed888	0.20199788
68	0x3e42a218	0.19007146
69	0x3e4e2f0a	0.20135131
70	0x3e3e8cbe	0.18608376
71	0x3e4e6502	0.20155719
72	0x3e55a0dc	0.20862144
73	0x3e4a74a2	0.19771054
74	0x3e5359de	0.2063975
75	0x3e4eb457	0.20185982
76	0x3e58a0db	0.21155111
77	0x3e4ea197	0.20178829
78	0x3e554015	0.20825227
79	0x3e617715	0.22018082
80	0x3e5a5e55	0.21325047
81	0x3e63ea21	0.22257282
82	0x3e536eff	0.2064781
83	0x3e5e9e7e	0.21740147
84	0x3e600e74	0.21880513
85	0x3e69b786	0.22823915
86	0x3e69bd09	0.22826017
87	0x3e6948d1	0.22781684
88	0x3e61c1d5	0.22046597
89	0x3e6d032f	0.23145746
90	0x3e6926d3	0.22768717
91	0x3e6d2f73	0.23162632
92	0x3e62499d	0.22098394
93	0x3e70582e	0.23471138
94	0x3e6b9687	0.2300664
95	0x3e72e7f3	0.23721294
96	0x3e5f103a	0.21783534
97	0x3e7806b6	0.2422131
98	0x3e71cd48	0.23613465
99	0x3e7786a7	0.2417246
100	0x3e7aebb5	0.24503978
101	0x3e6c48da	0.23074666
102	0x3e77b7f7	0.24191271
103	0x3e7d30e8	0.24725688
104	0x3e77b8b6	0.24191555
105	0x3e8055be	0.25065416
106	0x3e808595	0.25101915
107	0x3e77e800	0.24209595
108	0x3e7b1f48	0.24523652
109	0x3e82b227	0.25526544
110	0x3e807d66	0.2509567
111	0x3e7b5d60	0.24547338
112	0x3e837f13	0.25682887
113	0x3e8d0c88	0.27548623
114	0x3e8e2d55	0.2776896
115	0x3e89c797	0.26910087
116	0x3e8c490b	0.27399477
117	0x3e8f7618	0.28019786
118	0x3e883f9b	0.26611027
119	0x3e88d822	0.26727396
120	0x3e861387	0.26186773
121	0x3e85bf47	0.26122496
122	0x3e851e30	0.25999594
123	0x3e90cb67	0.28280184
124	0x3e8f95d7	0.28044006
125	0x3e8b0da7	0.27158853
126	0x3e95632e	0.2917723
127	0x3e847707	0.2587206
128	0x3e899da8	0.26878095
129	0x3e91f59e	0.28507704
130	0x3e89a600	0.2688446
131	0x3e95ea10	0.29280138
132	0x3e98cb1e	0.29842466
133	0x3e93f2db	0.28896222
134	0x3e8e5c6d	0.2780489
135	0x3e98bd0a	0.29831725
136	0x3e9b7eea	0.30370265
137	0x3e96a86e	0.29425377
138	0x3e9c894b	0.30573496
139	0x3e9511ba	0.29115087
140	0x3e9ed6b8	0.31023192
141	0x3e98142c	0.2970289
142	0x3e94c856	0.29059094
143	0x3e9c408c	0.30517995
144	0x3e9babd3	0.3040453

accuracy_history f4 [145]
0	0x42a0a58c	80.32333
1	0x42b622fd	91.06834
2	0x42b9aeef	92.84167
3	0x42bb57e5	93.67167
4	0x42bc5555	94.166664
5	0x42bd170a	94.545
6	0x42bde81b	94.95333
7	0x42be1c29	95.055
8	0x42be8889	95.26667
9	0x42beed3a	95.46333
10	0x42bec51f	95.385
11	0x42bf1c29	95.555
12	0x42bf4ccd	95.65
13	0x42bfcf5c	95.905
14	0x42bfa741	95.82667
15	0x42bf8889	95.76667
16	0x42bfb852	95.86
17	0x42bfb852	95.86
18	0x42bfe81b	95.95333
19	0x42c00da7	96.026665
20	0x42bfc444	95.88333
21	0x42bfeb85	95.96
22	0x42bf8ccd	95.775
23	0x42bff40e	95.97667
24	0x42c028f6	96.08
25	0x42bffa07	95.988335
26	0x42c0570a	96.17
27	0x42bfe4b1	95.94666
28	0x42c0392c	96.111664
29	0x42bff17e	95.971664
30	0x42bfe8f6	95.955
31	0x42c01111	96.03333
32	0x42bff333	95.975
33	0x42bfbe4b	95.871666
34	0x42bfeb85	95.96
35	0x42bf836a	95.75667
36	0x42bfd99a	95.925
37	0x42bfc1b5	95.878334
38	0x42bfd7e5	95.92167
39	0x42bfc1b5	95.878334
40	0x42bf947b	95.79
41	0x42bf6666	95.7
42	0x42bf7bbc	95.74167
43	0x42bf9a74	95.80167
44	0x42bf70a4	95.72
45	0x42bf57e5	95.67167
46	0x42bf7e4b	95.746666
47	0x42bf2fc9	95.59333
48	0x42bf1111	95.53333
49	0x42bf3f26	95.62334
50	0x42bf1d03	95.55666
51	0x42bf317e	95.596664
52	0x42bf028f	95.505
53	0x42bf1b4f	95.55334
54	0x42bf40da	95.62666
55	0x42bec36a	95.38167
56	0x42bee58c	95.44833
57	0x42bf4ccd	95.65
58	0x42bee666	95.45
59	0x42bee8f6	95.455
60	0x42bef777	95.48333
61	0x42bedd03	95.43166
62	0x42bea58c	95.32333
63	0x42be81b5	95.253334
64	0x42be769d	95.23167
65	0x42bf2fc9	95.59333
66	0x42bec889	95.39167
67	0x42bde741	94.95167
68	0x42be6d3a	95.21333
69	0x42be0b18	95.02167
70	0x42bed70a	95.42
71	0x42be7852	95.235
72	0x42bde666	94.95
73	0x42be3777	95.10833
74	0x42bdec60	94.96167
75	0x42be24b1	95.07166
76	0x42bdeaab	94.958336
77	0x42bddb4f	94.92834
78	0x42bdce82	94.903336
79	0x42bd47ae	94.64
80	0x42bdcbf2	94.89833
81	0x42bd57e5	94.67167
82	0x42bdb333	94.85
83	0x42bd5b4f	94.67834
84	0x42bd681b	94.70333
85	0x42bcf777	94.48333
86	0x42bca8f6	94.33
87	0x42bd0ccd	94.525
88	0x42bcf5c3	94.48
89	0x42bcd8bf	94.42333
90	0x42bcf40e	94.47667
91	0x42bd1f93	94.56167
92	0x42bd2aab	94.583336
93	0x42bc5a74	94.17667
94	0x42bcb333	94.35
95	0x42bcb259	94.348335
96	0x42bd1c29	94.555
97	0x42bbad3a	93.83833
98	0x42bcab85	94.335
99	0x42bbeeef	93.96667
100	0x42bc1dde	94.058334
101	0x42bc6666	94.2
102	0x42bbaaab	93.833336
103	0x42bc1a74	94.05167
104	0x42bbc36a	93.88167
105	0x42bba222	93.816666
106	0x42bb6d3a	93.71333
107	0x42bc0da7	94.026665
108	0x42bbc7ae	93.89
109	0x42bb740e	93.72667
110	0x42bb5d03	93.68166
111	0x42bbda74	93.92667
112	0x42bb45f9	93.636665
113	0x42b9e148	92.94
114	0x42ba9c29	93.305
115	0x42baa666	93.325
116	0x42baf17e	93.471664
117	0x42ba4963	93.14333
118	0x42baaeef	93.34167
119	0x42bb01b5	93.503334
120	0x42bb91ec	93.785
121	0x42bacccd	93.4
122	0x42bb281b	93.57833
123	0x42b9a8f6	92.83
124	0x42ba0ccd	93.025
125	0x42bac5f9	93.386665
126	0x42ba2d3a	93.08833
127	0x42bab333	93.35
128	0x42ba6c60	93.21167
129	0x42b9547b	92.665
130	0x42ba1c29	93.055
131	0x42b92e14	92.59
132	0x42b91d03	92.55666
133	0x42b951ec	92.66
134	0x42ba13a0	93.03833
135	0x42b97a07	92.738335
136	0x42b83852	92.11
137	0x42b8fbbc	92.49167
138	0x42b8c51f	92.385
139	0x42b95dde	92.683334
140	0x42b83259	92.098335
141	0x42b93852	92.61
142	0x42b980da	92.75166
143	0x42b89b4f	92.30334
144	0x42b88da7	92.276665

val_loss_history f4 [29]
0	0x3dded001	0.10879517
1	0x3e001f1e	0.1251187
2	0x3e7f2615	0.24916871
3	0x3ddf55ee	0.10905062
4	0x3e31be14	0.17357665
5	0x3e4278b4	0.18991357
6	0x3e66ab3b	0.22526257
7	0x3e62851c	0.2212109
8	0x3e919a94	0.28438246
9	0x3e0f642c	0.14003056
10	0x3e082e41	0.13298894
11	0x3e803325	0.2503902
12	0x3ebe3771	0.37151673
13	0x3e9e7b9d	0.30953684
14	0x3e8de0fe	0.27710718
15	0x3e5d57aa	0.21615472
16	0x3e9a59d9	0.30146673
17	0x3ec7acfd	0.38999167
18	0x3ea87697	0.32902977
19	0x3e5dc40f	0.21656822
20	0x3ea086f2	0.31352955
21	0x3ec8b95d	0.3920392
22	0x3eb7cfd9	0.35900763
23	0x3ebc1c38	0.3674028
24	0x3ea298fe	0.3175735
25	0x3ed538c2	0.41644865
26	0x3ec821b8	0.39088225
27	0x3eeaadb2	0.45835644
28	0x3e8fdd7a	0.2809866

val_accuracy_history f4 [29]
0	0x42c16666	96.7
1	0x42c16666	96.7
2	0x42c06666	96.2
3	0x42c33333	97.6
4	0x42c0cccd	96.4
5	0x42c0999a	96.3
6	0x42c2cccd	97.4
7	0x42c23333	97.1
8	0x42c06666	96.2
9	0x42c2cccd	97.4
10	0x42c20000	97.0
11	0x42c0999a	96.3
12	0x42becccd	95.4
13	0x42c03333	96.1
14	0x42bf3333	95.6
15	0x42c0999a	96.3
16	0x42c06666	96.2
17	0x42be999a	95.3
18	0x42becccd	95.4
19	0x42c03333	96.1
20	0x42bf0000	95.5
21	0x42bb6666	93.7
22	0x42bf3333	95.6
23	0x42bd0000	94.5
24	0x42bd0000	94.5
25	0x42bd0000	94.5
26	0x42bb999a	93.8
27	0x42bd999a	94.8
28	0x42bc999a	94.3
