checkpoints/model_epoch_0075.npz (npz, 387869 bytes, 10 tensors)

weight_0 f8 [784, 64]
000000 4b 12 e5 21 00 00 00 00 7f 7a 51 0e 00 00 00 00
       2.809556444e-315 1.18684844e-315
000010 53 cc fd 0d 00 00 00 00 4e b4 30 1a 00 00 00 00
       1.159753507e-315 2.170921987e-315
000020 3d 4c 6e 04 00 00 00 00 11 08 d1 1d 00 00 00 80
       3.67275264e-316 -2.47150585e-315
000030 c0 ab ec 0b 00 00 00 80 b5 a1 76 1f 00 00 00 80
       -9.8842694e-316 -2.60801613e-315
000040 e1 a6 b9 03 00 00 00 00 d8 a0 b1 21 00 00 00 80
       3.0878376e-316 -2.79289962e-315
000050 73 4b f2 21 00 00 00 00 1f 60 f0 02 00 00 00 80
       2.813838017e-315 -2.43612303e-316
000060 8d 1a 09 20 00 00 00 00 ed 4b f4 04 00 00 00 00
       2.65544244e-315 4.10662844e-316
000070 0c b9 1a 21 00 00 00 80 3d c3 92 08 00 00 00 80
       -2.74403781e-315 -7.1064409e-316
000080 d0 89 ce 17 00 00 00 00 9f 28 67 0e 00 00 00 80
       1.973355817e-315 -1.193868285e-315
000090 21 27 19 13 00 00 00 00 8b f0 96 02 00 00 00 00
       1.583063013e-315 2.1465379e-316
0000a0 68 d6 3a 12 00 00 00 00 11 3b 4d 14 00 00 00 80
       1.511079343e-315 -1.682815816e-315
0000b0 71 2a 27 14 00 00 00 00 97 74 cf 11 00 00 00 00
       1.670490736e-315 1.47631e-315
0000c0 21 94 72 04 00 00 00 00 c1 48 92 17 00 00 00 00
       3.68661355e-316 1.95384608e-315
0000d0 09 86 80 0f 00 00 00 80 1f 7e 9c 06 00 00 00 80
       -1.28497167e-315 -5.48013657e-316
0000e0 2f 7e 0a 00 00 00 00 00 80 35 ac 02 00 00 00 00
       3.397507e-318 2.21540617e-316
0000f0 19 d8 c1 21 00 00 00 00 5f c6 95 0a 00 00 00 00
       2.79815016e-315 8.77400346e-316
000100 22 6b 8b 03 00 00 00 80 d6 cb e2 08 00 00 00 00
       -2.93813814e-316 7.36558233e-316
000110 aa 54 11 03 00 00 00 00 8e ff cb 1c 00 00 00 80
       2.5428291e-316 -2.38698567e-315
000120 f5 33 42 07 00 00 00 00 27 5b a3 0d 00 00 00 80
       6.01669137e-316 -1.13046919e-315
000130 fd fe 97 18 00 00 00 80 73 d7 d3 21 00 00 00 00
       -2.038585985e-315 2.803977573e-315
000140 61 8b ea 0d 00 00 00 80 79 ec 04 1b 00 00 00 80
       -1.153519337e-315 -2.23963669e-315
000150 70 ee c1 0c 00 00 00 80 30 c8 57 0d 00 00 00 00
       -1.05747874e-315 1.10599899e-315
000160 68 7b 82 1e 00 00 00 00 45 6c f3 0e 00 00 00 80
       2.528962715e-315 -1.23928457e-315
000170 a3 2a 90 1e 00 00 00 00 5d 66 63 15 00 00 00 00
       2.53339363e-315 1.772884437e-315
000180 fa 22 84 0b 00 00 00 80 11 ac 09 15 00 00 00 00
       -9.545797e-316 1.74383142e-315
000190 d2 af e3 1f 00 00 00 80 7f 41 8e 0a 00 00 00 80
       -2.643327183e-315 -8.7496575e-316
0001a0 ef 69 e4 21 00 00 00 80 b6 d9 8b 03 00 00 00 80
       -2.8093435e-315 -2.93953674e-316
0001b0 d5 91 45 01 00 00 00 00 b8 07 5c 0e 00 00 00 80
       1.0541648e-316 -1.19026497e-315
0001c0 82 97 98 0a 00 00 00 80 51 b1 11 14 00 00 00 00
       -8.78312445e-316 1.66353793e-315
0001d0 25 98 da 22 00 00 00 00 f8 23 83 23 00 00 00 80
       2.8890545e-315 -2.943628217e-315
0001e0 9f 02 7c 01 00 00 00 80 10 78 ad 18 00 00 00 80
       -1.23043843e-316 -2.04553873e-315
0001f0 58 bc 18 02 00 00 00 00 f7 17 26 0d 00 00 00 80
       1.7379012e-316 -1.08991035e-315
000200 a4 17 a7 08 00 00 00 80 6e eb 14 11 00 00 00 00
       -7.1722666e-316 1.41591142e-315
000210 0c dd 2b 12 00 00 00 80 16 f1 ae 08 00 00 00 80
       -1.50623088e-315 -7.1976822e-316
000220 cb e4 52 1b 00 00 00 80 34 2b 88 1f 00 00 00 80
       -2.264882666e-315 -2.61369448e-315
000230 a0 a2 34 03 00 00 00 80 20 9c 83 0a 00 00 00 00
       -2.65714196e-316 8.71518677e-316
000240 f6 71 88 0b 00 00 00 00 b9 37 90 1a 00 00 00 80
       9.5597476e-316 -2.20184834e-315
000250 37 b1 38 1c 00 00 00 00 d4 5e 46 21 00 00 00 80
       2.339289327e-315 -2.7581705e-315
000260 26 e7 0a 23 00 00 00 80 22 a7 2b 16 00 00 00 00
       -2.904696387e-315 1.83772453e-315
000270 53 ff 3b 01 00 00 00 80 af 93 ee 1e 00 00 00 00
       -1.0231706e-316 2.563962834e-315
000280 b7 35 fc 05 00 00 00 00 53 6a 85 16 00 00 00 00
       4.9611554e-316 1.866788797e-315
000290 d7 db 04 10 00 00 00 80 e7 d5 18 22 00 00 00 00
       -1.32782059e-315 2.826317186e-315
0002a0 2e 1e bd 1e 00 00 00 80 45 da 81 01 00 00 00 80
       -2.54794846e-315 -1.2493555e-316
0002b0 4f c0 e8 15 00 00 00 80 42 92 65 06 00 00 00 80
       -1.816062386e-315 -5.3023063e-316
0002c0 e7 02 78 0d 00 00 00 00 43 fd c6 0e 00 00 00 00
       1.11643456e-315 1.224897366e-315
0002d0 d8 93 a8 10 00 00 00 80 d0 35 55 02 00 00 00 80
       -1.38083123e-315 -1.93371207e-316
0002e0 0b 15 37 08 00 00 00 00 26 df 96 14 00 00 00 80
       6.80958797e-316 -1.70666008e-315
0002f0 69 8f b1 1b 00 00 00 00 93 4a 12 1f 00 00 00 00
       2.295534805e-315 2.575526836e-315
000300 99 38 5a 21 00 00 00 80 60 c3 6a 02 00 00 00 00
       -2.76459796e-315 2.00349864e-316
000310 b9 cc 12 21 00 00 00 80 41 a9 f5 14 00 00 00 80
       -2.74147237e-315 -1.737352047e-315
000320 96 95 62 08 00 00 00 80 48 e3 a3 0a 00 00 00 80
       -6.95044387e-316 -8.81969983e-316
000330 e4 4d 9f 15 00 00 00 00 b2 73 29 0b 00 00 00 80
       1.792280936e-315 -9.25216824e-316
000340 48 9f e4 00 00 00 00 80 47 d1 86 1d 00 00 00 00
       -7.4025777e-317 2.44747603e-315
000350 d5 d0 36 1e 00 00 00 80 19 26 1c 15 00 00 00 00
       -2.504462657e-315 1.749814003e-315
000360 20 33 61 1f 00 00 00 80 66 af 21 15 00 00 00 00
       -2.601076655e-315 1.751606616e-315
000370 33 9b 8b 12 00 00 00 00 72 81 12 11 00 00 00 00
       1.537231518e-315 1.41512979e-315
000380 61 8a ce 16 00 00 00 80 d7 90 2b 16 00 00 00 00
       -1.890466073e-315 1.837696335e-315
000390 b5 27 03 22 00 00 00 80 56 b2 6c 01 00 00 00 80
       -2.819297254e-315 -1.18085434e-316
0003a0 e1 bb 96 1e 00 00 00 80 06 4c 2b 24 00 00 00 00
       -2.53552008e-315 2.998075743e-315
0003b0 f2 01 92 21 00 00 00 00 f3 88 a4 1e 00 00 00 00
       2.782661126e-315 2.539988733e-315
0003c0 7c a5 0d 04 00 00 00 00 e6 30 c1 1f 00 00 00 80
       3.3598043e-316 -2.63215776e-315
0003d0 45 51 8f 0f 00 00 00 00 a2 e5 66 17 00 00 00 00
       1.28976179e-315 1.939797703e-315
0003e0 65 8b fd 1a 00 00 00 00 ef 9a c9 20 00 00 00 80
       2.23724737e-315 -2.717772663e-315
0003f0 86 2d 87 12 00 00 00 00 59 57 8d 14 00 00 00 80
       1.535797635e-315 -1.7035742e-315
000400 68 8c ff 10 00 00 00 00 21 2c 59 04 00 00 00 80
       1.408991626e-315 -3.60435044e-316
000410 02 44 e1 0e 00 00 00 00 6d 16 fe 06 00 00 00 00
       1.23340541e-315 5.79614007e-316
000420 d7 93 ed 01 00 00 00 00 df 8a d0 08 00 00 00 80
       1.59815884e-316 -7.3064783e-316
000430 f0 88 a7 21 00 00 00 00 ef 93 c8 1d 00 00 00 80
       2.789631473e-315 -2.468768637e-315
000440 5f 74 7d 09 00 00 00 80 bb 8e 57 0a 00 00 00 00
       -7.8663519e-316 8.57254937e-316
000450 21 60 82 01 00 00 00 80 2c 32 04 02 00 00 00 80
       -1.25104857e-316 -1.6713954e-316
000460 c2 46 89 0a 00 00 00 80 9f f3 c9 09 00 00 00 00
       -8.7335345e-316 8.1140424e-316
000470 90 cb 34 05 00 00 00 80 0c 59 00 14 00 00 00 00
       -4.31546895e-316 1.65792184e-315
000480 19 7f 37 21 00 00 00 00 2e 88 b2 1e 00 00 00 80
       2.75335445e-315 -2.54452083e-315
000490 0a fb 1e 1b 00 00 00 00 77 ab 41 1d 00 00 00 00
       2.24807368e-315 2.425086633e-315
0004a0 33 a6 ca 0d 00 00 00 80 66 01 c7 00 00 00 00 00
       -1.14319195e-315 6.443615e-317
0004b0 5d 53 0d 1e 00 00 00 80 1f 13 94 0d 00 00 00 00
       -2.491028537e-315 1.12552122e-315
0004c0 79 02 a0 0b 00 00 00 00 bb 2a 75 13 00 00 00 80
       9.6360473e-316 -1.61285633e-315
0004d0 a5 d2 1d 21 00 00 00 00 47 0a 30 0b 00 00 00 00
       2.74504156e-315 9.27350027e-316
0004e0 49 ae c4 11 00 00 00 80 94 a4 90 06 00 00 00 80
       -1.472821276e-315 -5.44176807e-316
0004f0 15 a4 2f 04 00 00 00 00 80 73 b5 12 00 00 00 80
       3.46987545e-316 -1.55078052e-315
000500 2f 72 dd 01 00 00 00 80 15 11 ac 0f 00 00 00 80
       -1.5459266e-316 -1.29907054e-315
000510 ed b4 42 20 00 00 00 80 a6 72 7f 1d 00 00 00 80
       -2.67409377e-315 -2.445089805e-315
000520 76 84 63 19 00 00 00 00 1c ad 49 14 00 00 00 80
       2.10448435e-315 -1.681664895e-315
000530 a0 01 67 02 00 00 00 00 59 3c b8 10 00 00 00 80
       1.99133435e-316 -1.385901216e-315
000540 74 9c 7c 14 00 00 00 00 bb 84 d3 1e 00 00 00 00
       1.69815716e-315 2.55520157e-315
000550 58 a8 66 0d 00 00 00 00 73 ef c7 02 00 00 00 80
       1.11081558e-315 -2.3051816e-316
000560 d8 53 8f 22 00 00 00 80 d8 d3 81 14 00 00 00 80
       -2.8646838e-315 -1.699846175e-315
000570 bd bd 9d 06 00 00 00 00 5d 87 2c 07 00 00 00 00
       5.4841791e-316 5.9465123e-316
000580 57 0b ef 0d 00 00 00 80 68 ce 5a 0e 00 00 00 80
       -1.154976346e-315 -1.18986869e-315
000590 33 f2 fc 0b 00 00 00 80 43 2c 66 08 00 00 00 80
       -9.936967e-316 -6.96206335e-316
0005a0 50 4e 87 1e 00 00 00 80 7f 56 29 1c 00 00 00 80
       -2.530524634e-315 -2.334317723e-315
0005b0 66 ff 64 0d 00 00 00 80 52 c5 78 04 00 00 00 80
       -1.110278104e-315 -3.7066632e-316
0005c0 51 72 0a 00 00 00 00 00 aa 46 f2 11 00 00 00 80
       3.382497e-318 -1.487584595e-315
0005d0 b1 4c b0 0f 00 00 00 80 3d 05 4a 00 00 00 00 80
       -1.3004411e-315 -2.396715e-317
0005e0 c4 ef 6f 20 00 00 00 80 90 17 4e 04 00 00 00 00
       -2.68873878e-315 3.5684733e-316
0005f0 f7 19 16 09 00 00 00 00 d7 14 92 02 00 00 00 00
       7.53170385e-316 2.13080745e-316
000600 ff b1 f6 22 00 00 00 80 ef cd 47 19 00 00 00 80
       -2.898153343e-315 -2.09551113e-315
000610 1d 5c de 0f 00 00 00 80 d9 98 ab 1f 00 00 00 80
       -1.315354986e-315 -2.62516584e-315
000620 ea bb 0c 02 00 00 00 80 a6 c5 46 18 00 00 00 80
       -1.69904087e-316 -2.0122864e-315
000630 5f c8 8b 1b 00 00 00 80 3d 9f 8e 15 00 00 00 80
       -2.283302797e-315 -1.78687938e-315
000640 1f 51 07 08 00 00 00 00 c2 9b 3e 0c 00 00 00 80
       6.65492823e-316 -1.014957564e-315
000650 c0 1e 96 00 00 00 00 80 d8 21 51 1a 00 00 00 00
       -4.860752e-317 2.18142184e-315
000660 da c9 2b 1f 00 00 00 00 aa 72 44 05 00 00 00 00
       2.58378259e-315 4.3661511e-316
000670 83 db 69 0f 00 00 00 80 f1 cb 55 15 00 00 00 00
       -1.27763259e-315 1.76847984e-315
000680 56 ce f5 15 00 00 00 00 01 fa c1 17 00 00 00 80
       1.82028941e-315 -1.969288437e-315
000690 c0 97 a1 18 00 00 00 80 8e 06 f5 22 00 00 00 00
       -2.041693317e-315 2.89761271e-315
0006a0 80 20 5e 1a 00 00 00 00 41 5a 16 14 00 00 00 80
       2.18562942e-315 -1.665046765e-315
0006b0 c1 19 8b 1a 00 00 00 80 7a 6e dc 1c 00 00 00 00
       -2.20019148e-315 2.39230662e-315
0006c0 e1 17 e1 11 00 00 00 80 3e 72 57 0e 00 00 00 00
       -1.482020976e-315 1.18878075e-315
0006d0 48 bb 52 1d 00 00 00 00 7f c1 fe 01 00 00 00 00
       2.43061108e-315 1.65378075e-316
0006e0 de 47 0d 22 00 00 00 00 75 fb 79 1c 00 00 00 00
       2.82257584e-315 2.360429636e-315
0006f0 3a 4b c8 00 00 00 00 80 df a0 a0 0d 00 00 00 80
       -6.485332e-317 -1.129585997e-315
000700 a1 a4 ae 1c 00 00 00 00 81 08 1f 0c 00 00 00 80
       2.37748073e-315 -1.0047338e-315
000710 b9 b5 46 04 00 00 00 80 52 50 d8 05 00 00 00 00
       -3.54457047e-316 4.8449272e-316
000720 19 1c f3 00 00 00 00 80 ec a7 4f 19 00 00 00 00
       -7.8716718e-317 2.09805338e-315
000730 2d c5 22 21 00 00 00 80 31 f8 ef 08 00 00 00 80
       -2.74664348e-315 -7.40823615e-316
000740 f0 e5 31 01 00 00 00 80 3a 4f 6a 04 00 00 00 00
       -9.904704e-317 3.6598388e-316
000750 fa e6 a9 11 00 00 00 00 54 de ca 1e 00 00 00 00
       1.464150627e-315 2.552400774e-315
000760 e7 99 ee 1c 00 00 00 80 3e c7 00 12 00 00 00 80
       -2.39818978e-315 -1.492280294e-315
000770 52 52 06 07 00 00 00 00 19 c3 ef 0a 00 00 00 80
       5.8228009e-316 -9.06537383e-316
000780 fa 1a 6b 02 00 00 00 00 72 95 9e 22 00 00 00 00
       2.00460664e-316 2.869623636e-315
000790 a7 19 ed 10 00 00 00 00 61 f6 51 1a 00 00 00 80
       1.40301825e-315 -2.181690657e-315
0007a0 e7 4f 7a 18 00 00 00 00 1a e9 38 0e 00 00 00 00
       2.0289746e-315 1.178893565e-315
0007b0 ed ed 7b 1d 00 00 00 00 90 7b 23 07 00 00 00 00
       2.443950563e-315 5.91722187e-316
0007c0 ee 95 8d 0f 00 00 00 00 28 1c e1 0d 00 00 00 80
       1.289201053e-315 -1.150464544e-315
0007d0 3c 2e 83 15 00 00 00 00 df 2e db 18 00 00 00 80
       1.783174753e-315 -2.060340536e-315
0007e0 ce 95 f9 0e 00 00 00 80 6e a0 6a 03 00 00 00 00
       -1.241279847e-315 2.83196126e-316
0007f0 c0 d1 06 1e 00 00 00 00 4a e7 c9 0c 00 00 00 00
       2.488921856e-315 1.060060026e-315

bias_0 f8 [1, 64]
000000 55 1f cb 78 dd 29 bc bf 12 43 ff 58 31 d9 d4 bf
       -0.11001381110247384 -0.32575639430165026
000010 d5 ef 7a 83 84 2d ae bf d8 db e8 61 b6 eb b3 bf
       -0.05894102196677379 -0.07781543627139287
000020 27 7b 17 c4 1a 55 ca bf 44 bd 7f db f3 1d e0 bf
       -0.20572218489447744 -0.5036563193406569
000030 13 20 52 0b a7 6a a3 bf 9f 36 b9 65 ae 78 d6 bf
       -0.03792306912606604 -0.351115798320146
000040 b6 48 3f e3 c3 e1 d3 bf e1 b0 f0 3f 19 f2 a6 3f
       -0.3106546134196252 0.04481581597824103
000050 8a cc 97 f7 cc 46 cd 3f dc 21 fc 0f d7 bf ba bf
       0.22872316445827706 -0.10448974743133682
000060 97 fe e4 b5 14 bd df bf 70 c2 b6 80 1c 86 c2 bf
       -0.49591558230529514 -0.14471775326593983
000070 98 e4 db 2e ac 82 db bf 49 d7 18 fe c8 6a e1 bf
       -0.4298506219489098 -0.5442852938492503
000080 01 65 16 fd 67 bf d2 3f 35 b0 42 ed 70 b6 ce bf
       0.2929325076634797 -0.2399426611422101
000090 8b 95 de d3 b8 2b d0 bf 8f 03 2a 3e 71 9f ac 3f
       -0.25266857805612436 0.05590394862975422
0000a0 21 15 de 09 8f 1d d1 bf 08 79 ce 40 75 cd d7 3f
       -0.26742912257789625 0.37191516236079325
0000b0 10 6c dc b5 17 94 c8 bf ce 89 1a d7 81 cf d9 bf
       -0.19201942806179817 -0.4032902336713534
0000c0 b5 fe 12 a6 32 6f d1 3f 10 f8 a7 9a 85 89 c6 bf
       0.2724119779413557 -0.17607183505600732
0000d0 84 3d 50 c7 43 fa a6 bf a3 93 20 77 46 17 d5 3f
       -0.04487811859155058 0.32954560884018685
0000e0 a7 b8 50 51 d3 93 d0 3f 7c 31 72 8e 02 76 c2 bf
       0.25902255001973135 -0.1442263789689483
0000f0 a1 e8 4e 96 c1 0a 8a bf 24 c3 fb 49 d6 ce bb bf
       -0.012715828322928781 -0.10862483316647037
000100 00 5a 2e f0 75 ec d7 bf c1 f6 f5 0f dc 38 90 3f
       -0.3738074155347988 0.015841902231378272
000110 cc fb 7d f3 c9 05 c7 bf 5f 90 b2 0e 9e 4f dc bf
       -0.17986416234268032 -0.44235946116737596
000120 5f be 45 a8 e5 ee c0 bf 7b 56 87 58 c3 fc d4 bf
       -0.13229056087901633 -0.32792743344666747
000130 6f b0 fd da c7 b8 c8 bf ca a3 c8 a9 c4 39 bc 3f
       -0.1931390589992392 0.11025647301779809
000140 94 c0 2b 3a bd 1e c4 bf 65 f7 f9 b5 12 c2 ab bf
       -0.15718808498741466 -0.05421503516571028
000150 cb ba 6a 7c fb 3a a1 bf fa 10 bc 23 84 81 b6 bf
       -0.03365312474976675 -0.0879137599222907
000160 95 f5 ef 8f eb 33 d9 bf 6e f2 a6 da fa 2f 9a bf
       -0.3937939553869339 -0.025573653789012267
000170 cf 03 87 c4 9d 13 8d 3f c9 4a 43 7a fd 0e c3 3f
       0.014197571334877339 0.14889496297708707
000180 d1 37 bf 1b 15 89 e4 bf 3b cc b7 a2 e1 21 d2 bf
       -0.6417336980755356 -0.28331795587945735
000190 dd ad df 39 6d 8d d2 bf cc b1 44 c1 5c 34 c1 3f
       -0.28988199855549884 0.13441047131472172
0001a0 74 c7 79 00 96 33 aa bf 9c 7f 02 5a 53 d0 c6 3f
       -0.051174819524830634 0.17823259253509327
0001b0 bd f5 58 30 3d e9 c0 bf fe 8c c9 fa a1 56 e1 bf
       -0.13211788998334653 -0.5418252847852327
0001c0 95 01 a9 c3 4e 94 db bf 03 53 9a 98 a2 5d ba 3f
       -0.4309269819969129 0.10299125886588105
0001d0 f3 a0 9a e6 82 c3 dc bf f4 f5 01 3a 65 cd d3 bf
       -0.4494330646507613 -0.30941134133158177
0001e0 40 2b 88 6f 6d 9d ae 3f 71 2c 37 65 95 21 97 3f
       0.0597948263785697 0.022589048674302285
0001f0 99 bc 0f ff 31 97 cb 3f c3 85 e3 79 5a af d0 bf
       0.21555161432431616 -0.2607027235336227

weight_1 f8 [64, 32]
000000 d3 a5 ca b5 91 ae 0c c0 51 a3 08 1c b9 da e3 3f
       -3.5852388575046716 0.6204495952161811
000010 5e 4f 9c 7a f1 ea 15 c0 bc a0 8c 0e e4 15 ca bf
       -5.479436794081122 -0.2037930556337012
000020 be 1b d9 88 75 5e 0d c0 db b1 b3 ea 62 dd d1 bf
       -3.6711226168876854 -0.2791373531352101
000030 0f b9 8e ae 43 05 fe bf 47 e2 ca 2b 72 b9 f3 3f
       -1.8762852495816025 1.2327748976369024
000040 34 10 f2 f6 2d 4b f3 bf 16 ee 44 b4 c3 0b 05 c0
       -1.2058543821631362 -2.6307443698440336
000050 47 12 32 dc 73 4d c1 bf 05 f2 d5 1e c6 7b a1 bf
       -0.13517616512048589 -0.03414744497692727
000060 66 81 72 74 aa 7f f5 3f 92 d1 33 c4 74 bf f1 3f
       1.3436684178087375 1.109242216506662
000070 c6 71 06 f4 a2 d8 e3 3f fe 37 ca da ee d0 e0 3f
       0.6201948896519347 0.5255045197716297
000080 1a 85 06 44 98 64 f3 bf 84 14 81 ab e3 b0 10 c0
       -1.2120592744107115 -4.172743491891314
000090 e4 c2 af c8 8a 59 ee 3f 5d fd 2e 79 4e d4 00 c0
       0.9484304351481936 -2.103665301081192
0000a0 c6 18 dd 26 61 7b de bf ec d1 f6 98 b2 7d f4 bf
       -0.47628048701552606 -1.2806879019891495
0000b0 b5 ce 76 f0 2d 08 12 c0 82 e1 ba 41 eb 74 f1 3f
       -4.507987744571143 1.0910446708276997
0000c0 76 c0 b8 50 ae cf 0f c0 cf ce 39 2c d8 67 f6 3f
       -3.976406698835542 1.4003526427813318
0000d0 95 42 73 a5 2d 74 d5 bf 23 e2 ef 37 43 0f e1 3f
       -0.33521596104859813 0.5331131069679639
0000e0 32 75 b4 df 2d b3 f5 bf 50 01 d7 20 a1 bd 0f c0
       -1.3562449205849814 -3.9675924840559347
0000f0 01 b4 e0 61 f2 34 dc 3f 45 a0 bf 5e 20 3a 9d 3f
       0.4407316165768976 0.0285420472936553
000100 93 24 90 89 6b 45 da 3f e4 61 16 48 ee 5d fc bf
       0.4104870646847953 -1.7729323211589127
000110 eb 12 03 e7 50 a9 a3 bf f6 26 cb b9 32 52 02 c0
       -0.038401153754909455 -2.290135814201558
000120 89 51 de df 7d a6 c6 3f 24 6d 4c b8 cf b5 e2 bf
       0.1769559233768059 -0.5846937751370302
000130 e7 b3 77 20 c4 8a e6 3f ee fe 5b 7b 06 9c 01 c0
       0.7044392236836047 -2.201184238190641
000140 2a 1f 2e c7 50 9c c6 3f 0e 9b 13 ec b9 da d5 3f
       0.17664537168115518 0.34147499136308646
000150 ab 35 0e 07 0d e3 c8 3f 53 44 0a d5 89 d0 0f c0
       0.19442904324061536 -3.9768253940351683
000160 00 98 d4 ef 13 48 07 c0 d5 d8 ac 78 56 33 e4 3f
       -2.9101942765000786 0.6312668187081508
000170 9d 1e 73 e5 c4 bf c7 3f 11 e7 31 b5 9d 44 6d bf
       0.18553982928846305 -0.003572757742912887
000180 76 8e f7 17 03 3a c6 3f b5 a3 89 d1 4e e3 f7 bf
       0.1736453883196309 -1.4929950890602701
000190 04 d3 db 99 1c 0b 11 c0 d2 88 cc ed 9a c9 0a c0
       -4.260851291696557 -3.3484400346797907
0001a0 2e 7d c6 df da 0e e3 3f 72 70 76 4c 4b 2c ed bf
       0.595563351689554 -0.9116569989596555
0001b0 b9 fc e7 71 fc d8 c8 bf 02 31 87 42 57 59 0c c0
       -0.19412189065767452 -3.5436234662539627
0001c0 43 7a e8 a2 a8 13 d5 3f f4 c7 cc 7b 8d 51 02 c0
       0.3293248740100447 -2.2898206397885534
0001d0 d0 ce 59 1f 2c d6 d6 bf a3 76 4a 78 2e e0 0d c0
       -0.3568220430526994 -3.734463634273952
0001e0 6e a4 3c 76 27 dc f1 bf 28 88 c3 2d 11 34 fe bf
       -1.1162485712650567 -1.8877116954468054
0001f0 aa c6 c5 17 d8 0b f9 bf e0 d3 0c f6 b1 bd e0 bf
       -1.5653916290870407 -0.523156147543542
000200 ac a1 16 a8 88 6a 02 c0 c3 17 30 eb 8a 68 d8 3f
       -2.302018464270267 0.3813807770496817
000210 07 64 57 89 19 9c 04 c0 91 24 2d f4 28 93 ea 3f
       -2.576220581988767 0.8304638642377019
000220 12 c7 9b 33 4f fe ff bf 94 e8 f9 42 cc 24 f8 bf
       -1.999587251277664 -1.508983861566354
000230 01 c4 3e 5c 7b 87 ea 3f c6 dd f7 06 b9 98 f1 bf
       0.8290383149779929 -1.0997858307072064
000240 b7 e0 a4 3a a6 d0 c3 3f 81 f7 b1 3a 99 25 d8 bf
       0.15480497230033105 -0.37729483348800136
000250 c3 a0 83 9b 53 dd 01 c0 da a9 31 a2 80 38 d3 3f
       -2.2330696248573942 0.3003236373830568
000260 c7 51 e7 2b 04 b9 dc 3f f7 eb d7 87 63 9c c1 3f
       0.44879249846897235 0.13758510716419867
000270 70 3e ce 4e cb 42 11 c0 50 29 0a 8e cb a8 ff bf
       -4.31522868284047 -1.9787097500253203
000280 73 8e 3f 7c c4 2f f3 bf 0b 57 cb 0e eb ae ea bf
       -1.1991619924018806 -0.8338523186637031
000290 c1 16 5a 8c 98 1b e7 3f 75 c5 dc 89 4d 7a e2 3f
       0.7221186391113507 0.5774295513748898
0002a0 82 e7 21 12 9f e6 e6 bf 97 54 f3 ca dc 27 ce 3f
       -0.7156520227574534 0.23559150609677168
0002b0 ab 94 69 18 a5 5e dd bf d8 06 0e 79 eb 04 00 c0
       -0.458901666488894 -2.002402253857195
0002c0 78 37 45 d3 c6 b0 d9 3f 23 51 cf 70 f0 89 fc bf
       0.40141459113953415 -1.7836765677103095
0002d0 51 59 ee ac 47 38 ec bf 3d c7 e6 ba fd 7c f0 bf
       -0.8818701150474145 -1.0305154133643122
0002e0 b2 44 01 45 35 0d 11 c0 13 33 d0 34 32 91 f1 bf
       -4.262898519709028 -1.0979482710856174
0002f0 bd 27 48 26 1a 2e 07 c0 4c e3 cc b0 ae 36 c5 bf
       -2.8975108137865093 -0.16573127396420728
000300 bc df 82 95 a5 85 0c c0 f4 99 a2 8c 65 f2 fc bf
       -3.5652572327198566 -1.8091788762627603
000310 39 af e4 df 99 6e 14 c0 07 c1 6f 26 d3 3b ed bf
       -5.108008859951775 -0.913552832671514
000320 06 ce 19 63 42 6a ed bf 68 16 84 77 87 71 0c c0
       -0.9192211089670657 -3.5554341637787736
000330 ea ac 56 67 11 48 01 c0 79 a0 c0 e9 a2 e7 06 c0
       -2.1601894448591468 -2.863103700819974
000340 1c 39 dc 0d 75 d2 c3 bf 18 a9 b6 9b 44 2f f4 bf
       -0.15486014534730763 -1.2615400393065723
000350 d1 18 55 38 b9 0a e6 3f cd 4d 1c fa 7b f0 0e c0
       0.6888090229265577 -3.8674239673507373
000360 51 a4 98 16 83 7d 03 c0 bb 36 19 d5 ea 3a 0c c0
       -2.4362851872761344 -3.528768219787563
000370 1e 9e 9d 84 91 14 df 3f 46 aa 14 e7 4a 48 f4 bf
       0.48563039732695923 -1.2676495577421902
000380 78 d7 98 49 4c 5b f3 3f 01 b8 49 9c 7d 47 0e c0
       1.2097895502933778 -3.784907551765173
000390 f1 2a d9 64 76 81 b3 3f 07 4b 1e ae 6e dc bc bf
       0.07619419061772327 -0.11273853064475868
0003a0 25 41 d1 bd d2 cd 07 c0 d3 3f 9c 5f 37 8d 05 40
       -2.97549961371273 2.693953272777415
0003b0 d9 99 9f b0 e5 9f fb bf cc d4 d6 4d 58 4f d9 3f
       -1.7265374087670493 0.3954678306721007
0003c0 33 8a d1 2d 04 75 fb bf 95 49 cf 62 3f ec f9 bf
       -1.716068438509535 -1.620177637076812
0003d0 4c bd 5c 86 a8 f1 fd bf d0 c8 77 a4 8b 69 f2 bf
       -1.8714986084485927 -1.1507679390456822
0003e0 cf f9 10 10 48 09 e5 3f bd 4a fa 8b 06 18 0b c0
       0.6573829950137283 -3.386731237006954
0003f0 84 7a f2 f1 78 47 ea 3f 04 77 81 b2 cc 90 f4 bf
       0.8212246633082292 -1.2853514645461823
000400 07 24 fc d3 e0 af fe bf 4c b0 e1 b5 14 28 ff bf
       -1.9179390221272585 -1.9472853760480744
000410 72 87 cb cb b6 57 10 c0 cd 23 52 84 11 f6 c4 bf
       -4.085658249185018 -0.1637594123933738
000420 87 dd 5b 20 74 81 fb bf c8 c1 d2 3b 8c 18 14 c0
       -1.7191048873918093 -5.0239724490533675
000430 40 68 e4 3c a8 4e ed 3f 41 a7 45 56 fe 7e ff bf
       0.9158517064381684 -1.9685042734149223
000440 de 5b cc 23 f1 5f f3 3f 34 5b c3 ec c0 32 01 c0
       1.210923328244227 -2.1497820374601364
000450 03 94 54 bc b8 40 12 40 a6 dd e9 4d ff 3d 11 c0
       4.563204710638277 -4.310544221304928
000460 11 9e 5b df ad 71 09 c0 53 f6 2b a8 70 09 11 c0
       -3.1805074167093683 -4.259218814547768
000470 a7 37 b1 57 2e aa c2 3f 01 c8 dd d6 53 b0 fd bf
       0.1458185127434579 -1.8555487054077278
000480 e1 7d ce 95 fd 84 e0 3f 13 10 f2 b1 3f 7d 0c c0
       0.5162342000875776 -3.5611566450115872
000490 cc 4c a0 3c 04 55 ec bf 9f 88 bd e5 a5 fd ee bf
       -0.8853779968361777 -0.9684628951183817
0004a0 5a 09 38 95 df 70 04 c0 d3 7d f9 21 7e 5a fc 3f
       -2.555113950512504 1.7720929457790262
0004b0 08 18 1b cc 0a 41 e4 3f d0 6d bf 9a 4f 8e eb bf
       0.6329397188608263 -0.86112194275068
0004c0 2c d7 94 77 79 cc dd bf f1 19 bc 5c ac 44 05 c0
       -0.4656051318919363 -2.658531879892728
0004d0 d8 a4 f4 a7 91 f5 06 c0 98 06 ff 40 6e 4d f2 bf
       -2.8699067231687927 -1.143903974429497
0004e0 eb 38 11 17 39 67 e6 3f 81 39 0d 2a d6 d7 fd bf
       0.700100464871665 -1.865194477333347
0004f0 0d f2 db 95 df 88 f4 3f 6c ab f3 24 ea eb 01 c0
       1.2834163526414415 -2.240192688642699
000500 57 f8 8c 39 23 12 08 c0 20 26 6f be 8d 8d 0c 40
       -3.0088562484880117 3.5691180112523995
000510 f9 4a 88 23 44 b3 06 c0 9e 1a a7 32 9c 40 ee bf
       -2.8375323081939965 -0.9453869809447786
000520 5f e5 63 93 85 41 06 c0 df 4f 4f f3 bc 19 07 40
       -2.7819930567608675 2.8875674255923367
000530 0f 55 d6 a3 3f 0b fb bf aa 2f b4 cb f6 b7 04 c0
       -1.6902462386981971 -2.5898261942256413
000540 5c d5 ae c3 24 87 da 3f 7c bf 47 9d 50 bb 04 c0
       0.41449851140654004 -2.59146235346992
000550 ef e0 08 e6 52 fa 01 c0 ef bc 57 53 4d 0b 02 c0
       -2.2472284289798306 -2.2555185805464286
000560 2a 92 93 05 a4 a6 06 40 df af 37 09 2c 0e 0e 40
       2.8313675342235642 3.756919929515774
000570 87 df ca 84 cf ad fd 3f fe fb b7 f1 73 61 f6 bf
       1.8549342333990084 -1.3987922136436732
000580 65 eb a6 df 98 b5 fc bf 7a e7 76 39 10 cb 0b c0
       -1.7943352447898289 -3.474152039471787
000590 4b 32 0d 31 02 dd f3 bf 3f be 9f 93 fa 5f c2 bf
       -1.2414571682048912 -0.14355404098704302
0005a0 5e bd 36 7f b3 66 ee 3f a3 4b ef c2 4d f4 ee bf
       0.9500367626805362 -0.9673222358054442
0005b0 3d a7 f8 d6 b3 2a ec bf c2 2d 0f 23 64 b8 01 c0
       -0.880212707391571 -2.2150347460753617
0005c0 15 2c e6 0e 7f 14 08 c0 ac 37 17 6a 0f 4f 0d 40
       -3.010007969283388 3.6636036194167527
0005d0 31 fa d9 8b 54 08 fd bf 65 92 77 8d 00 cb fc bf
       -1.814533754629917 -1.7995610738809316
0005e0 e5 ab 26 8e 29 fa e8 bf 1e 4f 6b 42 99 3a da bf
       -0.7805373932254694 -0.4098265789627805
0005f0 79 f6 a9 b4 64 c8 03 c0 70 ba 4f be b7 01 02 40
       -2.4728483309143567 2.250838743980516
000600 f7 73 42 ee f3 63 06 c0 14 31 ce d6 17 fa d4 3f
       -2.798805104639992 0.3277644727429714
000610 55 78 a8 d1 cb c2 13 c0 7f 2f e4 84 07 97 05 c0
       -4.940230632693859 -2.6987448103081415
000620 42 78 91 1b d4 f8 fc bf 5a d7 69 fe b5 11 dd bf
       -1.8107491566547798 -0.45420598836004944
000630 53 fc cd 78 82 8b 05 c0 8d 3c 71 6d 0e 90 c2 3f
       -2.6931199491369084 0.14502125114311007
000640 7e 70 65 0e a1 7f f7 bf 9c 78 f9 e6 f1 fd 02 c0
       -1.4686594545701435 -2.3739965481646106
000650 a6 bf 17 7c 7b 56 c8 3f a0 5d 20 0a 43 df 0d c0
       0.19013923224656287 -3.734014586556171
000660 f5 54 9a bf aa f2 d4 3f d7 02 d7 f0 53 19 c0 bf
       0.32731121741501507 -0.12577294597396957
000670 38 58 cc 22 17 ea fd 3f de b4 9d 0e 6f fb b9 bf
       1.8696509703927529 -0.10149282557331982
000680 33 f0 b0 36 22 e4 c9 3f 1c 32 8e ab e8 19 10 c0
       0.2022745863959031 -4.0253016286410706
000690 e6 93 18 7d 78 1a ed bf 67 27 4d 72 0c 92 0b c0
       -0.9094812815934545 -3.4463128022952563
0006a0 f9 29 76 f9 ab f1 d6 bf 46 d1 1c 43 2e 46 ca 3f
       -0.3585004745624754 0.20526674534779427
0006b0 b6 7a 95 9d 76 5e 10 c0 9a 26 b0 45 f8 bc e3 3f
       -4.092249357460494 0.6168176041694153
0006c0 55 c5 cf 04 16 bf 11 c0 a2 2e f5 51 33 6b ea 3f
       -4.436607432538342 0.8255859947907604
0006d0 fd 49 8c 41 e9 c5 d6 bf a3 dd 9f 8f 6a a6 ec bf
       -0.3558295383565165 -0.8953144841352024
0006e0 65 5f 94 49 94 65 d0 3f 63 68 af 6d 5e d6 0e c0
       0.2561999052572815 -3.854672295489807
0006f0 a5 c5 ec bd 83 18 e8 3f 34 ba 59 28 bc 1b d5 3f
       0.7529925069304012 0.3298178094909503
000700 9b cd e1 82 29 81 0c 40 83 9c 71 db 46 02 00 c0
       3.5630674576911594 -2.0011117118879738
000710 6c 91 77 1d aa 5e 05 40 05 f1 fc 6c 98 65 ee bf
       2.671222906314304 -0.9499017838166145
000720 a3 b0 13 c6 0f 74 f1 3f 62 7d bb 8d ea 97 c7 bf
       1.0908353555087522 -0.1843236152699133
000730 2a d2 b9 ee 72 d1 ea bf b8 01 6d b2 67 2a f0 bf
       -0.838067499410106 -1.0103527993925194
000740 c1 b3 c4 f2 61 42 f2 bf ac 0c 06 c7 2a dd c7 3f
       -1.1412066920413368 0.18643698423338628
000750 d1 b2 09 d1 1f 8f e5 bf c5 08 a0 03 1d 19 03 c0
       -0.6737212260028064 -2.387262371369703
000760 d0 e3 c7 9f 33 49 df bf 68 f9 fb d7 77 58 0a 40
       -0.48884287456126874 3.2931973336955487
000770 a0 13 57 39 96 0d 02 40 3f 30 1c 01 44 1e a4 bf
       2.2566341857622803 -0.03929340852309381
000780 1d 94 07 8e ae 7d 07 40 e3 de d5 a4 fc 47 f4 bf
       2.9363680931151195 -1.267574924362571
000790 fa 0c 60 d4 70 eb f8 bf c3 21 1b 96 21 69 ef bf
       -1.5574806495577023 -0.9815833980329035
0007a0 2d 4d ed ae 72 d4 0d 40 13 91 49 4c 17 38 f3 bf
       3.728734366051546 -1.2011940937018764
0007b0 1e 38 08 3a 9b 26 ba bf 7e 41 83 b3 4c b6 f0 bf
       -0.10215158621596784 -1.044506741735034
0007c0 43 35 a2 24 03 ed 03 c0 31 97 58 b5 57 ea 00 c0
       -2.4907286512376756 -2.1144251029644683
0007d0 4a 50 74 ed 27 3d fd bf 60 5d d6 a8 19 9b f0 bf
       -1.8274306560097267 -1.037866267701098
0007e0 47 4c 52 18 22 40 f0 bf 62 60 54 8d d0 28 a7 3f
       -1.015657515531318 0.045233266117237006
0007f0 61 1f 3e 3e c3 04 c2 bf d2 29 75 56 cf 35 03 c0
       -0.14077034510796252 -2.401274371576826

bias_1 f8 [1, 32]
000000 48 9c 0d ce f2 74 e9 bf 92 b3 a0 95 70 cc eb bf
       -0.7955259346462151 -0.8687060282151029
000010 50 55 8d 90 aa 18 bb 3f 45 9a 66 6c 44 25 f2 bf
       0.10584512738326635 -1.1340984568029324
000020 32 a3 2f 46 30 19 bb 3f e4 94 7f 6a 0b bf c5 3f
       0.10585309709098281 0.1698927183162261
000030 ae 2c f8 5a 4f 9c fc bf 00 c3 aa d3 fa 37 e9 bf
       -1.7881616166585377 -0.7880834707376323
000040 96 4f 1b ff d8 f8 fb bf e3 4f c7 0b 87 17 fd bf
       -1.7482538189987955 -1.8182440242862803
000050 d9 2d e0 84 b0 7e f9 bf 94 94 e0 2a 82 65 a5 3f
       -1.593430060430242 0.0417900731411375
000060 b4 2c af 00 94 19 f2 bf ac 74 86 57 01 2d e2 bf
       -1.1312446619729544 -0.5679938039280805
000070 37 00 7c 4e f8 20 f4 bf db 06 29 6c f8 f4 f6 bf
       -1.2580493036075617 -1.4348072266588392
000080 6f 2c 00 e9 00 9e fa bf ba 72 5f 33 83 c9 f2 bf
       -1.6635750867451653 -1.1741973883392078
000090 97 b6 38 98 91 3e f9 bf 3f 61 03 9d 8c bd f5 bf
       -1.5777755685952906 -1.3587766774490573
0000a0 06 af 7b 38 86 e7 ea bf b7 27 aa 76 f4 55 f7 bf
       -0.8407622435747448 -1.4584850917185415
0000b0 eb 77 1a fb da 62 f3 bf 6b af d1 7d 7f 24 f7 bf
       -1.2116346176840078 -1.4464106478507925
0000c0 fe 45 46 6b 7e 71 eb bf 9b 90 64 c5 4b 8d ec bf
       -0.8576042266087709 -0.8922480445221653
0000d0 51 4f 02 b3 a8 b8 fa bf 70 8c 34 9c 98 15 f2 bf
       -1.6700827591457321 -1.1302724935310628
0000e0 cc 76 97 6f cc 94 fb bf dd 30 48 40 57 a5 ee bf
       -1.723827777771862 -0.957683206129811
0000f0 82 95 15 1c 26 ba fe bf b0 74 81 78 24 98 f9 bf
       -1.9204465004962405 -1.5996441561940564

weight_2 f8 [32, 10]
000000 c1 69 82 05 2a 58 06 40 1c d0 d8 32 fb b2 04 c0
       2.793048899691002 -2.5873931858459525
000010 2c 5b 69 bd a6 78 ff bf 8f f0 6c 97 7e b1 e8 bf
       -1.9669558905495235 -0.7716668088464916
000020 a7 86 4c a8 a9 13 c9 3f 5f 7e 48 ed bc 64 e2 bf
       0.1959125587246053 -0.5747971186101032
000030 fb 1b 67 1c 74 a4 fe bf fe 05 b4 d7 e9 00 d7 bf
       -1.9151497945292693 -0.35943075241820555
000040 37 71 e1 c5 c8 03 03 c0 f0 ef d6 9d 89 e0 fb 3f
       -2.376847787802173 1.7423187413796732
000050 53 ac e9 66 93 b9 0d c0 ab 70 43 b7 fc c7 0a c0
       -3.715613178259028 -3.3476499860244835
000060 a5 b7 be d6 01 09 d9 bf 64 ba 77 d0 dc c7 f1 bf
       -0.3911747548216858 -1.1112945693272644
000070 a6 ec c6 1d d2 67 ef bf 75 7b ca 27 35 ad e0 3f
       -0.9814234334547975 0.5211435105482979
000080 1e 83 83 57 d0 9a 04 40 6a 13 95 2d 7b 09 fc bf
       2.575592693043645 -1.7523147373733203
000090 3e d1 f5 e6 21 7d e0 3f 58 73 84 5d 15 c4 fc bf
       0.5152749548856617 -1.7978719380400516
0000a0 0e 3b 0c dc 85 75 f4 3f 2c 55 87 5a ed 6f 1b c0
       1.2786921115509275 -6.859303869733861
0000b0 f3 34 94 f7 a8 93 05 c0 6b 04 91 54 3a ef fc bf
       -2.6970996229271065 -1.8084052375200155
0000c0 d1 32 79 5e 50 0a e1 3f 66 59 10 5b f8 49 08 c0
       0.5325090260681354 -3.0361182321895965
0000d0 c8 ed 83 3f d2 be 05 c0 77 be e0 9b 4d af f2 bf
       -2.7181744539391026 -1.1677986229878152
0000e0 2a 53 00 db ed c6 fe 3f d0 c6 34 35 d0 dd 00 40
       1.923566680406291 2.108307281182398
0000f0 06 93 27 1c f8 9e 14 c0 98 4d a8 0b 09 88 f1 3f
       -5.1552433394579165 1.0957117514961734
000100 45 23 90 01 b2 02 1f c0 35 54 ed d1 a8 77 f5 3f
       -7.752632164404365 1.3417137336994192
000110 c7 73 d6 6f cb 05 c8 3f d5 4d c6 f3 5d 5c fb bf
       0.18767683945489308 -1.7100505373426718
000120 f9 95 f4 78 3e a0 17 c0 c6 9d da e5 41 86 fc 3f
       -5.906488313606581 1.7827776888533307
000130 76 9b 3a c4 95 96 13 c0 67 ca 0a 5f d1 16 f4 3f
       -4.897055688931564 1.2555707657417317
000140 46 78 47 2f 01 c1 fa 3f 4f 80 f3 72 8a 85 13 c0
       1.6721202704279832 -4.880410953628668
000150 e0 d8 c4 ad 0b 19 fe 3f 78 bd 56 e7 7a 54 a9 bf
       1.8811146533822054 -0.04947265695534048
000160 08 af ef 17 91 27 06 c0 ab 1c a3 49 7d b5 d1 bf
       -2.7693197126408258 -0.2767022341835836
000170 13 ee 9b 42 ad 28 01 c0 10 88 a2 f0 90 4e 05 c0
       -2.1448617175899556 -2.6633623885727573
000180 ed e2 79 27 04 9d 03 40 a0 ec 07 f3 66 6b 11 c0
       2.4516680797645365 -4.35488490806452
000190 dc 26 c6 1c ec 8d d2 3f c4 dc a3 d2 b3 88 0d c0
       0.2899122506138221 -3.6917492347962213
0001a0 b4 c8 d9 35 0c 01 c9 3f d6 a2 97 47 6b 38 ee bf
       0.19534447316579462 -0.944387092427031
0001b0 39 f1 9e 15 4c 11 fb bf 71 1e 02 50 bf 82 f4 bf
       -1.6917229504170577 -1.2819207310984917
0001c0 54 6a 75 dd 1e 5e fe 3f b4 61 8e c4 7a 9f 14 c0
       1.8979786539772663 -5.155741759481703
0001d0 ee 32 a7 41 00 d8 02 40 b5 36 52 95 29 8a 0d c0
       2.3554692391538685 -3.692462126323188
0001e0 c4 bc 89 e5 75 3d d6 bf 42 e8 61 a9 20 4d 06 c0
       -0.3475012532789601 -2.787659953403847
0001f0 d0 c8 f5 59 61 17 fa bf 97 6d e2 3f 1a 4c 00 40
       -1.630708075911162 2.0371594420409553
000200 49 f5 28 f3 26 f0 0f c0 a4 65 c9 70 2d 1f f8 3f
       -3.992261790931171 1.5076116948824643
000210 d5 6a 2a 5f e8 f9 fc bf db e9 a9 57 37 4a 01 c0
       -1.8110126225862377 -2.1612383698204503
000220 1c ba 40 cd 3a 15 14 c0 5c de 88 6e 6b a7 10 c0
       -5.020732123447058 -4.163495757201954
000230 86 4d a6 28 d7 b1 10 c0 21 c6 30 e4 70 a9 f4 3f
       -4.173672328138656 1.2913674272243798
000240 6b 24 8e 3e 8c 06 b5 bf b9 8e 52 c5 aa d1 04 c0
       -0.08213116194942109 -2.6023765006846955
000250 30 86 83 3a 70 02 02 40 ec 26 be 50 8b 63 e9 bf
       2.2511906215084068 -0.7934013916976403
000260 3c 23 85 53 27 1e db bf d0 87 78 66 c8 bc 0f c0
       -0.42371543079621055 -3.967179108193683
000270 26 4a 87 36 25 d6 ee 3f f4 2e cc 16 5b a8 c8 bf
       0.9636407914170533 -0.1926378117863049
000280 ff 75 56 ec 54 00 f6 bf ab 70 24 42 58 0b fd bf
       -1.3750809890692606 -1.8152697166142768
000290 3b 08 e1 58 ec f6 cd bf 21 d8 64 f2 fb 83 0d 40
       -0.23409799899860836 3.6894453942322945
0002a0 3e 42 71 00 38 a0 04 c0 47 40 e5 e6 76 90 eb bf
       -2.578231814819701 -0.8613848218610735
0002b0 be 55 d6 e7 32 66 ed bf 6c 98 bb 82 13 66 05 c0
       -0.9187254455634315 -2.6748419011592457
0002c0 c6 04 df a5 7d 01 da bf f4 e7 10 04 70 e2 00 c0
       -0.4063409919581996 -2.1105652158412287
0002d0 1f b7 24 fb cd a1 95 3f 74 95 62 63 4c 93 fb bf
       0.02112504811628135 -1.7234615213613695
0002e0 80 48 07 7c 34 dc 00 c0 fe 88 a8 25 6a 06 0f c0
       -2.1075219812128694 -3.878132147031578
0002f0 40 62 9c 17 d6 f5 08 c0 40 2a c9 7a d7 34 0c 40
       -3.120037254772143 3.5258016197815607
000300 8b b8 36 66 1b 8d fb bf e9 04 fa 4c 02 01 f6 3f
       -1.7219499581074469 1.3752463347339534
000310 3f 1b 6a d4 93 63 f0 bf ce a7 6b 4f d4 a3 04 c0
       -1.0243109033051068 -2.5799947933892105
000320 00 8b c6 ed 5e ce 05 c0 46 ff 09 1a 21 b0 f6 3f
       -2.7257669998374467 1.418000318255467
000330 83 e4 f2 23 17 90 f8 3f 61 68 a9 1f c0 83 f7 3f
       1.5351783184289907 1.4696656452929562
000340 ce 2a 5d 1f 83 08 11 c0 74 fd fc 79 e9 f3 d8 bf
       -4.258312692700839 -0.38988720810808464
000350 14 24 2a 39 0e 7f 06 c0 4d 27 df bf ab 4f 0b c0
       -2.812038847540416 -3.413901804921727
000360 73 d5 14 44 d5 cd 01 c0 a9 8a 95 7b 23 11 0e c0
       -2.2255044287546126 -3.7583684592257964
000370 4c eb e9 1d 08 2c 14 c0 9c 63 70 02 63 b7 09 40
       -5.042999713327685 3.214544314436763
000380 ba 90 1c a5 12 e5 fe bf e9 f9 14 78 c0 60 00 c0
       -1.930925984351275 -2.0472421056176597
000390 78 23 fd 82 8c 6e 01 c0 8e 3a 29 46 66 cd fa bf
       -2.178978942251373 -1.6751463642755513
0003a0 56 5e bf 83 89 7e 06 c0 34 4d 73 c6 01 32 fe bf
       -2.81178572585831 -1.8872087242096542
0003b0 7a 9b 69 b6 fa 54 09 40 8b 2c 96 7f 64 f4 0c c0
       3.1664938212374496 -3.6193323104576556
0003c0 28 d0 87 b9 f7 ce 02 c0 92 0a ac 5d c8 7f 0c 40
       -2.351058434922397 3.5623938863876186
0003d0 fb 14 22 60 1c 4d f0 bf 8f 04 ae e8 2e 79 01 c0
       -1.0188258891296857 -2.1841715028863926
0003e0 c4 ea d4 d2 3e 09 e0 bf 5a 56 c5 18 fc 75 da bf
       -0.5011285894209654 -0.41345121783283434
0003f0 c0 1f 5c ed 35 92 00 40 f7 95 11 27 12 ed 0b c0
       2.0713919204463025 -3.490757279609848
000400 f8 46 99 23 83 ce 01 c0 fc 99 2f 3b b0 d7 f1 bf
       -2.2258360654021736 -1.1151583015395081
000410 ba 7f b4 1f 50 f8 00 40 14 31 c4 69 04 97 f7 3f
       2.121246574111834 1.4743694430827121
000420 a4 46 aa b4 10 73 04 c0 c3 7e 4c f9 8c 1e d4 bf
       -2.5561842073883145 -0.3143646654661831
000430 20 f6 d0 e3 79 7a e5 bf d9 09 e6 3e d1 a5 e3 bf
       -0.6712006997619859 -0.6139913776863138
000440 db fc dd 61 8b 5f 00 40 6b 7a 9d 5d 11 cb f8 bf
       2.0466525693769717 -1.549577108081986
000450 9b f3 73 42 d8 c8 fd bf ed 10 27 c4 df 9e f3 bf
       -1.861534366208821 -1.226287618847944
000460 b5 3a df 37 e9 13 f9 3f b5 b6 fc f3 72 8e 0b c0
       1.5673610861301033 -3.4445551930901623
000470 59 19 5f 95 59 c2 fa 3f 24 a1 a5 e2 d7 57 0f c0
       1.6724487147162874 -3.917892237357721
000480 44 e6 82 c0 5e 11 f9 3f 5d 41 93 35 c2 ed f0 bf
       1.5667407531713176 -1.0580465405256156
000490 75 c8 d1 1c 5b 0d f8 3f ed bf 80 bd b0 6e 0e c0
       1.5032607198486663 -3.8040480427662176
0004a0 ad 65 df 4d 48 d6 0c c0 ed 6b f1 3c f5 c7 00 c0
       -3.604630096797982 -2.0976357232261678
0004b0 c0 20 92 26 40 e2 b9 bf e9 2f 9f 94 f0 e6 02 c0
       -0.10110856000585766 -2.362763558490759
0004c0 6f 44 25 02 34 ff fa bf 38 0a 57 05 2f eb ed bf
       -1.6873054584323446 -0.93495894473046
0004d0 3f 37 5d 53 f9 84 10 40 a9 b3 d4 8a 2f 5e e9 bf
       4.129857351841394 -0.7927472793140754
0004e0 b7 8d c4 9c 28 d2 71 3f 5d a3 a4 04 d9 90 f2 bf
       0.004350813524328804 -1.1603632146236216
0004f0 0b 35 20 f8 9d 5f db bf 3c 17 1c f0 e7 52 00 c0
       -0.42771100264583656 -2.0404814489910716
000500 0e 03 f8 7f 54 f8 01 40 8a 62 1e 15 b5 54 06 c0
       2.2462549207269893 -2.791361012449049
000510 e7 67 b1 24 92 a2 00 40 0d 3c 15 d8 36 84 07 c0
       2.0793803087844824 -2.9395577317695882
000520 af ed 21 dd e5 e8 05 c0 08 90 61 7d 6d 08 e1 bf
       -2.738719680402674 -0.5322787712907493
000530 26 b8 19 f5 34 34 f5 bf 84 37 8e f0 d9 ac f7 3f
       -1.3252458166348418 1.4797000309658594
000540 74 c6 c8 c1 8e 05 04 c0 58 9c 73 ef 4b 3c 02 c0
       -2.502713693561242 -2.2794417102009383
000550 c1 9d 3e 3c 79 14 0a c0 6d 34 1e b4 b7 95 c7 3f
       -3.259996863041778 0.1842565183145867
000560 b3 27 6b eb 28 53 09 c0 55 f8 39 49 94 e9 01 c0
       -3.165605391700376 -2.2390523644271902
000570 f0 40 0f 82 78 9b f3 bf e4 51 38 3d 5a 3b f6 3f
       -1.2254567223026775 1.389490355625747
000580 8f 9b 90 f2 de 09 be bf 23 9e 7a 49 37 c0 01 c0
       -0.1173381178092383 -2.2188554516358336
000590 4e 43 53 cd a1 e9 eb 3f ac 24 13 12 a4 ed f1 3f
       0.8722695360430437 1.120517798046687
0005a0 54 28 28 84 4e b2 00 c0 a7 9a 2c 8d 24 cc 0b 40
       -2.087063820338736 3.474679091380796
0005b0 db 53 f9 58 7d 28 ea bf 8b a0 ce 68 53 10 08 c0
       -0.8174425828716453 -3.007971590810546
0005c0 8a 9a ac d9 cf 79 0b c0 8f f8 cc eb ed 15 ec bf
       -3.4344784742164096 -0.877676926181964
0005d0 9b 2a 33 59 6a 4e f5 bf 7e 17 b2 ef ad 9e 09 40
       -1.3316443905229451 3.202480194685392
0005e0 9f 7f bf 6b a6 f0 f8 bf b9 3c 51 95 d5 89 06 c0
       -1.5587524613292556 -2.8173019090096116
0005f0 ea 97 d8 31 71 73 02 c0 11 2d e4 f2 7d 0d 12 c0
       -2.306368245527655 -4.513175769020806
000600 af 83 45 ce d5 20 03 c0 c4 e3 38 99 2d e9 f3 bf
       -2.391032802101527 -1.2444282517665082
000610 ba 51 e0 5e 74 d6 14 c0 c6 00 c9 86 4f 08 ff bf
       -5.209428293649063 -1.939528967384875
000620 26 65 8b 6d 96 22 0e c0 37 ea c1 54 91 09 11 40
       -3.7668884809651386 4.259343456588389
000630 d1 a7 dc 5f bf 2f 00 c0 46 d8 a8 4d 83 d7 fd 3f
       -2.023314236565945 1.8651154550148177
000640 05 d8 56 39 3f d9 05 40 e7 6b c8 e5 18 4d 11 c0
       2.731077621424449 -4.325290289266355
000650 03 c1 9e 44 6d 5c 10 c0 5c 5b f4 0a 7d 60 f7 bf
       -4.0902605745216105 -1.4610567500983143
000660 f9 f6 a1 b6 92 5c 02 c0 9d 4f de 12 ee 6a d6 3f
       -2.2952017086198535 0.3502764877568952
000670 33 e9 4f 0a 55 64 f0 3f 00 c9 a6 c8 ba 06 f8 3f
       1.0244951632326547 1.5016429746579547
000680 29 18 df 0e ee 6c 03 c0 7a 92 55 36 45 32 a6 bf
       -2.4281884347756386 -0.04335228241214835
000690 a8 9e d6 f8 29 36 19 c0 25 b9 3c 1d 67 ff 1f c0
       -6.30289448556838 -7.999416786986591
0006a0 d4 16 3d 5f 19 45 04 40 ab f1 d6 ee b2 a9 03 40
       2.533739799548906 2.457860818800517
0006b0 b5 57 ec 9e 88 49 15 c0 34 cf db 5b 66 36 09 c0
       -5.321810229468544 -3.1515624214606763
0006c0 77 d0 21 f6 82 f4 15 c0 ab 80 40 78 c2 56 04 40
       -5.488780828298437 2.5423631090817103
0006d0 70 75 cc 11 92 7f 0b c0 2d a6 0e 9c 2c a3 22 c0
       -3.4372903242607933 -9.31869971922705
0006e0 f9 28 24 74 d3 c0 00 c0 97 3f fe f8 98 64 0c c0
       -2.0941533158812686 -3.549119897135778
0006f0 79 99 1f b2 1d 66 07 c0 0a 5c ff fd 4a 3f 09 40
       -2.9248613277333644 3.1559047549776595
000700 d9 f7 aa f6 fa a1 99 bf 89 9f f3 2d fb d2 e9 bf
       -0.02503196840802233 -0.8070045373433327
000710 fa ea a3 7d 1b 0a 06 c0 fe 37 7b 57 53 de 02 c0
       -2.7549352470062987 -2.358557399223172
000720 bc 98 df e7 81 b5 ea 3f a7 17 55 32 bb 79 f4 3f
       0.8346566704538172 1.2797195402249402
000730 53 16 6a f6 8f e3 f6 bf 9f 1d 4c d5 ad 3c 0d c0
       -1.4305572152674315 -3.6546284355024024
000740 df fa b9 e1 d7 e7 cc 3f bf df 6a df c2 9c 03 c0
       0.22582529565621365 -2.4515435652246818
000750 99 6e 27 c1 12 01 02 40 64 a4 0b 01 0c 7f fb bf
       2.2505240526350687 -1.7185173073615028
000760 df ef 56 1c 1a 4c b9 3f b1 3f 8e c3 4d 08 f6 3f
       0.09881747428784092 1.3770272864239639
000770 62 58 0a ae c5 37 02 c0 05 23 92 f1 04 01 06 c0
       -2.277232513132774 -2.7504977104875956
000780 dc 22 27 02 4d 37 fe bf 70 2c bc fe 94 4e 13 c0
       -1.88850117531745 -4.8267402460434
000790 31 bb 8a 02 3a 68 06 c0 98 70 3a 2a 9e 2c f4 3f
       -2.800891895159474 1.260893025354596
0007a0 31 ec b0 49 25 b7 11 c0 14 3b 43 3d ab 64 fb 3f
       -4.428853179381847 1.7120773690291502
0007b0 ca 89 f5 23 ca ae ef bf 50 31 87 0b 72 85 01 c0
       -0.9900866224600631 -2.1901589298851505
0007c0 9c fc ef 91 59 77 e8 3f cd f6 b7 11 85 d5 11 c0
       0.7645690775242602 -4.458515431264186
0007d0 a9 c9 1d 30 b2 0b 0d c0 5e b4 1f de 6c 64 ea bf
       -3.6307109603014465 -0.8247589434009901
0007e0 76 cd db 9c 6f e3 e3 3f 72 4e 31 09 58 4f f5 bf
       0.6215131820339781 -1.3318710669599594
0007f0 03 b8 9b a8 46 e8 f1 3f f4 c3 d7 08 41 53 eb bf
       1.1192080103169253 -0.8539128468238446

bias_2 f8 [1, 10]
000000 5c b3 b0 8e 6c 17 ea bf 46 34 7e bf 97 13 b7 bf
       -0.8153593813818634 -0.09014271187898357
000010 23 c6 81 a0 a5 10 ca bf 1e b8 c4 c7 fa b2 af 3f
       -0.20363302552463933 0.061912381063266006
000020 fb e2 bb 9c fe 33 d6 bf 00 c9 2f 83 e5 95 79 3f
       -0.34692349725769106 0.006246468098640046
000030 e3 8c 3a 2f b6 a3 d9 bf b1 79 e6 c8 21 70 d6 bf
       -0.4006171666353124 -0.35059399241608974
000040 8e f3 98 fe 65 56 eb 3f fc 58 2b 71 fd 53 e4 3f
       0.8542966816527142 0.6352526865328225

loss_history f4 [75]
000000 08 00 23 3f cc 0b 9d 3e a6 ae 7e 3e 92 57 60 3e
       0.6367192 0.30673063 0.2487131 0.21908405
000010 4f a6 4d 3e 16 c9 41 3e a1 0b 35 3e 25 71 30 3e
       0.20082973 0.18924364 0.17680217 0.17230661
000020 d4 f6 28 3e 60 b4 25 3e af 0f 26 3e 18 76 1e 3e
       0.16500407 0.16182089 0.1621692 0.15474737
000030 a9 8f 20 3e 89 cc 16 3e 38 d6 19 3e a3 87 20 3e
       0.15679802 0.14726461 0.15023124 0.15676741
000040 0e fc 19 3e b2 40 1b 3e 81 18 16 3e 31 ba 13 3e
       0.15037557 0.15161398 0.14657785 0.14426495
000050 67 ed 18 3e 31 a7 17 3e 1e 79 1b 3e 31 e3 1a 3e
       0.14934312 0.14809872 0.15182921 0.15125729
000060 ea b8 14 3e 7a e0 15 3e a5 d1 0e 3e 33 2d 19 3e
       0.14523664 0.14636412 0.1394716 0.14958648
000070 16 20 16 3e 2e 81 16 3e d1 4f 1c 3e ec 0c 1a 3e
       0.14660677 0.14697716 0.15264823 0.15043992
000080 f9 83 19 3e 21 6a 25 3e fd af 1e 3e 40 dd 29 3e
       0.1499175 0.16153766 0.15496822 0.16588306
000090 97 a0 21 3e a0 84 24 3e 09 8b 1e 3e 36 8b 25 3e
       0.15783916 0.16066217 0.15482725 0.16166386
0000a0 a9 56 23 3e eb 31 2d 3e e3 c4 27 3e 7f 83 26 3e
       0.15951027 0.16913573 0.163837 0.162611
0000b0 41 55 2e 3e f6 c5 2c 3e 1e 2e 26 3e 71 2d 33 3e
       0.1702471 0.16872391 0.1622853 0.17497803
0000c0 be c8 36 3e c8 7f 31 3e b9 dc 33 3e ef 07 2d 3e
       0.17850015 0.17333901 0.17564668 0.16897558
0000d0 46 16 35 3e cb 57 36 3e 7c 41 31 3e 4b 6d 41 3e
       0.17684278 0.17806928 0.17310137 0.18889348
0000e0 bf 02 3d 3e 2f 91 33 3e 88 83 39 3e e1 47 3d 3e
       0.18458079 0.17535852 0.18116581 0.18484451
0000f0 66 71 33 3e ca cb 3f 3e 18 9e 3c 3e 74 53 4c 3e
       0.17523727 0.18730083 0.18419683 0.1995371
000100 6a 1a 40 3e 9a d8 3d 3e 68 fe 43 3e 88 d8 4e 3e
       0.18760076 0.18539658 0.19140017 0.20199788
000110 18 a2 42 3e 0a 2f 4e 3e be 8c 3e 3e 02 65 4e 3e
       0.19007146 0.20135131 0.18608376 0.20155719
000120 dc a0 55 3e a2 74 4a 3e de 59 53 3e
       0.20862144 0.19771054 0.2063975

accuracy_history f4 [75]
000000 8c a5 a0 42 fd 22 b6 42 ef ae b9 42 e5 57 bb 42
       80.32333 91.06834 92.84167 93.67167
000010 55 55 bc 42 0a 17 bd 42 1b e8 bd 42 29 1c be 42
       94.166664 94.545 94.95333 95.055
000020 89 88 be 42 3a ed be 42 1f c5 be 42 29 1c bf 42
       95.26667 95.46333 95.385 95.555
000030 cd 4c bf 42 5c cf bf 42 41 a7 bf 42 89 88 bf 42
       95.65 95.905 95.82667 95.76667
000040 52 b8 bf 42 52 b8 bf 42 1b e8 bf 42 a7 0d c0 42
       95.86 95.86 95.95333 96.026665
000050 44 c4 bf 42 85 eb bf 42 cd 8c bf 42 0e f4 bf 42
       95.88333 95.96 95.775 95.97667
000060 f6 28 c0 42 07 fa bf 42 0a 57 c0 42 b1 e4 bf 42
       96.08 95.988335 96.17 95.94666
000070 2c 39 c0 42 7e f1 bf 42 f6 e8 bf 42 11 11 c0 42
       96.111664 95.971664 95.955 96.03333
000080 33 f3 bf 42 4b be bf 42 85 eb bf 42 6a 83 bf 42
       95.975 95.871666 95.96 95.75667
000090 9a d9 bf 42 b5 c1 bf 42 e5 d7 bf 42 b5 c1 bf 42
       95.925 95.878334 95.92167 95.878334
0000a0 7b 94 bf 42 66 66 bf 42 bc 7b bf 42 74 9a bf 42
       95.79 95.7 95.74167 95.80167
0000b0 a4 70 bf 42 e5 57 bf 42 4b 7e bf 42 c9 2f bf 42
       95.72 95.67167 95.746666 95.59333
0000c0 11 11 bf 42 26 3f bf 42 03 1d bf 42 7e 31 bf 42
       95.53333 95.62334 95.55666 95.596664
0000d0 8f 02 bf 42 4f 1b bf 42 da 40 bf 42 6a c3 be 42
       95.505 95.55334 95.62666 95.38167
0000e0 8c e5 be 42 cd 4c bf 42 66 e6 be 42 f6 e8 be 42
       95.44833 95.65 95.45 95.455
0000f0 77 f7 be 42 03 dd be 42 8c a5 be 42 b5 81 be 42
       95.48333 95.43166 95.32333 95.253334
000100 9d 76 be 42 c9 2f bf 42 89 c8 be 42 41 e7 bd 42
       95.23167 95.59333 95.39167 94.95167
000110 3a 6d be 42 18 0b be 42 0a d7 be 42 52 78 be 42
       95.21333 95.02167 95.42 95.235
000120 66 e6 bd 42 77 37 be 42 60 ec bd 42
       94.95 95.10833 94.96167

val_loss_history f4 [15]
000000 01 d0 de 3d 1e 1f 00 3e 15 26 7f 3e ee 55 df 3d
       0.10879517 0.1251187 0.24916871 0.10905062
000010 14 be 31 3e b4 78 42 3e 3b ab 66 3e 1c 85 62 3e
       0.17357665 0.18991357 0.22526257 0.2212109
000020 94 9a 91 3e 2c 64 0f 3e 41 2e 08 3e 25 33 80 3e
       0.28438246 0.14003056 0.13298894 0.2503902
000030 71 37 be 3e 9d 7b 9e 3e fe e0 8d 3e
       0.37151673 0.30953684 0.27710718

val_accuracy_history f4 [15]
000000 66 66 c1 42 66 66 c1 42 66 66 c0 42 33 33 c3 42
       96.7 96.7 96.2 97.6
000010 cd cc c0 42 9a 99 c0 42 cd cc c2 42 33 33 c2 42
       96.4 96.3 97.4 97.1
000020 66 66 c0 42 cd cc c2 42 00 00 c2 42 9a 99 c0 42
       96.2 97.4 97.0 96.3
000030 cd cc be 42 33 33 c0 42 33 33 bf 42
       95.4 96.1 95.6
