checkpoints/model_epoch_0125.npz (npz, 385241 bytes, 10 tensors)

weight_0 f8 [784, 64]
0	0x0000000021e5124b	2.809556444e-315
1	0x000000000e517a7f	1.18684844e-315
2	0x000000000dfdcc53	1.159753507e-315
3	0x000000001a30b44e	2.170921987e-315
4	0x00000000046e4c3d	3.67275264e-316
5	0x800000001dd10811	-2.47150585e-315
6	0x800000000becabc0	-9.8842694e-316
7	0x800000001f76a1b5	-2.60801613e-315
8	0x0000000003b9a6e1	3.0878376e-316
9	0x8000000021b1a0d8	-2.79289962e-315
10	0x0000000021f24b73	2.813838017e-315
11	0x8000000002f0601f	-2.43612303e-316
12	0x0000000020091a8d	2.65544244e-315
13	0x0000000004f44bed	4.10662844e-316
14	0x80000000211ab90c	-2.74403781e-315
15	0x800000000892c33d	-7.1064409e-316
16	0x0000000017ce89d0	1.973355817e-315
17	0x800000000e67289f	-1.193868285e-315
18	0x0000000013192721	1.583063013e-315
19	0x000000000296f08b	2.1465379e-316
20	0x00000000123ad668	1.511079343e-315
21	0x80000000144d3b11	-1.682815816e-315
22	0x0000000014272a71	1.670490736e-315
23	0x0000000011cf7497	1.47631e-315
24	0x0000000004729421	3.68661355e-316
25	0x00000000179248c1	1.95384608e-315
26	0x800000000f808609	-1.28497167e-315
27	0x80000000069c7e1f	-5.48013657e-316
28	0x00000000000a7e2f	3.397507e-318
29	0x0000000002ac3580	2.21540617e-316
30	0x0000000021c1d819	2.79815016e-315
31	0x000000000a95c65f	8.77400346e-316
32	0x80000000038b6b22	-2.93813814e-316
33	0x0000000008e2cbd6	7.36558233e-316
34	0x00000000031154aa	2.5428291e-316
35	0x800000001ccbff8e	-2.38698567e-315
36	0x00000000074233f5	6.01669137e-316
37	0x800000000da35b27	-1.13046919e-315
38	0x800000001897fefd	-2.038585985e-315
39	0x0000000021d3d773	2.803977573e-315
40	0x800000000dea8b61	-1.153519337e-315
41	0x800000001b04ec79	-2.23963669e-315
42	0x800000000cc1ee70	-1.05747874e-315
43	0x000000000d57c830	1.10599899e-315
44	0x000000001e827b68	2.528962715e-315
45	0x800000000ef36c45	-1.23928457e-315
46	0x000000001e902aa3	2.53339363e-315
47	0x000000001563665d	1.772884437e-315
48	0x800000000b8422fa	-9.545797e-316
49	0x000000001509ac11	1.74383142e-315
50	0x800000001fe3afd2	-2.643327183e-315
51	0x800000000a8e417f	-8.7496575e-316
52	0x8000000021e469ef	-2.8093435e-315
53	0x80000000038bd9b6	-2.93953674e-316
54	0x00000000014591d5	1.0541648e-316
55	0x800000000e5c07b8	-1.19026497e-315
56	0x800000000a989782	-8.78312445e-316
57	0x000000001411b151	1.66353793e-315
58	0x0000000022da9825	2.8890545e-315
59	0x80000000238323f8	-2.943628217e-315
60	0x80000000017c029f	-1.23043843e-316
61	0x8000000018ad7810	-2.04553873e-315
62	0x000000000218bc58	1.7379012e-316
63	0x800000000d2617f7	-1.08991035e-315
64	0x8000000008a717a4	-7.1722666e-316
65	0x000000001114eb6e	1.41591142e-315
66	0x80000000122bdd0c	-1.50623088e-315
67	0x8000000008aef116	-7.1976822e-316
68	0x800000001b52e4cb	-2.264882666e-315
69	0x800000001f882b34	-2.61369448e-315
70	0x800000000334a2a0	-2.65714196e-316
71	0x000000000a839c20	8.71518677e-316
72	0x000000000b8871f6	9.5597476e-316
73	0x800000001a9037b9	-2.20184834e-315
74	0x000000001c38b137	2.339289327e-315
75	0x8000000021465ed4	-2.7581705e-315
76	0x80000000230ae726	-2.904696387e-315
77	0x00000000162ba722	1.83772453e-315
78	0x80000000013bff53	-1.0231706e-316
79	0x000000001eee93af	2.563962834e-315
80	0x0000000005fc35b7	4.9611554e-316
81	0x0000000016856a53	1.866788797e-315
82	0x800000001004dbd7	-1.32782059e-315
83	0x000000002218d5e7	2.826317186e-315
84	0x800000001ebd1e2e	-2.54794846e-315
85	0x800000000181da45	-1.2493555e-316
86	0x8000000015e8c04f	-1.816062386e-315
87	0x8000000006659242	-5.3023063e-316
88	0x000000000d7802e7	1.11643456e-315
89	0x000000000ec6fd43	1.224897366e-315
90	0x8000000010a893d8	-1.38083123e-315
91	0x80000000025535d0	-1.93371207e-316
92	0x000000000837150b	6.80958797e-316
93	0x800000001496df26	-1.70666008e-315
94	0x000000001bb18f69	2.295534805e-315
95	0x000000001f124a93	2.575526836e-315
96	0x80000000215a3899	-2.76459796e-315
97	0x00000000026ac360	2.00349864e-316
98	0x800000002112ccb9	-2.74147237e-315
99	0x8000000014f5a941	-1.737352047e-315
100	0x8000000008629596	-6.95044387e-316
101	0x800000000aa3e348	-8.81969983e-316
102	0x00000000159f4de4	1.792280936e-315
103	0x800000000b2973b2	-9.25216824e-316
104	0x8000000000e49f48	-7.4025777e-317
105	0x000000001d86d147	2.44747603e-315
106	0x800000001e36d0d5	-2.504462657e-315
107	0x00000000151c2619	1.749814003e-315
108	0x800000001f613320	-2.601076655e-315
109	0x000000001521af66	1.751606616e-315
110	0x00000000128b9b33	1.537231518e-315
111	0x0000000011128172	1.41512979e-315
112	0x8000000016ce8a61	-1.890466073e-315
113	0x00000000162b90d7	1.837696335e-315
114	0x80000000220327b5	-2.819297254e-315
115	0x80000000016cb256	-1.18085434e-316
116	0x800000001e96bbe1	-2.53552008e-315
117	0x00000000242b4c06	2.998075743e-315
118	0x00000000219201f2	2.782661126e-315
119	0x000000001ea488f3	2.539988733e-315
120	0x00000000040da57c	3.3598043e-316
121	0x800000001fc130e6	-2.63215776e-315
122	0x000000000f8f5145	1.28976179e-315
123	0x000000001766e5a2	1.939797703e-315
124	0x000000001afd8b65	2.23724737e-315
125	0x8000000020c99aef	-2.717772663e-315
126	0x0000000012872d86	1.535797635e-315
127	0x80000000148d5759	-1.7035742e-315
128	0x0000000010ff8c68	1.408991626e-315
129	0x8000000004592c21	-3.60435044e-316
130	0x000000000ee14402	1.23340541e-315
131	0x0000000006fe166d	5.79614007e-316
132	0x0000000001ed93d7	1.59815884e-316
133	0x8000000008d08adf	-7.3064783e-316
134	0x0000000021a788f0	2.789631473e-315
135	0x800000001dc893ef	-2.468768637e-315
136	0x80000000097d745f	-7.8663519e-316
137	0x000000000a578ebb	8.57254937e-316
138	0x8000000001826021	-1.25104857e-316
139	0x800000000204322c	-1.6713954e-316
140	0x800000000a8946c2	-8.7335345e-316
141	0x0000000009c9f39f	8.1140424e-316
142	0x800000000534cb90	-4.31546895e-316
143	0x000000001400590c	1.65792184e-315
144	0x0000000021377f19	2.75335445e-315
145	0x800000001eb2882e	-2.54452083e-315
146	0x000000001b1efb0a	2.24807368e-315
147	0x000000001d41ab77	2.425086633e-315
148	0x800000000dcaa633	-1.14319195e-315
149	0x0000000000c70166	6.443615e-317
150	0x800000001e0d535d	-2.491028537e-315
151	0x000000000d94131f	1.12552122e-315
152	0x000000000ba00279	9.6360473e-316
153	0x8000000013752abb	-1.61285633e-315
154	0x00000000211dd2a5	2.74504156e-315
155	0x000000000b300a47	9.27350027e-316
156	0x8000000011c4ae49	-1.472821276e-315
157	0x800000000690a494	-5.44176807e-316
158	0x00000000042fa415	3.46987545e-316
159	0x8000000012b57380	-1.55078052e-315
160	0x8000000001dd722f	-1.5459266e-316
161	0x800000000fac1115	-1.29907054e-315
162	0x800000002042b4ed	-2.67409377e-315
163	0x800000001d7f72a6	-2.445089805e-315
164	0x0000000019638476	2.10448435e-315
165	0x800000001449ad1c	-1.681664895e-315
166	0x00000000026701a0	1.99133435e-316
167	0x8000000010b83c59	-1.385901216e-315
168	0x00000000147c9c74	1.69815716e-315
169	0x000000001ed384bb	2.55520157e-315
170	0x000000000d66a858	1.11081558e-315
171	0x8000000002c7ef73	-2.3051816e-316
172	0x80000000228f53d8	-2.8646838e-315
173	0x800000001481d3d8	-1.699846175e-315
174	0x00000000069dbdbd	5.4841791e-316
175	0x00000000072c875d	5.9465123e-316
176	0x800000000def0b57	-1.154976346e-315
177	0x800000000e5ace68	-1.18986869e-315
178	0x800000000bfcf233	-9.936967e-316
179	0x8000000008662c43	-6.96206335e-316
180	0x800000001e874e50	-2.530524634e-315
181	0x800000001c29567f	-2.334317723e-315
182	0x800000000d64ff66	-1.110278104e-315
183	0x800000000478c552	-3.7066632e-316
184	0x00000000000a7251	3.382497e-318
185	0x8000000011f246aa	-1.487584595e-315
186	0x800000000fb04cb1	-1.3004411e-315
187	0x80000000004a053d	-2.396715e-317
188	0x80000000206fefc4	-2.68873878e-315
189	0x00000000044e1790	3.5684733e-316
190	0x00000000091619f7	7.53170385e-316
191	0x00000000029214d7	2.13080745e-316
192	0x8000000022f6b1ff	-2.898153343e-315
193	0x800000001947cdef	-2.09551113e-315
194	0x800000000fde5c1d	-1.315354986e-315
195	0x800000001fab98d9	-2.62516584e-315
196	0x80000000020cbbea	-1.69904087e-316
197	0x800000001846c5a6	-2.0122864e-315
198	0x800000001b8bc85f	-2.283302797e-315
199	0x80000000158e9f3d	-1.78687938e-315
200	0x000000000807511f	6.65492823e-316
201	0x800000000c3e9bc2	-1.014957564e-315
202	0x8000000000961ec0	-4.860752e-317
203	0x000000001a5121d8	2.18142184e-315
204	0x000000001f2bc9da	2.58378259e-315
205	0x00000000054472aa	4.3661511e-316
206	0x800000000f69db83	-1.27763259e-315
207	0x000000001555cbf1	1.76847984e-315
208	0x0000000015f5ce56	1.82028941e-315
209	0x8000000017c1fa01	-1.969288437e-315
210	0x8000000018a197c0	-2.041693317e-315
211	0x0000000022f5068e	2.89761271e-315
212	0x000000001a5e2080	2.18562942e-315
213	0x8000000014165a41	-1.665046765e-315
214	0x800000001a8b19c1	-2.20019148e-315
215	0x000000001cdc6e7a	2.39230662e-315
216	0x8000000011e117e1	-1.482020976e-315
217	0x000000000e57723e	1.18878075e-315
218	0x000000001d52bb48	2.43061108e-315
219	0x0000000001fec17f	1.65378075e-316
220	0x00000000220d47de	2.82257584e-315
221	0x000000001c79fb75	2.360429636e-315
222	0x8000000000c84b3a	-6.485332e-317
223	0x800000000da0a0df	-1.129585997e-315
224	0x000000001caea4a1	2.37748073e-315
225	0x800000000c1f0881	-1.0047338e-315
226	0x800000000446b5b9	-3.54457047e-316
227	0x0000000005d85052	4.8449272e-316
228	0x8000000000f31c19	-7.8716718e-317
229	0x00000000194fa7ec	2.09805338e-315
230	0x800000002122c52d	-2.74664348e-315
231	0x8000000008eff831	-7.40823615e-316
232	0x800000000131e5f0	-9.904704e-317
233	0x00000000046a4f3a	3.6598388e-316
234	0x0000000011a9e6fa	1.464150627e-315
235	0x000000001ecade54	2.552400774e-315
236	0x800000001cee99e7	-2.39818978e-315
237	0x800000001200c73e	-1.492280294e-315
238	0x0000000007065252	5.8228009e-316
239	0x800000000aefc319	-9.06537383e-316
240	0x00000000026b1afa	2.00460664e-316
241	0x00000000229e9572	2.869623636e-315
242	0x0000000010ed19a7	1.40301825e-315
243	0x800000001a51f661	-2.181690657e-315
244	0x00000000187a4fe7	2.0289746e-315
245	0x000000000e38e91a	1.178893565e-315
246	0x000000001d7beded	2.443950563e-315
247	0x0000000007237b90	5.91722187e-316
248	0x000000000f8d95ee	1.289201053e-315
249	0x800000000de11c28	-1.150464544e-315
250	0x0000000015832e3c	1.783174753e-315
251	0x8000000018db2edf	-2.060340536e-315
252	0x800000000ef995ce	-1.241279847e-315
253	0x00000000036aa06e	2.83196126e-316
254	0x000000001e06d1c0	2.488921856e-315
255	0x000000000cc9e74a	1.060060026e-315

bias_0 f8 [1, 64]
0	0xbfc0498edf0d0040	-0.12724481478835692
1	0xbfdb84a1cb776dd0	-0.429970215509198
2	0xbf9ec54f6ff0a6f1	-0.030049554068830756
3	0xbf942589b3693524	-0.01967444570100442
4	0xbfd0efa1a5f47a1e	-0.2646259422926124
5	0xbfe6e995c861be66	-0.7160138047892814
6	0xbfab6f8090c5f608	-0.053585069344062985
7	0xbfe2c34ee7107888	-0.5863413346267103
8	0xbfdce4680ef03166	-0.4514408250695595
9	0x3fa2758925c42827	0.03605297647489208
10	0x3fd5fc07d321a064	0.34350772493644954
11	0xbfca214df9885078	-0.20414137539103527
12	0xbfe42d2ac190779b	-0.6305135517647956
13	0xbfc50379385a8902	-0.16416850330012528
14	0xbfe3ada89ac2ef91	-0.6149485609707758
15	0xbfe6a65350bec563	-0.7078033997587848
16	0x3fd31849314c99c3	0.29835729421975205
17	0xbfdc38a27863308e	-0.4409567046793733
18	0xbfd6dfffb1ae2b1d	-0.3574218020591376
19	0x3f8982f7bffef2c2	0.012456832453488945
20	0xbfd8c064ed4214c3	-0.386742812821762
21	0x3fdc9cdb7d7166e7	0.447073814871699
22	0xbfd06d126796d8c3	-0.2566572200406762
23	0xbfe29e7e0525f73f	-0.5818472004463969
24	0x3fd7fe3d8abc6950	0.3748926024287771
25	0xbfc05d658a7230ea	-0.12785023937283962
26	0xbfb95b855df9ffb3	-0.0990527491030651
27	0x3fd632d45b6c5fd6	0.34685238769588744
28	0x3fd890931f7987b1	0.38382413934425147
29	0xbfc73a5a2e394090	-0.18146826989186993
30	0x3f9e2f0b450e0bc5	0.029476333703779795
31	0xbfced4b606c6e4c6	-0.2408664258089514
32	0xbfe2d99243f31934	-0.5890590026035967
33	0x3f947cdc2baf525f	0.02000755325919312
34	0xbfd05aa0e0e01d51	-0.25553152046673683
35	0xbfe591f878ef35b5	-0.6740686761856326
36	0xbfc64b1f0206a4cc	-0.17416751479075854
37	0xbfd8edea492ebc6b	-0.3895211901353323
38	0xbfd65ba16194c3f7	-0.3493426754894808
39	0x3fada9f62208b7c7	0.057937328009174
40	0xbfc5d7d497d124f7	-0.17064912236154559
41	0xbfbfea0972cf3087	-0.12466486981355916
42	0xbf416dc5cf6479a2	-0.00053188475320436
43	0xbfcb08d5448771c1	-0.2112070641150137
44	0xbfe4562d48e751ac	-0.6355196403406373
45	0xbf9a2ffadaa6f26e	-0.025573653789012267
46	0x3fa45a3e813b2fb7	0.039751008296291905
47	0x3fca6e49ff2573ea	0.2064907546836417
48	0xbfe9339e566749fa	-0.7875510871475051
49	0xbfde9934a754b246	-0.4781009325113569
50	0xbfddd86e79b643cf	-0.46633493314680846
51	0x3fd018d81c5fd3f2	0.25151636858873794
52	0xbfbbb7602da3f645	-0.10826684107083746
53	0x3fccccd21758b127	0.22500063075984508
54	0xbfd6341cf411ba05	-0.3469307311524122
55	0xbfe9ea7e10e5637f	-0.8098745660782781
56	0xbfe379be2bf084d2	-0.6086111887163048
57	0x3fcc7fdfb9dd5290	0.22265240264336628
58	0xbfe385febcf20601	-0.610106820138924
59	0xbfe100912fa38e9b	-0.5313192301222956
60	0x3f9906ad5b8a16c6	0.024439533912775223
61	0x3fa49ede8adcac87	0.04027457661717287
62	0x3fc7e3287367045f	0.18661981234439204
63	0xbfd355816fcfe7ec	-0.3020938484111173

weight_1 f8 [64, 32]
0	0xc0166f852be328b4	-5.608906446208653
1	0x3fe3e972d36b44b2	0.6222471360471415
2	0xc01fac6b1a08e565	-7.9183773105554325
3	0xbff456fdf04f1ff1	-1.2712382685731394
4	0xc017531d07f8e8db	-5.831165432517277
5	0xbffbda007fef9d8b	-1.740723132848731
6	0xc00a1d0af63ea358	-3.2641810644021625
7	0x3ffa71485112708f	1.6526568571926281
8	0xbffef14505579c03	-1.9339037140541684
9	0xc00ea863bfd96aab	-3.8322215069032004
10	0x3fc88af66369b1a9	0.19174079755920317
11	0xbfc12dee2bc456d0	-0.1342141832071122
12	0x3ff64968071eb6f0	1.3929214742778946
13	0x3ff14b1dfbb7bb5b	1.080839141151691
14	0x3fe390db3f24f7ec	0.6114326699532717
15	0x3fe6881b08863622	0.7041144529809495
16	0xbffd85e126c98c6b	-1.8451854243401395
17	0xc0162ab0f2e636ba	-5.541690631199964
18	0x3ff0d20cb3b75429	1.0512816448365447
19	0xc0014d207d25694e	-2.162659623817638
20	0xbff45d69160965c7	-1.2728052960213618
21	0xbff6cc1e9d1a361b	-1.4248338829814944
22	0xc01397612bdc22c3	-4.897831616698286
23	0x3ff2966178a8b256	1.1617140496483862
24	0xc0133fafc7e598f2	-4.812193988216892
25	0x3ff4102088e4ad13	1.2539372775452804
26	0xbfd341d1102b4f45	-0.300892129698003
27	0x3fe90527310f2ae7	0.781879039591641
28	0xbffcfdb6af351679	-1.811941799548917
29	0xc015344aaea3ac7d	-5.301066139926772
30	0x3fa58ff090aa6a13	0.042113797816643615
31	0xbfe28b41b4c1a066	-0.5794991045377287
32	0x3fd3f1559e264097	0.3116048855236015
33	0xc003ac1c32b2000d	-2.459038158471236
34	0xc0054fce889bb60c	-2.6639681503791106
35	0xc00aa28b9783ab15	-3.3293678128296826
36	0x3fb22848e6ff6fd8	0.07092719688029037
37	0xc014acd4a0b875e4	-5.168779860743118
38	0x3fcca87c17c1dfb0	0.22389174613976826
39	0xc00702863030bbe3	-2.8762325062630096
40	0x3fc11484f019058c	0.1334386989929438
41	0x3fc9727c5ec004b6	0.19880632997959474
42	0xbfce9ac8f7d6b626	-0.2390986642980561
43	0xc021532ccbf5568c	-8.66245114679193
44	0xc00ac0778deea4b2	-3.343978031964604
45	0x3fe2d4176af3c005	0.5883900727185397
46	0x3fb80f64b1417336	0.09398488357096543
47	0xbfb805a791aaada0	-0.09383628183666426
48	0x3fc2e2f3d7d10512	0.14755104101099242
49	0xbffd450c567eae80	-1.829357469435223
50	0xc0142261ca0efbd2	-5.033576161541491
51	0xc011550523c20694	-4.333027418820752
52	0x3fe0a4921a069788	0.5200891979518341
53	0xbffb91a5b2b1f6cc	-1.723058412578598
54	0xbfb9505b0d619a3e	-0.09888238026324189
55	0xc0107849d0a4fa84	-4.117469081944936
56	0x3fd75dc9867a74e7	0.3650993169083691
57	0xc00bf62abff29f86	-3.495198726264735
58	0xbfe414ad271bcb2a	-0.6275239719237551
59	0xc011ca7145450865	-4.447697717989375
60	0xbff9205506342244	-1.5703935854272837
61	0xc000918ef082619d	-2.071073416689798
62	0xc0030534b934d51f	-2.377541968273945
63	0xbfd869adfc9d011f	-0.381450173084902
64	0xc011652f7a47fe2e	-4.348813925403688
65	0x3fc7ad816d037965	0.1849824697773769
66	0xc0156bc5937e7bc2	-5.355245880694328
67	0x3ff09e77e431b693	1.0386885560832624
68	0xc01074eade81a844	-4.114177204764989
69	0xc00b5ba7eb9a483d	-3.4197538763483224
70	0x3fe3c6ebb3fa22fa	0.6180323138406429
71	0x3fd511f68cc81d31	0.32922137973988
72	0xbfc10b7f58f69a10	-0.1331633743659073
73	0xbfd4397c8086b1df	-0.316008687509365
74	0xc00a675c134154bf	-3.3004685882866336
75	0x3fbda4cab356d725	0.11579577330016073
76	0x3fe822e0c3036c0e	0.7542575653891406
77	0x3fd4d73e1ef5c15b	0.3256373693793841
78	0xc0160cc256d14f9f	-5.512460094952899
79	0xc0029b2b49136226	-2.3257661541977255
80	0xbff9090b59afbb12	-1.564708090150536
81	0xbff6cc1e44965c94	-1.4248335532372822
82	0x3ff293d539d221d6	1.161092019903767
83	0x3fe95042d74732ca	0.791047497239185
84	0xbfe5e2d81fb66421	-0.6839409465202416
85	0x3fe2402cb07ff556	0.5703338095915267
86	0xbfe1b154e21c8925	-0.5528969207992175
87	0xc0069598701c74dc	-2.823044658535407
88	0x3fd3642c34ae017a	0.30298905510428364
89	0xc0017cc0e2555d30	-2.1859147722531347
90	0xbffc533a2b25c34c	-1.7703191457223566
91	0xbffdc6ed460898de	-1.861066125458414
92	0xc015bc59a4f3060f	-5.433935715992916
93	0xc004e44b8e16c141	-2.6114722347921604
94	0xc0114ace49ce7b78	-4.323052552440338
95	0xbfb4ede6e145431b	-0.0817550945259992
96	0xc0150b4102d16be0	-5.260990184814517
97	0xc004e7af63892504	-2.6131274963596542
98	0xc0201c824245a8a1	-8.05568129635168
99	0xbff623b052e5d8b0	-1.3837130773731978
100	0xbff1bd08784e7d21	-1.1086506556965292
101	0xc016e248aa5f833e	-5.720980321960097
102	0xc007b010a0446b53	-2.9609692116622823
103	0xc00f1fd495c8ef53	-3.8905421926446393
104	0xbfd8c95120f788aa	-0.3872874090140025
105	0xbff9b7f04237c065	-1.607406862891389
106	0x3ff037752f7b4635	1.01353949115254
107	0xc01902a48e8c2ef6	-6.252580859476202
108	0xc00b50211c37da0f	-3.4141256527466406
109	0xc01484ec0effd6b0	-5.129806742062712
110	0x3fe3bea2ffeea2c9	0.6170210837054465
111	0xbfde21f68d876650	-0.4708229429357731
112	0x3ff225a4ac27a17e	1.1341902470395264
113	0xc0127c2b300ce711	-4.6212584979891895
114	0xbfe95cc0e1d22919	-0.7925724421086527
115	0xbfc5186bbc38ce16	-0.16480776491663168
116	0xc00d3e2e2cffb735	-3.6553615108049606
117	0x400505127b544694	2.6274766573995496
118	0xbff815242ba3aea3	-1.5051614479697626
119	0xbfc092ffa23de508	-0.1294860403247997
120	0xc001925536b1614b	-2.19645159462758
121	0xc0052c65e8a93457	-2.6466787506711102
122	0xc006362b97ee6d28	-2.7764503354680024
123	0xbffb36a88b267d5e	-1.7008443294106068
124	0x3fe6e3b9ee0d2385	0.7152986192169101
125	0xc0124a5e00ad8873	-4.572624216643919
126	0x3fe705fc2d5e68cb	0.7194805990323173
127	0xc0001a975976564f	-2.012983988689292
128	0xc0078d5e8982d4b6	-2.9440279715587065
129	0xc00714087c3a4e43	-2.884781809357976
130	0xc01a455951f7831c	-6.5677235419578
131	0xbfe4139e4619205e	-0.6273948067764754
132	0xc009988503105684	-3.199472450195403
133	0xc01d5b89f01d58b9	-7.3393933790122725
134	0x3ff2225e617239b7	1.1333907896511002
135	0xc0080b9eecfd1a66	-3.0056742205372755
136	0x3fecd0aecd534255	0.9004739771135727
137	0xc009c4bdf5ac3651	-3.2210654442958817
138	0x4015cbcda9368b3c	5.449026721910567
139	0xc01a5f7187e815bd	-6.593206523456897
140	0xc00fca12862c0025	-3.9736681444337756
141	0xc016d6581afb33f8	-5.709320470411505
142	0xbfc02a71fef62ff1	-0.12629532765674825
143	0xbfff35d205181a71	-1.9506397437086458
144	0x3fd67de4dff9ec1f	0.3514339625614315
145	0xc0140cc3c8b352db	-5.012465606637046
146	0xbffa2777aac2ab17	-1.6346356077508
147	0xbff82b5b90f27e23	-1.5105853712083295
148	0xc00a29a6e5c06351	-3.27033786290523
149	0x3fffe4cbafc4133c	1.9933583131653014
150	0x3fea0928b5c4f310	0.8136180448705961
151	0xbffaf48a44985508	-1.684702175092129
152	0xbffda6f496bc1c67	-1.8532606018141224
153	0xc00e47fd68521729	-3.7851513052036307
154	0xc017d8fee1522ef7	-5.961909790650444
155	0xbffa8f916c3e118f	-1.660050795385448
156	0x3fe80582b37100e2	0.7506726746287564
157	0xc00397e41b19815b	-2.449165546146259
158	0x3ff121514f35bf14	1.0706341833246755
159	0xc00bbf70c542ce9f	-3.4684768115055955
160	0xc00bffd1febc8ae1	-3.4999122525490383
161	0x401485b664b49705	5.13057858803018
162	0xc0113bad826f1fce	-4.30827907374619
163	0xbfed2e3f33c40c17	-0.9118953715373007
164	0xc011f5024c64fd53	-4.489266580261147
165	0x4008dcb5f3358c71	3.1077689171520935
166	0xbff9e8fb399c9fc2	-1.619380211874145
167	0xc00fd82132bd9065	-3.9805320705509524
168	0x3f1440e5d5ca9d46	7.7260997793806e-05
169	0xc008f8f088dc8a06	-3.1215525333693703
170	0xc00452350f2b5456	-2.5401402649973006
171	0xc00e90e19aeb2b6f	-3.8207428076761327
172	0x400475963a61e31b	2.557415443527487
173	0x4014fef6b3a56b05	5.248987967463795
174	0x40024a5461de2043	2.2862937589561922
175	0xbff85a06decf6abb	-1.521979208328658
176	0xc00577c2b6941ece	-2.6834768547013033
177	0xc013de2129c8dbc3	-4.966923382648875
178	0xbffc90e424717c07	-1.785373823506008
179	0xbf58c3b572dd3d68	-0.0015115043601844017
180	0xbf88adf05683a030	-0.012050511970713357
181	0xbff21494b11287a7	-1.1300246159448564
182	0xbfc4f5aeb3e5db28	-0.16374763282848304
183	0xc0082abaae42eb41	-3.020863877694325
184	0xc00fe99f14e2ced6	-3.9890729552952093
185	0x4015c1c13972a536	5.439213655111692
186	0xc007fa7d61eda50c	-2.997309460701791
187	0xc0013fc04959267d	-2.1561284761745
188	0xbff0ec821e4fafda	-1.057741278079439
189	0xbfd0bad9c15908c8	-0.26140445596332684
190	0xc0083233b7c73f5a	-3.024512706535387
191	0x40047ba16b1a8267	2.5603664748635313
192	0xc011fee3664af6fa	-4.4989143355612615
193	0x3fd6db1d9d69a086	0.3571237599594571
194	0xc01fe083c8db2ca5	-7.969252718331664
195	0xc00e3818df134fca	-3.7773911884087044
196	0xc01022b8b2ad3965	-4.033907691786543
197	0xc000940d4e7a31a0	-2.072291005233822
198	0xc00d683769cd4138	-3.675886942459467
199	0xbfc625fda4a478cd	-0.17303438700850507
200	0xc00257a53dfb208b	-2.2927956430685916
201	0xc00bd1f5718c48b7	-3.4775189276634495
202	0x3fd3459f38870002	0.3011243869805186
203	0xc01ba946fc48871d	-6.915309850622887
204	0x3fa1b1af7b30a4a3	0.03455875757965401
205	0xbfc8f95c3afa8c10	-0.1951098716718609
206	0x3fff1dc772aa7c68	1.9447702864779561
207	0xbfd64be943b68c25	-0.3483832513103969
208	0x3fc928fd487141be	0.19656339680888196
209	0xc0189eb60512fae2	-6.154991225512932
210	0xbff9b22b22c83076	-1.6059981688186133
211	0xc00e96bcc7e56282	-3.8236022583844838
212	0xbfeb37f0c793da86	-0.85057867984763
213	0x3fcbbe52d8506586	0.21674571573457174
214	0xc013093c7660facf	-4.759019708317921
215	0x3fd083a4f9eb0402	0.2580349388700257
216	0xc01778d671e28df0	-5.868005542233263
217	0x3fe3771d9745cedf	0.6082904772324261
218	0xbff103fe6c46fdca	-1.0634750585157797
219	0xbff460bd9696fe91	-1.2736183054366033
220	0x3fd3ce3c94e3998d	0.3094626859659904
221	0xc01439434911d431	-5.055920736039341
222	0x3fe2bc8c0794f4ac	0.5855159900744602
223	0x3fa1e8666bf34b02	0.03497619693520983
224	0x40105d6b5310fd32	4.0912297228926935
225	0xc0026c58ad9bf76a	-2.302903515169352
226	0x3ffa96744286892b	1.6617319677976166
227	0xbfefe5f6ac4d23c7	-0.9968217244396492
228	0x400b2b91bbcda280	3.396274058545089
229	0xc001e053e7199da4	-2.2345350317661588
230	0xbff2c0e30ea17de8	-1.1720915385739037
231	0xbf5ca4d851d6caec	-0.001748286485377444
232	0xbfc35519e5b81813	-0.15103458134416367
233	0xbfb47c895fba02cb	-0.08002527796817131
234	0xbfea771597125bfd	-0.8270366621608215
235	0xc011591cb785e661	-4.337023608729937
236	0xbfe3cb82f428de04	-0.6185927170508312
237	0x40140b115845cc99	5.010808352718549
238	0x40039e4ef1a7b49d	2.4522990111641563
239	0x31bb006268b46ed8	3.9122709304982924e-69
240	0x400e0a2377502f74	3.7549504586549407
241	0xbff5d4a3acf16400	-1.3644139056762015
242	0xbfb582bc680c9cd8	-0.08402612247720087
243	0xbff508f19d100d5e	-1.3146835456144212
244	0x40137294893aff2d	4.861894745088461
245	0xbff762954a3bc8b0	-1.4615681552645974
246	0xbfae12a94c2b5d55	-0.058736124561330406
247	0xbe6dac815b3dfdec	-5.527185056776804e-08
248	0xc008189de57d648b	-3.0120199135677175
249	0xc004874f2a3bdbb8	-2.5660689639584824
250	0xbffea54a65e93ed5	-1.915354154672902
251	0x3fa042e29cffa115	0.03176029364095904
252	0xbff30b6bcf549008	-1.1902883623924954
253	0x38181e2608ab824e	1.7718937414378006e-38
254	0xbfd6fd02fa464b8c	-0.35919260445478396
255	0xc005846e3121e7ec	-2.6896632994148515

bias_1 f8 [1, 32]
0	0xbffab45318362a8e	-1.6690245576634513
1	0xbff94009edd1405d	-1.5781344690076573
2	0x3fbec47396ced594	0.12018511230311041
3	0xc000dcc363fe9129	-2.1077945529997533
4	0x3fb782130830b27d	0.09182852697331075
5	0x3fc16561a3c4f5a4	0.13590641495276856
6	0xc005fb7a737d8db7	-2.7477921507540617
7	0xbff38e2fc5cf0da5	-1.222213528338082
8	0xc0068ef032ba3cf0	-2.819794079121145
9	0xc006349c0ba37ece	-2.7756882581014457
10	0xc0036bebf250be33	-2.427696126069145
11	0x3fbfc87ddc1af888	0.12415300964036835
12	0xc00015ff46e697e5	-2.0107408084031584
13	0xbff4dee6187fe534	-1.3044186551108625
14	0xc0019aa72b5027e1	-2.2005141624294855
15	0xbfffa8c087a3eee7	-1.9786992357684825
16	0xc00463d953d6c6cd	-2.5487543630523306
17	0xc000f020df75dcbb	-2.1172502000659654
18	0xc00122430bc4f92c	-2.1417294425474633
19	0xc002c3b220b6fe04	-2.345554595550995
20	0xbffb538f8129af64	-1.707900528471293
21	0xc0034d5fce632792	-2.412780392075498
22	0xbffe31a80dae1bc8	-1.8871231588725426
23	0xc003e230fa2c407d	-2.4854449791674242
24	0xbffca1c7263df655	-1.7894965642766654
25	0xc00059ceb33d048a	-2.043851280498136
26	0xc003aed1a6910a10	-2.4603608143818363
27	0xbffb44a8d44de0b4	-1.70426257067997
28	0xc003d439b911ce8c	-2.4786257227477275
29	0xbff71abc5ac2f5ad	-1.4440272851346478
30	0xc00b6ec9c20f7a83	-3.4290957604383165
31	0xc003f70facb55f94	-2.495635365758014

weight_2 f8 [32, 10]
0	0x4011ab6e74ca1025	4.417413544495536
1	0xc010163abb25a1b2	-4.021708416148998
2	0xc00ed56f350263bf	-3.8542160168985613
3	0xbff2c4ea384901cc	-1.1730749319686877
4	0xbfe8be829d870e11	-0.7732556416235089
5	0xc00124e7f4227376	-2.143020541478502
6	0xc007bf2ac524d9e3	-2.9683432962294645
7	0xbff0dad1de7fa589	-1.053422803054078
8	0xc00d3556fe47a4b1	-3.6510448327649887
9	0x400f4bf559998c08	3.912089061735518
10	0xc0155023cf8f82a1	-5.328261607298061
11	0xc01244b66ca21249	-4.567102143661551
12	0xbfe03db0fb7677a3	-0.5075306807882395
13	0xc0026a7bde42b7ee	-2.3019940723524916
14	0xbfe59d2f14c4b8f0	-0.6754374890931825
15	0xbfa83d299e93cc75	-0.04734163342245604
16	0x401201b68dd743ca	4.501672950996133
17	0xc00553d48d107f24	-2.665932752672136
18	0x3fb0681c01074cb7	0.06408858323202336
19	0xc00a59d1c5ac6497	-3.29385713989593
20	0x3fe407750bbef08c	0.6259103040133751
21	0xc026b7b5252d7479	-11.35880390338774
22	0xc01439884fc43647	-5.056184049940902
23	0xc00c26ed4a42bbdd	-3.519007282411151
24	0x3ff29acd54b8f0cf	1.1627934751004891
25	0xc014333cc81cdcaa	-5.050036551248164
26	0xc01add3c7c0c0933	-6.716051042780509
27	0xbfffb503cc842f32	-1.9816930760307057
28	0x400723fb115ed0e4	2.8925687176762143
29	0x400d94b4a7dac1f5	3.6976101983675513
30	0xc01e00e0f8487d87	-7.500858191894969
31	0xbfac096293fe8dff	-0.054759102407185616
32	0xc02901cd682d9576	-12.503520255627091
33	0x3ffc26a567edf405	1.7594350871797826
34	0xbffa4b2e3deefaa4	-1.643354646613866
35	0xc00add91214ff746	-3.358186969998232
36	0xc0214ea8c5291515	-8.653631364121376
37	0x4014d4a9db21b884	5.207679199154999
38	0xc0225bba8508ecf7	-9.179157407130772
39	0x400786795bf4a630	2.9406611618076326
40	0x400e0882813ec2f0	3.754155168273762
41	0xc02039e2d85d77ef	-8.113058816346863
42	0x40061f4420dc0c1c	2.7652666632798297
43	0xbfe5206bc63eb0d0	-0.660207640835802
44	0xc012d8bbc283c102	-4.711653746883032
45	0xbfdf023fc2796e23	-0.48451227180132345
46	0xc00fcde8918fd25b	-3.9755412456527615
47	0xc014cad3a430902f	-5.198072972740234
48	0x400ec5201197c7ce	3.8462525724835137
49	0xc02054c636c4cab7	-8.165574752352184
50	0xbff42a930859e7ff	-1.260394127485142
51	0xc0192680799dd140	-6.287599468476685
52	0x3fe5b1843b8a6a38	0.6779194987205477
53	0xc004f011da5697ba	-2.6172215516735067
54	0xc005c06ef96cdcaf	-2.7189616667124805
55	0xbffb345cb283cc4d	-1.7002837155566966
56	0x40091e46a5b77483	3.139783186589342
57	0xc020f11136f91b4a	-8.470834463032265
58	0x4014f95d9e99af4a	5.2435211926748
59	0xc01d00714ef8fcf7	-7.250432237574606
60	0xbfe8941f4c9cdd4d	-0.7680813309042748
61	0xc011819401fbfbf9	-4.3765411672638885
62	0xc010333875a3c082	-4.050020063514355
63	0x4010fc8ffad41364	4.246642989343716
64	0xc0186e4750095382	-6.107693911141611
65	0x3ffc7416109a5377	1.778341355185345
66	0xc01145cd22056719	-4.318165332393414
67	0xc00e5249cf4167d6	-3.7901798431239326
68	0xc01d9172c844ef78	-7.39203942223309
69	0xc01bb25c4cbf0ec5	-6.92418022075771
70	0xc014efa7fbe771b1	-5.234039245606639
71	0x4006dfc52e392cec	2.859262810821397
72	0xbfec9e82f3841b22	-0.8943495517895352
73	0xc00fec15ff5578a6	-3.990276331706883
74	0x400914924267a312	3.1350445926549435
75	0xc00052d949fd082f	-2.0404535084099034
76	0xbfea0c4d1ef11f34	-0.8140016178449287
77	0xc0128bf6fcd13f3e	-4.636684370299745
78	0x3ff08dd43bdedaa9	1.0346262301151603
79	0xbff6a7ad3e8b7580	-1.415936703029132
80	0xbffdf5e69ba748d2	-1.872534378072079
81	0xc006123ae6bbf93b	-2.758901407824991
82	0xc0042b5105c36a8f	-2.521150631929522
83	0x401ad70eaf8990ab	6.710016958972271
84	0xc009e97077705501	-3.238984044185259
85	0xbff47c0a641a8070	-1.2802833471578445
86	0xbffe53582af55c4a	-1.8953477552475015
87	0xc011aa12468133da	-4.416085340152643
88	0xbfe976b0d68d0cc4	-0.7957386198471785
89	0xc00864b8faee0b56	-3.049180946721587
90	0xbfeb15d4a1e3e2c2	-0.8464148675839953
91	0xc00125366ee58fe1	-2.143170229321172
92	0xc0026c76d5c74887	-2.3029610349122467
93	0xc015594c7a0b7060	-5.3372057980996885
94	0xc01237f3cd1437de	-4.554640964850448
95	0x40157c6745cde0cf	5.371487703982168
96	0xc004279fb4040dc5	-2.5193475784051054
97	0x4005dbcf61baeeff	2.7323291430637933
98	0xbff7b76e12c26380	-1.4822827084337575
99	0xc011e60343d47bb4	-4.474621829837748
100	0xc0144aed903a6aa6	-5.073171857419458
101	0x40060a7a972e4528	2.7551166354175116
102	0x40077ffb2674a40b	2.9374907497735925
103	0x4007e868a8e8d062	2.988480872731132
104	0xc01c589ff468db5d	-7.08654767885204
105	0xbff2fa028f9193aa	-1.186037598433567
106	0xc0144e92136c000a	-5.07672911020928
107	0xc01b27111800d072	-6.788151145028779
108	0xc012a72405d1c3df	-4.6632233533173055
109	0xc01f8a9d99698452	-7.885366818490256
110	0xc01d98dd7af30a33	-7.399282380184149
111	0x40149889b21032f5	5.148962766874992
112	0xc00463bdeea52e67	-2.548702110687191
113	0xc00bf69f41c3969c	-3.4954209459127252
114	0xc00b9a8fcb852df7	-3.4504695796983884
115	0xc0005cdc3cc1b088	-2.045341944371163
116	0xc0104c37e8169e67	-4.074432016735591
117	0xc008f1d7ea49ec25	-3.1180876067933405
118	0x40164387fd0b61fc	5.565948442287205
119	0xc01d17beca9f19c9	-7.273188749275911
120	0xc00e51d7de286f3a	-3.7899625164117454
121	0x4018cf4bb1ded360	6.202437190270615
122	0xbffb00016991d24f	-1.6875013469517801
123	0xc00bc73322b57d6e	-3.4722655021320668
124	0xbff54ccdbdeacd12	-1.3312508982315348
125	0xbfea254f44e3e742	-0.8170544000160833
126	0x4003eac165c4d75d	2.489626689023608
127	0xc015222a065cbd69	-5.283363437090295
128	0xc00acbcb952400ea	-3.3495093967068117
129	0xc006e1bed6fba75b	-2.8602272792385697
130	0x401103fd01844864	4.253894828509235
131	0x400113b9965cccf9	2.134631323535015
132	0xc015ed83d03ee551	-5.481948140944341
133	0xbff0fa44f290116d	-1.0611009097202342
134	0xbffdbac871c2f572	-1.8581013149081085
135	0xbff3d52094a1af85	-1.2395330243989247
136	0x40107aee36eb37df	4.120049341303427
137	0xc008b0ea81a6bebc	-3.086384785557895
138	0xc00b220fb2daad48	-3.3916315052971733
139	0xc004f2e2d0699d9c	-2.6185966760856
140	0x4004a5d663a2ee57	2.5809753212068176
141	0xc01a911e5c2327a5	-6.641717376371081
142	0x40061044e8da7208	2.7579439345993286
143	0xc01fb0d307875f16	-7.9226800133108295
144	0x400678ef68485cd8	2.809050383289655
145	0xc007ea79b26176a0	-2.989489930724474
146	0x40046110cd4c893f	2.5473953284246416
147	0xc01dfdcaa5399206	-7.497843343390292
148	0xc01a3d6be7e65db5	-6.559981940684726
149	0xc0184275c3c02308	-6.064902361490347
150	0xbfe83c4536594a25	-0.7573572217464216
151	0xc005b360a55f5cb8	-2.7125866813399533
152	0xc00273e32e5ac588	-2.3065856572581573
153	0xbff66ab57dc416dd	-1.4010519898160319
154	0x4015abb93083bf0e	5.417698629418522
155	0xbffd3f3dc837da70	-1.8279397793791325
156	0xbfe02579386dcd24	-0.5045744039656808
157	0xbff2a4d96d6b0750	-1.1652464174407733
158	0xbfeab00777114463	-0.8339879346405151
159	0xc008f72b6d658616	-3.1206882998092267
160	0x400a32def49c5b63	3.274839316388737
161	0xc011694c5b42cd29	-4.35283033938621
162	0x40088024e2790357	3.0625703519039393
163	0xc0154b423ff0a9d9	-5.323494910301144
164	0xc0122280d9c4da0b	-4.533694651260258
165	0xbff3ec7a30ab8ced	-1.245233717076924
166	0xc00ccfdebc56739f	-3.6014990533717106
167	0x400526ba2f4596e0	2.643909806548308
168	0xc00de4b53cea331d	-3.736673808953482
169	0xc00e0169f6a7809a	-3.750690390574232
170	0xc011ba141fed67e3	-4.431717394700146
171	0x3fc4e0f13b3d413a	0.1631146945242195
172	0xc013b8fbffe60d45	-4.9306488022005555
173	0xc009b6de10c329a1	-3.2142907437857535
174	0xc00841bc2ef0bc1c	-3.032097212525981
175	0x4005a57b509c2298	2.705801610722414
176	0xbfb20cfb2fc14e21	-0.07051057735343892
177	0xc00944be6a738a3a	-3.1585663143644327
178	0x3ff2ead81eab6e87	1.182335014155713
179	0x3ff3e81800e108f8	1.2441635164582845
180	0xc00b9bc9c2392b9b	-3.451068417901707
181	0x401782121f09403b	5.8770222520252515
182	0xc006b512e9d9d0eb	-2.838414980849952
183	0xc013db4e86767fbf	-4.964166737539869
184	0xc0133cda4a0ad1ff	-4.809426457319659
185	0xbff7ded4967c929f	-1.4919019583113948
186	0xc004676bcc0191c6	-2.550498575017829
187	0x40126eb8d6955e21	4.608126976839714
188	0xc0097d185a84d86d	-3.1860816070357516
189	0xc01546ba6900db32	-5.319070473363171
190	0xc00b426a9c007d57	-3.4074299037599007
191	0xc01ba53f6f9578d2	-6.91137480115704
192	0xc015f2d9b59cb5b0	-5.487158620538523
193	0xc00ad9dd8a92c43a	-3.3563795877494416
194	0xc01993f4aea91afd	-6.394488076278091
195	0xc006232126b55953	-2.767153074654894
196	0xc014c695006c9c05	-5.19392777121448
197	0x4020fb9e25dca601	8.491440947708726
198	0xc00cc113e67c3769	-3.594276238122735
199	0x4000b4b5f321c543	2.0882376665764766
200	0x40157df6d74d1669	5.373011936264086
201	0xc0159697819f0ac4	-5.397062325794369
202	0xc01b37d23a080278	-6.804512888659353
203	0xbfff8dc7c8607b9a	-1.9721143557760343
204	0xc00dbb8b1f1faa83	-3.716573947099563
205	0xbf8513e9f9e99bc5	-0.010291889132714513
206	0x3fd1e0c0152358c6	0.27934267105355237
207	0x40074868074bab6d	2.910354668614153
208	0xc00b3108055dbbb2	-3.39894108001996
209	0xbfe51adc6e493ebe	-0.6595289377236992
210	0xc026362de132af81	-11.10581878417702
211	0xc029783595692543	-12.734783810696745
212	0x40131b08d7a443d5	4.776400918389261
213	0x4011fddb7fe6e568	4.4979076370885664
214	0xc0235ebb4e9242da	-9.685022788385528
215	0xc020197cf2cb7d04	-8.049781405773054
216	0xc027a834c6b0be75	-11.828527649951164
217	0x40130a6f48adbdf3	4.760190139393205
218	0xc02373557e1d7027	-9.725261632054822
219	0xc03143f7856389b2	-17.26549562149166
220	0xc009a99121f3167b	-3.207796349745704
221	0xc011e9015bf977e5	-4.477544247723903
222	0xc013c1ff514c9e75	-4.939450521756602
223	0x401756ee018d4531	5.834892296073392
224	0xbfeecc2d8dafd7e6	-0.962424065334514
225	0xbff2a7156561c56d	-1.1657918892127228
226	0xc0101a53e7868cbe	-4.02571069487311
227	0xc0106f4650775f20	-4.10866666534983
228	0x3fe34bae60736702	0.6029884227566245
229	0x3ff64adcfff994fb	1.393277168180531
230	0xc00436734a4fb4ed	-2.526587086255509
231	0xc013520b84463d14	-4.830122057711623
232	0xbfdda2e1a9731ff4	-0.4630664973051346
233	0xc01080b02c4782e0	-4.125672046532344
234	0x401229eb4407429f	4.540936530058985
235	0xc01075f3f5128212	-4.115188435797352
236	0xbfa7769dde4e2078	-0.04582684839903178
237	0x3ffef469077b3e4d	1.9346704761736817
238	0xc00cdb311f90f5b4	-3.607027289019891
239	0xc016c2d9cb5deeee	-5.690283944710002
240	0xc0039babea73f737	-2.451011497177116
241	0xc01d796f59cf6072	-7.368588832170746
242	0xc012ec8821f2d872	-4.730988054701912
243	0x3fff06e4143af1dd	1.939182356857706
244	0xc01b13e7f6d4117d	-6.7694395605980135
245	0x4008e590a41e0383	3.112092287221857
246	0xc00018ae18f357ed	-2.0120508145582705
247	0xc00fd581a205b7ca	-3.979251161384103
248	0x3fe0682a41f8629e	0.5127154625398196
249	0xc022ba899329aa0c	-9.364330862842529
250	0xc0150e3876dbdc20	-5.263887269181424
251	0xc0008226a6fbec92	-2.0635502858763823
252	0x3fe6b50fc3543b8d	0.7096022429485501
253	0xc0031200c5853c1b	-2.3837905341420202
254	0x3ffd63b88bb14ca3	1.8368459183446155
255	0xbff92b6fd3064d12	-1.5731046908520665

bias_2 f8 [1, 10]
0	0xbfe985ec228cb19c	-0.797597949485453
1	0xbfc900e70e831025	-0.19534004410354658
2	0xbfd1029da977cfd0	-0.2657846598588067
3	0x3fd36db84b32cf39	0.30357177108384154
4	0xbfd10c93fe86df37	-0.2663927064527231
5	0xbfc8fbcb3b94979f	-0.19518413933945752
6	0xbfd59c8cc7945484	-0.33768004884888847
7	0xbfb9cf5dcb214d82	-0.10082040986281096
8	0x3fdd1d4fbfd94bce	0.4549140332721294
9	0x3fe8b7fbe0816bb4	0.772458971488382

loss_history f4 [125]
0	0x3f230008	0.6367192
1	0x3e9d0bcc	0.30673063
2	0x3e7eaea6	0.2487131
3	0x3e605792	0.21908405
4	0x3e4da64f	0.20082973
5	0x3e41c916	0.18924364
6	0x3e350ba1	0.17680217
7	0x3e307125	0.17230661
8	0x3e28f6d4	0.16500407
9	0x3e25b460	0.16182089
10	0x3e260faf	0.1621692
11	0x3e1e7618	0.15474737
12	0x3e208fa9	0.15679802
13	0x3e16cc89	0.14726461
14	0x3e19d638	0.15023124
15	0x3e2087a3	0.15676741
16	0x3e19fc0e	0.15037557
17	0x3e1b40b2	0.15161398
18	0x3e161881	0.14657785
19	0x3e13ba31	0.14426495
20	0x3e18ed67	0.14934312
21	0x3e17a731	0.14809872
22	0x3e1b791e	0.15182921
23	0x3e1ae331	0.15125729
24	0x3e14b8ea	0.14523664
25	0x3e15e07a	0.14636412
26	0x3e0ed1a5	0.1394716
27	0x3e192d33	0.14958648
28	0x3e162016	0.14660677
29	0x3e16812e	0.14697716
30	0x3e1c4fd1	0.15264823
31	0x3e1a0cec	0.15043992
32	0x3e1983f9	0.1499175
33	0x3e256a21	0.16153766
34	0x3e1eaffd	0.15496822
35	0x3e29dd40	0.16588306
36	0x3e21a097	0.15783916
37	0x3e2484a0	0.16066217
38	0x3e1e8b09	0.15482725
39	0x3e258b36	0.16166386
40	0x3e2356a9	0.15951027
41	0x3e2d31eb	0.16913573
42	0x3e27c4e3	0.163837
43	0x3e26837f	0.162611
44	0x3e2e5541	0.1702471
45	0x3e2cc5f6	0.16872391
46	0x3e262e1e	0.1622853
47	0x3e332d71	0.17497803
48	0x3e36c8be	0.17850015
49	0x3e317fc8	0.17333901
50	0x3e33dcb9	0.17564668
51	0x3e2d07ef	0.16897558
52	0x3e351646	0.17684278
53	0x3e3657cb	0.17806928
54	0x3e31417c	0.17310137
55	0x3e416d4b	0.18889348
56	0x3e3d02bf	0.18458079
57	0x3e33912f	0.17535852
58	0x3e398388	0.18116581
59	0x3e3d47e1	0.18484451
60	0x3e337166	0.17523727
61	0x3e3fcbca	0.18730083
62	0x3e3c9e18	0.18419683
63	0x3e4c5374	0.1995371
64	0x3e401a6a	0.18760076
65	0x3e3dd89a	0.18539658
66	0x3e43fe68	0.19140017
67	0x3e4ed888	0.20199788
68	0x3e42a218	0.19007146
69	0x3e4e2f0a	0.20135131
70	0x3e3e8cbe	0.18608376
71	0x3e4e6502	0.20155719
72	0x3e55a0dc	0.20862144
73	0x3e4a74a2	0.19771054
74	0x3e5359de	0.2063975
75	0x3e4eb457	0.20185982
76	0x3e58a0db	0.21155111
77	0x3e4ea197	0.20178829
78	0x3e554015	0.20825227
79	0x3e617715	0.22018082
80	0x3e5a5e55	0.21325047
81	0x3e63ea21	0.22257282
82	0x3e536eff	0.2064781
83	0x3e5e9e7e	0.21740147
84	0x3e600e74	0.21880513
85	0x3e69b786	0.22823915
86	0x3e69bd09	0.22826017
87	0x3e6948d1	0.22781684
88	0x3e61c1d5	0.22046597
89	0x3e6d032f	0.23145746
90	0x3e6926d3	0.22768717
91	0x3e6d2f73	0.23162632
92	0x3e62499d	0.22098394
93	0x3e70582e	0.23471138
94	0x3e6b9687	0.2300664
95	0x3e72e7f3	0.23721294
96	0x3e5f103a	0.21783534
97	0x3e7806b6	0.2422131
98	0x3e71cd48	0.23613465
99	0x3e7786a7	0.2417246
100	0x3e7aebb5	0.24503978
101	0x3e6c48da	0.23074666
102	0x3e77b7f7	0.24191271
103	0x3e7d30e8	0.24725688
104	0x3e77b8b6	0.24191555
105	0x3e8055be	0.25065416
106	0x3e808595	0.25101915
107	0x3e77e800	0.24209595
108	0x3e7b1f48	0.24523652
109	0x3e82b227	0.25526544
110	0x3e807d66	0.2509567
111	0x3e7b5d60	0.24547338
112	0x3e837f13	0.25682887
113	0x3e8d0c88	0.27548623
114	0x3e8e2d55	0.2776896
115	0x3e89c797	0.26910087
116	0x3e8c490b	0.27399477
117	0x3e8f7618	0.28019786
118	0x3e883f9b	0.26611027
119	0x3e88d822	0.26727396
120	0x3e861387	0.26186773
121	0x3e85bf47	0.26122496
122	0x3e851e30	0.25999594
123	0x3e90cb67	0.28280184
124	0x3e8f95d7	0.28044006

accuracy_history f4 [125]
0	0x42a0a58c	80.32333
1	0x42b622fd	91.06834
2	0x42b9aeef	92.84167
3	0x42bb57e5	93.67167
4	0x42bc5555	94.166664
5	0x42bd170a	94.545
6	0x42bde81b	94.95333
7	0x42be1c29	95.055
8	0x42be8889	95.26667
9	0x42beed3a	95.46333
10	0x42bec51f	95.385
11	0x42bf1c29	95.555
12	0x42bf4ccd	95.65
13	0x42bfcf5c	95.905
14	0x42bfa741	95.82667
15	0x42bf8889	95.76667
16	0x42bfb852	95.86
17	0x42bfb852	95.86
18	0x42bfe81b	95.95333
19	0x42c00da7	96.026665
20	0x42bfc444	95.88333
21	0x42bfeb85	95.96
22	0x42bf8ccd	95.775
23	0x42bff40e	95.97667
24	0x42c028f6	96.08
25	0x42bffa07	95.988335
26	0x42c0570a	96.17
27	0x42bfe4b1	95.94666
28	0x42c0392c	96.111664
29	0x42bff17e	95.971664
30	0x42bfe8f6	95.955
31	0x42c01111	96.03333
32	0x42bff333	95.975
33	0x42bfbe4b	95.871666
34	0x42bfeb85	95.96
35	0x42bf836a	95.75667
36	0x42bfd99a	95.925
37	0x42bfc1b5	95.878334
38	0x42bfd7e5	95.92167
39	0x42bfc1b5	95.878334
40	0x42bf947b	95.79
41	0x42bf6666	95.7
42	0x42bf7bbc	95.74167
43	0x42bf9a74	95.80167
44	0x42bf70a4	95.72
45	0x42bf57e5	95.67167
46	0x42bf7e4b	95.746666
47	0x42bf2fc9	95.59333
48	0x42bf1111	95.53333
49	0x42bf3f26	95.62334
50	0x42bf1d03	95.55666
51	0x42bf317e	95.596664
52	0x42bf028f	95.505
53	0x42bf1b4f	95.55334
54	0x42bf40da	95.62666
55	0x42bec36a	95.38167
56	0x42bee58c	95.44833
57	0x42bf4ccd	95.65
58	0x42bee666	95.45
59	0x42bee8f6	95.455
60	0x42bef777	95.48333
61	0x42bedd03	95.43166
62	0x42bea58c	95.32333
63	0x42be81b5	95.253334
64	0x42be769d	95.23167
65	0x42bf2fc9	95.59333
66	0x42bec889	95.39167
67	0x42bde741	94.95167
68	0x42be6d3a	95.21333
69	0x42be0b18	95.02167
70	0x42bed70a	95.42
71	0x42be7852	95.235
72	0x42bde666	94.95
73	0x42be3777	95.10833
74	0x42bdec60	94.96167
75	0x42be24b1	95.07166
76	0x42bdeaab	94.958336
77	0x42bddb4f	94.92834
78	0x42bdce82	94.903336
79	0x42bd47ae	94.64
80	0x42bdcbf2	94.89833
81	0x42bd57e5	94.67167
82	0x42bdb333	94.85
83	0x42bd5b4f	94.67834
84	0x42bd681b	94.70333
85	0x42bcf777	94.48333
86	0x42bca8f6	94.33
87	0x42bd0ccd	94.525
88	0x42bcf5c3	94.48
89	0x42bcd8bf	94.42333
90	0x42bcf40e	94.47667
91	0x42bd1f93	94.56167
92	0x42bd2aab	94.583336
93	0x42bc5a74	94.17667
94	0x42bcb333	94.35
95	0x42bcb259	94.348335
96	0x42bd1c29	94.555
97	0x42bbad3a	93.83833
98	0x42bcab85	94.335
99	0x42bbeeef	93.96667
100	0x42bc1dde	94.058334
101	0x42bc6666	94.2
102	0x42bbaaab	93.833336
103	0x42bc1a74	94.05167
104	0x42bbc36a	93.88167
105	0x42bba222	93.816666
106	0x42bb6d3a	93.71333
107	0x42bc0da7	94.026665
108	0x42bbc7ae	93.89
109	0x42bb740e	93.72667
110	0x42bb5d03	93.68166
111	0x42bbda74	93.92667
112	0x42bb45f9	93.636665
113	0x42b9e148	92.94
114	0x42ba9c29	93.305
115	0x42baa666	93.325
116	0x42baf17e	93.471664
117	0x42ba4963	93.14333
118	0x42baaeef	93.34167
119	0x42bb01b5	93.503334
120	0x42bb91ec	93.785
121	0x42bacccd	93.4
122	0x42bb281b	93.57833
123	0x42b9a8f6	92.83
124	0x42ba0ccd	93.025

val_loss_history f4 [25]
0	0x3dded001	0.10879517
1	0x3e001f1e	0.1251187
2	0x3e7f2615	0.24916871
3	0x3ddf55ee	0.10905062
4	0x3e31be14	0.17357665
5	0x3e4278b4	0.18991357
6	0x3e66ab3b	0.22526257
7	0x3e62851c	0.2212109
8	0x3e919a94	0.28438246
9	0x3e0f642c	0.14003056
10	0x3e082e41	0.13298894
11	0x3e803325	0.2503902
12	0x3ebe3771	0.37151673
13	0x3e9e7b9d	0.30953684
14	0x3e8de0fe	0.27710718
15	0x3e5d57aa	0.21615472
16	0x3e9a59d9	0.30146673
17	0x3ec7acfd	0.38999167
18	0x3ea87697	0.32902977
19	0x3e5dc40f	0.21656822
20	0x3ea086f2	0.31352955
21	0x3ec8b95d	0.3920392
22	0x3eb7cfd9	0.35900763
23	0x3ebc1c38	0.3674028
24	0x3ea298fe	0.3175735

val_accuracy_history f4 [25]
0	0x42c16666	96.7
1	0x42c16666	96.7
2	0x42c06666	96.2
3	0x42c33333	97.6
4	0x42c0cccd	96.4
5	0x42c0999a	96.3
6	0x42c2cccd	97.4
7	0x42c23333	97.1
8	0x42c06666	96.2
9	0x42c2cccd	97.4
10	0x42c20000	97.0
11	0x42c0999a	96.3
12	0x42becccd	95.4
13	0x42c03333	96.1
14	0x42bf3333	95.6
15	0x42c0999a	96.3
16	0x42c06666	96.2
17	0x42be999a	95.3
18	0x42becccd	95.4
19	0x42c03333	96.1
20	0x42bf0000	95.5
21	0x42bb6666	93.7
22	0x42bf3333	95.6
23	0x42bd0000	94.5
24	0x42bd0000	94.5
