checkpoints/model_epoch_0165.npz (npz, 383360 bytes, 10 tensors)

weight_0 f8 [784, 64]
2.809556444e-315 1.18684844e-315 1.159753507e-315 2.170921987e-315 3.67275264e-316 -2.47150585e-315 -9.8842694e-316 -2.60801613e-315
3.0878376e-316 -2.79289962e-315 2.813838017e-315 -2.43612303e-316 2.65544244e-315 4.10662844e-316 -2.74403781e-315 -7.1064409e-316
1.973355817e-315 -1.193868285e-315 1.583063013e-315 2.1465379e-316 1.511079343e-315 -1.682815816e-315 1.670490736e-315 1.47631e-315
3.68661355e-316 1.95384608e-315 -1.28497167e-315 -5.48013657e-316 3.397507e-318 2.21540617e-316 2.79815016e-315 8.77400346e-316
-2.93813814e-316 7.36558233e-316 2.5428291e-316 -2.38698567e-315 6.01669137e-316 -1.13046919e-315 -2.038585985e-315 2.803977573e-315
-1.153519337e-315 -2.23963669e-315 -1.05747874e-315 1.10599899e-315 2.528962715e-315 -1.23928457e-315 2.53339363e-315 1.772884437e-315
-9.545797e-316 1.74383142e-315 -2.643327183e-315 -8.7496575e-316 -2.8093435e-315 -2.93953674e-316 1.0541648e-316 -1.19026497e-315
-8.78312445e-316 1.66353793e-315 2.8890545e-315 -2.943628217e-315 -1.23043843e-316 -2.04553873e-315 1.7379012e-316 -1.08991035e-315
-7.1722666e-316 1.41591142e-315 -1.50623088e-315 -7.1976822e-316 -2.264882666e-315 -2.61369448e-315 -2.65714196e-316 8.71518677e-316
9.5597476e-316 -2.20184834e-315 2.339289327e-315 -2.7581705e-315 -2.904696387e-315 1.83772453e-315 -1.0231706e-316 2.563962834e-315
4.9611554e-316 1.866788797e-315 -1.32782059e-315 2.826317186e-315 -2.54794846e-315 -1.2493555e-316 -1.816062386e-315 -5.3023063e-316
1.11643456e-315 1.224897366e-315 -1.38083123e-315 -1.93371207e-316 6.80958797e-316 -1.70666008e-315 2.295534805e-315 2.575526836e-315
-2.76459796e-315 2.00349864e-316 -2.74147237e-315 -1.737352047e-315 -6.95044387e-316 -8.81969983e-316 1.792280936e-315 -9.25216824e-316
-7.4025777e-317 2.44747603e-315 -2.504462657e-315 1.749814003e-315 -2.601076655e-315 1.751606616e-315 1.537231518e-315 1.41512979e-315
-1.890466073e-315 1.837696335e-315 -2.819297254e-315 -1.18085434e-316 -2.53552008e-315 2.998075743e-315 2.782661126e-315 2.539988733e-315
3.3598043e-316 -2.63215776e-315 1.28976179e-315 1.939797703e-315 2.23724737e-315 -2.717772663e-315 1.535797635e-315 -1.7035742e-315
1.408991626e-315 -3.60435044e-316 1.23340541e-315 5.79614007e-316 1.59815884e-316 -7.3064783e-316 2.789631473e-315 -2.468768637e-315
-7.8663519e-316 8.57254937e-316 -1.25104857e-316 -1.6713954e-316 -8.7335345e-316 8.1140424e-316 -4.31546895e-316 1.65792184e-315
2.75335445e-315 -2.54452083e-315 2.24807368e-315 2.425086633e-315 -1.14319195e-315 6.443615e-317 -2.491028537e-315 1.12552122e-315
9.6360473e-316 -1.61285633e-315 2.74504156e-315 9.27350027e-316 -1.472821276e-315 -5.44176807e-316 3.46987545e-316 -1.55078052e-315
-1.5459266e-316 -1.29907054e-315 -2.67409377e-315 -2.445089805e-315 2.10448435e-315 -1.681664895e-315 1.99133435e-316 -1.385901216e-315
1.69815716e-315 2.55520157e-315 1.11081558e-315 -2.3051816e-316 -2.8646838e-315 -1.699846175e-315 5.4841791e-316 5.9465123e-316
-1.154976346e-315 -1.18986869e-315 -9.936967e-316 -6.96206335e-316 -2.530524634e-315 -2.334317723e-315 -1.110278104e-315 -3.7066632e-316
3.382497e-318 -1.487584595e-315 -1.3004411e-315 -2.396715e-317 -2.68873878e-315 3.5684733e-316 7.53170385e-316 2.13080745e-316
-2.898153343e-315 -2.09551113e-315 -1.315354986e-315 -2.62516584e-315 -1.69904087e-316 -2.0122864e-315 -2.283302797e-315 -1.78687938e-315
6.65492823e-316 -1.014957564e-315 -4.860752e-317 2.18142184e-315 2.58378259e-315 4.3661511e-316 -1.27763259e-315 1.76847984e-315
1.82028941e-315 -1.969288437e-315 -2.041693317e-315 2.89761271e-315 2.18562942e-315 -1.665046765e-315 -2.20019148e-315 2.39230662e-315
-1.482020976e-315 1.18878075e-315 2.43061108e-315 1.65378075e-316 2.82257584e-315 2.360429636e-315 -6.485332e-317 -1.129585997e-315
2.37748073e-315 -1.0047338e-315 -3.54457047e-316 4.8449272e-316 -7.8716718e-317 2.09805338e-315 -2.74664348e-315 -7.40823615e-316
-9.904704e-317 3.6598388e-316 1.464150627e-315 2.552400774e-315 -2.39818978e-315 -1.492280294e-315 5.8228009e-316 -9.06537383e-316
2.00460664e-316 2.869623636e-315 1.40301825e-315 -2.181690657e-315 2.0289746e-315 1.178893565e-315 2.443950563e-315 5.91722187e-316
1.289201053e-315 -1.150464544e-315 1.783174753e-315 -2.060340536e-315 -1.241279847e-315 2.83196126e-316 2.488921856e-315 1.060060026e-315
00000000: 4b12 e521 0000 0000 7f7a 510e 0000 0000
00000010: 53cc fd0d 0000 0000 4eb4 301a 0000 0000
00000020: 3d4c 6e04 0000 0000 1108 d11d 0000 0080
00000030: c0ab ec0b 0000 0080 b5a1 761f 0000 0080
00000040: e1a6 b903 0000 0000 d8a0 b121 0000 0080
00000050: 734b f221 0000 0000 1f60 f002 0000 0080
00000060: 8d1a 0920 0000 0000 ed4b f404 0000 0000
00000070: 0cb9 1a21 0000 0080 3dc3 9208 0000 0080
00000080: d089 ce17 0000 0000 9f28 670e 0000 0080
00000090: 2127 1913 0000 0000 8bf0 9602 0000 0000
000000a0: 68d6 3a12 0000 0000 113b 4d14 0000 0080
000000b0: 712a 2714 0000 0000 9774 cf11 0000 0000
000000c0: 2194 7204 0000 0000 c148 9217 0000 0000
000000d0: 0986 800f 0000 0080 1f7e 9c06 0000 0080
000000e0: 2f7e 0a00 0000 0000 8035 ac02 0000 0000
000000f0: 19d8 c121 0000 0000 5fc6 950a 0000 0000
00000100: 226b 8b03 0000 0080 d6cb e208 0000 0000
00000110: aa54 1103 0000 0000 8eff cb1c 0000 0080
00000120: f533 4207 0000 0000 275b a30d 0000 0080
00000130: fdfe 9718 0000 0080 73d7 d321 0000 0000
00000140: 618b ea0d 0000 0080 79ec 041b 0000 0080
00000150: 70ee c10c 0000 0080 30c8 570d 0000 0000
00000160: 687b 821e 0000 0000 456c f30e 0000 0080
00000170: a32a 901e 0000 0000 5d66 6315 0000 0000
00000180: fa22 840b 0000 0080 11ac 0915 0000 0000
00000190: d2af e31f 0000 0080 7f41 8e0a 0000 0080
000001a0: ef69 e421 0000 0080 b6d9 8b03 0000 0080
000001b0: d591 4501 0000 0000 b807 5c0e 0000 0080
000001c0: 8297 980a 0000 0080 51b1 1114 0000 0000
000001d0: 2598 da22 0000 0000 f823 8323 0000 0080
000001e0: 9f02 7c01 0000 0080 1078 ad18 0000 0080
000001f0: 58bc 1802 0000 0000 f717 260d 0000 0080
00000200: a417 a708 0000 0080 6eeb 1411 0000 0000
00000210: 0cdd 2b12 0000 0080 16f1 ae08 0000 0080
00000220: cbe4 521b 0000 0080 342b 881f 0000 0080
00000230: a0a2 3403 0000 0080 209c 830a 0000 0000
00000240: f671 880b 0000 0000 b937 901a 0000 0080
00000250: 37b1 381c 0000 0000 d45e 4621 0000 0080
00000260: 26e7 0a23 0000 0080 22a7 2b16 0000 0000
00000270: 53ff 3b01 0000 0080 af93 ee1e 0000 0000
00000280: b735 fc05 0000 0000 536a 8516 0000 0000
00000290: d7db 0410 0000 0080 e7d5 1822 0000 0000
000002a0: 2e1e bd1e 0000 0080 45da 8101 0000 0080
000002b0: 4fc0 e815 0000 0080 4292 6506 0000 0080
000002c0: e702 780d 0000 0000 43fd c60e 0000 0000
000002d0: d893 a810 0000 0080 d035 5502 0000 0080
000002e0: 0b15 3708 0000 0000 26df 9614 0000 0080
000002f0: 698f b11b 0000 0000 934a 121f 0000 0000
00000300: 9938 5a21 0000 0080 60c3 6a02 0000 0000
00000310: b9cc 1221 0000 0080 41a9 f514 0000 0080
00000320: 9695 6208 0000 0080 48e3 a30a 0000 0080
00000330: e44d 9f15 0000 0000 b273 290b 0000 0080
00000340: 489f e400 0000 0080 47d1 861d 0000 0000
00000350: d5d0 361e 0000 0080 1926 1c15 0000 0000
00000360: 2033 611f 0000 0080 66af 2115 0000 0000
00000370: 339b 8b12 0000 0000 7281 1211 0000 0000
00000380: 618a ce16 0000 0080 d790 2b16 0000 0000
00000390: b527 0322 0000 0080 56b2 6c01 0000 0080
000003a0: e1bb 961e 0000 0080 064c 2b24 0000 0000
000003b0: f201 9221 0000 0000 f388 a41e 0000 0000
000003c0: 7ca5 0d04 0000 0000 e630 c11f 0000 0080
000003d0: 4551 8f0f 0000 0000 a2e5 6617 0000 0000
000003e0: 658b fd1a 0000 0000 ef9a c920 0000 0080
000003f0: 862d 8712 0000 0000 5957 8d14 0000 0080
00000400: 688c ff10 0000 0000 212c 5904 0000 0080
00000410: 0244 e10e 0000 0000 6d16 fe06 0000 0000
00000420: d793 ed01 0000 0000 df8a d008 0000 0080
00000430: f088 a721 0000 0000 ef93 c81d 0000 0080
00000440: 5f74 7d09 0000 0080 bb8e 570a 0000 0000
00000450: 2160 8201 0000 0080 2c32 0402 0000 0080
00000460: c246 890a 0000 0080 9ff3 c909 0000 0000
00000470: 90cb 3405 0000 0080 0c59 0014 0000 0000
00000480: 197f 3721 0000 0000 2e88 b21e 0000 0080
00000490: 0afb 1e1b 0000 0000 77ab 411d 0000 0000
000004a0: 33a6 ca0d 0000 0080 6601 c700 0000 0000
000004b0: 5d53 0d1e 0000 0080 1f13 940d 0000 0000
000004c0: 7902 a00b 0000 0000 bb2a 7513 0000 0080
000004d0: a5d2 1d21 0000 0000 470a 300b 0000 0000
000004e0: 49ae c411 0000 0080 94a4 9006 0000 0080
000004f0: 15a4 2f04 0000 0000 8073 b512 0000 0080
00000500: 2f72 dd01 0000 0080 1511 ac0f 0000 0080
00000510: edb4 4220 0000 0080 a672 7f1d 0000 0080
00000520: 7684 6319 0000 0000 1cad 4914 0000 0080
00000530: a001 6702 0000 0000 593c b810 0000 0080
00000540: 749c 7c14 0000 0000 bb84 d31e 0000 0000
00000550: 58a8 660d 0000 0000 73ef c702 0000 0080
00000560: d853 8f22 0000 0080 d8d3 8114 0000 0080
00000570: bdbd 9d06 0000 0000 5d87 2c07 0000 0000
00000580: 570b ef0d 0000 0080 68ce 5a0e 0000 0080
00000590: 33f2 fc0b 0000 0080 432c 6608 0000 0080
000005a0: 504e 871e 0000 0080 7f56 291c 0000 0080
000005b0: 66ff 640d 0000 0080 52c5 7804 0000 0080
000005c0: 5172 0a00 0000 0000 aa46 f211 0000 0080
000005d0: b14c b00f 0000 0080 3d05 4a00 0000 0080
000005e0: c4ef 6f20 0000 0080 9017 4e04 0000 0000
000005f0: f719 1609 0000 0000 d714 9202 0000 0000
00000600: ffb1 f622 0000 0080 efcd 4719 0000 0080
00000610: 1d5c de0f 0000 0080 d998 ab1f 0000 0080
00000620: eabb 0c02 0000 0080 a6c5 4618 0000 0080
00000630: 5fc8 8b1b 0000 0080 3d9f 8e15 0000 0080
00000640: 1f51 0708 0000 0000 c29b 3e0c 0000 0080
00000650: c01e 9600 0000 0080 d821 511a 0000 0000
00000660: dac9 2b1f 0000 0000 aa72 4405 0000 0000
00000670: 83db 690f 0000 0080 f1cb 5515 0000 0000
00000680: 56ce f515 0000 0000 01fa c117 0000 0080
00000690: c097 a118 0000 0080 8e06 f522 0000 0000
000006a0: 8020 5e1a 0000 0000 415a 1614 0000 0080
000006b0: c119 8b1a 0000 0080 7a6e dc1c 0000 0000
000006c0: e117 e111 0000 0080 3e72 570e 0000 0000
000006d0: 48bb 521d 0000 0000 7fc1 fe01 0000 0000
000006e0: de47 0d22 0000 0000 75fb 791c 0000 0000
000006f0: 3a4b c800 0000 0080 dfa0 a00d 0000 0080
00000700: a1a4 ae1c 0000 0000 8108 1f0c 0000 0080
00000710: b9b5 4604 0000 0080 5250 d805 0000 0000
00000720: 191c f300 0000 0080 eca7 4f19 0000 0000
00000730: 2dc5 2221 0000 0080 31f8 ef08 0000 0080
00000740: f0e5 3101 0000 0080 3a4f 6a04 0000 0000
00000750: fae6 a911 0000 0000 54de ca1e 0000 0000
00000760: e799 ee1c 0000 0080 3ec7 0012 0000 0080
00000770: 5252 0607 0000 0000 19c3 ef0a 0000 0080
00000780: fa1a 6b02 0000 0000 7295 9e22 0000 0000
00000790: a719 ed10 0000 0000 61f6 511a 0000 0080
000007a0: e74f 7a18 0000 0000 1ae9 380e 0000 0000
000007b0: eded 7b1d 0000 0000 907b 2307 0000 0000
000007c0: ee95 8d0f 0000 0000 281c e10d 0000 0080
000007d0: 3c2e 8315 0000 0000 df2e db18 0000 0080
000007e0: ce95 f90e 0000 0080 6ea0 6a03 0000 0000
000007f0: c0d1 061e 0000 0000 4ae7 c90c 0000 0000

bias_0 f8 [1, 64]
-0.09214879470326903 -0.40950174912515314 0.01611108535409242 -0.01037138235261765 -0.28345002163463195 -0.8990185486232588 0.04375467333426239 -0.7868566785079913
-0.646759403718173 -0.08557938537120575 0.4157834631537653 -0.2736063347740969 -0.8410269258291417 -0.30874821763382737 -0.8091258677493851 -0.8642274049346654
0.2150333908701338 -0.6606993137644175 -0.4690586541694418 0.018462490589266026 -0.5330104209160446 0.4245039136645325 -0.25852560424484805 -0.7299248430274597
0.4442331555514342 -0.15959674419704423 -0.12893905910441175 0.26467838625736834 0.4971084403802237 -0.15746021224716847 -0.014605208386885539 -0.3215427350740522
-0.6809235463437728 -0.025606316682347023 -0.27511381365196586 -0.8438487275060256 -0.3175209911015928 -0.5053813542602738 -0.4068200054080436 -0.0831218050023382
-0.1405546663746047 -0.25166007532825035 0.10674808564366908 -0.28549189741902475 -0.80043341147175 -0.025573653789012267 0.028659100073757444 0.2385538022335476
-0.8881043169352647 -0.5686666138318206 -0.5842587818010093 0.3003458157084041 -0.21683810955769306 0.3423026681959805 -0.45280519886282283 -0.9207855682413982
-0.7235916486049015 0.26565869467791603 -0.7437494258382806 -0.746737873316215 -0.04721950555497438 0.05234878004780594 0.08627716679327145 -0.3218182750941523
00000000: acc9 9d3b 1097 b7bf d86d 09d3 4635 dabf
00000010: 38aa cba2 6c7f 903f e582 2660 973d 85bf
00000020: be28 3e8f 0b24 d2bf 71b2 1a8c c2c4 ecbf
00000030: bc1f 0936 0367 a63f a097 9a0e ee2d e9bf
00000040: 5033 ebc6 40b2 e4bf 6590 61d5 87e8 b5bf
00000050: 7fa2 1d3e 329c da3f b852 f524 c482 d1bf
00000060: 09bb af4c b1e9 eabf 87e0 5be2 87c2 d3bf
00000070: 7099 8aee 5be4 e9bf f40a 103b c0a7 ebbf
00000080: 26e8 aad2 3686 cb3f 3a73 23e3 7224 e5bf
00000090: d210 e496 0e05 debf 7169 22c5 d4e7 923f
000000a0: 135f c8de 6b0e e1bf a7a4 8d76 122b db3f
000000b0: b841 daf9 ae8b d0bf 6fe8 2a58 8b5b e7bf
000000c0: 4b1b b9e6 506e dc3f c6eb 6f86 aa6d c4bf
000000d0: 19e6 0339 1381 c0bf b1bd 3b9d 7df0 d03f
000000e0: 80e9 7feb 9fd0 df3f 59eb 02ff a727 c4bf
000000f0: 14c7 fbe2 55e9 8dbf 5e34 dafa 2794 d4bf
00000100: 58ee 532d 20ca e5bf 3e05 e3d2 8a38 9abf
00000110: b608 14f8 769b d1bf 681b ed0b cf00 ebbf
00000120: 50ca 2490 4352 d4bf 4bcb 9184 152c e0bf
00000130: 8182 a5c6 5609 dabf d6cc 117a 7847 b5bf
00000140: f186 b0ff b1fd c1bf 4d99 4fdc 321b d0bf
00000150: de0a c0b0 d753 bb3f 3f03 acce 7f45 d2bf
00000160: 38b3 9c87 269d e9bf 6ef2 a6da fa2f 9abf
00000170: f2c4 32a6 cf58 9d3f 20fb 7655 ee88 ce3f
00000180: 568c 95be 596b ecbf ea82 9753 8432 e2bf
00000190: 6b8e 0779 3fb2 e2bf 8150 fda7 dd38 d33f
000001a0: 2ad3 89e6 59c1 cbbf c10e 4f73 49e8 d53f
000001b0: 41c6 24a8 c2fa dcbf f737 c74b 1377 edbf
000001c0: 3b56 4dac a927 e7bf 6c8a 6253 8d00 d13f
000001d0: 3a9d 8c98 cbcc e7bf cd7c 12d3 46e5 e7bf
000001e0: 360e 2fb0 272d a8bf dce6 9494 75cd aa3f
000001f0: 77c5 c4a9 4216 b63f 8035 b2ad ab98 d4bf

weight_1 f8 [64, 32]
-6.642121888263266 0.5797836206847636 -10.760812197072532 -1.515916707239421 -8.430572748974782 -4.140866196781363 -3.91152717372317 1.6338093075426792
-1.8435446022778008 -4.309361183276358 0.13266212870227834 0.038701224343134374 1.1768016385038111 0.9533722033052716 0.4392828091822039 0.7068238871231284
-2.366964695105881 -6.110382875210038 1.1036473394269584 -2.0681425166356995 -1.599604963232767 -1.6443804047660524 -5.047408267689482 1.1395557655473474
-5.405687373080756 1.0024668449628045 -0.0980019719074114 0.9714524011100806 -2.0521046480411287 -6.012114571830507 -0.38600355763512856 -0.704355112530259
0.3612984424269676 -3.1457217371585506 -7.099529877336189 -3.9178096782283656 0.0625411300896161 -9.277289089046024 0.12021180776084137 -3.0008106734858075
-0.04070453548853939 0.14394058090856293 -0.6798038969346812 -12.707720588971828 -3.4347890664042358 0.6599060137379636 -0.028010257195733596 0.23185980609620652
0.34743369074579167 -1.7698176856000247 -5.065909262685345 -4.8107820168419 0.5671821039277389 -2.1474780110255733 -0.1325502231741372 -4.4543879925971055
0.20933912685382075 -3.903872540071648 -0.6975820518403375 -4.717208641520701 -1.7408787855480823 -2.1108144167638847 -2.649893115880055 -0.14756267470458082
-5.6878970793124966 0.1398747862858277 -8.157853716777307 1.4007728152042256 -6.30481693353126 -5.511633084691493 0.43238790532158095 0.8279799796923231
-0.3533525005588211 0.10182549480560717 -3.6765032287254154 0.027314778995333227 0.7422207461106727 -0.10133215426945671 -5.942915984868718 -2.240415219009315
-2.3594336204268296 -1.5196961039748618 1.4298192447835594 0.9333635371158011 -0.554180812213731 0.829187973779228 -0.8089344818417357 -3.1882155312371925
0.26947738369515617 -2.1582284246205505 -1.9748847448503866 -2.4070346071417075 -6.101550155894993 -3.6209345602468535 -5.77297222197774 0.19936861146174392
-6.190696279494283 -2.994362999826187 -10.460499336346071 -1.7746674071527104 -2.4908306147705574 -7.7110964459467715 -3.4118934192588073 -4.827148351287395
-0.485607035172278 -1.6326228826382696 1.0877309054581255 -8.275761391738952 -3.8288840934157053 -5.702553574679657 0.7570286434975096 -6.512930593402795e-05
1.3902531913728857 -4.798630501661286 -1.3341944551428144 -0.36359384500352415 -3.909892227763696 2.456504916065725 -1.5422231385822749 -0.36927249601912226
-2.258990121300056 -2.9984300918504814 -3.4338326024915813 -1.7797009629719232 0.7973717942259783 -5.210368635415266 1.2057339786875547 -2.4267176107029456
-3.4192818627571557 -3.4186159373229827 -9.173245436437348 -1.0235286360349194 -5.460337572412986 -9.570625622152104 1.2064770265970342 -3.6801930774229397
0.6350129457113249 -3.6858652023553664 5.071273212782284 -8.898892693075966 -4.324752083014196 -6.580664299512872 -0.11443198380369045 -0.034775043268820846
0.18495861449091053 -5.858858251402772 -2.0086417983299025 -1.7275825880385087 -3.572910178522281 2.090715470597013 0.7359062655750847 -1.8409104660438833
-3.515862757627381 -4.342828457817952 -7.611877411990263 -1.8727526677392428 0.5419717806032004 -2.6253587145253907 0.8649412282225233 -4.186231103659962
-3.659931491614681 6.128327881493929 -5.534994990052563 -0.8474312234406114 -5.8804232945347445 2.338186921867463 -1.1935350115309358 -4.891651043752317
-0.031024438439734705 -3.403772662896534 -2.7837570144700257 -5.182079539300688 2.19636802571268 5.910671738269631 2.7068198442237636 -1.3540101620968017
-3.2047771364655153 -5.960447079845573 -2.0949947272128657 0.0056852918355545 -0.7369458072364414 -1.2350796273072515 -0.07842209508426011 -3.2248140623344077
-4.22875016918781 6.208199795128683 -3.583315137554523 -2.3787562388268735 -1.2557644421518779 -0.22423844455769298 -3.3233766653984658 2.973309422893588
-5.308724332352857 0.3330619761670877 -11.110373189065786 -4.133903527070643 -6.766100870077948 -4.9124131025617865 -4.192072557567581 -0.6896173350629099
-2.6294111173566592 -4.267222108327726 0.3496532300982353 -10.213591352245524 -0.18401560820394694 -0.2318082892251578 1.450532423104796 -0.324382885555683
0.2331415074032801 -7.817773187103427 -1.8996545736580428 -4.121127834991363 -1.1787250421274038 0.1435819744273288 -5.2722791822023405 0.12411432245313449
-6.678468471826893 0.4150584433120173 -1.9687638586857739 -1.6965311895182327 0.22283243084982596 -5.585363362688186 0.6082807364126657 0.15933507392517143
3.9655308227071653 -2.3900028198302277 -0.16004471359918623 -1.1611200682737284 5.39612277168689 -3.78699702629207 -1.2070266915553942 -0.026922390049699117
-0.030416904639635808 -0.40927572221542335 -0.9879599757458959 -5.825707201541011 -0.26564824835589096 5.95638859518475 2.122350196634315 -6.424065476801921e-236
4.385871637208263 -1.2764845611955329 -0.16386544622063584 -1.4160407295077073 5.473168515247271 -1.647045981340941 -0.08418798352516833 1.045141210316022e-171
-3.0539667310854686 -2.441243973921839 -0.9663471421909039 0.029468620853258676 -1.1865211212484648 -2.146993993e-315 -0.5801368258061486 -2.863160631409122
00000000: c58b 7866 8891 1ac0 f51e 3361 968d e23f
00000010: 1ca6 212d 8985 25c0 66da 90e0 3141 f8bf
00000020: 80ca 0608 74dc 20c0 c326 713a 3f90 10c0
00000030: 5b73 44c2 ce4a 0fc0 4abd 7c3a 1524 fa3f
00000040: f901 f89f 287f fdbf 974b 932d c93c 11c0
00000050: ecd5 1898 12fb c03f 3ee3 bc99 a5d0 a33f
00000060: a10c 74f4 2dd4 f23f 4492 436c 0682 ee3f
00000070: 197c c8a4 351d dc3f bd36 e720 4d9e e63f
00000080: 8721 a22f 8bef 02c0 2343 5c35 0871 18c0
00000090: c97f d21c 8aa8 f13f f856 c34d 8e8b 00c0
000000a0: 0daa b95f fb97 f9bf 7b74 cad3 614f fabf
000000b0: 3625 fdca 8b30 14c0 d6e7 8fd3 9e3b f23f
000000c0: c420 bf82 6c9f 15c0 6308 a7ac 1a0a f03f
000000d0: fd2c 4940 a816 b9bf 596e 8c58 2316 ef3f
000000e0: 2d73 7ad7 b56a 00c0 ae44 27c3 670c 18c0
000000f0: 8bae 0b44 48b4 d8bf c4cf a2bb 138a e6bf
00000100: c073 9480 831f d73f 5b4c 7b28 702a 09c0
00000110: 0989 0029 eb65 1cc0 7f8b bf99 ac57 0fc0
00000120: cdc8 630c b202 b03f 09fb e1d5 f88d 22c0
00000130: ae04 ed76 33c6 be3f cddf c006 a901 08c0
00000140: 64bd 7191 39d7 a4bf 06e6 c81b a56c c23f
00000150: d3e3 201a f4c0 e5bf 02ae 605a 5a6a 29c0
00000160: a1ea a6b0 727a 0bc0 6506 6e37 f31d e53f
00000170: 65d2 6e8a b8ae 9cbf 7955 3806 95ad cd3f
00000180: 3e08 d284 5a3c d63f 618d 7859 2c51 fcbf
00000190: b8f2 beb7 7d43 14c0 6215 1aa4 3d3e 13c0
000001a0: 26e0 6715 5b26 e23f 29df 91f3 082e 01c0
000001b0: 4322 cedc 67f7 c0bf 4099 ff15 4bd1 11c0
000001c0: 2120 cedf 9fcb ca3f a5e1 ba86 213b 0fc0
000001d0: 54c9 5d98 9752 e6bf c2f5 2ef1 6bde 12c0
000001e0: d9aa a3b6 a3da fbbf db68 3fab f2e2 00c0
000001f0: 91cd 7429 fb32 05c0 ffb4 fb6e 55e3 c2bf
00000200: f5a4 8a17 68c0 16c0 abf9 50c0 6ae7 c13f
00000210: 9e38 ce33 d250 20c0 17d9 66c1 9069 f63f
00000220: 9422 23ee 2138 19c0 cc34 198b e90b 16c0
00000230: 55b2 2252 3eac db3f 42ae d0de cf7e ea3f
00000240: 8f09 77ce 539d d6bf 4dcf 1652 3c11 ba3f
00000250: cf1c 5886 7a69 0dc0 8b00 eec9 67f8 9b3f
00000260: 6aa8 deb8 45c0 e73f eedb 9e70 e7f0 b9bf
00000270: 0f8c 97c4 8bc5 17c0 72d8 78d0 5eec 01c0
00000280: 6587 e6bb 1ee0 02c0 eee3 a6dc ac50 f8bf
00000290: c296 f824 8ae0 f63f b41e 6635 1dde ed3f
000002a0: 0ceb 1066 d9bb e1bf 08c9 b337 b588 ea3f
000002b0: 24be 0391 cae2 e9bf a41a fa24 7781 09c0
000002c0: a6de 7e11 1e3f d13f ca57 a843 0d44 01c0
000002d0: 0607 08bf 2099 ffbf 591c 305c 9b41 03c0
000002e0: 0be4 99c3 fc67 18c0 24bb e989 acf7 0cc0
000002f0: 8271 b807 8617 17c0 19df 0921 e984 c93f
00000300: 5896 afe2 45c3 18c0 f0d8 a496 74f4 07c0
00000310: 46df aa91 c6eb 24c0 d7f7 afa6 0965 fcbf
00000320: 5d85 f299 38ed 03c0 a792 aeaa 29d8 1ec0
00000330: ca3b e9c6 8e4b 0bc0 f4e0 36fa ff4e 13c0
00000340: ea6f b187 2f14 dfbf 301f fa2b 391f fabf
00000350: 6aa8 9c85 5867 f13f 5709 de98 308d 20c0
00000360: 1729 cbfb 8da1 0ec0 82bf 4b34 6acf 16c0
00000370: 21a0 3e22 9439 e83f cad8 bbf4 c012 11bf
00000380: e3b2 6121 7a3e f63f a8e4 b831 cc31 13c0
00000390: a17c f548 dc58 f5bf 354a 541e 1f45 d7bf
000003a0: 8a09 8993 7547 0fc0 5fb9 a70c eca6 0340
000003b0: 8a86 752b f2ac f8bf 10b9 6d1b 29a2 d7bf
000003c0: 3ac4 a769 6912 02c0 83b8 7eea c8fc 07c0
000003d0: 891e 3d3a 7d78 0bc0 62fc 89b7 a779 fcbf
000003e0: 6782 5eda 1184 e93f d2d9 24e0 6ad7 14c0
000003f0: 6139 62b6 af4a f33f 73c5 34ec ea69 03c0
00000400: 97c8 0273 b05a 0bc0 c017 0350 5359 0bc0
00000410: fc5b 37a0 b358 22c0 a7a1 2490 5f60 f0bf
00000420: 0589 8abb 62d7 15c0 4ece a20a 2924 23c0
00000430: dbc0 c9da ba4d f33f 1bfa 7311 0971 0dc0
00000440: 88bc 4bab 0652 e43f 51a5 2ce5 a67c 0dc0
00000450: 4cec 57d8 fb48 1440 d1bf bea9 3bcc 21c0
00000460: 576a 5fcf 8b4c 11c0 3c73 81a9 9952 1ac0
00000470: efa1 0d1c 6a4b bdbf cef6 1cd3 08ce a1bf
00000480: 1f0c 2d50 b9ac c73f d8b2 9689 786f 17c0
00000490: fca4 89ca b211 00c0 213b cca3 2da4 fbbf
000004a0: c763 82ee 5195 0cc0 b3a4 5b08 c9b9 0040
000004b0: 9920 f24b 8b8c e73f 8f5c 6888 5e74 fdbf
000004c0: 2fdf 49a7 7c20 0cc0 69dd 596c 0e5f 11c0
000004d0: 1fa3 06fe 8f72 1ec0 24fd 5680 cbf6 fdbf
000004e0: d375 2134 d557 e13f c13d d911 bc00 05c0
000004f0: 9eb0 053a 99ad eb3f bede ce5d b3be 10c0
00000500: 36af 7029 8a47 0dc0 beb9 5862 6883 1840
00000510: cb32 07ba d523 16c0 9a2c c915 281e ebbf
00000520: 39a7 22af 8d85 17c0 65d8 4a58 9bb4 0240
00000530: 6b80 122b b818 f3bf 1e71 a1f8 0c91 13c0
00000540: 07d6 e6d1 dec4 9fbf 8c46 7129 ed3a 0bc0
00000550: 5e46 c965 2245 06c0 d144 0a0f 73ba 14c0
00000560: 1154 4366 2992 0140 c409 d521 87a4 1740
00000570: cbd6 9829 91a7 0540 cd84 4a8f 06aa f5bf
00000580: 0eb4 0032 62a3 09c0 d9e6 7570 7fd7 17c0
00000590: a45f 7598 8cc2 00c0 c5df 07e8 7549 773f
000005a0: 9e27 a05f 0f95 e7bf 25d9 f3da e2c2 f3bf
000005b0: f7b2 ab6d 7813 b4bf eb41 ab50 6bcc 09c0
000005c0: e676 fe7b 3dea 10c0 4672 bc53 32d5 1840
000005d0: a477 7820 a1aa 0cc0 cf56 d759 b107 03c0
000005e0: 1c5a a874 9c17 f4bf 2ecb f068 d8b3 ccbf
000005f0: 5668 5181 4696 0ac0 96bb 6173 56c9 0740
00000600: 65bd 3b3b 223c 15c0 0571 cb2d e350 d53f
00000610: 1ac9 aad5 8238 26c0 9059 9601 1e89 10c0
00000620: 0fb0 19bf 7c10 1bc0 71c7 cf9e 4fa6 13c0
00000630: ecd8 24ab aec4 10c0 2732 9b5f 5811 e6bf
00000640: 0d49 26b2 0809 05c0 9c24 20ac a211 11c0
00000650: 9b9c 0df1 b760 d63f b534 81d8 5b6d 24c0
00000660: 9541 98cd d28d c7bf 27f6 94de e4ab cdbf
00000670: 1e5d 707c 6135 f73f 5100 366f b0c2 d4bf
00000680: c090 d1b6 94d7 cd3f a09e 9855 6645 1fc0
00000690: 0cee b831 fc64 febf 58b1 67ef 087c 10c0
000006a0: 609d 2eca 0edc f2bf 31f1 3ae6 e460 c23f
000006b0: 41c3 9b5a d016 15c0 e1c2 e6cb f4c5 bf3f
000006c0: 5474 6770 c0b6 1ac0 cd0a fd49 5190 da3f
000006d0: 77a2 2988 0e80 ffbf 21ff 79e3 fd24 fbbf
000006e0: d07c 7ee9 c585 cc3f e216 4c7e 6957 16c0
000006f0: f8bb b529 0977 e33f 24a3 ce79 1765 c43f
00000700: 3f75 5639 68b9 0f40 1c26 64cc b91e 03c0
00000710: 4731 675d 587c c4bf 7070 ffa2 f293 f2bf
00000720: 5f62 3635 a195 1540 1fca cf18 c54b 0ec0
00000730: 6c12 5a38 fb4f f3bf 06a9 2c03 8b91 9bbf
00000740: efee b0ea 9b25 9fbf cd91 7dcc 9231 dabf
00000750: 0abd 323d 5e9d efbf e4c2 4a30 864d 17c0
00000760: 3e68 bb82 6100 d1bf f257 2a88 57d3 1740
00000770: e0a0 69bd 92fa 0040 1a0c e373 1625 1a8f
00000780: ca0d 39ef 218b 1140 89f0 4213 7b6c f4bf
00000790: 5d25 3bfe 8af9 c4bf 24a2 f052 1aa8 f6bf
000007a0: 85ef 8949 86e4 1540 8fe1 0de3 4c5a fabf
000007b0: d9ef f4fb 578d b5bf d62a be51 ec27 701c
000007c0: 44ac 081c 866e 08c0 3769 aceb aa87 03c0
000007d0: 3560 89d7 50ec eebf 8db8 4aab 052d 9e3f
000007e0: 1168 3c92 fdfb f2bf 06ce e619 0000 0080
000007f0: 725d c11a 7b90 e2bf 6ec6 d8c2 c0e7 06c0

bias_1 f8 [1, 32]
-1.9687895030660667 -2.374365165199981 0.08703017684674884 -2.994096650412339 0.07874348369713359 0.08805897352459428 -3.462703522059031 -1.7310443615078288
-3.4944211785230825 -3.356403779479489 -3.1347174936307316 0.0941998543787008 -2.6376753037012164 -1.8747628282506288 -3.1066044076162855 -2.2345422728585564
-3.1287012578464184 -2.9698860635174578 -2.442838676296462 -3.0261060779012596 -2.172882974179462 -3.236809955383532 -2.4827174348542136 -3.202270865416165
-2.6556732359201205 -3.0462096450045335 -2.9262048980415716 -2.449246562630965 -3.1037948607061883 -1.676916583435461 -4.1311933997366435 -2.857153056194341
00000000: 9207 066c 2980 ffbf 4c5d ea29 b3fe 02c0
00000010: e766 5213 9c47 b63f 52ac d4f1 e8f3 07c0
00000020: 9996 406f 8828 b43f 734f 686b 088b b63f
00000030: 82e6 77e7 9db3 0bc0 089f 8992 5bb2 fbbf
00000040: bea6 4117 93f4 0bc0 1848 8839 ead9 0ac0
00000050: a1be eac3 e613 09c0 ff2f d84d 7b1d b83f
00000060: a3e8 7682 f519 05c0 957c b14e 07ff fdbf
00000070: 3a92 6269 53da 08c0 f4a7 fbb2 57e0 01c0
00000080: 463c 6b86 9407 09c0 b23a dd9f 53c2 07c0
00000090: 23c7 0001 ef8a 03c0 7d80 761a 7735 08c0
000000a0: 8816 0178 1062 01c0 79ea 2d9e fce4 09c0
000000b0: 4b43 5ff5 9adc 03c0 1a2b ff2f 409e 09c0
000000c0: 831d 099c d13e 05c0 166f 9029 a35e 08c0
000000d0: 57de 131d de68 07c0 29b9 f294 0e98 03c0
000000e0: c1ce 6166 92d4 08c0 139b bf7b a6d4 fabf
000000f0: 9e47 0590 5786 10c0 4e2b c00f 73db 06c0

weight_2 f8 [32, 10]
5.985861609247613 -5.6992170802908415 -5.492726471134816 -1.5635749655839197 -2.0758943106868126 -4.531103388921797 -4.523904983054994 -2.0625036698642893
-4.8064530128104215 5.943085283829033 -7.627431905228615 -5.159298554203439 -1.4911763479101685 -3.2968178348225075 -1.7518188320424297 -1.1876306113244568
7.426774380092646 -3.534764270780259 -0.4601806428343711 -4.290275227523891 -4.259068314849906 -14.701659826251074 -10.316948534186418 -7.181347419300339
0.0685983934157537 -8.502085977201283 -13.198248798082906 -3.214575636172604 4.304190549364393 7.89029143350455 -9.072043618316366 -1.7491609723858188
-16.42044517598572 -0.5712803505651789 -2.645446671652555 -4.6800151538312 -11.563536096867022 9.45858954732489 -12.504157485524068 3.915967435865517
6.001905022381158 -9.5062610624274 1.2631947129150094 -2.2249149048218975 -5.95612928183265 -0.8323508181055528 -5.8018230273056535 -6.804540216894402
5.696364102291739 -10.332940873296298 -2.907055206818447 -7.399191849903513 -1.3715406460621762 -4.924628122736291 -5.421330932958638 -2.20774251766234
4.251161609771173 -10.6457750162395 8.15936514150257 -9.306919208315701 -2.2685016242550318 -5.849143127571865 -7.0489779216417086 7.191697045117209
-8.053937151181186 2.0130230847071995 -6.198285995148653 -5.0603993362167285 -9.056002063382186 -9.083001164087515 -6.34735848150995 4.216324644322316
-1.4850081045380346 -5.104667165860395 4.095716396690031 -2.9069059200830574 -1.6738376151309664 -5.141169894834159 0.2610897026718592 -2.618827897015517
-2.7628193025379844 -3.6708270887297867 -5.211685086129622 9.514812588803215 -4.436237080507703 -1.7250842408295786 -3.09257320480984 -5.5994508281554225
-1.935690039561961 -4.231509281578495 -1.7929261247554904 -2.999482582332116 -3.0585419205761544 -6.100303665365027 -5.892278633083539 7.193988680366946
-3.9639435373909824 4.353473217528273 -2.209145113931865 -6.333792993567471 -7.143876657094148 4.12662707553395 4.391529768731381 4.4461913912360425
-9.698895822376757 -2.526005680952675 -7.642003719306104 -10.267558805494863 -7.5605914537524965 -11.97932616332469 -8.944505203096243 7.416543319149893
-3.685156416449904 -4.729175929974014 -5.4813520133892455 -2.746915892476283 -5.098171933230525 -4.0017082287445955 7.15409330158668 -9.492783177809343
-5.020703432067199 8.19800212201781 -2.247037159366819 -4.19192247583705 -2.512010910022408 -1.2239992210415074 2.219128666265117 -5.812035360589912
-4.223065829348489 -3.458731588099693 5.863821979521855 3.0634314426477296 -8.167009172089532 -2.163724826239655 -3.551891168511933 -2.5747284145769456
5.751993808955782 -4.681385791652675 -4.914549792200089 -3.8818355181756985 3.6474604513698017 -9.10264051698378 3.883843440659904 -11.57325104826307
3.962531828495567 -5.4358996842903915 3.9074005384195214 -11.130613562653743 -9.950283952091793 -9.75798780602519 -1.335972409232075 -3.545733985969722
-2.8746687013532504 -1.836439404988399 6.712866423598069 -2.6278297940022193 -1.3314368182042002 -1.3331901263539212 -1.1103582343070841 -3.8990775661188404
4.6096287941941805 -5.446718172561572 4.365763233027134 -6.932040391068179 -5.964708629615492 -2.0179636965390526 -5.959841794892855 3.6017245445151107
-4.9520432237682686 -4.917296462438325 -5.1645140716207045 0.09054315572361298 -6.030277172518443 -3.636349113686996 -4.64648007263236 4.778794337707797
-1.0669731667599898 -4.309804934896689 1.0826284385806237 -0.25334701452358027 -4.612817482280764 8.056782749456879 -4.0172918034049445 -5.9296433498646755
-6.5829170896420175 -2.1768432016353 -3.626230286649976 5.749539578017491 -4.462892503176605 -6.665600206346192 -4.475716065314143 -8.618847715389917
-8.791204245664622 -5.753836525770356 -7.041349141030065 -3.6167419721772087 -6.8391996418094925 12.334749399399913 -5.397179450389192 1.3582427706275018
7.893599369574475 -5.805449743828257 -9.07235914025606 -2.3242067151055874 -4.6091025787752935 -0.5151571434572259 -1.818850096103143 4.215543124154321
-4.25868785426114 -1.6211094708574703 -15.184830402509709 -15.892903457842376 6.675085779125222 6.266278360087618 -13.325180426731244 -11.442374873631152
-17.277036906457177 6.676589556859164 -15.814362337809197 -23.90700541050779 -4.229700995406071 -5.509576760675536 -7.672693341885539 8.71260057773218
-2.4883715167230736 -1.6567957572389032 -5.389117393107299 -5.391861249162815 -0.391133445845533 0.27999060715521784 -3.927863028304717 -6.012767927192605
-1.321577395175921 -5.555195833110674 7.124278673016126 -6.258111889768446 -1.0249572087736454 1.5972181062101074 -4.7100005284935165 -7.9868945943814635
-3.9451028109656874 -8.971607006734736 -6.55401260689114 2.861136560619469 -8.389645754888999 5.1561701440137115 -3.925297827135192 -5.994943369387485
-0.3661133760470841 -12.384011250554352 -7.503927537084698 -2.62817297427685 -0.21901815537691308 -3.2616500676386657 1.0798503211010764 -2.778614388524954
00000000: d766 a8b4 85f1 1740 769d f28f ffcb 16c0
00000010: 1097 bd49 8df8 15c0 a96f e02e 6704 f9bf
00000020: 8fd1 f279 6e9b 00c0 05db 1891 d91f 12c0
00000030: 04bb 418c 7a18 12c0 ab93 8fec 0180 00c0
00000040: 2f20 8fd1 ce39 13c0 ce89 0d26 b8c5 1740
00000050: 0cb2 6582 7d82 1ec0 596a 0229 1fa3 14c0
00000060: 7c7c edba dbdb f7bf 2575 6b07 e25f 0ac0
00000070: f839 022f 7307 fcbf 5adf b5f4 8800 f3bf
00000080: 0913 d557 04b5 1d40 6390 707d 3247 0cc0
00000090: d474 ce82 9973 ddbf 5e37 c4e8 3d29 11c0
000000a0: 39d7 4e34 4909 11c0 b054 edf4 3f67 2dc0
000000b0: 0db1 0914 47a2 24c0 926f 4c23 b3b9 1cc0
000000c0: b15f 4710 aa8f b13f 2cb8 c769 1101 21c0
000000d0: 8b79 d0dd 8065 2ac0 af09 5f6e 73b7 09c0
000000e0: e116 35ba 7d37 1140 773e bb8e a88f 1f40
000000f0: cd1b b1e6 e224 22c0 ec62 3d37 90fc fbbf
00000100: a09e 884b a26b 30c0 a4cb d0ba ed47 e2bf
00000110: 6b7a d0f1 df29 05c0 29f5 79e4 55b8 12c0
00000120: 9651 a4cd 8720 27c0 7f18 c83f ccea 2240
00000130: 0cb8 10ee 2002 29c0 6ef2 29bc e653 0f40
00000140: 074d e363 f301 1840 51ba 64a6 3403 23c0
00000150: 8133 c7a8 0b36 f43f 78be 842f a0cc 01c0
00000160: 76e0 f08d 13d3 17c0 7efd d12e 9ea2 eabf
00000170: 7ad4 7d18 1135 17c0 4883 ff63 d937 1bc0
00000180: 40ce d5ab 13c9 1640 5a9e e439 77aa 24c0
00000190: 2d9d 0729 a641 07c0 4ca9 90bf c598 1dc0
000001a0: 528c bf9a d4f1 f5bf fc74 f0b6 d1b2 13c0
000001b0: ee66 4760 71af 15c0 a2c9 bae8 74a9 01c0
000001c0: 5fe9 4f82 3001 1140 22a5 de05 a34a 25c0
000001d0: 7dc0 cd4e 9851 2040 d675 b483 249d 22c0
000001e0: 33c9 f82d e425 02c0 612d aac6 8565 17c0
000001f0: 71b5 ae44 2732 1cc0 b012 ee3a 4cc4 1c40
00000200: a7b9 78a6 9d1b 20c0 9f48 d7d8 ab1a 0040
00000210: 51ac e17b 0bcb 18c0 fb00 d752 d93d 14c0
00000220: 5378 6d4d ac1c 22c0 5592 ea20 7f2a 22c0
00000230: 384b 18f1 b163 19c0 93bb 2235 84dd 1040
00000240: ab92 b4db 97c2 f7bf 7457 99de 2d6b 14c0
00000250: 0ae6 a57a 0362 1040 b571 1ae4 5741 07c0
00000260: 8cd5 7cf3 09c8 fabf 4bf8 45d7 8e90 14c0
00000270: 6b12 9395 b1b5 d03f d745 5c0a 5cf3 04c0
00000280: f043 a901 411a 06c0 2fec ba97 da5d 0dc0
00000290: 22e9 a7f9 c3d8 14c0 33f5 0084 9507 2340
000002a0: 1955 e8ee b4be 11c0 1554 d3ee f199 fbbf
000002b0: 4427 3905 97bd 08c0 5cf3 1970 d665 16c0
000002c0: fcc8 711e 96f8 febf 7e66 e4c4 10ed 10c0
000002d0: 6680 df4d d3af fcbf f54d 60b9 f0fe 07c0
000002e0: 918e 92d3 e477 08c0 9aa5 0901 b666 18c0
000002f0: b40d 707d b191 17c0 84e1 f7f7 a4c6 1c40
00000300: 5147 8207 28b6 0fc0 ed2e 15e2 f469 1140
00000310: faa4 0346 54ac 01c0 6006 9cd4 cd55 19c0
00000320: 3982 0367 5493 1cc0 64d3 3087 aa81 1040
00000330: 6872 002e ed90 1140 5176 6465 e6c8 1140
00000340: a1d6 58ac d565 23c0 989d 6977 4235 04c0
00000350: 0152 496c 6991 1ec0 ebb6 be77 fd88 24c0
00000360: e322 a1af 0b3e 1ec0 8231 273d 6af5 27c0
00000370: 8166 9c2f 96e3 21c0 de76 f454 8aaa 1d40
00000380: 0a60 8a49 337b 0dc0 3a13 5118 adea 12c0
00000390: 757b cd8a e7ec 15c0 e562 180a aff9 05c0
000003a0: d870 ea2e 8764 14c0 565e 4acd bf01 10c0
000003b0: cb63 6ba2 ca9d 1c40 906b a113 4efc 22c0
000003c0: 0693 ce47 3315 14c0 cf35 bd88 6065 2040
000003d0: 9004 439e eef9 01c0 9459 5453 87c4 10c0
000003e0: 79ee 0d2d 9918 04c0 763e 0b35 8095 f3bf
000003f0: 57cc b987 c6c0 0140 8bb7 9332 863f 17c0
00000400: a4a0 675e 6be4 10c0 1b3e 8477 7bab 0bc0
00000410: 0c73 bebf 8d74 1740 48ae 1d58 e881 0840
00000420: 5e83 e839 8255 20c0 d9f0 31f6 4e4f 01c0
00000430: 09ae bdea 456a 0cc0 f084 0536 0b99 04c0
00000440: c909 41aa 0a02 1740 e26d 6c32 bdb9 12c0
00000450: 7d40 a0bd 7fa8 13c0 7020 b8c7 ff0d 0fc0
00000460: 8eb1 c0be ff2d 0d40 3661 3f4c 8d34 22c0
00000470: e458 8382 1c12 0f40 0e60 5129 8125 27c0
00000480: f7fa 25e3 43b3 0f40 b174 a17c 5cbe 15c0
00000490: bc13 a736 5b42 0f40 1406 e8c7 df42 26c0
000004a0: b74b 409e 8be6 23c0 3b4a 4bfa 1684 23c0
000004b0: 5529 e09a 2460 f5bf 0872 b0c7 a95d 0cc0
000004c0: 0f2d d94d 52ff 06c0 892c 1849 0e62 fdbf
000004d0: ac14 dfa7 f9d9 1a40 358d 85a0 cb05 05c0
000004e0: 9309 6eb1 904d f5bf a8a4 802b bf54 f5bf
000004f0: 7a17 f3fe 06c4 f1bf af61 3894 4f31 0fc0
00000500: 410e d787 4270 1240 2db9 167d 70c9 15c0
00000510: 1bb9 0fa3 8a76 1140 6ac1 d8cb 68ba 1bc0
00000520: 5678 3994 dcdb 17c0 3934 8926 ca24 00c0
00000530: 5298 79c4 e0d6 17c0 a724 3ff5 54d0 0c40
00000540: 3dda 396b e4ce 13c0 eba2 8bc3 4fab 13c0
00000550: f45e 7560 76a8 14c0 43a5 b514 d62d b73f
00000560: d520 a7fa 001f 18c0 6efe 4034 3e17 0dc0
00000570: 03e3 45df fe95 12c0 540f 4b43 7c1d 1340
00000580: 7019 8f74 5212 f1bf 2f15 3e81 3d3d 11c0
00000590: efc5 9632 7252 f13f bfc0 7a65 d636 d0bf
000005a0: 7440 136d 8673 12c0 dcc9 e7a0 121d 2040
000005b0: d073 48f1 b411 10c0 5f73 226d f4b7 17c0
000005c0: f92a b137 e854 1ac0 2f59 bcc4 2c6a 01c0
000005d0: 2b69 4706 8502 0dc0 3192 9a4d 87ff 1640
000005e0: 11d4 0a7e 00da 11c0 f9de b919 93a9 1ac0
000005f0: fdd2 ba1c 22e7 11c0 a79b 959b d93c 21c0
00000600: fb2b 0fb9 1895 21c0 13db e2b8 ed03 17c0
00000610: 6dc4 e16d 572a 1cc0 bf92 446a 16ef 0cc0
00000620: f78b a126 575b 1bc0 798e f545 64ab 2840
00000630: 6442 b835 b696 15c0 0ffa 7dc5 5cbb f53f
00000640: c131 90b6 0b93 1f40 7a41 51d1 c738 17c0
00000650: d3ee d941 0c25 22c0 3c2d b4b0 f997 02c0
00000660: 21ff 1e96 b86f 12c0 d762 6ed5 2a7c e0bf
00000670: 6a6e f18e 021a fdbf 5e7b 3456 b7dc 1040
00000680: 30b2 0778 e508 11c0 6519 097c 10f0 f9bf
00000690: e32b 2c17 a25e 2ec0 2ed6 5ba4 2ac9 2fc0
000006a0: 9c59 bdaf 49b3 1a40 d8d5 4046 ab10 1940
000006b0: 5438 840c 7ea6 2ac0 c8a2 9df5 7ee2 26c0
000006c0: c204 05e4 eb46 31c0 d919 8ee4 d3b4 1a40
000006d0: 1ef8 af19 f4a0 2fc0 0f6d af81 31e8 37c0
000006e0: c982 dcbc 36eb 10c0 b89c 877d ce09 16c0
000006f0: 968a fe85 d6b0 1ec0 dbf0 a0fb d96c 2140
00000700: f7fc 6453 2fe8 03c0 dfe1 9744 3c82 fabf
00000710: 71cd 36ca 748e 15c0 60e5 4613 4491 15c0
00000720: 82d0 9193 5408 d9bf 58ce 3ab9 5deb d13f
00000730: e8e3 8d73 436c 0fc0 77eb 1609 130d 18c0
00000740: 7d9d b656 2e25 f5bf e157 a841 8538 16c0
00000750: 35c7 90e8 427f 1c40 930e b57b 4e08 19c0
00000760: 4db7 b787 3966 f0bf 0106 ac92 348e f93f
00000770: e816 e860 0ad7 12c0 cbde 1d7f 94f2 1fc0
00000780: 73a4 0310 928f 0fc0 f4fa 3c79 76f1 21c0
00000790: 36ad b014 4f37 1ac0 1c01 aa90 9be3 0640
000007a0: 068c fca5 7fc7 20c0 1d9a f410 eb9f 1440
000007b0: 16d8 148c 0267 0fc0 b090 436f d2fa 17c0
000007c0: 2906 30cc 666e d7bf a0da 641f 9dc4 28c0
000007d0: 9654 8d94 0504 1ec0 3f00 668d 7f06 05c0
000007e0: b97b 4973 c908 ccbf b808 9cfd db17 0ac0
000007f0: 7e44 5b21 1147 f13f 1947 372e 9a3a 06c0

bias_2 f8 [1, 10]
-0.8257650951841607 -0.4866209568967694 -0.25597439335501576 0.3348498211006217 0.017414612141236522 -0.12455684878512165 -0.4668467656309474 -0.0868852311600932
0.3739603686953253 0.8030124644164716
00000000: 49d1 bfeb aa6c eabf d3de da39 cc24 dfbf
00000010: d7af 046c e261 d0bf 35b6 acf1 2d6e d53f
00000020: a1fe 79d6 22d5 913f d160 0628 f5e2 bfbf
00000030: 0036 a841 d1e0 ddbf 3287 564a 1c3e b6bf
00000040: 41fa 6278 f7ee d73f 1a5f 1e32 47b2 e93f

loss_history f4 [165]
0.6367192 0.30673063 0.2487131 0.21908405 0.20082973 0.18924364 0.17680217 0.17230661
0.16500407 0.16182089 0.1621692 0.15474737 0.15679802 0.14726461 0.15023124 0.15676741
0.15037557 0.15161398 0.14657785 0.14426495 0.14934312 0.14809872 0.15182921 0.15125729
0.14523664 0.14636412 0.1394716 0.14958648 0.14660677 0.14697716 0.15264823 0.15043992
0.1499175 0.16153766 0.15496822 0.16588306 0.15783916 0.16066217 0.15482725 0.16166386
0.15951027 0.16913573 0.163837 0.162611 0.1702471 0.16872391 0.1622853 0.17497803
0.17850015 0.17333901 0.17564668 0.16897558 0.17684278 0.17806928 0.17310137 0.18889348
0.18458079 0.17535852 0.18116581 0.18484451 0.17523727 0.18730083 0.18419683 0.1995371
0.18760076 0.18539658 0.19140017 0.20199788 0.19007146 0.20135131 0.18608376 0.20155719
0.20862144 0.19771054 0.2063975 0.20185982 0.21155111 0.20178829 0.20825227 0.22018082
0.21325047 0.22257282 0.2064781 0.21740147 0.21880513 0.22823915 0.22826017 0.22781684
0.22046597 0.23145746 0.22768717 0.23162632 0.22098394 0.23471138 0.2300664 0.23721294
0.21783534 0.2422131 0.23613465 0.2417246 0.24503978 0.23074666 0.24191271 0.24725688
0.24191555 0.25065416 0.25101915 0.24209595 0.24523652 0.25526544 0.2509567 0.24547338
0.25682887 0.27548623 0.2776896 0.26910087 0.27399477 0.28019786 0.26611027 0.26727396
0.26186773 0.26122496 0.25999594 0.28280184 0.28044006 0.27158853 0.2917723 0.2587206
0.26878095 0.28507704 0.2688446 0.29280138 0.29842466 0.28896222 0.2780489 0.29831725
0.30370265 0.29425377 0.30573496 0.29115087 0.31023192 0.2970289 0.29059094 0.30517995
0.3040453 0.30019656 0.30708802 0.29886866 0.3205479 0.32228577 0.29811594 0.3071187
0.30143812 0.3251125 0.33455032 0.30648148 0.30767167 0.3253862 0.31274292 0.31520894
0.31498837 0.31888825 0.32710022 0.33252418 0.33194357
00000000: 0800 233f cc0b 9d3e a6ae 7e3e 9257 603e
00000010: 4fa6 4d3e 16c9 413e a10b 353e 2571 303e
00000020: d4f6 283e 60b4 253e af0f 263e 1876 1e3e
00000030: a98f 203e 89cc 163e 38d6 193e a387 203e
00000040: 0efc 193e b240 1b3e 8118 163e 31ba 133e
00000050: 67ed 183e 31a7 173e 1e79 1b3e 31e3 1a3e
00000060: eab8 143e 7ae0 153e a5d1 0e3e 332d 193e
00000070: 1620 163e 2e81 163e d14f 1c3e ec0c 1a3e
00000080: f983 193e 216a 253e fdaf 1e3e 40dd 293e
00000090: 97a0 213e a084 243e 098b 1e3e 368b 253e
000000a0: a956 233e eb31 2d3e e3c4 273e 7f83 263e
000000b0: 4155 2e3e f6c5 2c3e 1e2e 263e 712d 333e
000000c0: bec8 363e c87f 313e b9dc 333e ef07 2d3e
000000d0: 4616 353e cb57 363e 7c41 313e 4b6d 413e
000000e0: bf02 3d3e 2f91 333e 8883 393e e147 3d3e
000000f0: 6671 333e cacb 3f3e 189e 3c3e 7453 4c3e
00000100: 6a1a 403e 9ad8 3d3e 68fe 433e 88d8 4e3e
00000110: 18a2 423e 0a2f 4e3e be8c 3e3e 0265 4e3e
00000120: dca0 553e a274 4a3e de59 533e 57b4 4e3e
00000130: dba0 583e 97a1 4e3e 1540 553e 1577 613e
00000140: 555e 5a3e 21ea 633e ff6e 533e 7e9e 5e3e
00000150: 740e 603e 86b7 693e 09bd 693e d148 693e
00000160: d5c1 613e 2f03 6d3e d326 693e 732f 6d3e
00000170: 9d49 623e 2e58 703e 8796 6b3e f3e7 723e
00000180: 3a10 5f3e b606 783e 48cd 713e a786 773e
00000190: b5eb 7a3e da48 6c3e f7b7 773e e830 7d3e
000001a0: b6b8 773e be55 803e 9585 803e 00e8 773e
000001b0: 481f 7b3e 27b2 823e 667d 803e 605d 7b3e
000001c0: 137f 833e 880c 8d3e 552d 8e3e 97c7 893e
000001d0: 0b49 8c3e 1876 8f3e 9b3f 883e 22d8 883e
000001e0: 8713 863e 47bf 853e 301e 853e 67cb 903e
000001f0: d795 8f3e a70d 8b3e 2e63 953e 0777 843e
00000200: a89d 893e 9ef5 913e 00a6 893e 10ea 953e
00000210: 1ecb 983e dbf2 933e 6d5c 8e3e 0abd 983e
00000220: ea7e 9b3e 6ea8 963e 4b89 9c3e ba11 953e
00000230: b8d6 9e3e 2c14 983e 56c8 943e 8c40 9c3e
00000240: d3ab 9b3e 5db3 993e a43a 9d3e 5005 993e
00000250: db1e a43e a402 a53e a7a2 983e aa3e 9d3e
00000260: 1956 9a3e 2575 a63e 2e4a ab3e 24eb 9c3e
00000270: 2487 9d3e 0599 a63e d71f a03e 1163 a13e
00000280: 2846 a13e 5245 a33e ae79 a73e 9c40 aa3e
00000290: 82f4 a93e

accuracy_history f4 [165]
80.32333 91.06834 92.84167 93.67167 94.166664 94.545 94.95333 95.055
95.26667 95.46333 95.385 95.555 95.65 95.905 95.82667 95.76667
95.86 95.86 95.95333 96.026665 95.88333 95.96 95.775 95.97667
96.08 95.988335 96.17 95.94666 96.111664 95.971664 95.955 96.03333
95.975 95.871666 95.96 95.75667 95.925 95.878334 95.92167 95.878334
95.79 95.7 95.74167 95.80167 95.72 95.67167 95.746666 95.59333
95.53333 95.62334 95.55666 95.596664 95.505 95.55334 95.62666 95.38167
95.44833 95.65 95.45 95.455 95.48333 95.43166 95.32333 95.253334
95.23167 95.59333 95.39167 94.95167 95.21333 95.02167 95.42 95.235
94.95 95.10833 94.96167 95.07166 94.958336 94.92834 94.903336 94.64
94.89833 94.67167 94.85 94.67834 94.70333 94.48333 94.33 94.525
94.48 94.42333 94.47667 94.56167 94.583336 94.17667 94.35 94.348335
94.555 93.83833 94.335 93.96667 94.058334 94.2 93.833336 94.05167
93.88167 93.816666 93.71333 94.026665 93.89 93.72667 93.68166 93.92667
93.636665 92.94 93.305 93.325 93.471664 93.14333 93.34167 93.503334
93.785 93.4 93.57833 92.83 93.025 93.386665 93.08833 93.35
93.21167 92.665 93.055 92.59 92.55666 92.66 93.03833 92.738335
92.11 92.49167 92.385 92.683334 92.098335 92.61 92.75166 92.30334
92.276665 92.56 92.513336 92.155 91.67834 91.805 92.363335 92.21833
92.28833 91.69833 91.708336 91.84167 92.19 91.708336 92.17834 92.16333
91.94666 92.028336 91.64 91.75833 91.71
00000000: 8ca5 a042 fd22 b642 efae b942 e557 bb42
00000010: 5555 bc42 0a17 bd42 1be8 bd42 291c be42
00000020: 8988 be42 3aed be42 1fc5 be42 291c bf42
00000030: cd4c bf42 5ccf bf42 41a7 bf42 8988 bf42
00000040: 52b8 bf42 52b8 bf42 1be8 bf42 a70d c042
00000050: 44c4 bf42 85eb bf42 cd8c bf42 0ef4 bf42
00000060: f628 c042 07fa bf42 0a57 c042 b1e4 bf42
00000070: 2c39 c042 7ef1 bf42 f6e8 bf42 1111 c042
00000080: 33f3 bf42 4bbe bf42 85eb bf42 6a83 bf42
00000090: 9ad9 bf42 b5c1 bf42 e5d7 bf42 b5c1 bf42
000000a0: 7b94 bf42 6666 bf42 bc7b bf42 749a bf42
000000b0: a470 bf42 e557 bf42 4b7e bf42 c92f bf42
000000c0: 1111 bf42 263f bf42 031d bf42 7e31 bf42
000000d0: 8f02 bf42 4f1b bf42 da40 bf42 6ac3 be42
000000e0: 8ce5 be42 cd4c bf42 66e6 be42 f6e8 be42
000000f0: 77f7 be42 03dd be42 8ca5 be42 b581 be42
00000100: 9d76 be42 c92f bf42 89c8 be42 41e7 bd42
00000110: 3a6d be42 180b be42 0ad7 be42 5278 be42
00000120: 66e6 bd42 7737 be42 60ec bd42 b124 be42
00000130: abea bd42 4fdb bd42 82ce bd42 ae47 bd42
00000140: f2cb bd42 e557 bd42 33b3 bd42 4f5b bd42
00000150: 1b68 bd42 77f7 bc42 f6a8 bc42 cd0c bd42
00000160: c3f5 bc42 bfd8 bc42 0ef4 bc42 931f bd42
00000170: ab2a bd42 745a bc42 33b3 bc42 59b2 bc42
00000180: 291c bd42 3aad bb42 85ab bc42 efee bb42
00000190: de1d bc42 6666 bc42 abaa bb42 741a bc42
000001a0: 6ac3 bb42 22a2 bb42 3a6d bb42 a70d bc42
000001b0: aec7 bb42 0e74 bb42 035d bb42 74da bb42
000001c0: f945 bb42 48e1 b942 299c ba42 66a6 ba42
000001d0: 7ef1 ba42 6349 ba42 efae ba42 b501 bb42
000001e0: ec91 bb42 cdcc ba42 1b28 bb42 f6a8 b942
000001f0: cd0c ba42 f9c5 ba42 3a2d ba42 33b3 ba42
00000200: 606c ba42 7b54 b942 291c ba42 142e b942
00000210: 031d b942 ec51 b942 a013 ba42 077a b942
00000220: 5238 b842 bcfb b842 1fc5 b842 de5d b942
00000230: 5932 b842 5238 b942 da80 b942 4f9b b842
00000240: a78d b842 b81e b942 d406 b942 5c4f b842
00000250: 4f5b b742 299c b742 07ba b842 c96f b842
00000260: a093 b842 8c65 b742 ab6a b742 efae b742
00000270: 4861 b842 ab6a b742 4f5b b842 a053 b842
00000280: b1e4 b742 820e b842 ae47 b742 4484 b742
00000290: 856b b742

val_loss_history f4 [33]
0.10879517 0.1251187 0.24916871 0.10905062 0.17357665 0.18991357 0.22526257 0.2212109
0.28438246 0.14003056 0.13298894 0.2503902 0.37151673 0.30953684 0.27710718 0.21615472
0.30146673 0.38999167 0.32902977 0.21656822 0.31352955 0.3920392 0.35900763 0.3674028
0.3175735 0.41644865 0.39088225 0.45835644 0.2809866 0.43465874 0.4050426 0.63119286
0.41963127
00000000: 01d0 de3d 1e1f 003e 1526 7f3e ee55 df3d
00000010: 14be 313e b478 423e 3bab 663e 1c85 623e
00000020: 949a 913e 2c64 0f3e 412e 083e 2533 803e
00000030: 7137 be3e 9d7b 9e3e fee0 8d3e aa57 5d3e
00000040: d959 9a3e fdac c73e 9776 a83e 0fc4 5d3e
00000050: f286 a03e 5db9 c83e d9cf b73e 381c bc3e
00000060: fe98 a23e c238 d53e b821 c83e b2ad ea3e
00000070: 7add 8f3e 978b de3e be61 cf3e db95 213f
00000080: e9d9 d63e

val_accuracy_history f4 [33]
96.7 96.7 96.2 97.6 96.4 96.3 97.4 97.1
96.2 97.4 97.0 96.3 95.4 96.1 95.6 96.3
96.2 95.3 95.4 96.1 95.5 93.7 95.6 94.5
94.5 94.5 93.8 94.8 94.3 92.5 91.3 92.7
93.6
00000000: 6666 c142 6666 c142 6666 c042 3333 c342
00000010: cdcc c042 9a99 c042 cdcc c242 3333 c242
00000020: 6666 c042 cdcc c242 0000 c242 9a99 c042
00000030: cdcc be42 3333 c042 3333 bf42 9a99 c042
00000040: 6666 c042 9a99 be42 cdcc be42 3333 c042
00000050: 0000 bf42 6666 bb42 3333 bf42 0000 bd42
00000060: 0000 bd42 0000 bd42 9a99 bb42 9a99 bd42
00000070: 9a99 bc42 0000 b942 9a99 b642 6666 b942
00000080: 3333 bb42
