checkpoints/model_epoch_0025.npz (npz, 409611 bytes, 10 tensors)

weight_0 f8 [784, 64]
-4.267953932138703e-270 8.840357082664825e-267 2.1975589939363808e-271 -1.0952795194647284e-269 -1.9313037243892938e-271 -1.615372285302661e-270 -2.0869777008379636e-263 -7.270624363434172e-269
9.591746255082117e-272 1.3887530888595883e-269 3.486256421398503e-271 -5.369818259592416e-273 -2.482849257069697e-270 -1.3870592906614177e-270 1.1540408075977935e-271 -1.1382783876040439e-269
-9.142922430863279e-270 1.0044274017753556e-271 -1.0920429555054568e-271 -4.5196399680110665e-268 -1.5363514888834363e-265 -8.764854967953726e-271 1.4068482795536155e-268 2.901373529967534e-266
2.3522523547681106e-270 -1.7098319118934043e-268 -1.3301389569557644e-270 -3.083092408071718e-269 -1.2429822131761666e-267 9.214146616923528e-272 -1.0783365186462035e-268 1.890136361687954e-268
4.2212777757485185e-271 -3.3521419593401756e-270 2.5114707931212426e-271 -9.60966436516976e-273 3.792644238842907e-269 -2.966531456270882e-268 1.6866234107305168e-271 -6.9136468015362366e-270
1.8636573086525057e-271 -3.702631651453249e-271 8.245586464122857e-266 2.755513345252138e-273 -1.1334556519777094e-269 8.731643592962795e-274 9.633584641187654e-271 1.4891749946812622e-268
-3.7739336146534565e-269 -1.9142429959928645e-271 1.1292142619807497e-269 -1.5213327419923294e-266 1.0382512515689164e-270 1.8223756184221983e-270 2.9879481611352905e-265 -1.9822681461319634e-269
-9.136130825286466e-273 -1.1693578457295495e-271 5.058249984767884e-269 -6.900996563777776e-272 -4.5316050635868885e-270 -6.882015755981595e-260 -4.4590952996891425e-267 3.3565794140995586e-269
-2.756127162043298e-263 3.7950536734271604e-271 -3.758440643734158e-269 2.3369485969117095e-270 5.093730711318779e-266 9.2902305271103e-270 -5.0080608534506794e-269 -5.367283694154434e-271
-1.1247901124418217e-270 1.3045451843548765e-271 3.75832977647248e-271 1.022911301937108e-267 -2.234862700186287e-272 2.932837022908185e-270 3.2644518224184716e-256 -4.765529755839067e-270
5.693628597720848e-271 -2.7307041440864103e-269 1.782578020434027e-268 1.439693714346653e-268 -1.96374973818978e-270 -2.05352347814411e-270 2.864819351971534e-271 -3.6919103582553025e-270
3.6486971754439013e-271 2.3476563872336856e-262 6.217174781985538e-268 1.6938747628318583e-271 8.973396246713629e-269 -8.512565603782809e-270 -1.1065197255515253e-270 -2.0634855015297497e-271
-6.813786228395014e-271 7.722186255019013e-271 -1.075310826878755e-271 -1.6483953739197042e-271 -5.2702086723793376e-269 -1.4468148691746311e-270 1.1178333124109746e-271 -7.361232053153171e-269
-1.525146050898633e-272 3.6793502049103955e-271 -5.3071651721008865e-267 -1.6127439375595018e-270 2.7539580681150763e-272 1.1902696178613601e-269 2.745070744875115e-266 1.0126102615072436e-271
1.413885555564254e-269 3.65797002709766e-267 -1.795819496926979e-268 -8.582008882393469e-267 -2.8898769162337304e-267 -1.908905830408604e-265 1.745350762227876e-270 -1.677331176878127e-271
2.3938846111096463e-270 -1.9956147139060383e-272 2.5149243467225987e-270 -1.9090351457094467e-268 1.2836307267887402e-270 -6.598289534422601e-271 -6.465943468357023e-272 -6.736458305337293e-271
-1.1687569360257044e-271 -3.7085680741832098e-267 -1.800555132745548e-268 -6.239255025954437e-270 -2.4062136403231616e-270 1.8396348188854667e-269 1.8855370250090432e-272 1.2858315636958836e-260
-1.6896279483148333e-270 2.737830447480765e-270 7.533255321617933e-271 -1.2836416186604722e-269 3.4023942790100398e-270 6.982001675603172e-271 3.188608273564479e-268 2.0146069865358914e-269
4.504367919802182e-269 -1.276254285120316e-268 1.7477097459006805e-272 1.0672279931874577e-268 8.381555333285239e-266 2.0426573843318514e-270 -2.5257261939108603e-271 1.2806096873440478e-263
-7.25763972920743e-268 8.847986283684955e-270 1.8321749366890788e-270 -7.226003147164196e-270 -8.554536344507968e-271 6.888390605672825e-270 -9.738982913966032e-256 1.4006255094482077e-262
2.0447105740518113e-270 -5.707127273045453e-269 7.656371375272039e-266 -1.6689180307296206e-272 8.10768242127366e-272 -5.03211125944433e-271 -4.912576827829459e-264 2.7283909539214034e-271
-1.6596304312378964e-271 1.8457070949301413e-268 1.6784860575550781e-265 -3.801984994977608e-271 1.215339213848335e-272 3.684286835088009e-270 -4.214657130748332e-271 6.679576092532302e-271
1.6152662562500651e-270 8.037070755736016e-262 3.7042764849476334e-271 -5.702146371561107e-268 3.1848216446108465e-272 -2.902557324903664e-269 -3.276319252619759e-271 4.35286420447014e-271
-1.5693320285430768e-269 3.4388433529908694e-270 -1.6996477186139195e-270 4.1123538362692574e-268 2.011306203093796e-270 -4.029086106755354e-269 7.13765929191352e-271 -4.532048653551267e-270
-1.5366880085219664e-264 -1.0990209295663817e-271 1.2568713532248132e-270 8.291697138236328e-272 -1.1857601587602245e-271 1.0651986403755527e-271 5.780417779205655e-270 1.958015893210078e-271
6.360192545129229e-271 -6.661085165226149e-271 2.1399025707235513e-267 -3.141432905814906e-265 -1.3969039781251564e-271 -4.997687554028589e-270 6.4809914952151156e-273 1.037611793527819e-270
5.668179095085186e-271 1.1889237382492044e-271 7.743240840511116e-270 -1.3213619937467422e-271 1.3824097513702486e-270 -6.065170491620734e-265 1.5265058110099126e-268 2.425657756224203e-270
4.0557494916521515e-270 4.275405535897852e-271 -3.633163984194589e-258 8.71914700167793e-271 -1.6313507556601061e-270 9.248324683179678e-271 -5.092106487377591e-271 4.600713532937579e-268
-2.2944071070968263e-262 -1.9795851290191198e-268 4.649744556856213e-270 -3.896900377646698e-271 4.682744080960467e-270 2.4422001673049777e-270 3.9318206066101975e-270 -1.3080088404225421e-269
7.437311777553723e-270 -4.888789724130344e-266 -1.0198714739530637e-271 1.8822369673828759e-270 -1.6526391414936485e-272 1.4576270117157084e-267 9.174752508300354e-272 -3.3812927027516905e-270
2.956797171592272e-271 2.0730074398466688e-272 -1.5708588898007565e-270 -1.1758694652928281e-271 1.3260749525588904e-270 2.0936552435783717e-271 1.659097743942461e-272 1.6743748256986694e-270
-2.24900852335827e-271 -9.78704220580724e-270 2.638434977814256e-270 3.431533884639703e-272 7.735551074888746e-270 -4.3777511537273634e-266 1.7597934887820956e-272 9.010606142946382e-270
00000000: 4a0b ff67 b309 0288 d088 e5f2 4f3e b208
00000010: 3e68 4afb 74b8 bd07 012e b14c 2c25 1788
00000020: f631 b6a4 9e1e ba87 2e7b 0e76 fd4e eb87
00000030: cdd0 e7a1 7d07 6589 b6f6 3911 8534 4388
00000040: 203f afb0 c4f1 a907 3412 bb9e c958 1d08
00000050: 1b68 1fd3 1c93 c707 5355 23e5 4b3d 6787
00000060: e2b8 65a4 9ffc f487 1ab2 3b50 e672 e787
00000070: 8001 889f 1c37 af07 e46e 1f1b c90d 1888
00000080: 64b2 a764 1452 1388 3aef 8c94 1e2b ab07
00000090: 50dd 5a5e cf89 ad87 1951 12b9 a4d8 6d88
000000a0: 182e 40be c9d0 f388 b860 b7fc 7ca2 dd87
000000b0: c3b0 fb71 ac94 5208 a67f 981a e6ef cd08
000000c0: e239 1094 06e2 f307 a82a 8147 1695 5688
000000d0: cc1b 8f7b 8f7c e687 d2ea bdd2 ad49 3088
000000e0: 2ec1 f91f 4985 8488 4cdd b206 4dec a807
000000f0: 78da 3215 e57b 4c88 191a e931 b6f6 5808
00000100: ac8d 00fc 848b cc07 4a15 ed63 ae55 fc87
00000110: fb94 a664 a5fb c007 2bc6 3b2c 57cb 7487
00000120: be06 7a0f 4d09 3408 d895 2d29 0c97 6388
00000130: 7943 4fdc 7acf b607 2630 7067 3338 0d88
00000140: bf00 aa84 6934 b907 feb7 a4e0 ae09 c987
00000150: 2451 696f 1f45 e508 1827 d645 bed9 5707
00000160: 4e0c ce22 b2f3 1788 b05f 27af 203b 3e07
00000170: 66cc b243 3649 e007 beef ecf8 06ab 5308
00000180: 201c 9402 ffef 3388 9675 3e30 8de3 b987
00000190: cfd3 6144 c0dc 1708 5f11 0920 1e65 bf88
000001a0: fdc3 f006 558d e107 51b1 8756 dbce ee07
000001b0: b53c 9956 dd44 0309 8514 8c0f c6f1 2488
000001c0: b169 01f8 05c5 7387 e7a3 208f 2ca1 af87
000001d0: 3489 9902 f3b8 3a08 4489 7ea3 91aa a287
000001e0: e277 c118 f526 0388 bc7d cd22 21ee 208a
000001f0: fe3a 126b 6e67 a288 deda e357 8dbb 3108
00000200: 5dda 2ea2 9ac5 6b89 8d82 c622 ada9 c907
00000210: 20be 4ffc 0adb 3388 a549 81f4 e8c0 f307
00000220: 7099 5ba6 7947 da08 114a cefa c4a1 1308
00000230: 3561 925f 1275 3a88 daaf 4cad b125 d287
00000240: 3208 04a3 da03 e387 ae09 4007 a3a4 b107
00000250: 860a 775e 1a6a c907 c31f cc04 30e3 8008
00000260: 963a 12bc 162e 8887 372b f37f 59ca f807
00000270: 2e50 e833 399b e30a 6b66 0034 0d24 0488
00000280: e05c 0d17 2a40 d307 3996 b5ba 31da 2c88
00000290: a161 f13c 0c8b 5708 01e5 f210 ba03 5308
000002a0: e4d2 f5d8 5899 f087 7eeb d9a2 9b5b f187
000002b0: 2f44 4a4f 555f c307 e7f6 3a76 e734 ff87
000002c0: 0ce9 7bf9 50ac c807 78fe 24ec e891 9d09
000002d0: 682f 1bf8 3287 7408 aea3 b5f5 95e8 b607
000002e0: f1f6 f68c f6b3 4708 9ab0 18c1 12fd 1188
000002f0: 6d11 df9e c8b4 e287 f636 2c78 43e8 bb87
00000300: 1e3d 3bbd b909 d787 01ce 608c ff1b da07
00000310: b2d6 80f4 f215 ad87 942f 3129 204b b687
00000320: d413 4001 9cd7 3b88 daf2 f459 8275 e887
00000330: f2e8 35f6 643c ae07 8092 194e ca71 4388
00000340: 1483 c88e 5380 8087 c5c4 8757 61e1 c807
00000350: 651a c91f 7ee7 a588 3712 637a 9d43 eb87
00000360: 6e6f 6d0c dfcb 8d07 005a cd5d 0b27 1908
00000370: a16c e480 0753 cc08 9e33 f406 c863 ab07
00000380: 970c f061 bfe0 1d08 1b18 bd36 f131 9e08
00000390: 1aa5 3380 d1b7 5788 4446 510f d4b5 b188
000003a0: 0a25 5c1e d3da 9788 b7c1 9037 e79e f888
000003b0: fbb1 3a6d 8281 ed07 2413 43dd 4eaf b687
000003c0: 0a1d 8a0e 1d3c f407 a98a 9361 6c97 8587
000003d0: 6b85 8ddc 0742 f507 f3be 222f 9c36 5988
000003e0: 0716 d15d 48b3 e507 04a4 9961 334f d687
000003f0: c028 bb6a 517d a187 5e46 d833 cbc6 d687
00000400: 2eda 5f59 039d af87 218a e76b dd9c 9e88
00000410: 1b13 9577 d4c7 5788 1e7d 9c64 8b5e 0a88
00000420: 204d f4ce ca56 f487 a271 7727 f86f 2308
00000430: c0aa 6127 8866 8407 eaf1 69da 494e f909
00000440: c993 4358 5a90 ec87 7452 b63f 6024 f707
00000450: 44d7 a6b4 7778 d907 6301 cb8a 2920 1b88
00000460: 08b5 4c03 6cc2 fc07 538d ff62 539b d707
00000470: 0607 2d51 7a0e 6508 f0b4 d7f7 3e49 2508
00000480: 17df 0e3e dccb 3708 5e7e cbcc 1fdb 5088
00000490: c60d 67aa c7e8 8207 e9f4 25f1 c630 4c08
000004a0: 29b6 e68c e99e e508 e790 ab49 1844 f107
000004b0: 6dfd 61e5 5214 c187 3931 61bc d3ce 5909
000004c0: fdb0 ac98 acf6 7788 3ce6 ebe8 86b2 1208
000004d0: 6697 a523 44f9 ee07 dbd8 0f64 278a 0e88
000004e0: af09 2300 72ec dc87 663f 32fb df1c 0d08
000004f0: a0eb d802 093f fd8a 9d67 b99e 40a4 9109
00000500: bc39 a1aa 8948 f107 6af7 a751 8326 3e88
00000510: 1031 cb1e 06c0 e308 1ff3 8339 8b0e 8287
00000520: 0dd4 5a4a 22ee a507 e1d1 223c 9503 d187
00000530: 0a13 68bc ebcc 4389 c676 c6f0 2873 c207
00000540: 44fe 6224 0672 b687 f2fe 2d19 7e60 5808
00000550: e4aa f601 18a6 f508 9cb8 e2db acb5 c987
00000560: 2009 15cc 744c 7a07 4b8c aa5b 6824 ff07
00000570: 2448 44f1 0e80 cc87 bc50 5315 8f95 d607
00000580: 2eca 76fd 874e eb07 481b a984 ca4e b909
00000590: e5b0 a3cf 870c c907 200b 8742 dcd3 7288
000005a0: 66d9 b4a5 a23a 9107 3dec 0cd0 08ab 2e88
000005b0: 60ac 24e6 af27 c687 f66d 398f 4f6f cd07
000005c0: bce6 1303 d694 2088 1acb 383b 4b11 fd07
000005d0: 5830 4d63 b7bb ec87 34ff 14e3 1b28 6b08
000005e0: 0770 2015 4100 f107 1619 a7b2 1249 3588
000005f0: 6920 616f 0e22 d807 73f2 29f6 6f27 0388
00000600: 57fb eebd 5fc6 2889 9bf3 c6f5 20ba ad87
00000610: 1ed5 9e48 793f e507 886c ace2 8d6d a607
00000620: 8b65 1329 6009 b087 d877 a076 edcf ac07
00000630: 44c1 3059 1b6e 0808 27dc 7978 1a7b ba07
00000640: c6dd d82f 1d81 d507 871a e6cf 8d85 d687
00000650: 48a2 0dcc fea9 9108 12e3 9175 4142 0489
00000660: de5f fc80 67e4 b287 a5fc fcea 3b1f 0588
00000670: e091 6d7a 610c 6c07 d10f 0990 908a e107
00000680: ee37 18eb 222a d307 cf5f b523 5414 b007
00000690: 9cc3 218d e35c 1008 349d 4e4a dcde b187
000006a0: 9927 2806 c75e e707 30bf 798f 8e8e 1389
000006b0: d0fb 3af3 3e29 5408 7007 0a03 de80 f407
000006c0: 6204 9a57 1b24 0108 1e6e 528b 38e9 cc07
000006d0: 0e11 d10a 40ee 7b8a 1ee8 7de3 ec7a dd07
000006e0: 549d 283b 2494 eb87 8b3b ca8d f544 df07
000006f0: b959 0a25 8337 d187 b236 49a6 b361 6e08
00000700: 1c50 c0c2 35e6 9c89 e09e 0645 2525 5a88
00000710: a4b5 c031 c7a6 0308 7eae c016 fc59 ca87
00000720: 39f7 3b5a 7bca 0308 14e6 b4cb a9a4 f407
00000730: 8e1f 25b5 059e 0008 ca42 d485 fba3 1b88
00000740: 7291 b455 c76e 0f08 d46c 2e5c cd38 d988
00000750: 4baf 64b4 0f96 ab87 86c5 7f8f ecd1 ef07
00000760: 1a2a 786f 74e1 8187 9661 b076 7310 8808
00000770: 28bb f4c7 05d1 a807 ea11 d1a5 c294 fc87
00000780: f74c 7eb6 8efe c307 e6a1 12d9 c86d 8607
00000790: 8b83 3973 588e ea87 4d47 2876 43ce af87
000007a0: 4d15 62ea f86a e607 1afa f9d9 b750 bc07
000007b0: 435e fb00 58f3 8107 47c1 9d32 574e ec07
000007c0: fc93 4e4d 966a be87 ea46 630d 88ae 1488
000007d0: 4524 a06f 4b4d f607 c1e6 ee24 4e90 9207
000007e0: a616 fb99 ba58 1008 36ec 29e0 da95 d688
000007f0: ac00 e3d2 3f0a 8307 c449 c502 800a 1308

bias_0 f8 [1, 64]
-0.028937721546105917 -0.2090724691867201 -0.017012972945850385 -0.05396440672009068 -0.0135473203967869 -0.23346557591858624 0.024162053760323605 -0.17267818202519566
-0.15798698644534884 0.05902263292026956 0.08662144330949603 -0.02175900187090471 -0.3272570200631062 -0.11251053586949601 -0.2412583812146949 -0.24938424318585145
0.2601242699148867 -0.11021254953996859 -0.11563364512637525 0.025293132251727656 -0.07783748100687204 0.2615550404615163 -0.12802198443013496 -0.17175914081437674
0.13330781073508868 -0.11955808149995206 0.01999056344255584 0.2116099649301871 0.14037494102299716 -0.06562962647749201 0.04305618556345876 -0.10220192908103322
-0.11966141681560089 -0.022309122596908173 -0.08866615241234765 -0.25263435217293867 -0.017969123503446063 -0.20736899254720992 -0.02588255674612056 0.0526669296038196
-0.03696148147588004 0.055459290519935346 0.03875233771510241 -0.011220883307859777 -0.1827320907915686 -0.025573653789012267 0.047561080475932535 0.08882884208753095
-0.3392495605842435 -0.11834038087889391 -0.08349710012744728 0.042373312081267524 0.052021639993115924 0.1265106352528875 0.01676755892095188 -0.3237416056937292
-0.34263964136912944 0.03794116012655376 -0.25060885075236045 -0.14091388001110433 0.03888120411100818 0.04984596826324168 0.16444524494716808 -0.09722338913212161
00000000: 7226 a59e d9a1 9dbf b151 d3fc e2c2 cabf
00000010: 0801 a449 d96b 91bf c98b 0504 39a1 abbf
00000020: 1acb 6b90 b2be 8bbf faf3 a732 33e2 cdbf
00000030: d2b2 d1fa efbd 983f 2ff6 4394 511a c6bf
00000040: a5f9 fce5 ea38 c4bf f294 3bec 3638 ae3f
00000050: ce87 25aa d22c b63f 1870 b7e5 fd47 96bf
00000060: 60ad a36d c7f1 d4bf d1d1 0390 7dcd bcbf
00000070: 68fc 99fc 8de1 cebf 0e7b 4fa8 d2eb cfbf
00000080: 488a 0b44 e0a5 d03f ae08 e2bf e336 bcbf
00000090: bc92 22a4 2a9a bdbf 569a 565f 71e6 993f
000000a0: 70d9 533b 28ed b3bf ffb6 385a 51bd d03f
000000b0: 1af2 253e 0663 c0bf 7d1c 4b1a 34fc c5bf
000000c0: d04b b4f7 3a10 c13f b8c9 03c2 5b9b bebf
000000d0: 2f89 db00 6878 943f 9301 710b 0916 cb3f
000000e0: eb93 6f5a cef7 c13f 1e99 5e6b 1acd b0bf
000000f0: 7a68 c5d9 750b a63f f1bb fdd6 e729 babf
00000100: 5ce7 d06f 21a2 bebf 971f d3df 33d8 96bf
00000110: 0889 df30 d3b2 b6bf 6573 1b46 292b d0bf
00000120: 87ed 2377 7f66 92bf 0eed 9830 118b cabf
00000130: 11ba 0bfb f480 9abf c351 75e8 28f7 aa3f
00000140: 5b1d 4d84 9dec a2bf 9dc0 15fe 2865 ac3f
00000150: db83 42ae 58d7 a33f 8e46 b776 f9fa 86bf
00000160: 2093 f0e0 c363 c7bf 6ef2 a6da fa2f 9abf
00000170: 7ec1 690a ed59 a83f 501e b5ab 7cbd b63f
00000180: 8e11 f9c9 43b6 d5bf d3c8 ab21 8e4b bebf
00000190: 89b4 5be2 1060 b5bf 4578 396b f4b1 a53f
000001a0: dfd0 e894 94a2 aa3f 67f0 8020 8031 c03f
000001b0: ee05 ccd4 832b 913f 33c8 33b6 2eb8 d4bf
000001c0: cf96 7fd1 ceed d5bf fbe9 d413 066d a33f
000001d0: 3b73 84b4 f909 d0bf e29e 194d 7709 c2bf
000001e0: 94f8 2bb8 3ce8 a33f 1a60 0e27 6985 a93f
000001f0: 21f1 83b2 8a0c c53f fa8e bacc a1e3 b8bf

weight_1 f8 [64, 32]
-1.418948184420865 0.3683610822760346 -2.567637927510447 0.1411338631990069 -1.494374130934129 0.5141792646490018 -0.6555032900538791 0.20807136347177288
-0.10548588091959625 -1.3055718635489533 -0.060227609303959914 0.09742723571828414 1.000081180834044 0.8031273749836069 0.6392823451926226 0.5507851498884394
-0.013597091068845076 -1.4998434404097107 0.49025949435521876 -1.3913168309151631 -0.10019817495201319 -0.5862065891055326 -2.7577587672977733 0.7853627308787514
-2.0787493006839615 0.981149085642508 -0.17328809623089875 0.11133513479132731 -0.4895705255061509 -2.207591440832947 0.41756447051453827 0.13312925925690544
0.5752762972767463 -0.6788900021671751 0.05571372116221246 -0.8349170451814651 0.28403960919868315 0.19544849930330283 0.625481069461966 -1.4319049973781597
0.2885763220075749 0.2607260712182199 0.6558413098928165 -0.8891846365107171 -0.7949407336307504 0.3044703810668849 0.34363113287886365 -0.2815955076992175
0.01996712177920746 -0.8927614281918826 -2.021705531910045 -1.277932315899133 0.4372927439507157 -0.15326396627025576 0.05532048730059805 -2.1607952454804398
0.16370202578978696 -0.7065633545470088 0.06343130519922953 -2.121669085981871 -0.5858013778955364 -1.3494510228337793 -0.47575979351447517 -0.46602276826501543
-0.537262090000585 0.20081604478865467 -0.5063238124329249 0.526748784938078 -0.45785423139866616 -0.5704990213471619 0.6825058338863942 -0.9309347587393332
0.03548600418098611 0.00874264904140948 -0.701623630889373 0.47339625834030397 0.1331677874129894 0.1706531683883355 -2.3818147124563107 -1.2886459940567616
-0.281906965749319 0.08955916098716328 0.3695749409800393 0.4294425121639973 -0.202852720861211 0.04504218952383643 -0.09908945070825562 -0.9724007615219262
0.33449428286400257 -1.170790411214316 0.15003586355129542 -0.3168585528880212 -2.187434942362205 0.13343725183537397 -1.4930869484709697 -0.03305670930748419
-1.070674684534474 -0.9054622223607752 -1.7874574440017592 -0.5619754242841438 -0.11126768862704761 -1.0282699210322432 -0.8213392669590689 -1.3576035573629763
0.4989588364461744 -0.687633857036277 0.6061461019341892 -1.3091874381203905 -1.0279935070796287 -1.412074457957927 0.35981825712761706 -0.7505766215044561
0.7509713279168917 -1.945574701945671 0.4399552840131148 -0.01803084789646451 -1.4190466036374012 1.6962342779086552 -1.0024721976809954 0.38567160370040676
-0.37640196508932444 -0.6833597929238512 -0.7515449711111378 -0.5324216020065756 0.5547559097776895 -1.6722504268301355 0.6678904249684212 -0.37383945098220356
-0.5291482422277279 -0.983954422570739 -1.8966680469592845 -0.1634266668812061 -0.634458031209957 -2.4509990895708835 0.8540392617465387 -0.4401656193579801
1.119952535572888 -0.7721896623169652 2.3894624270552858 -2.078254803501205 -1.6288813352913192 -2.1820136463749056 0.18346256907765693 -1.1076289596447964
0.38781522500023397 -1.5129210564064948 -0.2255999692959893 -0.12735155779246649 -1.0895487887901756 1.038150080477478 0.14832137589978311 0.1896965606337423
-0.16045228795113028 -1.5085893734901097 -0.3141239268878213 -0.6270037355063368 0.6042127472271093 -1.079230441860386 1.354123478166013 -0.7271371646274434
-1.5353055040744017 1.444054017295359 -0.8814881829949115 -0.6904820090176974 -0.8133090570483058 0.943910471641597 -0.6811148455599714 -0.6744311196300438
0.3668362074059648 -1.3279508159518683 -1.0981376125225235 -0.8239466293850963 1.1522279985968535 1.4458336987940097 0.717026166842828 -0.6054736004089932
-0.018781807219078454 -1.008828658042384 -0.8332333563572197 -0.2065432427758744 0.770730526104016 -0.6845735576430482 -0.4483875518198625 -0.9751217038929475
-1.2784167303015572 1.1477855059252982 -0.11531344234370576 -0.8404604100092172 -0.07634781544278682 -0.26613350784374534 -1.1949420712656837 1.2402652735908608
-0.8845373266533636 0.22629167587983842 -1.8575053665635102 -1.3564863738196082 -0.4395631171328373 0.011385413134335111 -1.2481460497587706 0.4915461222978915
-0.002121882859131461 -1.0344309650453642 0.034123099700769384 -1.5379340785976647 0.5402909516240071 0.198281761655158 1.2616166194794247 0.1723432125711117
0.339607263488161 -1.456121856131628 -0.35428604154581134 -1.8511876476468807 -0.14486948727282592 0.1503508351776418 -2.384465474515834 0.7931449335482466
-2.4709509171531754 0.6679328798332369 0.005343695973597969 -0.7238578222010658 0.20811071421515936 -2.191074854178325 0.5643857686149344 0.44595354969950135
1.8571513838906157 -1.4937924634571447 1.3885388498576834 -0.4930862788358511 0.5797712097613813 0.6923403950919558 -0.00937246772886368 -0.8342490420178548
-0.9693391057145513 0.4793683516499057 0.23992440049586955 -1.1180506061951094 0.284808474538225 1.4589582680740065 1.622097288722314 -0.0464908816664132
1.4004429432360253 -0.8408803489764449 -1.0118423708559112 -0.4374808533151892 1.7458640823613636 -0.7607761142960525 0.08515315884838345 -0.47967129784487633
-1.3716404621150033 -1.4646591860970202 -1.3946777421712084 -0.525805291527506 -0.4155939834053824 -0.24982856704018067 0.16558729618406282 -1.5668181936342076
00000000: 29e6 ec02 03b4 f6bf b8a9 5f5c 3a93 d73f
00000010: 4103 f5c0 858a 04c0 b020 66a7 ac10 c23f
00000020: ac9b 45d9 f4e8 f7bf 805c be12 2874 e03f
00000030: 4075 2609 e2f9 e4bf db35 ac1a 15a2 ca3f
00000040: 634a bd68 1f01 bbbf 1654 8852 9fe3 f4bf
00000050: 36b5 8d38 27d6 aebf 9f53 26c7 fdf0 b83f
00000060: be6f d01f 5500 f03f 2176 422e 38b3 e93f
00000070: 6066 b03f 0075 e43f f595 bc2d 08a0 e13f
00000080: b1fe b0ab cad8 8bbf 98e0 dad5 5bff f7bf
00000090: 4cc9 b35b 6960 df3f d47a f26f d542 f6bf
000000a0: 26ac 896c 96a6 b9bf 1c0e 1d52 34c2 e2bf
000000b0: e168 1ed4 e30f 06c0 38e3 9305 b121 e93f
000000c0: f429 3850 47a1 00c0 4cb7 6ac4 9265 ef3f
000000d0: 1285 0ce9 4d2e c6bf 9a12 d39a 7580 bc3f
000000e0: dc9a 089d 1f55 dfbf ca74 8ab3 25a9 01c0
000000f0: 4437 3554 60b9 da3f 2c16 532b 610a c13f
00000100: 93f6 5ed6 a968 e23f da75 9c86 77b9 e5bf
00000110: 780b a944 8286 ac3f d4ac 7df3 a3b7 eabf
00000120: cbb9 1178 b42d d23f eaac 47d8 7404 c93f
00000130: 6366 33e0 f003 e43f 977d eb36 15e9 f6bf
00000140: 3a0a 5bd2 0878 d23f 5232 4667 bcaf d03f
00000150: d55f 2bea a6fc e43f e769 bd56 3374 ecbf
00000160: 6879 a68c 2770 e9bf 7f1b 5256 717c d33f
00000170: 9f89 666f 0dfe d53f a631 112a a905 d2bf
00000180: 02d5 25dc 4272 943f 45dc 266a 8091 ecbf
00000190: 4391 2df3 732c 00c0 f29c f427 6972 f4bf
000001a0: a4f8 82b4 9afc db3f 819b 6455 279e c3bf
000001b0: f47b 8287 f752 ac3f b886 8504 4f49 01c0
000001c0: bf2d 871f 30f4 c43f 499b 8ac0 2a9c e6bf
000001d0: a58f 5fb5 083d b03f 90cf 49a4 2df9 00c0
000001e0: 0a6b 0088 e2be e2bf 4fff a9f4 5997 f5bf
000001f0: 5a5e 7934 d972 debf aaef 3829 51d3 ddbf
00000200: 21dc 3d44 4031 e1bf 508e 7014 57b4 c93f
00000210: 03bc f2fe cd33 e0bf 7b89 9044 20db e03f
00000220: b751 8cd5 7b4d ddbf 0ec1 e229 8741 e2bf
00000230: 75e1 7b79 16d7 e53f bfd7 efb0 37ca edbf
00000240: 9d9a d8b6 382b a23f 61c1 b47d aae7 813f
00000250: 05a9 9866 b373 e6bf 30b4 e7d1 1f4c de3f
00000260: 64e4 e85d a40b c13f 32e5 9788 f6d7 c53f
00000270: 4f0d 39df f40d 03c0 f285 0943 4b9e f4bf
00000280: 511b 9a83 c30a d2bf ad3f 7f63 59ed b63f
00000290: a88b 3ba7 1da7 d73f b069 5072 fc7b db3f
000002a0: 4973 00f5 13f7 c9bf a0e5 e315 c50f a73f
000002b0: f2a9 2b1e ed5d b9bf 0bf3 aa33 e81d efbf
000002c0: 2d64 66b5 5a68 d53f 8f2c eab9 8ebb f2bf
000002d0: 0508 970b 6034 c33f fc29 8718 6947 d4bf
000002e0: 2696 1ce4 dd7f 01c0 eabb 59cc 7814 c13f
000002f0: aa46 dc23 afe3 f7bf 132e c71a cfec a0bf
00000300: e0b0 2bc7 7b21 f1bf 41b2 19e9 8bf9 ecbf
00000310: 3eab 0ffa 6c99 fcbf 8d98 8ee2 b3fb e1bf
00000320: c032 c10b 0a7c bcbf 2cb4 2429 cb73 f0bf
00000330: 6650 5049 6948 eabf 78ea fc81 beb8 f5bf
00000340: bd89 250b f1ee df3f 14fb f2b7 1801 e6bf
00000350: 9af7 8c82 8c65 e33f 45fa f086 6ef2 f4bf
00000360: 8184 d651 a972 f0bf bb23 0763 db97 f6bf
00000370: 367a b727 4307 d73f 351f 5043 b904 e8bf
00000380: 3060 b405 f507 e83f 7481 4cf0 1221 ffbf
00000390: 627a 2235 3a28 dc3f ea4a 23b8 ad76 92bf
000003a0: d0f5 2136 6ab4 f6bf b28c df8d c623 fb3f
000003b0: a506 8349 200a f0bf 56e7 38f3 d7ae d83f
000003c0: b05c 8d44 f816 d8bf f74b 405b 15de e5bf
000003d0: c5a8 0c0a a80c e8bf 61ab 0907 9909 e1bf
000003e0: be40 3877 8fc0 e13f cf51 dfa9 89c1 fabf
000003f0: 10a1 91bd 5b5f e53f 0b15 fb4d fcec d7bf
00000400: c953 634b c8ee e0bf b744 36fc 8d7c efbf
00000410: e0ee 1098 c058 febf d047 c63e 2aeb c4bf
00000420: ea66 d7ed 7a4d e4bf 9cdc 2169 a59b 03c0
00000430: 9a71 5625 4a54 eb3f bbd4 fd6a ac2b dcbf
00000440: adb9 9559 53eb f13f a3bd 3e18 c7b5 e8bf
00000450: 31c9 197a 9e1d 0340 3557 ee0d 44a0 00c0
00000460: a541 02e0 e50f fabf f1d8 1492 c374 01c0
00000470: 4d45 1d93 b37b c73f 336e dc24 d9b8 f1bf
00000480: ab14 11f3 f6d1 d83f 7321 abb5 ec34 f8bf
00000490: a66c 0db5 75e0 ccbf 221a e84b 0e4d c0bf
000004a0: e200 f4b5 ca6e f1bf 3cd9 3f42 439c f03f
000004b0: f4c5 64e1 31fc c23f 14f5 0a16 fa47 c83f
000004c0: efc3 a858 b389 c4bf fcba 639c 2e23 f8bf
000004d0: 54f4 373e 9b1a d4bf 8f06 4f23 6a10 e4bf
000004e0: 0256 a5f8 b555 e33f 3235 ca23 8744 f1bf
000004f0: 3080 5761 7daa f53f 42fe b828 b544 e7bf
00000500: c3e4 1581 9c90 f8bf 470e 9f62 d81a f73f
00000510: 66c1 b8b4 2635 ecbf eba2 e6b9 6d18 e6bf
00000520: af04 32b7 a006 eabf dbae c1bb 8334 ee3f
00000530: 6001 505c b1cb e5bf 07e7 4692 f094 e5bf
00000540: d406 7392 3e7a d73f 4c5b d35a 493f f5bf
00000550: 0bab c4be f891 f1bf 3078 5b52 c55d eabf
00000560: f224 38a0 866f f23f 5866 3c84 2222 f73f
00000570: ffea 1edc e0f1 e63f cd22 0b2c 0a60 e3bf
00000580: 8e18 10bf 893b 93bf 26f4 d884 2924 f0bf
00000590: c5b2 efff d8a9 eabf 4f51 774c 0270 cabf
000005a0: f2a8 7410 d3a9 e83f 7d10 39ce 06e8 e5bf
000005b0: f7fc bfb3 61b2 dcbf 53e1 7a6e 3234 efbf
000005c0: fdde f419 6574 f4bf fd59 ac55 545d f23f
000005d0: 27c8 a787 2e85 bdbf 9a50 d23a 0de5 eabf
000005e0: e2a3 72ca 878b b3bf dac0 23d6 5408 d1bf
000005f0: b635 cb93 7b1e f3bf effe 4666 20d8 f33f
00000600: ae28 4239 214e ecbf 6b66 a129 20f7 cc3f
00000610: 698e 188c 57b8 fdbf c765 500e 2bb4 f5bf
00000620: 2f41 2757 cd21 dcbf 61e1 8148 3c51 873f
00000630: 3487 05fe 67f8 f3bf 12af efdd 7d75 df3f
00000640: 9598 8c2f e961 61bf d56e cd7b 078d f0bf
00000650: e982 813a 9578 a13f 9eb1 afc3 609b f8bf
00000660: 3298 f13f 104a e13f b9e0 d9f8 4b61 c93f
00000670: 3a11 8ce8 942f f43f a71a d7a6 570f c63f
00000680: ef9a 8a1a 20bc d53f f337 716e 464c f7bf
00000690: 7096 775c 9fac d6bf bd70 56f0 769e fdbf
000006a0: ad35 0357 158b c2bf 34d3 0138 b23e c33f
000006b0: 9de4 7ba2 6213 03c0 707d d27b 7161 e93f
000006c0: 818d 19ea 81c4 03c0 b8d1 59c6 b45f e53f
000006d0: 0855 2477 45e3 753f e5d5 29e1 d729 e7bf
000006e0: fc2a c033 5fa3 ca3f 6045 ce40 5287 01c0
000006f0: 4bed 50be 720f e23f 61a5 dfc1 808a dc3f
00000700: 5a80 985e e4b6 fd3f 94f4 18ed 92e6 f7bf
00000710: c8d3 5583 7437 f63f 4e34 6dc0 b98e dfbf
00000720: b5cc 225a 7c8d e23f 54d4 530b a727 e63f
00000730: 3cba 0653 df31 83bf d8f3 050c 2bb2 eabf
00000740: 6ee4 b871 d304 efbf b1b8 4498 f8ad de3f
00000750: 7e32 d2be d7b5 ce3f 7418 4e08 89e3 f1bf
00000760: 16fb f052 4d3a d23f e0b4 f99f e457 f73f
00000770: b9e1 5f49 1cf4 f93f 0a8f a320 a7cd a7bf
00000780: accd 11dc 3668 f63f 247e d6e7 7de8 eabf
00000790: 2988 38a0 8130 f0bf b35a 67b1 afff dbbf
000007a0: ba0c 102d 0fef fb3f 1858 4f26 4758 e8bf
000007b0: 86a7 67f0 98cc b53f 2db6 443e efb2 debf
000007c0: e077 ea44 3df2 f5bf b229 8178 3e6f f7bf
000007d0: f359 b19b 9950 f6bf 8e94 659e 65d3 e0bf
000007e0: b1fd c881 1799 dabf b5a5 85ea 61fa cfbf
000007f0: ca2e dfea f631 c53f cbfc 46f4 af11 f9bf

bias_1 f8 [1, 32]
-0.16165842754515514 -0.24890273096602164 0.08354692876446974 -0.4433919728618798 0.0346525238200951 0.11745572381780522 -0.5830962456816243 -0.06389004953869086
-0.5215193647084897 -0.6099908621715506 -0.450457355395602 0.031039810119804657 -0.22438726098223644 -0.10344248760702347 -0.30662790649349814 -0.3540225733413114
-0.505288517479692 -0.15724371209802587 -0.6164316403048671 -0.2948533988370812 -0.1535391116427481 -0.5137688658288353 -0.09238998066587673 -0.419581316945407
-0.12495205769263516 -0.20912162100029202 -0.37959996487428005 -0.36463214250821524 -0.5456638889983173 -0.4752968178119697 -0.5383029154435879 -0.42034360882675265
00000000: e8f0 b62d 39b1 c4bf cf2b b170 0bdc cfbf
00000010: f581 b9de 5463 b53f 5c0b b0b9 8860 dcbf
00000020: 71f5 0fc1 f9bd a13f f885 860c 9411 be3f
00000030: 45ef 3375 b9a8 e2bf abf9 4e29 195b b0bf
00000040: c8ea f460 49b0 e0bf 4657 7c8e 0b85 e3bf
00000050: 31ac 6a16 4bd4 dcbf cdbc 5a65 e6c8 9f3f
00000060: 7263 c7c5 b8b8 ccbf 41ff 49f5 347b babf
00000070: a68d 9ba7 ca9f d3bf 08fd a24b 4ea8 d6bf
00000080: c6d3 33d3 522b e0bf 7738 7bdc 8f20 c4bf
00000090: 7e87 ead8 ceb9 e3bf 4da9 47ca e0de d2bf
000000a0: abcc 946b 2ba7 c3bf f202 8e67 cb70 e0bf
000000b0: 9c21 70a9 dea6 b7bf b4c2 9298 6bda dabf
000000c0: 0797 5ba9 dbfc bfbf ea97 8a4d 7fc4 cabf
000000d0: 74a8 aca6 5d4b d8bf 1f2a c90d 2256 d7bf
000000e0: eb63 bb1d 1476 e1bf 454c 1958 436b debf
000000f0: 447e 2509 c739 e1bf d395 3fe1 e8e6 dabf

weight_2 f8 [32, 10]
1.230994167604187 -1.121702046394822 -0.15065624783735898 -0.13941630525859786 0.10671227145091107 0.14629161789984257 -0.6918855054033555 -0.3835363894075257
-0.9832854706978273 0.3509353171757712 -1.6561912972192647 -1.9257442310702861 -0.8260507874805401 -0.6070280573749784 -1.3144976737580538 0.47376108988703114
1.3332291144094353 -0.9388860276634226 0.23358906080762143 -0.861209488396893 0.6829323921745722 -1.9130500582823602 -0.8662318520984362 -0.5315678469863845
0.0902102979503296 -1.5678216700849206 -1.5332275753279176 -0.4483878933647079 0.6989339173935586 1.2917418908496 -2.2219777680406665 0.6367240715572084
-3.5461147713773666 0.5385383473608 0.47521365791653425 -0.5153238044300732 -2.711533095546257 0.7624469002692328 -1.4007591234374415 0.39548771049728076
0.45546748853468305 -1.4706033219884522 0.593840281288481 -0.5651717851423824 -0.7711677165505832 -0.18962286659623287 -0.6860340969734379 -1.0936588976450303
1.4350297158079866 -1.7867220274300537 0.5266346516754344 -1.2123903441690227 -0.11741625677758738 -0.6337204975238178 -0.36059441851427954 -1.1256103389510512
0.8607148602202924 -2.0962561254571974 1.1909017576568095 -1.4784001073695159 -0.022050637212996962 -1.1591503734409465 -0.5094959104990902 0.9448060376876177
-1.5051415222400144 0.8500625080681965 -0.6578100374448953 -0.6157699861718445 -1.63363368483226 -1.2968097829723424 -1.9088376033455874 0.48295305141810246
0.39139373050416476 -1.1929143583306694 1.0648289965905715 0.13273653462665153 -0.04938455325019882 -1.9649739114724591 0.5342722967406819 0.3728662042034273
-1.028438229534192 -0.385240993013252 0.6330758967302281 1.266812577945253 -1.4822896637107026 -0.2112698230138544 -0.2894809135433539 -0.6756645888476369
-0.29361941349709453 -0.8827940047778767 0.3517741587449049 -1.0983206188597692 -1.1430494217657075 -1.3584349909370952 -1.7051536023186917 1.3251415165030407
-0.5825951867841253 0.4116780871398381 -0.26296654738446423 -1.0189565884072542 -0.3966709972766227 0.4552564075909318 0.5361428557347627 0.4895493896307891
-1.9597795803996494 -0.11095767954016304 -1.0940812198002636 -0.858547225073163 -0.4034980063384103 -0.863903635986756 -1.2954847527532483 1.3683886859562866
-1.077430588610548 -1.2374278308546989 -0.6721029377601335 -0.6404400179469051 -1.1425328114288427 -0.2961162384702506 1.4180046234995518 -0.9331744441221048
-0.428245666854519 1.4720478685884797 -0.47892308472507206 -0.9472742272839908 -0.3764831554971499 -0.48647379290191967 0.9810431770568813 -1.2228964704162621
-1.643410466427075 -0.4012515704831576 0.9191254231145398 1.131594156537224 -0.6133138416140909 -0.22316103827296305 -0.5764107668780901 -0.7535123046434014
1.0485048671577561 -0.2072482440015162 -0.4219036957592551 -0.5149749495941326 0.8536624041597501 -1.084684430247823 0.9227871003642605 -1.237425862561537
0.8537344102117175 -0.25202354867276305 0.7237662777594327 -1.744681523918551 -1.2359710959015042 -0.24726110487286418 0.15302184589110707 -1.7221932235278783
-0.8948873342215664 -0.30180614122726707 2.3685761603539586 -0.12335762071806401 -0.0665096110318548 -0.5065287462327726 -0.3445599669630626 -0.5950580367077293
0.870429032679269 -1.0315323264657967 1.0309378198807069 -0.7206979918857498 -1.1352511937176664 0.01443506716907209 0.11802878849544451 0.6592993370520028
-1.2000471429891202 -0.9560276893394414 -1.5005761519507363 0.34828167852500475 -1.629486191339044 -0.7494371443051363 -0.4617458851127653 0.8200470560254309
-0.3109249882818975 -1.3378643873996088 0.32060301229156585 0.5832995848911292 -0.9794424491483807 1.3499950913706817 0.3275208152795042 -0.8294752214633767
-1.5496648114398106 -0.4284694288447559 -0.5113056251368748 1.6918645719729641 -0.7279023082076396 -1.1081078461953164 -0.9962901369943472 -1.3158772459868655
-0.46993265560000413 0.16698775724949347 -2.531624721399075 -1.2957114882236531 -1.8986670658799667 1.4460663487284502 -0.8680973050952793 0.9458553433032244
1.210549112787993 -2.1494973570930744 -1.6189004817771833 -0.6705925737429215 -1.0844286307463844 0.3406665753213384 0.6510873972877957 0.5478775659674879
-1.2968879687086328 0.06117888959491756 -1.8961106402140593 -2.4293517629604797 0.92352369232333 1.039968953363202 -1.8998576567217014 -0.43975050300054397
-1.7994330481794136 1.1210905954628148 -0.2921818142639507 -2.7587895864679433 -0.41325875222902264 -2.1075565755850816 -1.5222177305633886 1.2116585058629428
-0.2121864443906466 -0.21899230108572657 -1.2453040917729017 -0.553885327375381 0.4575698341716868 0.9284496166875696 -0.6646644579467503 -2.356268901504186
0.2918547860304349 -0.9550292192944667 0.9637514704674566 -0.6293787179389597 -0.09107757055474558 0.5977087899955128 -0.9685506933335558 -0.397145958617026
-0.8773828307749421 -1.82706555149505 -1.0503721718876895 0.5260047283943071 -1.6441021685779396 0.8207173066210164 -0.8123945245951193 -0.6441539980101756
0.8095024133481687 -0.9706650335139712 -1.6312428536043946 0.16737446260455835 0.3438918523304778 -0.5136021842393762 0.5487724312639382 -0.6816629935791644
00000000: ded3 b6f0 26b2 f33f dbf3 51d8 7df2 f1bf
00000010: b823 b334 b448 c3bf c5b2 cebb 64d8 c1bf
00000020: 65aa f6d3 7e51 bb3f 3085 4709 afb9 c23f
00000030: 3e15 4912 ed23 e6bf 1933 5536 dc8b d8bf
00000040: acee 6817 1377 efbf 3801 9267 b975 d63f
00000050: fb9f 1772 c27f fabf 4f85 ce2e d9cf febf
00000060: 020c a20f 026f eabf 1ac2 c51a c66c e3bf
00000070: bb57 77b6 2e08 f5bf c6a7 cb08 1a52 de3f
00000080: c56a 470d e854 f53f 468b efb5 5a0b eebf
00000090: a0a0 6f10 3fe6 cd3f ee6c 7533 078f ebbf
000000a0: 4a9a 3808 95da e53f 27f0 be60 da9b febf
000000b0: 7885 70dc 2bb8 ebbf 442c cd92 9a02 e1bf
000000c0: 5d86 75a7 0518 b73f ed98 ef2c cc15 f9bf
000000d0: 93bd 55a3 1988 f8bf d11e 7b22 63b2 dcbf
000000e0: efa7 a8a9 aa5d e63f de27 818b f9aa f43f
000000f0: d063 b147 9cc6 01c0 ea40 fd28 0b60 e43f
00000100: 2c6d d76b 715e 0cc0 0bcf b1c5 b43b e13f
00000110: 884c d78b e669 de3f 3014 dc58 887d e0bf
00000120: 7d24 7b43 38b1 05c0 45f9 b20a f765 e83f
00000130: 8ccc 0b66 8269 f6bf 3191 a3af ab4f d93f
00000140: 3974 e91b 6126 dd3f 0f45 5559 9787 f7bf
00000150: 93ce 6555 bd00 e33f ffde b923 e315 e2bf
00000160: a61a 4aeb 67ad e8bf 3d63 4de5 8f45 c8bf
00000170: 4b23 4ec7 fdf3 e5bf 4ad6 e578 a07f f1bf
00000180: 85ef 22b8 e1f5 f63f a7ad 2dd6 6996 fcbf
00000190: eb5c bce9 30da e03f fe12 e36a f365 f3bf
000001a0: d0e3 e0e6 fd0e bebf be6d 7535 7047 e4bf
000001b0: d8e4 a89c fa13 d7bf 0c59 9dfc 7f02 f2bf
000001c0: cb79 fae3 f98a eb3f d506 77ee 21c5 00c0
000001d0: 9c28 5e00 ef0d f33f 1de1 f8de 86a7 f7bf
000001e0: c73d be36 7194 96bf 6a33 1143 e18b f2bf
000001f0: 3c42 215e ca4d e0bf 2cd0 1ddf d93b ee3f
00000200: d6f5 dd46 0f15 f8bf 2ead f649 b633 eb3f
00000210: b5cd b9a2 c70c e5bf 1ded 0e42 63b4 e3bf
00000220: f8f9 1f13 5d23 fabf 2ffc 6f9d bbbf f4bf
00000230: bae8 7b4c 998a febf a906 56ea b3e8 de3f
00000240: 23fd 174a 980c d93f 4558 bf5d 2d16 f3bf
00000250: 2506 4321 8a09 f13f f658 9ac1 82fd c03f
00000260: ba3b 46a2 ee48 a9bf 5147 f47b 8870 ffbf
00000270: 041f 3537 c218 e13f 9a97 3536 0add d73f
00000280: 50e3 1ca5 7b74 f0bf c682 84d6 c9a7 d8bf
00000290: 54f3 0a62 2842 e43f 23fb 0644 dd44 f43f
000002a0: 8261 cd5d 75b7 f7bf 8bf4 3cba e30a cbbf
000002b0: be08 1ff4 da86 d2bf f24e 0558 0b9f e5bf
000002c0: ca34 9c14 a9ca d2bf f306 7436 d93f ecbf
000002d0: 2ec9 d8c2 7783 d63f 2d67 28a4 b892 f1bf
000002e0: 7520 c330 ee49 f2bf f111 3d54 26bc f5bf
000002f0: 8fd8 c924 4f48 fbbf 0c3d 3f97 c733 f53f
00000300: 3e6f 41a9 9ea4 e2bf 56b5 2f0c ef58 da3f
00000310: ec54 3da4 71d4 d0bf d60b 746c a54d f0bf
00000320: 84c9 24c0 0e63 d9bf 9c70 79c5 eb22 dd3f
00000330: deac eb0f 1528 e13f 8e6c 8ff6 c654 df3f
00000340: 28f6 52d5 415b ffbf d373 ddf4 b867 bcbf
00000350: d55b 234f 5b81 f1bf 5c58 b807 3879 ebbf
00000360: 0b61 4e4d e9d2 d9bf e6ac ee3c 19a5 ebbf
00000370: 68ab 5838 4eba f4bf ef60 e688 ebe4 f53f
00000380: 66ad 5cdb 273d f1bf ffe5 0a20 81cc f3bf
00000390: a235 2705 de81 e5bf 2736 8410 7c7e e4bf
000003a0: dd19 3b7c d047 f2bf 36d5 0286 91f3 d2bf
000003b0: 2e1e b89d 25b0 f63f 1af5 dea6 90dc edbf
000003c0: c5ce 7283 6068 dbbf 92be db10 828d f73f
000003d0: 4c64 8c02 ada6 debf bfe8 500a 1250 eebf
000003e0: a3ba 16ce 4c18 d8bf 15fd b7f9 6222 dfbf
000003f0: 348b 2da9 b464 ef3f 8d4e ade3 fb90 f3bf
00000400: 9455 f3c5 684b fabf 3c67 2c11 1bae d9bf
00000410: 1e5f 26b8 7969 ed3f d9c0 6a79 021b f23f
00000420: 2655 7d59 44a0 e3bf 0bd8 8f78 8a90 ccbf
00000430: b9b7 19fe f471 e2bf c476 32d6 c51c e8bf
00000440: ee3a 220a adc6 f03f 90e9 1147 1c87 cabf
00000450: 023e d65b 7800 dbbf 7783 d8be ac7a e0bf
00000460: 891b 76d1 3351 eb3f 1251 a60f de5a f1bf
00000470: 8086 27d0 7887 ed3f 81d2 ae0f 7fcc f3bf
00000480: 9a88 6ad3 ca51 eb3f b7c4 d760 2721 d0bf
00000490: d094 9de5 1729 e73f 5fa6 722c 37ea fbbf
000004a0: fe2b bba0 89c6 f3bf 423a 807b 40a6 cfbf
000004b0: 7a82 d647 3896 c33f f21e 477b 1a8e fbbf
000004c0: 8ec2 42c3 eaa2 ecbf 7d65 93b4 ca50 d3bf
000004d0: ac71 d60e d8f2 0240 014b b272 5d94 bfbf
000004e0: 1f62 401c c606 b1bf 6eb7 f1c5 7b35 e0bf
000004f0: 1d80 673f 450d d6bf 9936 dc26 b70a e3bf
00000500: 8215 9bfc 8dda eb3f 8fff 6e0a 2881 f0bf
00000510: 078e c9a7 b87e f03f 3f26 2e3c f50f e7bf
00000520: 8932 dc27 fd29 f2bf 93fa 40eb 2190 8d3f
00000530: 300e 937a 2237 be3f ee35 5dec fa18 e53f
00000540: 7ebe 0ca2 6433 f3bf 3111 7961 c797 eebf
00000550: 3593 9c23 5c02 f8bf 79e5 c33c 3f4a d63f
00000560: 4f5b d11c 6012 fabf 9957 269b 63fb e7bf
00000570: 37cd e79c 3e8d ddbf 06ee d952 d33d ea3f
00000580: 0684 0bec 31e6 d3bf 8fd4 e57c e467 f5bf
00000590: aaa5 327f c284 d43f bd16 1ce4 63aa e23f
000005a0: 8b01 edb0 9757 efbf 6929 f373 9499 f53f
000005b0: 619f 98dd 19f6 d43f c6e1 a09e 0f8b eabf
000005c0: fd55 4e54 6dcb f8bf 7056 0e0a 0b6c dbbf
000005d0: a828 479d 9d5c e0bf a128 de95 e011 fb3f
000005e0: 43e9 0dc8 f94a e7bf 1e99 fd4a cfba f1bf
000005f0: 85fa 76da 9be1 efbf b206 914c d50d f5bf
00000600: f9f6 c76a 6013 debf ed06 1cd6 da5f c53f
00000610: ad3b 4176 c440 04c0 a38d 2ff8 3bbb f4bf
00000620: d325 9fb7 f060 febf 3e28 ba77 1623 f73f
00000630: 9f28 e4ff 73c7 ebbf 947e c76c 7244 ee3f
00000640: 1a05 1abf 685e f33f ee6c 9cab 2b32 01c0
00000650: e762 0b31 04e7 f9bf 7652 a58e 7e75 e5bf
00000660: b26d fed5 d159 f1bf 2b1c f62d 7bcd d53f
00000670: fe0a c63c b5d5 e43f b25b 8188 3688 e13f
00000680: 06df 4299 0dc0 f4bf 6e12 08e4 d652 af3f
00000690: 7612 551c 7856 febf 6129 23fa 4f6f 03c0
000006a0: 0b84 f38e 818d ed3f 09ce 387c b6a3 f03f
000006b0: 66cc 6a24 d165 febf 585c 324b df24 dcbf
000006c0: d35a d44e 7aca fcbf f4da 35b1 fcef f13f
000006d0: aff9 2f5a 1bb3 d2bf c566 5346 0012 06c0
000006e0: ba00 67d6 d472 dabf 86dc 349f 46dc 00c0
000006f0: d793 a2fa 005b f8bf 01a0 8907 f462 f33f
00000700: 14fb a7e7 ec28 cbbf ed96 9e91 f007 ccbf
00000710: 62d5 bbfb c3ec f3bf eef7 d9b8 6db9 e1bf
00000720: 91d3 59fc d248 dd3f e504 75f8 dbb5 ed3f
00000730: 4b3c b665 ee44 e5bf ae56 8482 a3d9 02c0
00000740: 8aa2 4bb2 bfad d23f 4003 f36f 998f eebf
00000750: fa25 e452 0dd7 ee3f 6714 4bd6 de23 e4bf
00000760: 2488 ee12 dc50 b7bf abff 312f 6e20 e33f
00000770: 0b58 0c06 5efe eebf a3ea ffe1 d66a d9bf
00000780: 4802 8828 8513 ecbf 711c 7516 a93b fdbf
00000790: 892d ee0c 53ce f0bf 51d6 3fde 07d5 e03f
000007a0: e932 5513 3e4e fabf dd59 e6f0 5043 ea3f
000007b0: 75bc 52cd 22ff e9bf c452 61d8 e89c e4bf
000007c0: 74a1 eb9a 71e7 e93f 2506 ca1d b00f efbf
000007d0: 9008 411b 9219 fabf 503c 89c1 866c c53f
000007e0: 66b2 c7f8 5202 d63f 0fcb 0ed9 6d6f e0bf
000007f0: 6233 a733 8b8f e13f 6b1c 0ae9 2ed0 e5bf

bias_2 f8 [1, 10]
-0.11686618589983876 -0.11366096932333883 -0.27760458662677717 -0.17723532568020037 -0.24099097276054826 -0.19862991739750324 -0.40727873362077593 -0.3275958417937188
0.9854244705597294 0.4726657285133789
00000000: 4fb4 723e f1ea bdbf 624d 13a2 e218 bdbf
00000010: d905 3207 46c4 d1bf f705 bfab a5af c6bf
00000020: d4a2 51cd cad8 cebf e05e 9d83 b46c c9bf
00000030: 587b 50d2 da10 dabf b0d0 b38c 54f7 d4bf
00000040: cb6d 37e6 9888 ef3f 25eb 79c1 2740 de3f

loss_history f4 [25]
0.6367192 0.30673063 0.2487131 0.21908405 0.20082973 0.18924364 0.17680217 0.17230661
0.16500407 0.16182089 0.1621692 0.15474737 0.15679802 0.14726461 0.15023124 0.15676741
0.15037557 0.15161398 0.14657785 0.14426495 0.14934312 0.14809872 0.15182921 0.15125729
0.14523664
00000000: 0800 233f cc0b 9d3e a6ae 7e3e 9257 603e
00000010: 4fa6 4d3e 16c9 413e a10b 353e 2571 303e
00000020: d4f6 283e 60b4 253e af0f 263e 1876 1e3e
00000030: a98f 203e 89cc 163e 38d6 193e a387 203e
00000040: 0efc 193e b240 1b3e 8118 163e 31ba 133e
00000050: 67ed 183e 31a7 173e 1e79 1b3e 31e3 1a3e
00000060: eab8 143e

accuracy_history f4 [25]
80.32333 91.06834 92.84167 93.67167 94.166664 94.545 94.95333 95.055
95.26667 95.46333 95.385 95.555 95.65 95.905 95.82667 95.76667
95.86 95.86 95.95333 96.026665 95.88333 95.96 95.775 95.97667
96.08
00000000: 8ca5 a042 fd22 b642 efae b942 e557 bb42
00000010: 5555 bc42 0a17 bd42 1be8 bd42 291c be42
00000020: 8988 be42 3aed be42 1fc5 be42 291c bf42
00000030: cd4c bf42 5ccf bf42 41a7 bf42 8988 bf42
00000040: 52b8 bf42 52b8 bf42 1be8 bf42 a70d c042
00000050: 44c4 bf42 85eb bf42 cd8c bf42 0ef4 bf42
00000060: f628 c042

val_loss_history f4 [5]
0.10879517 0.1251187 0.24916871 0.10905062 0.17357665
00000000: 01d0 de3d 1e1f 003e 1526 7f3e ee55 df3d
00000010: 14be 313e

val_accuracy_history f4 [5]
96.7 96.7 96.2 97.6 96.4
00000000: 6666 c142 6666 c142 6666 c042 3333 c342
00000010: cdcc c042
