checkpoints/model_epoch_0140.npz (npz, 384659 bytes, 10 tensors)

weight_0 f8 [784, 64]
000000 4b 12 e5 21 00 00 00 00 7f 7a 51 0e 00 00 00 00
       2.809556444e-315 1.18684844e-315
000010 53 cc fd 0d 00 00 00 00 4e b4 30 1a 00 00 00 00
       1.159753507e-315 2.170921987e-315
000020 3d 4c 6e 04 00 00 00 00 11 08 d1 1d 00 00 00 80
       3.67275264e-316 -2.47150585e-315
000030 c0 ab ec 0b 00 00 00 80 b5 a1 76 1f 00 00 00 80
       -9.8842694e-316 -2.60801613e-315
000040 e1 a6 b9 03 00 00 00 00 d8 a0 b1 21 00 00 00 80
       3.0878376e-316 -2.79289962e-315
000050 73 4b f2 21 00 00 00 00 1f 60 f0 02 00 00 00 80
       2.813838017e-315 -2.43612303e-316
000060 8d 1a 09 20 00 00 00 00 ed 4b f4 04 00 00 00 00
       2.65544244e-315 4.10662844e-316
000070 0c b9 1a 21 00 00 00 80 3d c3 92 08 00 00 00 80
       -2.74403781e-315 -7.1064409e-316
000080 d0 89 ce 17 00 00 00 00 9f 28 67 0e 00 00 00 80
       1.973355817e-315 -1.193868285e-315
000090 21 27 19 13 00 00 00 00 8b f0 96 02 00 00 00 00
       1.583063013e-315 2.1465379e-316
0000a0 68 d6 3a 12 00 00 00 00 11 3b 4d 14 00 00 00 80
       1.511079343e-315 -1.682815816e-315
0000b0 71 2a 27 14 00 00 00 00 97 74 cf 11 00 00 00 00
       1.670490736e-315 1.47631e-315
0000c0 21 94 72 04 00 00 00 00 c1 48 92 17 00 00 00 00
       3.68661355e-316 1.95384608e-315
0000d0 09 86 80 0f 00 00 00 80 1f 7e 9c 06 00 00 00 80
       -1.28497167e-315 -5.48013657e-316
0000e0 2f 7e 0a 00 00 00 00 00 80 35 ac 02 00 00 00 00
       3.397507e-318 2.21540617e-316
0000f0 19 d8 c1 21 00 00 00 00 5f c6 95 0a 00 00 00 00
       2.79815016e-315 8.77400346e-316
000100 22 6b 8b 03 00 00 00 80 d6 cb e2 08 00 00 00 00
       -2.93813814e-316 7.36558233e-316
000110 aa 54 11 03 00 00 00 00 8e ff cb 1c 00 00 00 80
       2.5428291e-316 -2.38698567e-315
000120 f5 33 42 07 00 00 00 00 27 5b a3 0d 00 00 00 80
       6.01669137e-316 -1.13046919e-315
000130 fd fe 97 18 00 00 00 80 73 d7 d3 21 00 00 00 00
       -2.038585985e-315 2.803977573e-315
000140 61 8b ea 0d 00 00 00 80 79 ec 04 1b 00 00 00 80
       -1.153519337e-315 -2.23963669e-315
000150 70 ee c1 0c 00 00 00 80 30 c8 57 0d 00 00 00 00
       -1.05747874e-315 1.10599899e-315
000160 68 7b 82 1e 00 00 00 00 45 6c f3 0e 00 00 00 80
       2.528962715e-315 -1.23928457e-315
000170 a3 2a 90 1e 00 00 00 00 5d 66 63 15 00 00 00 00
       2.53339363e-315 1.772884437e-315
000180 fa 22 84 0b 00 00 00 80 11 ac 09 15 00 00 00 00
       -9.545797e-316 1.74383142e-315
000190 d2 af e3 1f 00 00 00 80 7f 41 8e 0a 00 00 00 80
       -2.643327183e-315 -8.7496575e-316
0001a0 ef 69 e4 21 00 00 00 80 b6 d9 8b 03 00 00 00 80
       -2.8093435e-315 -2.93953674e-316
0001b0 d5 91 45 01 00 00 00 00 b8 07 5c 0e 00 00 00 80
       1.0541648e-316 -1.19026497e-315
0001c0 82 97 98 0a 00 00 00 80 51 b1 11 14 00 00 00 00
       -8.78312445e-316 1.66353793e-315
0001d0 25 98 da 22 00 00 00 00 f8 23 83 23 00 00 00 80
       2.8890545e-315 -2.943628217e-315
0001e0 9f 02 7c 01 00 00 00 80 10 78 ad 18 00 00 00 80
       -1.23043843e-316 -2.04553873e-315
0001f0 58 bc 18 02 00 00 00 00 f7 17 26 0d 00 00 00 80
       1.7379012e-316 -1.08991035e-315
000200 a4 17 a7 08 00 00 00 80 6e eb 14 11 00 00 00 00
       -7.1722666e-316 1.41591142e-315
000210 0c dd 2b 12 00 00 00 80 16 f1 ae 08 00 00 00 80
       -1.50623088e-315 -7.1976822e-316
000220 cb e4 52 1b 00 00 00 80 34 2b 88 1f 00 00 00 80
       -2.264882666e-315 -2.61369448e-315
000230 a0 a2 34 03 00 00 00 80 20 9c 83 0a 00 00 00 00
       -2.65714196e-316 8.71518677e-316
000240 f6 71 88 0b 00 00 00 00 b9 37 90 1a 00 00 00 80
       9.5597476e-316 -2.20184834e-315
000250 37 b1 38 1c 00 00 00 00 d4 5e 46 21 00 00 00 80
       2.339289327e-315 -2.7581705e-315
000260 26 e7 0a 23 00 00 00 80 22 a7 2b 16 00 00 00 00
       -2.904696387e-315 1.83772453e-315
000270 53 ff 3b 01 00 00 00 80 af 93 ee 1e 00 00 00 00
       -1.0231706e-316 2.563962834e-315
000280 b7 35 fc 05 00 00 00 00 53 6a 85 16 00 00 00 00
       4.9611554e-316 1.866788797e-315
000290 d7 db 04 10 00 00 00 80 e7 d5 18 22 00 00 00 00
       -1.32782059e-315 2.826317186e-315
0002a0 2e 1e bd 1e 00 00 00 80 45 da 81 01 00 00 00 80
       -2.54794846e-315 -1.2493555e-316
0002b0 4f c0 e8 15 00 00 00 80 42 92 65 06 00 00 00 80
       -1.816062386e-315 -5.3023063e-316
0002c0 e7 02 78 0d 00 00 00 00 43 fd c6 0e 00 00 00 00
       1.11643456e-315 1.224897366e-315
0002d0 d8 93 a8 10 00 00 00 80 d0 35 55 02 00 00 00 80
       -1.38083123e-315 -1.93371207e-316
0002e0 0b 15 37 08 00 00 00 00 26 df 96 14 00 00 00 80
       6.80958797e-316 -1.70666008e-315
0002f0 69 8f b1 1b 00 00 00 00 93 4a 12 1f 00 00 00 00
       2.295534805e-315 2.575526836e-315
000300 99 38 5a 21 00 00 00 80 60 c3 6a 02 00 00 00 00
       -2.76459796e-315 2.00349864e-316
000310 b9 cc 12 21 00 00 00 80 41 a9 f5 14 00 00 00 80
       -2.74147237e-315 -1.737352047e-315
000320 96 95 62 08 00 00 00 80 48 e3 a3 0a 00 00 00 80
       -6.95044387e-316 -8.81969983e-316
000330 e4 4d 9f 15 00 00 00 00 b2 73 29 0b 00 00 00 80
       1.792280936e-315 -9.25216824e-316
000340 48 9f e4 00 00 00 00 80 47 d1 86 1d 00 00 00 00
       -7.4025777e-317 2.44747603e-315
000350 d5 d0 36 1e 00 00 00 80 19 26 1c 15 00 00 00 00
       -2.504462657e-315 1.749814003e-315
000360 20 33 61 1f 00 00 00 80 66 af 21 15 00 00 00 00
       -2.601076655e-315 1.751606616e-315
000370 33 9b 8b 12 00 00 00 00 72 81 12 11 00 00 00 00
       1.537231518e-315 1.41512979e-315
000380 61 8a ce 16 00 00 00 80 d7 90 2b 16 00 00 00 00
       -1.890466073e-315 1.837696335e-315
000390 b5 27 03 22 00 00 00 80 56 b2 6c 01 00 00 00 80
       -2.819297254e-315 -1.18085434e-316
0003a0 e1 bb 96 1e 00 00 00 80 06 4c 2b 24 00 00 00 00
       -2.53552008e-315 2.998075743e-315
0003b0 f2 01 92 21 00 00 00 00 f3 88 a4 1e 00 00 00 00
       2.782661126e-315 2.539988733e-315
0003c0 7c a5 0d 04 00 00 00 00 e6 30 c1 1f 00 00 00 80
       3.3598043e-316 -2.63215776e-315
0003d0 45 51 8f 0f 00 00 00 00 a2 e5 66 17 00 00 00 00
       1.28976179e-315 1.939797703e-315
0003e0 65 8b fd 1a 00 00 00 00 ef 9a c9 20 00 00 00 80
       2.23724737e-315 -2.717772663e-315
0003f0 86 2d 87 12 00 00 00 00 59 57 8d 14 00 00 00 80
       1.535797635e-315 -1.7035742e-315
000400 68 8c ff 10 00 00 00 00 21 2c 59 04 00 00 00 80
       1.408991626e-315 -3.60435044e-316
000410 02 44 e1 0e 00 00 00 00 6d 16 fe 06 00 00 00 00
       1.23340541e-315 5.79614007e-316
000420 d7 93 ed 01 00 00 00 00 df 8a d0 08 00 00 00 80
       1.59815884e-316 -7.3064783e-316
000430 f0 88 a7 21 00 00 00 00 ef 93 c8 1d 00 00 00 80
       2.789631473e-315 -2.468768637e-315
000440 5f 74 7d 09 00 00 00 80 bb 8e 57 0a 00 00 00 00
       -7.8663519e-316 8.57254937e-316
000450 21 60 82 01 00 00 00 80 2c 32 04 02 00 00 00 80
       -1.25104857e-316 -1.6713954e-316
000460 c2 46 89 0a 00 00 00 80 9f f3 c9 09 00 00 00 00
       -8.7335345e-316 8.1140424e-316
000470 90 cb 34 05 00 00 00 80 0c 59 00 14 00 00 00 00
       -4.31546895e-316 1.65792184e-315
000480 19 7f 37 21 00 00 00 00 2e 88 b2 1e 00 00 00 80
       2.75335445e-315 -2.54452083e-315
000490 0a fb 1e 1b 00 00 00 00 77 ab 41 1d 00 00 00 00
       2.24807368e-315 2.425086633e-315
0004a0 33 a6 ca 0d 00 00 00 80 66 01 c7 00 00 00 00 00
       -1.14319195e-315 6.443615e-317
0004b0 5d 53 0d 1e 00 00 00 80 1f 13 94 0d 00 00 00 00
       -2.491028537e-315 1.12552122e-315
0004c0 79 02 a0 0b 00 00 00 00 bb 2a 75 13 00 00 00 80
       9.6360473e-316 -1.61285633e-315
0004d0 a5 d2 1d 21 00 00 00 00 47 0a 30 0b 00 00 00 00
       2.74504156e-315 9.27350027e-316
0004e0 49 ae c4 11 00 00 00 80 94 a4 90 06 00 00 00 80
       -1.472821276e-315 -5.44176807e-316
0004f0 15 a4 2f 04 00 00 00 00 80 73 b5 12 00 00 00 80
       3.46987545e-316 -1.55078052e-315
000500 2f 72 dd 01 00 00 00 80 15 11 ac 0f 00 00 00 80
       -1.5459266e-316 -1.29907054e-315
000510 ed b4 42 20 00 00 00 80 a6 72 7f 1d 00 00 00 80
       -2.67409377e-315 -2.445089805e-315
000520 76 84 63 19 00 00 00 00 1c ad 49 14 00 00 00 80
       2.10448435e-315 -1.681664895e-315
000530 a0 01 67 02 00 00 00 00 59 3c b8 10 00 00 00 80
       1.99133435e-316 -1.385901216e-315
000540 74 9c 7c 14 00 00 00 00 bb 84 d3 1e 00 00 00 00
       1.69815716e-315 2.55520157e-315
000550 58 a8 66 0d 00 00 00 00 73 ef c7 02 00 00 00 80
       1.11081558e-315 -2.3051816e-316
000560 d8 53 8f 22 00 00 00 80 d8 d3 81 14 00 00 00 80
       -2.8646838e-315 -1.699846175e-315
000570 bd bd 9d 06 00 00 00 00 5d 87 2c 07 00 00 00 00
       5.4841791e-316 5.9465123e-316
000580 57 0b ef 0d 00 00 00 80 68 ce 5a 0e 00 00 00 80
       -1.154976346e-315 -1.18986869e-315
000590 33 f2 fc 0b 00 00 00 80 43 2c 66 08 00 00 00 80
       -9.936967e-316 -6.96206335e-316
0005a0 50 4e 87 1e 00 00 00 80 7f 56 29 1c 00 00 00 80
       -2.530524634e-315 -2.334317723e-315
0005b0 66 ff 64 0d 00 00 00 80 52 c5 78 04 00 00 00 80
       -1.110278104e-315 -3.7066632e-316
0005c0 51 72 0a 00 00 00 00 00 aa 46 f2 11 00 00 00 80
       3.382497e-318 -1.487584595e-315
0005d0 b1 4c b0 0f 00 00 00 80 3d 05 4a 00 00 00 00 80
       -1.3004411e-315 -2.396715e-317
0005e0 c4 ef 6f 20 00 00 00 80 90 17 4e 04 00 00 00 00
       -2.68873878e-315 3.5684733e-316
0005f0 f7 19 16 09 00 00 00 00 d7 14 92 02 00 00 00 00
       7.53170385e-316 2.13080745e-316
000600 ff b1 f6 22 00 00 00 80 ef cd 47 19 00 00 00 80
       -2.898153343e-315 -2.09551113e-315
000610 1d 5c de 0f 00 00 00 80 d9 98 ab 1f 00 00 00 80
       -1.315354986e-315 -2.62516584e-315
000620 ea bb 0c 02 00 00 00 80 a6 c5 46 18 00 00 00 80
       -1.69904087e-316 -2.0122864e-315
000630 5f c8 8b 1b 00 00 00 80 3d 9f 8e 15 00 00 00 80
       -2.283302797e-315 -1.78687938e-315
000640 1f 51 07 08 00 00 00 00 c2 9b 3e 0c 00 00 00 80
       6.65492823e-316 -1.014957564e-315
000650 c0 1e 96 00 00 00 00 80 d8 21 51 1a 00 00 00 00
       -4.860752e-317 2.18142184e-315
000660 da c9 2b 1f 00 00 00 00 aa 72 44 05 00 00 00 00
       2.58378259e-315 4.3661511e-316
000670 83 db 69 0f 00 00 00 80 f1 cb 55 15 00 00 00 00
       -1.27763259e-315 1.76847984e-315
000680 56 ce f5 15 00 00 00 00 01 fa c1 17 00 00 00 80
       1.82028941e-315 -1.969288437e-315
000690 c0 97 a1 18 00 00 00 80 8e 06 f5 22 00 00 00 00
       -2.041693317e-315 2.89761271e-315
0006a0 80 20 5e 1a 00 00 00 00 41 5a 16 14 00 00 00 80
       2.18562942e-315 -1.665046765e-315
0006b0 c1 19 8b 1a 00 00 00 80 7a 6e dc 1c 00 00 00 00
       -2.20019148e-315 2.39230662e-315
0006c0 e1 17 e1 11 00 00 00 80 3e 72 57 0e 00 00 00 00
       -1.482020976e-315 1.18878075e-315
0006d0 48 bb 52 1d 00 00 00 00 7f c1 fe 01 00 00 00 00
       2.43061108e-315 1.65378075e-316
0006e0 de 47 0d 22 00 00 00 00 75 fb 79 1c 00 00 00 00
       2.82257584e-315 2.360429636e-315
0006f0 3a 4b c8 00 00 00 00 80 df a0 a0 0d 00 00 00 80
       -6.485332e-317 -1.129585997e-315
000700 a1 a4 ae 1c 00 00 00 00 81 08 1f 0c 00 00 00 80
       2.37748073e-315 -1.0047338e-315
000710 b9 b5 46 04 00 00 00 80 52 50 d8 05 00 00 00 00
       -3.54457047e-316 4.8449272e-316
000720 19 1c f3 00 00 00 00 80 ec a7 4f 19 00 00 00 00
       -7.8716718e-317 2.09805338e-315
000730 2d c5 22 21 00 00 00 80 31 f8 ef 08 00 00 00 80
       -2.74664348e-315 -7.40823615e-316
000740 f0 e5 31 01 00 00 00 80 3a 4f 6a 04 00 00 00 00
       -9.904704e-317 3.6598388e-316
000750 fa e6 a9 11 00 00 00 00 54 de ca 1e 00 00 00 00
       1.464150627e-315 2.552400774e-315
000760 e7 99 ee 1c 00 00 00 80 3e c7 00 12 00 00 00 80
       -2.39818978e-315 -1.492280294e-315
000770 52 52 06 07 00 00 00 00 19 c3 ef 0a 00 00 00 80
       5.8228009e-316 -9.06537383e-316
000780 fa 1a 6b 02 00 00 00 00 72 95 9e 22 00 00 00 00
       2.00460664e-316 2.869623636e-315
000790 a7 19 ed 10 00 00 00 00 61 f6 51 1a 00 00 00 80
       1.40301825e-315 -2.181690657e-315
0007a0 e7 4f 7a 18 00 00 00 00 1a e9 38 0e 00 00 00 00
       2.0289746e-315 1.178893565e-315
0007b0 ed ed 7b 1d 00 00 00 00 90 7b 23 07 00 00 00 00
       2.443950563e-315 5.91722187e-316
0007c0 ee 95 8d 0f 00 00 00 00 28 1c e1 0d 00 00 00 80
       1.289201053e-315 -1.150464544e-315
0007d0 3c 2e 83 15 00 00 00 00 df 2e db 18 00 00 00 80
       1.783174753e-315 -2.060340536e-315
0007e0 ce 95 f9 0e 00 00 00 80 6e a0 6a 03 00 00 00 00
       -1.241279847e-315 2.83196126e-316
0007f0 c0 d1 06 1e 00 00 00 00 4a e7 c9 0c 00 00 00 00
       2.488921856e-315 1.060060026e-315

bias_0 f8 [1, 64]
000000 16 69 2b bd 8a df c1 bf 59 33 dc b9 0c de db bf
       -0.13963445889277953 -0.43542783880621055
000010 41 97 44 fb 8b 4d 9a bf b2 13 54 e1 b5 ed 83 3f
       -0.02568644257657771 0.0097307404889849
000020 14 b6 8a 4c 1b ed d1 bf ff 80 99 1c 0c 77 e8 bf
       -0.28009684061803 -0.7645321425043504
000030 59 34 30 2a 2e d0 9c bf b1 6b 54 c0 85 6f e4 bf
       -0.028137894940347106 -0.6386135822716509
000040 01 61 8b 58 4e 91 e1 bf 37 de 61 98 f4 b1 82 3f
       -0.5489875535377281 0.009128485584581998
000050 8b 3e 2c 64 13 c4 d7 3f 9c 6a 31 fc 2d b6 cd bf
       0.37134251387122025 -0.23212218107331217
000060 fe 81 22 5e cd 7f e7 bf 9c cb 3b 5f 14 df cb bf
       -0.7343508566446528 -0.21774534845425542
000070 61 61 ce 1c 3a 45 e6 bf 43 b0 17 e5 9f 87 e8 bf
       -0.6959505617733549 -0.7665557360137502
000080 be de e9 9b 90 b1 d0 3f b3 49 c1 09 5c 22 e1 bf
       0.2608377001374541 -0.5354442778137155
000090 d1 ae d5 41 cd ad d9 bf 96 e3 39 19 7f 63 7d 3f
       -0.40123301915330695 0.007174965361280613
0000a0 f2 dc e8 3a fe 07 dd bf 89 6b b5 f0 2c 26 de 3f
       -0.45361285927670203 0.4710800505324007
0000b0 d3 63 9f 39 ed b6 d0 bf 24 a9 82 1a 9c 32 e4 bf
       -0.26116495730599104 -0.6311779516011353
0000c0 71 c6 12 2d 91 e4 da 3f a8 eb c5 f1 3e 8d bb bf
       0.4202006282967892 -0.10762399103798137
0000d0 c4 1a ca 4c 07 63 c2 bf 46 f2 a0 f9 32 af d5 3f
       -0.14364711045728573 0.3388183057575457
0000e0 96 a9 0a d7 e9 58 dd 3f 07 11 ef f9 03 74 c6 bf
       0.45855184555207396 -0.17541551307488865
0000f0 1e 1c ad 64 08 63 7d 3f 15 e2 51 80 d1 7e d0 bf
       0.007174523149678284 -0.2577403786777109
000100 65 83 da 87 ba 23 e3 bf f8 57 fa b4 2f d0 97 3f
       -0.5981114056959141 0.023255105420126626
000110 6a 75 27 74 3e 50 d2 bf 4f 02 d0 59 d7 03 e8 bf
       -0.2861477026288727 -0.7504688982153968
000120 40 28 35 4b 56 b7 c7 bf 7f b6 f5 fa b0 ea dc bf
       -0.18528250381706535 -0.45182442195696376
000130 8f c6 25 54 57 2c d6 bf 53 94 aa d4 57 09 9a 3f
       -0.346456367659905 0.025426266055223867
000140 8c 9d 6e 6e c1 fd cb bf 21 56 f5 96 22 37 c1 bf
       -0.21868150608245818 -0.1344950902081772
000150 cc 22 64 d4 22 2f a0 3f 69 cb a9 91 f8 95 cd bf
       0.031609619547514706 -0.23113925087417478
000160 78 84 fc e0 db 1e e7 bf 6e f2 a6 da fa 2f 9a bf
       -0.7225169557824662 -0.025573653789012267
000170 97 7a 5f f4 71 54 a6 3f 4d ab 54 71 44 1d cc 3f
       0.0436130152518121 0.2196431687710522
000180 29 b9 5d 94 d0 b3 ea bf fd 5f 57 d6 0f 49 df bf
       -0.834450044419815 -0.4888343423058357
000190 fc 2b 8d 54 43 39 e1 bf aa 3a 12 6e f4 db d2 3f
       -0.5382401133914523 0.2946749758638513
0001a0 12 86 5f 31 ec 16 c4 bf 93 22 dd c5 2a 13 d2 3f
       -0.15694954310224368 0.2824198658241041
0001b0 8f c5 cf 2e a2 fa d9 bf 49 a1 94 3d aa 30 eb bf
       -0.405922456469022 -0.8496905520196744
0001c0 05 b5 7c ce 73 02 e5 bf cb b5 7f da 64 1e cb 3f
       -0.6565493615104577 0.21186505001916908
0001d0 10 29 b2 ed 19 58 e5 bf 51 03 c7 49 04 9f e3 bf
       -0.667004551172143 -0.6131612244572385
0001e0 15 6b be 15 05 c2 99 bf fb b1 ab 09 83 7d ad 3f
       -0.025154189540994205 0.05759820454645489
0001f0 ca 41 ae 6c bb 84 c3 3f c0 68 8d f9 5c d5 d3 bf
       0.15248816305803664 -0.309897655204292

weight_1 f8 [64, 32]
000000 ca 32 18 a4 ef 95 18 c0 9b 93 ab d1 41 fa e3 3f
       -6.146421970345452 0.6242989630815033
000010 8e c4 c1 0a a8 03 22 c0 1e 16 8c 26 52 11 f7 bf
       -9.007141433862014 -1.441728735518502
000020 4e c6 d5 1a 15 28 1b c0 4d 7c 5f 4f 52 00 05 c0
       -6.78914300851609 -2.625156993962753
000030 eb e7 96 5d 07 da 0c c0 ff 48 56 08 7b 35 fa 3f
       -3.606459361236366 1.6380567861238544
000040 11 07 bb 9c 6f b4 fd bf 04 8e f2 06 6d a6 10 c0
       -1.8565517542160175 -4.162525280527465
000050 00 80 30 22 a6 4f c5 3f 56 ee 86 3e 05 11 aa 3f
       0.16649319333464518 0.050911105997752656
000060 be 1a e8 bd d5 24 f5 3f 06 95 8c d8 e1 bc f0 3f
       1.3214929025868254 1.046113820929635
000070 11 43 67 a2 e9 0c e0 3f c4 a2 70 6f b4 20 e5 3f
       0.5015762493077053 0.6602422882616215
000080 f2 48 2e c3 f7 e3 00 c0 15 c9 db 8c 10 85 17 c0
       -2.11131241307259 -5.879945946612016
000090 47 72 a1 e3 fb 33 f1 3f 37 a3 1e 43 e9 28 01 c0
       1.07519139211867 -2.1449761623120156
0000a0 12 46 b4 7a 5d 4c f6 bf 24 d1 83 1e 4f 22 f9 bf
       -1.39364383632017 -1.5708762351978942
0000b0 95 b6 de c6 48 f4 13 c0 6d 86 32 6e 8f 9d f2 3f
       -4.9885588715966565 1.163466864069416
0000c0 a7 0b f6 86 68 61 14 c0 49 2e e9 42 d8 94 f2 3f
       -5.095125302092959 1.1613390554147307
0000d0 a5 1e ea d5 01 3d d6 bf 36 39 10 66 66 7d ef 3f
       -0.34747358217326 0.9840576165604833
0000e0 14 70 ce 0f 4d 0b ff bf 5c 71 79 a9 63 df 16 c0
       -1.9402590386807832 -5.7181536178944405
0000f0 96 72 ac da 60 01 ca bf ec ce 4e c5 07 a7 e6 bf
       -0.20316706349776287 -0.7078894475621076
000100 9a 29 49 3e d3 20 d4 3f ce 0c 67 3e d8 a2 05 c0
       0.3145034893283537 -2.7045140147398348
000110 9a 10 d0 9d bd 32 11 c0 0c ff c7 f8 fe 92 0c c0
       -4.299551454376479 -3.57177538261738
000120 d2 a0 4a d8 f4 80 b0 3f 20 60 7c 92 fd 04 1b c0
       0.06446771889261818 -6.754873551217344
000130 43 fe 63 d8 af a2 c6 3f ef 81 31 ac 85 ba 07 c0
       0.17683981004664603 -2.966075272808886
000140 13 14 58 11 7c 42 ac 3f e2 3d 0c 7a b4 51 d5 3f
       0.05519473754615247 0.33311187666637754
000150 79 30 e8 d8 ec 70 dd bf c0 5d 82 07 b9 72 24 c0
       -0.460017406295044 -10.224067911781162
000160 40 0f cf 5f 71 42 0b c0 cd ee ca 49 d6 45 e2 3f
       -3.407442806726891 0.5710250321639819
000170 6c 42 1f b2 b3 99 a6 3f 21 70 1f d1 8c b2 b2 bf
       0.04414140271513109 -0.07303695779359078
000180 92 f9 07 ca 3c e0 c9 3f 8b c2 fe 77 05 c0 fc bf
       0.2021556841354593 -1.7968802153883725
000190 b8 23 f9 26 92 56 14 c0 ff 0c 78 c2 22 53 12 c0
       -5.084541901546736 -4.581187285020177
0001a0 53 17 30 76 60 c8 de 3f 4c 4e 82 ac b4 4d fe bf
       0.480980029504612 -1.893971132148084
0001b0 f1 6c ca fe cc 7d c0 bf 54 36 be 47 a2 be 10 c0
       -0.12883913460687027 -4.186165925011284
0001c0 c7 24 e6 f3 ed 98 d1 3f 53 c2 ec 00 e7 21 0d c0
       0.27495907610189046 -3.641553885674776
0001d0 d8 50 05 75 e9 4f e5 bf da a2 c3 89 fe 44 12 c0
       -0.6660048757135213 -4.567377235952074
0001e0 29 cb 1a cc 75 ed fa bf 21 e7 99 78 aa b5 00 c0
       -1.6829736683691385 -2.088704054066412
0001f0 2b 5a 3d 10 87 69 04 c0 13 4d 01 3e 8d 82 ce bf
       -2.551527144310304 -0.2383591225394431
000200 7d df 66 ba 87 ca 13 c0 5d 90 06 70 be 76 c5 3f
       -4.947783386734838 0.16768627614976853
000210 23 88 8c e8 38 80 19 c0 34 24 e9 63 7e a8 f1 3f
       -6.375217088296298 1.103636160160261
000220 42 af 34 98 36 81 13 c0 2a 52 47 14 47 ad 10 c0
       -4.876184824195493 -4.169216458180509
000230 6e e0 3a 77 80 39 e2 3f e8 58 8d 3a 59 44 e3 3f
       0.569519265051907 0.6020933288189356
000240 52 92 f4 29 e2 6a cb bf 97 2f d9 4b f6 ed c7 bf
       -0.21419932411767434 -0.1869495268205099
000250 6e 0d e9 ed 86 97 0c c0 f4 f7 4e e5 10 ff a9 3f
       -3.5739878260371176 0.0507741241376464
000260 f2 34 dd 10 4f 28 e9 3f 64 76 3d 42 93 cb cb 3f
       0.7861705140473119 0.2171501229703835
000270 2b c8 4b c7 ba 17 17 c0 40 f5 b1 bd 74 55 03 c0
       -5.773173440933571 -2.4167265720303988
000280 9a e2 2d b6 29 34 fd bf d0 9c ad b0 56 6b f8 bf
       -1.825235091817524 -1.5262057210436986
000290 19 88 f9 0d d6 b9 f3 3f 5c 06 ce 1b 08 0c ec 3f
       1.232870153988648 0.8764687102377127
0002a0 5d f0 b7 18 8f 15 e5 bf 0a ae c3 1b 09 23 e5 3f
       -0.6588817103179384 0.6605268041871011
0002b0 2a 08 37 68 4b ff e4 bf d6 fd fb 92 18 3c 08 c0
       -0.6561638865898705 -3.029343746485874
0002c0 5d 78 79 9e ff ce d4 3f ea 0a 4a b4 48 19 02 c0
       0.3251341865160436 -2.262345703610994
0002d0 5c 7e e9 f2 db bd fe bf 2b 19 03 23 e5 37 01 c0
       -1.9213523377183241 -2.1522925124474077
0002e0 b6 90 64 f7 66 f8 16 c0 8d 4d 12 bc 2d 8c 08 c0
       -5.742580285561578 -3.0684466069303142
0002f0 e5 53 67 76 24 87 13 c0 e6 3c 2c 72 a0 87 9e 3f
       -4.881975030953048 0.029814249962382265
000300 02 96 2a 2d 3c fd 16 c0 b6 ce e0 4d 5d 15 06 c0
       -5.747299867367021 -2.760431869910316
000310 40 2e 59 9a ab 10 22 c0 76 49 3c 48 ca 06 f8 bf
       -9.032559226404487 -1.5016577550601062
000320 b9 2c 16 a8 38 b5 f7 bf b2 fa c8 45 2f f3 19 c0
       -1.4817434850581732 -6.4874850181501404
000330 3f 19 bc 32 4d f6 08 c0 97 84 97 68 63 3e 11 c0
       -3.1202644313481467 -4.310926088569565
000340 46 a0 83 bc ff f8 d7 bf 33 0b a2 1c 26 24 fb bf
       -0.3745726910551678 -1.6963254087901987
000350 fe bb ae 50 b3 2d f1 3f da 4d b6 b7 bf 20 1c c0
       1.07365733639358 -7.0319813447017285
000360 3a 7f 9b 12 6b ba 0d c0 1a 3f c1 d5 fe a6 15 c0
       -3.7160245374397194 -5.413081493301229
000370 78 1d 82 f1 3c 64 e5 3f 62 98 2f ed f5 8e d6 bf
       0.6684860913236852 -0.35247562563598056
000380 b1 a3 16 5e a0 8f f2 3f 42 4d 76 3e 8d 98 12 c0
       1.16006504777236 -4.6489763030725175
000390 b5 f6 81 40 dc ef ef bf e1 03 2a be 6a 1f c8 bf
       -0.9980298290172046 -0.1884587696586371
0003a0 97 2d 76 38 2c 35 0e c0 2a 11 bd ba 65 0f 04 40
       -3.775963250261792 2.5075182522724804
0003b0 e8 36 ad 46 78 c1 f8 bf e0 8e 4c 78 b0 92 d2 bf
       -1.547233844833892 -0.2902032065196476
0003c0 04 b5 10 1b 39 e9 01 c0 e5 8a 1f bc b6 d7 06 c0
       -2.238878451773987 -2.8553290078283333
0003d0 0a 42 9a 22 31 b0 08 c0 45 91 d9 c7 0a d4 fc bf
       -3.0860312178922458 -1.8017680937419567
0003e0 84 86 e7 ad f6 3c e9 3f 21 11 1e 20 a3 a6 13 c0
       0.7886918446130982 -4.91273164924158
0003f0 82 d8 ed fb a7 80 eb 3f 9a 41 22 69 aa 59 01 c0
       0.8594551010599079 -2.168782063825529
000400 7c 3b 2a 59 bd 6f 09 c0 cc 69 c3 c0 f6 a2 08 c0
       -3.179560371972398 -3.079572206462421
000410 af a6 18 b1 21 09 1e c0 95 39 14 af 02 bf e9 bf
       -7.50891758645018 -0.8045667094718733
000420 39 b1 71 06 a6 f1 0f c0 f4 d7 cc 2c 06 23 20 c0
       -3.992992449135411 -8.068406486516302
000430 a5 b5 40 d9 16 d2 f1 3f 2b 75 ba eb 20 cf 09 c0
       1.1137913214146036 -3.226137010219323
000440 30 b9 d1 89 45 87 e9 3f 06 1a af 08 03 95 0b c0
       0.79776265065974 -3.447759692996672
000450 a6 12 44 15 7c 30 15 40 4a 66 86 b8 c7 b4 1d c0
       5.297348339347684 -7.4265431243926034
000460 87 c5 18 2c 1b 8b 10 c0 48 1f 12 81 ce 16 18 c0
       -4.135845841419161 -6.022272125941363
000470 c0 a7 66 9c 08 98 bb bf da 4e 00 f8 87 7c fd bf
       -0.10778859918960304 -1.842903107409191
000480 08 f8 46 20 7d 29 d4 3f 11 09 dd 23 d6 b7 15 c0
       0.31503227378914334 -5.42952781712144
000490 3a 5d d2 df be 9e fa bf 5a 82 ac 85 0c 44 f9 bf
       -1.6637562506710553 -1.5791135045657456
0004a0 f9 f1 61 ca 91 15 0b c0 91 a4 1a 81 3c 6f ff 3f
       -3.385531979669619 1.9646573107841372
0004b0 f6 8b 7b 53 c1 34 e7 3f 3a 21 b7 8e 17 68 fd bf
       0.7251898413200013 -1.837913091165389
0004c0 1e c2 34 2b 97 21 03 c0 c9 bf fa 6f 58 ab 0f c0
       -2.391401612803988 -3.958664774741895
0004d0 ad 2b 37 cb 57 b8 1a c0 fd a3 05 c2 d3 73 fc bf
       -6.680022406809184 -1.7782781199441609
0004e0 84 b3 16 bf 36 69 e4 3f 44 c9 d9 9c 03 0f 05 c0
       0.6378434879494397 -2.632331109424884
0004f0 b7 13 77 17 92 0b f0 3f b3 eb 1c 92 ec 23 0e c0
       1.0028248707396707 -3.767541066653814
000500 44 0c 58 31 c2 bc 0c c0 80 96 a1 d2 2f 74 16 40
       -3.5921672682757464 5.613463679420988
000510 96 2e 76 2c 20 e5 12 c0 56 f7 d0 9e a2 1c ed bf
       -4.723755545342689 -0.9097455121879914
000520 3f 23 7a 99 01 e8 13 c0 7c f8 12 3f 39 6d 07 40
       -4.976568601684277 2.9283318450607663
000530 f5 62 8c 07 b4 31 f5 bf 7b 8b 5d 4c 88 b9 11 c0
       -1.3246345801218784 -4.431183999261402
000540 ab ae 91 7c 85 08 4b a8 6f e2 4d ef b5 e4 09 c0
       -1.372178193622754e-114 -3.236675138058039
000550 bb ce c2 b0 f6 4c 05 c0 06 0d 8c 27 f9 0f 11 c0
       -2.6625798997355026 -4.265598886416461
000560 3e 96 96 2e 72 65 02 40 c7 78 34 28 12 61 16 40
       2.299534191103503 5.594795826151489
000570 5f a2 20 19 23 1a 03 40 94 17 50 51 8a a7 f8 bf
       2.3877622569164454 -1.5409033943446717
000580 fa 88 d2 94 74 9c 07 c0 9e bd b5 de aa 2d 15 c0
       -2.9513942362547114 -5.294597129671642
000590 c3 1d ff bd e9 69 fe bf dd b2 94 26 4b 8a 8c 3f
       -1.9008576795330192 0.013935649027723535
0005a0 af 18 1a 85 ae 65 d5 bf 5c db 21 c6 a4 16 f2 bf
       -0.3343311595748543 -1.130528234438052
0005b0 83 aa 9c 89 c0 69 fb bc 5c b7 bb 01 6c 6a 09 c0
       -6.086929658047467e-15 -3.176963819066186
0005c0 ee f1 34 17 51 61 10 c0 df 0a c2 e6 38 2d 17 40
       -4.09503589878703 5.794162374108708
0005d0 25 1b e4 7c db f4 08 c0 30 ff f5 a1 53 9b 02 c0
       -3.1195592648613393 -2.3258431103894495
0005e0 33 20 78 9d 2e 8e f2 bf d2 c8 f6 c0 3d 6e d2 bf
       -1.1597124243871917 -0.28797859043255614
0005f0 58 c3 e9 4d 43 d9 08 c0 ab 29 d9 22 f0 04 06 40
       -3.106085404106505 2.7524111483118836
000600 aa 6c 81 0f e7 17 13 c0 43 fb ce 28 e5 29 d7 3f
       -4.773342363619273 0.3619320772667615
000610 4d 89 25 88 f4 1b 22 c0 9f 61 5b 0c 94 02 10 c0
       -9.054600004751274 -4.00251788432834
000620 03 a0 18 18 19 7b 13 c0 f3 6f 2c 87 fe 41 08 c0
       -4.870212913992876 -3.0322237549244107
000630 dc 32 ff d9 62 ce 0e c0 bf c2 7a e4 ff 59 d8 bf
       -3.850774481869264 -0.38049313843206883
000640 91 f7 19 c7 b4 59 03 c0 b9 98 18 82 a9 75 0e c0
       -2.418801837425186 -3.8074522174602774
000650 2a 67 ef c8 ea 77 d6 3f c9 52 d5 08 ae 08 20 c0
       0.3510691606767177 -8.016952777901126
000660 94 b6 dd 91 4d 36 85 3f a0 32 93 f1 9a 0c c5 bf
       0.010357481016139126 -0.16444718166021222
000670 eb 21 9f 48 44 58 fe 3f a3 61 51 fc 49 b2 d9 bf
       1.8965494953900996 -0.401506897358127
000680 35 ef c1 c2 86 65 cf 3f 79 32 af 75 ba 2f 1b c0
       0.24528584012647917 -6.796609724825083
000690 91 fd f2 e2 70 3a fa bf 70 5f 48 49 00 82 0f c0
       -1.639267813225022 -3.9384771084987094
0006a0 d8 da d0 8d 09 9b ec bf a7 8b 0b 9a 5b 0e cc 3f
       -0.893925454124509 0.21918816587193854
0006b0 11 58 b7 68 d8 d0 13 c0 09 fa 45 01 12 ce c2 3f
       -4.953950535002165 0.14691376745391008
0006c0 45 07 82 29 88 e9 18 c0 43 e5 7c c7 97 5c e2 3f
       -6.228058479844383 0.5738028427360081
0006d0 bf 57 8d b2 34 9e f6 bf 9f 77 cc e7 65 bc f7 bf
       -1.413624474972934 -1.4834956221234064
0006e0 eb 1f 74 c6 d7 ea d4 3f a5 44 97 bc d8 02 15 c0
       0.32683367138133573 -5.252779909832644
0006f0 9b e0 ce b9 03 6f e0 3f 1d f5 46 3f 8a 8f bd 3f
       0.5135515812935582 0.1154714970097825
000700 fe 89 f1 11 c2 62 10 40 0d d0 36 8c 97 3d 02 c0
       4.096443443648694 -2.2800742105700977
000710 d6 21 75 01 9c ab ed 3f d0 d5 ff a0 17 fa f0 bf
       0.9271984127490736 -1.0610576905286173
000720 13 dc f5 f1 2d b3 10 40 41 e4 11 93 41 f6 06 c0
       4.174979954367717 -2.870242260917195
000730 7d d9 6b 54 01 a0 f3 bf 90 1e bd b4 d1 30 5b bf
       -1.2265637681681192 -0.001659588614488703
000740 18 69 e0 9d 72 da c8 bf 3c b0 13 3c 70 96 c7 bf
       -0.19416649540728126 -0.18427851613466995
000750 ae c8 63 57 2f 2c ec bf b3 e5 59 5b fb c6 13 c0
       -0.880393667872587 -4.94431822525205
000760 e0 3b 49 75 07 92 e0 bf a9 b6 c0 9d 48 fb 15 40
       -0.5178258219474365 5.495394196402835
000770 e5 c7 ba f1 f1 d1 03 40 c1 48 84 b8 7e 17 60 3a
       2.4775122532964695 1.6248542785607725e-27
000780 a4 b2 fa b5 18 17 10 40 05 14 7c 92 ef 16 f5 bf
       4.0225552019370845 -1.3180995676095801
000790 4e f4 89 b0 33 9d b9 bf de 06 a3 c4 08 82 f6 bf
       -0.10005496082335805 -1.4067466431737823
0007a0 59 35 f7 7b 54 6f 14 40 6e 60 42 1e 7b 7e f9 bf
       5.108720719302561 -1.5933791334155347
0007b0 aa f2 9a 68 b4 8f bc bf 75 5c 40 81 e3 cf 09 ba
       -0.11156776002730831 -4.072425823717415e-29
0007c0 b7 50 19 90 48 30 08 c0 3d c0 b5 33 4b 5a 03 c0
       -3.0235759027219404 -2.4190887489167197
0007d0 e1 9b 0a 70 af 2f fe bf b5 a1 a6 f5 74 a4 9f 3f
       -1.8866419197672644 0.030900790685025565
0007e0 39 37 df 87 82 ae f4 bf 8a 35 00 33 fd 0e 78 a1
       -1.2926049525735392 -1.8815319640142745e-147
0007f0 e0 4e f8 4a 47 a7 df bf eb 4d 39 45 4e 33 06 c0
       -0.49458486863407636 -2.775051632701197

bias_1 f8 [1, 32]
000000 6f ad b4 aa 1d f6 fc bf dc 33 4b 66 ab dd fd bf
       -1.8100868862337298 -1.8666185375070574
000010 89 f4 d3 b3 2e 48 bb 3f f2 0d 0c ee 41 d0 03 c0
       0.10657016649561703 -2.4766882512501462
000020 f6 c5 eb c0 98 39 b9 3f c0 83 47 5f aa cf b7 3f
       0.0985351058004865 0.09301247430950266
000030 71 eb 31 95 32 80 08 c0 f3 5a da c1 7f e7 f6 bf
       -3.062596479021004 -1.4315183231716986
000040 84 88 49 93 39 92 08 c0 42 05 2d 54 e0 92 07 c0
       -3.0713988787475177 -2.9467169357527903
000050 c8 de ca b7 7f b4 05 c0 f7 e1 16 ab 2e a7 b8 3f
       -2.7131342276369175 0.0963009994219489
000060 b1 5e 70 99 c7 5b 02 c0 67 6a 1a 3b 82 91 f9 bf
       -2.294814299337155 -1.5980245884626585
000070 95 33 87 52 20 ef 03 c0 f3 42 09 4e 1d 89 00 c0
       -2.4917608687887403 -2.066950425775184
000080 da 36 86 0e 75 d6 05 c0 03 6e 89 ca b5 46 03 c0
       -2.7297154555043166 -2.4095264266195513
000090 8e a5 c9 ac e7 6c 02 c0 13 e8 5b 62 ad cc 04 c0
       -2.3031762599027337 -2.5999400791452074
0000a0 40 c7 85 8a b6 d1 fe bf f4 6e 02 52 bf 05 06 c0
       -1.926199475387378 -2.7528063208572977
0000b0 28 48 50 4f a2 a1 01 c0 74 ab 49 af 8a 32 06 c0
       -2.2039228626608924 -2.774678582607004
0000c0 ec 2e c5 24 ee f8 00 c0 7b 10 b9 7b 09 67 03 c0
       -2.1215479729343 -2.425311056695191
0000d0 21 c7 9d 6a 32 db 04 c0 99 e5 4d 5a ab b9 ff bf
       -2.6070297555351236 -1.982829430342781
0000e0 86 f4 ad 7b 0d 8f 05 c0 be 2b 0b 49 b4 6d f8 bf
       -2.6948499357664017 -1.5267832616107024
0000f0 a9 50 80 d1 6a ce 0d c0 13 b9 27 5c c8 eb 04 c0
       -3.725789677360883 -2.6151282500860673

weight_2 f8 [32, 10]
000000 3b 28 f9 d0 c2 c4 13 40 3f 39 6b 50 ea a1 12 c0
       4.9421494152139145 -4.658120399994288
000010 f1 b8 e9 63 07 eb 11 c0 e0 7d d6 1d ad c6 f3 bf
       -4.479520379200253 -1.236004940561422
000020 35 6e 98 f3 7b b1 f2 bf 91 ff 80 9e 00 c2 07 c0
       -1.1683311000296162 -2.969727743446079
000030 08 b6 ac 84 69 aa 0d c0 61 13 15 7f 76 0d f8 bf
       -3.7082090726096375 -1.5032868351128956
000040 6c 22 a5 03 cb 05 10 c0 ab a0 72 36 c1 d5 13 40
       -4.005657250360496 4.958744860407175
000050 fa a0 50 19 8c 7d 18 c0 c8 6e bb 17 a9 73 13 c0
       -6.122604747339432 -4.862949724974619
000060 9e 1a 52 49 bf bc e7 bf 8b 02 d1 11 2a 5e 05 c0
       -0.7417904312176977 -2.670978678885438
000070 a7 75 04 ed 4e d5 ed bf 12 85 0e bf 04 b0 d7 bf
       -0.9322886113401879 -0.3701183191097509
000080 34 72 f1 85 f8 ef 15 40 1f cd 59 31 eb 43 08 c0
       5.484346478330327 -3.0331634383707207
000090 45 f1 79 8c d5 c3 ca bf 0c 6d 1f 75 99 73 0d c0
       -0.20910138472744158 -3.681445040723366
0000a0 5d 2b 58 c0 a4 51 f0 bf 88 03 df b2 ec c3 29 c0
       -1.0199325097516614 -12.882665242884983
0000b0 45 f0 6d 78 85 e0 19 c0 91 0f b9 c2 bd 66 12 c0
       -6.469259149274937 -4.600333254380431
0000c0 6a 13 d4 93 1f cc eb 3f 5f cc e4 c7 75 6d 18 c0
       0.868667401053796 -6.106894610728971
0000d0 cc 44 1e 52 d8 5b 21 c0 96 da bf 3d ce ed 03 c0
       -8.67938477153293 -2.4911160301374577
0000e0 39 32 fe 66 6d 0f 0d 40 9c f1 df 0d 30 dc 13 40
       3.63253288710828 4.9650270622190895
0000f0 83 cd b8 c5 7e 2e 20 c0 93 66 60 f1 3b 0a e6 bf
       -8.090810946282323 -0.6887492861162222
000100 8f 29 96 13 28 a1 2b c0 4b e9 65 0d 4a da f0 3f
       -13.814758884506572 1.0532932780611926
000110 fd 69 cb a5 61 c8 00 c0 dc c3 87 c2 8e ef 0e c0
       -2.0978424980833084 -3.866971511619779
000120 62 32 7f 3d 27 99 23 c0 5d 06 93 2a 7b 9b 1a 40
       -9.799127504136042 6.651837029670415
000130 b0 d0 3a e0 d9 e7 24 c0 2f f2 bd e3 04 55 0c 40
       -10.452834136180485 3.541513232454484
000140 13 98 8d 8e c3 11 12 40 17 a8 ac be 41 33 21 c0
       4.517347552673544 -8.600110968185659
000150 dd 3e 14 bf 24 bf 02 40 4f 42 e3 e6 6a 06 f3 bf
       2.3433318069508986 -1.1890667933513617
000160 01 90 a6 6e da 99 14 c0 08 f5 53 ad 31 5e e4 bf
       -5.150247315326852 -0.6364982972442315
000170 e5 18 29 3a 20 2f 13 c0 87 f3 84 c7 2b 0d 17 c0
       -4.796021374472024 -5.762862317552282
000180 fe 1e d0 7c 35 0b 12 40 08 38 9f 6c 9d 4f 22 c0
       4.510946226313306 -9.15549792712774
000190 c3 80 25 9a 28 27 00 c0 dd f5 c8 4c 76 97 1a c0
       -2.0191204111762047 -6.6479122159630295
0001a0 a2 03 63 ca 06 39 d1 3f 8b cc 92 e9 d4 58 09 c0
       0.2691056229050962 -3.1683748481678484
0001b0 38 6f 1d 36 b9 ba 0b c0 9d 7e 09 84 22 84 fe bf
       -3.4661735751850777 -1.9072594793032416
0001c0 29 0a ab 49 c6 75 0d 40 2d 95 c0 a6 db 41 22 c0
       3.6825071101495905 -9.12862893200744
0001d0 23 cd a6 8f 07 b1 19 40 a7 a8 bf 09 47 6b 20 c0
       6.4228804059560245 -8.209526352544641
0001e0 56 20 e5 f1 0b 8f f3 bf df 9a 09 d8 1c a8 13 c0
       -1.222423500921669 -4.914172530733338
0001f0 a1 f8 b5 75 ec bd 14 c0 fb 20 be ce 8c 58 15 40
       -5.1854723350826655 5.336474638323348
000200 3c 6c ca 88 0c 14 1b c0 65 91 7d 76 8f 90 fd 3f
       -6.769579064707667 1.8477930668387554
000210 4f 2f 77 09 f6 32 14 c0 f2 70 34 3b e1 e1 10 c0
       -5.049766681575263 -4.220585751605755
000220 b9 dc a8 7a 92 24 20 c0 ce 0b f1 6b 99 36 1f c0
       -8.071430047143041 -7.803319632136619
000230 1e b9 6c 86 76 c9 16 c0 22 ba d5 89 29 36 0b 40
       -5.696741199861462 3.401446415743764
000240 2e 36 d1 0d 16 b1 f0 bf 83 86 8f d2 f5 ef 11 c0
       -1.0432339229331649 -4.484336175928209
000250 a6 89 c1 a7 fb 2c 0b 40 9d 22 a8 56 56 19 03 c0
       3.3969643693864837 -2.387371708875732
000260 34 9a c4 b1 8b 77 f0 bf af 8e ae 0c bf 2b 13 c0
       -1.0291859573423041 -4.792720983652244
000270 70 a4 56 52 70 9d e7 3f 6c 1b 63 ae 2c 95 ff bf
       0.7379685981915269 -1.9739195644376322
000280 f3 1b dc 7d 1a ae 00 c0 1e d3 f7 24 3e 03 09 c0
       -2.085011466293048 -3.1265833747987832
000290 e6 95 06 99 d6 6b 0c c0 41 b5 3c fb 20 1f 1f 40
       -3.5526554064879177 7.780399251537632
0002a0 45 20 98 79 bc 27 0d c0 a2 e4 5a df b9 4b f6 bf
       -3.644402456240672 -1.3934878086859404
0002b0 60 7f d2 a0 20 98 02 c0 8a 60 20 8b be 56 13 c0
       -2.3242809833754308 -4.83471124062647
0002c0 b7 5f f6 32 1b 69 f3 bf 45 d3 36 fa 50 94 0b c0
       -1.2131607046812698 -3.4474200771313996
0002d0 66 72 7a ad 34 d7 f3 bf 0b 30 2a 2a c9 df 02 c0
       -1.2400404716965112 -2.359270409977403
0002e0 0a 98 eb 82 7e f4 03 c0 d6 f0 8a 82 10 3f 16 c0
       -2.494381926359897 -5.561586417894622
0002f0 96 c3 c8 4f 8a 3a 14 c0 54 02 5e 87 4b fc 17 40
       -5.057168242100394 5.9963818694237325
000300 dd 4b 0e 06 13 40 08 c0 62 f6 84 ab 33 ae 0a 40
       -3.0312862847435853 3.3350594901992716
000310 b6 e8 a0 1d 8c c9 fc bf 8d 74 ae 8b 37 9b 14 c0
       -1.79920589040425 -5.151579077265649
000320 24 ce 6e be 77 6f 17 c0 af c8 74 02 6e 80 0a 40
       -5.85885522414495 3.31270982664963
000330 49 96 f0 38 b6 6a 0b 40 fe 27 27 41 b4 db 0b 40
       3.42710537418569 3.482277401931241
000340 90 59 1f 2e 9b d8 1f c0 97 63 15 f4 1b 2f f8 bf
       -7.961529465354388 -1.511501267863627
000350 c3 04 7d a4 f9 ca 17 c0 46 be 0e 66 50 ce 1f c0
       -5.948217935686617 -7.951478571557862
000360 8f d5 40 9e 2c e7 16 c0 c0 67 8e f7 af b5 22 c0
       -5.725756142337004 -9.354858146794754
000370 8b e0 75 11 f1 23 20 c0 29 6c bf 35 a0 40 18 40
       -8.070198579444215 6.063111152466299
000380 2b 64 97 35 6d 46 07 c0 2d 66 94 0a 3c 49 10 c0
       -2.9093879877878144 -4.071518101985515
000390 0d 7f f4 97 a5 33 10 c0 a9 d2 86 da 8f 5e 02 c0
       -4.050436376855726 -2.296172816504925
0003a0 01 59 26 e5 56 12 12 c0 c5 98 12 1b f1 87 0b c0
       -4.517909603562885 -3.4413778414774208
0003b0 e1 76 70 d7 e3 10 19 40 16 98 15 8a cc 8e 20 c0
       6.2664941465752415 -8.278904261718747
0003c0 30 bd 0e 2b ad 63 11 c0 6a 55 51 a6 43 29 1c 40
       -4.347340271734808 7.0402971255437965
0003d0 f3 85 09 f3 2f 06 fe bf 44 f5 9d a3 c6 fd 0d c0
       -1.876510571826995 -3.748914030321119
0003e0 bf 48 54 67 2d 06 fd bf a3 74 19 71 e5 2c f1 bf
       -1.814008144025635 -1.0734610002466887
0003f0 d9 a5 6b b8 53 43 04 40 0e 87 20 48 6d 5b 16 c0
       2.532874527726318 -5.589284064278912
000400 8e a4 4f 29 0d 16 0e c0 29 46 95 11 4c 03 09 c0
       -3.7607672908239413 -3.126609933250411
000410 2c 58 96 50 98 aa 13 40 dc 13 2e c9 ad 07 04 40
       4.916596659828468 2.5037494389712105
000420 71 81 7f b7 0f 0c 1a c0 39 3f f0 dd bd 91 f6 bf
       -6.511778704793287 -1.4105814618560102
000430 41 3a 8d 22 e4 11 03 c0 6a 61 4d 23 94 7a fa bf
       -2.3837359141682843 -1.6549264315600234
000440 c6 54 6d 62 56 6e 13 40 6d ae 10 63 d4 9b 0d c0
       4.857751405642551 -3.7010886897531265
000450 a5 69 5d 94 01 74 0f c0 72 50 99 30 a7 ee 08 c0
       -3.931643637753228 -3.11652982681158
000460 f0 8c 6e 60 a5 cd 07 40 49 22 5f fd 80 82 1f c0
       2.9754130872475955 -7.877445181781305
000470 6e 66 ec 52 84 8d 09 40 e8 7f fb 45 6e 0d 23 c0
       3.194100044097289 -9.526231944037093
000480 f8 18 7d 5d ef cf 09 40 72 d4 a3 7a a9 2e 0f c0
       3.226530771618055 -3.8977841931578547
000490 22 91 d8 0e 10 ac 08 40 a8 70 3e 48 68 ff 21 c0
       3.0840150031891804 -8.998842485067442
0004a0 87 0e 2f 9b 7e 56 1e c0 e7 4c ff b5 0b a3 1e c0
       -7.584467339274517 -7.659224361140537
0004b0 b5 a4 e4 e1 06 b0 ed bf 4a bb 85 84 00 e5 08 c0
       -0.9277376567817074 -3.1118173936187405
0004c0 e2 55 ba d2 f1 c5 03 c0 06 06 84 e5 65 eb f8 bf
       -2.4716526473155094 -1.5574702229936306
0004d0 77 69 07 07 69 9e 17 40 e7 41 bd 67 5f 58 01 c0
       5.9046975229524525 -2.168150721038035
0004e0 18 f5 a4 46 b0 39 e7 bf fc 0d 3e 48 0f 4f f4 bf
       -0.7257920627377272 -1.2693016836136612
0004f0 0f 95 c4 7b 00 74 ee bf 71 e4 86 02 41 c9 0b c0
       -0.9516603867856775 -3.473268527738178
000500 74 84 11 1c a2 7d 0d 40 e3 93 2c 63 18 3f 13 c0
       3.6863443558545956 -4.811616468044096
000510 91 03 cb 2d 87 ad 0b 40 7a cc c0 cd 87 f2 17 c0
       3.4597304895000396 -5.986846175091268
000520 af da 8a 61 c0 e5 13 c0 d8 9a 51 c3 43 9e f9 bf
       -4.974366687870016 -1.6011388425483144
000530 6a 2f ed e6 2f a0 12 c0 53 cb 74 a4 9a 56 08 40
       -4.656432731844555 3.0422871444838306
000540 d9 80 bc 99 3e 5b 10 c0 14 a2 af 80 e0 a2 10 c0
       -4.089105989580468 -4.159059534759326
000550 57 c7 7c 9a 97 c0 12 c0 78 10 fa 47 8d 2a c1 3f
       -4.688078321329008 0.13411108030789243
000560 4f 97 44 1f 31 9c 15 c0 4d 15 03 35 cc ef 0a c0
       -5.402531136094537 -3.3670887128415985
000570 d7 0b 6b f3 ee 21 0d c0 78 06 c0 1c 7e dc 0a 40
       -3.6415690438311503 3.357662415132662
000580 33 8d a8 43 1e 93 d1 bf 13 66 f4 f3 14 b3 0d c0
       -0.27460438353792255 -3.7124423083266804
000590 df 4a 0d ee c9 1c f2 3f 9f b7 3b 69 5a ae ef 3f
       1.1320285128501195 0.9900333457314793
0005a0 1c e5 88 73 14 4a 0f c0 08 9b f2 32 d0 e9 1a 40
       -3.9111718202735926 6.728333278710814
0005b0 51 93 17 47 25 e0 09 c0 18 3f ed c1 b4 7d 15 c0
       -3.2344461015767725 -5.372759847741484
0005c0 87 4b 16 87 5e 5f 15 c0 e7 b4 9e 90 b2 12 fc bf
       -5.343134031997471 -1.754564824029609
0005d0 d9 f5 16 3b 49 4d 08 c0 b4 86 6f dd 0c 2e 14 40
       -3.0377373329526844 5.04497095101549
0005e0 ab 83 27 70 c7 8f 0d c0 0b b9 a6 b4 09 13 17 c0
       -3.695204616742975 -5.768591711688951
0005f0 ad 62 27 bd 42 e8 0d c0 de 83 8d 50 71 51 1e c0
       -3.738408544315766 -7.5795338236211744
000600 a9 b0 02 45 09 2f 1a c0 2d 1b 3c ae f0 7a 11 c0
       -6.545933798112096 -4.370058748644436
000610 ac e8 45 37 44 d3 1a c0 d4 97 6c 62 33 6a 08 c0
       -6.70631491054716 -3.0518558205976465
000620 e7 d4 7f 3b 61 21 17 c0 4b 0e 45 a5 2e ab 23 40
       -5.782597474744057 9.834340252570788
000630 6f ab 1e d2 65 eb 10 c0 56 01 7c f3 1d ce fe 3f
       -4.229880602952888 1.9253215323552317
000640 78 7d f8 a9 4a 19 19 40 bc b2 9b ac 42 24 16 c0
       6.274698882857926 -5.5354105920820835
000650 80 44 2e 81 ca db 1e c0 9a 5a 5d 09 1b 0b 01 c0
       -7.714639681290578 -2.1304226619352677
000660 bd 1d d7 fb 28 14 10 c0 82 4a f4 0c 4f d2 d3 bf
       -4.0196875906034935 -0.30971122994484557
000670 1b dc b6 74 f6 89 e5 bf 1a 81 bd bd ac 43 0c 40
       -0.6730911521507353 3.5330443213898777
000680 45 ca 7c 57 e5 c8 0d c0 cd c1 da 20 bb 4c ef bf
       -3.7230936846692964 -0.9781165734948957
000690 7f a0 75 a6 28 59 29 c0 9f 8f d4 30 77 27 2c c0
       -12.674138261660344 -14.077081228206053
0006a0 51 d7 18 3f 9a bb 15 40 96 17 00 cd fe 94 14 40
       5.433205591098003 5.145503237848876
0006b0 cc ee 42 a2 db f2 25 c0 70 59 66 11 5b ea 22 c0
       -10.974331923170574 -9.457726043456859
0006c0 67 9f 72 92 ed 2c 2c c0 68 0c c7 b6 07 0b 16 40
       -14.08775003098681 5.510771613978342
0006d0 43 3a 90 e8 08 01 28 c0 b0 c5 38 81 e7 cf 33 c0
       -12.002021091085345 -19.812126232490925
0006e0 01 5f 37 40 49 c4 0b c0 59 38 4a 0f cb 55 13 c0
       -3.470842839898865 -4.833782423882519
0006f0 22 8e 67 b1 a7 e6 17 c0 79 b0 7c c5 10 a1 1b 40
       -5.975249072976597 6.90729054044288
000700 85 b7 62 d2 25 b9 f8 bf b8 f7 05 91 67 83 f4 bf
       -1.5452020853221893 -1.2820811905835239
000710 a3 4d 15 fc 6e 0c 12 c0 05 73 cc 57 34 24 12 c0
       -4.512142123031853 -4.535355922559352
000720 8a 57 4d c9 7d 2d cd 3f f4 73 37 25 72 5e f1 3f
       0.22795078591542178 1.0855580762647579
000730 c8 8e 7c dd 92 97 07 c0 ad 3b 46 36 4d b1 15 c0
       -2.94901059185381 -5.423146102940263
000740 34 7d c3 98 7a a2 e7 bf c8 70 e7 8b 1e 89 12 c0
       -0.7385838493027337 -4.633905588150988
000750 ce 06 cf 1a 07 43 16 40 62 e3 ec 11 1a 35 14 c0
       5.565456789861583 -5.051857261737355
000760 c9 43 a8 4a 85 51 d2 bf 7a 31 54 0e 08 d8 fc 3f
       -0.28622562685728475 1.8027420577737687
000770 f9 63 60 19 ba dc 0f c0 1e 7d a0 9c 15 db 1a c0
       -3.9827768309155513 -6.7139496300653985
000780 09 1a 4f 22 2e 46 06 c0 a9 d1 62 0d c2 09 20 c0
       -2.784267681159012 -8.019058626473297
000790 35 c5 5e 8e 16 ba 15 c0 86 22 94 55 d2 f8 01 40
       -5.431726669821093 2.246494930823533
0007a0 57 45 61 e9 bf 61 1d c0 c3 47 e8 43 3b 2d 0e 40
       -7.345458647310202 3.772085695768483
0007b0 0d 31 f4 0f 9d 35 06 c0 b5 6a 83 c4 c5 48 13 c0
       -2.7761784788509716 -4.821066923638388
0007c0 cb d6 51 2c ca ee c7 3f ef 55 c6 7a 88 3c 25 c0
       0.18697478450820024 -10.618228756628893
0007d0 e6 a3 01 55 9a 29 18 c0 5b 81 2c 3a c6 b9 02 c0
       -6.040627792573082 -2.340710119708246
0007e0 c0 e7 8b 41 75 5a e1 3f ec 04 00 bd 10 a8 05 c0
       0.5422922401623893 -2.7070631757384174
0007f0 10 79 eb f3 bc 80 fc 3f 03 7e 20 14 b6 37 ff bf
       1.7814301994436086 -1.9511013780792161

bias_2 f8 [1, 10]
000000 2a 61 4a 32 8b d7 e9 bf 05 f8 9e b4 46 b2 d1 bf
       -0.8075614912259301 -0.27650611532942576
000010 ff 28 5a fa e0 4e d3 bf 1e f0 df 45 04 4b da 3f
       -0.3016893811078631 0.4108286554690056
000020 ad 72 d7 1f 4d 20 c7 bf e1 93 32 f2 87 bd c1 bf
       -0.18067325644269286 -0.1385965283017461
000030 e2 26 c4 ea d1 8b db bf 1a 27 09 c6 b3 31 bb bf
       -0.4304089348448611 -0.10622714600426911
000040 85 4b 58 b6 2f 14 dd 3f b2 95 39 98 a5 3f e6 3f
       0.4543570786201417 0.6952693913596504

loss_history f4 [140]
000000 08 00 23 3f cc 0b 9d 3e a6 ae 7e 3e 92 57 60 3e
       0.6367192 0.30673063 0.2487131 0.21908405
000010 4f a6 4d 3e 16 c9 41 3e a1 0b 35 3e 25 71 30 3e
       0.20082973 0.18924364 0.17680217 0.17230661
000020 d4 f6 28 3e 60 b4 25 3e af 0f 26 3e 18 76 1e 3e
       0.16500407 0.16182089 0.1621692 0.15474737
000030 a9 8f 20 3e 89 cc 16 3e 38 d6 19 3e a3 87 20 3e
       0.15679802 0.14726461 0.15023124 0.15676741
000040 0e fc 19 3e b2 40 1b 3e 81 18 16 3e 31 ba 13 3e
       0.15037557 0.15161398 0.14657785 0.14426495
000050 67 ed 18 3e 31 a7 17 3e 1e 79 1b 3e 31 e3 1a 3e
       0.14934312 0.14809872 0.15182921 0.15125729
000060 ea b8 14 3e 7a e0 15 3e a5 d1 0e 3e 33 2d 19 3e
       0.14523664 0.14636412 0.1394716 0.14958648
000070 16 20 16 3e 2e 81 16 3e d1 4f 1c 3e ec 0c 1a 3e
       0.14660677 0.14697716 0.15264823 0.15043992
000080 f9 83 19 3e 21 6a 25 3e fd af 1e 3e 40 dd 29 3e
       0.1499175 0.16153766 0.15496822 0.16588306
000090 97 a0 21 3e a0 84 24 3e 09 8b 1e 3e 36 8b 25 3e
       0.15783916 0.16066217 0.15482725 0.16166386
0000a0 a9 56 23 3e eb 31 2d 3e e3 c4 27 3e 7f 83 26 3e
       0.15951027 0.16913573 0.163837 0.162611
0000b0 41 55 2e 3e f6 c5 2c 3e 1e 2e 26 3e 71 2d 33 3e
       0.1702471 0.16872391 0.1622853 0.17497803
0000c0 be c8 36 3e c8 7f 31 3e b9 dc 33 3e ef 07 2d 3e
       0.17850015 0.17333901 0.17564668 0.16897558
0000d0 46 16 35 3e cb 57 36 3e 7c 41 31 3e 4b 6d 41 3e
       0.17684278 0.17806928 0.17310137 0.18889348
0000e0 bf 02 3d 3e 2f 91 33 3e 88 83 39 3e e1 47 3d 3e
       0.18458079 0.17535852 0.18116581 0.18484451
0000f0 66 71 33 3e ca cb 3f 3e 18 9e 3c 3e 74 53 4c 3e
       0.17523727 0.18730083 0.18419683 0.1995371
000100 6a 1a 40 3e 9a d8 3d 3e 68 fe 43 3e 88 d8 4e 3e
       0.18760076 0.18539658 0.19140017 0.20199788
000110 18 a2 42 3e 0a 2f 4e 3e be 8c 3e 3e 02 65 4e 3e
       0.19007146 0.20135131 0.18608376 0.20155719
000120 dc a0 55 3e a2 74 4a 3e de 59 53 3e 57 b4 4e 3e
       0.20862144 0.19771054 0.2063975 0.20185982
000130 db a0 58 3e 97 a1 4e 3e 15 40 55 3e 15 77 61 3e
       0.21155111 0.20178829 0.20825227 0.22018082
000140 55 5e 5a 3e 21 ea 63 3e ff 6e 53 3e 7e 9e 5e 3e
       0.21325047 0.22257282 0.2064781 0.21740147
000150 74 0e 60 3e 86 b7 69 3e 09 bd 69 3e d1 48 69 3e
       0.21880513 0.22823915 0.22826017 0.22781684
000160 d5 c1 61 3e 2f 03 6d 3e d3 26 69 3e 73 2f 6d 3e
       0.22046597 0.23145746 0.22768717 0.23162632
000170 9d 49 62 3e 2e 58 70 3e 87 96 6b 3e f3 e7 72 3e
       0.22098394 0.23471138 0.2300664 0.23721294
000180 3a 10 5f 3e b6 06 78 3e 48 cd 71 3e a7 86 77 3e
       0.21783534 0.2422131 0.23613465 0.2417246
000190 b5 eb 7a 3e da 48 6c 3e f7 b7 77 3e e8 30 7d 3e
       0.24503978 0.23074666 0.24191271 0.24725688
0001a0 b6 b8 77 3e be 55 80 3e 95 85 80 3e 00 e8 77 3e
       0.24191555 0.25065416 0.25101915 0.24209595
0001b0 48 1f 7b 3e 27 b2 82 3e 66 7d 80 3e 60 5d 7b 3e
       0.24523652 0.25526544 0.2509567 0.24547338
0001c0 13 7f 83 3e 88 0c 8d 3e 55 2d 8e 3e 97 c7 89 3e
       0.25682887 0.27548623 0.2776896 0.26910087
0001d0 0b 49 8c 3e 18 76 8f 3e 9b 3f 88 3e 22 d8 88 3e
       0.27399477 0.28019786 0.26611027 0.26727396
0001e0 87 13 86 3e 47 bf 85 3e 30 1e 85 3e 67 cb 90 3e
       0.26186773 0.26122496 0.25999594 0.28280184
0001f0 d7 95 8f 3e a7 0d 8b 3e 2e 63 95 3e 07 77 84 3e
       0.28044006 0.27158853 0.2917723 0.2587206
000200 a8 9d 89 3e 9e f5 91 3e 00 a6 89 3e 10 ea 95 3e
       0.26878095 0.28507704 0.2688446 0.29280138
000210 1e cb 98 3e db f2 93 3e 6d 5c 8e 3e 0a bd 98 3e
       0.29842466 0.28896222 0.2780489 0.29831725
000220 ea 7e 9b 3e 6e a8 96 3e 4b 89 9c 3e ba 11 95 3e
       0.30370265 0.29425377 0.30573496 0.29115087
