checkpoints/model_epoch_0135.npz (npz, 384952 bytes, 10 tensors)

weight_0 f8 [784, 64]
00000000: 4b12 e521 0000 0000 7f7a 510e 0000 0000
00000010: 53cc fd0d 0000 0000 4eb4 301a 0000 0000
00000020: 3d4c 6e04 0000 0000 1108 d11d 0000 0080
00000030: c0ab ec0b 0000 0080 b5a1 761f 0000 0080
00000040: e1a6 b903 0000 0000 d8a0 b121 0000 0080
00000050: 734b f221 0000 0000 1f60 f002 0000 0080
00000060: 8d1a 0920 0000 0000 ed4b f404 0000 0000
00000070: 0cb9 1a21 0000 0080 3dc3 9208 0000 0080
00000080: d089 ce17 0000 0000 9f28 670e 0000 0080
00000090: 2127 1913 0000 0000 8bf0 9602 0000 0000
000000a0: 68d6 3a12 0000 0000 113b 4d14 0000 0080
000000b0: 712a 2714 0000 0000 9774 cf11 0000 0000
000000c0: 2194 7204 0000 0000 c148 9217 0000 0000
000000d0: 0986 800f 0000 0080 1f7e 9c06 0000 0080
000000e0: 2f7e 0a00 0000 0000 8035 ac02 0000 0000
000000f0: 19d8 c121 0000 0000 5fc6 950a 0000 0000
00000100: 226b 8b03 0000 0080 d6cb e208 0000 0000
00000110: aa54 1103 0000 0000 8eff cb1c 0000 0080
00000120: f533 4207 0000 0000 275b a30d 0000 0080
00000130: fdfe 9718 0000 0080 73d7 d321 0000 0000
00000140: 618b ea0d 0000 0080 79ec 041b 0000 0080
00000150: 70ee c10c 0000 0080 30c8 570d 0000 0000
00000160: 687b 821e 0000 0000 456c f30e 0000 0080
00000170: a32a 901e 0000 0000 5d66 6315 0000 0000
00000180: fa22 840b 0000 0080 11ac 0915 0000 0000
00000190: d2af e31f 0000 0080 7f41 8e0a 0000 0080
000001a0: ef69 e421 0000 0080 b6d9 8b03 0000 0080
000001b0: d591 4501 0000 0000 b807 5c0e 0000 0080
000001c0: 8297 980a 0000 0080 51b1 1114 0000 0000
000001d0: 2598 da22 0000 0000 f823 8323 0000 0080
000001e0: 9f02 7c01 0000 0080 1078 ad18 0000 0080
000001f0: 58bc 1802 0000 0000 f717 260d 0000 0080
00000200: a417 a708 0000 0080 6eeb 1411 0000 0000
00000210: 0cdd 2b12 0000 0080 16f1 ae08 0000 0080
00000220: cbe4 521b 0000 0080 342b 881f 0000 0080
00000230: a0a2 3403 0000 0080 209c 830a 0000 0000
00000240: f671 880b 0000 0000 b937 901a 0000 0080
00000250: 37b1 381c 0000 0000 d45e 4621 0000 0080
00000260: 26e7 0a23 0000 0080 22a7 2b16 0000 0000
00000270: 53ff 3b01 0000 0080 af93 ee1e 0000 0000
00000280: b735 fc05 0000 0000 536a 8516 0000 0000
00000290: d7db 0410 0000 0080 e7d5 1822 0000 0000
000002a0: 2e1e bd1e 0000 0080 45da 8101 0000 0080
000002b0: 4fc0 e815 0000 0080 4292 6506 0000 0080
000002c0: e702 780d 0000 0000 43fd c60e 0000 0000
000002d0: d893 a810 0000 0080 d035 5502 0000 0080
000002e0: 0b15 3708 0000 0000 26df 9614 0000 0080
000002f0: 698f b11b 0000 0000 934a 121f 0000 0000
00000300: 9938 5a21 0000 0080 60c3 6a02 0000 0000
00000310: b9cc 1221 0000 0080 41a9 f514 0000 0080
00000320: 9695 6208 0000 0080 48e3 a30a 0000 0080
00000330: e44d 9f15 0000 0000 b273 290b 0000 0080
00000340: 489f e400 0000 0080 47d1 861d 0000 0000
00000350: d5d0 361e 0000 0080 1926 1c15 0000 0000
00000360: 2033 611f 0000 0080 66af 2115 0000 0000
00000370: 339b 8b12 0000 0000 7281 1211 0000 0000
00000380: 618a ce16 0000 0080 d790 2b16 0000 0000
00000390: b527 0322 0000 0080 56b2 6c01 0000 0080
000003a0: e1bb 961e 0000 0080 064c 2b24 0000 0000
000003b0: f201 9221 0000 0000 f388 a41e 0000 0000
000003c0: 7ca5 0d04 0000 0000 e630 c11f 0000 0080
000003d0: 4551 8f0f 0000 0000 a2e5 6617 0000 0000
000003e0: 658b fd1a 0000 0000 ef9a c920 0000 0080
000003f0: 862d 8712 0000 0000 5957 8d14 0000 0080
00000400: 688c ff10 0000 0000 212c 5904 0000 0080
00000410: 0244 e10e 0000 0000 6d16 fe06 0000 0000
00000420: d793 ed01 0000 0000 df8a d008 0000 0080
00000430: f088 a721 0000 0000 ef93 c81d 0000 0080
00000440: 5f74 7d09 0000 0080 bb8e 570a 0000 0000
00000450: 2160 8201 0000 0080 2c32 0402 0000 0080
00000460: c246 890a 0000 0080 9ff3 c909 0000 0000
00000470: 90cb 3405 0000 0080 0c59 0014 0000 0000
00000480: 197f 3721 0000 0000 2e88 b21e 0000 0080
00000490: 0afb 1e1b 0000 0000 77ab 411d 0000 0000
000004a0: 33a6 ca0d 0000 0080 6601 c700 0000 0000
000004b0: 5d53 0d1e 0000 0080 1f13 940d 0000 0000
000004c0: 7902 a00b 0000 0000 bb2a 7513 0000 0080
000004d0: a5d2 1d21 0000 0000 470a 300b 0000 0000
000004e0: 49ae c411 0000 0080 94a4 9006 0000 0080
000004f0: 15a4 2f04 0000 0000 8073 b512 0000 0080
00000500: 2f72 dd01 0000 0080 1511 ac0f 0000 0080
00000510: edb4 4220 0000 0080 a672 7f1d 0000 0080
00000520: 7684 6319 0000 0000 1cad 4914 0000 0080
00000530: a001 6702 0000 0000 593c b810 0000 0080
00000540: 749c 7c14 0000 0000 bb84 d31e 0000 0000
00000550: 58a8 660d 0000 0000 73ef c702 0000 0080
00000560: d853 8f22 0000 0080 d8d3 8114 0000 0080
00000570: bdbd 9d06 0000 0000 5d87 2c07 0000 0000
00000580: 570b ef0d 0000 0080 68ce 5a0e 0000 0080
00000590: 33f2 fc0b 0000 0080 432c 6608 0000 0080
000005a0: 504e 871e 0000 0080 7f56 291c 0000 0080
000005b0: 66ff 640d 0000 0080 52c5 7804 0000 0080
000005c0: 5172 0a00 0000 0000 aa46 f211 0000 0080
000005d0: b14c b00f 0000 0080 3d05 4a00 0000 0080
000005e0: c4ef 6f20 0000 0080 9017 4e04 0000 0000
000005f0: f719 1609 0000 0000 d714 9202 0000 0000
00000600: ffb1 f622 0000 0080 efcd 4719 0000 0080
00000610: 1d5c de0f 0000 0080 d998 ab1f 0000 0080
00000620: eabb 0c02 0000 0080 a6c5 4618 0000 0080
00000630: 5fc8 8b1b 0000 0080 3d9f 8e15 0000 0080
00000640: 1f51 0708 0000 0000 c29b 3e0c 0000 0080
00000650: c01e 9600 0000 0080 d821 511a 0000 0000
00000660: dac9 2b1f 0000 0000 aa72 4405 0000 0000
00000670: 83db 690f 0000 0080 f1cb 5515 0000 0000
00000680: 56ce f515 0000 0000 01fa c117 0000 0080
00000690: c097 a118 0000 0080 8e06 f522 0000 0000
000006a0: 8020 5e1a 0000 0000 415a 1614 0000 0080
000006b0: c119 8b1a 0000 0080 7a6e dc1c 0000 0000
000006c0: e117 e111 0000 0080 3e72 570e 0000 0000
000006d0: 48bb 521d 0000 0000 7fc1 fe01 0000 0000
000006e0: de47 0d22 0000 0000 75fb 791c 0000 0000
000006f0: 3a4b c800 0000 0080 dfa0 a00d 0000 0080
00000700: a1a4 ae1c 0000 0000 8108 1f0c 0000 0080
00000710: b9b5 4604 0000 0080 5250 d805 0000 0000
00000720: 191c f300 0000 0080 eca7 4f19 0000 0000
00000730: 2dc5 2221 0000 0080 31f8 ef08 0000 0080
00000740: f0e5 3101 0000 0080 3a4f 6a04 0000 0000
00000750: fae6 a911 0000 0000 54de ca1e 0000 0000
00000760: e799 ee1c 0000 0080 3ec7 0012 0000 0080
00000770: 5252 0607 0000 0000 19c3 ef0a 0000 0080
00000780: fa1a 6b02 0000 0000 7295 9e22 0000 0000
00000790: a719 ed10 0000 0000 61f6 511a 0000 0080
000007a0: e74f 7a18 0000 0000 1ae9 380e 0000 0000
000007b0: eded 7b1d 0000 0000 907b 2307 0000 0000
000007c0: ee95 8d0f 0000 0000 281c e10d 0000 0080
000007d0: 3c2e 8315 0000 0000 df2e db18 0000 0080
000007e0: ce95 f90e 0000 0080 6ea0 6a03 0000 0000
000007f0: c0d1 061e 0000 0000 4ae7 c90c 0000 0000
2.809556444e-315 1.18684844e-315 1.159753507e-315 2.170921987e-315 3.67275264e-316 -2.47150585e-315 -9.8842694e-316 -2.60801613e-315
3.0878376e-316 -2.79289962e-315 2.813838017e-315 -2.43612303e-316 2.65544244e-315 4.10662844e-316 -2.74403781e-315 -7.1064409e-316
1.973355817e-315 -1.193868285e-315 1.583063013e-315 2.1465379e-316 1.511079343e-315 -1.682815816e-315 1.670490736e-315 1.47631e-315
3.68661355e-316 1.95384608e-315 -1.28497167e-315 -5.48013657e-316 3.397507e-318 2.21540617e-316 2.79815016e-315 8.77400346e-316
-2.93813814e-316 7.36558233e-316 2.5428291e-316 -2.38698567e-315 6.01669137e-316 -1.13046919e-315 -2.038585985e-315 2.803977573e-315
-1.153519337e-315 -2.23963669e-315 -1.05747874e-315 1.10599899e-315 2.528962715e-315 -1.23928457e-315 2.53339363e-315 1.772884437e-315
-9.545797e-316 1.74383142e-315 -2.643327183e-315 -8.7496575e-316 -2.8093435e-315 -2.93953674e-316 1.0541648e-316 -1.19026497e-315
-8.78312445e-316 1.66353793e-315 2.8890545e-315 -2.943628217e-315 -1.23043843e-316 -2.04553873e-315 1.7379012e-316 -1.08991035e-315
-7.1722666e-316 1.41591142e-315 -1.50623088e-315 -7.1976822e-316 -2.264882666e-315 -2.61369448e-315 -2.65714196e-316 8.71518677e-316
9.5597476e-316 -2.20184834e-315 2.339289327e-315 -2.7581705e-315 -2.904696387e-315 1.83772453e-315 -1.0231706e-316 2.563962834e-315
4.9611554e-316 1.866788797e-315 -1.32782059e-315 2.826317186e-315 -2.54794846e-315 -1.2493555e-316 -1.816062386e-315 -5.3023063e-316
1.11643456e-315 1.224897366e-315 -1.38083123e-315 -1.93371207e-316 6.80958797e-316 -1.70666008e-315 2.295534805e-315 2.575526836e-315
-2.76459796e-315 2.00349864e-316 -2.74147237e-315 -1.737352047e-315 -6.95044387e-316 -8.81969983e-316 1.792280936e-315 -9.25216824e-316
-7.4025777e-317 2.44747603e-315 -2.504462657e-315 1.749814003e-315 -2.601076655e-315 1.751606616e-315 1.537231518e-315 1.41512979e-315
-1.890466073e-315 1.837696335e-315 -2.819297254e-315 -1.18085434e-316 -2.53552008e-315 2.998075743e-315 2.782661126e-315 2.539988733e-315
3.3598043e-316 -2.63215776e-315 1.28976179e-315 1.939797703e-315 2.23724737e-315 -2.717772663e-315 1.535797635e-315 -1.7035742e-315
1.408991626e-315 -3.60435044e-316 1.23340541e-315 5.79614007e-316 1.59815884e-316 -7.3064783e-316 2.789631473e-315 -2.468768637e-315
-7.8663519e-316 8.57254937e-316 -1.25104857e-316 -1.6713954e-316 -8.7335345e-316 8.1140424e-316 -4.31546895e-316 1.65792184e-315
2.75335445e-315 -2.54452083e-315 2.24807368e-315 2.425086633e-315 -1.14319195e-315 6.443615e-317 -2.491028537e-315 1.12552122e-315
9.6360473e-316 -1.61285633e-315 2.74504156e-315 9.27350027e-316 -1.472821276e-315 -5.44176807e-316 3.46987545e-316 -1.55078052e-315
-1.5459266e-316 -1.29907054e-315 -2.67409377e-315 -2.445089805e-315 2.10448435e-315 -1.681664895e-315 1.99133435e-316 -1.385901216e-315
1.69815716e-315 2.55520157e-315 1.11081558e-315 -2.3051816e-316 -2.8646838e-315 -1.699846175e-315 5.4841791e-316 5.9465123e-316
-1.154976346e-315 -1.18986869e-315 -9.936967e-316 -6.96206335e-316 -2.530524634e-315 -2.334317723e-315 -1.110278104e-315 -3.7066632e-316
3.382497e-318 -1.487584595e-315 -1.3004411e-315 -2.396715e-317 -2.68873878e-315 3.5684733e-316 7.53170385e-316 2.13080745e-316
-2.898153343e-315 -2.09551113e-315 -1.315354986e-315 -2.62516584e-315 -1.69904087e-316 -2.0122864e-315 -2.283302797e-315 -1.78687938e-315
6.65492823e-316 -1.014957564e-315 -4.860752e-317 2.18142184e-315 2.58378259e-315 4.3661511e-316 -1.27763259e-315 1.76847984e-315
1.82028941e-315 -1.969288437e-315 -2.041693317e-315 2.89761271e-315 2.18562942e-315 -1.665046765e-315 -2.20019148e-315 2.39230662e-315
-1.482020976e-315 1.18878075e-315 2.43061108e-315 1.65378075e-316 2.82257584e-315 2.360429636e-315 -6.485332e-317 -1.129585997e-315
2.37748073e-315 -1.0047338e-315 -3.54457047e-316 4.8449272e-316 -7.8716718e-317 2.09805338e-315 -2.74664348e-315 -7.40823615e-316
-9.904704e-317 3.6598388e-316 1.464150627e-315 2.552400774e-315 -2.39818978e-315 -1.492280294e-315 5.8228009e-316 -9.06537383e-316
2.00460664e-316 2.869623636e-315 1.40301825e-315 -2.181690657e-315 2.0289746e-315 1.178893565e-315 2.443950563e-315 5.91722187e-316
1.289201053e-315 -1.150464544e-315 1.783174753e-315 -2.060340536e-315 -1.241279847e-315 2.83196126e-316 2.488921856e-315 1.060060026e-315

bias_0 f8 [1, 64]
00000000: 6ea0 8951 8e82 c2bf 4abd 400e 8168 dbbf
00000010: e9dc 6dda f510 9ebf 47f0 d6a2 2d12 a0bf
00000020: 6152 2e99 dcab d1bf c2f5 0b1e 9dfd e7bf
00000030: beef d1ac 7738 a9bf 10e8 7efe 2cf0 e3bf
00000040: 144b e2b0 01cf e0bf 9a0d 544b 4450 6b3f
00000050: 052b 100d f4aa d63f 81d5 7569 d7c0 ccbf
00000060: fe52 06f5 b5da e5bf 9342 45b2 f035 c7bf
00000070: 012d f0de ff88 e5bf 4e45 37d4 2684 e7bf
00000080: 56ab 94aa efff d03f bad1 eadb 19ee dfbf
00000090: efed e610 0d15 d9bf 3b6f 28fe 56e2 7fbf
000000a0: 2ad3 7bbd 654c dcbf 5a28 c24e a876 dc3f
000000b0: c7f5 085f e32c cfbf 8e0a 304f d7bd e3bf
000000c0: 66b7 b746 2278 d93f 10c3 a710 299e b6bf
000000d0: 933a 8839 664d c0bf fbbf 19ff 461d d53f
000000e0: b5c9 8f0a f067 dc3f 1892 1a24 cdba c5bf
000000f0: 9a31 f120 8a10 a03f 1a07 c393 484a d1bf
00000100: 0bdc f4f9 bf35 e3bf 420e c0b8 a804 a23f
00000110: 58d9 95b9 0382 d1bf 2121 51cc 73c3 e6bf
00000120: 351e 2634 ac8a c6bf 0ac9 5c37 e05d dcbf
00000130: 1935 0da0 a55b d6bf 7aaa 5ca0 6297 a13f
00000140: 683a e79d 193f c8bf 18d5 4e94 b8db bebf
00000150: f481 3201 a896 953f 2d66 3da1 14ab cdbf
00000160: 57ab 7a72 6d22 e7bf 6ef2 a6da fa2f 9abf
00000170: d195 f30b 7062 a23f f25b 6229 2e74 cd3f
00000180: f62e 8835 3e13 eabf c3e1 be60 0702 e0bf
00000190: bf8b 4fac 6e55 e0bf 8811 b9ab 7beb d03f
000001a0: 7e27 65c7 7ce1 c0bf c62f 1661 6b0a d13f
000001b0: 7793 bd24 56b1 d8bf fbdb 60a2 2d0d ebbf
000001c0: 1b38 e739 2659 e4bf 41ed 822f 54a6 c93f
000001d0: 57b5 9ec7 fc05 e4bf d6eb a05f 2966 e2bf
000001e0: d1b5 1148 0f25 8abf 58e1 aac9 63e6 a93f
000001f0: ef7e 14ea cadb c73f f4fd eae6 5ffc d2bf
-0.14460925084427195 -0.42825342552074075 -0.02936157365499251 -0.031388689163094834 -0.27611460646702396 -0.7497087084627128 -0.049258937689017554 -0.6230683298701951
-0.5252693609967047 0.0033341726181121524 0.35418416286181326 -0.22463505410602738 -0.6829480920447109 -0.18133362488380964 -0.6729735712300738 -0.7348817963449308
0.26562110574984865 -0.4989075324658888 -0.3919098534640559 -0.007784213843958383 -0.4421629286219281 0.4447422761082912 -0.2435573782003486 -0.6169239565500264
0.39795739084262605 -0.0883508363401797 -0.1273620396536513 0.3299119464127213 0.4438438513890575 -0.16976322424774604 0.03137618686796202 -0.27015890531412057
-0.6003112680399466 0.03519179587604217 -0.2735604584080611 -0.711358927780598 -0.1761069540627759 -0.44322972685326134 -0.349343687343962 0.03435810287040382
-0.18942566118353743 -0.12054017658995908 0.021082520554616083 -0.23178346512831763 -0.7229525791093278 -0.025573653789012267 0.035907269915508196 0.2301080419608464
-0.8148489995523664 -0.5002476586878902 -0.5104287496036405 0.26437274713341496 -0.131881329880624 0.26626095276946804 -0.385823760871339 -0.8453586741878775
-0.635882485477626 0.20038845367330718 -0.6257308863475072 -0.5749709003206316 -0.012765998255612228 0.05058585964929091 0.1863950388878872 -0.29665372419910274

weight_1 f8 [64, 32]
00000000: afd1 8891 34b2 17c0 9aab 9ebb b133 e43f
00000010: 5555 0a86 d038 21c0 f817 e6ba 8044 f6bf
00000020: 93e7 87b0 23d4 19c0 e59f d84e 9544 02c0
00000030: 22ed db01 5b38 0cc0 c205 e27c c35b f93f
00000040: d3df f3b4 8185 fdbf ed38 594f 8939 10c0
00000050: 333d b079 c59f c33f b754 105f d280 91bf
00000060: 3927 3824 6cd4 f53f 34a5 f828 e2dd f03f
00000070: 0803 78a7 f304 e23f a080 0668 0176 e63f
00000080: 16dc 3fec 0641 00c0 f48c 6fce 2516 17c0
00000090: 91fc 72ad cce2 f13f 4fb3 b1e9 0744 01c0
000000a0: 08a3 df7e 39d6 f5bf e823 86fd 96fd f8bf
000000b0: ff46 240a b8c6 13c0 dcdd c393 5363 f13f
000000c0: fec9 f141 8ef8 13c0 4540 6224 e392 f33f
000000d0: b24a 599c e825 d5bf cd62 6a14 920c ec3f
000000e0: 135f 08ff 8748 febf ae4c 4a3a cf3f 16c0
000000f0: aa52 51ed 5548 bcbf f2c7 2031 c515 e6bf
00000100: 40ae 8fff a73c d53f d3d4 eb23 26ff 04c0
00000110: 632c 7f73 9d08 0ec0 e4c6 5283 3102 0cc0
00000120: d784 ce70 b640 a03f 0574 40b4 42ea 18c0
00000130: 3551 a962 494f d03f 4f21 a99b 5f80 07c0
00000140: 7861 88e6 01e9 bd3f 1040 d994 d667 d13f
00000150: 679d 2bde b3e5 d7bf fb57 aa9e e96c 23c0
00000160: bf47 6064 0a48 0bc0 1b9b a862 0ad6 e03f
00000170: 48be df95 9d44 a63f a9dd 46cf d5d8 afbf
00000180: 9e0d 4e59 59e5 c23f 286b 2dd9 9861 fcbf
00000190: bb35 2f70 ea31 14c0 155b 7ede d2f5 11c0
000001a0: 33cd 6aa4 0257 de3f 384c 9c8d 2cdf fdbf
000001b0: 121f 0a0d eb35 bbbf 119d 594b fd95 10c0
000001c0: 1c37 aabb 1aac d63f ca9a ecb0 7de1 0cc0
000001d0: 8940 f9fd f27a e3bf d613 4ab3 5d05 12c0
000001e0: dd44 d2d7 3d09 fabf e349 5909 ece6 00c0
000001f0: 2bc6 c49b c0ba 03c0 df20 015e 8c56 d4bf
00000200: e8ec 851e 39f5 12c0 4439 de1e 8408 c53f
00000210: aff8 91dc c665 18c0 b533 14e3 24df ef3f
00000220: 7711 8e84 07aa 12c0 e8ae 84eb 04ca 0fc0
00000230: 3a45 b523 4012 e33f d9a6 563d 07fb e03f
00000240: 03fe 258e 06b3 cabf 9921 8910 6116 ccbf
00000250: 4e08 c840 f200 0cc0 97a4 62db 4de8 b33f
00000260: f03a e023 aa68 e93f 5cc2 4781 6ff2 d33f
00000270: bd73 cab2 b4d7 16c0 7d9b 8d23 1063 03c0
00000280: c529 f197 86e7 fbbf 3c60 4a0c 7219 f8bf
00000290: 9903 e224 e444 f33f 41fd 7411 f7ad eb3f
000002a0: 782e 2444 ca00 e7bf e782 5ea9 38f5 e33f
000002b0: 39e5 f8ea 9e68 e3bf 87a6 5585 90d9 07c0
000002c0: e5b6 0370 6b8e d53f d0b4 dc45 0f24 02c0
000002d0: ed4e 2b91 e73c febf c5ab 4f81 1fb9 00c0
000002e0: 76e4 3cbf 5ab1 16c0 c1df 1658 252f 07c0
000002f0: eda0 6e6e 4ab3 12c0 f0c8 096f 8b3c 88bf
00000300: a42c 3454 b29d 16c0 caf3 10b8 34c2 05c0
00000310: 8413 3e37 dd61 21c0 cca7 14ee 0502 f7bf
00000320: 0011 0e73 1905 f5bf 0ed8 6ce1 2fd8 18c0
00000330: 58e6 c7f8 00ad 08c0 e864 6cda 62a6 10c0
00000340: 662c 6ff8 35fe d6bf 2a91 0c0d f1d6 fabf
00000350: 1114 25f8 2c97 f13f e861 7d00 ab14 1bc0
00000360: e532 25a9 69c7 0cc0 e506 6fc9 c640 15c0
00000370: f669 f9fe fb1b e53f 4c16 327d abf2 d6bf
00000380: c6a7 fe30 a164 f23f 932b e566 c276 12c0
00000390: be6f d2a2 e8bc eebf 7ca4 7cf7 b4d3 c0bf
000003a0: 3c1a b1e5 ff0d 0ec0 e3e0 cf83 cbad 0440
000003b0: 38eb 4cad b69b f8bf 1c20 683a 5be7 cebf
000003c0: c82d 75e3 870e 02c0 403d 7dcc 0a3a 06c0
000003d0: 61fb 254f 6c29 08c0 b5fa d034 af06 fcbf
000003e0: f858 d39c 5672 e93f b9e9 c99e 0b68 13c0
000003f0: d322 f77c b863 eb3f 740c 4755 31b8 00c0
00000400: 542b 301f 4dce 08c0 2aaa 257b fbf9 07c0
00000410: 78f4 66c7 bdb2 1cc0 03a0 c488 b307 e8bf
00000420: 64eb 0199 f1cd 0dc0 06f3 ddc5 a658 1fc0
00000430: 06f1 6f14 c013 f13f e10a 687e 5f8f 09c0
00000440: ee74 560a 1d11 ec3f f3b2 a682 a581 0ac0
00000450: c3ee db15 8837 1540 354a 9e57 bba5 1cc0
00000460: bcda 7551 fa41 10c0 2987 184f fc96 17c0
00000470: 122a 6cbe 2320 b6bf 4c14 9cf2 ebcb febf
00000480: be0f 9542 52ae da3f 5a19 0b38 f6dd 14c0
00000490: ff2d 32d5 6744 fbbf 1bd0 a464 0773 f9bf
000004a0: 6f9f a4f2 530c 0bc0 6eaf 3c52 aa95 ff3f
000004b0: 328a e947 c919 e63f 9560 9780 bf50 fdbf
000004c0: 25b0 a44f f39b 01c0 eaad 0656 fb29 0fc0
000004d0: 8aae ff21 21a4 19c0 7cfb 701c b5ea fbbf
000004e0: 0ff3 bf5a 0321 e73f afea ce86 b763 04c0
000004f0: 71c5 b6e5 9fdf f03f e85d 0974 bebd 0cc0
00000500: 5608 5b07 988c 0cc0 9ba3 d645 eadf 1540
00000510: 57b3 dc9b 1c6e 12c0 ffbd a27f 2544 edbf
00000520: 23d0 632a 0857 13c0 6d40 4394 2084 0740
00000530: 8a1f 9b08 d48b f6bf 250a 77d1 fb10 11c0
00000540: 8df9 7abf edb8 7633 582a fc26 6267 09c0
00000550: af6e cff9 94e3 04c0 e399 47e1 1883 10c0
00000560: a5d6 481e d8bc 0240 f6d7 b1bb fbe2 1540
00000570: a1d7 2864 4490 0240 30c5 fd6e c84e f8bf
00000580: 7487 e7b4 a2e7 06c0 b19e 09ce bcb0 14c0
00000590: 49f8 e73f a26b febf 065e 4fa5 e086 963f
000005a0: 6336 ff23 27a7 cebf 99b4 a6bf f6fe f1bf
000005b0: 93d9 9283 7deb f4be 6613 6d2e 524d 09c0
000005c0: 6cf2 94c6 b253 10c0 4640 dcee 39b5 1640
000005d0: b511 eb1a f799 08c0 3128 abb9 f513 02c0
000005e0: 4876 bd1f 25b9 f1bf 1bbd 2bd3 a9b3 d2bf
000005f0: 9897 b785 0ada 08c0 ed03 0334 981b 0540
00000600: 2a35 8ad5 17d6 12c0 09ff fbef 4006 d73f
00000610: da6a 0f11 3d5e 21c0 e606 f78d 06dc 0ec0
00000620: 5fb3 f2c8 0a32 12c0 074d 723e 05a0 05c0
00000630: f2f1 6862 f480 0ec0 82a2 acc9 cc25 d2bf
00000640: 2f01 d275 a4f5 02c0 08ab 1c5b f189 0dc0
00000650: 49b5 0f69 cf91 d53f 8c73 be2a 8b89 1ec0
00000660: ddd3 c924 8801 833f db4a 6caf 45d6 bfbf
00000670: 9db4 837e 5b35 ff3f bce2 f9eb 6c49 d6bf
00000680: 5d47 f9ab c08f d13f 634f bb02 1e20 1ac0
00000690: 7363 9faf b1d2 f9bf 430c 9196 58e2 0ec0
000006a0: 1079 a090 008c ebbf f735 128f e9a8 d23f
000006b0: 91ae 1c04 c5b0 13c0 1355 80ab e6d5 c53f
000006c0: 26f2 ebcc b13e 18c0 eac4 30f0 1351 e13f
000006d0: 6233 36fb 51e0 f3bf 0680 8be0 d0b2 f5bf
000006e0: 36b8 133a c731 d23f ad7e 5c83 29d5 14c0
000006f0: 0b94 ee0d a151 e23f fa79 c945 25b5 a43f
00000700: c8a3 0abb 3f32 1040 550e ce52 af1b 02c0
00000710: ad5b 922c d3fb f13f be2c 702a a5ec f0bf
00000720: 6733 79ad eb00 0f40 68b2 9010 ee4c 05c0
00000730: b31c 6012 f916 f3bf 77c9 1fbb 9437 5cbf
00000740: cb8c 7664 d331 c5bf 7eae bb60 64ea c2bf
00000750: 3209 bb32 ec23 ebbf 8f33 bca7 92f3 12c0
00000760: ae4c 9104 22ce e2bf 30c7 4c17 5390 1540
00000770: 4ab6 6a6f 7de9 0340 63ec 095f ccdb 0ba9
00000780: b85d 7936 0a4a 0f40 e942 3c51 deda f5bf
00000790: 65b2 3e3c f7a7 b1bf 6acc 3dd2 d308 f6bf
000007a0: dfee c312 d537 1440 d6b4 2d13 7710 f9bf
000007b0: 3508 1d15 9078 b4bf 2c15 46e5 0366 1e31
000007c0: 594e 3ff9 4a42 08c0 0878 0243 9b2e 04c0
000007d0: 2883 fb18 bd83 febf a89b 16ac 1522 a03f
000007e0: 1ab3 3cd7 c6d5 f3bf 075c b4f9 a36b ab2c
000007f0: 2a73 9493 3517 dcbf c699 28be 40fb 05c0
-5.924028657890104 0.6313103355836234 -8.610965908776658 -1.3917243290647985 -6.457167394919355 -2.283487907396181 -3.5275173325768643 1.5849032285917564
-1.8450944012129085 -4.05618785841055 0.15331333581750925 -0.017092978527291715 1.3643609442537594 1.0541707611503854 0.5631044646143843 0.7019049674745652
-2.03175148553738 -5.7716285949311334 1.1178709769590436 -2.158218217597472 -1.3648009258269571 -1.5619115737229041 -4.944061430420105 1.0867496273111703
-4.99273016966117 1.223361150860016 -0.3304387595027648 0.8765345000020602 -1.8927078211035606 -5.5623139484261355 -0.1104787544621312 -0.6901575049907918
0.3318271632876737 -2.6245844656319632 -3.754206564253353 -3.5010710010181914 0.03174371840510453 -6.228770080980216 0.25483927378560917 -2.937682357882444
0.11683666113129287 0.27196278129577056 -0.37339493461919065 -9.712719877523332 -3.410176071346512 0.5261279990125759 0.04349224524036949 -0.06220119624361626
0.14762417660322752 -1.7738274081700158 -5.048745873338187 -4.490062214338441 0.47406068855635225 -1.8669858485852853 -0.10629147594783842 -4.146474053711487
0.35425442053461764 -3.610103018017388 -0.6087584457800556 -4.505240250965434 -1.6272562437555316 -2.11275489143121 -2.4661876840043724 -0.31778248958700134
-4.739475705074462 0.16432239062528187 -6.099391409310711 0.9959892687926329 -4.666044303103596 -3.9736421966425617 0.5959778497146211 0.530643100549436
-0.20858842793312257 -0.2194329577198573 -3.500462061028009 0.07776342969977389 0.7940264416409644 0.3116720926764509 -5.710650247198768 -2.423370626219763
-1.7440248427616194 -1.506212280282866 1.2043191376435287 0.8649859753567527 -0.7188464480290824 0.6236842449180501 -0.6065210904409134 -2.981232682873102
0.33681760729710525 -2.267607255742952 -1.8898692770644019 -2.0903921225012447 -5.6731977349201 -2.8980204469662287 -4.675088620664821 -0.011834229780309319
-5.65400058334777 -2.719827116029113 -8.691140867545762 -1.4379939365412495 -1.3137449735959876 -6.2111201498683055 -3.0844745098118374 -4.162486470094542
-0.3592657972446375 -1.6774759778719024 1.0994081204564774 -6.770183570530641 -3.597369500587194 -5.313258311654612 0.6596660594908019 -0.358561393987064
1.149567786584599 -4.615975959527435 -0.9605601482503443 -0.13146078190155552 -3.7568357414886844 2.5848608300985787 -1.5380160111951238 -0.24143543578998183
-2.257095124257578 -2.778340909549712 -3.020226114603631 -1.751631933511516 0.7952073157310044 -4.851606827806273 0.8559229317407592 -2.0899378454501463
-3.1007330357146348 -2.9970616932744365 -7.174552074107048 -0.7509401007891942 -3.725558467265204 -7.836573688193999 1.0673218534785192 -3.1950063586713076
0.8770890428455951 -3.3133039672014717 5.304230062054276 -7.161847466503379 -4.064431450670494 -5.8974468573303875 -0.08642791174876432 -1.9247855641308602
0.4168897295205588 -5.216759563138419 -1.7042005851716338 -1.5905832225225882 -3.3810194927681816 1.9740393841156805 0.6906477360283303 -1.832213880834421
-2.201147672856694 -3.895498916701162 -6.410282641630724 -1.7448016272535076 0.7227799198586541 -2.548689892949674 1.0545958493424588 -3.592648417030194
-3.568649346795648 5.468667117333918 -4.607531009049885 -0.9145686619648926 -4.834992086736778 2.9395152647994593 -1.4091377578897402 -4.26658561028538
8.837606491467625e-61 -3.1754801793770575 -2.611123992579301 -4.128024597163377 2.3422090879419835 5.471663410882675 2.3204429459537583 -1.5192341170880574
-2.863103307071407 -5.172595233285095 -1.9012777801831524 0.021998891916011253 -0.23947610147154128 -1.1247470365881667 -1.9950756016762194e-05 -3.162754404739121
-4.081736662713052 5.676978809540804 -3.0751783469188134 -2.2597460275037737 -1.1077014198157418 -0.29221578237680185 -3.1064653822567827 2.6384738982601363
-4.709075295029189 0.3597566932294148 -8.684059651500707 -3.8574343768130914 -4.548869266331933 -2.7031350020057547 -3.812966126277609 -0.28355712599526595
-2.36994258925565 -3.6923548811076934 0.33702454814814026 -7.63431994235442 0.009280265448277031 -0.12436328442371851 1.9505267087909381 -0.3482315353826768
0.2743989638739686 -6.531364481623174 -1.6139389858492137 -3.8605205309882265 -0.8608401131384955 0.29155959102430934 -4.922626556635479 0.17059024213873694
-6.061225129986758 0.5411472026081843 -1.242265683456218 -1.3561562320028329 0.28428822204193993 -5.208166172523915 0.5724644920452432 0.04044453122036269
4.049071238064194 -2.2635179967053696 1.1239806881983256 -1.0577747018567574 3.8754495194065615 -2.662563447395133 -1.1931086271086258 -0.001722235913345386
-0.1655830612699901 -0.14777807925507952 -0.8481350889999588 -4.737864132749464 -0.5876627053461527 5.390941967068827 2.4890087799492777 -5.792028590324149e-111
3.9111522918498984 -1.3659346745736747 -0.0689692041475581 -1.3771551334910108 5.0545237476432865 -1.5665198086892835 -0.07996464267219568 4.301234887293588e-72
-3.032369563335845 -2.5227570757988396 -1.907162759387754 0.03151004529654894 -1.2396915824603583 1.6431842541385766e-93 -0.4389165822229183 -2.7476820808544486

bias_1 f8 [1, 32]
00000000: b7bd 176c c3bd fbbf 9779 0c10 b468 fbbf
00000010: 225a 883b 6d95 ba3f eb61 2870 13e6 02c0
00000020: 73fa a796 1885 b43f ab80 c5b9 e7b9 b93f
00000030: 64a3 910b 8fe7 07c0 20cd b7c2 3cb1 f5bf
00000040: 2bed c0bc f2bf 07c0 6faa aeb0 2bf9 06c0
00000050: ea22 c043 e205 05c0 e888 9601 2bd5 b93f
00000060: fcc8 ddc7 b43d 01c0 c499 d9ff 8570 f7bf
00000070: 607b a872 b7ec 02c0 6d60 9195 e049 00c0
00000080: 9c2c 6785 8f67 05c0 62d0 a521 b05c 02c0
00000090: cd2c b7bc 552f 02c0 12c3 b00c 96e3 03c0
000000a0: 1e7a 8b97 440d febf 10b8 8329 d952 05c0
000000b0: cc0e 9323 c85a 01c0 f1e1 2ff4 3efb 05c0
000000c0: d6b4 09a5 0e0a ffbf ca1d e94a 3281 02c0
000000d0: 0a08 ad06 5539 04c0 c733 273b a0f8 fdbf
000000e0: d11b 2f70 fdfc 04c0 07bd 8240 d1f7 f8bf
000000f0: 7932 6559 6cd3 0cc0 b0cb b4ed 7d80 04c0
-1.7338289472935295 -1.7130623461631325 0.10384257033761249 -2.3623417627643355 0.08015588453415905 0.10049293790280227 -2.9880658057995095 -1.3557708364649628
-2.968724703443191 -2.8716653636268386 -2.6278729718218203 0.10090893543977908 -2.155129968124241 -1.4649715417996143 -2.3655842740694624 -2.0360728917112767
-2.6755667135344776 -2.295257819054357 -2.2731127494240355 -2.48612604059634 -1.8782392425270085 -2.665453266460652 -2.1693270472768287 -2.7476786687004666
-1.9399553725045755 -2.313084206809184 -2.5279942056231492 -1.8731996832532205 -2.623530270040171 -1.560502292628202 -3.603234003449242 -2.562740189628549

weight_2 f8 [32, 10]
00000000: 83ab e598 9b06 1340 fb4a 7153 c70d 12c0
00000010: d4dd a781 2c53 11c0 5118 6a67 f2f0 f2bf
00000020: a335 53e0 558f f0bf 0808 ba36 57ab 05c0
00000030: 6745 1b4c 2f72 0bc0 ace7 c56e 1e11 f5bf
00000040: 0314 875e b00b 0fc0 7173 da4b f076 1240
00000050: 4054 7ba4 1c42 17c0 398a 9b5a 40f2 12c0
00000060: 874e 3580 2db4 e4bf 3ae1 d4a0 4277 04c0
00000070: 041d 4e1d 2e19 eabf cb6c d37f 0083 cebf
00000080: a61d ef0e af5d 1440 49c5 2e97 c659 07c0
00000090: bfe7 a311 440f babf 5071 eab2 0eb3 0cc0
000000a0: 5e56 58eb 36ce dcbf 99e1 894e 86d0 28c0
000000b0: fff7 a12e d0f3 17c0 df42 ffe8 1393 10c0
000000c0: 747b 1da8 a875 ef3f 4b11 b586 573a 17c0
000000d0: 5c5b 1487 968c 1fc0 a789 13f0 6f62 02c0
000000e0: ce4e 44e9 be3e 0b40 cb56 803b 4510 1240
000000f0: 598c 3730 76d5 1fc0 4814 f67f 3750 ddbf
00000100: 0511 6123 7bab 2ac0 f750 272a 3c2b f63f
00000110: 969c be9f c7ea febf 12fe 76e7 bfb7 0dc0
00000120: c49a d452 0ca9 22c0 4776 1df0 6584 1840
00000130: 2f73 28f0 10fb 23c0 893d 68d6 1e14 0b40
00000140: 05ad 1569 f30a 1140 ea04 669f 32e0 20c0
00000150: 47c7 0cb0 ad9c 0340 85fb 3e59 d621 efbf
00000160: 7bba a45f ee15 14c0 dac3 6546 a391 e2bf
00000170: 4f7d 4de8 7bc5 11c0 2393 19ae 374b 16c0
00000180: 848a 5aff 543b 1140 f01a 43b7 fabb 21c0
00000190: 5b53 4c7e 1513 fbbf 80a8 0ffa e02c 1ac0
000001a0: a0f7 b61d 7423 db3f dc34 76d7 dc97 07c0
000001b0: 4495 1fc8 7191 09c0 685e 4b96 b0e3 fdbf
000001c0: 2a66 19f3 ccc9 0b40 f0c4 bc45 94f6 21c0
000001d0: 15e1 2211 465f 1840 99df b86d 86da 1fc0
000001e0: 2e6c f3e2 e50a f3bf 2679 2f76 b6c0 12c0
000001f0: 5fae 989d e237 13c0 04bc 2c1c 31db 1340
00000200: d471 15f3 7917 1ac0 30cb f19d 6b6d fd3f
00000210: 6d65 8658 6345 13c0 53aa f8b8 dc4f 10c0
00000220: 6e74 44e5 b05a 1fc0 1054 73e0 c200 1ec0
00000230: df0b 4f79 3908 16c0 6fa8 ff35 e341 0a40
00000240: 2413 a238 e080 f0bf bfa6 abba 865d 11c0
00000250: c77d d748 6a4b 0a40 b0f8 7209 dbc6 02c0
00000260: 4170 fb6d 264b ecbf f1fc 5084 a205 13c0
00000270: 36fa 86e2 a065 eb3f 73fd d509 9912 fdbf
00000280: 038d f82f ef88 00c0 8029 2f33 4ccc 07c0
00000290: a76f c70b 6cba 09c0 2cb5 b255 b8b6 1d40
000002a0: 0fbe 9923 c9ef 0bc0 bb2f fe39 a0bb f5bf
000002b0: 5a04 a0e5 ad6f 01c0 6c84 2d9d a5c9 12c0
000002c0: ab21 df46 7f12 f1bf dcd7 c624 859a 0ac0
000002d0: 88b7 470f 99df f2bf 86a4 c3ac d50e 02c0
000002e0: 10aa fa38 bea4 03c0 c6f4 2a2f 4a0e 16c0
000002f0: 7514 d763 506d 13c0 f56b bbaf 60fc 1640
00000300: 8cf5 7231 f48d 06c0 a7d2 0e73 86a3 0940
00000310: 8060 66f4 5ab6 fbbf e29c d4a2 0abe 13c0
00000320: 817f 2510 948d 16c0 e992 ef86 8a42 0940
00000330: 5b7d 9a49 d110 0a40 c791 930c ed67 0a40
00000340: 335a 484b a442 1ec0 ffd7 75a3 a090 f6bf
00000350: e8d8 4cfc eb82 16c0 dc8d a2df b823 1ec0
00000360: b684 cb85 8f6e 15c0 0251 65ee 8fa7 21c0
00000370: 282a 56dd 240d 1fc0 a317 7070 07be 1640
00000380: 18c2 01ac 1e58 06c0 f88d c1fd ef6a 0ec0
00000390: 0dff aaa8 08e6 0ec0 7fee 0b60 af23 02c0
000003a0: 4cdc 2f71 7e0c 11c0 c165 5b32 c1e5 0ac0
000003b0: c4c6 1773 6085 1840 5106 df8f 8408 20c0
000003c0: d3ea 866c cc70 10c0 c870 4aad cef1 1a40
000003d0: 22aa 854a d835 fdbf 9064 1f3a 603f 0dc0
000003e0: 0511 a376 fef3 fabf 6c7b 77bf 76a1 eebf
000003f0: aae3 cc4b 0a7f 0440 9823 d829 c6fa 15c0
00000400: 233a 9509 16f0 0cc0 b180 eae0 5826 08c0
00000410: 31f6 5ee0 5ee0 1240 fb27 63c2 0e30 0340
00000420: ed95 a32b 99ea 18c0 fe79 bb09 cf36 f4bf
00000430: 615c 1979 4ae0 01c0 318d 851b 4ced f7bf
00000440: 6bb6 80ef 9b79 1240 6be1 2dbf f8b4 0bc0
00000450: 892f 22f7 cdc3 0dc0 4152 fede ad38 07c0
00000460: 3b68 9cab d78c 0640 7d5e cdd8 6e78 1dc0
00000470: 50a9 60c9 c049 0840 f878 a3e9 beff 21c0
00000480: 83fd f99b f25f 0840 295c 3157 544d 0cc0
00000490: bbeb 8259 ee14 0740 d818 5d43 1815 21c0
000004a0: aeda c25c 2ea7 1cc0 3544 9438 db47 1cc0
000004b0: e883 5d75 2b62 edbf 34b1 175b 774c 07c0
000004c0: 539f a01d 4a62 03c0 bbd2 34ac 5682 f8bf
000004d0: 1bec dc0f 22f0 1640 b416 7f21 8eef 00c0
000004e0: 7403 5a02 63cd e4bf d46f c5d1 40f7 f3bf
000004f0: b6d4 54d1 3f9b eebf 5f24 a70f 6738 0bc0
00000500: 31d6 3c1d c61e 0c40 62a0 5c57 826e 12c0
00000510: 7549 ebc3 fbba 0a40 a020 5851 4b06 17c0
00000520: 1979 8840 436a 13c0 81f2 2723 c623 f8bf
00000530: 3b3a 0931 801a 11c0 97ab 73b8 d3e8 0640
00000540: 1b7b 281b 82c4 0fc0 c6bc 9aba eed7 0fc0
00000550: 2bc1 d3f4 523e 12c0 833d 25ce cbb0 c23f
00000560: 94f7 d1ec 13e5 14c0 9b8f 9938 1f8a 0ac0
00000570: 5100 bfd3 1d38 0bc0 3f78 99f5 7999 0840
00000580: a377 e1fa 8cb4 c2bf cd45 91b7 20ba 0bc0
00000590: 4ffb 83e7 40c3 f23f 8e23 10ac 143e f23f
000005a0: d346 4c61 a6d2 0dc0 5dd0 b01b 0696 1940
000005b0: feb4 431b ea13 09c0 6163 ec21 19dc 14c0
000005c0: 7cab 8a1d 33bf 14c0 4aad b003 f474 fabf
000005d0: 8397 5815 d438 06c0 3dab ead0 a0b1 1340
000005e0: a51e 7572 4833 0cc0 3b87 993c 6137 16c0
000005f0: a85d 4d4e de40 0dc0 75f0 299a 2f66 1dc0
00000600: f6ac f2d0 7f83 18c0 8dba acb5 8152 10c0
00000610: 7781 4232 d847 1ac0 38d7 72a7 648a 07c0
00000620: 4e28 ab5f 0d1f 16c0 62cf 6465 12af 2240
00000630: c6e9 a712 dca4 0fc0 6663 f744 74f8 ff3f
00000640: 55cf b9f0 23d6 1740 2ed5 3139 b0c1 15c0
00000650: f5cb 6b7a c4eb 1dc0 3712 894c cf62 00c0
00000660: abf1 dd8c c069 0fc0 55a5 476e 0ff4 ccbf
00000670: 8983 3db4 aa6e d4bf 86f5 e69f ba64 0b40
00000680: d170 1027 17e6 0cc0 e432 bef0 5d77 eabf
00000690: e824 3af9 fb63 28c0 95a4 3b3a 3f4f 2bc0
000006a0: 7bfd 0ab5 f3f9 1440 63e9 5dbd 08d8 1340
000006b0: 5fc1 222c 9ef2 24c0 2423 a842 7e19 22c0
000006c0: a471 bd00 fbe8 2ac0 87fd 266d 7af5 1440
000006d0: 6dbf ea4e fa8a 26c0 c4a2 5c01 c404 33c0
000006e0: e31b 687e e741 0bc0 b199 93a7 1094 12c0
000006f0: 92e3 a88d 7374 16c0 fe00 c6be 2014 1a40
00000700: 3f79 b737 8bde f4bf 41a2 033c 6698 f3bf
00000710: b733 d8b1 7740 11c0 5125 ad78 ef8f 11c0
00000720: 24a9 db5e 0d43 d93f 607c 66ca eeeb f33f
00000730: 9141 2eec 2195 06c0 9fd4 c727 17bd 14c0
00000740: d565 3690 bc96 e4bf dfb0 3926 00cc 11c0
00000750: 3f96 5560 85bf 1440 fe3a e778 7105 13c0
00000760: cd1d f6c3 f7ec c6bf 63f3 defd 3df0 fd3f
00000770: 673c e567 9700 0fc0 bb75 1c25 4352 19c0
00000780: 9fb2 6f12 9f1a 05c0 327c 4841 4013 1fc0
00000790: 45f4 6e9a 93a4 14c0 0a7a 9608 5d11 0140
000007a0: dd60 d3b9 127c 1cc0 5c2a 4cf7 e0fb 0b40
000007b0: abdc 23d1 08d5 03c0 42a6 fe94 2a1d 12c0
000007c0: e530 257a bc4b d23f 950f f595 cb60 24c0
000007d0: 69d7 e094 fbf4 16c0 96c9 4bd5 ddc5 01c0
000007e0: 38a0 5108 0fc8 e33f 1a41 a0e9 9ce2 04c0
000007f0: 4aa7 737b ea8c fd3f f8ae 1c7e bf0b fdbf
4.756452931421225 -4.513455680646753 -4.331224466200599 -1.1838249244333563 -1.0349940073677792 -2.7086624408266324 -3.430754274923561 -1.3166794135163213
-3.8807074913952433 4.616151032646358 -5.814562387492572 -4.736573615783123 -0.6469943527285559 -2.5582325520482785 -0.815573746906836 -0.23837286225793827
5.091488107056113 -2.918835812678172 -0.10179543905897413 -3.587430379657384 -0.450086335972946 -12.407274679499823 -5.988098839412486 -4.143630638675602
0.9831126483439747 -5.806974510957228 -7.887292967431531 -2.2980650669062075 3.405637571713533 4.515889100750154 -7.958458665266414 -0.45802104469504856
-13.334923844908653 1.385555424368304 -1.932319282533887 -3.7147214968861215 -9.330172146275238 6.12929511241743 -9.990363602578865 3.384824442917026
4.260694162319173 -8.43788622017242 2.451503157987563 -0.9728805296980317 -5.021417135647989 -0.5802780508948857 -4.442855481843551 -5.573454590140304
4.307941427136601 -8.867147185269886 -1.692159169532906 -6.543826968389226 0.42403891469791155 -2.9491516907643085 -3.1960178026808155 -1.8680883284449923
3.4735354416013893 -8.981599978726507 6.093040721658572 -7.963403429421214 -1.1901606431263292 -4.688196036002671 -4.8045754074515505 4.964054527502416
-6.522926138099553 1.8392139596659938 -4.81776178665437 -4.077990427186324 -7.838565428069257 -7.500743395842633 -5.5080317453857495 3.2821716517110455
-1.03146383402163 -4.3413342635409995 3.286823815418504 -2.3470974672519205 -0.8841735981072888 -4.755502765124434 0.856155817447706 -1.8170404800619877
-2.0668624637343114 -2.9747547148483022 -3.216026393913086 7.428437556297734 -3.4920828610700094 -1.3583071008060716 -2.179530900903541 -4.6969208296805895
-1.0670159119054954 -3.3254492638761644 -1.1795893284683832 -2.257243489952603 -2.4554409457680393 -5.513954865452609 -4.856751976015507 5.746462579550088
-2.8193134177406076 3.2048462857149675 -1.7320203348990901 -4.935587448336465 -5.638260128296566 3.1574907819616453 3.2582116842528825 3.3007451040777798
-7.5650798571501126 -1.4103094468277957 -5.627853338423144 -7.534884924217717 -5.357969370409753 -8.827269983165483 -7.76283593977363 5.6855752533355455
-2.793027252010017 -3.8022155594533125 -3.86232120296325 -2.2674243453637355 -4.262201088472533 -3.3621848997251793 6.130250738455008 -8.016636367773716
-4.110154815420816 6.736139972370616 -1.8256457243939015 -3.655945257266076 -1.684568847108552 -0.9572099437317383 2.5620313569929367 -5.4948965585871505
-3.6172295330682274 -3.018724209934668 4.719111924930574 2.3984656511793196 -6.22909992395351 -1.2633810405892514 -2.2345170460571784 -1.4954339098993155
4.618758909445755 -3.463365071857131 -3.7206076915080684 -2.902675382744093 2.818770733557384 -7.367610347304091 3.0360122425674163 -8.999503422932762
3.046849459234808 -3.5377585231722333 2.88522024088658 -8.541200738062273 -7.163262795823057 -7.070172199296441 -0.9182336132326983 -2.9123370281796728
-2.4229929270403914 -1.5318209387598205 5.734504936083819 -2.1169703118237866 -0.6500716253213867 -1.2478645509900064 -0.956451329088529 -3.4025403235323632
3.5150263103667148 -4.607919087437127 3.3413005167178036 -5.756146689418671 -4.85377217133489 -1.5087338803561183 -4.2758796369440075 2.8636850748348013
-3.9709512826660904 -3.9804358080360513 -4.56086332838485 0.14602038922974367 -5.2237088206437825 -3.3174423620093427 -3.402400640741725 3.074939650293373
-0.14613497018848162 -3.46588271534049 1.172669319493895 1.1401564332211112 -3.7278564072993077 6.396507675806871 -3.1347238664662873 -5.214939622929564
-5.18671842726587 -1.6535530227800614 -2.7777482669507108 4.923465027163556 -3.5250405256263826 -5.554081866140957 -3.6566740147934134 -7.349790962991496
-6.128417267619843 -4.080572928111576 -6.570160661038577 -2.942574794952545 -5.530324454137441 9.341937225871963 -3.955497880696586 1.9981577581404166
5.9591214764985425 -5.439148801485585 -7.480241692380322 -2.048246953900413 -3.9266367917282046 -0.22619812855490787 -0.31925456620779663 3.424184083209812
-3.612348847569685 -0.827071161461927 -12.19528178057449 -13.654779262333514 5.244093731685434 4.960970839363969 -10.473863009684178 -9.04979141523797
-13.455040000081517 5.239724832062513 -11.271440950542194 -19.01861580382935 -3.4071798205873036 -4.644594782241641 -5.613722051079906 6.519656163058469
-1.3043319870408394 -1.2247068733505702 -4.312956599064754 -4.390561948364238 0.3947175432537213 1.2451007753623102 -2.822818608438134 -5.184658643314065
-0.6434004608774396 -4.449219319602178 5.187032227729616 -4.755315674889742 -0.1791066843836532 1.8711528698761064 -3.8752887837250003 -6.330334262716344
-2.6379987182939 -7.768799800919668 -5.160719311735254 2.133478228656945 -7.121165183569443 3.4979876823538643 -2.4790207232541284 -4.5284827499795615
0.28587257316827525 -10.18905323616472 -5.739240957473023 -2.2216145194772237 0.6181712305524405 -2.610650849536012 1.8469033071837253 -1.8153681684734106

bias_2 f8 [1, 10]
00000000: 8ff7 2251 bf91 ecbf b9da 6008 ef8d d1bf
00000010: 33a3 2815 9566 d0bf 3f1c faf6 ac8d d43f
00000020: 47c2 e785 7acf d1bf 455e 655a 6816 babf
00000030: c322 ffbd 0e58 d4bf 495f 1946 67c6 c7bf
00000040: f7ac 5dcf 30c8 dc3f 4622 617a 0809 eb3f
-0.8927914223383925 -0.27428794687459007 -0.25626113001139855 0.3211471950421049 -0.27828848911943677 -0.10190441328938345 -0.3178746085582526 -0.18574229166801562
0.4497186684663598 0.8448526754592158

loss_history f4 [135]
00000000: 0800 233f cc0b 9d3e a6ae 7e3e 9257 603e
00000010: 4fa6 4d3e 16c9 413e a10b 353e 2571 303e
00000020: d4f6 283e 60b4 253e af0f 263e 1876 1e3e
00000030: a98f 203e 89cc 163e 38d6 193e a387 203e
00000040: 0efc 193e b240 1b3e 8118 163e 31ba 133e
00000050: 67ed 183e 31a7 173e 1e79 1b3e 31e3 1a3e
00000060: eab8 143e 7ae0 153e a5d1 0e3e 332d 193e
00000070: 1620 163e 2e81 163e d14f 1c3e ec0c 1a3e
00000080: f983 193e 216a 253e fdaf 1e3e 40dd 293e
00000090: 97a0 213e a084 243e 098b 1e3e 368b 253e
000000a0: a956 233e eb31 2d3e e3c4 273e 7f83 263e
000000b0: 4155 2e3e f6c5 2c3e 1e2e 263e 712d 333e
000000c0: bec8 363e c87f 313e b9dc 333e ef07 2d3e
000000d0: 4616 353e cb57 363e 7c41 313e 4b6d 413e
000000e0: bf02 3d3e 2f91 333e 8883 393e e147 3d3e
000000f0: 6671 333e cacb 3f3e 189e 3c3e 7453 4c3e
00000100: 6a1a 403e 9ad8 3d3e 68fe 433e 88d8 4e3e
00000110: 18a2 423e 0a2f 4e3e be8c 3e3e 0265 4e3e
00000120: dca0 553e a274 4a3e de59 533e 57b4 4e3e
00000130: dba0 583e 97a1 4e3e 1540 553e 1577 613e
00000140: 555e 5a3e 21ea 633e ff6e 533e 7e9e 5e3e
00000150: 740e 603e 86b7 693e 09bd 693e d148 693e
00000160: d5c1 613e 2f03 6d3e d326 693e 732f 6d3e
00000170: 9d49 623e 2e58 703e 8796 6b3e f3e7 723e
00000180: 3a10 5f3e b606 783e 48cd 713e a786 773e
00000190: b5eb 7a3e da48 6c3e f7b7 773e e830 7d3e
000001a0: b6b8 773e be55 803e 9585 803e 00e8 773e
000001b0: 481f 7b3e 27b2 823e 667d 803e 605d 7b3e
000001c0: 137f 833e 880c 8d3e 552d 8e3e 97c7 893e
000001d0: 0b49 8c3e 1876 8f3e 9b3f 883e 22d8 883e
000001e0: 8713 863e 47bf 853e 301e 853e 67cb 903e
000001f0: d795 8f3e a70d 8b3e 2e63 953e 0777 843e
00000200: a89d 893e 9ef5 913e 00a6 893e 10ea 953e
00000210: 1ecb 983e dbf2 933e 6d5c 8e3e
0.6367192 0.30673063 0.2487131 0.21908405 0.20082973 0.18924364 0.17680217 0.17230661
0.16500407 0.16182089 0.1621692 0.15474737 0.15679802 0.14726461 0.15023124 0.15676741
0.15037557 0.15161398 0.14657785 0.14426495 0.14934312 0.14809872 0.15182921 0.15125729
0.14523664 0.14636412 0.1394716 0.14958648 0.14660677 0.14697716 0.15264823 0.15043992
0.1499175 0.16153766 0.15496822 0.16588306 0.15783916 0.16066217 0.15482725 0.16166386
0.15951027 0.16913573 0.163837 0.162611 0.1702471 0.16872391 0.1622853 0.17497803
0.17850015 0.17333901 0.17564668 0.16897558 0.17684278 0.17806928 0.17310137 0.18889348
0.18458079 0.17535852 0.18116581 0.18484451 0.17523727 0.18730083 0.18419683 0.1995371
0.18760076 0.18539658 0.19140017 0.20199788 0.19007146 0.20135131 0.18608376 0.20155719
0.20862144 0.19771054 0.2063975 0.20185982 0.21155111 0.20178829 0.20825227 0.22018082
0.21325047 0.22257282 0.2064781 0.21740147 0.21880513 0.22823915 0.22826017 0.22781684
0.22046597 0.23145746 0.22768717 0.23162632 0.22098394 0.23471138 0.2300664 0.23721294
0.21783534 0.2422131 0.23613465 0.2417246 0.24503978 0.23074666 0.24191271 0.24725688
0.24191555 0.25065416 0.25101915 0.24209595 0.24523652 0.25526544 0.2509567 0.24547338
0.25682887 0.27548623 0.2776896 0.26910087 0.27399477 0.28019786 0.26611027 0.26727396
0.26186773 0.26122496 0.25999594 0.28280184 0.28044006 0.27158853 0.2917723 0.2587206
0.26878095 0.28507704 0.2688446 0.29280138 0.29842466 0.28896222 0.2780489

accuracy_history f4 [135]
00000000: 8ca5 a042 fd22 b642 efae b942 e557 bb42
00000010: 5555 bc42 0a17 bd42 1be8 bd42 291c be42
00000020: 8988 be42 3aed be42 1fc5 be42 291c bf42
00000030: cd4c bf42 5ccf bf42 41a7 bf42 8988 bf42
00000040: 52b8 bf42 52b8 bf42 1be8 bf42 a70d c042
00000050: 44c4 bf42 85eb bf42 cd8c bf42 0ef4 bf42
00000060: f628 c042 07fa bf42 0a57 c042 b1e4 bf42
00000070: 2c39 c042 7ef1 bf42 f6e8 bf42 1111 c042
00000080: 33f3 bf42 4bbe bf42 85eb bf42 6a83 bf42
00000090: 9ad9 bf42 b5c1 bf42 e5d7 bf42 b5c1 bf42
000000a0: 7b94 bf42 6666 bf42 bc7b bf42 749a bf42
000000b0: a470 bf42 e557 bf42 4b7e bf42 c92f bf42
000000c0: 1111 bf42 263f bf42 031d bf42 7e31 bf42
000000d0: 8f02 bf42 4f1b bf42 da40 bf42 6ac3 be42
000000e0: 8ce5 be42 cd4c bf42 66e6 be42 f6e8 be42
000000f0: 77f7 be42 03dd be42 8ca5 be42 b581 be42
00000100: 9d76 be42 c92f bf42 89c8 be42 41e7 bd42
00000110: 3a6d be42 180b be42 0ad7 be42 5278 be42
00000120: 66e6 bd42 7737 be42 60ec bd42 b124 be42
00000130: abea bd42 4fdb bd42 82ce bd42 ae47 bd42
00000140: f2cb bd42 e557 bd42 33b3 bd42 4f5b bd42
00000150: 1b68 bd42 77f7 bc42 f6a8 bc42 cd0c bd42
00000160: c3f5 bc42 bfd8 bc42 0ef4 bc42 931f bd42
00000170: ab2a bd42 745a bc42 33b3 bc42 59b2 bc42
00000180: 291c bd42 3aad bb42 85ab bc42 efee bb42
00000190: de1d bc42 6666 bc42 abaa bb42 741a bc42
000001a0: 6ac3 bb42 22a2 bb42 3a6d bb42 a70d bc42
000001b0: aec7 bb42 0e74 bb42 035d bb42 74da bb42
000001c0: f945 bb42 48e1 b942 299c ba42 66a6 ba42
000001d0: 7ef1 ba42 6349 ba42 efae ba42 b501 bb42
000001e0: ec91 bb42 cdcc ba42 1b28 bb42 f6a8 b942
000001f0: cd0c ba42 f9c5 ba42 3a2d ba42 33b3 ba42
00000200: 606c ba42 7b54 b942 291c ba42 142e b942
00000210: 031d b942 ec51 b942 a013 ba42
80.32333 91.06834 92.84167 93.67167 94.166664 94.545 94.95333 95.055
95.26667 95.46333 95.385 95.555 95.65 95.905 95.82667 95.76667
95.86 95.86 95.95333 96.026665 95.88333 95.96 95.775 95.97667
96.08 95.988335 96.17 95.94666 96.111664 95.971664 95.955 96.03333
95.975 95.871666 95.96 95.75667 95.925 95.878334 95.92167 95.878334
95.79 95.7 95.74167 95.80167 95.72 95.67167 95.746666 95.59333
95.53333 95.62334 95.55666 95.596664 95.505 95.55334 95.62666 95.38167
95.44833 95.65 95.45 95.455 95.48333 95.43166 95.32333 95.253334
95.23167 95.59333 95.39167 94.95167 95.21333 95.02167 95.42 95.235
94.95 95.10833 94.96167 95.07166 94.958336 94.92834 94.903336 94.64
94.89833 94.67167 94.85 94.67834 94.70333 94.48333 94.33 94.525
94.48 94.42333 94.47667 94.56167 94.583336 94.17667 94.35 94.348335
94.555 93.83833 94.335 93.96667 94.058334 94.2 93.833336 94.05167
93.88167 93.816666 93.71333 94.026665 93.89 93.72667 93.68166 93.92667
93.636665 92.94 93.305 93.325 93.471664 93.14333 93.34167 93.503334
93.785 93.4 93.57833 92.83 93.025 93.386665 93.08833 93.35
93.21167 92.665 93.055 92.59 92.55666 92.66 93.03833

val_loss_history f4 [27]
00000000: 01d0 de3d 1e1f 003e 1526 7f3e ee55 df3d
00000010: 14be 313e b478 423e 3bab 663e 1c85 623e
00000020: 949a 913e 2c64 0f3e 412e 083e 2533 803e
00000030: 7137 be3e 9d7b 9e3e fee0 8d3e aa57 5d3e
00000040: d959 9a3e fdac c73e 9776 a83e 0fc4 5d3e
00000050: f286 a03e 5db9 c83e d9cf b73e 381c bc3e
00000060: fe98 a23e c238 d53e b821 c83e
0.10879517 0.1251187 0.24916871 0.10905062 0.17357665 0.18991357 0.22526257 0.2212109
0.28438246 0.14003056 0.13298894 0.2503902 0.37151673 0.30953684 0.27710718 0.21615472
0.30146673 0.38999167 0.32902977 0.21656822 0.31352955 0.3920392 0.35900763 0.3674028
0.3175735 0.41644865 0.39088225

val_accuracy_history f4 [27]
00000000: 6666 c142 6666 c142 6666 c042 3333 c342
00000010: cdcc c042 9a99 c042 cdcc c242 3333 c242
00000020: 6666 c042 cdcc c242 0000 c242 9a99 c042
00000030: cdcc be42 3333 c042 3333 bf42 9a99 c042
00000040: 6666 c042 9a99 be42 cdcc be42 3333 c042
00000050: 0000 bf42 6666 bb42 3333 bf42 0000 bd42
00000060: 0000 bd42 0000 bd42 9a99 bb42
96.7 96.7 96.2 97.6 96.4 96.3 97.4 97.1
96.2 97.4 97.0 96.3 95.4 96.1 95.6 96.3
96.2 95.3 95.4 96.1 95.5 93.7 95.6 94.5
94.5 94.5 93.8
