checkpoints/model_epoch_0155.npz (npz, 383713 bytes, 10 tensors)

weight_0 f8 [784, 64]
2.809556444e-315 1.18684844e-315 1.159753507e-315 2.170921987e-315 3.67275264e-316 -2.47150585e-315 -9.8842694e-316 -2.60801613e-315
3.0878376e-316 -2.79289962e-315 2.813838017e-315 -2.43612303e-316 2.65544244e-315 4.10662844e-316 -2.74403781e-315 -7.1064409e-316
1.973355817e-315 -1.193868285e-315 1.583063013e-315 2.1465379e-316 1.511079343e-315 -1.682815816e-315 1.670490736e-315 1.47631e-315
3.68661355e-316 1.95384608e-315 -1.28497167e-315 -5.48013657e-316 3.397507e-318 2.21540617e-316 2.79815016e-315 8.77400346e-316
-2.93813814e-316 7.36558233e-316 2.5428291e-316 -2.38698567e-315 6.01669137e-316 -1.13046919e-315 -2.038585985e-315 2.803977573e-315
-1.153519337e-315 -2.23963669e-315 -1.05747874e-315 1.10599899e-315 2.528962715e-315 -1.23928457e-315 2.53339363e-315 1.772884437e-315
-9.545797e-316 1.74383142e-315 -2.643327183e-315 -8.7496575e-316 -2.8093435e-315 -2.93953674e-316 1.0541648e-316 -1.19026497e-315
-8.78312445e-316 1.66353793e-315 2.8890545e-315 -2.943628217e-315 -1.23043843e-316 -2.04553873e-315 1.7379012e-316 -1.08991035e-315
-7.1722666e-316 1.41591142e-315 -1.50623088e-315 -7.1976822e-316 -2.264882666e-315 -2.61369448e-315 -2.65714196e-316 8.71518677e-316
9.5597476e-316 -2.20184834e-315 2.339289327e-315 -2.7581705e-315 -2.904696387e-315 1.83772453e-315 -1.0231706e-316 2.563962834e-315
4.9611554e-316 1.866788797e-315 -1.32782059e-315 2.826317186e-315 -2.54794846e-315 -1.2493555e-316 -1.816062386e-315 -5.3023063e-316
1.11643456e-315 1.224897366e-315 -1.38083123e-315 -1.93371207e-316 6.80958797e-316 -1.70666008e-315 2.295534805e-315 2.575526836e-315
-2.76459796e-315 2.00349864e-316 -2.74147237e-315 -1.737352047e-315 -6.95044387e-316 -8.81969983e-316 1.792280936e-315 -9.25216824e-316
-7.4025777e-317 2.44747603e-315 -2.504462657e-315 1.749814003e-315 -2.601076655e-315 1.751606616e-315 1.537231518e-315 1.41512979e-315
-1.890466073e-315 1.837696335e-315 -2.819297254e-315 -1.18085434e-316 -2.53552008e-315 2.998075743e-315 2.782661126e-315 2.539988733e-315
3.3598043e-316 -2.63215776e-315 1.28976179e-315 1.939797703e-315 2.23724737e-315 -2.717772663e-315 1.535797635e-315 -1.7035742e-315
1.408991626e-315 -3.60435044e-316 1.23340541e-315 5.79614007e-316 1.59815884e-316 -7.3064783e-316 2.789631473e-315 -2.468768637e-315
-7.8663519e-316 8.57254937e-316 -1.25104857e-316 -1.6713954e-316 -8.7335345e-316 8.1140424e-316 -4.31546895e-316 1.65792184e-315
2.75335445e-315 -2.54452083e-315 2.24807368e-315 2.425086633e-315 -1.14319195e-315 6.443615e-317 -2.491028537e-315 1.12552122e-315
9.6360473e-316 -1.61285633e-315 2.74504156e-315 9.27350027e-316 -1.472821276e-315 -5.44176807e-316 3.46987545e-316 -1.55078052e-315
-1.5459266e-316 -1.29907054e-315 -2.67409377e-315 -2.445089805e-315 2.10448435e-315 -1.681664895e-315 1.99133435e-316 -1.385901216e-315
1.69815716e-315 2.55520157e-315 1.11081558e-315 -2.3051816e-316 -2.8646838e-315 -1.699846175e-315 5.4841791e-316 5.9465123e-316
-1.154976346e-315 -1.18986869e-315 -9.936967e-316 -6.96206335e-316 -2.530524634e-315 -2.334317723e-315 -1.110278104e-315 -3.7066632e-316
3.382497e-318 -1.487584595e-315 -1.3004411e-315 -2.396715e-317 -2.68873878e-315 3.5684733e-316 7.53170385e-316 2.13080745e-316
-2.898153343e-315 -2.09551113e-315 -1.315354986e-315 -2.62516584e-315 -1.69904087e-316 -2.0122864e-315 -2.283302797e-315 -1.78687938e-315
6.65492823e-316 -1.014957564e-315 -4.860752e-317 2.18142184e-315 2.58378259e-315 4.3661511e-316 -1.27763259e-315 1.76847984e-315
1.82028941e-315 -1.969288437e-315 -2.041693317e-315 2.89761271e-315 2.18562942e-315 -1.665046765e-315 -2.20019148e-315 2.39230662e-315
-1.482020976e-315 1.18878075e-315 2.43061108e-315 1.65378075e-316 2.82257584e-315 2.360429636e-315 -6.485332e-317 -1.129585997e-315
2.37748073e-315 -1.0047338e-315 -3.54457047e-316 4.8449272e-316 -7.8716718e-317 2.09805338e-315 -2.74664348e-315 -7.40823615e-316
-9.904704e-317 3.6598388e-316 1.464150627e-315 2.552400774e-315 -2.39818978e-315 -1.492280294e-315 5.8228009e-316 -9.06537383e-316
2.00460664e-316 2.869623636e-315 1.40301825e-315 -2.181690657e-315 2.0289746e-315 1.178893565e-315 2.443950563e-315 5.91722187e-316
1.289201053e-315 -1.150464544e-315 1.783174753e-315 -2.060340536e-315 -1.241279847e-315 2.83196126e-316 2.488921856e-315 1.060060026e-315
00000000: 4b12 e521 0000 0000 7f7a 510e 0000 0000
00000010: 53cc fd0d 0000 0000 4eb4 301a 0000 0000
00000020: 3d4c 6e04 0000 0000 1108 d11d 0000 0080
00000030: c0ab ec0b 0000 0080 b5a1 761f 0000 0080
00000040: e1a6 b903 0000 0000 d8a0 b121 0000 0080
00000050: 734b f221 0000 0000 1f60 f002 0000 0080
00000060: 8d1a 0920 0000 0000 ed4b f404 0000 0000
00000070: 0cb9 1a21 0000 0080 3dc3 9208 0000 0080
00000080: d089 ce17 0000 0000 9f28 670e 0000 0080
00000090: 2127 1913 0000 0000 8bf0 9602 0000 0000
000000a0: 68d6 3a12 0000 0000 113b 4d14 0000 0080
000000b0: 712a 2714 0000 0000 9774 cf11 0000 0000
000000c0: 2194 7204 0000 0000 c148 9217 0000 0000
000000d0: 0986 800f 0000 0080 1f7e 9c06 0000 0080
000000e0: 2f7e 0a00 0000 0000 8035 ac02 0000 0000
000000f0: 19d8 c121 0000 0000 5fc6 950a 0000 0000
00000100: 226b 8b03 0000 0080 d6cb e208 0000 0000
00000110: aa54 1103 0000 0000 8eff cb1c 0000 0080
00000120: f533 4207 0000 0000 275b a30d 0000 0080
00000130: fdfe 9718 0000 0080 73d7 d321 0000 0000
00000140: 618b ea0d 0000 0080 79ec 041b 0000 0080
00000150: 70ee c10c 0000 0080 30c8 570d 0000 0000
00000160: 687b 821e 0000 0000 456c f30e 0000 0080
00000170: a32a 901e 0000 0000 5d66 6315 0000 0000
00000180: fa22 840b 0000 0080 11ac 0915 0000 0000
00000190: d2af e31f 0000 0080 7f41 8e0a 0000 0080
000001a0: ef69 e421 0000 0080 b6d9 8b03 0000 0080
000001b0: d591 4501 0000 0000 b807 5c0e 0000 0080
000001c0: 8297 980a 0000 0080 51b1 1114 0000 0000
000001d0: 2598 da22 0000 0000 f823 8323 0000 0080
000001e0: 9f02 7c01 0000 0080 1078 ad18 0000 0080
000001f0: 58bc 1802 0000 0000 f717 260d 0000 0080
00000200: a417 a708 0000 0080 6eeb 1411 0000 0000
00000210: 0cdd 2b12 0000 0080 16f1 ae08 0000 0080
00000220: cbe4 521b 0000 0080 342b 881f 0000 0080
00000230: a0a2 3403 0000 0080 209c 830a 0000 0000
00000240: f671 880b 0000 0000 b937 901a 0000 0080
00000250: 37b1 381c 0000 0000 d45e 4621 0000 0080
00000260: 26e7 0a23 0000 0080 22a7 2b16 0000 0000
00000270: 53ff 3b01 0000 0080 af93 ee1e 0000 0000
00000280: b735 fc05 0000 0000 536a 8516 0000 0000
00000290: d7db 0410 0000 0080 e7d5 1822 0000 0000
000002a0: 2e1e bd1e 0000 0080 45da 8101 0000 0080
000002b0: 4fc0 e815 0000 0080 4292 6506 0000 0080
000002c0: e702 780d 0000 0000 43fd c60e 0000 0000
000002d0: d893 a810 0000 0080 d035 5502 0000 0080
000002e0: 0b15 3708 0000 0000 26df 9614 0000 0080
000002f0: 698f b11b 0000 0000 934a 121f 0000 0000
00000300: 9938 5a21 0000 0080 60c3 6a02 0000 0000
00000310: b9cc 1221 0000 0080 41a9 f514 0000 0080
00000320: 9695 6208 0000 0080 48e3 a30a 0000 0080
00000330: e44d 9f15 0000 0000 b273 290b 0000 0080
00000340: 489f e400 0000 0080 47d1 861d 0000 0000
00000350: d5d0 361e 0000 0080 1926 1c15 0000 0000
00000360: 2033 611f 0000 0080 66af 2115 0000 0000
00000370: 339b 8b12 0000 0000 7281 1211 0000 0000
00000380: 618a ce16 0000 0080 d790 2b16 0000 0000
00000390: b527 0322 0000 0080 56b2 6c01 0000 0080
000003a0: e1bb 961e 0000 0080 064c 2b24 0000 0000
000003b0: f201 9221 0000 0000 f388 a41e 0000 0000
000003c0: 7ca5 0d04 0000 0000 e630 c11f 0000 0080
000003d0: 4551 8f0f 0000 0000 a2e5 6617 0000 0000
000003e0: 658b fd1a 0000 0000 ef9a c920 0000 0080
000003f0: 862d 8712 0000 0000 5957 8d14 0000 0080
00000400: 688c ff10 0000 0000 212c 5904 0000 0080
00000410: 0244 e10e 0000 0000 6d16 fe06 0000 0000
00000420: d793 ed01 0000 0000 df8a d008 0000 0080
00000430: f088 a721 0000 0000 ef93 c81d 0000 0080
00000440: 5f74 7d09 0000 0080 bb8e 570a 0000 0000
00000450: 2160 8201 0000 0080 2c32 0402 0000 0080
00000460: c246 890a 0000 0080 9ff3 c909 0000 0000
00000470: 90cb 3405 0000 0080 0c59 0014 0000 0000
00000480: 197f 3721 0000 0000 2e88 b21e 0000 0080
00000490: 0afb 1e1b 0000 0000 77ab 411d 0000 0000
000004a0: 33a6 ca0d 0000 0080 6601 c700 0000 0000
000004b0: 5d53 0d1e 0000 0080 1f13 940d 0000 0000
000004c0: 7902 a00b 0000 0000 bb2a 7513 0000 0080
000004d0: a5d2 1d21 0000 0000 470a 300b 0000 0000
000004e0: 49ae c411 0000 0080 94a4 9006 0000 0080
000004f0: 15a4 2f04 0000 0000 8073 b512 0000 0080
00000500: 2f72 dd01 0000 0080 1511 ac0f 0000 0080
00000510: edb4 4220 0000 0080 a672 7f1d 0000 0080
00000520: 7684 6319 0000 0000 1cad 4914 0000 0080
00000530: a001 6702 0000 0000 593c b810 0000 0080
00000540: 749c 7c14 0000 0000 bb84 d31e 0000 0000
00000550: 58a8 660d 0000 0000 73ef c702 0000 0080
00000560: d853 8f22 0000 0080 d8d3 8114 0000 0080
00000570: bdbd 9d06 0000 0000 5d87 2c07 0000 0000
00000580: 570b ef0d 0000 0080 68ce 5a0e 0000 0080
00000590: 33f2 fc0b 0000 0080 432c 6608 0000 0080
000005a0: 504e 871e 0000 0080 7f56 291c 0000 0080
000005b0: 66ff 640d 0000 0080 52c5 7804 0000 0080
000005c0: 5172 0a00 0000 0000 aa46 f211 0000 0080
000005d0: b14c b00f 0000 0080 3d05 4a00 0000 0080
000005e0: c4ef 6f20 0000 0080 9017 4e04 0000 0000
000005f0: f719 1609 0000 0000 d714 9202 0000 0000
00000600: ffb1 f622 0000 0080 efcd 4719 0000 0080
00000610: 1d5c de0f 0000 0080 d998 ab1f 0000 0080
00000620: eabb 0c02 0000 0080 a6c5 4618 0000 0080
00000630: 5fc8 8b1b 0000 0080 3d9f 8e15 0000 0080
00000640: 1f51 0708 0000 0000 c29b 3e0c 0000 0080
00000650: c01e 9600 0000 0080 d821 511a 0000 0000
00000660: dac9 2b1f 0000 0000 aa72 4405 0000 0000
00000670: 83db 690f 0000 0080 f1cb 5515 0000 0000
00000680: 56ce f515 0000 0000 01fa c117 0000 0080
00000690: c097 a118 0000 0080 8e06 f522 0000 0000
000006a0: 8020 5e1a 0000 0000 415a 1614 0000 0080
000006b0: c119 8b1a 0000 0080 7a6e dc1c 0000 0000
000006c0: e117 e111 0000 0080 3e72 570e 0000 0000
000006d0: 48bb 521d 0000 0000 7fc1 fe01 0000 0000
000006e0: de47 0d22 0000 0000 75fb 791c 0000 0000
000006f0: 3a4b c800 0000 0080 dfa0 a00d 0000 0080
00000700: a1a4 ae1c 0000 0000 8108 1f0c 0000 0080
00000710: b9b5 4604 0000 0080 5250 d805 0000 0000
00000720: 191c f300 0000 0080 eca7 4f19 0000 0000
00000730: 2dc5 2221 0000 0080 31f8 ef08 0000 0080
00000740: f0e5 3101 0000 0080 3a4f 6a04 0000 0000
00000750: fae6 a911 0000 0000 54de ca1e 0000 0000
00000760: e799 ee1c 0000 0080 3ec7 0012 0000 0080
00000770: 5252 0607 0000 0000 19c3 ef0a 0000 0080
00000780: fa1a 6b02 0000 0000 7295 9e22 0000 0000
00000790: a719 ed10 0000 0000 61f6 511a 0000 0080
000007a0: e74f 7a18 0000 0000 1ae9 380e 0000 0000
000007b0: eded 7b1d 0000 0000 907b 2307 0000 0000
000007c0: ee95 8d0f 0000 0000 281c e10d 0000 0080
000007d0: 3c2e 8315 0000 0000 df2e db18 0000 0080
000007e0: ce95 f90e 0000 0080 6ea0 6a03 0000 0000
000007f0: c0d1 061e 0000 0000 4ae7 c90c 0000 0000

bias_0 f8 [1, 64]
-0.11440856768245886 -0.40826708375008736 0.002979843935258329 -0.011445235267457958 -0.2721848788703052 -0.8540396764737775 0.014144419022709803 -0.7370371387903756
-0.6144360160915638 -0.08795562672469645 0.36263408327275165 -0.27255702665320175 -0.7735015891861163 -0.27526260096212496 -0.7737409020927862 -0.8490071871071263
0.21883814053565348 -0.5966177440299762 -0.4375557888345022 -0.006359583670643137 -0.4817755622664256 0.4359882886844964 -0.24708846933399814 -0.6848723272741409
0.4595575475236399 -0.11143186912787914 -0.12525120825724678 0.2909036446779614 0.48153809149536564 -0.1277084028765418 -0.01954037438803949 -0.31013776815115546
-0.6409224391998114 0.019091573498287877 -0.2936478717068645 -0.7884809147776045 -0.2714062197855399 -0.47875842524661993 -0.400576059471692 -0.033656425113160984
-0.15264883671294038 -0.21763466120884345 0.07033270096859681 -0.256589987906212 -0.770422596833425 -0.025573653789012267 0.047188114985697346 0.22736700937818513
-0.8445792112777338 -0.5356679385129693 -0.5552705495127138 0.28011243586588636 -0.21645587268222682 0.3683539545140015 -0.463390239161808 -0.8871538246805478
-0.7091994762913402 0.24336754261436502 -0.7044725638056132 -0.6997286033878455 -0.03358553948052927 0.022492926213636234 0.09581854684205762 -0.3232963858428399
00000000: 9e0f 9440 e149 bdbf d25a 2f43 0c21 dabf
00000010: 49c7 f887 2f69 683f a99d 5979 9970 87bf
00000020: f8ac 4d20 7a6b d1bf 171f fe03 4b54 ebbf
00000030: 03d8 fcc8 bff7 8c3f b058 e1e8 ce95 e7bf
00000040: 2621 53b8 75a9 e3bf 1621 488c 4284 b6bf
00000050: f791 0496 6535 d73f e74f f106 9371 d1bf
00000060: 30ab 9e67 86c0 e8bf 2e6e 3c07 e79d d1bf
00000070: 1f1d c247 7cc2 e8bf be35 d61e 112b ebbf
00000080: 2aea 5b60 e302 cc3f 364e 5a18 7e17 e3bf
00000090: 0e0f cefe e900 dcbf ecfb 1abe 810c 7abf
000000a0: 5690 fc2a 69d5 debf d9b0 556c 3be7 db3f
000000b0: 620d 814f 98a0 cfbf b37d f25e 79ea e5bf
000000c0: af9d 4f0f 6469 dd3f a6ea a289 cc86 bcbf
000000d0: 08eb 9f49 3b08 c0bf 8975 0b52 2a9e d23f
000000e0: f20d b024 85d1 de3f d7ba e3ba bf58 c0bf
000000f0: a8fb ca53 6402 94bf 54ac dd14 4cd9 d3bf
00000100: f857 74c6 6f82 e4bf 6ea1 37cf bd8c 933f
00000110: d957 6171 20cb d2bf dfad cf53 3c3b e9bf
00000120: 823b 7a31 b85e d1bf ac98 c760 faa3 debf
00000130: 3774 bfc4 09a3 d9bf da95 523a 6a3b a1bf
00000140: d02d ba40 ff89 c3bf 5c1b 2fdc 73db cbbf
00000150: 52dd 7fea 5201 b23f 2272 a269 f86b d0bf
00000160: 6df7 2f4a 4da7 e8bf 6ef2 a6da fa2f 9abf
00000170: d635 3f65 0a29 a83f 15fc bbb6 5c1a cd3f
00000180: 0b38 6afb ca06 ebbf e5b9 ad16 3124 e1bf
00000190: 89d9 52be c6c4 e1bf dfcc cfb5 5ced d13f
000001a0: 4241 1977 d3b4 cbbf a75a ff76 1c93 d73f
000001b0: ce13 9f88 2fa8 ddbf d3c6 f06a 9063 ecbf
000001c0: 4d5f a019 c3b1 e6bf fde1 37ea aa26 cf3f
000001d0: 232e cf0b 0a8b e6bf b50c 743d 2d64 e6bf
000001e0: 96f1 5fb3 1f32 a1bf 0d67 eab9 6208 973f
000001f0: 1271 0975 9087 b83f 270a 0753 e3b0 d4bf

weight_1 f8 [64, 32]
-6.454962468941493 0.6857953687395452 -10.025486662947332 -1.4891560953557896 -7.729551792429254 -3.4737769674261236 -3.7550666266424257 1.6278942699869583
-1.8768216132586124 -4.260892215507967 0.11632579258840763 0.037624122978332626 1.2136107223456731 1.0332364548933883 0.4163117044535829 0.6900983987586771
-2.264325892633098 -6.029989038997435 1.0621012207822231 -2.134984978756874 -1.5313691561470144 -1.574150100070088 -5.039171456658222 1.17875032080694
-5.283156285967202 1.1632067945748734 -0.13731369380962052 0.975475024256668 -1.9616731926594888 -5.912801256092948 -0.27586551119108443 -0.6203551774753181
0.31136382420934017 -3.001876571614946 -5.957181321055916 -3.7489241789230743 0.0500476572837758 -8.218245353332696 0.11996860931556201 -2.9735412535495214
-0.016283174880505374 0.1151659199137381 -0.575983423516708 -11.657085127828593 -3.4446131551451615 0.5982940697420406 -0.05733097280163613 0.17659272217504782
0.3128002061578068 -1.8233624873791014 -5.033855924700042 -4.706337544210347 0.48637038857714215 -2.040446046511143 -0.16379241285519167 -4.341159548574574
0.21026012714465617 -3.8434668186443486 -0.6920182582634605 -4.649917787087144 -1.6918864269390201 -2.108752358150044 -2.529424982477966 -0.1965097818393253
-5.389641477045694 0.14181671379966154 -7.444001896915498 1.3084816699947086 -5.697895060681924 -4.964300590603132 0.5596963766773165 0.7496000973289131
-0.2548995007707787 -0.04285312216919038 -3.6546071654661088 0.05391037779079531 0.7770876189839749 0.052519981923677204 -5.8675472413966006 -2.2528205564355397
-2.053533560735166 -1.5098169020570382 1.3941699022287557 0.8949682552055536 -0.6064444287872203 0.7608818330834299 -0.6921441898130319 -3.120687265727931
0.27302713753454844 -2.1873474186547814 -1.9605017812679169 -2.3093392661835006 -5.978124948532746 -3.3852044362291442 -5.360251002625301 0.1079101390911964
-6.054610376302445 -2.9301794833321 -9.922134025615541 -1.6806891333621925 -2.0838262128302016 -7.211456831082504 -3.258081629431967 -4.55479749365615
-0.47236113575359767 -1.6940784238733624 1.0793554199602522 -7.739311661189996 -3.7899762427023593 -5.611030588440348 0.7149545435535263 -0.15679881762135298
1.1865565933702678 -4.764287250137656 -1.1507928615984755 -0.33432567438169253 -3.910798938853 2.5212667535560245 -1.6025619438296979 -0.3686812568747168
-2.2374300154794993 -2.963167068013399 -3.3114034769886853 -1.7976334676324615 0.7948238239142867 -5.155494107327245 1.1513012295607716 -2.3732670924758907
-3.3842017131318776 -3.226870709246792 -8.482531352917889 -0.9356787406720732 -4.805389946659525 -8.943010538393565 1.1501014146060322 -3.5192883433324216
0.6759644167834213 -3.5960326713253554 5.240111846892298 -8.29221054969636 -4.226364573048758 -6.392130894260115 -0.029205366972119333 -1.2170019397380876
0.3393846567954934 -5.671257869340271 -1.8351236617667985 -1.6325867597703343 -3.5515440319223988 2.083303822333489 0.695171450066727 -1.7924840828144868
-3.0993495436316 -4.180739593993416 -7.266769127200561 -1.7891256346325066 0.6033298875481804 -2.7023273055273265 1.018938662600091 -4.033777511273291
-3.6023821867688954 5.929953295211764 -5.222777038259457 -0.9141888680669406 -5.552797622442404 2.6434093246659764 -1.202324794236646 -4.736853849778555
-0.03171052144047079 -3.337898290427069 -2.75736748380597 -4.822889393793325 2.128723100341254 5.78221955402065 2.5643170435637823 -1.4834452731508498
-3.1479444918960144 -5.7405654944406574 -2.0361658451961944 -0.026483925552874356 -0.5655186106885551 -1.2055712121378501 -0.0797281439429956 -3.1436538214979888
-4.248954201089395 6.076454367855013 -3.409941448200544 -2.329517180906972 -1.1763931669730114 -0.278556961424102 -3.2825644346843426 2.875414972579115
-5.109359918635518 0.36387595901542474 -10.325663435203637 -4.079350441345812 -6.018047155090253 -4.166497092607424 -4.054713665190137 -0.5477886401112141
-2.5455078951879666 -4.098230698796384 0.33304448101527795 -9.360165449651385 -0.1571330261869971 -0.15565898289761684 1.5673093477024687 -0.32054706836364744
0.1837941879377644 -7.395512403331641 -1.8042037791155119 -4.1233037658508325 -1.07809125713421 0.16568056627506092 -5.164136467336601 0.14914412217979642
-6.559145377051789 0.48126904417216976 -1.7679908354378353 -1.6266639496064617 0.25477512898533117 -5.501092311622905 0.5526634386880759 0.11223131603448383
4.019081030599199 -2.391306085003192 0.20539531505369907 -1.1336538581103537 5.019995833690534 -3.4336460520888203 -1.2389009677932816 -0.031935778754613946
-0.15501075625624477 -0.3334856578306777 -0.958055866163019 -5.525106159411533 -0.4462103481236126 5.7704438526927415 2.201378165103199 -1.5133825528984334e-128
4.254968449460591 -1.2264119849254478 -0.10839793481027024 -1.360722903662499 5.304713757254611 -1.64623480691752 -0.10867834120357217 1.2678523028051992e-64
-3.001462873409122 -2.3978974388462397 -1.7031202693167604 -0.002676743121510775 -1.2702786094713363 -8.116460795763862e-308 -0.5193451954025107 -2.8444092555418834
00000000: 650b 74ae e1d1 19c0 e781 0f21 09f2 e53f
00000010: 99af 7f96 0c0d 24c0 2513 8357 95d3 f7bf
00000020: 26e3 04a0 0feb 1ec0 cb8b 2594 4bca 0bc0
00000030: 93d7 1d5f 600a 0ec0 5709 afdc da0b fa3f
00000040: 7cf2 9519 7607 febf 028d 3554 270b 11c0
00000050: a336 d9f2 86c7 bd3f 111a 7713 7843 a33f
00000060: 2ccb a813 f36a f33f 54d5 ecf2 2288 f03f
00000070: 707d e4d8 d9a4 da3f 7418 b63c 4915 e63f
00000080: e5c2 c2e4 561d 02c0 08ee 5672 b51e 18c0
00000090: 39d2 84d9 5dfe f03f 3cb2 2901 7314 01c0
000000a0: 9d12 bcf1 7c80 f8bf 0dbd ec03 b82f f9bf
000000b0: 8e22 f58f 1c28 14c0 bc3e e04b 29dc f23f
000000c0: 388b afb8 f321 15c0 f5f1 52ba 7e9c f23f
000000d0: 8b46 1ac0 7e93 c1bf 07e9 e765 1737 ef3f
000000e0: 3d99 fe6d 0363 ffbf f0aa 5a5f b5a6 17c0
000000f0: ed3d 2ad1 c7a7 d1bf 0125 e519 f3d9 e3bf
00000100: 34be 8888 62ed d33f e6b7 2ddd d703 08c0
00000110: e41b 1957 27d4 17c0 1c44 bdf5 cbfd 0dc0
00000120: 5feb 8cb6 d89f a93f c322 deda bd6f 20c0
00000130: 9b93 8e45 43b6 be3f 936a 2aff cfc9 07c0
00000140: 28e7 585e 89ac 90bf b5ac a483 837b bd3f
00000150: 295b e1c9 746e e2bf 6f6c 3d76 6d50 27c0
00000160: 3dc2 8557 918e 0bc0 8fd9 dd9a 3925 e33f
00000170: 9137 763a 7c5a adbf 770a 3a1f 979a c63f
00000180: 444f e827 eb04 d43f 46be c024 7e2c fdbf
00000190: 3873 a520 ab22 14c0 1548 3126 4ad3 12c0
000001a0: f39f 2b44 b120 df3f 9124 7860 d552 00c0
000001b0: 9de2 4558 26f7 c4bf 3962 bfed 585d 11c0
000001c0: d59a dec8 cde9 ca3f 89b5 0a88 6bbf 0ec0
000001d0: 093f 6f79 0325 e6bf 0c83 620c 8499 12c0
000001e0: 7bfd 8380 f711 fbbf 44f0 6c8e b9de 00c0
000001f0: 086d 4b2a 433c 04c0 1708 2c87 3b27 c9bf
00000200: 394e e42c fe8e 15c0 c0da e5d1 0c27 c23f
00000210: c474 ea6e a8c6 1dc0 0eaf c079 8aef f43f
00000220: daac b600 a5ca 16c0 a29d 309d 71db 13c0
00000230: c799 3060 08e9 e13f 2965 e357 b9fc e73f
00000240: 32f1 e4fe 4550 d0bf 840f 7f2c d8f0 a5bf
00000250: cc3b 7bae a23c 0dc0 8d8d 0d1b 249a ab3f
00000260: af34 b5da e6dd e83f 3b56 7f29 e6e3 aa3f
00000270: 3822 d64d 5e78 17c0 652d adc8 c605 02c0
00000280: 8bc4 e400 a36d 00c0 3a87 94c4 3528 f8bf
00000290: 893d 7219 854e f63f f41c 6277 94a3 ec3f
000002a0: bd70 8f25 fe67 e3bf f6d7 a6db 2459 e83f
000002b0: e1a0 6b92 0b26 e6bf d1c2 9ae2 2af7 08c0
000002c0: 8668 a8d0 4679 d13f 01e6 e000 b07f 01c0
000002d0: 28ba a41d 375e ffbf a203 7ddd 8679 02c0
000002e0: 3966 2596 99e9 17c0 be06 3f10 e614 0bc0
000002f0: ec81 8aa3 e570 15c0 28b2 4db6 ff9f bb3f
00000300: 0bf7 50c8 eb37 18c0 8792 e2f0 0171 07c0
00000310: 5c18 75f3 21d8 23c0 fc87 e849 1ae4 fabf
00000320: dc39 d513 adab 00c0 840f b823 88d8 1cc0
00000330: 99de f019 8d10 0ac0 ad9f 8cd5 1c38 12c0
00000340: bba3 7d33 2a3b debf 3853 36fa f11a fbbf
00000350: 85d5 5730 0a45 f13f 2a73 b91d 0ef5 1ec0
00000360: 5130 7810 df51 0ec0 e6d3 a800 b271 16c0
00000370: 500c d659 e8e0 e63f 5d1a ded0 fb11 c4bf
00000380: 370e 36c4 22fc f23f 305d 2051 a10e 13c0
00000390: 4192 90c6 a569 f2bf 51ae 6b83 9765 d5bf
000003a0: 53d7 3cf4 5049 0fc0 2a1f 58e7 8d2b 0440
000003b0: fd00 29fe 17a4 f9bf 9334 3b45 7998 d7bf
000003c0: f695 3cb5 41e6 01c0 329d 8def 90b4 07c0
000003d0: 7c37 2c1b c17d 0ac0 eed2 9a4f 1bc3 fcbf
000003e0: 8d64 395f 326f e93f d2c3 e6d8 399f 14c0
000003f0: fded 8cd6 ba6b f23f 0ddb 1675 73fc 02c0
00000400: abbf 0759 d812 0bc0 1615 2597 a1d0 09c0
00000410: 6827 7859 0ef7 20c0 f8f7 d78a 14f1 edbf
00000420: 29b8 6524 b838 13c0 105e fc46 d2e2 21c0
00000430: 570f adbd d066 f23f 4474 9ea5 8027 0cc0
00000440: 3606 eb20 80a1 e53f f484 f5c6 acc4 0cc0
00000450: 6923 47e1 dff5 1440 eefb 049f 9c95 20c0
00000460: a3de 581d cce7 10c0 ca64 dac2 8a91 19c0
00000470: ce3d 0d00 03e8 9dbf 967f a506 d778 f3bf
00000480: 5fda 6c6c 7ab8 d53f 15ff 0f39 5eaf 16c0
00000490: 7677 f6a0 aa5c fdbf 038a 514b 131f fabf
000004a0: 1449 dbea 8f69 0cc0 dc6e c431 9baa 0040
000004b0: 9ec8 6432 d83e e63f d49e 24ca 03ae fcbf
000004c0: 7729 06c6 77cb 08c0 192d d5cc 13b9 10c0
000004d0: b0a2 13ed 2b11 1dc0 e7e8 9233 42a0 fcbf
000004e0: 5900 f77a 7a4e e33f 109f 42c7 5d9e 05c0
000004f0: 39f5 87a0 924d f03f 4609 6992 9622 10c0
00000500: 47ec 7ec0 add1 0cc0 c4f7 36ad 45b8 1740
00000510: 167f f6a9 1fe4 14c0 62df 5603 0941 edbf
00000520: 67c9 7694 1036 16c0 f50d bbc9 b325 0540
00000530: 43a9 66ec b83c f3bf 20ec cad0 89f2 12c0
00000540: 8c46 0d89 5c3c a0bf 8e11 d604 04b4 0ac0
00000550: ec00 f0ae 160f 06c0 3845 6a84 a34a 13c0
00000560: afa4 11fa 9f07 0140 d93d ab29 fe20 1740
00000570: 6f74 75a7 b883 0440 436b 591c 31bc f7bf
00000580: a488 9285 fd2e 09c0 beac 0ccd 56f6 16c0
00000590: 80cc 9251 114a 00c0 3a28 7a28 9a1e 9bbf
000005a0: 73f9 457c ba18 e2bf 2b19 120a 054a f3bf
000005b0: 8452 ce4a 1069 b4bf f93b 8af9 3326 09c0
000005c0: e685 9fd9 edfe 10c0 674b c60d 4a4e 1840
000005d0: a65e ca61 8f47 0bc0 78b9 5be7 d9a2 02c0
000005e0: f430 36a4 81d2 f2bf 0ef0 d893 e0d3 d1bf
000005f0: 18db 6f24 b142 0ac0 903f ad90 d900 0740
00000600: 8f21 e80b fc6f 14c0 9366 f163 be49 d73f
00000610: c067 975b bda6 24c0 8303 fa3d 4151 10c0
00000620: 0a98 13f4 7a12 18c0 0a83 be36 7eaa 10c0
00000630: 328b eadb 0638 10c0 3dbc cc0a 7c87 e1bf
00000640: 3f56 4c3e 335d 04c0 bf2c 9b96 9664 10c0
00000650: f8ba 84cc 9950 d53f bdcd 169b 67b8 22c0
00000660: f41d 4c5c ef1c c4bf 8ddb 6f30 a2ec c3bf
00000670: 1d8e 71f7 b213 f93f aed5 dcd9 d783 d4bf
00000680: 159c 3165 9186 c73f 15e3 1534 0195 1dc0
00000690: 84ee 29c8 04de fcbf 3d36 a757 437e 10c0
000006a0: 5aeb 379e dc3f f1bf 89f8 dd52 0535 c53f
000006b0: ac2a dd63 13a8 14c0 b790 9393 2717 c33f
000006c0: 8d96 109b 903c 1ac0 4afc 52ad 1ccd de3f
000006d0: df54 1dc2 b049 fcbf 6845 12c7 d006 fabf
000006e0: 1ee0 b457 3c4e d03f 28ca ca57 1e01 16c0
000006f0: a786 5b3c 6baf e13f 9c84 f407 31bb bc3f
00000700: 1397 49fa 8913 1040 1c84 ae15 6521 03c0
00000710: e620 74c8 644a ca3f 5217 593a 7223 f2bf
00000720: 4507 afc9 7914 1440 8516 de6b 1b78 0bc0
00000730: 727a 3ad2 89d2 f3bf 3f8f a5ea e259 a0bf
00000740: d60b 5378 64d7 c3bf f356 843a d457 d5bf
00000750: e427 9dc6 64a8 eebf 1d67 d66d b519 16c0
00000760: e4f8 14d9 b58e dcbf d6e0 ba3b ef14 1740
00000770: 4df9 c927 6c9c 0140 ea4d 1e4e 05fb 64a5
00000780: c0c7 ff72 1605 1140 fdd5 6a2c 629f f3bf
00000790: 06cc f690 f7bf bbbf a260 2261 85c5 f5bf
000007a0: 0833 18e2 0638 1540 44f6 134f fa56 fabf
000007b0: 34bc 4001 58d2 bbbf 4bef f4ff 3eb4 aa32
000007c0: 5a9a 8bf7 fe02 08c0 d80d 38da e42e 03c0
000007d0: 55ec 1d0a fb3f fbbf ee74 5585 89ed 65bf
000007e0: cecd c7a9 0f53 f4bf 420e 3a36 8b2e 2d80
000007f0: 19d5 b2d0 799e e0bf d0ef c7a3 59c1 06c0

bias_1 f8 [1, 32]
-1.8928149747215213 -2.1919582636559207 0.08802256676046272 -2.7501763538651622 0.09443795632903265 0.09453827614452684 -3.291905352330118 -1.5731240637628081
-3.3326804518991695 -3.2180012286865645 -2.996335573966923 0.09460031077006568 -2.4955650550552866 -1.7590164229443939 -2.931657622930057 -2.206598459336955
-3.0728460425706166 -2.730206911213413 -2.3372679445616433 -2.9028680645038385 -2.1247602420992004 -3.025578014082733 -2.3951641675388737 -3.0178396529568796
-2.5141911237233616 -2.775250085960519 -2.750006731122882 -2.313652824819063 -2.9829829536352626 -1.6243690313498154 -3.8860340962786313 -2.776801855240932
00000000: 92ed dc5a f848 febf 02cb 046a 2189 01c0
00000010: 68d1 8b9d a588 b63f cbaa d075 5c00 06c0
00000020: 6a2c effd 152d b83f 42ce 4214 a933 b83f
00000030: 1e48 2e79 d255 0ac0 0f97 6623 842b f9bf
00000040: 4a67 675e 54a9 0ac0 a992 9d6d 77be 09c0
00000050: 0e3c 10c9 7ef8 07c0 0fe9 f2d8 b937 b83f
00000060: ee05 c4cf eaf6 03c0 ebc4 9a67 ee24 fcbf
00000070: f76d 6ce9 0874 07c0 b70c d217 1da7 01c0
00000080: dede 534e 3095 08c0 5ccc 97b8 76d7 05c0
00000090: 1b0d 3f89 b9b2 02c0 a82c 4de4 1239 07c0
000000a0: c241 3d4c 82ff 00c0 11db ef3e 6234 08c0
000000b0: 520b c1d4 4b29 03c0 9f2c b01d 8924 08c0
000000c0: 5a48 623c 101d 04c0 795f 2b51 b633 06c0
000000d0: 049f 6f87 0300 06c0 ca2a 8769 5c82 02c0
000000e0: 8b1c b32a 26dd 07c0 c285 a461 6afd f9bf
000000f0: d742 550b 9916 0fc0 feda 1de4 e336 06c0

weight_2 f8 [32, 10]
5.571619406478073 -5.228397824976358 -5.1541831962898526 -1.434072954399442 -1.6694498467886634 -3.8236534465372105 -4.1940743877626785 -1.896121278758906
-4.4164125248397985 5.672835483997723 -7.0384986347791605 -5.092136148549849 -1.0463946480791053 -2.9982179869405026 -1.3848183359115236 -0.795247065729539
6.609496320257673 -3.2884086065534492 -0.3065896768224763 -4.0009550263297085 -3.1121724376002518 -13.98071761375239 -8.479245354683428 -5.927923794443917
0.4918542729333449 -7.271266418618707 -11.388071128708905 -2.992538163561345 4.2605363242983305 6.497223511325274 -8.667057472211978 -1.2515312808931147
-15.37013726333746 0.1476584301532188 -2.4588882376540324 -4.264822325698538 -10.82679036149543 8.204248621142694 -11.675048983818703 3.90738021856903
5.403154673807986 -9.210383516783823 1.660666105458466 -1.7520208190151905 -5.604107698276338 -0.7711833105387341 -5.400115624346632 -6.432993502466893
5.271791752228908 -9.939640831247894 -2.6855541588099667 -7.15499151910994 -0.9833379295894922 -4.182091790641439 -4.137100047079995 -2.0569383089770907
4.055300370766576 -10.100171101276999 7.5435207609292405 -8.988910281477185 -1.787083850689613 -5.605435515288802 -6.284352687866093 6.491228320274345
-7.528008201663016 1.8981591942503526 -5.729231523933817 -4.773798295679437 -8.63425061694396 -8.604601272308024 -6.072136741203759 3.92016415803947
-1.3148619526763485 -4.8148777371643945 3.7954727620579964 -2.708713549824564 -1.4096514598756253 -5.004820110306985 0.44364183903751675 -2.400303910878191
-2.439174731405529 -3.550686008119075 -4.5388764502200205 8.862893671625722 -4.086508438937604 -1.63683131498585 -2.7560267425064557 -5.341433107604565
-1.603594845185081 -3.876947844114128 -1.563084292555022 -2.6655952038604354 -2.7453819677995823 -5.832922617851719 -5.503170680389992 6.66084322003945
-3.608006880972943 3.8929841654974062 -1.9845798390638298 -5.914438280163282 -6.623464313699412 3.7919923459570497 3.9937567634362456 4.095769681399143
-8.932191305200945 -2.1949847221564185 -7.0109964331016865 -9.343031888096226 -6.75384959166953 -10.929946850191477 -8.609320394038948 6.88744110725973
-3.399186611891679 -4.441978103108813 -4.710144909653153 -2.5108759645244016 -4.913310383706924 -3.778297707692919 6.839081174217849 -9.110313999117492
-4.740894264148365 7.77894766306543 -2.06100587259134 -3.9792159856903813 -2.250768066225657 -1.1902006138366117 2.3613247959820733 -5.793366882202733
-4.121580911666184 -3.30699473146829 5.470638383339092 2.8443045283250856 -7.460837134442379 -1.794576478598425 -2.9965630133611563 -2.1748327091713526
5.375023765829705 -4.265872713228303 -4.478371321700014 -3.5429261046406513 3.3558122150465293 -8.693225961761641 3.5798630492346524 -10.898065957460148
3.6835931509403625 -4.815295607575963 3.6192961716824468 -10.244621408970517 -8.893266335551123 -8.954689944233973 -1.1324895783023612 -3.365291966965424
-2.6806639480045082 -1.6959888063153803 6.381740660712633 -2.4652388423427194 -1.075488148799109 -1.3029076614587591 -1.0131954571176136 -3.7458208800070167
4.167973489802184 -5.156696920693736 3.999480617734338 -6.5864830393790905 -5.495887641250913 -1.8910298934212126 -5.423374231424804 3.3402482555101054
-4.561625020044938 -4.582649080461415 -4.951277805524537 0.23718433030793876 -5.749927375159509 -3.570224643756351 -4.172910003164546 4.14403929812541
-0.7065284224330233 -4.017367455565822 1.0900653079457503 0.2539586683062415 -4.312449515600766 7.600210474808954 -3.7100844594642126 -5.665688580844501
-5.999292111884795 -1.9766876995485154 -3.423164409553846 5.318298553341004 -4.215857355455741 -6.274863840132553 -4.177974777159336 -8.147480489143813
-7.891469121333497 -5.167715476483701 -6.944735176214097 -3.320894101123923 -6.399689197123685 11.249340040740591 -4.9166229571722395 1.711081135476832
7.217757368794426 -5.702820558288284 -8.55088047305634 -2.288638191921107 -4.336134961705833 -0.5399641423220287 -1.332494969486642 3.932071144213107
-4.050675839848624 -1.3243094759415448 -14.174016449886585 -15.142197310770152 6.175489298798673 5.868835549169278 -12.361999600345145 -10.594001128239245
-16.114649345020915 6.178069055726458 -14.295113446391648 -22.289397754928384 -3.8790429031715643 -5.349568575652496 -6.976817400137724 8.0448251884913
-2.0901871633435087 -1.5777568656742902 -5.025631830874927 -5.124225819673099 -0.12037911053325064 0.6449339638838298 -3.465437249744589 -5.774783702446464
-1.0752368390020273 -5.154277445733539 6.524651280668612 -5.862100194435355 -0.6709294397928833 1.7765512818075746 -4.3964136160397045 -7.586173696810237
-3.4452782023138924 -8.635547804807487 -6.028439066180206 2.610537712843173 -7.898417030179491 4.536057699499917 -3.5051066157682524 -5.467558385214631
-0.1093307086614615 -11.805635642000988 -6.925482218835648 -2.56080598803632 0.2379613781367075 -2.9886850717259636 1.415033438219858 -2.39445706717179
00000000: 3a54 0299 5649 1640 0301 931e e1e9 14c0
00000010: 73a1 2633 e29d 14c0 4994 737b f6f1 f6bf
00000020: f44f e40a 11b6 fabf 87eb 409e d796 0ec0
00000030: 4bba b16f bbc6 10c0 a54e 1844 8356 febf
00000040: af53 7f0b 68aa 11c0 286f fdc8 fbb0 1640
00000050: c144 a52f 6c27 1cc0 3934 43f0 585e 14c0
00000060: d458 8350 08be f0bf df81 41b6 59fc 07c0
00000070: 1842 7a45 3728 f6bf f08b 71f9 a972 e9bf
00000080: fc27 aacd 1f70 1a40 8741 e82b a94e 0ac0
00000090: 8499 cf4e 2a9f d3bf 6369 bb5a fa00 10c0
000000a0: a30b b8a9 bae5 08c0 f85a 7b9e 20f6 2bc0
000000b0: 2040 aaa5 5ff5 20c0 7444 b9a7 31b6 17c0
000000c0: 7961 2958 8a7a df3f aee1 31dd c615 1dc0
000000d0: 32a7 4c42 b1c6 26c0 1739 44d9 b7f0 07c0
000000e0: 2220 c108 ca0a 1140 00c7 ff28 28fd 1940
000000f0: df67 978e 8855 21c0 efb5 15aa 4506 f4bf
00000100: 7321 a2a1 82bd 2ec0 a54e 3eb0 78e6 c23f
00000110: f6f1 a998 cdab 03c0 e780 7095 2d0f 11c0
00000120: b28a f610 51a7 25c0 371f 7846 9368 2040
00000130: 1366 3905 a059 27c0 9d54 5e8f 5042 0f40
00000140: 7cf0 2c94 d49c 1540 7168 6863 b76b 22c0
00000150: 1851 489f 1692 fa3f 534d 79fb 4608 fcbf
00000160: 516f 5d35 9b6a 16c0 1984 3f9f 88ad e8bf
00000170: e7bf 04e9 b799 15c0 38e7 11a6 62bb 19c0
00000180: 3195 bc93 5016 1540 5564 609a 18e1 23c0
00000190: 06ce 9dd1 037c 05c0 2ef0 c618 b69e 1cc0
000001a0: 601a 101b 8177 efbf 43b3 3645 76ba 10c0
000001b0: 5ef4 69f4 638c 10c0 b691 7712 9c74 00c0
000001c0: b298 0fa9 a038 1040 60fa 67a0 4933 24c0
000001d0: 708d d3b4 902c 1e40 ce3e cb72 52fa 21c0
000001e0: 04bf 5e3c e597 fcbf 5e02 a849 f76b 16c0
000001f0: 84a8 db59 2d23 19c0 10ca 898e 04f7 1940
00000200: 53a6 982e ae1c 1ec0 f982 de2c dc5e fe3f
00000210: 2d08 2aab bbea 16c0 2b93 9694 5e18 13c0
00000220: f97b 327f bc44 21c0 ac5d 474c 8e35 21c0
00000230: 9b3d c136 de49 18c0 e2d8 ad06 7f5c 0f40
00000240: 6efe d7af ac09 f5bf 3070 3d4f 6f42 13c0
00000250: de2e cfd2 205d 0e40 1cd4 7502 72ab 05c0
00000260: 9eca 6eb0 ee8d f6bf c686 2090 ef04 14c0
00000270: 686b 73bd a064 dc3f 3b76 6d89 d233 03c0
00000280: 3fee a40a 6e83 03c0 c6e3 d910 ce67 0cc0
00000290: 451e 693a cf27 12c0 9d1d 0733 cdb9 2140
000002a0: 9542 10ab 9558 10c0 29ed 6e08 7630 fabf
000002b0: aebb afbf 570c 06c0 a7bb fba3 a05d 15c0
000002c0: 6baa 8111 53a8 f9bf a124 363b fd03 0fc0
000002d0: 50a4 d6ac 6402 f9bf e3a3 0794 2353 05c0
000002e0: 93d1 35d2 8af6 05c0 5d16 afaa e954 17c0
000002f0: 0853 c22c 3f03 16c0 3c69 c715 b4a4 1a40
00000300: 8e2c 2cb6 32dd 0cc0 f841 d5e1 d424 0f40
00000310: 0f48 11ca d6c0 ffbf 110c 2e82 62a8 17c0
00000320: 8c3f d66d 6d7e 1ac0 f38a 4415 0056 0e40
00000330: 9119 f9be 36f3 0f40 0b3b 8672 1162 1040
00000340: 40e8 c22d 48dd 21c0 3d0d 6726 548f 01c0
00000350: 762d 22a6 420b 1cc0 83b7 29e0 a1af 22c0
00000360: 5a4b b925 f103 1bc0 642e 59fe 21dc 25c0
00000370: c15d bad7 f837 21c0 ed39 935c bd8c 1b40
00000380: 409b 18c0 8831 0bc0 149a 69e8 95c4 11c0
00000390: 5186 293a 30d7 12c0 df8e 3f23 4616 04c0
000003a0: 4b79 54d6 3aa7 13c0 2bbe 0826 f439 0ec0
000003b0: dcd1 6718 385b 1b40 4f00 9513 7b38 22c0
000003c0: af3e 69fc acf6 12c0 87a5 c874 a41d 1f40
000003d0: 6526 9da5 f07c 00c0 b115 d230 6fd5 0fc0
000003e0: 1890 1ab0 9201 02c0 ccb7 81cc 0f0b f3bf
000003f0: a5d0 2f41 fee3 0240 3029 335e 682c 17c0
00000400: 4eb2 ddb4 7f7c 10c0 d89a 5da7 b974 0ac0
00000410: 1fbc 4207 efe1 1540 e72a 88bb 22c1 0640
00000420: 78d9 94b0 e5d7 1dc0 6c04 5cd3 95b6 fcbf
00000430: a550 7607 f6f8 07c0 db4b 01b1 0e66 01c0
00000440: 6bd8 e53a 0680 1540 7edb c0ef 4010 11c0
00000450: f52e f82b dae9 11c0 349c 3ca4 e957 0cc0
00000460: 2623 1913 b4d8 0a40 4002 6583 ee62 21c0
00000470: 2ef9 043d 8fa3 0c40 70e2 194d cfcb 25c0
00000480: b477 98af ff77 0d40 e171 0cda dc42 13c0
00000490: 1950 1f8d 51f4 0c40 10dc 6e04 3f7d 24c0
000004a0: a39e 8334 5ac9 21c0 269c d01e cde8 21c0
000004b0: 5ce9 5d64 ad1e f2bf 34dd dc31 1eec 0ac0
000004c0: 01f7 a1f0 ff71 05c0 2f1b 9828 c522 fbbf
000004d0: bb41 1506 e786 1940 ec86 6524 cfb8 03c0
000004e0: 7c3e a50f 3335 f1bf 78c5 3ab4 b5d8 f4bf
000004f0: 2c6a 8c70 0c36 f0bf c06e 02f0 70f7 0dc0
00000500: 752e 153e 01ac 1040 d30d 5728 75a0 14c0
00000510: 273d b1b1 effe 0f40 e12a 8702 8f58 1ac0
00000520: 2ba7 46f8 c9fb 15c0 220a c08f a841 febf
00000530: 32c1 b703 89b1 15c0 e27e cf13 d4b8 0a40
00000540: 5bd5 16a1 1a3f 12c0 4881 e6f5 a154 12c0
00000550: dc8d e0c4 1bce 13c0 cdeb e55e 0e5c ce3f
00000560: a9bd 3af6 ecff 16c0 4874 22f0 d18f 0cc0
00000570: d0f8 e251 0fb1 10c0 5426 ab09 7f93 1040
00000580: f86a 817e e19b e6bf 04ae 36c6 c811 10c0
00000590: 4219 0252 e870 f13f 224e badb db40 d03f
000005a0: 15a0 0cc4 f23f 11c0 9815 2093 9d66 1e40
000005b0: 805f d6c2 40ae 0dc0 ee30 7044 aaa9 16c0
000005c0: acc8 6e6e 46ff 17c0 2976 ff47 83a0 ffbf
000005d0: 5aeb 9e05 a462 0bc0 dada 530e f045 1540
000005e0: 4222 e9b5 09dd 10c0 9fe3 10e8 7519 19c0
000005f0: 21a6 1d05 3fb6 10c0 6e57 0b90 824b 20c0
00000600: bc15 0648 dd90 1fc0 491f 1a9b bdab 14c0
00000610: a2e1 74a8 68c7 1bc0 d973 2eed 3091 0ac0
00000620: c8d7 f81f 4899 19c0 d820 717f a97f 2640
00000630: 3345 5f35 9faa 13c0 02cf da9c 9660 fb3f
00000640: 83bd a5c9 fbde 1c40 f437 4331 b0cf 16c0
00000650: 6190 5f01 0d1a 21c0 fc6b 558a 214f 02c0
00000660: 6a46 6ec3 3358 11c0 4c25 89e1 6247 e1bf
00000670: 6d79 c03e e651 f5bf 5686 4fb7 e174 0f40
00000680: 8163 0b5e e433 10c0 b63a 0f22 5f30 f5bf
00000690: 3375 22af 1859 2cc0 85ac fe15 ce48 2ec0
000006a0: 978d 7c77 b3b3 1840 1223 b506 b079 1740
000006b0: 814b f902 58b9 28c0 3a26 77ea 2030 25c0
000006c0: 665f d3a8 591d 30c0 5519 0bbc 57b6 1840
000006d0: 55b9 111c 1997 2cc0 07f4 a4f8 154a 36c0
000006e0: dc38 47a5 4708 0fc0 0e8c 004e f565 15c0
000006f0: 6605 0fd2 42e8 1bc0 df36 bd53 f316 2040
00000700: 92a2 280c b4b8 00c0 c7c4 b1fb 7d3e f9bf
00000710: ae60 0d3b 3f1a 14c0 4f42 a30d 357f 14c0
00000720: 35a4 dc56 2ad1 bebf 02be 5e8d 4ca3 e43f
00000730: 10f2 2f2a 37b9 0bc0 e9ec 1de6 6019 17c0
00000740: 707d 2f8b 2b34 f1bf 6ebe 1fe8 fa9d 14c0
00000750: d61a 712f 3e19 1a40 7ee6 b364 ca72 17c0
00000760: 6ab0 3a04 4178 e5bf 927c 7009 c16c fc3f
00000770: 8b51 7273 ed95 11c0 324d e6ea 3d58 1ec0
00000780: 8d7a a404 ee8f 0bc0 b062 9985 6645 21c0
00000790: e9b0 6c21 1f1d 18c0 aa16 ad98 61e2 0440
000007a0: 5429 4ba2 fa97 1fc0 0c7c 404f ec24 1240
000007b0: 39be 5d56 750a 0cc0 a1de 15a0 c7de 15c0
000007c0: 6444 26ea 18fd bbbf bdc5 5d46 7c9c 27c0
000007d0: e9b6 5b9c b1b3 1bc0 bd22 90d9 877c 04c0
000007e0: ad74 67b8 8475 ce3f f7d9 08b8 d3e8 07c0
000007f0: 6069 3e1a faa3 f63f 6a6e 591b d927 03c0

bias_2 f8 [1, 10]
-0.8539354148756158 -0.33061945152195155 -0.3544981422925906 0.30727493268357564 -0.2063924693928046 -0.19179117795026232 -0.5165601338747732 -0.16106686990522553
0.6007461406013611 0.8961557461974531
00000000: ca2e f95c 7053 ebbf cb53 ed7c de28 d5bf
00000010: 70ec e8f9 18b0 d6bf 766b b07a 64aa d33f
00000020: 3a65 1785 116b cabf af95 7a02 9d8c c8bf
00000030: e41a 2d1e a987 e0bf cf23 5bd5 d69d c4bf
00000040: 1398 62f8 4f39 e33f 154c c1d0 4ead ec3f

loss_history f4 [155]
0.6367192 0.30673063 0.2487131 0.21908405 0.20082973 0.18924364 0.17680217 0.17230661
0.16500407 0.16182089 0.1621692 0.15474737 0.15679802 0.14726461 0.15023124 0.15676741
0.15037557 0.15161398 0.14657785 0.14426495 0.14934312 0.14809872 0.15182921 0.15125729
0.14523664 0.14636412 0.1394716 0.14958648 0.14660677 0.14697716 0.15264823 0.15043992
0.1499175 0.16153766 0.15496822 0.16588306 0.15783916 0.16066217 0.15482725 0.16166386
0.15951027 0.16913573 0.163837 0.162611 0.1702471 0.16872391 0.1622853 0.17497803
0.17850015 0.17333901 0.17564668 0.16897558 0.17684278 0.17806928 0.17310137 0.18889348
0.18458079 0.17535852 0.18116581 0.18484451 0.17523727 0.18730083 0.18419683 0.1995371
0.18760076 0.18539658 0.19140017 0.20199788 0.19007146 0.20135131 0.18608376 0.20155719
0.20862144 0.19771054 0.2063975 0.20185982 0.21155111 0.20178829 0.20825227 0.22018082
0.21325047 0.22257282 0.2064781 0.21740147 0.21880513 0.22823915 0.22826017 0.22781684
0.22046597 0.23145746 0.22768717 0.23162632 0.22098394 0.23471138 0.2300664 0.23721294
0.21783534 0.2422131 0.23613465 0.2417246 0.24503978 0.23074666 0.24191271 0.24725688
0.24191555 0.25065416 0.25101915 0.24209595 0.24523652 0.25526544 0.2509567 0.24547338
0.25682887 0.27548623 0.2776896 0.26910087 0.27399477 0.28019786 0.26611027 0.26727396
0.26186773 0.26122496 0.25999594 0.28280184 0.28044006 0.27158853 0.2917723 0.2587206
0.26878095 0.28507704 0.2688446 0.29280138 0.29842466 0.28896222 0.2780489 0.29831725
0.30370265 0.29425377 0.30573496 0.29115087 0.31023192 0.2970289 0.29059094 0.30517995
0.3040453 0.30019656 0.30708802 0.29886866 0.3205479 0.32228577 0.29811594 0.3071187
0.30143812 0.3251125 0.33455032
00000000: 0800 233f cc0b 9d3e a6ae 7e3e 9257 603e
00000010: 4fa6 4d3e 16c9 413e a10b 353e 2571 303e
00000020: d4f6 283e 60b4 253e af0f 263e 1876 1e3e
00000030: a98f 203e 89cc 163e 38d6 193e a387 203e
00000040: 0efc 193e b240 1b3e 8118 163e 31ba 133e
00000050: 67ed 183e 31a7 173e 1e79 1b3e 31e3 1a3e
00000060: eab8 143e 7ae0 153e a5d1 0e3e 332d 193e
00000070: 1620 163e 2e81 163e d14f 1c3e ec0c 1a3e
00000080: f983 193e 216a 253e fdaf 1e3e 40dd 293e
00000090: 97a0 213e a084 243e 098b 1e3e 368b 253e
000000a0: a956 233e eb31 2d3e e3c4 273e 7f83 263e
000000b0: 4155 2e3e f6c5 2c3e 1e2e 263e 712d 333e
000000c0: bec8 363e c87f 313e b9dc 333e ef07 2d3e
000000d0: 4616 353e cb57 363e 7c41 313e 4b6d 413e
000000e0: bf02 3d3e 2f91 333e 8883 393e e147 3d3e
000000f0: 6671 333e cacb 3f3e 189e 3c3e 7453 4c3e
00000100: 6a1a 403e 9ad8 3d3e 68fe 433e 88d8 4e3e
00000110: 18a2 423e 0a2f 4e3e be8c 3e3e 0265 4e3e
00000120: dca0 553e a274 4a3e de59 533e 57b4 4e3e
00000130: dba0 583e 97a1 4e3e 1540 553e 1577 613e
00000140: 555e 5a3e 21ea 633e ff6e 533e 7e9e 5e3e
00000150: 740e 603e 86b7 693e 09bd 693e d148 693e
00000160: d5c1 613e 2f03 6d3e d326 693e 732f 6d3e
00000170: 9d49 623e 2e58 703e 8796 6b3e f3e7 723e
00000180: 3a10 5f3e b606 783e 48cd 713e a786 773e
00000190: b5eb 7a3e da48 6c3e f7b7 773e e830 7d3e
000001a0: b6b8 773e be55 803e 9585 803e 00e8 773e
000001b0: 481f 7b3e 27b2 823e 667d 803e 605d 7b3e
000001c0: 137f 833e 880c 8d3e 552d 8e3e 97c7 893e
000001d0: 0b49 8c3e 1876 8f3e 9b3f 883e 22d8 883e
000001e0: 8713 863e 47bf 853e 301e 853e 67cb 903e
000001f0: d795 8f3e a70d 8b3e 2e63 953e 0777 843e
00000200: a89d 893e 9ef5 913e 00a6 893e 10ea 953e
00000210: 1ecb 983e dbf2 933e 6d5c 8e3e 0abd 983e
00000220: ea7e 9b3e 6ea8 963e 4b89 9c3e ba11 953e
00000230: b8d6 9e3e 2c14 983e 56c8 943e 8c40 9c3e
00000240: d3ab 9b3e 5db3 993e a43a 9d3e 5005 993e
00000250: db1e a43e a402 a53e a7a2 983e aa3e 9d3e
00000260: 1956 9a3e 2575 a63e 2e4a ab3e

accuracy_history f4 [155]
80.32333 91.06834 92.84167 93.67167 94.166664 94.545 94.95333 95.055
95.26667 95.46333 95.385 95.555 95.65 95.905 95.82667 95.76667
95.86 95.86 95.95333 96.026665 95.88333 95.96 95.775 95.97667
96.08 95.988335 96.17 95.94666 96.111664 95.971664 95.955 96.03333
95.975 95.871666 95.96 95.75667 95.925 95.878334 95.92167 95.878334
95.79 95.7 95.74167 95.80167 95.72 95.67167 95.746666 95.59333
95.53333 95.62334 95.55666 95.596664 95.505 95.55334 95.62666 95.38167
95.44833 95.65 95.45 95.455 95.48333 95.43166 95.32333 95.253334
95.23167 95.59333 95.39167 94.95167 95.21333 95.02167 95.42 95.235
94.95 95.10833 94.96167 95.07166 94.958336 94.92834 94.903336 94.64
94.89833 94.67167 94.85 94.67834 94.70333 94.48333 94.33 94.525
94.48 94.42333 94.47667 94.56167 94.583336 94.17667 94.35 94.348335
94.555 93.83833 94.335 93.96667 94.058334 94.2 93.833336 94.05167
93.88167 93.816666 93.71333 94.026665 93.89 93.72667 93.68166 93.92667
93.636665 92.94 93.305 93.325 93.471664 93.14333 93.34167 93.503334
93.785 93.4 93.57833 92.83 93.025 93.386665 93.08833 93.35
93.21167 92.665 93.055 92.59 92.55666 92.66 93.03833 92.738335
92.11 92.49167 92.385 92.683334 92.098335 92.61 92.75166 92.30334
92.276665 92.56 92.513336 92.155 91.67834 91.805 92.363335 92.21833
92.28833 91.69833 91.708336
00000000: 8ca5 a042 fd22 b642 efae b942 e557 bb42
00000010: 5555 bc42 0a17 bd42 1be8 bd42 291c be42
00000020: 8988 be42 3aed be42 1fc5 be42 291c bf42
00000030: cd4c bf42 5ccf bf42 41a7 bf42 8988 bf42
00000040: 52b8 bf42 52b8 bf42 1be8 bf42 a70d c042
00000050: 44c4 bf42 85eb bf42 cd8c bf42 0ef4 bf42
00000060: f628 c042 07fa bf42 0a57 c042 b1e4 bf42
00000070: 2c39 c042 7ef1 bf42 f6e8 bf42 1111 c042
00000080: 33f3 bf42 4bbe bf42 85eb bf42 6a83 bf42
00000090: 9ad9 bf42 b5c1 bf42 e5d7 bf42 b5c1 bf42
000000a0: 7b94 bf42 6666 bf42 bc7b bf42 749a bf42
000000b0: a470 bf42 e557 bf42 4b7e bf42 c92f bf42
000000c0: 1111 bf42 263f bf42 031d bf42 7e31 bf42
000000d0: 8f02 bf42 4f1b bf42 da40 bf42 6ac3 be42
000000e0: 8ce5 be42 cd4c bf42 66e6 be42 f6e8 be42
000000f0: 77f7 be42 03dd be42 8ca5 be42 b581 be42
00000100: 9d76 be42 c92f bf42 89c8 be42 41e7 bd42
00000110: 3a6d be42 180b be42 0ad7 be42 5278 be42
00000120: 66e6 bd42 7737 be42 60ec bd42 b124 be42
00000130: abea bd42 4fdb bd42 82ce bd42 ae47 bd42
00000140: f2cb bd42 e557 bd42 33b3 bd42 4f5b bd42
00000150: 1b68 bd42 77f7 bc42 f6a8 bc42 cd0c bd42
00000160: c3f5 bc42 bfd8 bc42 0ef4 bc42 931f bd42
00000170: ab2a bd42 745a bc42 33b3 bc42 59b2 bc42
00000180: 291c bd42 3aad bb42 85ab bc42 efee bb42
00000190: de1d bc42 6666 bc42 abaa bb42 741a bc42
000001a0: 6ac3 bb42 22a2 bb42 3a6d bb42 a70d bc42
000001b0: aec7 bb42 0e74 bb42 035d bb42 74da bb42
000001c0: f945 bb42 48e1 b942 299c ba42 66a6 ba42
000001d0: 7ef1 ba42 6349 ba42 efae ba42 b501 bb42
000001e0: ec91 bb42 cdcc ba42 1b28 bb42 f6a8 b942
000001f0: cd0c ba42 f9c5 ba42 3a2d ba42 33b3 ba42
00000200: 606c ba42 7b54 b942 291c ba42 142e b942
00000210: 031d b942 ec51 b942 a013 ba42 077a b942
00000220: 5238 b842 bcfb b842 1fc5 b842 de5d b942
00000230: 5932 b842 5238 b942 da80 b942 4f9b b842
00000240: a78d b842 b81e b942 d406 b942 5c4f b842
00000250: 4f5b b742 299c b742 07ba b842 c96f b842
00000260: a093 b842 8c65 b742 ab6a b742

val_loss_history f4 [31]
0.10879517 0.1251187 0.24916871 0.10905062 0.17357665 0.18991357 0.22526257 0.2212109
0.28438246 0.14003056 0.13298894 0.2503902 0.37151673 0.30953684 0.27710718 0.21615472
0.30146673 0.38999167 0.32902977 0.21656822 0.31352955 0.3920392 0.35900763 0.3674028
0.3175735 0.41644865 0.39088225 0.45835644 0.2809866 0.43465874 0.4050426
00000000: 01d0 de3d 1e1f 003e 1526 7f3e ee55 df3d
00000010: 14be 313e b478 423e 3bab 663e 1c85 623e
00000020: 949a 913e 2c64 0f3e 412e 083e 2533 803e
00000030: 7137 be3e 9d7b 9e3e fee0 8d3e aa57 5d3e
00000040: d959 9a3e fdac c73e 9776 a83e 0fc4 5d3e
00000050: f286 a03e 5db9 c83e d9cf b73e 381c bc3e
00000060: fe98 a23e c238 d53e b821 c83e b2ad ea3e
00000070: 7add 8f3e 978b de3e be61 cf3e

val_accuracy_history f4 [31]
96.7 96.7 96.2 97.6 96.4 96.3 97.4 97.1
96.2 97.4 97.0 96.3 95.4 96.1 95.6 96.3
96.2 95.3 95.4 96.1 95.5 93.7 95.6 94.5
94.5 94.5 93.8 94.8 94.3 92.5 91.3
00000000: 6666 c142 6666 c142 6666 c042 3333 c342
00000010: cdcc c042 9a99 c042 cdcc c242 3333 c242
00000020: 6666 c042 cdcc c242 0000 c242 9a99 c042
00000030: cdcc be42 3333 c042 3333 bf42 9a99 c042
00000040: 6666 c042 9a99 be42 cdcc be42 3333 c042
00000050: 0000 bf42 6666 bb42 3333 bf42 0000 bd42
00000060: 0000 bd42 0000 bd42 9a99 bb42 9a99 bd42
00000070: 9a99 bc42 0000 b942 9a99 b642
