checkpoints/model_epoch_0105.npz (npz, 386240 bytes, 10 tensors)

weight_0 f8 [784, 64]
000000 4b 12 e5 21 00 00 00 00 7f 7a 51 0e 00 00 00 00
       2.809556444e-315 1.18684844e-315
000010 53 cc fd 0d 00 00 00 00 4e b4 30 1a 00 00 00 00
       1.159753507e-315 2.170921987e-315
000020 3d 4c 6e 04 00 00 00 00 11 08 d1 1d 00 00 00 80
       3.67275264e-316 -2.47150585e-315
000030 c0 ab ec 0b 00 00 00 80 b5 a1 76 1f 00 00 00 80
       -9.8842694e-316 -2.60801613e-315
000040 e1 a6 b9 03 00 00 00 00 d8 a0 b1 21 00 00 00 80
       3.0878376e-316 -2.79289962e-315
000050 73 4b f2 21 00 00 00 00 1f 60 f0 02 00 00 00 80
       2.813838017e-315 -2.43612303e-316
000060 8d 1a 09 20 00 00 00 00 ed 4b f4 04 00 00 00 00
       2.65544244e-315 4.10662844e-316
000070 0c b9 1a 21 00 00 00 80 3d c3 92 08 00 00 00 80
       -2.74403781e-315 -7.1064409e-316
000080 d0 89 ce 17 00 00 00 00 9f 28 67 0e 00 00 00 80
       1.973355817e-315 -1.193868285e-315
000090 21 27 19 13 00 00 00 00 8b f0 96 02 00 00 00 00
       1.583063013e-315 2.1465379e-316
0000a0 68 d6 3a 12 00 00 00 00 11 3b 4d 14 00 00 00 80
       1.511079343e-315 -1.682815816e-315
0000b0 71 2a 27 14 00 00 00 00 97 74 cf 11 00 00 00 00
       1.670490736e-315 1.47631e-315
0000c0 21 94 72 04 00 00 00 00 c1 48 92 17 00 00 00 00
       3.68661355e-316 1.95384608e-315
0000d0 09 86 80 0f 00 00 00 80 1f 7e 9c 06 00 00 00 80
       -1.28497167e-315 -5.48013657e-316
0000e0 2f 7e 0a 00 00 00 00 00 80 35 ac 02 00 00 00 00
       3.397507e-318 2.21540617e-316
0000f0 19 d8 c1 21 00 00 00 00 5f c6 95 0a 00 00 00 00
       2.79815016e-315 8.77400346e-316
000100 22 6b 8b 03 00 00 00 80 d6 cb e2 08 00 00 00 00
       -2.93813814e-316 7.36558233e-316
000110 aa 54 11 03 00 00 00 00 8e ff cb 1c 00 00 00 80
       2.5428291e-316 -2.38698567e-315
000120 f5 33 42 07 00 00 00 00 27 5b a3 0d 00 00 00 80
       6.01669137e-316 -1.13046919e-315
000130 fd fe 97 18 00 00 00 80 73 d7 d3 21 00 00 00 00
       -2.038585985e-315 2.803977573e-315
000140 61 8b ea 0d 00 00 00 80 79 ec 04 1b 00 00 00 80
       -1.153519337e-315 -2.23963669e-315
000150 70 ee c1 0c 00 00 00 80 30 c8 57 0d 00 00 00 00
       -1.05747874e-315 1.10599899e-315
000160 68 7b 82 1e 00 00 00 00 45 6c f3 0e 00 00 00 80
       2.528962715e-315 -1.23928457e-315
000170 a3 2a 90 1e 00 00 00 00 5d 66 63 15 00 00 00 00
       2.53339363e-315 1.772884437e-315
000180 fa 22 84 0b 00 00 00 80 11 ac 09 15 00 00 00 00
       -9.545797e-316 1.74383142e-315
000190 d2 af e3 1f 00 00 00 80 7f 41 8e 0a 00 00 00 80
       -2.643327183e-315 -8.7496575e-316
0001a0 ef 69 e4 21 00 00 00 80 b6 d9 8b 03 00 00 00 80
       -2.8093435e-315 -2.93953674e-316
0001b0 d5 91 45 01 00 00 00 00 b8 07 5c 0e 00 00 00 80
       1.0541648e-316 -1.19026497e-315
0001c0 82 97 98 0a 00 00 00 80 51 b1 11 14 00 00 00 00
       -8.78312445e-316 1.66353793e-315
0001d0 25 98 da 22 00 00 00 00 f8 23 83 23 00 00 00 80
       2.8890545e-315 -2.943628217e-315
0001e0 9f 02 7c 01 00 00 00 80 10 78 ad 18 00 00 00 80
       -1.23043843e-316 -2.04553873e-315
0001f0 58 bc 18 02 00 00 00 00 f7 17 26 0d 00 00 00 80
       1.7379012e-316 -1.08991035e-315
000200 a4 17 a7 08 00 00 00 80 6e eb 14 11 00 00 00 00
       -7.1722666e-316 1.41591142e-315
000210 0c dd 2b 12 00 00 00 80 16 f1 ae 08 00 00 00 80
       -1.50623088e-315 -7.1976822e-316
000220 cb e4 52 1b 00 00 00 80 34 2b 88 1f 00 00 00 80
       -2.264882666e-315 -2.61369448e-315
000230 a0 a2 34 03 00 00 00 80 20 9c 83 0a 00 00 00 00
       -2.65714196e-316 8.71518677e-316
000240 f6 71 88 0b 00 00 00 00 b9 37 90 1a 00 00 00 80
       9.5597476e-316 -2.20184834e-315
000250 37 b1 38 1c 00 00 00 00 d4 5e 46 21 00 00 00 80
       2.339289327e-315 -2.7581705e-315
000260 26 e7 0a 23 00 00 00 80 22 a7 2b 16 00 00 00 00
       -2.904696387e-315 1.83772453e-315
000270 53 ff 3b 01 00 00 00 80 af 93 ee 1e 00 00 00 00
       -1.0231706e-316 2.563962834e-315
000280 b7 35 fc 05 00 00 00 00 53 6a 85 16 00 00 00 00
       4.9611554e-316 1.866788797e-315
000290 d7 db 04 10 00 00 00 80 e7 d5 18 22 00 00 00 00
       -1.32782059e-315 2.826317186e-315
0002a0 2e 1e bd 1e 00 00 00 80 45 da 81 01 00 00 00 80
       -2.54794846e-315 -1.2493555e-316
0002b0 4f c0 e8 15 00 00 00 80 42 92 65 06 00 00 00 80
       -1.816062386e-315 -5.3023063e-316
0002c0 e7 02 78 0d 00 00 00 00 43 fd c6 0e 00 00 00 00
       1.11643456e-315 1.224897366e-315
0002d0 d8 93 a8 10 00 00 00 80 d0 35 55 02 00 00 00 80
       -1.38083123e-315 -1.93371207e-316
0002e0 0b 15 37 08 00 00 00 00 26 df 96 14 00 00 00 80
       6.80958797e-316 -1.70666008e-315
0002f0 69 8f b1 1b 00 00 00 00 93 4a 12 1f 00 00 00 00
       2.295534805e-315 2.575526836e-315
000300 99 38 5a 21 00 00 00 80 60 c3 6a 02 00 00 00 00
       -2.76459796e-315 2.00349864e-316
000310 b9 cc 12 21 00 00 00 80 41 a9 f5 14 00 00 00 80
       -2.74147237e-315 -1.737352047e-315
000320 96 95 62 08 00 00 00 80 48 e3 a3 0a 00 00 00 80
       -6.95044387e-316 -8.81969983e-316
000330 e4 4d 9f 15 00 00 00 00 b2 73 29 0b 00 00 00 80
       1.792280936e-315 -9.25216824e-316
000340 48 9f e4 00 00 00 00 80 47 d1 86 1d 00 00 00 00
       -7.4025777e-317 2.44747603e-315
000350 d5 d0 36 1e 00 00 00 80 19 26 1c 15 00 00 00 00
       -2.504462657e-315 1.749814003e-315
000360 20 33 61 1f 00 00 00 80 66 af 21 15 00 00 00 00
       -2.601076655e-315 1.751606616e-315
000370 33 9b 8b 12 00 00 00 00 72 81 12 11 00 00 00 00
       1.537231518e-315 1.41512979e-315
000380 61 8a ce 16 00 00 00 80 d7 90 2b 16 00 00 00 00
       -1.890466073e-315 1.837696335e-315
000390 b5 27 03 22 00 00 00 80 56 b2 6c 01 00 00 00 80
       -2.819297254e-315 -1.18085434e-316
0003a0 e1 bb 96 1e 00 00 00 80 06 4c 2b 24 00 00 00 00
       -2.53552008e-315 2.998075743e-315
0003b0 f2 01 92 21 00 00 00 00 f3 88 a4 1e 00 00 00 00
       2.782661126e-315 2.539988733e-315
0003c0 7c a5 0d 04 00 00 00 00 e6 30 c1 1f 00 00 00 80
       3.3598043e-316 -2.63215776e-315
0003d0 45 51 8f 0f 00 00 00 00 a2 e5 66 17 00 00 00 00
       1.28976179e-315 1.939797703e-315
0003e0 65 8b fd 1a 00 00 00 00 ef 9a c9 20 00 00 00 80
       2.23724737e-315 -2.717772663e-315
0003f0 86 2d 87 12 00 00 00 00 59 57 8d 14 00 00 00 80
       1.535797635e-315 -1.7035742e-315
000400 68 8c ff 10 00 00 00 00 21 2c 59 04 00 00 00 80
       1.408991626e-315 -3.60435044e-316
000410 02 44 e1 0e 00 00 00 00 6d 16 fe 06 00 00 00 00
       1.23340541e-315 5.79614007e-316
000420 d7 93 ed 01 00 00 00 00 df 8a d0 08 00 00 00 80
       1.59815884e-316 -7.3064783e-316
000430 f0 88 a7 21 00 00 00 00 ef 93 c8 1d 00 00 00 80
       2.789631473e-315 -2.468768637e-315
000440 5f 74 7d 09 00 00 00 80 bb 8e 57 0a 00 00 00 00
       -7.8663519e-316 8.57254937e-316
000450 21 60 82 01 00 00 00 80 2c 32 04 02 00 00 00 80
       -1.25104857e-316 -1.6713954e-316
000460 c2 46 89 0a 00 00 00 80 9f f3 c9 09 00 00 00 00
       -8.7335345e-316 8.1140424e-316
000470 90 cb 34 05 00 00 00 80 0c 59 00 14 00 00 00 00
       -4.31546895e-316 1.65792184e-315
000480 19 7f 37 21 00 00 00 00 2e 88 b2 1e 00 00 00 80
       2.75335445e-315 -2.54452083e-315
000490 0a fb 1e 1b 00 00 00 00 77 ab 41 1d 00 00 00 00
       2.24807368e-315 2.425086633e-315
0004a0 33 a6 ca 0d 00 00 00 80 66 01 c7 00 00 00 00 00
       -1.14319195e-315 6.443615e-317
0004b0 5d 53 0d 1e 00 00 00 80 1f 13 94 0d 00 00 00 00
       -2.491028537e-315 1.12552122e-315
0004c0 79 02 a0 0b 00 00 00 00 bb 2a 75 13 00 00 00 80
       9.6360473e-316 -1.61285633e-315
0004d0 a5 d2 1d 21 00 00 00 00 47 0a 30 0b 00 00 00 00
       2.74504156e-315 9.27350027e-316
0004e0 49 ae c4 11 00 00 00 80 94 a4 90 06 00 00 00 80
       -1.472821276e-315 -5.44176807e-316
0004f0 15 a4 2f 04 00 00 00 00 80 73 b5 12 00 00 00 80
       3.46987545e-316 -1.55078052e-315
000500 2f 72 dd 01 00 00 00 80 15 11 ac 0f 00 00 00 80
       -1.5459266e-316 -1.29907054e-315
000510 ed b4 42 20 00 00 00 80 a6 72 7f 1d 00 00 00 80
       -2.67409377e-315 -2.445089805e-315
000520 76 84 63 19 00 00 00 00 1c ad 49 14 00 00 00 80
       2.10448435e-315 -1.681664895e-315
000530 a0 01 67 02 00 00 00 00 59 3c b8 10 00 00 00 80
       1.99133435e-316 -1.385901216e-315
000540 74 9c 7c 14 00 00 00 00 bb 84 d3 1e 00 00 00 00
       1.69815716e-315 2.55520157e-315
000550 58 a8 66 0d 00 00 00 00 73 ef c7 02 00 00 00 80
       1.11081558e-315 -2.3051816e-316
000560 d8 53 8f 22 00 00 00 80 d8 d3 81 14 00 00 00 80
       -2.8646838e-315 -1.699846175e-315
000570 bd bd 9d 06 00 00 00 00 5d 87 2c 07 00 00 00 00
       5.4841791e-316 5.9465123e-316
000580 57 0b ef 0d 00 00 00 80 68 ce 5a 0e 00 00 00 80
       -1.154976346e-315 -1.18986869e-315
000590 33 f2 fc 0b 00 00 00 80 43 2c 66 08 00 00 00 80
       -9.936967e-316 -6.96206335e-316
0005a0 50 4e 87 1e 00 00 00 80 7f 56 29 1c 00 00 00 80
       -2.530524634e-315 -2.334317723e-315
0005b0 66 ff 64 0d 00 00 00 80 52 c5 78 04 00 00 00 80
       -1.110278104e-315 -3.7066632e-316
0005c0 51 72 0a 00 00 00 00 00 aa 46 f2 11 00 00 00 80
       3.382497e-318 -1.487584595e-315
0005d0 b1 4c b0 0f 00 00 00 80 3d 05 4a 00 00 00 00 80
       -1.3004411e-315 -2.396715e-317
0005e0 c4 ef 6f 20 00 00 00 80 90 17 4e 04 00 00 00 00
       -2.68873878e-315 3.5684733e-316
0005f0 f7 19 16 09 00 00 00 00 d7 14 92 02 00 00 00 00
       7.53170385e-316 2.13080745e-316
000600 ff b1 f6 22 00 00 00 80 ef cd 47 19 00 00 00 80
       -2.898153343e-315 -2.09551113e-315
000610 1d 5c de 0f 00 00 00 80 d9 98 ab 1f 00 00 00 80
       -1.315354986e-315 -2.62516584e-315
000620 ea bb 0c 02 00 00 00 80 a6 c5 46 18 00 00 00 80
       -1.69904087e-316 -2.0122864e-315
000630 5f c8 8b 1b 00 00 00 80 3d 9f 8e 15 00 00 00 80
       -2.283302797e-315 -1.78687938e-315
000640 1f 51 07 08 00 00 00 00 c2 9b 3e 0c 00 00 00 80
       6.65492823e-316 -1.014957564e-315
000650 c0 1e 96 00 00 00 00 80 d8 21 51 1a 00 00 00 00
       -4.860752e-317 2.18142184e-315
000660 da c9 2b 1f 00 00 00 00 aa 72 44 05 00 00 00 00
       2.58378259e-315 4.3661511e-316
000670 83 db 69 0f 00 00 00 80 f1 cb 55 15 00 00 00 00
       -1.27763259e-315 1.76847984e-315
000680 56 ce f5 15 00 00 00 00 01 fa c1 17 00 00 00 80
       1.82028941e-315 -1.969288437e-315
000690 c0 97 a1 18 00 00 00 80 8e 06 f5 22 00 00 00 00
       -2.041693317e-315 2.89761271e-315
0006a0 80 20 5e 1a 00 00 00 00 41 5a 16 14 00 00 00 80
       2.18562942e-315 -1.665046765e-315
0006b0 c1 19 8b 1a 00 00 00 80 7a 6e dc 1c 00 00 00 00
       -2.20019148e-315 2.39230662e-315
0006c0 e1 17 e1 11 00 00 00 80 3e 72 57 0e 00 00 00 00
       -1.482020976e-315 1.18878075e-315
0006d0 48 bb 52 1d 00 00 00 00 7f c1 fe 01 00 00 00 00
       2.43061108e-315 1.65378075e-316
0006e0 de 47 0d 22 00 00 00 00 75 fb 79 1c 00 00 00 00
       2.82257584e-315 2.360429636e-315
0006f0 3a 4b c8 00 00 00 00 80 df a0 a0 0d 00 00 00 80
       -6.485332e-317 -1.129585997e-315
000700 a1 a4 ae 1c 00 00 00 00 81 08 1f 0c 00 00 00 80
       2.37748073e-315 -1.0047338e-315
000710 b9 b5 46 04 00 00 00 80 52 50 d8 05 00 00 00 00
       -3.54457047e-316 4.8449272e-316
000720 19 1c f3 00 00 00 00 80 ec a7 4f 19 00 00 00 00
       -7.8716718e-317 2.09805338e-315
000730 2d c5 22 21 00 00 00 80 31 f8 ef 08 00 00 00 80
       -2.74664348e-315 -7.40823615e-316
000740 f0 e5 31 01 00 00 00 80 3a 4f 6a 04 00 00 00 00
       -9.904704e-317 3.6598388e-316
000750 fa e6 a9 11 00 00 00 00 54 de ca 1e 00 00 00 00
       1.464150627e-315 2.552400774e-315
000760 e7 99 ee 1c 00 00 00 80 3e c7 00 12 00 00 00 80
       -2.39818978e-315 -1.492280294e-315
000770 52 52 06 07 00 00 00 00 19 c3 ef 0a 00 00 00 80
       5.8228009e-316 -9.06537383e-316
000780 fa 1a 6b 02 00 00 00 00 72 95 9e 22 00 00 00 00
       2.00460664e-316 2.869623636e-315
000790 a7 19 ed 10 00 00 00 00 61 f6 51 1a 00 00 00 80
       1.40301825e-315 -2.181690657e-315
0007a0 e7 4f 7a 18 00 00 00 00 1a e9 38 0e 00 00 00 00
       2.0289746e-315 1.178893565e-315
0007b0 ed ed 7b 1d 00 00 00 00 90 7b 23 07 00 00 00 00
       2.443950563e-315 5.91722187e-316
0007c0 ee 95 8d 0f 00 00 00 00 28 1c e1 0d 00 00 00 80
       1.289201053e-315 -1.150464544e-315
0007d0 3c 2e 83 15 00 00 00 00 df 2e db 18 00 00 00 80
       1.783174753e-315 -2.060340536e-315
0007e0 ce 95 f9 0e 00 00 00 80 6e a0 6a 03 00 00 00 00
       -1.241279847e-315 2.83196126e-316
0007f0 c0 d1 06 1e 00 00 00 00 4a e7 c9 0c 00 00 00 00
       2.488921856e-315 1.060060026e-315

bias_0 f8 [1, 64]
000000 e4 35 1f 0d e2 5c bf bf 11 d3 da 06 b6 5e d8 bf
       -0.1225110322986534 -0.38078070325291075
000010 2c 19 99 c4 0c d3 b1 bf 26 d7 d8 a7 b0 62 b1 bf
       -0.06962661552197308 -0.06791214082553818
000020 09 17 ed 96 48 c5 cf bf 93 d7 2b 06 e4 6a e4 bf
       -0.24820811623992992 -0.6380481834919344
000030 0b f9 ab 0e 02 5b a9 bf 3f 5a 9c 72 af 3a de bf
       -0.04952246121500722 -0.47233186905342345
000040 c8 61 e0 d0 9b 9e d9 bf 83 1c aa 69 77 ab b1 3f
       -0.40030570409865307 0.06902262048434875
000050 54 78 e4 0f e0 1c d4 3f ca 01 5f 5d ea 1c c6 bf
       0.3142624049377265 -0.1727574306405713
000060 7b 7f 42 1b 5c d2 e2 bf 5e dd 8c 90 db 00 c5 bf
       -0.5881786854188101 -0.16408867414586842
000070 b0 3f 17 47 77 68 e0 bf 21 93 6d 4c bd 1f e4 bf
       -0.5127521885387889 -0.6288744442686928
000080 cb b7 2d 91 a6 bc d3 3f e4 21 c3 7b 0c 85 d4 bf
       0.3083893220672251 -0.3206206520667634
000090 48 57 96 74 d3 8f d4 bf 1a 88 9c a0 c3 e3 a0 3f
       -0.32127844224429625 0.032987702709093195
0000a0 d0 a7 a0 c8 60 74 d5 bf 68 0e 1c 6c b8 ad dc 3f
       -0.33522815315757004 0.4481030517347109
0000b0 02 1a a0 59 f7 ae ce bf c1 e6 6a 5b 43 10 e0 bf
       -0.23971454502334671 -0.5019852433681181
0000c0 90 d5 a3 a5 c4 3c d5 3f 20 82 b5 f9 2f cc c4 bf
       0.33183399368075417 -0.1624813050539311
0000d0 dc e2 91 00 d1 ca b7 bf 82 55 2b 57 12 c1 d4 3f
       -0.09293848289406575 0.32428415787338605
0000e0 8e df 79 29 f6 3c d6 3f 42 6b d3 f3 bf 68 ca bf
       0.3474707989730569 -0.2063217106395659
0000f0 5c 52 ae a6 a1 c9 7e bf 4f df 6f e8 d2 67 c8 bf
       -0.007516509484862679 -0.19066845273459385
000100 50 21 e8 ee a4 05 df bf 2e 2a f4 56 52 ad 9d 3f
       -0.4847194989274799 0.0289814820835465
000110 42 96 c4 9c a9 bc ca bf f2 c4 76 8a 1d 19 e3 bf
       -0.20888252405818447 -0.596815843999279
000120 b1 87 29 bc 06 57 c4 bf e8 6d 9a a8 c6 fe d9 bf
       -0.15890583217247703 -0.40617529359016524
000130 2c f0 bd ed c8 f0 d3 bf e4 35 7c 60 cd 7a bd 3f
       -0.31157134263026154 0.11515506368251455
000140 47 c6 2f ff 66 50 c6 bf fc ed 7d 8a 34 52 b7 bf
       -0.1743286844280638 -0.09109810238981447
000150 67 3a a6 c3 07 c7 9d bf 95 91 70 54 75 73 c2 bf
       -0.029079552952277512 -0.1441485082915618
000160 84 a7 f6 95 29 ac e1 bf 6e f2 a6 da fa 2f 9a bf
       -0.5522659234022602 -0.025573653789012267
000170 bc 70 95 44 81 cf a6 3f 41 a3 cc 3a d8 1a c5 3f
       0.04455188715175626 0.16488173361838146
000180 e5 58 a8 c2 2b 57 e8 bf e6 06 21 44 bc 0b dc bf
       -0.7606409837633491 -0.4382162728617075
000190 8f e0 63 74 c3 55 d8 bf 5b 8d ca 94 2d 80 cb 3f
       -0.38023458830094453 0.21484918370434056
0001a0 a1 12 37 9c 49 a8 c0 bf e1 03 ba 68 0a 08 ce 3f
       -0.1301357281464748 0.23462038148502898
0001b0 22 4d c0 9d 38 5f d0 bf 30 f9 a6 77 ad 75 e7 bf
       -0.25581183820141196 -0.7331149422605332
0001c0 7d d3 0c ef 5f 24 e0 bf 57 79 28 1e 80 b4 c3 3f
       -0.5044402760455423 0.15394593689502287
0001d0 e9 69 03 68 73 c2 e1 bf bd c1 dc c0 19 98 d9 bf
       -0.5549866706381269 -0.3999084838315204
0001e0 99 25 30 53 29 8d a4 3f c3 b2 72 16 6e c6 89 3f
       0.04013947620849052 0.012585506496486492
0001f0 32 50 e9 68 d7 1a c8 3f ea 5b 0c 43 1e a1 d3 bf
       0.18831913588167165 -0.30670887515719747

weight_1 f8 [64, 32]
000000 65 20 35 dd 6b 96 13 c0 d5 b9 6a 76 bf 3e e3 3f
       -4.896895843856417 0.6014096558408776
000010 bd 31 a3 0b d8 af 1b c0 cf 06 00 51 45 60 ef bf
       -6.921722585521306 -0.9805018026383666
000020 3d 52 04 12 b4 95 13 c0 0b fa 25 66 97 91 ee bf
       -4.8961947264802435 -0.955272387989511
000030 e8 02 92 76 6b 2f 06 c0 7f 4d df 61 38 e0 f9 3f
       -2.773154188471711 1.61724127036436
000040 b4 f3 c9 50 9d b7 fa bf fe 5f c0 4b f2 c6 0a c0
       -1.6698277622046875 -3.347141830261534
000050 b7 04 7e 29 b4 a1 b7 3f 5f c9 49 06 73 1b b0 bf
       0.09231115353579154 -0.06291884330292906
000060 69 2a 7d 12 7e 53 f7 3f a2 26 a1 14 66 de f2 3f
       1.4578839037154927 1.1792965703811338
000070 27 89 4c 55 40 79 e4 3f 8c 65 f6 b7 d1 36 e8 3f
       0.6398011842723336 0.7566917984978985
000080 da 48 b5 68 f2 cf f8 bf 7d b9 fd b1 ac 4c 14 c0
       -1.5507682886277991 -5.074877530203932
000090 3e d1 aa 51 85 88 f0 3f b8 60 1e 0c e8 4f 01 c0
       1.0333302679183158 -2.1640168139238902
0000a0 f7 9a 7d 67 4d a5 ec bf b2 19 2c 12 97 05 f7 bf
       -0.8951785107900311 -1.4388647756437476
0000b0 74 44 ca 0f 60 28 13 c0 54 f5 00 26 da 68 f1 3f
       -4.78942894622843 1.0880986675759532
0000c0 bb 28 1d f0 66 f0 11 c0 b6 97 a6 c3 0d 4e f5 3f
       -4.4847676770970635 1.3315560953719632
0000d0 ed 2d 81 68 bd db ce bf 5d 47 0b 1b df 6e e6 3f
       -0.24108092882884993 0.7010341194347621
0000e0 c3 9e 1d 23 a1 55 f9 bf c2 69 d7 1b 06 e7 12 c0
       -1.583405625506132 -4.72560924055364
0000f0 42 26 28 31 05 92 d6 3f f1 16 13 73 e2 70 c8 bf
       0.3526623706862645 -0.19094496363521032
000100 bc 2f ee 84 3b 37 dc 3f 55 32 d7 7e ed 89 01 c0
       0.44087112409101414 -2.1923475179121774
000110 96 6c e7 0f 94 71 f0 bf d8 db d7 d3 e7 e1 07 c0
       -1.0277290936708474 -2.9853054571390025
000120 82 16 86 9d 37 cc c3 3f da f1 bf 07 30 08 09 c0
       0.1546697158011519 -3.128997860474766
000130 df 9f 49 53 37 29 e0 3f 16 4f ef bc 6e 8d 04 c0
       0.5050312639914373 -2.569058872273568
000140 7b 96 a1 e8 e4 63 c8 3f ea 5a 4f 47 47 03 d4 3f
       0.19054852827973776 0.3127000996004613
000150 07 10 10 fe 81 63 c0 bf b2 8b 88 4f 14 a8 1a c0
       -0.12803673653991174 -6.664139979085052
000160 ae 2f 97 9e a7 6e 09 c0 56 8e 0c ed 84 a6 e4 3f
       -3.179030646313513 0.6453270559181401
000170 5c e5 cb 55 07 0c be 3f 76 19 b8 db 8d 8d 9e bf
       0.11737104267731041 -0.029836861167518568
000180 fb 67 ac ee fb d2 c8 3f 8e 4f 53 0e 86 cf f9 bf
       0.19393872407891863 -1.6131649550997937
000190 0a 0c ed 4b c5 5b 13 c0 0f fd df 49 3b 50 10 c0
       -4.839619814246371 -4.078351167961286
0001a0 94 a3 2d b4 83 4a e1 3f d4 0b 3d ea 21 8a f4 bf
       0.5403460044009187 -1.2837237501087104
0001b0 b8 f4 e4 dc 9d b3 ba bf e8 93 38 85 28 97 0f c0
       -0.10430323260239305 -3.9488077552691614
0001c0 20 a5 b5 a5 6b 0f db 3f d9 49 07 5c 44 32 09 c0
       0.4228161924607594 -3.1495444478725685
0001d0 cf d7 79 23 87 c3 d8 bf 12 8c 54 c9 73 eb 10 c0
       -0.3869340750164811 -4.229933877740239
0001e0 0f 32 33 76 17 d2 f7 bf 53 c4 2c 40 d8 1f 00 c0
       -1.4887919060885257 -2.0155491841947337
0001f0 62 28 65 04 53 57 01 c0 de db 53 26 67 fb dc bf
       -2.1676388114329237 -0.45284441702773204
000200 dd 7b ca 34 7c 7f 0c c0 eb 0c fc 2d a8 4e cf 3f
       -3.562248623303715 0.24458791966762958
000210 31 e7 4e e2 2d 0d 11 c0 4f 4e 03 f9 d8 88 ee 3f
       -4.262870346132147 0.9542050231488676
000220 e0 e3 1b 52 0e 87 0a c0 a9 30 30 83 7c 47 05 c0
       -3.315945283390178 -2.659905457409043
000230 fe 2a 15 16 3f db e1 3f be b9 44 20 35 58 d3 bf
       0.5580134803106771 -0.3022587599870369
000240 f6 74 51 5f 74 71 6b 3f 11 04 50 b4 3e 73 df bf
       0.003349997796745381 -0.4914089928498138
000250 1c 25 d5 f7 d6 4b 07 c0 e2 2a e4 e3 e1 1a c2 3f
       -2.912031112854164 0.14144538524154543
000260 cc 9f f5 ba cf 78 e2 3f 96 f7 96 73 2d be ca 3f
       0.5772474910308971 0.20892875808743544
000270 a0 bb f8 c7 37 30 14 c0 b5 26 ea b7 e0 06 02 c0
       -5.047087788158848 -2.253358303864696
000280 e2 a1 37 7f 54 db f7 bf 31 a0 e3 ad 3c 50 f2 bf
       -1.4910473794390033 -1.1445891182465966
000290 64 36 cb b5 cf be ef 3f 47 1a 88 1d ed 18 e5 3f
       0.9920424032840853 0.6592927529134806
0002a0 ba c4 37 94 40 12 e7 bf d8 19 48 7b 8e 48 cf 3f
       -0.7209780592803761 0.24440175075160542
0002b0 be 98 a1 6a f3 78 e3 bf 26 37 e1 6d c1 7f 04 c0
       -0.6085145075455995 -2.5623806557040494
0002c0 57 37 0f 68 ae bc d4 3f cf ba 6c 77 43 d4 00 c0
       0.32401619112066754 -2.103644307141941
0002d0 1f 6f b9 fb 58 68 f7 bf dc 76 af 0b 53 63 fa bf
       -1.4629754860861295 -1.6492491203747965
0002e0 bf 02 53 5b 3a 46 14 c0 de 37 76 f5 23 a2 ff bf
       -5.068581988278935 -1.977085074267499
0002f0 c1 94 eb ce 1d f1 0d c0 02 f6 6b 50 2e 8a c7 bf
       -3.742732636036266 -0.18390444685785218
000300 5a 04 6a ad 6c 05 13 c0 89 c0 14 f1 ce d7 02 c0
       -4.7552973838765755 -2.3553751787622486
000310 f4 d8 78 d9 7f c6 1b c0 47 c4 4e 6e 00 7b f1 bf
       -6.943847082138962 -1.0925297078031393
000320 b4 2a 5a 35 67 03 f2 bf da 63 bb 86 09 8f 13 c0
       -1.1258308490820754 -4.889684777438527
000330 62 49 de ca a8 77 05 c0 db 8a 1c a0 b0 1a 0c c0
       -2.683427414806986 -3.513032198782964
000340 b9 e9 57 e4 64 72 d0 bf 94 45 cc 6b 34 7b f7 bf
       -0.2569820623317827 -1.4675792895180608
000350 a8 82 b7 ca d8 31 e7 3f 21 a6 d1 b7 7e 69 15 c0
       0.7248348197282057 -5.353022453471142
000360 40 3a 6e 40 6c 41 09 c0 93 ff 0d bc fb 77 12 c0
       -3.1569447549475456 -4.617171228746787
000370 42 20 6d 7f 71 57 e4 3f a4 a5 74 73 8b 58 f5 bf
       0.6356742371363071 -1.3341173658358025
000380 b4 bf 73 0a 49 fc f3 3f 11 8d 6e 2c 79 8d 11 c0
       1.249093094662368 -4.388157552955151
000390 c2 ac 5f db b6 1b dd bf ff 22 90 d4 f5 7a a6 bf
       -0.45481654570785335 -0.0439068624473915
0003a0 7d 68 6a 52 e0 57 0b c0 44 5b 9e 78 8d 80 05 40
       -3.417908328888244 2.687769834835679
0003b0 40 46 6b 4f 66 c8 fa bf 2a 16 21 98 23 9d 9a 3f
       -1.6739256956392552 0.025990062866432385
0003c0 cb e6 28 17 e4 d0 00 c0 ca 05 e7 ac 7f fe 02 c0
       -2.1019975480420263 -2.374266958999873
0003d0 2a b5 2d d5 9b e4 03 c0 cb 33 44 cb 04 8d f8 bf
       -2.4866253523420214 -1.5344284000486705
0003e0 2d 35 7d da fa 2a e6 3f 11 8a 36 09 5a 96 10 c0
       0.6927465693821994 -4.146827835038963
0003f0 74 dd 8a a2 d9 67 e9 3f ef a7 02 1a b9 ec fb bf
       0.7939270186097205 -1.7452937141447327
000400 32 b2 9a f1 1c d8 03 c0 5f 01 aa 49 27 85 04 c0
       -2.480523955853891 -2.5650163416868703
000410 a8 55 91 24 54 fb 15 c0 de df 3f 9f 81 d1 d3 bf
       -5.495438166971702 -0.3096622519656175
000420 aa 09 36 1a 3b da 03 c0 74 6b f4 66 57 c0 19 c0
       -2.481558041357137 -6.437833412807652
000430 df d7 7f 4e 63 51 f1 3f 92 1f 87 80 9a 55 05 c0
       1.0823700968153316 -2.6667985955463758
000440 0a c3 1a 8a e6 2d f1 3f 13 9b c9 ca cf 6b 06 c0
       1.073706187697271 -2.8026424258017726
000450 f6 aa e7 07 27 d9 14 40 7b 8a 9f 84 fb bd 16 c0
       5.212062953486329 -5.685529777753454
000460 bc 5f cf f2 0a 70 0d c0 6a 98 df 98 fc d2 14 c0
       -3.6797083825622092 -5.206041706702402
000470 a4 36 2f f9 a2 a8 a3 3f b9 cb 42 da 56 12 00 c0
       0.03839597026636213 -2.0089547206530054
000480 67 f8 8b be 12 f7 de 3f 7f a7 3b 91 d7 9a 11 c0
       0.48383015258867207 -4.401212949052819
000490 bd 55 f1 30 30 d9 f5 bf 27 3d 8f 13 8d 95 f5 bf
       -1.365524474318007 -1.349011494068529
0004a0 c4 70 e9 10 5d c7 07 c0 c8 28 8a ae f5 e2 fe 3f
       -2.9723454781761536 1.930410081668514
0004b0 12 b7 be 6b 84 02 e7 3f a5 a3 83 4e 97 22 f8 bf
       0.7190572838205489 -1.5084450785600236
0004c0 0c 21 4b 91 a1 9e f0 bf 3a ee 57 03 42 6f 0a c0
       -1.0387283015753068 -3.304325128670624
0004d0 ee 40 5e 5a 80 ac 12 c0 f2 3c 78 1f 30 4a f8 bf
       -4.668458377840791 -1.518112299850881
0004e0 a7 3d eb 46 b4 93 e9 3f 35 e1 aa ec d5 7f 01 c0
       0.7992802987227393 -2.187419747319064
0004f0 a1 30 fe b2 d7 c0 f3 3f 3a 4d eb 6c fb 7f 07 c0
       1.2345807067786512 -2.93749127476772
000500 c4 5e c8 08 6c c7 0a c0 68 4e f6 b8 9d f6 11 40
       -3.347374027838528 4.490836038621275
000510 79 bb 84 54 ef e0 0c c0 6f af 2d 98 ab 4b ed bf
       -3.609831486035031 -0.9154870960460196
000520 42 29 07 6b 48 42 0d c0 da 05 5e c2 d5 fc 0a 40
       -3.6573646890221037 3.37345458840785
000530 c0 17 a3 40 a4 29 fb bf 1e 4c 25 29 40 4d 0b c0
       -1.697666409004782 -3.4127200331217997
000540 cf bd 2c 80 99 af 87 bf 59 27 69 92 83 cf 07 c0
       -0.011565398429950328 -2.976325172266041
000550 f5 da 31 38 1c ef 02 c0 2d ea 31 33 2b 7f 08 c0
       -2.3667530431952124 -3.0620941161735318
000560 d0 bf 30 5f 04 6f 06 40 92 48 1b b3 48 4a 12 40
       2.8042075573684784 4.572542952099086
000570 70 87 e5 87 e0 a0 00 40 3c 4b 5b e4 09 c3 f7 bf
       2.078553258602305 -1.4851168556385366
000580 d4 28 30 ed 28 fd 02 c0 d1 83 ea 22 52 83 11 c0
       -2.3736132173845395 -4.378243012965826
000590 72 4a 72 38 a1 a2 f8 bf 6e 09 d5 9c 33 4c a1 bf
       -1.5397045330943482 -0.033784497160484914
0005a0 28 45 b0 ad 9e 97 dc 3f 2a 6c 09 6c 57 2d f1 bf
       0.4467541404893205 -1.0735697002589952
0005b0 94 47 b4 84 ff 5a db bf 1c 61 ac c8 6c 78 06 c0
       -0.4274290843906041 -2.808801238785362
0005c0 d2 18 f4 6d d5 4c 0d c0 0b 9a ea b4 03 00 13 40
       -3.6625164594762305 4.75001413995643
0005d0 2c 3b b8 38 cb 2b 04 c0 d7 27 56 37 a3 22 00 c0
       -2.5213837081168062 -2.01691287261654
0005e0 5f 95 24 60 77 20 ed bf ef 17 df f5 7e db cc bf
       -0.9102131727019404 -0.22544848447267848
0005f0 e5 cb 74 f1 12 54 07 c0 35 71 a3 97 3f f4 02 40
       -2.916051756264539 2.369261917758332
000600 89 28 38 25 76 4f 0f c0 dc f5 f7 be 7e aa d5 3f
       -3.913799563194577 0.3385311951568306
000610 63 be 15 77 51 1a 1b c0 e0 71 d0 cd ac 34 0c c0
       -6.7757013899823475 -3.525720222400409
000620 0a e2 bd 13 60 b2 08 c0 03 80 85 54 61 1c f1 bf
       -3.087097315056103 -1.0694287587757578
000630 ac 66 86 44 58 01 0a c0 a0 9b 7d ee 47 f9 ae bf
       -3.250656638480754 -0.060495612967137236
000640 04 fa 88 27 32 37 00 c0 5a ea ce f0 ba 20 08 c0
       -2.0269511307408283 -3.015981561007078
000650 05 b9 5d 89 68 f3 d2 3f 06 03 2b 22 7d ba 16 c0
       0.2961064664331306 -5.682117971301301
000660 91 83 1a 99 27 e4 af 3f 54 66 6d ea a6 0e be bf
       0.0622875570672995 -0.1174110719997768
000670 a0 af c8 50 29 2b ff 3f 9b e6 1a 1e b9 54 c5 bf
       1.9480374484655627 -0.1666480442998378
000680 32 9f 1c 6b 80 23 c7 3f 10 8a 92 f4 c5 63 15 c0
       0.1807709239012581 -5.34743482727437
000690 7e 90 ec f1 6d 68 f5 bf bb b3 08 ff f3 53 0e c0
       -1.3379954767379156 -3.7909927296190893
0006a0 db 15 3b 0e bc e9 e0 bf 05 de b7 77 cf f4 c7 3f
       -0.528532054705177 0.1871585211335828
0006b0 56 5c 8a 3b cf 1d 12 c0 72 6a b5 b0 26 a8 d6 3f
       -4.529110842056147 0.35401313072876583
0006c0 e6 36 c8 44 b2 27 15 c0 d1 16 a3 a5 8d 2f e6 3f
       -5.288765978546257 0.6933048472498858
0006d0 7e cc 40 11 b9 9b e4 bf e7 19 ee 19 04 e2 f0 bf
       -0.6440091454482084 -1.0551796925443513
0006e0 11 8c 23 7e ef bb d6 3f 26 90 55 05 6c 27 12 c0
       0.3552206737351194 -4.53849800429092
0006f0 b7 6f c4 0c 5a ca e4 3f 2a 5c 58 64 4b fe b5 3f
       0.6497011422502429 0.08591147613366049
000700 7c 7f 30 eb a7 97 0f 40 6a 79 8c d6 6e 94 01 c0
       3.949050748269597 -2.1974770318621966
000710 d5 a5 9f fe 82 22 04 40 e9 bd 05 a0 f4 3e ee bf
       2.516851414916099 -0.9451850057066028
000720 0c e6 8f 78 8b f4 01 40 23 bb 1d af 5b 1c f5 bf
       2.2444066447176336 -1.3194233742212382
000730 68 89 39 9a 62 65 f1 bf 39 a6 1e e7 da 8a ed bf
       -1.0872522377399836 -0.9232000841195208
000740 50 53 ba 30 76 57 c3 bf e2 c0 2e 41 db 4e c2 3f
       -0.15110661868370778 0.14303150828118932
000750 80 36 64 09 ed d1 e9 bf d3 5d dc c6 1b a2 0b c0
       -0.8068757232119452 -3.4541545425415534
000760 f1 65 06 5a c8 66 e3 bf e6 73 17 b1 eb e8 10 40
       -0.6062967069912572 4.227461592728082
000770 45 bb 4d 4b cf 5b 03 40 32 7a f2 61 1a 70 04 bf
       2.419828975972822 -3.898220551800217e-05
000780 d2 d5 5a 21 5b 76 0c 40 dc ca d8 36 dd 00 f3 bf
       3.557791004738399 -1.1877109663443468
000790 52 3e 2c 7e 9e ae da bf 38 3c ce 49 0b 9a f2 bf
       -0.41690790483059914 -1.1626084216147898
0007a0 fe 16 76 b4 b1 d4 11 40 05 f7 12 0e 00 af f4 bf
       4.457709140498762 -1.29272466180504
0007b0 ea 2a af 5d d6 3a a6 bf a7 7d b2 4a d6 d9 eb bf
       -0.043417643486085414 -0.8703414400987882
0007c0 d7 4a e8 e0 25 eb 06 c0 46 a6 7f 32 d0 25 04 c0
       -2.8648183413400647 -2.5184635110097444
0007d0 d3 6e 2b 62 71 cc fc bf ad 85 e8 39 9d e3 db bf
       -1.7999128184082351 -0.43576746611696643
0007e0 7f 43 1b 6d 0c 5e f3 bf a8 b5 94 9c 04 0c a2 3f
       -1.2104610692951778 0.03524794017208005
0007f0 fa 5e 9d 76 68 97 d3 bf 12 17 d8 a1 44 71 04 c0
       -0.30611621459455274 -2.5553066867895575

bias_1 f8 [1, 32]
000000 06 65 dd e1 69 a9 f3 bf 9d f3 6d 93 c9 d1 f3 bf
       -1.2288607428402556 -1.238717628380278
000010 57 28 30 12 82 a6 c3 3f c7 b4 72 6a 9d 2b fb bf
       0.1535189236458929 -1.6981481702926418
000020 d0 7f 70 b2 ed 9a b9 3f 1c a0 3f 37 ab e1 c1 3f
       0.10002027136260883 0.13969936559374296
000030 51 3b f3 9a 3f f3 02 c0 2d 18 b4 aa 0a a5 f1 bf
       -2.3687736611822534 -1.1027933757882338
000040 66 3e d9 4e 54 79 02 c0 9b ee e3 f7 0e 83 03 c0
       -2.309242836003068 -2.4389933935579626
000050 49 81 08 62 4e 8d 00 c0 b0 b8 be 3b 67 6a b7 3f
       -2.0689971598477865 0.09146733482950498
000060 dd a7 c3 0f c8 3b fa bf 0a 52 d9 04 b7 77 ef bf
       -1.6395950904648011 -0.9833636374192463
000070 4a 5b 23 30 c2 b4 fc bf 08 17 25 0a fb df fb bf
       -1.7941305046458234 -1.742182769421051
000080 ea 7a e6 0e 4d d0 01 c0 fc 0f c8 25 53 24 fc bf
       -2.2267094768607096 -1.7588683582152944
000090 11 c9 7b a7 b3 f0 fd bf 5b 41 b8 8f 88 45 00 c0
       -1.8712650816274314 -2.0339518764596227
0000a0 38 5f 37 67 55 d0 f5 bf e7 1c dd dc 57 a7 00 c0
       -1.3633626968275632 -2.0817105536440184
0000b0 d2 bb b6 0a da 70 f9 bf 0a 2b b5 0b 45 16 01 c0
       -1.5900516909130045 -2.135873881784737
0000c0 5f 8f eb 9b af b2 f4 bf 38 93 ca 7f 6e ac f8 bf
       -1.2936245051032171 -1.5420975677345279
0000d0 e2 8a 86 91 98 02 01 c0 a3 82 0f a9 6f 01 f8 bf
       -2.1262675637420765 -1.500350628273886
0000e0 38 a4 89 30 3c 64 01 c0 bd 07 bf a8 97 75 f3 bf
       -2.1739429275517317 -1.2162090865754032
0000f0 3c 78 12 24 01 7a 06 c0 72 ca e0 b5 49 65 01 c0
       -2.8095724886070723 -2.1744569977975567

weight_2 f8 [32, 10]
000000 e1 f6 4d e0 89 d3 0d 40 45 7a e2 91 10 76 0b c0
       3.728290321711811 -3.4326487920036777
000010 a6 33 6b 8d d1 da 09 c0 b3 65 8b 09 3a d2 f1 bf
       -3.2318450020161036 -1.1138248799164614
000020 2a e5 4c 00 74 6d d3 bf 63 6c 1f 8b 4d 98 f4 bf
       -0.3035554888661688 -1.2871833261949852
000030 da 16 40 20 2c 61 02 c0 68 cf 7b 10 c0 8e e4 bf
       -2.297447444873666 -0.642425567812535
000040 4b 04 a0 c3 a0 b9 09 c0 f4 73 5a 51 b4 5f 07 40
       -3.2156386645515673 2.9217306476334617
000050 6d 7c c4 61 d2 5b 12 c0 e5 44 77 47 fa d5 10 c0
       -4.58966973077541 -4.2089625517412275
000060 02 98 30 ac 14 9d d8 bf 40 5f 3c af d7 d4 fb bf
       -0.384587448267098 -1.7394635052823588
000070 94 c1 5f 88 4a 9b e6 bf 94 c3 db 1c 44 a3 d7 3f
       -0.7064564384036651 0.3693399698086577
000080 d1 6f a3 95 63 70 0c 40 cf fb 6a bc f8 a5 01 c0
       3.554877442407794 -2.206040832533723
000090 2a a9 3d 40 dd 99 d5 3f cd b2 06 8c 33 01 06 c0
       0.3375161292411969 -2.7505865993065073
0000a0 6a cf 45 de 84 c6 f3 3f a5 60 15 61 7d 9e 23 c0
       1.2359665567900842 -9.809550317630348
0000b0 1e 52 4b e6 fe c8 0f c0 a8 6a ab c2 98 d4 04 c0
       -3.9731424323783946 -2.6038069923937037
0000c0 ad f9 3d 70 88 d0 f1 3f 33 ad d5 a3 b2 6b 10 c0
       1.113411367841404 -4.105173644940169
0000d0 cc 2e 84 6b bb 96 14 c0 71 29 ff 4b 5f 0b fa bf
       -5.147199325506971 -1.627776429044925
0000e0 a9 a7 52 71 e3 1c 04 40 44 06 d9 dc 00 a7 06 40
       2.5141056874608307 2.831544614193975
0000f0 33 a4 42 81 d9 99 1a c0 c8 19 19 fd 8b 45 ea 3f
       -6.650243777935475 0.8209896033593447
000100 96 96 05 a8 ef e6 24 c0 86 eb 4c 53 69 ce fd 3f
       -10.451047182733685 1.862893414871651
000110 85 14 d8 c2 6f 46 ed bf 31 70 81 98 7c fd 04 c0
       -0.9148482137249095 -2.6237728037358683
000120 17 01 74 e3 d8 5c 1d c0 eb ce b0 fc 24 ec 0a 40
       -7.3406711139253025 3.3653049222428897
000130 53 6a ea d4 06 db 1d c0 32 71 a2 f6 80 90 01 40
       -7.463893248374535 2.195558478195516
000140 36 43 0c b6 74 1e 07 40 44 dc 6b 45 b2 73 1c c0
       2.889871046303962 -7.112984738071706
000150 08 c5 73 7a 78 c7 05 40 3b 89 c0 3b bd 74 be bf
       2.7223977629261107 -0.11896879872123105
000160 6c d3 da bb b2 2a 10 c0 dd d3 27 ef 4f fc d3 bf
       -4.041697440367766 -0.3122749171737363
000170 b1 61 84 b1 a5 61 09 c0 56 c9 60 53 46 de 10 c0
       -3.1726793163799916 -4.217065146238687
000180 a9 21 df c0 5b 5e 08 40 7a ec b5 18 4e ba 1a c0
       3.0460734432310415 -6.681938539603943
000190 a8 7e f8 3e 83 7b e0 bf cd 85 e2 74 87 c3 15 c0
       -0.5150772313972611 -5.440946413350912
0001a0 3e 26 8c da ab 29 e9 3f ee 2d f1 2f af 75 fd bf
       0.7863368290429162 -1.8412315247286375
0001b0 a6 5d 7c 4c 6f 6f 01 c0 ec 55 80 99 c4 36 f7 bf
       -2.179411504311889 -1.4508710857529605
0001c0 ae 59 2c a8 e3 3e 05 40 ef 19 81 7d 16 7d 1c c0
       2.6557076586279527 -7.122156105999678
0001d0 dd 4f d3 0d 21 b2 0e 40 0e c0 ef 2b 47 6f 17 c0
       3.836977108012418 -5.85866993571109
0001e0 1f 28 24 bf e1 8d da bf c7 ad cd fc a3 ed 0e c0
       -0.414909779225697 -3.8660354376095003
0001f0 55 ed e8 9f 66 bc 07 c0 98 65 4f aa 8b 23 09 40
       -2.966992615981932 3.142356234119415
000200 df 90 b6 65 7e 2b 15 c0 d9 18 9a 8e d1 1c fb 3f
       -5.2924743549994835 1.6945357866657587
000210 50 7f 12 92 08 d9 0a c0 11 da 41 f8 fa ef 08 c0
       -3.3559733783621724 -3.1171779055687314
000220 6b c5 46 58 62 6a 1a c0 22 e2 cf a1 fc 74 17 c0
       -6.60389078075364 -5.864244964898292
000230 4e bb 63 36 c3 5a 13 c0 08 87 44 81 19 04 01 40
       -4.838635301434648 2.127001771835129
000240 fb af 88 06 0e 0a da bf fe 44 b0 f1 6c ea 0b c0
       -0.4068636955078088 -3.4894656068723853
000250 a1 ba cb f4 e3 c5 05 40 11 aa 89 f2 52 88 f9 bf
       2.721626198260609 -1.595782229817477
000260 46 61 8b e7 4a 32 e3 bf 63 75 86 bd 1a 80 11 c0
       -0.5998892328598593 -4.375102006274889
000270 27 e4 eb c8 9c 15 f1 3f 57 9c 4f ee 78 ec e8 bf
       1.067776474809088 -0.778866258097774
000280 3e 38 08 d0 86 e5 fa bf eb 7d 4b ff 18 6f 03 c0
       -1.6810367704633928 -2.429246897212342
000290 be 2f f8 a8 f6 b7 f7 bf f5 4b 1a 77 e9 a5 15 40
       -1.4824129677171949 5.4120234117317425
0002a0 06 71 39 b5 21 42 07 c0 96 e4 c0 a1 9b 19 f0 bf
       -2.9072908552317385 -1.0062519377227424
0002b0 49 7d 70 1a ec 64 f7 bf df 64 7e cb 36 ee 0d c0
       -1.4621392281331558 -3.7413154504725834
0002c0 48 93 aa a7 12 c0 e0 bf c6 1e 2c 88 80 75 05 c0
       -0.5234463953716864 -2.6823740614380283
0002d0 0e f2 cd 84 89 a7 de bf b2 ae 90 04 5f 2c 00 c0
       -0.4789756581228922 -2.0216656071332517
0002e0 c0 7e 59 28 1b b9 01 c0 58 a8 63 9f 23 06 14 c0
       -2.2153838302909605 -5.005995264489762
0002f0 00 7b 7c 2f 72 78 0e c0 a7 08 82 1a fb 97 12 40
       -3.808811541544287 4.648418821512826
000300 24 43 c4 67 c8 73 01 c0 9f 96 c6 f9 b7 d4 00 40
       -2.1815345865983478 2.1038665307740554
000310 d3 e3 f9 f3 b7 b8 f3 bf 1a 09 0b 70 c6 86 0c c0
       -1.232597306281822 -3.5658081773155006
000320 12 a0 ab d8 5f ce 10 c0 5f d7 f1 31 07 4c 01 40
       -4.201537499880958 2.162123098557387
000330 74 8e 3a 9f 53 a6 02 40 48 6e 68 2f 4b 14 03 40
       2.3312141837830556 2.384909029364085
000340 7a 0d 67 3b 25 89 17 c0 5d 8d 18 43 6e 54 e7 bf
       -5.883931091465792 -0.7290564833132681
000350 38 b1 fa dd 96 99 0f c0 e1 65 69 a8 ad 5a 15 c0
       -3.949994787419339 -5.338553077157003
000360 9f f9 23 6e d6 91 0c c0 c7 fd 58 25 2a 64 18 c0
       -3.5712097744683002 -6.097817023808097
000370 a4 3f af 41 b2 82 1a c0 06 dc 28 24 b6 43 11 40
       -6.62763311988957 4.316124501222481
000380 eb 36 d3 1a 5d b2 01 c0 49 9e 22 0f c5 35 07 c0
       -2.2120916457850988 -2.901254766696898
000390 35 56 85 b6 26 60 07 c0 a2 5b de ff c7 01 fe bf
       -2.9219488391343256 -1.8754348749987249
0003a0 be a4 97 d7 49 bb 0c c0 4e 30 68 24 fd ea 05 c0
       -3.591449436488431 -2.739740642957293
0003b0 92 9f 1d 49 0e 1e 12 40 a3 2b b0 e6 23 79 17 c0
       4.52935137027079 -5.868301014425842
0003c0 39 39 3c 95 aa 05 0a c0 f5 de 68 d6 63 88 14 40
       -3.2527667674068224 5.133193349982084
0003d0 b0 65 a9 24 10 0a f6 bf 9c 70 8a 61 66 8d 08 c0
       -1.3774568016145672 -3.0690429325459956
0003e0 20 9a 29 cb 3d b5 ed bf c1 87 8b d4 94 c5 e1 bf
       -0.9283741920488104 -0.5553688193579022
0003f0 d2 fa fc 34 f9 af 03 40 c9 4d f8 6b dc 2a 13 c0
       2.4609245433524416 -4.7918564672758714
000400 f9 02 74 b6 79 f9 06 c0 34 e0 0c c9 4d 6b 02 c0
       -2.8718141798166212 -2.3023944575361615
000410 23 17 4f 1e 90 76 0b 40 5a fc 3a 80 63 22 fb 3f
       3.432892071522376 1.695895672702838
000420 0a 70 f6 5f a4 71 11 c0 23 99 7e 19 5e b0 e6 bf
       -4.360978602806435 -0.7090292451801229
000430 c5 7b 01 7c 66 8e f4 bf 52 59 9d 3f f3 ab ea bf
       -1.2847657054878578 -0.8334900133584517
000440 1f 21 0f d9 16 94 0a 40 07 32 0a bf 52 13 04 c0
       3.3223092038862343 -2.5094351696955104
000450 a2 e5 d4 70 c1 13 06 c0 a4 6c 29 c3 23 25 00 c0
       -2.759646302697278 -2.018134617520973
000460 da 62 e4 ef a3 fa 00 40 92 3b fe 3f 71 dc 14 c0
       2.1223829976628226 -5.215275764362461
000470 12 1c 11 c9 f2 13 02 40 f9 f0 d7 13 58 37 19 c0
       2.259740420183797 -6.304046926550876
000480 84 a2 32 be ae 96 01 40 4b d8 34 91 76 da 00 c0
       2.19857548324609 -2.1066714615108473
000490 89 6f c0 85 a1 69 00 40 2c 17 13 73 d6 15 17 c0
       2.0515776109077177 -5.771325872459595
0004a0 41 d9 d2 9c 01 5b 15 c0 9c 0e 4a ac 60 bd 0f c0
       -5.3388733390514185 -3.967469545373957
0004b0 f4 75 2c 97 95 9c e1 bf d8 ff c6 5f 51 66 04 c0
       -0.5503642990694844 -2.549959896336059
0004c0 9c e1 40 22 bb bf ff bf 68 7f ef b2 e1 7a f3 bf
       -1.984309324076185 -1.2175003995580145
0004d0 3e aa f8 37 ac 84 13 40 d1 b7 1a 9e 53 1f f7 bf
       4.879563211967762 -1.4451481033279274
0004e0 61 f8 8a a6 09 37 d2 bf 4e 34 24 d4 98 e7 f1 bf
       -0.28460923446608005 -1.1190422331594791
0004f0 30 5a 2a 81 9e 32 e5 bf 2c 85 f3 d0 3a 51 05 c0
       -0.6624290964853738 -2.664662964278838
000500 28 40 03 a0 35 c8 06 40 cc d1 8b 16 a7 2a 0e c0
       2.84775853166504 -3.7708265077037364
000510 60 79 20 e4 9c f8 03 40 73 41 50 22 6f fa 11 c0
       2.496392996064216 -4.494564567707459
000520 73 60 32 81 1d 45 0f c0 df 05 06 a2 2d 96 ec bf
       -3.908747681951405 -0.8933323063394559
000530 d3 64 ab 3a 13 09 04 c0 e1 92 fe c1 c4 65 01 40
       -2.5044312079959155 2.1746916919531576
000540 34 2d 49 a0 af e9 09 c0 ec 0c 59 aa 21 35 08 c0
       -3.2391045114833563 -3.0259431179452942
000550 66 e7 c4 a7 92 92 10 c0 49 3d 30 98 fd f7 af 3f
       -4.143137570756016 0.06243889315384849
000560 11 68 ba df e6 3d 11 c0 94 e1 90 fe 43 20 08 c0
       -4.310451026680327 -3.015754689022467
000570 47 d4 df b1 b1 5d 01 c0 6d 30 db b4 19 35 00 40
       -2.170749082225061 2.025927937449572
000580 03 73 53 4a 25 78 b9 bf 5d 52 cf c3 ce dd 04 c0
       -0.09948952736472098 -2.6083045289654323
000590 62 98 f6 79 53 1e f1 3f 12 dc 03 b1 eb 44 f7 3f
       1.069903828066821 1.4543263353969036
0005a0 01 1b 38 f4 9e 35 07 c0 f2 43 ec b5 30 f0 13 40
       -2.9011820869085345 4.984560816331383
0005b0 80 23 25 c2 c1 a1 ff bf 8b b7 3c d3 e3 2c 11 c0
       -1.9769914230148231 -4.293837833958501
0005c0 2e 95 05 c9 8f fa 10 c0 eb 20 6e c9 0f c0 f3 bf
       -4.244689122167342 -1.234390055500678
0005d0 25 f8 df 61 a8 82 00 c0 26 27 49 19 ce e5 0f 40
       -2.0637977262949954 3.9872095084619046
0005e0 cc a2 82 49 1a 3f 04 c0 3a d8 60 b4 36 27 12 c0
       -2.5308118575088425 -4.538294618998458
0005f0 5a 5b 4e ee dc c6 06 c0 3b 46 09 34 fa 8f 17 c0
       -2.847101079717885 -5.890602887216626
000600 27 4f 2e dc 62 e7 0f c0 f6 e6 a0 39 8a a7 01 c0
       -3.9879815293915217 -2.2068066122272922
000610 e0 8d 57 cc bc 0a 18 c0 bb 9b b8 9c 96 df 02 c0
       -6.010485833019146 -2.3591739887083043
000620 39 c4 3a 60 23 57 12 c0 3c 92 c4 2e 08 46 1a 40
       -4.585095885836432 6.568390589473491
000630 04 08 3e 1d 61 4c 07 c0 48 36 31 84 31 90 00 40
       -2.912294605689569 2.0704069449919054
000640 7f 60 84 1e 65 10 11 40 fc d1 97 f6 53 0c 14 c0
       4.266010739164016 -5.012039044395802
000650 71 dc 87 c8 83 17 17 c0 8b 9f 5e 98 2c bd fd bf
       -5.772963650982192 -1.8586851074159962
000660 13 42 32 d9 aa 02 0a c0 7b 87 77 f4 53 21 ce 3f
       -3.251302430006271 0.2353920882879342
000670 04 85 e4 02 a3 3a f0 3f c3 1c fe b1 56 98 02 40
       1.0143156159395526 2.3243841081308303
000680 4e 72 f5 60 36 14 08 c0 31 54 76 d8 9a ab da bf
       -3.0098693442253426 -0.4167239297760857
000690 5b 28 da 78 ea 61 22 c0 d3 0c e5 af 66 c4 25 c0
       -9.19124200499589 -10.883595940313546
0006a0 fe 93 15 8a 53 b5 0e 40 1e 49 f8 8c dc 65 0d 40
       3.838538244994651 3.6747370732565647
0006b0 a3 1f 64 6c d3 c4 1e c0 c9 ee 6c 35 1a 22 18 c0
       -7.692212766276415 -6.03330310323117
0006c0 a8 93 04 2a 99 fd 21 c0 cb 59 3f 3d dd d0 0e 40
       -8.995309174593629 3.8519844803770176
0006d0 92 db c6 3f 81 17 1c c0 9d 42 5f 92 12 34 2c c0
       -7.022953983795462 -14.101704191330379
0006e0 4c 8f 66 42 dc 4f 06 c0 bf d1 ac fe a9 26 10 c0
       -2.78899433017242 -4.037757853792242
0006f0 51 cd f7 50 d2 73 0f c0 c5 4d 4f 6a 7a 5a 12 40
       -3.9315534902213263 4.588357602205581
000700 87 71 a9 57 72 1b d8 bf 9d 42 08 61 30 c1 ec bf
       -0.3766752105782633 -0.8985826392327741
000710 03 f6 23 49 fa 8a 0b c0 dd ee 7e c1 58 28 0b c0
       -3.442860194597189 -3.394700538335981
000720 04 47 ad c3 da 32 ea 3f f8 e1 5b ca 64 16 f5 3f
       0.8187078306020514 1.31796721502735
000730 c6 e7 76 6b 1d 93 00 c0 9c 63 8d c8 3d 43 11 c0
       -2.071833457533077 -4.315665372495371
000740 e0 ed 79 35 f3 77 a8 bf 5b 9d 8f 65 a1 a3 0c c0
       -0.047790146139018 -3.57989768356826
000750 70 7a dc 63 59 ec 0b 40 96 b0 b4 7d 6a a1 08 c0
       3.4904048730525616 -3.0788163967864177
000760 9d a6 9c 7a fb 11 c2 3f 19 b0 5e 21 4a 93 fd 3f
       0.1411737774554255 1.848459368086884
000770 e7 cc 49 50 8b 21 09 c0 e8 1d b5 bc 47 3b 12 c0
       -3.141379000904283 -4.55789084296655
000780 75 59 cb 94 7b 91 02 c0 78 75 02 fe 44 71 1a c0
       -2.321036493736012 -6.61061474695213
000790 96 d7 25 fe 3d 1e 10 c0 4a b9 9d e1 50 d1 f9 3f
       -4.029533358630848 1.6136025250558128
0007a0 22 cc bb db cc 77 17 c0 05 5e b0 28 fb fa 02 40
       -5.866992410027736 2.3725493601630228
0007b0 80 c8 d9 ba 0c 7a f6 bf 18 87 20 d6 46 cd 08 c0
       -1.404797296414955 -3.1002327660252256
0007c0 4e 92 7a 9f 39 16 e8 3f e3 25 27 58 1f 7b 1d c0
       0.7527130236454214 -7.370236756696133
0007d0 b5 75 32 6b a5 20 12 c0 72 e6 04 22 46 2b fb bf
       -4.531881022410222 -1.6980649308083255
0007e0 f1 3a 73 4a 41 25 e6 3f a9 71 80 75 ad 96 ff bf
       0.6920477346519346 -1.9742865171348092
0007f0 47 18 b8 ca 43 ef f9 3f f3 8c 17 c9 ef 9b f1 bf
       1.620914260741772 -1.1005704741626772

bias_2 f8 [1, 10]
000000 d2 12 9e 92 da 30 eb bf 89 1a 25 05 32 f3 86 3f
       -0.8497135985968163 0.011206045896540633
000010 70 e1 b2 f7 69 73 d4 bf 0c 25 31 4e f7 57 c9 3f
       -0.3195443076069955 0.19799701040236817
000020 ce aa 23 9e 94 f2 d5 bf aa 70 03 50 67 1c 9b bf
       -0.34293094104093036 -0.026475538500435526
000030 10 8e ea b9 ae 6f d4 bf 5f c8 ce 29 7c 6c d4 bf
       -0.31931656032449585 -0.31912139971530523
000040 9c 58 5d 78 8b 56 e4 3f 0d 77 d0 de c5 ea e6 3f
       0.6355645514365906 0.716158805069172

loss_history f4 [105]
000000 08 00 23 3f cc 0b 9d 3e a6 ae 7e 3e 92 57 60 3e
       0.6367192 0.30673063 0.2487131 0.21908405
000010 4f a6 4d 3e 16 c9 41 3e a1 0b 35 3e 25 71 30 3e
       0.20082973 0.18924364 0.17680217 0.17230661
000020 d4 f6 28 3e 60 b4 25 3e af 0f 26 3e 18 76 1e 3e
       0.16500407 0.16182089 0.1621692 0.15474737
000030 a9 8f 20 3e 89 cc 16 3e 38 d6 19 3e a3 87 20 3e
       0.15679802 0.14726461 0.15023124 0.15676741
000040 0e fc 19 3e b2 40 1b 3e 81 18 16 3e 31 ba 13 3e
       0.15037557 0.15161398 0.14657785 0.14426495
000050 67 ed 18 3e 31 a7 17 3e 1e 79 1b 3e 31 e3 1a 3e
       0.14934312 0.14809872 0.15182921 0.15125729
000060 ea b8 14 3e 7a e0 15 3e a5 d1 0e 3e 33 2d 19 3e
       0.14523664 0.14636412 0.1394716 0.14958648
000070 16 20 16 3e 2e 81 16 3e d1 4f 1c 3e ec 0c 1a 3e
       0.14660677 0.14697716 0.15264823 0.15043992
000080 f9 83 19 3e 21 6a 25 3e fd af 1e 3e 40 dd 29 3e
       0.1499175 0.16153766 0.15496822 0.16588306
000090 97 a0 21 3e a0 84 24 3e 09 8b 1e 3e 36 8b 25 3e
       0.15783916 0.16066217 0.15482725 0.16166386
0000a0 a9 56 23 3e eb 31 2d 3e e3 c4 27 3e 7f 83 26 3e
       0.15951027 0.16913573 0.163837 0.162611
0000b0 41 55 2e 3e f6 c5 2c 3e 1e 2e 26 3e 71 2d 33 3e
       0.1702471 0.16872391 0.1622853 0.17497803
0000c0 be c8 36 3e c8 7f 31 3e b9 dc 33 3e ef 07 2d 3e
       0.17850015 0.17333901 0.17564668 0.16897558
0000d0 46 16 35 3e cb 57 36 3e 7c 41 31 3e 4b 6d 41 3e
       0.17684278 0.17806928 0.17310137 0.18889348
0000e0 bf 02 3d 3e 2f 91 33 3e 88 83 39 3e e1 47 3d 3e
       0.18458079 0.17535852 0.18116581 0.18484451
0000f0 66 71 33 3e ca cb 3f 3e 18 9e 3c 3e 74 53 4c 3e
       0.17523727 0.18730083 0.18419683 0.1995371
000100 6a 1a 40 3e 9a d8 3d 3e 68 fe 43 3e 88 d8 4e 3e
       0.18760076 0.18539658 0.19140017 0.20199788
000110 18 a2 42 3e 0a 2f 4e 3e be 8c 3e 3e 02 65 4e 3e
       0.19007146 0.20135131 0.18608376 0.20155719
000120 dc a0 55 3e a2 74 4a 3e de 59 53 3e 57 b4 4e 3e
       0.20862144 0.19771054 0.2063975 0.20185982
000130 db a0 58 3e 97 a1 4e 3e 15 40 55 3e 15 77 61 3e
       0.21155111 0.20178829 0.20825227 0.22018082
000140 55 5e 5a 3e 21 ea 63 3e ff 6e 53 3e 7e 9e 5e 3e
       0.21325047 0.22257282 0.2064781 0.21740147
000150 74 0e 60 3e 86 b7 69 3e 09 bd 69 3e d1 48 69 3e
       0.21880513 0.22823915 0.22826017 0.22781684
000160 d5 c1 61 3e 2f 03 6d 3e d3 26 69 3e 73 2f 6d 3e
       0.22046597 0.23145746 0.22768717 0.23162632
000170 9d 49 62 3e 2e 58 70 3e 87 96 6b 3e f3 e7 72 3e
       0.22098394 0.23471138 0.2300664 0.23721294
000180 3a 10 5f 3e b6 06 78 3e 48 cd 71 3e a7 86 77 3e
       0.21783534 0.2422131 0.23613465 0.2417246
000190 b5 eb 7a 3e da 48 6c 3e f7 b7 77 3e e8 30 7d 3e
       0.24503978 0.23074666 0.24191271 0.24725688
0001a0 b6 b8 77 3e
       0.24191555

accuracy_history f4 [105]
000000 8c a5 a0 42 fd 22 b6 42 ef ae b9 42 e5 57 bb 42
       80.32333 91.06834 92.84167 93.67167
000010 55 55 bc 42 0a 17 bd 42 1b e8 bd 42 29 1c be 42
       94.166664 94.545 94.95333 95.055
000020 89 88 be 42 3a ed be 42 1f c5 be 42 29 1c bf 42
       95.26667 95.46333 95.385 95.555
000030 cd 4c bf 42 5c cf bf 42 41 a7 bf 42 89 88 bf 42
       95.65 95.905 95.82667 95.76667
000040 52 b8 bf 42 52 b8 bf 42 1b e8 bf 42 a7 0d c0 42
       95.86 95.86 95.95333 96.026665
000050 44 c4 bf 42 85 eb bf 42 cd 8c bf 42 0e f4 bf 42
       95.88333 95.96 95.775 95.97667
000060 f6 28 c0 42 07 fa bf 42 0a 57 c0 42 b1 e4 bf 42
       96.08 95.988335 96.17 95.94666
000070 2c 39 c0 42 7e f1 bf 42 f6 e8 bf 42 11 11 c0 42
       96.111664 95.971664 95.955 96.03333
000080 33 f3 bf 42 4b be bf 42 85 eb bf 42 6a 83 bf 42
       95.975 95.871666 95.96 95.75667
000090 9a d9 bf 42 b5 c1 bf 42 e5 d7 bf 42 b5 c1 bf 42
       95.925 95.878334 95.92167 95.878334
0000a0 7b 94 bf 42 66 66 bf 42 bc 7b bf 42 74 9a bf 42
       95.79 95.7 95.74167 95.80167
0000b0 a4 70 bf 42 e5 57 bf 42 4b 7e bf 42 c9 2f bf 42
       95.72 95.67167 95.746666 95.59333
0000c0 11 11 bf 42 26 3f bf 42 03 1d bf 42 7e 31 bf 42
       95.53333 95.62334 95.55666 95.596664
0000d0 8f 02 bf 42 4f 1b bf 42 da 40 bf 42 6a c3 be 42
       95.505 95.55334 95.62666 95.38167
0000e0 8c e5 be 42 cd 4c bf 42 66 e6 be 42 f6 e8 be 42
       95.44833 95.65 95.45 95.455
0000f0 77 f7 be 42 03 dd be 42 8c a5 be 42 b5 81 be 42
       95.48333 95.43166 95.32333 95.253334
000100 9d 76 be 42 c9 2f bf 42 89 c8 be 42 41 e7 bd 42
       95.23167 95.59333 95.39167 94.95167
000110 3a 6d be 42 18 0b be 42 0a d7 be 42 52 78 be 42
       95.21333 95.02167 95.42 95.235
000120 66 e6 bd 42 77 37 be 42 60 ec bd 42 b1 24 be 42
       94.95 95.10833 94.96167 95.07166
000130 ab ea bd 42 4f db bd 42 82 ce bd 42 ae 47 bd 42
       94.958336 94.92834 94.903336 94.64
000140 f2 cb bd 42 e5 57 bd 42 33 b3 bd 42 4f 5b bd 42
       94.89833 94.67167 94.85 94.67834
000150 1b 68 bd 42 77 f7 bc 42 f6 a8 bc 42 cd 0c bd 42
       94.70333 94.48333 94.33 94.525
000160 c3 f5 bc 42 bf d8 bc 42 0e f4 bc 42 93 1f bd 42
       94.48 94.42333 94.47667 94.56167
000170 ab 2a bd 42 74 5a bc 42 33 b3 bc 42 59 b2 bc 42
       94.583336 94.17667 94.35 94.348335
000180 29 1c bd 42 3a ad bb 42 85 ab bc 42 ef ee bb 42
       94.555 93.83833 94.335 93.96667
000190 de 1d bc 42 66 66 bc 42 ab aa bb 42 74 1a bc 42
       94.058334 94.2 93.833336 94.05167
0001a0 6a c3 bb 42
       93.88167

val_loss_history f4 [21]
000000 01 d0 de 3d 1e 1f 00 3e 15 26 7f 3e ee 55 df 3d
       0.10879517 0.1251187 0.24916871 0.10905062
000010 14 be 31 3e b4 78 42 3e 3b ab 66 3e 1c 85 62 3e
       0.17357665 0.18991357 0.22526257 0.2212109
000020 94 9a 91 3e 2c 64 0f 3e 41 2e 08 3e 25 33 80 3e
       0.28438246 0.14003056 0.13298894 0.2503902
000030 71 37 be 3e 9d 7b 9e 3e fe e0 8d 3e aa 57 5d 3e
       0.37151673 0.30953684 0.27710718 0.21615472
000040 d9 59 9a 3e fd ac c7 3e 97 76 a8 3e 0f c4 5d 3e
       0.30146673 0.38999167 0.32902977 0.21656822
000050 f2 86 a0 3e
       0.31352955

val_accuracy_history f4 [21]
000000 66 66 c1 42 66 66 c1 42 66 66 c0 42 33 33 c3 42
       96.7 96.7 96.2 97.6
000010 cd cc c0 42 9a 99 c0 42 cd cc c2 42 33 33 c2 42
       96.4 96.3 97.4 97.1
000020 66 66 c0 42 cd cc c2 42 00 00 c2 42 9a 99 c0 42
       96.2 97.4 97.0 96.3
000030 cd cc be 42 33 33 c0 42 33 33 bf 42 9a 99 c0 42
       95.4 96.1 95.6 96.3
000040 66 66 c0 42 9a 99 be 42 cd cc be 42 33 33 c0 42
       96.2 95.3 95.4 96.1
000050 00 00 bf 42
       95.5
