checkpoints/model_epoch_0045.npz (npz, 394922 bytes, 10 tensors)

weight_0 f8 [784, 64]
0	0x0000000021e5124b	2.809556444e-315
1	0x000000000e517a7f	1.18684844e-315
2	0x000000000dfdcc53	1.159753507e-315
3	0x000000001a30b44e	2.170921987e-315
4	0x00000000046e4c3d	3.67275264e-316
5	0x800000001dd10811	-2.47150585e-315
6	0x800000000becabc0	-9.8842694e-316
7	0x800000001f76a1b5	-2.60801613e-315
8	0x0000000003b9a6e1	3.0878376e-316
9	0x8000000021b1a0d8	-2.79289962e-315
10	0x0000000021f24b73	2.813838017e-315
11	0x8000000002f0601f	-2.43612303e-316
12	0x0000000020091a8d	2.65544244e-315
13	0x0000000004f44bed	4.10662844e-316
14	0x80000000211ab90c	-2.74403781e-315
15	0x800000000892c33d	-7.1064409e-316
16	0x0000000017ce89d0	1.973355817e-315
17	0x800000000e67289f	-1.193868285e-315
18	0x0000000013192721	1.583063013e-315
19	0x000000000296f08b	2.1465379e-316
20	0x00000000123ad668	1.511079343e-315
21	0x80000000144d3b11	-1.682815816e-315
22	0x0000000014272a71	1.670490736e-315
23	0x0000000011cf7497	1.47631e-315
24	0x0000000004729421	3.68661355e-316
25	0x00000000179248c1	1.95384608e-315
26	0x800000000f808609	-1.28497167e-315
27	0x80000000069c7e1f	-5.48013657e-316
28	0x00000000000a7e2f	3.397507e-318
29	0x0000000002ac3580	2.21540617e-316
30	0x0000000021c1d819	2.79815016e-315
31	0x000000000a95c65f	8.77400346e-316
32	0x80000000038b6b22	-2.93813814e-316
33	0x0000000008e2cbd6	7.36558233e-316
34	0x00000000031154aa	2.5428291e-316
35	0x800000001ccbff8e	-2.38698567e-315
36	0x00000000074233f5	6.01669137e-316
37	0x800000000da35b27	-1.13046919e-315
38	0x800000001897fefd	-2.038585985e-315
39	0x0000000021d3d773	2.803977573e-315
40	0x800000000dea8b61	-1.153519337e-315
41	0x800000001b04ec79	-2.23963669e-315
42	0x800000000cc1ee70	-1.05747874e-315
43	0x000000000d57c830	1.10599899e-315
44	0x000000001e827b68	2.528962715e-315
45	0x800000000ef36c45	-1.23928457e-315
46	0x000000001e902aa3	2.53339363e-315
47	0x000000001563665d	1.772884437e-315
48	0x800000000b8422fa	-9.545797e-316
49	0x000000001509ac11	1.74383142e-315
50	0x800000001fe3afd2	-2.643327183e-315
51	0x800000000a8e417f	-8.7496575e-316
52	0x8000000021e469ef	-2.8093435e-315
53	0x80000000038bd9b6	-2.93953674e-316
54	0x00000000014591d5	1.0541648e-316
55	0x800000000e5c07b8	-1.19026497e-315
56	0x800000000a989782	-8.78312445e-316
57	0x000000001411b151	1.66353793e-315
58	0x0000000022da9825	2.8890545e-315
59	0x80000000238323f8	-2.943628217e-315
60	0x80000000017c029f	-1.23043843e-316
61	0x8000000018ad7810	-2.04553873e-315
62	0x000000000218bc58	1.7379012e-316
63	0x800000000d2617f7	-1.08991035e-315
64	0x8000000008a717a4	-7.1722666e-316
65	0x000000001114eb6e	1.41591142e-315
66	0x80000000122bdd0c	-1.50623088e-315
67	0x8000000008aef116	-7.1976822e-316
68	0x800000001b52e4cb	-2.264882666e-315
69	0x800000001f882b34	-2.61369448e-315
70	0x800000000334a2a0	-2.65714196e-316
71	0x000000000a839c20	8.71518677e-316
72	0x000000000b8871f6	9.5597476e-316
73	0x800000001a9037b9	-2.20184834e-315
74	0x000000001c38b137	2.339289327e-315
75	0x8000000021465ed4	-2.7581705e-315
76	0x80000000230ae726	-2.904696387e-315
77	0x00000000162ba722	1.83772453e-315
78	0x80000000013bff53	-1.0231706e-316
79	0x000000001eee93af	2.563962834e-315
80	0x0000000005fc35b7	4.9611554e-316
81	0x0000000016856a53	1.866788797e-315
82	0x800000001004dbd7	-1.32782059e-315
83	0x000000002218d5e7	2.826317186e-315
84	0x800000001ebd1e2e	-2.54794846e-315
85	0x800000000181da45	-1.2493555e-316
86	0x8000000015e8c04f	-1.816062386e-315
87	0x8000000006659242	-5.3023063e-316
88	0x000000000d7802e7	1.11643456e-315
89	0x000000000ec6fd43	1.224897366e-315
90	0x8000000010a893d8	-1.38083123e-315
91	0x80000000025535d0	-1.93371207e-316
92	0x000000000837150b	6.80958797e-316
93	0x800000001496df26	-1.70666008e-315
94	0x000000001bb18f69	2.295534805e-315
95	0x000000001f124a93	2.575526836e-315
96	0x80000000215a3899	-2.76459796e-315
97	0x00000000026ac360	2.00349864e-316
98	0x800000002112ccb9	-2.74147237e-315
99	0x8000000014f5a941	-1.737352047e-315
100	0x8000000008629596	-6.95044387e-316
101	0x800000000aa3e348	-8.81969983e-316
102	0x00000000159f4de4	1.792280936e-315
103	0x800000000b2973b2	-9.25216824e-316
104	0x8000000000e49f48	-7.4025777e-317
105	0x000000001d86d147	2.44747603e-315
106	0x800000001e36d0d5	-2.504462657e-315
107	0x00000000151c2619	1.749814003e-315
108	0x800000001f613320	-2.601076655e-315
109	0x000000001521af66	1.751606616e-315
110	0x00000000128b9b33	1.537231518e-315
111	0x0000000011128172	1.41512979e-315
112	0x8000000016ce8a61	-1.890466073e-315
113	0x00000000162b90d7	1.837696335e-315
114	0x80000000220327b5	-2.819297254e-315
115	0x80000000016cb256	-1.18085434e-316
116	0x800000001e96bbe1	-2.53552008e-315
117	0x00000000242b4c06	2.998075743e-315
118	0x00000000219201f2	2.782661126e-315
119	0x000000001ea488f3	2.539988733e-315
120	0x00000000040da57c	3.3598043e-316
121	0x800000001fc130e6	-2.63215776e-315
122	0x000000000f8f5145	1.28976179e-315
123	0x000000001766e5a2	1.939797703e-315
124	0x000000001afd8b65	2.23724737e-315
125	0x8000000020c99aef	-2.717772663e-315
126	0x0000000012872d86	1.535797635e-315
127	0x80000000148d5759	-1.7035742e-315
128	0x0000000010ff8c68	1.408991626e-315
129	0x8000000004592c21	-3.60435044e-316
130	0x000000000ee14402	1.23340541e-315
131	0x0000000006fe166d	5.79614007e-316
132	0x0000000001ed93d7	1.59815884e-316
133	0x8000000008d08adf	-7.3064783e-316
134	0x0000000021a788f0	2.789631473e-315
135	0x800000001dc893ef	-2.468768637e-315
136	0x80000000097d745f	-7.8663519e-316
137	0x000000000a578ebb	8.57254937e-316
138	0x8000000001826021	-1.25104857e-316
139	0x800000000204322c	-1.6713954e-316
140	0x800000000a8946c2	-8.7335345e-316
141	0x0000000009c9f39f	8.1140424e-316
142	0x800000000534cb90	-4.31546895e-316
143	0x000000001400590c	1.65792184e-315
144	0x0000000021377f19	2.75335445e-315
145	0x800000001eb2882e	-2.54452083e-315
146	0x000000001b1efb0a	2.24807368e-315
147	0x000000001d41ab77	2.425086633e-315
148	0x800000000dcaa633	-1.14319195e-315
149	0x0000000000c70166	6.443615e-317
150	0x800000001e0d535d	-2.491028537e-315
151	0x000000000d94131f	1.12552122e-315
152	0x000000000ba00279	9.6360473e-316
153	0x8000000013752abb	-1.61285633e-315
154	0x00000000211dd2a5	2.74504156e-315
155	0x000000000b300a47	9.27350027e-316
156	0x8000000011c4ae49	-1.472821276e-315
157	0x800000000690a494	-5.44176807e-316
158	0x00000000042fa415	3.46987545e-316
159	0x8000000012b57380	-1.55078052e-315
160	0x8000000001dd722f	-1.5459266e-316
161	0x800000000fac1115	-1.29907054e-315
162	0x800000002042b4ed	-2.67409377e-315
163	0x800000001d7f72a6	-2.445089805e-315
164	0x0000000019638476	2.10448435e-315
165	0x800000001449ad1c	-1.681664895e-315
166	0x00000000026701a0	1.99133435e-316
167	0x8000000010b83c59	-1.385901216e-315
168	0x00000000147c9c74	1.69815716e-315
169	0x000000001ed384bb	2.55520157e-315
170	0x000000000d66a858	1.11081558e-315
171	0x8000000002c7ef73	-2.3051816e-316
172	0x80000000228f53d8	-2.8646838e-315
173	0x800000001481d3d8	-1.699846175e-315
174	0x00000000069dbdbd	5.4841791e-316
175	0x00000000072c875d	5.9465123e-316
176	0x800000000def0b57	-1.154976346e-315
177	0x800000000e5ace68	-1.18986869e-315
178	0x800000000bfcf233	-9.936967e-316
179	0x8000000008662c43	-6.96206335e-316
180	0x800000001e874e50	-2.530524634e-315
181	0x800000001c29567f	-2.334317723e-315
182	0x800000000d64ff66	-1.110278104e-315
183	0x800000000478c552	-3.7066632e-316
184	0x00000000000a7251	3.382497e-318
185	0x8000000011f246aa	-1.487584595e-315
186	0x800000000fb04cb1	-1.3004411e-315
187	0x80000000004a053d	-2.396715e-317
188	0x80000000206fefc4	-2.68873878e-315
189	0x00000000044e1790	3.5684733e-316
190	0x00000000091619f7	7.53170385e-316
191	0x00000000029214d7	2.13080745e-316
192	0x8000000022f6b1ff	-2.898153343e-315
193	0x800000001947cdef	-2.09551113e-315
194	0x800000000fde5c1d	-1.315354986e-315
195	0x800000001fab98d9	-2.62516584e-315
196	0x80000000020cbbea	-1.69904087e-316
197	0x800000001846c5a6	-2.0122864e-315
198	0x800000001b8bc85f	-2.283302797e-315
199	0x80000000158e9f3d	-1.78687938e-315
200	0x000000000807511f	6.65492823e-316
201	0x800000000c3e9bc2	-1.014957564e-315
202	0x8000000000961ec0	-4.860752e-317
203	0x000000001a5121d8	2.18142184e-315
204	0x000000001f2bc9da	2.58378259e-315
205	0x00000000054472aa	4.3661511e-316
206	0x800000000f69db83	-1.27763259e-315
207	0x000000001555cbf1	1.76847984e-315
208	0x0000000015f5ce56	1.82028941e-315
209	0x8000000017c1fa01	-1.969288437e-315
210	0x8000000018a197c0	-2.041693317e-315
211	0x0000000022f5068e	2.89761271e-315
212	0x000000001a5e2080	2.18562942e-315
213	0x8000000014165a41	-1.665046765e-315
214	0x800000001a8b19c1	-2.20019148e-315
215	0x000000001cdc6e7a	2.39230662e-315
216	0x8000000011e117e1	-1.482020976e-315
217	0x000000000e57723e	1.18878075e-315
218	0x000000001d52bb48	2.43061108e-315
219	0x0000000001fec17f	1.65378075e-316
220	0x00000000220d47de	2.82257584e-315
221	0x000000001c79fb75	2.360429636e-315
222	0x8000000000c84b3a	-6.485332e-317
223	0x800000000da0a0df	-1.129585997e-315
224	0x000000001caea4a1	2.37748073e-315
225	0x800000000c1f0881	-1.0047338e-315
226	0x800000000446b5b9	-3.54457047e-316
227	0x0000000005d85052	4.8449272e-316
228	0x8000000000f31c19	-7.8716718e-317
229	0x00000000194fa7ec	2.09805338e-315
230	0x800000002122c52d	-2.74664348e-315
231	0x8000000008eff831	-7.40823615e-316
232	0x800000000131e5f0	-9.904704e-317
233	0x00000000046a4f3a	3.6598388e-316
234	0x0000000011a9e6fa	1.464150627e-315
235	0x000000001ecade54	2.552400774e-315
236	0x800000001cee99e7	-2.39818978e-315
237	0x800000001200c73e	-1.492280294e-315
238	0x0000000007065252	5.8228009e-316
239	0x800000000aefc319	-9.06537383e-316
240	0x00000000026b1afa	2.00460664e-316
241	0x00000000229e9572	2.869623636e-315
242	0x0000000010ed19a7	1.40301825e-315
243	0x800000001a51f661	-2.181690657e-315
244	0x00000000187a4fe7	2.0289746e-315
245	0x000000000e38e91a	1.178893565e-315
246	0x000000001d7beded	2.443950563e-315
247	0x0000000007237b90	5.91722187e-316
248	0x000000000f8d95ee	1.289201053e-315
249	0x800000000de11c28	-1.150464544e-315
250	0x0000000015832e3c	1.783174753e-315
251	0x8000000018db2edf	-2.060340536e-315
252	0x800000000ef995ce	-1.241279847e-315
253	0x00000000036aa06e	2.83196126e-316
254	0x000000001e06d1c0	2.488921856e-315
255	0x000000000cc9e74a	1.060060026e-315

bias_0 f8 [1, 64]
0	0xbfba8c0aa37f3b21	-0.10369936458230856
1	0xbfd1ade76bff1a1a	-0.27623925730259347
2	0xbfb4edeaee3a5eda	-0.0817553359614708
3	0xbfafb41b2ad7f85a	-0.061920975665984826
4	0xbfbb3f5cff727470	-0.10643559681416703
5	0xbfd73d1adae65376	-0.3631045472805491
6	0xbfa2eecc37487271	-0.03697813200799239
7	0xbfd07a36d4e42683	-0.25745936193616376
8	0xbfcd9611f1d56eb8	-0.23114227588927405
9	0x3f97cac06e2ec348	0.023234373784080803
10	0x3fc76378bb5b538b	0.18272313259390346
11	0xbfb08fcb6e9582b6	-0.0646941323261768
12	0xbfdafd9247c120ff	-0.42172677047030044
13	0xbfbdd71a84743677	-0.1165634702085415
14	0xbfd560308e809423	-0.3339959518073689
15	0xbfd6dc4517ea27fa	-0.35719420752923237
16	0x3fd1bea9bb1ccfda	0.27726214668950677
17	0xbfc471a2f5a1abd5	-0.15971791261412585
18	0xbfc7f2b6d3c64bfb	-0.18709454861217964
19	0x3fa5248c2cc1e61b	0.041294460738708426
20	0xbfc5ead6a490eeb6	-0.1712292007012956
21	0x3fd39a66fa4b45d0	0.3062989658620525
22	0xbfc741a755b273b2	-0.18169109043529158
23	0xbfd22f0014e0ce41	-0.2841186717880398
24	0x3fc4399b6f6b75e5	0.15800803127687782
25	0xbfbfcd63435ce207	-0.12422771830177491
26	0xbfaab3c636b67adc	-0.05215281885033615
27	0x3fd0785c37f58949	0.2573462053752747
28	0x3fc71190029b56f2	0.18022346617970403
29	0xbfbfe06c33922a6a	-0.12451816805893548
30	0x3f9e70e6be3f0b1c	0.029727559434614567
31	0xbfb6111942f8b0ee	-0.08619840512318763
32	0xbfcc5abffe5a96d1	-0.22151946944830184
33	0xbf7415796600d1b0	-0.004903291905112558
34	0xbfc19673c0bff73c	-0.13740393554319918
35	0xbfd666f58abd66d6	-0.35003412770093456
36	0xbfb49e61e38ffeb2	-0.08054172330593692
37	0xbfd1d8abe7e981da	-0.27884957931203547
38	0xbfb535f60bbb1c5d	-0.0828546312942406
39	0x3fb4362558801ee0	0.07895120058685334
40	0xbfbbceed4146061e	-0.10862620204536497
41	0x3f8147da630ca614	0.008437830112217028
42	0x3f87726e6436c40f	0.011448728974615489
43	0xbf94bdb49a39f6e9	-0.020254918969377398
44	0xbfd0e02ffb8d0f53	-0.2636833149483568
45	0xbf9a2ffadaa6f26e	-0.025573653789012267
46	0x3f9ec0069abc1a4b	0.030029395288716548
47	0x3fb940e07ea548b6	0.09864619342741573
48	0xbfdf01d277b3862b	-0.48448621453835256
49	0xbfc982cae8dae484	-0.1993039738643213
50	0xbfc44d47b7710fe6	-0.15860840279685745
51	0x3fb069d8e67c53ac	0.06411510111895663
52	0x3f80a617e1f64e86	0.00812929781276429
53	0x3fc56d9265e2193e	0.1674063680149604
54	0xbfa47662dae5109b	-0.03996571466498829
55	0xbfda11c8adaaa441	-0.4073354431116663
56	0xbfd883ab2a88866a	-0.38303641465799976
57	0x3fafe292de41094f	0.06227549517690766
58	0xbfd488a10fdbb84b	-0.3208391814104103
59	0xbfcb391a55cfb666	-0.21268014135368957
60	0x3fb1f7ad83adbccd	0.0701855131608113
61	0x3faa837d5525a925	0.05178443588632068
62	0x3fc6df18e343c93b	0.17868338677323856
63	0xbfc50d806757e4ee	-0.16447453542767881

weight_1 f8 [64, 32]
0	0xc0017cd919699441	-2.185960958990592
1	0x3fde88ab8177890c	0.4770916714025055
2	0xc00f3c4fff4a8bf6	-3.9044494576096396
3	0x3fbbb705fae47e16	0.10826146483713503
4	0xc0036e81641af0e2	-2.4289577313157773
5	0x3fcd74b86084ce60	0.2301245185168339
6	0xbff1a637a2a44dc2	-1.1030804017253648
7	0x3fe590d49da1bdbe	0.6739295080896495
8	0xbfe2c695ae8bd1e6	-0.586741295729152
9	0xbffe84a0c4f59baf	-1.9073798841215923
10	0xbfb1778586b217bc	-0.06823000467747325
11	0x3facc9f8fb68db45	0.0562284285446624
12	0x3ff5636bcbd73f3d	1.3367727243930425
13	0x3ff10c8f67eb7975	1.065566450058751
14	0x3fe5f72eac88cd0f	0.6864236230671014
15	0x3fe2fd3e702082dc	0.5934135618191152
16	0xbfe33c48c53295ed	-0.601108918334544
17	0xc005d03d49750b99	-2.726679395565452
18	0x3fe7ce9259c0a053	0.7439662697770565
19	0xbffd8588bac586b9	-1.8451010986104122
20	0xbfd7fead25bc74d6	-0.3749192112462202
21	0xbfee5d22f6672e48	-0.9488692104873246
22	0xc00d44187b040eaf	-3.6582498179066856
23	0x3fee87d2f3d4a721	0.954080082160747
24	0xc00808159138107d	-3.0039473862871646
25	0x3ff4ef30327b705b	1.3083955738029747
26	0xbfd190e494774d4f	-0.2744685602057943
27	0x3fcaaeb678595376	0.2084568107262858
28	0xbfe99e9e759c7cb6	-0.8006126687140724
29	0xc007a0509d11b86a	-2.9532787581475093
30	0x3fe3446a35a2e686	0.6021014258942194
31	0x3f9e63fb62ef1a1b	0.029678275979472795
32	0x3fe3736db629f90f	0.6078404004945542
33	0xbff4280244df0b31	-1.2597677889140864
34	0x3fb88eb5b9686c61	0.09592757965622091
35	0xbff71bb095ba57b1	-1.4442602013345829
36	0x3fc48d8e302d6d3b	0.16056992866911365
37	0x3fbfe8a2bc2682de	0.12464348882214035
38	0x3fe7d816c0df472f	0.7451280371699108
39	0xbffd34057bb208c7	-1.8252005416730286
40	0x3fced030494dcc37	0.24072841243068563
41	0x3fcd13e0f419a01e	0.22716915053320091
42	0x3fe1a4d2a6f60480	0.5513699780423309
43	0xbffc19a7e3c7bd75	-1.756263627783338
44	0xbffea0373d8a3c31	-1.9141151813416963
45	0x3fd8b31910b78b85	0.38593126900212155
46	0x3fd782c02dba6e56	0.3673553892674354
47	0xbfc99979c76e5e18	-0.19999620664451423
48	0xbf90a00309dab473	-0.016235396839580262
49	0xbff3b0e116e5d96c	-1.2306834120223256
50	0xc0092efc0807c4e1	-3.147941649186223
51	0xc0022d4bf74b55c1	-2.2721175498834048
52	0x3fe16c2947005f60	0.5444532763240026
53	0xbfdd21d56514420a	-0.4551900374508767
54	0xbfa9ea126c7c6e6a	-0.05061395239155504
55	0xc006f7461a9a4707	-2.870739181359457
56	0x3fd30bad083916b9	0.29758764079120287
57	0xbff7747a8cd24231	-1.465937185366908
58	0x3f38aaee91690d74	0.0003763992730549594
59	0xc00796740f9e6879	-2.9484635563103976
60	0xbfe96dbe04d16376	-0.7946462720966412
61	0xbffa69c208c960de	-1.6508198111751464
62	0xbfefdcfe52c8c2d3	-0.9957267395858146
63	0xbfe27d760b16a3df	-0.5778150765009932
64	0xbff11cd3b9b8762b	-1.0695378546437364
65	0x3fd88363e0c21ba3	0.3830194182304984
66	0xbff1a0fc3d0a8c22	-1.1018030533239274
67	0x3fe751fd91bac20d	0.7287586065559154
68	0xbfee8bf332616ca0	-0.954583738708056
69	0xbfe8ef7010ba1675	-0.7792282416055075
70	0x3fe766a3478ee7d9	0.7312790296193682
71	0xbff2419e3a5b1880	-1.1410200385594464
72	0x3f8b75923095356a	0.013407842738753135
73	0xbfc3acc7a824eeb8	-0.1537103243843967
74	0xbff3ddcfd5e5d4eb	-1.2416532855398212
75	0x3fdb2b4304ce82cb	0.4245154902401224
76	0x3fd3aae6bba624f4	0.30730598759744443
77	0x3fcee0252b7e6e02	0.24121536849712305
78	0xc00b0233118c0c76	-3.3760739680160965
79	0xbffa7e2fd76c5e59	-1.6558073439572552
80	0xbfe7fd1bf4ea4dac	-0.7496471198559695
81	0xbfcd3c2c14ae894c	-0.2283988095269457
82	0x3fe40e63aaefb78f	0.6267565096475084
83	0x3fe15066576c839f	0.541064425229809
84	0xbfda39bcf9b4e94c	-0.4097740591565937
85	0x3fc3d04bbb331204	0.1547941841182735
86	0xbfd643661476a9ae	-0.34786369322196264
87	0xbff573eebb3dad77	-1.3408038438891177
88	0x3fd064378f6af5e9	0.2561167622150991
89	0xbff85eb02652376a	-1.5231172081871258
90	0xbfb593af8a31cf91	-0.08428475498095468
91	0xbfe638a276648cb1	-0.694413405643351
92	0xc00a2448690e802d	-3.2677162368345507
93	0xbfc9346b8174b9df	-0.19691222973911146
94	0xc0015e6f5fafde8e	-2.1711108661218708
95	0xbfc08cf3e392c90e	-0.1293015347669741
96	0xc0003cff0cecf671	-2.0297833452048555
97	0xbff5ecb3ff206cc4	-1.3702888456235067
98	0xc0095b09401ea0dd	-3.1694512376162565
99	0xbfe646eb925169f8	-0.6961572511457339
100	0xbfddb5d91810c5b1	-0.46422412252567385
101	0xc0002d41c23e3877	-2.0220980811346254
102	0xbff68d267ec5e885	-1.4094605400155455
103	0xc000bab6ac0babc5	-2.0911687317907046
104	0x3fcd368103fac1b7	0.2282258290702097
105	0xbfed061ebca38035	-0.9069970783566591
106	0x3feb118bd9a6559c	0.8458918810817297
107	0xc002b4f8cdb3dc86	-2.338365180064616
108	0xbffadde391765b6e	-1.6791721040842407
109	0xc0034a3e9f3d8c5b	-2.4112522545488395
110	0x3fd7c6414a067312	0.37147552708647524
111	0xbff18916729c8d3e	-1.0959686734211824
112	0x3ff23548666a6a8f	1.1380084992039519
113	0xc0070b15ee584ca4	-2.8804129238793212
114	0x3fd931d16153093d	0.3936656427796555
115	0xbfa00c94cfd4ee08	-0.031345987672889264
116	0xc001570c5ade1b03	-2.1675040339499687
117	0x4001e3bbc74a36f4	2.2361980027698056
118	0xbff6f627cf3174cb	-1.4350965589031144
119	0x3fdeae4d474d4d53	0.47938854182321683
120	0xbfefad51eb14f422	-0.9899072257463823
121	0xbff112e100ad6149	-1.0671091104942028
122	0xbff240741d730c2e	-1.1407357359282844
123	0xbfea2909c1d18376	-0.8175095353618491
124	0x3fe5885a0e2b72ba	0.6728945042373973
125	0xc00386d554576738	-2.440836581151327
126	0x3fe7d9666cc67545	0.7452880978122854
127	0xbfe812999a5c9afa	-0.7522705092313509
128	0xbff364739271c355	-1.21202428059424
129	0xbff77e446ff3a338	-1.468326985656132
130	0xc0062c095e2c8c22	-2.771502242788771
131	0xbfc12bddde7ba36f	-0.13415120471406847
132	0xbff121285a74f6d2	-1.0705951245758354
133	0xc00c786c2350f475	-3.5588000067787626
134	0x3fec0e6ac8c46a11	0.8767599030719017
135	0xbff176acc53e5d6c	-1.0914733605221398
136	0x3ff7607c9153b7d5	1.4610562970005863
137	0xbff74a4754f9edb2	-1.4556344336877882
138	0x400ba12628566dfb	3.4536860610367035
139	0xc007bfa4a2c8cffe	-2.96857573676425
140	0xc0031990639e4948	-2.3874824316673404
141	0xc008e59cb4d88188	-3.1121153000423796
142	0x3fcceda23576200b	0.22600200281544888
143	0xbff84bc6d0bcf1e4	-1.5185001519995405
144	0x3fe131ac472fcc72	0.5373135938992972
145	0xc003be8287cf73c3	-2.4680224046882997
146	0xbfe0b7071b02ea18	-0.5223422553602317
147	0xbfd8fb9c0c632d9e	-0.3903570290537689
148	0xbffcca36b0499da1	-1.7993685613854284
149	0x3ff700b880e833a8	1.4376759562903576
150	0x3fe082401dd742da	0.5158997137860653
151	0xbfa88383e2e73e7c	-0.047878381202846904
152	0xbfcc34149a486672	-0.22033937009182442
153	0xc000d6b653ce5c7d	-2.104839949355265
154	0xbfee7b328af22232	-0.9525387491021944
155	0xbfea5d803bdd506a	-0.8239136857250859
156	0x3fe53ca84258781f	0.6636544509708563
157	0xbff55eb23cf0b4d0	-1.3356191997984759
158	0x3ff6154e62e6fb30	1.3802017081613478
159	0xbff53ed8c25ad5d1	-1.327843436430488
160	0xc002e7168816d1fc	-2.36283594436304
161	0x40028a23581d3944	2.3174502262037624
162	0xbffccb27ef650286	-1.799598631987608
163	0xbfec041ca5fea135	-0.8755019418795543
164	0xbff9958bf2cb4aac	-1.599010418333516
165	0x3ffbfa6004b0ace0	1.7486267264565
166	0xbff3f974a1aba136	-1.2484022441149825
167	0xbff9238b13655966	-1.5711775548603213
168	0x3fdb6a8af4251bcb	0.4283778557041244
169	0xbffe8454a04bd2e4	-1.9073072682924073
170	0xbffa677fced84960	-1.6502683715703697
171	0xbff59b8bbe78e440	-1.3504750671693415
172	0x400064b2a4513fd9	2.0491688573165274
173	0x4004666f93b5c0a7	2.5500175037232853
174	0x3ff58caf50c6d4e2	1.3468468814219752
175	0xbfef8839543b510b	-0.985378899111795
176	0xbfe9494a7a6375ee	-0.7901966467285868
177	0xc0012efb04ef7abf	-2.1479397187789284
178	0xbff0437280ee97fd	-1.0164666210562239
179	0xbfd615f8d1b494b7	-0.34509106139223483
180	0x3ff0203e2780b9db	1.0078717749671486
181	0xbfe9adecbbb5f616	-0.8024810472704214
182	0xbfe8f7d038fb207b	-0.7802506554517231
183	0xbff8b4565e399946	-1.5440276795066707
184	0xc000d37ce41b2473	-2.103265554502792
185	0x40024f1b7ac16bc3	2.288626631763209
186	0xbfeb4e7ff378131d	-0.8533324961905212
187	0xbff4ab2688c35d92	-1.2917847959814464
188	0xbfd829415c3aebfb	-0.3775180245099247
189	0xbfd8a609210ceee1	-0.3851340124854073
190	0xbffc7e9b0513afc0	-1.780909557181971
191	0x3ffd10d943829aa4	1.8166134488216494
192	0xbffb7459eed043fd	-1.7159060791639142
193	0x3fc551413eb8d106	0.16654220163912486
194	0xc0090d496036406a	-3.1314876095348625
195	0xbffe50cfe4e9c894	-1.894729513351682
196	0xbfed553af16d4dd5	-0.9166540828104482
197	0xbfc14e852c412bcd	-0.13520874653690243
198	0xc000429edaa1696a	-2.0325295525082554
199	0x3fda96a7facfc817	0.4154453229267587
200	0xbfe1386e662bf6a1	-0.5381385798970834
201	0xbffaef621e908a19	-1.6834431833200425
202	0x3fc43d4f2ec33724	0.15812101157501346
203	0xc001efc22df8e6d1	-2.2420695869048832
204	0x3fdf82d1cb7ef18f	0.49235958931583296
205	0x3f9334084d8b3b7d	0.018753175480749718
206	0x3ffc22ff5ccf17df	1.7585443139409944
207	0x3f96698fbe49f248	0.021887060155210386
208	0x3fd532f59f294ef7	0.33123531859494854
209	0xc004d6ea867ad337	-2.6049395090325578
210	0xbfe5199d49f7f08a	-0.6593767590234318
211	0xc00595faa6f2b745	-2.6982319872685445
212	0xbfd7a20a74d2eb40	-0.3692651882990283
213	0x3fc9dd3317551d9e	0.20206297530442624
214	0xc00a3cdc3486ec0d	-3.279716883056159
215	0x3fe82c20449e28ff	0.7553864803496991
216	0xc00b23f5964e57b5	-3.3925582640321985
217	0x3fe98307ccec809a	0.7972449304979989
218	0xbfa6b8943cf717d5	-0.04437697643474762
219	0xbfe98b4d8eaeaf49	-0.7982547556652914
220	0x3fd5472f46c80b9e	0.33246976768730885
221	0xc00721e460274ac4	-2.891548873137568
222	0x3fe30dc08aafa141	0.5954287251197813
223	0x3fd9441f3d81e1bd	0.3947828388841364
224	0x4005a784a80bb13e	2.7067959908073638
225	0xbffc3acd3d6cfdff	-1.7643558883136163
226	0x3fff02c00da55c7e	1.9381714375538475
227	0xbfe325acc2bdcd6d	-0.5983489802878644
228	0x3fe377f1d59f3d5e	0.6083916828446652
229	0x3fe1fe6a44b6f058	0.562306532104695
230	0xbfdbc5fc077f99f3	-0.4339590142466527
231	0xbfed1f79b119c168	-0.9100922068592299
232	0xbff2a83bb36755b3	-1.16607256011535
233	0x3fd898c6a2fd082f	0.38432470242344413
234	0xbfd2d8e6157012d5	-0.29448844998868867
235	0xbff77fb2befeed15	-1.46867632491814
236	0xbfc95a141ba16179	-0.19806147908344565
237	0x4001b32a96298423	2.212483571187947
238	0x4000887af9eecaff	2.0666408086775614
239	0xbf629f2f4fd3c9b3	-0.002273170858296336
240	0x4000d8c0d39d394f	2.1058365375858226
241	0xbff210a0feb5b3a2	-1.1290597867584684
242	0xbff4b38a26fface0	-1.2938329242122606
243	0xbfe46eeb4f3fd0eb	-0.6385399387204677
244	0x40048bb201e69aa0	2.568210615968681
245	0xbfef37ef84e5850c	-0.975578078807446
246	0xbf93d22a2dae0786	-0.019356402433465834
247	0xbfe9b316663b2594	-0.8031112667751352
248	0xbfffe14520626c36	-1.9924975647943604
249	0xbffd56c6fb840f89	-1.8336858582342492
250	0xbff9bc012e513bd2	-1.6083995637197757
251	0xbfeaabbd72d5e316	-0.8334643595581805
252	0xbfe6e33e2ab17c48	-0.7152396043637816
253	0xbfc5053b5e108a21	-0.1642221650409548
254	0x3fafd75ad3bd38ed	0.06218990168291492
255	0xc0006a07c5b6b6fe	-2.0517726370225082

bias_1 f8 [1, 32]
0	0xbfd7d30de005d1e6	-0.37225672604770776
1	0xbfe24736172c8719	-0.5711927845588632
2	0x3fa3c9b652f9d082	0.038648316983114675
3	0xbfe6cf8526384a61	-0.7128320452196243
4	0x3fb4c563fcb4ffbd	0.08113694114308508
5	0x3fa754137a58c251	0.04556332462778257
6	0xbff1562c11a41f13	-1.0835381211381374
7	0xbfd6c069c4c5af36	-0.355493967209202
8	0xbfeff33ea244785b	-0.9984429520880086
9	0xbff2b1245bba6a4c	-1.1682475646145063
10	0xbfeb6ec8a4754a02	-0.8572734081338356
11	0x3f8deabb60f421d6	0.014607871910372088
12	0xbfe15a60848fd497	-0.5422823514078513
13	0xbfd26d8e8a0c16e7	-0.2879368160359789
14	0xbfe5d2055150c93c	-0.6818873012728441
15	0xbfeb5a5612bece23	-0.8547773710365089
16	0xbfef426700479850	-0.9768557553732169
17	0xbfe115dfcc46fcca	-0.5339201917448915
18	0xbfeea336ae90d52a	-0.9574235352980953
19	0xbfe4126e42485b3a	-0.627249841173444
20	0xbfdb1fe0fe3a3465	-0.42382073237315004
21	0xbfeb7a7a5d7a473a	-0.8587009263739909
22	0xbfe3203d20d4e0c1	-0.5976853982201861
23	0xbfeaa67cd3d696c1	-0.8328231942620833
24	0xbfd7c7623dec78f1	-0.3715444187854607
25	0xbfe0a5c8484eac13	-0.5202371036770067
26	0xbfecb95cc574cf65	-0.8976272446220547
27	0xbfe54e4805cf3fb2	-0.6658058274715499
28	0xbff14ab0dfc11e25	-1.0807350864796572
29	0xbfe5d21d0942c8b1	-0.6818986111523114
30	0xbff208c69eb1f342	-1.1271425437000322
31	0xbfecf6ae6d3139cb	-0.9051124699270131

weight_2 f8 [32, 10]
0	0x400017d709a0267a	2.011640620422267
1	0xbffb70808dabe556	-1.7149663480798458
2	0xbfe85fadfb1c8e5b	-0.7616796402475744
3	0xbfd1ac5305afb514	-0.27614284091289787
4	0x3fccede62ebe0a44	0.22601010591832182
5	0xbfb698f61c515a82	-0.08827150527336339
6	0xbff5aa3ac602fe49	-1.354059957011389
7	0xbfcefe3149e7ca3d	-0.2421323405138355
8	0xbff864f4bf9b2dea	-1.524647472821807
9	0x3fe7595115857d0a	0.7296529217091188
10	0xc005129abdbf22aa	-2.6340842079119584
11	0xc0040d446e4ee341	-2.5064781778168315
12	0xbfe33a6db4e46001	-0.6008823903130179
13	0xbfe93b048fdde5eb	-0.7884543237589104
14	0xbff37c504682908a	-1.2178499941155985
15	0x3fe0159951d07ff6	0.5026365850389982
16	0x3ffd1640a2b70f8c	1.8179327350671626
17	0xbff55f63c385e344	-1.3357885015122557
18	0x3fd919f56f0aec34	0.3922093948746721
19	0xbff3249ba0197532	-1.1964374784359504
20	0x3feeec62336ac75b	0.966355419563324
21	0xc00d20e68e014f7f	-3.641064748206133
22	0xbff7f2542804b4fe	-1.496662288972686
23	0xbff5afec1bb0da53	-1.3554497796700573
24	0x3fc98b1c21d6a3dd	0.19955779697673295
25	0xc0029f5639b29cda	-2.3278011806138297
26	0xc000ce0e162e8ecb	-2.1006128056486424
27	0xbfeb8ae6ed96b30a	-0.8607058182147693
28	0x3ff0a98e0baa245a	1.041395230832015
29	0x3ffd20867c064298	1.8204407543854924
30	0xc00a51b427ee0cab	-3.2898944015047014
31	0x3fe986c31f10c364	0.7977004629848179
32	0xc014eed07e3d0e83	-5.233217213131527
33	0x3fe8debe47861ff2	0.7771903416587504
34	0x3fe210ce29ed4a22	0.5645514315495499
35	0xbfee01f5befddad0	-0.9377392511658744
36	0xc01084a3c1d47a06	-4.129530933946176
37	0x3ff0e4ffba234155	1.0559079428677098
38	0xc00684d5db547009	-2.8148610243933985
39	0x3fe49cc87c334d2b	0.6441385675229062
40	0x3fe958789872d0dc	0.7920496919164424
41	0xc00573e07e3fa7b5	-2.6815805304695126
42	0x3ff16f2b7331b2ff	1.0896410465022084
43	0xbfdd3119bd349b9a	-0.45612185933208027
44	0xbffcb97d81b70f52	-1.7952857081408706
45	0xbfcc42c79e317747	-0.220787956469332
46	0xbff1d0a1cc0cbab2	-1.1134355517093977
47	0xbffc423498f8a985	-1.7661634421770895
48	0x3ffdb63f9cb7ef8f	1.856994259053838
49	0xc00596b271f70b86	-2.6985825446622043
50	0x3fe2cbcc215798fa	0.5873776103224195
51	0xc000bd4a5297113e	-2.0924269153930757
52	0x3f9774c111df9439	0.022906319347289126
53	0xbfe6f5ac7943bdc6	-0.7174894684266568
54	0xbff04e217ea0b09b	-1.0190749117273643
55	0xbff2af23ae121786	-1.1677586364398578
56	0x3ff2c791cf1290fb	1.1737230385561463
57	0xc00c667f311e6495	-3.550047286739366
58	0x3ff86cb842507e96	1.5265429106147272
59	0xc0021fd4751f6273	-2.265541949291497
60	0xbfcdc7f20710c1c3	-0.2326643499850559
61	0xbffb38b377f75bcd	-1.7013430296117236
62	0xbfe882ee0a03c34f	-0.7659826465224827
63	0x3ff57b6d756627d9	1.3426336847210136
64	0xc0031638906b0436	-2.385850075021632
65	0x3ff28e979d14bf84	1.159812558744279
66	0xbff04adf375dec78	-1.0182792818802948
67	0xbff218c6588a7b9e	-1.1310485323553858
68	0xc008621bb3321e3d	-3.047904396025642
69	0xc002f21599e6f9e7	-2.368205263482412
70	0xc007e966bc4f1a84	-2.988965483821916
71	0x3fe524287555c12c	0.6606638232897573
72	0x3fc870e71e28e6ed	0.19094552014012525
73	0xbffd70a4e46fc908	-1.8400010035807686
74	0x3ffb3a89e46c7ed1	1.7017916605763512
75	0xbfbff4c330fc7f13	-0.12482852884249622
76	0xbfc6ff27e1dbc8b7	-0.17966173675774197
77	0xc00956ec20892a76	-3.167442564187975
78	0x3fe6d62f9e0e3717	0.7136457526227983
79	0x3fc1df652248bb24	0.13962997602490035
80	0xbff43a9b5609b3a5	-1.2643082962851875
81	0xbfef89d577862afa	-0.9855754217581698
82	0x3fe0fe1ade25cdd1	0.5310186709233965
83	0x4000f99c5f749ec0	2.1218802888359676
84	0xc000867bee76f56f	-2.0656660680821726
85	0xbfe1118e9ea5f7fe	-0.5333932016944798
86	0xbfdd312288f7117f	-0.456123956446639
87	0xbff8221824274787	-1.508323804115635
88	0xbfd98ff7c30b0f38	-0.3994120983809242
89	0xbff757cb1bd7eea4	-1.4589339339862955
90	0x3fd2eb3250f1ef46	0.2956052580336642
91	0xbff5d5e99223a1b8	-1.364724703651616
92	0xbffa6e84f105ae2e	-1.651982251637388
93	0xc002b95cb8897d5e	-2.340508882232526
94	0xc002051d7dda752c	-2.252497657040882
95	0x4000fe6e538a7105	2.1242338682769764
96	0xbff1dd7500f91c0a	-1.1165666616450403
97	0x3fe79e4274a91bf9	0.7380687979247106
98	0xbfde9177626fa264	-0.47762856114289876
99	0xbffa21a1ba5a007b	-1.6332108764036366
100	0xbff1e65e8f4ec94b	-1.1187425229987464
101	0x3fe4bee2a1b2def1	0.6483014257600798
102	0x3febeff5160d2283	0.8730416708650214
103	0x3feaa84a4996ce52	0.8330432355200605
104	0xc0063b121a10afb2	-2.7788431202261217
105	0xbfc29f21613932c5	-0.14548127410161818
106	0xbffab42595f0b7f6	-1.6689811570208781
107	0xbffaf5e687d8455e	-1.6850343042791205
108	0xbff10f1380097711	-1.0661807061619053
109	0xbffd701b9751e7cf	-1.83987006291726
110	0xc006b49c06533edd	-2.838188218512967
111	0x4000da4c804214a9	2.1065912265936118
112	0xbff7067cd2aae4f5	-1.4390838841630373
113	0xbff8d96702cf803b	-1.553076754549706
114	0xbff589bc6fe4cfeb	-1.346126973233363
115	0xbff420d7a5ea898c	-1.2580181580638934
116	0xbff9ac8673dbb34a	-1.6046204114638436
117	0xbfec8e6bb6c9beda	-0.8923853464202367
118	0x4000c85ed4f56f93	2.097837127437694
119	0xbfffe34542a908f1	-1.9929859737317737
120	0xbff4f07230ae5df7	-1.3087026502233792
121	0x4001f4c631b10d55	2.24451865026064
122	0xbfe268f0581c07c1	-0.5753099175346891
123	0xbff83d570740ec05	-1.5149755748122982
124	0xbfd7c2dc9fbf2b2e	-0.3712684211756593
125	0xbfd9328fd863d4a9	-0.3937110531981696
126	0x3ff670f28285e59d	1.4025750254207658
127	0xc000401181954fd8	-2.0312833903972027
128	0xbffe9d388a99d68a	-1.913384000215418
129	0xbfe4da8a51f5f042	-0.6516772843165273
130	0x3ff4ed6ee61bf783	1.3079670895235445
131	0x3ff2b2be16383d66	1.168638312144901
132	0xbff24b0c53b2e14e	-1.1433223027689396
133	0xbfc407609b183680	-0.1564751393602144
134	0xbfe3c4b7d7f31057	-0.6177634446871804
135	0xbfe76b65de697350	-0.7318600982649546
136	0x3ff4e14972ee8255	1.305001687003956
137	0xbfe6513c6de26cb4	-0.6974165102177694
138	0xbfeea7b2b0028e6d	-0.9579709470458063
139	0xbfe83b1bad0990d0	-0.7572153453479817
140	0x3ff262875e167898	1.149054877787
141	0xc000339a13c50646	-2.0251962227346523
142	0x3ff300aec33b3593	1.1876666666242712
143	0xc001279d4d7530d2	-2.144342999590756
144	0x3ff13db973069d11	1.0775694363781592
145	0xbfdbdb3e78077d69	-0.4352565929566113
146	0x3ff0bc61425cd9b8	1.0459911911290032
147	0xc004a740495ebfb1	-2.5816655857124364
148	0xc00179b14ff6e684	-2.184420227739624
149	0xbfe9fd1671a71199	-0.8121444911744674
150	0x3fc150b5354c427a	0.13527550795017246
151	0xc000f6591ef9570b	-2.1202871723024876
152	0xbff617f7c5b0bd5c	-1.380851528385242
153	0xbfe287a92482813e	-0.5790601456720095
154	0x400a1a022c97880e	3.262699459432958
155	0xbfc40f2959049898	-0.15671269270496135
156	0x3fa2f51f1fa78a50	0.037026379217213745
157	0xbfefc8745eeb94c8	-0.9932195524130742
158	0xbfd222dc4b8cee0b	-0.28337771776179527
159	0xbff5ff288c226e13	-1.3747945283893201
160	0x3ff8c01e1982177f	1.5469037052548342
161	0xbffdafcae26dbf04	-1.8554180950995383
162	0x3ff79ffa48b8e1c1	1.476557048865388
163	0xbff66de57cdd9c11	-1.4018301847042987
164	0xbffc7cc847ec3760	-1.7804644402962921
165	0xbfc0695ddd958c97	-0.1282155353502261
166	0xbfdbc20a0a7e1b49	-0.43371821427028984
167	0x3febf1cd85a890b5	0.8732669458882102
168	0xbffbdc232de274f1	-1.7412444870345178
169	0xbff5bde32b76699d	-1.3588592241054365
170	0xc000b03d6a253480	-2.086054639110955
171	0x3fd1f24822346d1c	0.2804127058058883
172	0xc00394caa0a25a6b	-2.4476521062418235
173	0xbff3938dcc4636fe	-1.2235239009345942
174	0xbfe3fcbbbd7541be	-0.6246012401916727
175	0x3feea9ccf0d42536	0.9582276061711699
176	0xbfd2e9513a229ec2	-0.2954905574538139
177	0xbffb8e015b35f0d8	-1.7221692622106755
178	0x3fe23be4a5946ce7	0.5698111757259569
179	0x3fe8aaa22184fa50	0.7708292631794595
180	0xbff47d37734f508c	-1.2805704597749665
181	0x400046461cd04239	2.034313416581679
182	0x3fb82aa13f2233e6	0.09440048018787159
183	0xbffacd1a9517a7a8	-1.6750741790697052
184	0xc0031f435afadc4b	-2.390265188961654
185	0xbfdfe4b5a28ba4f8	-0.49833432077009787
186	0xbfec9a2d98119c05	-0.8938205690473074
187	0x40019ffd70e8ba3a	2.2031201191923886
188	0xbff016ce430fb9b1	-1.0055678004824637
189	0xbffcb12feb85b7d2	-1.793258590706945
190	0xbff71d45789dd6fe	-1.4446463309845394
191	0xc003c3f4914ce332	-2.470681319388313
192	0xbff17cb1eed63f4c	-1.0929431275908028
193	0xbfc0c69d0196159e	-0.13106119706587277
194	0xc00e92e16a3abce8	-3.8217190074134244
195	0xbff7a10761e3ee28	-1.4768136810151962
196	0xc007a92726f4a5a8	-2.95759420808891
197	0x40023c43f56b88f2	2.2794264958803234
198	0xbff3c48c08d3b565	-1.2354851097873845
199	0x3ff4eeeb2d018f75	1.3083297498751254
200	0x3ffaa54835c79bff	1.6653520680208656
201	0xc008387fd04f8c81	-3.0275875353123074
202	0xc0042951cdff2a47	-2.5201755612845633
203	0xbff05a2360d09fa7	-1.0220063955148164
204	0xbff8a4a9bb181d58	-1.5402009304396724
205	0x3fd710b224ff9b5e	0.36039403546458526
206	0x3fe9ea07e6665de2	0.8098182201383077
207	0x3feabd16a308a22d	0.8355820831539568
208	0xbffc53a126a0b1a2	-1.7704173573393764
209	0x3fc5e25841280403	0.17096999341450222
210	0xc00d225542497e3e	-3.64176418101104
211	0xc0110eccd33baa38	-4.264453220860155
212	0x3ff5888c156e58f0	1.3458367192411593
213	0x3ff7f2be43f99219	1.4967634825962988
214	0xc009e03bd52fa48b	-3.2344891219295895
215	0xbff0539e767f62e1	-1.0204147938549613
216	0xc0069e1e0bbadac0	-2.8272057453535524
217	0x3ff8b8f7e1361bb9	1.5451582715338488
218	0xbfef6f2ffcc2e356	-0.9823226868385102
219	0xc0141d2f2c111478	-5.028500259916761
220	0xbff3a70a5017ff92	-1.2282813194906095
221	0xc005e00620dcd8d0	-2.7343866889378674
222	0xc00045d8772eeef2	-2.0341042815397197
223	0x3ffe33ff00e53c45	1.887694362161498
224	0xbfc3d6c3102854c9	-0.154991515054155
225	0xbfe451ef16705268	-0.6350017011887532
226	0xbfff609155ebde78	-1.9610761028579002
227	0xbff36b194e2b8601	-1.213647179938903
228	0x3fe24dd725d5f4de	0.5720020045261227
229	0x3ff2b6fc7b1b8999	1.1696743782891643
230	0xbfec427aa7c22e93	-0.8831151272329002
231	0xc007acfbf7093c06	-2.9594649600690017
232	0x3fce7e958850d639	0.23823804050486944
233	0xbff99ed956015fa9	-1.6012814864716154
234	0x3ff79b4d80a74ddd	1.4754157090691173
235	0xbfed1cb2337eb156	-0.9097529416808736
236	0x3fa09745a49148f9	0.03240411409264427
237	0x3fedab3066320901	0.9271471019749528
238	0xbff93e14e8fdba5d	-1.5776566601959054
239	0xbff6762f605d42ba	-1.4038537754278608
240	0xbff461a84d74e337	-1.273842146458447
241	0xc0083c6208d23105	-3.0294838608880377
242	0xbff89ceec166b43e	-1.5383136324628732
243	0x3fed0a3621de68a3	0.9074965154170694
244	0xc005732d0b84826e	-2.681238260251397
245	0x3ff2bfb73b353ca9	1.1718056023417296
246	0xbfeccae7640f2004	-0.8997685388831091
247	0xbff3eb7aca14ece6	-1.2449901479547463
248	0x3fe7b47887180db9	0.7407801283410925
249	0xc000a78f2e3b05ae	-2.0818160640489713
250	0xc00480484f7cd0d1	-2.5626379213300443
251	0xbfc1a800475558b5	-0.1379394863421958
252	0x3fe23f5c0f81698f	0.5702343275873306
253	0xbfe756b9962d1df0	-0.7293365414743089
254	0x3fe82b5be0db7b54	0.7552928344483498
255	0xbfe6313fee348941	-0.6935119297452631

bias_2 f8 [1, 10]
0	0xbfde82f5580fbe8f	-0.47674306487804413
1	0xbfb3f63a4d9cda94	-0.07797588724938925
2	0xbfcf53821e99e2c0	-0.24473597044177176
3	0xbfb1cd6740eeb005	-0.06954045615447065
4	0xbfd3a00168f7b900	-0.30664096117733664
5	0xbfbc3d6bfff287e0	-0.11031222342219804
6	0xbfde5bc8810c49c9	-0.47435200311988673
7	0xbfddb809f3c06d26	-0.46435784152864057
8	0x3ff15ca79df2993e	1.085120789511691
9	0x3fe20281291eeee6	0.562805729211928

loss_history f4 [45]
0	0x3f230008	0.6367192
1	0x3e9d0bcc	0.30673063
2	0x3e7eaea6	0.2487131
3	0x3e605792	0.21908405
4	0x3e4da64f	0.20082973
5	0x3e41c916	0.18924364
6	0x3e350ba1	0.17680217
7	0x3e307125	0.17230661
8	0x3e28f6d4	0.16500407
9	0x3e25b460	0.16182089
10	0x3e260faf	0.1621692
11	0x3e1e7618	0.15474737
12	0x3e208fa9	0.15679802
13	0x3e16cc89	0.14726461
14	0x3e19d638	0.15023124
15	0x3e2087a3	0.15676741
16	0x3e19fc0e	0.15037557
17	0x3e1b40b2	0.15161398
18	0x3e161881	0.14657785
19	0x3e13ba31	0.14426495
20	0x3e18ed67	0.14934312
21	0x3e17a731	0.14809872
22	0x3e1b791e	0.15182921
23	0x3e1ae331	0.15125729
24	0x3e14b8ea	0.14523664
25	0x3e15e07a	0.14636412
26	0x3e0ed1a5	0.1394716
27	0x3e192d33	0.14958648
28	0x3e162016	0.14660677
29	0x3e16812e	0.14697716
30	0x3e1c4fd1	0.15264823
31	0x3e1a0cec	0.15043992
32	0x3e1983f9	0.1499175
33	0x3e256a21	0.16153766
34	0x3e1eaffd	0.15496822
35	0x3e29dd40	0.16588306
36	0x3e21a097	0.15783916
37	0x3e2484a0	0.16066217
38	0x3e1e8b09	0.15482725
39	0x3e258b36	0.16166386
40	0x3e2356a9	0.15951027
41	0x3e2d31eb	0.16913573
42	0x3e27c4e3	0.163837
43	0x3e26837f	0.162611
44	0x3e2e5541	0.1702471

accuracy_history f4 [45]
0	0x42a0a58c	80.32333
1	0x42b622fd	91.06834
2	0x42b9aeef	92.84167
3	0x42bb57e5	93.67167
4	0x42bc5555	94.166664
5	0x42bd170a	94.545
6	0x42bde81b	94.95333
7	0x42be1c29	95.055
8	0x42be8889	95.26667
9	0x42beed3a	95.46333
10	0x42bec51f	95.385
11	0x42bf1c29	95.555
12	0x42bf4ccd	95.65
13	0x42bfcf5c	95.905
14	0x42bfa741	95.82667
15	0x42bf8889	95.76667
16	0x42bfb852	95.86
17	0x42bfb852	95.86
18	0x42bfe81b	95.95333
19	0x42c00da7	96.026665
20	0x42bfc444	95.88333
21	0x42bfeb85	95.96
22	0x42bf8ccd	95.775
23	0x42bff40e	95.97667
24	0x42c028f6	96.08
25	0x42bffa07	95.988335
26	0x42c0570a	96.17
27	0x42bfe4b1	95.94666
28	0x42c0392c	96.111664
29	0x42bff17e	95.971664
30	0x42bfe8f6	95.955
31	0x42c01111	96.03333
32	0x42bff333	95.975
33	0x42bfbe4b	95.871666
34	0x42bfeb85	95.96
35	0x42bf836a	95.75667
36	0x42bfd99a	95.925
37	0x42bfc1b5	95.878334
38	0x42bfd7e5	95.92167
39	0x42bfc1b5	95.878334
40	0x42bf947b	95.79
41	0x42bf6666	95.7
42	0x42bf7bbc	95.74167
43	0x42bf9a74	95.80167
44	0x42bf70a4	95.72

val_loss_history f4 [9]
0	0x3dded001	0.10879517
1	0x3e001f1e	0.1251187
2	0x3e7f2615	0.24916871
3	0x3ddf55ee	0.10905062
4	0x3e31be14	0.17357665
5	0x3e4278b4	0.18991357
6	0x3e66ab3b	0.22526257
7	0x3e62851c	0.2212109
8	0x3e919a94	0.28438246

val_accuracy_history f4 [9]
0	0x42c16666	96.7
1	0x42c16666	96.7
2	0x42c06666	96.2
3	0x42c33333	97.6
4	0x42c0cccd	96.4
5	0x42c0999a	96.3
6	0x42c2cccd	97.4
7	0x42c23333	97.1
8	0x42c06666	96.2
