checkpoints/model_epoch_0065.npz (npz, 389557 bytes, 10 tensors)

weight_0 f8 [784, 64]
00000000: 4b12 e521 0000 0000 7f7a 510e 0000 0000
00000010: 53cc fd0d 0000 0000 4eb4 301a 0000 0000
00000020: 3d4c 6e04 0000 0000 1108 d11d 0000 0080
00000030: c0ab ec0b 0000 0080 b5a1 761f 0000 0080
00000040: e1a6 b903 0000 0000 d8a0 b121 0000 0080
00000050: 734b f221 0000 0000 1f60 f002 0000 0080
00000060: 8d1a 0920 0000 0000 ed4b f404 0000 0000
00000070: 0cb9 1a21 0000 0080 3dc3 9208 0000 0080
00000080: d089 ce17 0000 0000 9f28 670e 0000 0080
00000090: 2127 1913 0000 0000 8bf0 9602 0000 0000
000000a0: 68d6 3a12 0000 0000 113b 4d14 0000 0080
000000b0: 712a 2714 0000 0000 9774 cf11 0000 0000
000000c0: 2194 7204 0000 0000 c148 9217 0000 0000
000000d0: 0986 800f 0000 0080 1f7e 9c06 0000 0080
000000e0: 2f7e 0a00 0000 0000 8035 ac02 0000 0000
000000f0: 19d8 c121 0000 0000 5fc6 950a 0000 0000
00000100: 226b 8b03 0000 0080 d6cb e208 0000 0000
00000110: aa54 1103 0000 0000 8eff cb1c 0000 0080
00000120: f533 4207 0000 0000 275b a30d 0000 0080
00000130: fdfe 9718 0000 0080 73d7 d321 0000 0000
00000140: 618b ea0d 0000 0080 79ec 041b 0000 0080
00000150: 70ee c10c 0000 0080 30c8 570d 0000 0000
00000160: 687b 821e 0000 0000 456c f30e 0000 0080
00000170: a32a 901e 0000 0000 5d66 6315 0000 0000
00000180: fa22 840b 0000 0080 11ac 0915 0000 0000
00000190: d2af e31f 0000 0080 7f41 8e0a 0000 0080
000001a0: ef69 e421 0000 0080 b6d9 8b03 0000 0080
000001b0: d591 4501 0000 0000 b807 5c0e 0000 0080
000001c0: 8297 980a 0000 0080 51b1 1114 0000 0000
000001d0: 2598 da22 0000 0000 f823 8323 0000 0080
000001e0: 9f02 7c01 0000 0080 1078 ad18 0000 0080
000001f0: 58bc 1802 0000 0000 f717 260d 0000 0080
00000200: a417 a708 0000 0080 6eeb 1411 0000 0000
00000210: 0cdd 2b12 0000 0080 16f1 ae08 0000 0080
00000220: cbe4 521b 0000 0080 342b 881f 0000 0080
00000230: a0a2 3403 0000 0080 209c 830a 0000 0000
00000240: f671 880b 0000 0000 b937 901a 0000 0080
00000250: 37b1 381c 0000 0000 d45e 4621 0000 0080
00000260: 26e7 0a23 0000 0080 22a7 2b16 0000 0000
00000270: 53ff 3b01 0000 0080 af93 ee1e 0000 0000
00000280: b735 fc05 0000 0000 536a 8516 0000 0000
00000290: d7db 0410 0000 0080 e7d5 1822 0000 0000
000002a0: 2e1e bd1e 0000 0080 45da 8101 0000 0080
000002b0: 4fc0 e815 0000 0080 4292 6506 0000 0080
000002c0: e702 780d 0000 0000 43fd c60e 0000 0000
000002d0: d893 a810 0000 0080 d035 5502 0000 0080
000002e0: 0b15 3708 0000 0000 26df 9614 0000 0080
000002f0: 698f b11b 0000 0000 934a 121f 0000 0000
00000300: 9938 5a21 0000 0080 60c3 6a02 0000 0000
00000310: b9cc 1221 0000 0080 41a9 f514 0000 0080
00000320: 9695 6208 0000 0080 48e3 a30a 0000 0080
00000330: e44d 9f15 0000 0000 b273 290b 0000 0080
00000340: 489f e400 0000 0080 47d1 861d 0000 0000
00000350: d5d0 361e 0000 0080 1926 1c15 0000 0000
00000360: 2033 611f 0000 0080 66af 2115 0000 0000
00000370: 339b 8b12 0000 0000 7281 1211 0000 0000
00000380: 618a ce16 0000 0080 d790 2b16 0000 0000
00000390: b527 0322 0000 0080 56b2 6c01 0000 0080
000003a0: e1bb 961e 0000 0080 064c 2b24 0000 0000
000003b0: f201 9221 0000 0000 f388 a41e 0000 0000
000003c0: 7ca5 0d04 0000 0000 e630 c11f 0000 0080
000003d0: 4551 8f0f 0000 0000 a2e5 6617 0000 0000
000003e0: 658b fd1a 0000 0000 ef9a c920 0000 0080
000003f0: 862d 8712 0000 0000 5957 8d14 0000 0080
00000400: 688c ff10 0000 0000 212c 5904 0000 0080
00000410: 0244 e10e 0000 0000 6d16 fe06 0000 0000
00000420: d793 ed01 0000 0000 df8a d008 0000 0080
00000430: f088 a721 0000 0000 ef93 c81d 0000 0080
00000440: 5f74 7d09 0000 0080 bb8e 570a 0000 0000
00000450: 2160 8201 0000 0080 2c32 0402 0000 0080
00000460: c246 890a 0000 0080 9ff3 c909 0000 0000
00000470: 90cb 3405 0000 0080 0c59 0014 0000 0000
00000480: 197f 3721 0000 0000 2e88 b21e 0000 0080
00000490: 0afb 1e1b 0000 0000 77ab 411d 0000 0000
000004a0: 33a6 ca0d 0000 0080 6601 c700 0000 0000
000004b0: 5d53 0d1e 0000 0080 1f13 940d 0000 0000
000004c0: 7902 a00b 0000 0000 bb2a 7513 0000 0080
000004d0: a5d2 1d21 0000 0000 470a 300b 0000 0000
000004e0: 49ae c411 0000 0080 94a4 9006 0000 0080
000004f0: 15a4 2f04 0000 0000 8073 b512 0000 0080
00000500: 2f72 dd01 0000 0080 1511 ac0f 0000 0080
00000510: edb4 4220 0000 0080 a672 7f1d 0000 0080
00000520: 7684 6319 0000 0000 1cad 4914 0000 0080
00000530: a001 6702 0000 0000 593c b810 0000 0080
00000540: 749c 7c14 0000 0000 bb84 d31e 0000 0000
00000550: 58a8 660d 0000 0000 73ef c702 0000 0080
00000560: d853 8f22 0000 0080 d8d3 8114 0000 0080
00000570: bdbd 9d06 0000 0000 5d87 2c07 0000 0000
00000580: 570b ef0d 0000 0080 68ce 5a0e 0000 0080
00000590: 33f2 fc0b 0000 0080 432c 6608 0000 0080
000005a0: 504e 871e 0000 0080 7f56 291c 0000 0080
000005b0: 66ff 640d 0000 0080 52c5 7804 0000 0080
000005c0: 5172 0a00 0000 0000 aa46 f211 0000 0080
000005d0: b14c b00f 0000 0080 3d05 4a00 0000 0080
000005e0: c4ef 6f20 0000 0080 9017 4e04 0000 0000
000005f0: f719 1609 0000 0000 d714 9202 0000 0000
00000600: ffb1 f622 0000 0080 efcd 4719 0000 0080
00000610: 1d5c de0f 0000 0080 d998 ab1f 0000 0080
00000620: eabb 0c02 0000 0080 a6c5 4618 0000 0080
00000630: 5fc8 8b1b 0000 0080 3d9f 8e15 0000 0080
00000640: 1f51 0708 0000 0000 c29b 3e0c 0000 0080
00000650: c01e 9600 0000 0080 d821 511a 0000 0000
00000660: dac9 2b1f 0000 0000 aa72 4405 0000 0000
00000670: 83db 690f 0000 0080 f1cb 5515 0000 0000
00000680: 56ce f515 0000 0000 01fa c117 0000 0080
00000690: c097 a118 0000 0080 8e06 f522 0000 0000
000006a0: 8020 5e1a 0000 0000 415a 1614 0000 0080
000006b0: c119 8b1a 0000 0080 7a6e dc1c 0000 0000
000006c0: e117 e111 0000 0080 3e72 570e 0000 0000
000006d0: 48bb 521d 0000 0000 7fc1 fe01 0000 0000
000006e0: de47 0d22 0000 0000 75fb 791c 0000 0000
000006f0: 3a4b c800 0000 0080 dfa0 a00d 0000 0080
00000700: a1a4 ae1c 0000 0000 8108 1f0c 0000 0080
00000710: b9b5 4604 0000 0080 5250 d805 0000 0000
00000720: 191c f300 0000 0080 eca7 4f19 0000 0000
00000730: 2dc5 2221 0000 0080 31f8 ef08 0000 0080
00000740: f0e5 3101 0000 0080 3a4f 6a04 0000 0000
00000750: fae6 a911 0000 0000 54de ca1e 0000 0000
00000760: e799 ee1c 0000 0080 3ec7 0012 0000 0080
00000770: 5252 0607 0000 0000 19c3 ef0a 0000 0080
00000780: fa1a 6b02 0000 0000 7295 9e22 0000 0000
00000790: a719 ed10 0000 0000 61f6 511a 0000 0080
000007a0: e74f 7a18 0000 0000 1ae9 380e 0000 0000
000007b0: eded 7b1d 0000 0000 907b 2307 0000 0000
000007c0: ee95 8d0f 0000 0000 281c e10d 0000 0080
000007d0: 3c2e 8315 0000 0000 df2e db18 0000 0080
000007e0: ce95 f90e 0000 0080 6ea0 6a03 0000 0000
000007f0: c0d1 061e 0000 0000 4ae7 c90c 0000 0000
2.809556444e-315 1.18684844e-315 1.159753507e-315 2.170921987e-315 3.67275264e-316 -2.47150585e-315 -9.8842694e-316 -2.60801613e-315
3.0878376e-316 -2.79289962e-315 2.813838017e-315 -2.43612303e-316 2.65544244e-315 4.10662844e-316 -2.74403781e-315 -7.1064409e-316
1.973355817e-315 -1.193868285e-315 1.583063013e-315 2.1465379e-316 1.511079343e-315 -1.682815816e-315 1.670490736e-315 1.47631e-315
3.68661355e-316 1.95384608e-315 -1.28497167e-315 -5.48013657e-316 3.397507e-318 2.21540617e-316 2.79815016e-315 8.77400346e-316
-2.93813814e-316 7.36558233e-316 2.5428291e-316 -2.38698567e-315 6.01669137e-316 -1.13046919e-315 -2.038585985e-315 2.803977573e-315
-1.153519337e-315 -2.23963669e-315 -1.05747874e-315 1.10599899e-315 2.528962715e-315 -1.23928457e-315 2.53339363e-315 1.772884437e-315
-9.545797e-316 1.74383142e-315 -2.643327183e-315 -8.7496575e-316 -2.8093435e-315 -2.93953674e-316 1.0541648e-316 -1.19026497e-315
-8.78312445e-316 1.66353793e-315 2.8890545e-315 -2.943628217e-315 -1.23043843e-316 -2.04553873e-315 1.7379012e-316 -1.08991035e-315
-7.1722666e-316 1.41591142e-315 -1.50623088e-315 -7.1976822e-316 -2.264882666e-315 -2.61369448e-315 -2.65714196e-316 8.71518677e-316
9.5597476e-316 -2.20184834e-315 2.339289327e-315 -2.7581705e-315 -2.904696387e-315 1.83772453e-315 -1.0231706e-316 2.563962834e-315
4.9611554e-316 1.866788797e-315 -1.32782059e-315 2.826317186e-315 -2.54794846e-315 -1.2493555e-316 -1.816062386e-315 -5.3023063e-316
1.11643456e-315 1.224897366e-315 -1.38083123e-315 -1.93371207e-316 6.80958797e-316 -1.70666008e-315 2.295534805e-315 2.575526836e-315
-2.76459796e-315 2.00349864e-316 -2.74147237e-315 -1.737352047e-315 -6.95044387e-316 -8.81969983e-316 1.792280936e-315 -9.25216824e-316
-7.4025777e-317 2.44747603e-315 -2.504462657e-315 1.749814003e-315 -2.601076655e-315 1.751606616e-315 1.537231518e-315 1.41512979e-315
-1.890466073e-315 1.837696335e-315 -2.819297254e-315 -1.18085434e-316 -2.53552008e-315 2.998075743e-315 2.782661126e-315 2.539988733e-315
3.3598043e-316 -2.63215776e-315 1.28976179e-315 1.939797703e-315 2.23724737e-315 -2.717772663e-315 1.535797635e-315 -1.7035742e-315
1.408991626e-315 -3.60435044e-316 1.23340541e-315 5.79614007e-316 1.59815884e-316 -7.3064783e-316 2.789631473e-315 -2.468768637e-315
-7.8663519e-316 8.57254937e-316 -1.25104857e-316 -1.6713954e-316 -8.7335345e-316 8.1140424e-316 -4.31546895e-316 1.65792184e-315
2.75335445e-315 -2.54452083e-315 2.24807368e-315 2.425086633e-315 -1.14319195e-315 6.443615e-317 -2.491028537e-315 1.12552122e-315
9.6360473e-316 -1.61285633e-315 2.74504156e-315 9.27350027e-316 -1.472821276e-315 -5.44176807e-316 3.46987545e-316 -1.55078052e-315
-1.5459266e-316 -1.29907054e-315 -2.67409377e-315 -2.445089805e-315 2.10448435e-315 -1.681664895e-315 1.99133435e-316 -1.385901216e-315
1.69815716e-315 2.55520157e-315 1.11081558e-315 -2.3051816e-316 -2.8646838e-315 -1.699846175e-315 5.4841791e-316 5.9465123e-316
-1.154976346e-315 -1.18986869e-315 -9.936967e-316 -6.96206335e-316 -2.530524634e-315 -2.334317723e-315 -1.110278104e-315 -3.7066632e-316
3.382497e-318 -1.487584595e-315 -1.3004411e-315 -2.396715e-317 -2.68873878e-315 3.5684733e-316 7.53170385e-316 2.13080745e-316
-2.898153343e-315 -2.09551113e-315 -1.315354986e-315 -2.62516584e-315 -1.69904087e-316 -2.0122864e-315 -2.283302797e-315 -1.78687938e-315
6.65492823e-316 -1.014957564e-315 -4.860752e-317 2.18142184e-315 2.58378259e-315 4.3661511e-316 -1.27763259e-315 1.76847984e-315
1.82028941e-315 -1.969288437e-315 -2.041693317e-315 2.89761271e-315 2.18562942e-315 -1.665046765e-315 -2.20019148e-315 2.39230662e-315
-1.482020976e-315 1.18878075e-315 2.43061108e-315 1.65378075e-316 2.82257584e-315 2.360429636e-315 -6.485332e-317 -1.129585997e-315
2.37748073e-315 -1.0047338e-315 -3.54457047e-316 4.8449272e-316 -7.8716718e-317 2.09805338e-315 -2.74664348e-315 -7.40823615e-316
-9.904704e-317 3.6598388e-316 1.464150627e-315 2.552400774e-315 -2.39818978e-315 -1.492280294e-315 5.8228009e-316 -9.06537383e-316
2.00460664e-316 2.869623636e-315 1.40301825e-315 -2.181690657e-315 2.0289746e-315 1.178893565e-315 2.443950563e-315 5.91722187e-316
1.289201053e-315 -1.150464544e-315 1.783174753e-315 -2.060340536e-315 -1.241279847e-315 2.83196126e-316 2.488921856e-315 1.060060026e-315

bias_0 f8 [1, 64]
00000000: ff74 9156 9eb9 bbbf aed5 dac3 b794 d4bf
00000010: 27fb 545d 807a b6bf 08f6 0fcc 16ac b2bf
00000020: 460f d956 0347 c6bf cbdf baa3 d156 debf
00000030: 8466 5b35 5eff a8bf c123 d371 e25a d3bf
00000040: fe53 5bc6 6c64 d3bf f006 48a3 c215 a53f
00000050: 487e 08d3 2c86 cb3f b6a2 29bf 592f b9bf
00000060: 9bae 192b 4800 debf aaf4 7eee 0786 c1bf
00000070: 9fe2 27af edf7 d8bf a29e c2e3 b868 debf
00000080: a731 a91a dedd d23f d4a9 7e2e 154f c9bf
00000090: 3cf2 84ab 9f97 ccbf e854 5509 0358 aa3f
000000a0: f2a7 7bae b680 cdbf ab0a 3232 a707 d63f
000000b0: 2b99 c0c1 c862 c6bf 370b ffd5 033a d7bf
000000c0: 1953 4e4a d438 cc3f 1bf4 84c0 0e1d c8bf
000000d0: d78b 4bd5 9c8e aabf 9774 0803 0f6b d23f
000000e0: 7bac 21a9 a54e cd3f 7083 f2d3 33d6 bebf
000000f0: 95ec dd28 64e8 5fbf b6e9 597f ca10 b7bf
00000100: ed65 4719 8eea d1bf e83b dd38 56d0 923f
00000110: 7621 32d9 dd0b c3bf a39b 2a0a 42dc d8bf
00000120: 2a10 245f 2e7f c0bf 81b9 15eb 95cf d3bf
00000130: 605f 2d2c 0dfb c0bf bb2f fc27 e27e bc3f
00000140: 31b0 f8ea be0f c0bf 1b7d 12cb 4f29 a6bf
00000150: b799 252d c852 69bf 1b20 d4f9 33be afbf
00000160: ed90 26f7 5820 d8bf 6ef2 a6da fa2f 9abf
00000170: dfb0 ee67 1feb a13f 7fc5 fe26 ac2a c03f
00000180: 8248 9d42 613d e3bf 7ce0 36c0 c4da d0bf
00000190: e28f 973b 604e d0bf 16b1 2d9c 0666 bb3f
000001a0: 08cc df0c 64e0 a4bf 4fd2 75cb 19d7 c43f
000001b0: e9e4 3410 6c68 bcbf b2ef dfce c111 e0bf
000001c0: 1866 cb7a 46c6 dbbf 45da d083 d7a4 b53f
000001d0: 1a1a 9e76 31a6 d9bf 9760 9da0 401d d1bf
000001e0: 203a 7c2b ee41 b23f 3476 fa43 bb5b 8d3f
000001f0: 3cd2 e3f1 afef cb3f a6d3 9f10 3c31 cebf
-0.10830106366616475 -0.3215770161289936 -0.08780672339069594 -0.07293837053290286 -0.17404214611644359 -0.47404900540595624 -0.04882330323534936 -0.3024221526689495
-0.3030044495656624 0.04118164294415105 0.21503219894747105 -0.0983787624078428 -0.4687672062779968 -0.13690280099209434 -0.3901323519235493 -0.4751417373868013
0.2947917232857215 -0.19772591371777415 -0.22337718844382148 0.05145272721225941 -0.23049052734069125 0.34421710874463923 -0.1748896547371229 -0.36291595361778967
0.22048429134579164 -0.18838676834448695 -0.051869298016547986 0.2877843408221649 0.22896261938453563 -0.12045597004408903 -0.0019474962350319082 -0.09009996041451171
-0.27994110554354174 0.018372866841044472 -0.1487996397520523 -0.3884434794694533 -0.1288812603526151 -0.3095450206518749 -0.132661482401768 0.11131108738135158
-0.12548052285399217 -0.04328393319996789 -0.003091231316989264 -0.061998008963257877 -0.3769743360119396 -0.025573653789012267 0.03499696868615997 0.12630226043760825
-0.6012426663458117 -0.2633525731175792 -0.25478368587050515 0.10702554047538046 -0.04077446610599372 0.16281435427267119 -0.11096835513753302 -0.502167610218285
-0.43397676459935175 0.08454653709564137 -0.40076862891911136 -0.26741042790445974 0.07131851731922056 0.014335120212588405 0.21825217543632103 -0.2358775216268018

weight_1 f8 [64, 32]
00000000: 1805 7440 071a 09c0 3459 5dc7 fc3a e33f
00000010: 1cef cabf 0c43 14c0 927a ce01 efeb 793f
00000020: 0459 7c53 c4bc 0ac0 3903 1f31 63f7 cbbf
00000030: e7e8 e5cb cc73 fabf e4ce 485a 0111 f23f
00000040: a0ba 3b40 fbb5 f0bf d81f 3e41 740f 03c0
00000050: b75c c93b e0ca cdbf b45d 6b6a b9f1 a7bf
00000060: be4f 252f 0396 f63f 5c64 39f3 0bab f33f
00000070: 84e9 ee1b 6b5f e73f ad69 71dc 17cf df3f
00000080: 907e d447 0ec7 f0bf 500f ec85 6300 0ec0
00000090: 2310 eda5 be78 ec3f 517f 6e4b 7e51 00c0
000000a0: 6fa7 d78a 339b d8bf 8bf6 95db f33c f3bf
000000b0: eadd 999f 875c 11c0 0fa7 b06e 967d f13f
000000c0: f8bd 28ef 943b 0dc0 f6eb 5d1a bd79 f63f
000000d0: caaf 24fd 457b d2bf 718c cc69 40b2 d83f
000000e0: ba96 f6a6 8ca9 f2bf ae5c fd75 5c5a 0dc0
000000f0: 623f 0cb4 8c42 e23f d8eb 0d39 f0c8 ae3f
00000100: 5fd8 6dff 17ea de3f 3a9b d483 0c26 fabf
00000110: 9541 29dd 263f b23f 84af 21f2 5b7a 00c0
00000120: 4dc2 a846 d44f cb3f 877e 43a8 8d3f c0bf
00000130: 5f8e 5168 6872 e83f 773c a21f 9981 00c0
00000140: 7fc8 7a01 4466 c43f 8636 6906 d482 d53f
00000150: 3ee7 90ed 4e99 d43f 35ca 345c 19bd 09c0
00000160: 009b b5e2 17e0 04c0 f745 9999 68a2 e13f
00000170: a8c8 754a 521f cc3f 001c 2c20 9c78 b2bf
00000180: 95ef 4647 c83a c83f 5593 60aa a3c5 f7bf
00000190: d1a9 4707 d766 0fc0 5a3c 2144 da79 08c0
000001a0: 4d1c c9d2 025b e23f 2ac8 b21f 76ae e7bf
000001b0: 3559 6b89 e9c4 c8bf a943 ebbd 01e2 0ac0
000001c0: 980f 628d 8dee cf3f 6cec 73e2 6240 00c0
000001d0: bcc6 d575 4558 d1bf 59ab 6cbf b63b 0cc0
000001e0: 2f99 7eb8 896b f1bf 691e 8c3d 65cb fdbf
000001f0: c512 a62b c9bb f5bf 9f21 07a8 2172 e2bf
00000200: 6fde e7a7 0e21 fdbf 9d96 0f1a 5833 d63f
00000210: c703 ec40 72ff 00c0 6bc9 11a1 38f9 ea3f
00000220: c768 8699 ad01 fbbf 301b e7ba 7fcf f3bf
00000230: 8d5c aa9a 85a6 e93f d64b d603 a362 f4bf
00000240: 817d 0463 0e32 b53f 8231 8178 f082 d3bf
00000250: c836 3d8f ab5b febf 2f3c 2640 dfd4 d83f
00000260: 28f9 53c8 a232 d93f 98a1 8e3a e2d5 c53f
00000270: 97c3 eb83 a927 10c0 18d7 315e 55c4 fdbf
00000280: b608 c8cd 052a f1bf e7b0 323c ec48 e5bf
00000290: 30ea 58d3 4d94 e53f 215a af2a f1b1 e23f
000002a0: 4e12 0b5d 2559 e4bf 1c65 374e 0b66 d03f
000002b0: b7bd cc64 5fb5 d9bf 5720 0d3d dc5c fcbf
000002c0: f034 3ad1 e87e d33f fc76 0d56 4ebd fbbf
000002d0: 4517 185f fe6d e6bf 84f8 4ac4 67f1 ecbf
000002e0: 383c fd4a e4e4 0fc0 34c2 f210 6a5a e9bf
000002f0: 8c63 6127 5639 05c0 45ff 6ab6 0572 c4bf
00000300: 054f 7024 7212 08c0 c6ad e65e 5a2a fabf
00000310: 98b5 6bf1 cec4 11c0 e4d6 3483 9c4a ebbf
00000320: bdd7 2e7f 684e e8bf 035e 0ccd 2239 08c0
00000330: f8c7 d432 2f98 febf d629 6190 d6fd 04c0
00000340: 89b9 5197 d38e b3bf 2eb7 58f6 7a87 f2bf
00000350: 57e5 f020 126a e73f b300 13d5 856f 0ac0
00000360: 1fc3 5aab f17a 01c0 5c98 eda9 e864 09c0
00000370: f289 0d46 1128 db3f c137 eb77 eeab f4bf
00000380: 8523 0cca 794f f43f 8898 084d 360b 0cc0
00000390: 7012 32cd 36a3 cb3f 5bef 3a12 768b b9bf
000003a0: e42f ae3e 01c9 05c0 1180 6916 0be2 0440
000003b0: 2cec eb18 d598 fabf 09d8 4744 d707 db3f
000003c0: 3bd5 5580 9448 f8bf 6e21 a94e 738f f7bf
000003d0: f8c5 f943 9aeb fabf 3437 f262 d4f7 f0bf
000003e0: 8389 8da2 318d e43f 4e98 d4cc 5647 08c0
000003f0: 7abf 0861 0ff4 e53f 81ea 6fa3 85ce f0bf
00000400: 1fbd 1a72 00b1 fbbf e3fe adfc bd19 fdbf
00000410: 4147 c342 c68b 0dc0 dabc 62f6 d80c bdbf
00000420: 621a 47ef 2f57 f8bf 94dc 3319 2f76 12c0
00000430: 2fd1 5b37 cc7a ef3f 0653 ab49 49a4 fabf
00000440: 82c8 5501 3948 f53f b7ff 2c1f a83c ffbf
00000450: e7b4 770b 772c 1140 760c 2ea5 8a7c 0fc0
00000460: 6e88 7faa 3be2 07c0 5e2e 9ca5 d408 10c0
00000470: f73b 62da 22a9 c33f cc75 864b 7428 fcbf
00000480: 88be 369e e1d4 e13f c867 cca8 99b1 09c0
00000490: 9586 bd96 a9d7 e8bf 4d6c 7ac8 e3f6 e9bf
000004a0: 572f 4d3f bfdb 02c0 ebbf 04d2 7f39 fb3f
000004b0: 95b8 b31b 2127 e23f 996c 46ca 43f5 e0bf
000004c0: 1c12 ff36 3b94 d8bf fe32 5b25 c90b 04c0
000004d0: 15b4 61e1 31cd 00c0 1ada 9f83 04cd f0bf
000004e0: 97cc 405c 5c2b e53f 2825 583d 0443 fabf
000004f0: 7c26 7802 1900 f43f df34 5176 984c ffbf
00000500: 15bc bc53 b7ec 06c0 1ad3 cc63 5877 0840
00000510: f27f 9f28 34b0 03c0 b3ff 590c 4d47 ecbf
00000520: 853b 9b6f 29f4 02c0 7c9d baa5 841b 0440
00000530: aaf4 a227 fe8e f9bf b370 d73a a78f 01c0
00000540: 59b2 6a83 7d1f d93f 0132 3e51 41eb 02c0
00000550: 043d c3c7 2c84 00c0 fc18 8f3e 2c56 febf
00000560: b48f bf55 93b0 0440 b308 4854 0520 0b40
00000570: 15d0 db46 a796 fc3f 63bb a2a6 25f4 f3bf
00000580: 870d a966 707f f8bf eae1 f69e 335d 08c0
00000590: 6f15 6ef3 fd99 f3bf b5bc 9f06 f57e d5bf
000005a0: a9ca d7bc da11 f13f 3415 5f4e 2e95 ebbf
000005b0: 7f9e 7d1a e332 ebbf d00f da6f ef12 00c0
000005c0: 0717 40e3 2fba 05c0 538e ac42 cac3 0940
000005d0: bd7b 9cdf 1dfb f7bf 80e1 d764 e87a f9bf
000005e0: f685 2a2c 19f5 e3bf 3b4d 7fd6 ac72 d8bf
000005f0: d613 419d db01 02c0 8d9d 9283 1da5 0140
00000600: 6092 c826 d1a0 03c0 e45d 1327 88a9 ca3f
00000610: c744 b717 557d 11c0 4c46 0a84 3fc2 02c0
00000620: f43e 5ccf 8cf5 f6bf 4218 ad64 8656 d7bf
00000630: 7116 de61 9a5d 03c0 d91d 7a3a 637c cc3f
00000640: 7537 efcf 9271 f2bf 7645 7953 290a 01c0
00000650: 8352 cc08 24d9 c93f fb1d 3470 52aa 09c0
00000660: 1040 a65f 72ec d73f 3de6 d6fc ca32 bcbf
00000670: 119c 63b7 235a fe3f 102d 5472 1e68 b3bf
00000680: a282 1eda c935 cb3f f9f9 4d2a d04f 0cc0
00000690: fdb3 c7b5 4102 e9bf 0d34 be34 f2dd 09c0
000006a0: d3cb 25bd a554 d1bf d850 7aba fd16 c93f
000006b0: 33f0 8867 7866 0ec0 2c68 db88 07c4 e43f
000006c0: 2bc4 7664 967e 10c0 9c69 c129 2c06 e93f
000006d0: 94ee 0267 6b07 d0bf 7898 5f9c 3355 edbf
000006e0: 4788 557c 7a42 ca3f 4846 3057 a0e2 0bc0
000006f0: 3b34 809b eb05 e73f 91a1 6114 15ee d63f
00000700: 8566 2823 f4b1 0a40 846d d15c 915b ffbf
00000710: b814 0c12 68c1 0340 e48a 7a2e 226a eabf
00000720: 66d2 fdda 675a ec3f 45aa ed98 8498 d23f
00000730: e795 b28f d9d9 e6bf ce07 50aa 2f46 f0bf
00000740: aea3 7727 4026 f3bf d49c 22c9 f278 ce3f
00000750: dfa8 37fe cfdf e2bf eba8 d413 c12d 00c0
00000760: bf7c 4b9c 7b5e d9bf cd01 5481 107a 0740
00000770: 23d7 8cbc ddee 0140 71c8 3d7d a21a 93bf
00000780: 6a09 76a9 0eab 0540 bc02 8222 fc48 f3bf
00000790: f167 1edb 5ac6 f7bf b8d7 f034 92e1 ebbf
000007a0: 0557 034f d3d0 0a40 cf32 0503 d4f0 f1bf
000007b0: ff10 cd13 391e b3bf 8cb2 456f febe efbf
000007c0: 9d00 230b 22a4 02c0 cc7f ea32 1aae ffbf
000007d0: b1fa aaa3 64b5 fcbf f4df 8eba 9a9c efbf
000007e0: 802a 5236 95f6 ebbf 3b42 78ce aee4 6bbf
000007f0: b3b8 e06a a2e5 b1bf 1528 df17 ad33 02c0
-3.1377091441542113 0.6009506124344512 -5.06547832180129 0.006328519460025677 -3.3421713373492157 -0.21848716639035518 -1.653271481015105 1.1291516806349415
-1.0444290646661685 -2.3825459572872028 -0.23275378150240097 -0.046766084900521504 1.411624130404547 1.229259443373187 0.7303977532931616 0.4970149662746291
-1.0485976034032412 -3.7501898253121126 0.8897393456213688 -2.0397916691871747 -0.3844727378733443 -1.2023809983797118 -4.340361112371719 1.093161041625027
-3.654092663222169 1.4047213582950895 -0.28877401085878474 0.3858796151345763 -1.1663939020158254 -3.669121667665954 0.5706237331923882 0.06012678810562705
0.48303794807669037 -1.6342892789486556 0.07127612018053349 -2.0597456852464706 0.2133736939445207 -0.12693949428556925 0.7639658009979476 -2.0632803412805134
0.15937089988944206 0.3361101210219676 0.3218571968060252 -3.2173335269556227 -2.6094205581351844 0.551075267789371 0.21970585475680093 -0.0721528605027828
0.18929389458014315 -1.4857517867432837 -3.9252148216957967 -3.0594983408587213 0.5736097447305696 -0.740046560202477 -0.1935092850678274 -3.360354884855458
0.24946755794018993 -2.031438607371049 -0.2710126543744129 -3.5291571574247595 -1.0887543875520114 -1.862157097262662 -1.3583461480167653 -0.576432064227493
-1.8205706175630458 0.3468837980748079 -2.1247296402002323 0.8429225107086443 -1.6879096982070665 -1.238158922280217 0.8015773793039372 -1.2740812444578657
0.08279504697246944 -0.30486690300019614 -1.897380408790399 0.3879926802118829 0.39371556819232234 0.17058971270786283 -4.038732587113279 -1.860432975719453
-1.0727594412169714 -0.6651517081968706 0.6743535163762484 0.5842214425745774 -0.6358820740939082 0.2562282813865566 -0.4016951069233658 -1.7726709732833308
0.3046209376560247 -1.7337172852925837 -0.7009269578272571 -0.9044684251637283 -3.9867635592013606 -0.7922869044323932 -2.652996356639454 -0.15972968489767872
-3.0090067717336546 -1.635340090472583 -4.442195675086076 -0.8528578341126516 -0.7595713123362128 -3.027898408832472 -1.912154387053759 -2.6239444045688556
-0.07639810985867802 -1.158076250353996 0.7316980975512405 -3.3044544836448835 -2.1850312602113173 -3.1742718959458625 0.424320524607679 -1.2919754680947195
1.2694032566525675 -3.5054746645210493 0.21591839808765512 -0.09978425927232364 -2.723146905604141 2.6103727103181957 -1.6623126004694866 0.42235356967955845
-1.5177197468850199 -1.472522074955204 -1.6825201659488567 -1.0605052819332288 0.6422355818615845 -3.0348335268381907 0.6860424895476023 -1.0504204162849933
-1.730713315697194 -1.818784701375926 -3.693249246200964 -0.11347728743816124 -1.521285948446938 -4.615414041319259 0.9837399560188141 -1.6651089551643863
1.3301324894096358 -1.9523087709239755 4.293422869855227 -3.9358113197973195 -2.985465366379734 -4.008623683602847 0.1535991255118174 -1.7598765325741281
0.5572364893068462 -3.2117188632373406 -0.7763259834429898 -0.8113879123296869 -2.3572983689718217 1.7015379146432632 0.5672765294127823 -0.5299395514188233
-0.38404732104052797 -2.505754749150923 -2.1001927955571866 -1.0500531331614469 0.6615430642908845 -1.6413614650976545 1.2500238510569082 -1.9562000867620595
-2.865584043690897 3.0582740589983475 -2.461036984794185 -0.8837037316552511 -2.369219657826252 2.513436598546546 -1.5974103496840066 -2.1951431843754903
0.3925470145575552 -2.3648706767182834 -2.064538536687566 -1.8960382884702645 2.586218519123543 3.390635164688399 1.7867806213298583 -1.2471062192159585
-1.5311130533380906 -3.0455086154072335 -1.2250957020745223 -0.33587384840843565 1.0668589951207343 -0.8619605570499176 -0.8499618070026854 -2.009245752184121
-2.7159116510328007 3.2206006249341868 -1.4988077864470448 -1.592506784361916 -0.6236692297572393 -0.38199921557425726 -2.2509071622357437 2.2056226996534805
-2.4535239248237275 0.20829870136252204 -4.372394915161926 -2.344847709239536 -1.4349487400067433 -0.36465606528907213 -2.4207046171093727 0.22254600863764898
-1.1527279016913472 -2.129961635721595 0.20193911008449925 -3.208165051069725 0.37380656567347703 -0.11015003846014167 1.8970067180287098 -0.07580747882109429
0.21257899427748322 -3.5389712624594236 -0.7815254736320864 -3.233372127584977 -0.2707914683480201 0.19601413350449692 -3.8000343407311674 0.6489293740262432
-4.1236205766190706 0.7820034804856735 -0.2504528528186054 -0.916650586525761 0.20515376158715723 -3.485657387886736 0.7194726979374829 0.35828139295929257
3.3368914362625355 -1.959855425425162 2.4694367799698647 -0.8254557521616701 0.8860358502557346 0.2905589574280934 -0.7140929991334674 -1.0171353009068187
-1.1968385259335537 0.23806605168395 -0.5898208584960932 -2.02234092228638 -0.3963917757336723 2.9346017936479485 2.2416338663559983 -0.01865629090702509
2.7085240592143025 -1.205318579479509 -1.4859264907195178 -0.8712855371475063 3.351965539254595 -1.1212959402065967 -0.07467991574691622 -0.9920646832739108
-2.330143057828606 -1.980005453959154 -1.794285430267035 -0.9878667491639122 -0.8738504467922468 -0.0034049429120915054 -0.06991019353219734 -2.2752324929215413

bias_1 f8 [1, 32]
00000000: 1f6d 2219 6733 e2bf 52f0 a7b8 7938 eabf
00000010: cffe 3134 ff29 b83f 2d99 001d 56f5 eebf
00000020: 6b50 56ef 7e82 b43f 5df9 8dd1 031f c03f
00000030: 027c de0a a3a8 f8bf 8d4f abbb 1000 e4bf
00000040: 4d3a ead2 9ba0 f7bf dc6e 2cf1 4a01 fabf
00000050: ba06 c443 a21f f5bf 8ca3 8911 48a4 a53f
00000060: d142 d3fe a294 ecbf be32 c45d 31ba e0bf
00000070: 8206 20d9 6de6 f0bf 3acf 5bd8 320a f4bf
00000080: 6d8f 9127 1609 f6bf d1f2 7e3b 31fe eebf
00000090: 0f21 b69d 3fff f5bf 2e7c ca2b 4ebd f1bf
000000a0: 47cb 9bf8 a337 e7bf f08b 3d8f f6a6 f3bf
000000b0: 3b02 34b7 6291 f0bf 1bec 857a 801d f3bf
000000c0: 498c af5d 9671 e6bf 2af5 a18a 522a eabf
000000d0: 3aa9 e207 6b98 f6bf 5a32 e02d bd09 f1bf
000000e0: 9211 db84 ff30 f9bf f4d5 50b4 064d eabf
000000f0: dbe2 0805 bd0b fbbf dd02 1d76 88bc f5bf
-0.5687747469814076 -0.8193939787447653 0.0943908216886442 -0.9674482885791683 0.08011620848839278 0.12594650013120204 -1.5411711144040514 -0.6250079789556239
-1.4767111052384678 -1.6253156109659619 -1.3202231070612656 0.04226899351198829 -0.8931441285186229 -0.5227286177992807 -1.0562571031045143 -1.2524898959645285
-1.377218393864463 -0.9685293352154877 -1.3748165283778382 -1.1087171278557082 -0.725542054713835 -1.22826248124397 -1.0354945331929588 -1.1947026048717422
-0.7013656453895091 -0.8176663119954004 -1.4122114475272398 -1.0648776809713554 -1.5744624318768712 -0.8219026109497336 -1.6903658100765628 -1.3585285772134548

weight_2 f8 [32, 10]
00000000: 50a6 05a1 bf4e 0440 5ace 96c7 a6fe 02c0
00000010: a310 edc6 24ef f9bf cf38 57d4 27c6 e1bf
00000020: 1e4c d2af f9b1 cf3f 028a e911 a2bf d8bf
00000030: 3ca6 6844 5fdf fcbf e640 c98d a36c d1bf
00000040: 938f 37b5 e1b7 00c0 1d3c 4761 f741 f63f
00000050: 6f89 1424 2a3e 0bc0 3e9a 5ae0 b86e 08c0
00000060: 01d8 e6af c3a9 debf 2c03 e942 6339 f0bf
00000070: b8f7 7f55 906e f1bf 47b5 8215 34c5 e03f
00000080: 1323 9433 a678 0240 8885 62c6 a214 fbbf
00000090: 197f 6722 9cd5 e13f febd f338 e9b8 f9bf
000000a0: 69c4 1e7c ea6f f33f 9d64 1f8a ec45 17c0
000000b0: b19f 74f2 fd90 02c0 376a 4c09 552d fcbf
000000c0: 3425 8c29 ae0a d63f adb1 77af 5539 06c0
000000d0: 03d0 467b 8b3f 04c0 304a 03e0 8761 f0bf
000000e0: 201d c4d1 266e f93f 907c 185a 0f86 0040
000000f0: b2ef 3023 d230 12c0 263c be0a dfdc f03f
00000100: ea5e 2c60 be86 1bc0 286d 96c4 aa19 f23f
00000110: b00a 28fa 1796 dd3f 0b73 2e4d b687 f5bf
00000120: eec2 4037 a11f 15c0 7120 6327 5e0e f73f
00000130: f41b 0166 1e65 10c0 32a5 8f96 c206 ee3f
00000140: 016a 52e2 79e1 f53f 114e 49ba f566 10c0
00000150: cc5e 3a1a 52c2 f93f 0f68 3d0a 84cd c3bf
00000160: bd53 6815 aacc 03c0 27b3 9047 7fe6 d1bf
00000170: 8e2d 0f3f e445 febf bc4b f4b7 4014 02c0
00000180: 3b37 8b6e 7ad1 0140 7ea5 0da5 9c80 0dc0
00000190: e012 1226 2717 df3f 337b 5833 9625 09c0
000001a0: 8842 709f e9f7 c43f 4616 d194 da41 ebbf
000001b0: a1cd 969f 9385 f7bf 16d8 2090 4c6f f4bf
000001c0: e010 57ee 3324 fa3f d342 616e 8612 13c0
000001d0: 61f2 3c9b f3ff ff3f 09f7 0005 1930 09c0
000001e0: 4cd8 4edd 1239 d2bf 8f28 651d 879b 03c0
000001f0: d611 57e7 4498 f4bf c697 ea3e 7f2c fd3f
00000200: acbb a36e df61 0bc0 5386 0345 71a5 f53f
00000210: 7ddf d32a 3153 f6bf 58c4 72c0 4451 fdbf
00000220: 3f8d 1e86 017a 11c0 b7f0 0934 1a16 0cc0
00000230: 0694 d337 c693 0fc0 7537 3fd9 e3e8 f03f
00000240: d7f9 4e1b 1ab7 b13f 9efa 5a23 f3a8 03c0
00000250: 2da8 c545 be58 0140 eb0c 7c93 63ff e1bf
00000260: e7ca 835a c88c d7bf 5909 7030 22c0 0ec0
00000270: f0dd 48c4 02e8 ea3f adfc 86a2 4f3f c8bf
00000280: 8b46 263c 6d70 f5bf 69d9 e6cd a605 f8bf
00000290: fabf 12a3 1271 b43f 490e 898c 7a27 0940
000002a0: 9c2c b685 e82b 03c0 9e98 f65e 4bdd e8bf
000002b0: 95cd d995 7078 e5bf 6938 848f 8da0 02c0
000002c0: 8d5f 67bc 1ff8 d3bf a8dc 0063 66fd fdbf
000002d0: ae8d d982 52b7 c33f 69ea f095 4cbd f8bf
000002e0: 7e93 5702 fe3f 00c0 03ed c7f1 a6d4 0ac0
000002f0: b042 a7a1 2953 06c0 9578 5f97 3dca 0840
00000300: e1f2 dc95 bd9d f9bf 0d27 2b31 28bb f03f
00000310: 1ce2 3070 b7a5 ebbf 0432 aae8 924c 02c0
00000320: c760 aa22 cc75 01c0 fd68 0490 0bd4 f13f
00000330: 7f15 0175 c7f6 f43f 1c37 42d5 9685 f33f
00000340: 2c8e 9216 bbc4 0dc0 a7db 737c a39c d4bf
00000350: 6a8f ef7c 6f55 03c0 d025 7f6c cd83 06c0
00000360: 92e6 6d14 4982 fcbf e0dd af9b 9ef3 08c0
00000370: c0d5 8483 8e4d 11c0 99da ca40 5df1 0640
00000380: faf0 0888 0342 fbbf acbd 2f33 6802 febf
00000390: bbe6 bbfa d16d febf 7a45 c317 14c2 f9bf
000003a0: 509b 07f4 82f7 02c0 f005 47f1 1afa f8bf
000003b0: 8705 71aa a7f3 0540 13c3 cb72 2e40 08c0
000003c0: 4dca f070 72e9 ffbf 4cfa a628 08c7 0840
000003d0: 81ef ff83 9348 ecbf 5d54 b9f7 9c77 00c0
000003e0: 7dd7 ae04 a2b6 dbbf 1eb8 1594 899a dabf
000003f0: 7260 0c78 76a9 fd3f 7eb1 cc6e 6d95 07c0
00000400: 398c 9f17 330b 01c0 f355 714e f964 efbf
00000410: cd4c a1a1 a97b fd3f baa3 3796 9cdb f63f
00000420: 2f2a af63 a2cf 00c0 6fc4 5cb7 74e9 d2bf
00000430: 5a3f 8664 4027 e5bf f83e d866 7fbc e7bf
00000440: ef88 d684 9ef4 fb3f 356b 5bbd 9850 f3bf
00000450: 91ba eac8 b907 f9bf 6cdb 8863 3bd4 efbf
00000460: d68d c07c a262 f73f 710c 1a57 9ece 07c0
00000470: cf13 e285 47a3 f83f 8a9a a9b0 6fd3 09c0
00000480: 3c8a ec53 12d1 f53f 873a 2737 c40a ecbf
00000490: 24ca d3d7 cedb f53f 7a9d 2954 0eec 0ac0
000004a0: 2e5f 52c5 f5cf 08c0 4a7f 79ae aea9 fabf
000004b0: d5b9 c809 98c0 a7bf 0561 cce7 59a0 02c0
000004c0: c73c d1e2 daa0 f9bf d8f4 3366 1b64 eabf
000004d0: aae4 6ff3 a21e 0f40 2c75 0ece aa97 e0bf
000004e0: 05af 6248 1458 89bf ee0e f89c 2e36 f2bf
000004f0: 4fbb 85b5 47d1 d8bf b894 d5f3 7580 febf
00000500: 6d18 5c2c 4dad 0040 17e2 a06f 5aad 04c0
00000510: b43f 666d c449 fe3f b456 a012 25eb 02c0
00000520: 70d2 6b21 df65 03c0 7ff6 968e b525 d5bf
00000530: ffc4 fb16 8770 f0bf 4886 fb01 f99c f33f
00000540: 3bbe 3ce9 2027 02c0 fe64 cd27 2d5f 00c0
00000550: 8e3b 0b01 c03c 07c0 3f9a a527 f9bc d23f
00000560: 51e4 29f3 156a 07c0 96e6 fb09 4d9b febf
00000570: 9ca0 93f0 64e8 ecbf ab99 5ee1 8f12 f33f
00000580: 7ed6 fa75 381f d1bf 2f19 fdd2 8e07 00c0
00000590: 7a63 a7a8 4b37 ea3f 84f6 77f4 d5f3 ef3f
000005a0: 406d a656 5b80 fcbf 3c0c e0f3 1eb5 0740
000005b0: 9cc7 5d5f 7db6 dcbf 2a2b d93e 0f94 04c0
000005c0: b486 14cf 37ac 08c0 af5f 239b fad1 e6bf
000005d0: a301 aa23 a398 f1bf 1975 0f85 a2b0 0640
000005e0: ef52 5b77 3487 f5bf 4744 e740 b909 04c0
000005f0: 4ad2 eb0d 6e30 00c0 9fb0 8193 e82d 0fc0
00000600: 5e4e ea0d b3ba febf 1db4 a196 2010 e9bf
00000610: a209 6b29 e13d 13c0 9522 3f10 c3dc fbbf
00000620: f5b3 92ea 76b8 0cc0 2fe6 e8ed 48e9 0b40
00000630: f434 9fbc 5380 fbbf 39a0 dab9 a19b fa3f
00000640: 2151 f1c5 6dbc 0240 7f27 14c5 aee5 0ec0
00000650: 7f65 416e 9fd5 0cc0 e310 c319 aa39 f4bf
00000660: 15fd e71a af78 00c0 d2be 5c76 30af da3f
00000670: 8f1b 672f 868e ee3f 6a5b 418a 4729 f33f
00000680: 9f6d 638a b5a4 01c0 fae6 4f99 985d c03f
00000690: f938 d191 1489 15c0 fc51 d0ac 93c6 1ac0
000006a0: 0cfd 650d eb9c 0040 7129 f209 f68f 0040
000006b0: 85af 387b 0f72 12c0 a187 f7bc 9f01 02c0
000006c0: 99d4 d83a 3096 11c0 1b83 65a1 f844 0140
000006d0: 6b45 b395 a84f 03c0 39c7 a075 41f9 1ec0
000006e0: a437 edf6 8452 febf 42b3 b1ff ef98 0ac0
000006f0: a1f0 f089 9411 05c0 432b 2d80 16eb 0540
00000700: 5491 dfac 474f b0bf e098 be64 3a6c e8bf
00000710: 4ef7 b745 3b4a 04c0 7f1d 8cd7 9b3c 00c0
00000720: ebc4 a712 3bd5 e83f 2498 285d 0a16 f43f
00000730: 434c 6061 071c f3bf 7f62 696a 08ea 0bc0
00000740: d3a6 0b6e f4c7 cd3f 238d 4d80 d077 01c0
00000750: 8c44 0157 d11a 0040 8417 5335 9e07 f6bf
00000760: b485 d276 c9fc b63f e7be db18 408c f33f
00000770: a9e8 4247 9fbb 00c0 e3ce 3f9c 4891 03c0
00000780: f069 e2c4 99f7 fabf 073e 0add 5ad9 10c0
00000790: 8ad2 c232 85e6 02c0 e705 b619 34d6 f23f
000007a0: c570 54ce c898 0ec0 f56a f594 423b f83f
000007b0: dae0 4b66 6c0e f0bf 7be7 99a1 8d8b fdbf
000007c0: 5b6e 3958 b608 e83f 7747 680a 88b1 0cc0
000007d0: 2b5a 26a2 1463 0ac0 eb5c 89f6 a58c e2bf
000007e0: ef3b 1a53 1f01 e43f 6dc2 3d36 dc8c f2bf
000007f0: bf76 eff1 91fd ed3f 3dce edf2 5d73 ebbf
2.53845144079677 -2.3743415444276197 -1.6208846827076193 -0.5554389140395645 0.24761887631447704 -0.3866963553356585 -1.8045342132776474 -0.2722557911520326
-2.089785972364504 1.3911050605709143 -3.4053538149611806 -3.0540635612153713 -0.4791115968504301 -1.0140106786422605 -1.0894931163634123 0.5240726871613014
2.3089107541640117 -1.692538046780415 0.5573254272421507 -1.6076442932788946 1.2148232315487582 -5.8182851392422466 -2.320796865638805 -1.7610674250814904
0.34440187508933495 -2.7779954632189487 -2.5310277586922907 -1.0238112211706145 1.5893924898135268 2.065458968994399 -4.547676610814891 1.0539236468937445
-6.881585600574661 1.1312663726046797 0.462285990041134 -1.3456328406238665 -5.2808884270932435 1.4410077608645475 -4.098748773400974 0.9383252087256209
1.3675478783321753 -4.10054675171297 1.6099415802508927 -0.1547093439101563 -2.474933783766089 -0.27969343174736355 -1.8920633757832976 -2.259889065878694
2.22728430139878 -3.6877987761296813 0.48578814237434464 -3.1433528910996755 0.16381569180568456 -0.8517887980057786 -1.470111487765145 -1.2771726255427942
1.6338385877762036 -4.768090939222662 1.9999881805407755 -3.148485220996808 -0.28473350154979893 -2.450941304826365 -1.287175086662605 1.8233635385199576
-3.422789444324243 1.3528912254190757 -1.3953105614618544 -1.8323409574043321 -4.369146438231211 -3.5107921662839447 -3.9471554147189662 1.056857918377742
0.06920016447745723 -2.457494999135931 2.1683316660828695 -0.5624254112775849 -0.36796768988931067 -3.843815210742076 0.8408216317829424 -0.189432100638418
-1.3399479245748889 -1.5013797801053335 0.07985035401611632 3.1442767123533355 -2.3964395948620005 -0.7770134787322325 -0.6709521223805718 -2.3283950054383706
-0.31201928519066585 -1.8743652217215558 0.1540320528903129 -1.5462156159470857 -2.0312462027526967 -3.353834046281578 -2.7906067494553426 3.098750288582844
-1.6010108808542827 1.045692627014833 -0.8639790717343803 -2.2873895813884264 -2.1825182636494875 1.114268839423459 1.3102488108137036 1.2201145487228535
-3.7210599673724314 -0.3220604625088818 -2.416716552792356 -2.8143566585829163 -1.7818079755801688 -3.1189548647923715 -4.3257389592958475 2.867853647413835
-1.703616649042543 -1.875587654063433 -1.9018115801140272 -1.6098824432595777 -2.370855242235315 -1.561060850610712 2.7439721408597424 -3.0313385933335524
-1.9944939052335429 3.0971835304219777 -0.8838594034309467 -2.058404860823926 -0.43302202660867534 -0.415682215322592 1.853872746409277 -2.947962632772202
-2.1304685445370777 -0.9810759098133403 1.8426910699534347 1.4286161296715663 -2.1013839519339608 -0.2954990187309425 -0.6610414470069188 -0.7417599686322935
1.7472214879022052 -1.2071769139062785 -1.564386162597348 -0.9946572250399703 1.461580741227285 -2.9758879475426103 1.5398631315049334 -3.2282403756865437
1.3635428694038998 -0.8763142659389168 1.3661640578035383 -3.3652617049407896 -3.1015429893267514 -1.666426354924584 -0.0463912498420204 -2.3282964810606495
-1.601771245961389 -0.8247200962211094 3.889959241726122 -0.5185140633144889 -0.012375029047994266 -1.1382280475235649 -0.3877734444312652 -1.9063624882485737
2.084619852600602 -2.5846451493237157 1.8930095933355746 -2.3648168044263347 -2.4247419940023107 -0.3304265873410727 -1.02747258165283 1.2258234097902392
-2.2691057416593856 -2.0464728459888866 -2.9046630937149933 0.29278401252523517 -2.9267996785315877 -1.912915266990614 -0.9033684443247867 1.1920317462441783
-0.26753055116146374 -2.003690384243917 0.8192499441166625 0.998515107610459 -1.7813371071595867 2.9634379437207183 -0.44863828957670093 -2.5722947034859276
-3.084090822042379 -0.7131321935694269 -1.0997649567726533 2.836247481855605 -1.3455090200779372 -2.5047478743149756 -2.0236474120704644 -3.897416260142634
-1.9205809157910134 -0.7832186643623832 -4.8104292365627845 -1.7413969645150804 -3.5900705648441495 3.4889086329174215 -1.7188298576396024 1.6629960308000717
2.3420062507886006 -3.8621497532630538 -3.6043079961497706 -1.26407823622963 -2.0589277364775946 0.41694270666901645 0.9548979688487281 1.1975779915425968
-2.205424386176403 0.12785632596915503 -5.383867529292041 -6.693922710623607 2.0766202017545137 2.0702935006167356 -4.611387181601349 -2.2507929575958348
-4.396668357357293 2.1586773499588054 -2.413895768674299 -7.743413770616649 -1.8951463361331458 -3.3246765113930516 -2.6335840965894737 2.739789010408829
-0.06370971651592089 -0.7632114379564676 -2.5362458655135134 -2.029594119990804 0.7760291447031283 1.2553809775358866 -1.1943429759746926 -3.4892738641177057
0.23266463635746124 -2.1835031531969817 2.0130945966016665 -1.3768598635665237 0.0897947230428347 1.2217408152609381 -2.0916123931211428 -2.4459392744991972
-1.6854493799970633 -4.21226067900671 -2.3625587430672725 1.1772957805954947 -3.8246017570037076 1.514467794294146 -1.0035213466599573 -1.8465706169649525
0.7510635111934322 -3.5866852582047914 -3.2983791988329094 -0.5796689810912573 0.62513700705483 -1.1593896979140041 0.9372033810902493 -0.8578328842836026

bias_2 f8 [1, 10]
00000000: a577 89c5 7d4b e8bf 5ae6 5523 6727 aabf
00000010: df1d 1471 8335 bbbf ba4a 4430 c885 a63f
00000020: e267 aabb 24f3 d0bf 0e37 b92a 0a82 b2bf
00000030: 1aae a133 f5a7 dbbf d3fb 7872 1464 debf
00000040: e7f9 b02c 129f ec3f 121e 444b 7c12 e33f
-0.7592152460235765 -0.05108187013952366 -0.10628530035693683 0.0439894255561248 -0.26484030081485177 -0.0722967485719119 -0.4321263317312699 -0.47485839060749163
0.8944178460004054 0.5960065336266231

loss_history f4 [65]
00000000: 0800 233f cc0b 9d3e a6ae 7e3e 9257 603e
00000010: 4fa6 4d3e 16c9 413e a10b 353e 2571 303e
00000020: d4f6 283e 60b4 253e af0f 263e 1876 1e3e
00000030: a98f 203e 89cc 163e 38d6 193e a387 203e
00000040: 0efc 193e b240 1b3e 8118 163e 31ba 133e
00000050: 67ed 183e 31a7 173e 1e79 1b3e 31e3 1a3e
00000060: eab8 143e 7ae0 153e a5d1 0e3e 332d 193e
00000070: 1620 163e 2e81 163e d14f 1c3e ec0c 1a3e
00000080: f983 193e 216a 253e fdaf 1e3e 40dd 293e
00000090: 97a0 213e a084 243e 098b 1e3e 368b 253e
000000a0: a956 233e eb31 2d3e e3c4 273e 7f83 263e
000000b0: 4155 2e3e f6c5 2c3e 1e2e 263e 712d 333e
000000c0: bec8 363e c87f 313e b9dc 333e ef07 2d3e
000000d0: 4616 353e cb57 363e 7c41 313e 4b6d 413e
000000e0: bf02 3d3e 2f91 333e 8883 393e e147 3d3e
000000f0: 6671 333e cacb 3f3e 189e 3c3e 7453 4c3e
00000100: 6a1a 403e
0.6367192 0.30673063 0.2487131 0.21908405 0.20082973 0.18924364 0.17680217 0.17230661
0.16500407 0.16182089 0.1621692 0.15474737 0.15679802 0.14726461 0.15023124 0.15676741
0.15037557 0.15161398 0.14657785 0.14426495 0.14934312 0.14809872 0.15182921 0.15125729
0.14523664 0.14636412 0.1394716 0.14958648 0.14660677 0.14697716 0.15264823 0.15043992
0.1499175 0.16153766 0.15496822 0.16588306 0.15783916 0.16066217 0.15482725 0.16166386
0.15951027 0.16913573 0.163837 0.162611 0.1702471 0.16872391 0.1622853 0.17497803
0.17850015 0.17333901 0.17564668 0.16897558 0.17684278 0.17806928 0.17310137 0.18889348
0.18458079 0.17535852 0.18116581 0.18484451 0.17523727 0.18730083 0.18419683 0.1995371
0.18760076

accuracy_history f4 [65]
00000000: 8ca5 a042 fd22 b642 efae b942 e557 bb42
00000010: 5555 bc42 0a17 bd42 1be8 bd42 291c be42
00000020: 8988 be42 3aed be42 1fc5 be42 291c bf42
00000030: cd4c bf42 5ccf bf42 41a7 bf42 8988 bf42
00000040: 52b8 bf42 52b8 bf42 1be8 bf42 a70d c042
00000050: 44c4 bf42 85eb bf42 cd8c bf42 0ef4 bf42
00000060: f628 c042 07fa bf42 0a57 c042 b1e4 bf42
00000070: 2c39 c042 7ef1 bf42 f6e8 bf42 1111 c042
00000080: 33f3 bf42 4bbe bf42 85eb bf42 6a83 bf42
00000090: 9ad9 bf42 b5c1 bf42 e5d7 bf42 b5c1 bf42
000000a0: 7b94 bf42 6666 bf42 bc7b bf42 749a bf42
000000b0: a470 bf42 e557 bf42 4b7e bf42 c92f bf42
000000c0: 1111 bf42 263f bf42 031d bf42 7e31 bf42
000000d0: 8f02 bf42 4f1b bf42 da40 bf42 6ac3 be42
000000e0: 8ce5 be42 cd4c bf42 66e6 be42 f6e8 be42
000000f0: 77f7 be42 03dd be42 8ca5 be42 b581 be42
00000100: 9d76 be42
80.32333 91.06834 92.84167 93.67167 94.166664 94.545 94.95333 95.055
95.26667 95.46333 95.385 95.555 95.65 95.905 95.82667 95.76667
95.86 95.86 95.95333 96.026665 95.88333 95.96 95.775 95.97667
96.08 95.988335 96.17 95.94666 96.111664 95.971664 95.955 96.03333
95.975 95.871666 95.96 95.75667 95.925 95.878334 95.92167 95.878334
95.79 95.7 95.74167 95.80167 95.72 95.67167 95.746666 95.59333
95.53333 95.62334 95.55666 95.596664 95.505 95.55334 95.62666 95.38167
95.44833 95.65 95.45 95.455 95.48333 95.43166 95.32333 95.253334
95.23167

val_loss_history f4 [13]
00000000: 01d0 de3d 1e1f 003e 1526 7f3e ee55 df3d
00000010: 14be 313e b478 423e 3bab 663e 1c85 623e
00000020: 949a 913e 2c64 0f3e 412e 083e 2533 803e
00000030: 7137 be3e
0.10879517 0.1251187 0.24916871 0.10905062 0.17357665 0.18991357 0.22526257 0.2212109
0.28438246 0.14003056 0.13298894 0.2503902 0.37151673

val_accuracy_history f4 [13]
00000000: 6666 c142 6666 c142 6666 c042 3333 c342
00000010: cdcc c042 9a99 c042 cdcc c242 3333 c242
00000020: 6666 c042 cdcc c242 0000 c242 9a99 c042
00000030: cdcc be42
96.7 96.7 96.2 97.6 96.4 96.3 97.4 97.1
96.2 97.4 97.0 96.3 95.4
