checkpoints/model_epoch_0060.npz (npz, 391528 bytes, 10 tensors)

weight_0 f8 [784, 64]
2.809556444e-315 1.18684844e-315 1.159753507e-315 2.170921987e-315 3.67275264e-316 -2.47150585e-315 -9.8842694e-316 -2.60801613e-315
3.0878376e-316 -2.79289962e-315 2.813838017e-315 -2.43612303e-316 2.65544244e-315 4.10662844e-316 -2.74403781e-315 -7.1064409e-316
1.973355817e-315 -1.193868285e-315 1.583063013e-315 2.1465379e-316 1.511079343e-315 -1.682815816e-315 1.670490736e-315 1.47631e-315
3.68661355e-316 1.95384608e-315 -1.28497167e-315 -5.48013657e-316 3.397507e-318 2.21540617e-316 2.79815016e-315 8.77400346e-316
-2.93813814e-316 7.36558233e-316 2.5428291e-316 -2.38698567e-315 6.01669137e-316 -1.13046919e-315 -2.038585985e-315 2.803977573e-315
-1.153519337e-315 -2.23963669e-315 -1.05747874e-315 1.10599899e-315 2.528962715e-315 -1.23928457e-315 2.53339363e-315 1.772884437e-315
-9.545797e-316 1.74383142e-315 -2.643327183e-315 -8.7496575e-316 -2.8093435e-315 -2.93953674e-316 1.0541648e-316 -1.19026497e-315
-8.78312445e-316 1.66353793e-315 2.8890545e-315 -2.943628217e-315 -1.23043843e-316 -2.04553873e-315 1.7379012e-316 -1.08991035e-315
-7.1722666e-316 1.41591142e-315 -1.50623088e-315 -7.1976822e-316 -2.264882666e-315 -2.61369448e-315 -2.65714196e-316 8.71518677e-316
9.5597476e-316 -2.20184834e-315 2.339289327e-315 -2.7581705e-315 -2.904696387e-315 1.83772453e-315 -1.0231706e-316 2.563962834e-315
4.9611554e-316 1.866788797e-315 -1.32782059e-315 2.826317186e-315 -2.54794846e-315 -1.2493555e-316 -1.816062386e-315 -5.3023063e-316
1.11643456e-315 1.224897366e-315 -1.38083123e-315 -1.93371207e-316 6.80958797e-316 -1.70666008e-315 2.295534805e-315 2.575526836e-315
-2.76459796e-315 2.00349864e-316 -2.74147237e-315 -1.737352047e-315 -6.95044387e-316 -8.81969983e-316 1.792280936e-315 -9.25216824e-316
-7.4025777e-317 2.44747603e-315 -2.504462657e-315 1.749814003e-315 -2.601076655e-315 1.751606616e-315 1.537231518e-315 1.41512979e-315
-1.890466073e-315 1.837696335e-315 -2.819297254e-315 -1.18085434e-316 -2.53552008e-315 2.998075743e-315 2.782661126e-315 2.539988733e-315
3.3598043e-316 -2.63215776e-315 1.28976179e-315 1.939797703e-315 2.23724737e-315 -2.717772663e-315 1.535797635e-315 -1.7035742e-315
1.408991626e-315 -3.60435044e-316 1.23340541e-315 5.79614007e-316 1.59815884e-316 -7.3064783e-316 2.789631473e-315 -2.468768637e-315
-7.8663519e-316 8.57254937e-316 -1.25104857e-316 -1.6713954e-316 -8.7335345e-316 8.1140424e-316 -4.31546895e-316 1.65792184e-315
2.75335445e-315 -2.54452083e-315 2.24807368e-315 2.425086633e-315 -1.14319195e-315 6.443615e-317 -2.491028537e-315 1.12552122e-315
9.6360473e-316 -1.61285633e-315 2.74504156e-315 9.27350027e-316 -1.472821276e-315 -5.44176807e-316 3.46987545e-316 -1.55078052e-315
-1.5459266e-316 -1.29907054e-315 -2.67409377e-315 -2.445089805e-315 2.10448435e-315 -1.681664895e-315 1.99133435e-316 -1.385901216e-315
1.69815716e-315 2.55520157e-315 1.11081558e-315 -2.3051816e-316 -2.8646838e-315 -1.699846175e-315 5.4841791e-316 5.9465123e-316
-1.154976346e-315 -1.18986869e-315 -9.936967e-316 -6.96206335e-316 -2.530524634e-315 -2.334317723e-315 -1.110278104e-315 -3.7066632e-316
3.382497e-318 -1.487584595e-315 -1.3004411e-315 -2.396715e-317 -2.68873878e-315 3.5684733e-316 7.53170385e-316 2.13080745e-316
-2.898153343e-315 -2.09551113e-315 -1.315354986e-315 -2.62516584e-315 -1.69904087e-316 -2.0122864e-315 -2.283302797e-315 -1.78687938e-315
6.65492823e-316 -1.014957564e-315 -4.860752e-317 2.18142184e-315 2.58378259e-315 4.3661511e-316 -1.27763259e-315 1.76847984e-315
1.82028941e-315 -1.969288437e-315 -2.041693317e-315 2.89761271e-315 2.18562942e-315 -1.665046765e-315 -2.20019148e-315 2.39230662e-315
-1.482020976e-315 1.18878075e-315 2.43061108e-315 1.65378075e-316 2.82257584e-315 2.360429636e-315 -6.485332e-317 -1.129585997e-315
2.37748073e-315 -1.0047338e-315 -3.54457047e-316 4.8449272e-316 -7.8716718e-317 2.09805338e-315 -2.74664348e-315 -7.40823615e-316
-9.904704e-317 3.6598388e-316 1.464150627e-315 2.552400774e-315 -2.39818978e-315 -1.492280294e-315 5.8228009e-316 -9.06537383e-316
2.00460664e-316 2.869623636e-315 1.40301825e-315 -2.181690657e-315 2.0289746e-315 1.178893565e-315 2.443950563e-315 5.91722187e-316
1.289201053e-315 -1.150464544e-315 1.783174753e-315 -2.060340536e-315 -1.241279847e-315 2.83196126e-316 2.488921856e-315 1.060060026e-315
00000000: 4b12 e521 0000 0000 7f7a 510e 0000 0000
00000010: 53cc fd0d 0000 0000 4eb4 301a 0000 0000
00000020: 3d4c 6e04 0000 0000 1108 d11d 0000 0080
00000030: c0ab ec0b 0000 0080 b5a1 761f 0000 0080
00000040: e1a6 b903 0000 0000 d8a0 b121 0000 0080
00000050: 734b f221 0000 0000 1f60 f002 0000 0080
00000060: 8d1a 0920 0000 0000 ed4b f404 0000 0000
00000070: 0cb9 1a21 0000 0080 3dc3 9208 0000 0080
00000080: d089 ce17 0000 0000 9f28 670e 0000 0080
00000090: 2127 1913 0000 0000 8bf0 9602 0000 0000
000000a0: 68d6 3a12 0000 0000 113b 4d14 0000 0080
000000b0: 712a 2714 0000 0000 9774 cf11 0000 0000
000000c0: 2194 7204 0000 0000 c148 9217 0000 0000
000000d0: 0986 800f 0000 0080 1f7e 9c06 0000 0080
000000e0: 2f7e 0a00 0000 0000 8035 ac02 0000 0000
000000f0: 19d8 c121 0000 0000 5fc6 950a 0000 0000
00000100: 226b 8b03 0000 0080 d6cb e208 0000 0000
00000110: aa54 1103 0000 0000 8eff cb1c 0000 0080
00000120: f533 4207 0000 0000 275b a30d 0000 0080
00000130: fdfe 9718 0000 0080 73d7 d321 0000 0000
00000140: 618b ea0d 0000 0080 79ec 041b 0000 0080
00000150: 70ee c10c 0000 0080 30c8 570d 0000 0000
00000160: 687b 821e 0000 0000 456c f30e 0000 0080
00000170: a32a 901e 0000 0000 5d66 6315 0000 0000
00000180: fa22 840b 0000 0080 11ac 0915 0000 0000
00000190: d2af e31f 0000 0080 7f41 8e0a 0000 0080
000001a0: ef69 e421 0000 0080 b6d9 8b03 0000 0080
000001b0: d591 4501 0000 0000 b807 5c0e 0000 0080
000001c0: 8297 980a 0000 0080 51b1 1114 0000 0000
000001d0: 2598 da22 0000 0000 f823 8323 0000 0080
000001e0: 9f02 7c01 0000 0080 1078 ad18 0000 0080
000001f0: 58bc 1802 0000 0000 f717 260d 0000 0080
00000200: a417 a708 0000 0080 6eeb 1411 0000 0000
00000210: 0cdd 2b12 0000 0080 16f1 ae08 0000 0080
00000220: cbe4 521b 0000 0080 342b 881f 0000 0080
00000230: a0a2 3403 0000 0080 209c 830a 0000 0000
00000240: f671 880b 0000 0000 b937 901a 0000 0080
00000250: 37b1 381c 0000 0000 d45e 4621 0000 0080
00000260: 26e7 0a23 0000 0080 22a7 2b16 0000 0000
00000270: 53ff 3b01 0000 0080 af93 ee1e 0000 0000
00000280: b735 fc05 0000 0000 536a 8516 0000 0000
00000290: d7db 0410 0000 0080 e7d5 1822 0000 0000
000002a0: 2e1e bd1e 0000 0080 45da 8101 0000 0080
000002b0: 4fc0 e815 0000 0080 4292 6506 0000 0080
000002c0: e702 780d 0000 0000 43fd c60e 0000 0000
000002d0: d893 a810 0000 0080 d035 5502 0000 0080
000002e0: 0b15 3708 0000 0000 26df 9614 0000 0080
000002f0: 698f b11b 0000 0000 934a 121f 0000 0000
00000300: 9938 5a21 0000 0080 60c3 6a02 0000 0000
00000310: b9cc 1221 0000 0080 41a9 f514 0000 0080
00000320: 9695 6208 0000 0080 48e3 a30a 0000 0080
00000330: e44d 9f15 0000 0000 b273 290b 0000 0080
00000340: 489f e400 0000 0080 47d1 861d 0000 0000
00000350: d5d0 361e 0000 0080 1926 1c15 0000 0000
00000360: 2033 611f 0000 0080 66af 2115 0000 0000
00000370: 339b 8b12 0000 0000 7281 1211 0000 0000
00000380: 618a ce16 0000 0080 d790 2b16 0000 0000
00000390: b527 0322 0000 0080 56b2 6c01 0000 0080
000003a0: e1bb 961e 0000 0080 064c 2b24 0000 0000
000003b0: f201 9221 0000 0000 f388 a41e 0000 0000
000003c0: 7ca5 0d04 0000 0000 e630 c11f 0000 0080
000003d0: 4551 8f0f 0000 0000 a2e5 6617 0000 0000
000003e0: 658b fd1a 0000 0000 ef9a c920 0000 0080
000003f0: 862d 8712 0000 0000 5957 8d14 0000 0080
00000400: 688c ff10 0000 0000 212c 5904 0000 0080
00000410: 0244 e10e 0000 0000 6d16 fe06 0000 0000
00000420: d793 ed01 0000 0000 df8a d008 0000 0080
00000430: f088 a721 0000 0000 ef93 c81d 0000 0080
00000440: 5f74 7d09 0000 0080 bb8e 570a 0000 0000
00000450: 2160 8201 0000 0080 2c32 0402 0000 0080
00000460: c246 890a 0000 0080 9ff3 c909 0000 0000
00000470: 90cb 3405 0000 0080 0c59 0014 0000 0000
00000480: 197f 3721 0000 0000 2e88 b21e 0000 0080
00000490: 0afb 1e1b 0000 0000 77ab 411d 0000 0000
000004a0: 33a6 ca0d 0000 0080 6601 c700 0000 0000
000004b0: 5d53 0d1e 0000 0080 1f13 940d 0000 0000
000004c0: 7902 a00b 0000 0000 bb2a 7513 0000 0080
000004d0: a5d2 1d21 0000 0000 470a 300b 0000 0000
000004e0: 49ae c411 0000 0080 94a4 9006 0000 0080
000004f0: 15a4 2f04 0000 0000 8073 b512 0000 0080
00000500: 2f72 dd01 0000 0080 1511 ac0f 0000 0080
00000510: edb4 4220 0000 0080 a672 7f1d 0000 0080
00000520: 7684 6319 0000 0000 1cad 4914 0000 0080
00000530: a001 6702 0000 0000 593c b810 0000 0080
00000540: 749c 7c14 0000 0000 bb84 d31e 0000 0000
00000550: 58a8 660d 0000 0000 73ef c702 0000 0080
00000560: d853 8f22 0000 0080 d8d3 8114 0000 0080
00000570: bdbd 9d06 0000 0000 5d87 2c07 0000 0000
00000580: 570b ef0d 0000 0080 68ce 5a0e 0000 0080
00000590: 33f2 fc0b 0000 0080 432c 6608 0000 0080
000005a0: 504e 871e 0000 0080 7f56 291c 0000 0080
000005b0: 66ff 640d 0000 0080 52c5 7804 0000 0080
000005c0: 5172 0a00 0000 0000 aa46 f211 0000 0080
000005d0: b14c b00f 0000 0080 3d05 4a00 0000 0080
000005e0: c4ef 6f20 0000 0080 9017 4e04 0000 0000
000005f0: f719 1609 0000 0000 d714 9202 0000 0000
00000600: ffb1 f622 0000 0080 efcd 4719 0000 0080
00000610: 1d5c de0f 0000 0080 d998 ab1f 0000 0080
00000620: eabb 0c02 0000 0080 a6c5 4618 0000 0080
00000630: 5fc8 8b1b 0000 0080 3d9f 8e15 0000 0080
00000640: 1f51 0708 0000 0000 c29b 3e0c 0000 0080
00000650: c01e 9600 0000 0080 d821 511a 0000 0000
00000660: dac9 2b1f 0000 0000 aa72 4405 0000 0000
00000670: 83db 690f 0000 0080 f1cb 5515 0000 0000
00000680: 56ce f515 0000 0000 01fa c117 0000 0080
00000690: c097 a118 0000 0080 8e06 f522 0000 0000
000006a0: 8020 5e1a 0000 0000 415a 1614 0000 0080
000006b0: c119 8b1a 0000 0080 7a6e dc1c 0000 0000
000006c0: e117 e111 0000 0080 3e72 570e 0000 0000
000006d0: 48bb 521d 0000 0000 7fc1 fe01 0000 0000
000006e0: de47 0d22 0000 0000 75fb 791c 0000 0000
000006f0: 3a4b c800 0000 0080 dfa0 a00d 0000 0080
00000700: a1a4 ae1c 0000 0000 8108 1f0c 0000 0080
00000710: b9b5 4604 0000 0080 5250 d805 0000 0000
00000720: 191c f300 0000 0080 eca7 4f19 0000 0000
00000730: 2dc5 2221 0000 0080 31f8 ef08 0000 0080
00000740: f0e5 3101 0000 0080 3a4f 6a04 0000 0000
00000750: fae6 a911 0000 0000 54de ca1e 0000 0000
00000760: e799 ee1c 0000 0080 3ec7 0012 0000 0080
00000770: 5252 0607 0000 0000 19c3 ef0a 0000 0080
00000780: fa1a 6b02 0000 0000 7295 9e22 0000 0000
00000790: a719 ed10 0000 0000 61f6 511a 0000 0080
000007a0: e74f 7a18 0000 0000 1ae9 380e 0000 0000
000007b0: eded 7b1d 0000 0000 907b 2307 0000 0000
000007c0: ee95 8d0f 0000 0000 281c e10d 0000 0080
000007d0: 3c2e 8315 0000 0000 df2e db18 0000 0080
000007e0: ce95 f90e 0000 0080 6ea0 6a03 0000 0000
000007f0: c0d1 061e 0000 0000 4ae7 c90c 0000 0000

bias_0 f8 [1, 64]
-0.12590622870636367 -0.2797655371583369 -0.08227563156423665 -0.07150316820245006 -0.15241349860137626 -0.4312605775828993 -0.050325979576404375 -0.29487402914086414
-0.2851813254256451 0.03317674262692851 0.22287655471499643 -0.08025301805218467 -0.4507072446344587 -0.14328023598874565 -0.37052381288288305 -0.42665068160198816
0.3001424474728598 -0.19546896032019748 -0.22360507334833854 0.04026722409121213 -0.21911086576066727 0.3372637604562757 -0.18164418883034725 -0.3423013906268479
0.2129180791108488 -0.1667943414623544 -0.06230499720024593 0.27847188748469953 0.22107898202514123 -0.11418327730650442 0.010873888517470714 -0.11015567547489191
-0.27413201004004895 0.012441963608394111 -0.15224379758787956 -0.39894358726447765 -0.12516884673530787 -0.3057013193650279 -0.14642517874721125 0.0963518935798128
-0.12407023251581573 -0.04200099923281996 0.003585003100529574 -0.06588603036495867 -0.3375783327834851 -0.025573653789012267 0.04075257584486095 0.12234550033977004
-0.5809483950719605 -0.24473933033017456 -0.23627013317037313 0.09595165968669965 -0.007946767188255878 0.1493095371877348 -0.09239721016444073 -0.4760754242499396
-0.4254846259664102 0.07946136472556733 -0.3870894603789306 -0.26379932240796683 0.05275776365802906 0.02278884482902261 0.2085419610552484 -0.2385909931257606
00000000: 1f09 54ff b11d c0bf c325 29b6 ade7 d1bf
00000010: 067e d30a 0410 b5bf c06a fd18 084e b2bf
00000020: fe1d fb17 4982 c3bf a972 31f7 c599 dbbf
00000030: bef2 d6a8 53c4 a9bf 8262 e651 37df d2bf
00000040: 5e84 882c 6940 d2bf 4314 24c1 8afc a03f
00000050: 6fe5 c50c 3887 cc3f 897e f037 768b b4bf
00000060: 0d9e f132 63d8 dcbf bd0e debb 0157 c2bf
00000070: 3e28 ae82 a9b6 d7bf 48fc 12a9 3e4e dbbf
00000080: a063 02ab 8835 d33f ddab fa7b 2005 c9bf
00000090: 0f1a a04e 179f ccbf 6719 25d5 e79d a43f
000000a0: bff5 5129 d30b ccbf 9e48 52bd ba95 d53f
000000b0: ff73 44e5 1d40 c7bf 4b87 8717 44e8 d5bf
000000c0: e40d 414d e640 cb3f b48c de58 8459 c5bf
000000d0: 6c71 b4ca 70e6 afbf 0e8a 66c0 7bd2 d13f
000000e0: 15c3 d0ea 504c cc3f b512 c881 1d3b bdbf
000000f0: b6ca 809c 0c45 863f c829 a28f 2933 bcbf
00000100: 0629 7afc 608b d1bf 7f5c 5e16 2c7b 893f
00000110: 1d53 d489 b97c c3bf 9afd 0faf 4a88 d9bf
00000120: 3a64 9a63 8805 c0bf 0314 4144 9c90 d3bf
00000130: 77de 036d 0fbe c2bf 6a3d d587 84aa b83f
00000140: e802 1017 11c3 bfbf 8f64 35ac 2781 a5bf
00000150: 20a6 54e2 4b5e 6d3f 5146 ae29 e8dd b0bf
00000160: 632b c926 e29a d5bf 6ef2 a6da fa2f 9abf
00000170: f57e f688 85dd a43f 54a6 c5e2 0852 bf3f
00000180: a2ed af16 2197 e2bf b711 e84d 9e53 cfbf
00000190: 2f81 7e87 193e cebf 93ee 59b8 4990 b83f
000001a0: a1ba 7509 6546 80bf 3de2 992d 931c c33f
000001b0: 8bdd e5f3 57a7 b7bf db4c 650e 0578 debf
000001c0: 5f7f 5ede 233b dbbf 02b6 ca7a 9457 b43f
000001d0: f90a 3ddf 12c6 d8bf 53bf 9c8d 16e2 d0bf
000001e0: 0cec 0acb 1003 ab3f 925f 047d f555 973f
000001f0: 49ba 49c3 80b1 ca3f e032 4c50 268a cebf

weight_1 f8 [64, 32]
-2.873749389637471 0.5309114027708697 -4.807498318855385 0.05668159631517514 -3.138292015302477 -0.06508567248860393 -1.5164295207705474 1.0293480422961654
-0.9119668201490486 -2.2729229948375314 -0.22955701494000866 -0.030132153827428596 1.4312040395110586 1.1613255990524687 0.6594491260553392 0.5360830878645086
-0.999197652318248 -3.4677147528002137 0.8668506713245825 -1.9769631161127177 -0.33268382829929166 -1.1705404361334366 -4.183747778522087 1.0707618165952293
-3.547903790092044 1.4106954640125213 -0.3157731173448963 0.33746582268962144 -1.1407754441141769 -3.4592015918972474 0.5433797198071153 0.10685887664470974
0.5507697508895545 -1.5170547189194796 0.04612026099447176 -1.9022581220763777 0.21498318750051168 -0.030823063658838263 0.7262966582816613 -2.0063761195061884
0.157769904156567 0.326691474671499 0.38444140659141957 -2.888086725036538 -2.4136407731308185 0.4748723878324937 0.24724723331416695 -0.11050652285803528
0.15485258579754024 -1.512075946175896 -3.782570708022871 -2.9491672120637142 0.5513463122549169 -0.7409852563932102 -0.19991649007973045 -3.274562298774674
0.23288481532088962 -1.8898475743536964 -0.18940903691908997 -3.3940646040527604 -1.0309540380818043 -1.8225214429127956 -1.2782960779132904 -0.6743838255393372
-1.6129127497413078 0.36587452137671805 -1.8149957091935267 0.7964399725738386 -1.4169934278224512 -1.0388028846984505 0.7549955344772299 -1.2558402487360705
0.053564648586340045 -0.18299217087361802 -1.7148410825332878 0.3436364395647835 0.34650374536992573 0.11764622892672993 -3.8547654251686034 -1.8099405170274547
-0.9840059408680909 -0.5125121104558042 0.6759948841921739 0.5920598896217214 -0.5404728448103739 0.33457673309996183 -0.37634650424274485 -1.6374994260271587
0.2889648936114054 -1.6946800419741817 -0.5357058152173795 -0.863870565471551 -3.8142732998078603 -0.631248839983591 -2.5116599397436863 -0.13533788901545468
-2.743149874599761 -1.5615077359186509 -4.083625324198893 -0.8170586086227914 -0.7387186481542264 -2.8531359673474226 -1.7663731227515145 -2.5213588939099876
-0.059750223814418836 -1.0889652718761889 0.766271806084644 -3.095877881406819 -2.033432939830832 -3.0320472599389743 0.41130540601301296 -1.2511038597971267
1.1920322168568658 -3.325699655860078 0.2812847771148879 -0.06584167966747516 -2.6214402915131747 2.5901939136946424 -1.5698896368260213 0.4794002497375036
-1.4031761630498296 -1.3949547098041868 -1.57412121982042 -0.9946989945627174 0.6114906868777585 -2.868402563123953 0.6835379511972282 -0.9533344177736613
-1.61053360365019 -1.7361924507051902 -3.4276812896351987 -0.05885246746570973 -1.3112284807551484 -4.273546011141825 1.0008084093474494 -1.5617439269967375
1.351960650889492 -1.8453348322876262 4.0737124513818435 -3.6452230955204135 -2.786984481366034 -3.7590527846611623 0.16051397059561556 -1.7077713770283192
0.5228223489786289 -3.0186068253759335 -0.7254426520983788 -0.7385917644378281 -2.2452402163768794 1.6351688336964993 0.5342753502246192 -0.38362505048816126
-0.3521912233631238 -2.385509625243747 -1.8609134438406023 -1.0340250086211176 0.6694888607427653 -1.5481508767738323 1.2991212118270399 -1.753539510516246
-2.717130296050702 2.899231481091875 -2.347306271769316 -0.8890287652757063 -2.234196268423105 2.279565593283854 -1.5458489597280243 -2.087359376083065
0.3825294501152157 -2.281103479559426 -2.0186466389320223 -1.759391334538046 2.448242526778566 3.1423147874980932 1.6655717509687136 -1.2132052131776925
-1.3346464789837063 -2.8363711616521403 -1.1788368305666532 -0.33987456305015196 1.1236229805347508 -0.8549108457563498 -0.8547337619418853 -1.9639868309440072
-2.5986145958904077 3.019266434758292 -1.3787893216816571 -1.5610293896793328 -0.6038352959019906 -0.3606251440959103 -2.166476170405129 2.1687449973647794
-2.221534822707158 0.19862532841518452 -4.064156575068206 -2.2930828161127548 -1.3008655865267986 -0.37384009150249925 -2.3142912898834664 0.2580274632678206
-0.986889252085019 -2.0742119055859356 0.16711177211443287 -2.957049607790652 0.4526328396475946 -0.0797905199833095 1.8644145363089126 -0.0212264460215968
0.1868874147761614 -3.3790224257352106 -0.7300822541437401 -3.130395525061503 -0.3234653212185292 0.176955011317167 -3.7010381563205486 0.6801668532243506
-3.9936478653995215 0.8654049026619989 -0.22950794222005566 -0.8955972075140092 0.18170300907907952 -3.350003105369988 0.6939035559939454 0.42935081763135513
3.147188873147882 -1.9248210551372238 2.3298205218468295 -0.7587988157355195 0.7417906708051322 0.47021683196488107 -0.6454332548822135 -1.0324948478370564
-1.1528503616742465 0.32440091732467524 -0.5240705169843016 -1.8703075177386421 -0.38923990171438905 2.7285182293461783 2.211038390697901 -0.023016104243050978
2.5529828610486005 -1.1886184548139787 -1.4667782111964844 -0.833865650876818 3.147764981676808 -1.123164547428785 -0.08219470642079668 -0.9789535456483176
-2.294706850949857 -1.9194295830206702 -1.7906817251122833 -0.9470681416142174 -0.8401816428721048 -0.0626331813366467 -0.0605507104092642 -2.2432989010748687
00000000: a824 eb51 70fd 06c0 082e ffe8 39fd e03f
00000010: 453c dcd6 e03a 13c0 74e1 eac4 5e05 ad3f
00000020: 332d 18d8 381b 09c0 2dd7 c662 74a9 b0bf
00000030: 1160 e699 4b43 f8bf 88d1 1da7 3578 f03f
00000040: 0f79 720a d52e edbf 853a 4940 f22e 02c0
00000050: 530b decf 1f62 cdbf 79c5 fc9c f6da 9ebf
00000060: 40a6 f934 36e6 f63f e401 bf26 ca94 f23f
00000070: 2212 b90d 351a e53f e422 4ab8 9727 e13f
00000080: a04c de5a 6df9 efbf b311 793b e1bd 0bc0
00000090: ec59 7b9e 3dbd eb3f 52a3 9113 a4a1 ffbf
000000a0: c006 9d1c b14a d5bf 436b bd9b 88ba f2bf
000000b0: 2ddc ad60 28bc 10c0 1e50 8124 d721 f13f
000000c0: f265 de61 1b62 0cc0 08ca 2868 3592 f63f
000000d0: 7cf2 fc72 a035 d4bf e40e fe3f 0a99 d53f
000000e0: e3cd 88c0 9d40 f2bf 2fc2 5be2 71ac 0bc0
000000f0: d232 bcdd 5d63 e13f 89f0 7974 1a5b bb3f
00000100: 654b 76e2 e79f e13f b506 402b db45 f8bf
00000110: a1f8 4e29 139d a73f 0ae5 6d36 a66f febf
00000120: 8f94 c0af 9184 cb3f 454a 82c9 1490 9fbf
00000130: 3d71 507d d23d e73f 2609 46ec 0e0d 00c0
00000140: 10a0 52e1 cd31 c43f 8326 e65b 83e8 d43f
00000150: ea74 2221 b09a d83f 7259 8036 cd1a 07c0
00000160: b71c c7e4 224f 03c0 31e5 e027 4f64 de3f
00000170: a32f 8e1e cca5 cf3f 0e81 abcd 274a bcbf
00000180: c0c9 d9a3 35d2 c33f b74c 1e8c 7631 f8bf
00000190: 5a20 6e6e b442 0ec0 42fe b1fa e497 07c0
000001a0: 5af6 7c05 a1a4 e13f 4add 60b6 26b6 e7bf
000001b0: 1c6a 6911 dd96 c9bf 4c9d efb7 4d32 0ac0
000001c0: 6ae4 c46c 2bcf cd3f 8762 64cf d03c febf
000001d0: 5132 9129 8e3e c8bf a557 d757 0b27 0bc0
000001e0: 0ad9 53a9 c97e f0bf 651b 993e 0c29 fdbf
000001f0: e5e1 9396 e673 f4bf 0192 7463 8d94 e5bf
00000200: ac0b 7799 7dce f9bf 882b f0f7 7c6a d73f
00000210: 48dd d5f0 380a fdbf 17d1 6dae 6f7c e93f
00000220: 514f f24c 01ac f6bf 2a53 0cc6 ef9e f0bf
00000230: 7295 2665 ec28 e83f 9e26 d5f1 eb17 f4bf
00000240: 13d5 cc5b d36c ab3f 02c2 a996 496c c7bf
00000250: 5515 f533 fd6f fbbf 8c41 69b1 23fe d53f
00000260: bb8a 930b 1e2d d63f d0ef bc31 101e be3f
00000270: 35ce 5641 8fd6 0ec0 7869 0530 84f5 fcbf
00000280: 2124 e306 fa7c efbf 95c5 26cc 7f66 e0bf
00000290: 58cc fb05 c0a1 e53f 735b e694 27f2 e23f
000002a0: c0c5 1ab5 8d4b e1bf c8ad aa87 b469 d53f
000002b0: daef eba5 0f16 d8bf 3116 2099 3233 fabf
000002c0: e232 f09b 667e d23f 8568 d7d1 681d fbbf
000002d0: 5c57 9485 8024 e1bf c2ac 55e2 d3a4 ebbf
000002e0: 3472 45b8 a183 0ec0 3dc2 6bc4 3033 e4bf
000002f0: cefa 9e2a e117 04c0 3a93 9d7f c052 c1bf
00000300: b575 bb8f f8f1 05c0 b78b 2389 effb f8bf
00000310: e234 82e0 a155 10c0 a767 5e18 5825 eabf
00000320: 4591 584a 95a3 e7bf 5663 36f3 38d3 06c0
00000330: b404 ac76 1043 fcbf b993 3636 be2b 04c0
00000340: 0d58 6cd2 9497 aebf f701 53d9 666c f1bf
00000350: 6f5f 5f73 4c85 e83f 9b6a 689f 5bc4 08c0
00000360: e275 397d 7844 00c0 19ea 6afe a141 08c0
00000370: ef9b dfe8 d352 da3f 01a6 1b7b 8504 f4bf
00000380: 9fdb b25f 9012 f33f 61e6 d16b 089b 0ac0
00000390: c98c a4dd 9100 d23f 0bb1 e214 00db b0bf
000003a0: f1b9 03b0 b5f8 04c0 13ef 2c96 b7b8 0440
000003b0: 09f4 8798 441e f9bf a046 9462 7eae de3f
000003c0: 6736 2dd9 6873 f6bf 9629 a007 bc51 f6bf
000003d0: e217 71bb 992f f9bf ba59 60fc 92d4 efbf
000003e0: 845a beea 5491 e33f 250a 030b 7df2 06c0
000003f0: 2af1 3efb 8adf e53f 84a6 4f2e b781 eebf
00000400: e295 4ce2 bec4 f9bf 4374 35bc 71c7 fbbf
00000410: 17c1 002b e46b 0bc0 93b6 1b1e e921 aebf
00000420: 84d5 26b7 cafa f4bf b838 0f72 1c18 11c0
00000430: 6058 bbad 4f03 f03f 72d7 3233 e7fc f8bf
00000440: b1c9 d07d a1a1 f53f 1e85 2dd1 7d86 fdbf
00000450: d7f8 df46 7b4b 1040 8e12 efb9 6a29 0dc0
00000460: c169 0f85 be4b 06c0 9a75 3044 8a12 0ec0
00000470: e82f 21c7 b88b c43f b11a 5614 0853 fbbf
00000480: 4165 4fef f5ba e03f b1c6 d355 1b26 08c0
00000490: 765a 3c82 d336 e7bf 805f 2b32 8ba2 e7bf
000004a0: 7305 a880 40f6 01c0 8ba3 82cb a629 fa3f
000004b0: 09c2 889e c818 e13f db78 7115 508d d8bf
000004c0: 2e1a 920e 4d8a d6bf 8bb8 0512 8615 03c0
000004d0: c3b6 df2c 4dc6 fdbf 8f61 b4ce 5d8b f0bf
000004e0: afa5 3de7 736c e53f 0247 90da 39c5 f8bf
000004f0: 7464 e552 33c9 f43f f793 1e72 7f0e fcbf
00000500: 8a11 04cf aebc 05c0 0296 5646 a031 0740
00000510: 288f b782 48c7 02c0 56ff 0174 ec72 ecbf
00000520: a0c7 0d4b a2df 01c0 8ced c1e2 8c3c 0240
00000530: 5766 691e ccbb f8bf b134 fa78 e9b2 00c0
00000540: 191c 80cd 5c7b d83f 0eff 5b2e b33f 02c0
00000550: 9825 8335 3026 00c0 a84e 2b87 7726 fcbf
00000560: d485 892d 0096 0340 fe54 70ef 7523 0940
00000570: 53d5 7890 2ea6 fa3f 57f5 9ede 4969 f3bf
00000580: 1c4e 2f44 b65a f5bf 64e8 145d e3b0 06c0
00000590: 44aa 2902 84dc f2bf 7abb 423d 81c0 d5bf
000005a0: 8ee4 2617 5cfa f13f 799d 70fd 6d5b ebbf
000005b0: 727a 4a9e fa59 ebbf f8dd 8a74 7d6c ffbf
000005c0: 7a0f 0273 f6c9 04c0 3d94 1929 7527 0840
000005d0: da25 4b64 850f f6bf fc47 0cf4 f9f9 f8bf
000005e0: 9c39 0266 9e52 e3bf 5476 007c 7b14 d7bf
000005f0: 77a0 5b75 f154 01c0 d85c 28fa 9659 0140
00000600: 859e 930c b4c5 01c0 3ba9 d904 8e6c c93f
00000610: 1bf7 de42 b241 10c0 79ca b1cd 3b58 02c0
00000620: c8fd e96e 58d0 f4bf dff5 bbfd feec d7bf
00000630: b6bc db26 ab83 02c0 dd20 0d9f 8583 d03f
00000640: 6e54 cfc4 9894 efbf 35b9 5b69 fc97 00c0
00000650: 3909 0126 eb63 c53f 42e2 f09f 09a8 07c0
00000660: 3273 d8ba eff7 dc3f 2cf1 dbc9 266d b4bf
00000670: fb23 3a56 a4d4 fd3f d36b e4ad 62bc 95bf
00000680: 5eb1 3f43 edeb c73f d6dd d7e8 3c08 0bc0
00000690: 8ffe 9d75 d55c e7bf a378 1dcf 0c0b 09c0
000006a0: 9884 01e4 a7b3 d4bf ba3a 3c39 76a6 c63f
000006b0: bd28 95e4 b99b 0dc0 887f cd46 edc3 e53f
000006c0: 9b0c eda6 fdf2 0fc0 3567 579f 65b1 eb3f
000006d0: 60f2 0029 8460 cdbf c92b 9579 bba8 ecbf
000006e0: 032b ca50 0b42 c73f 1580 986d cecc 0ac0
000006f0: a54e f23a 7534 e63f b333 0fda 7b7a db3f
00000700: be0a 245c 712d 0940 2677 a729 11cc febf
00000710: e60d 17f1 78a3 0240 977b 3a74 1448 e8bf
00000720: 0fc0 f2c9 bfbc e73f 5658 d456 0818 de3f
00000730: be09 2fa4 63a7 e4bf 7cfa 4b51 1985 f0bf
00000740: 9e29 8938 1372 f2bf 9aeb ac10 fcc2 d43f
00000750: 38da 6788 2fc5 e0bf 1268 6293 c7ec fdbf
00000760: ec56 0a7a 4ee9 d8bf 3fa7 8c5d 01d4 0540
00000770: d0fb 51e5 34b0 0140 385b 059c 8891 97bf
00000780: 369e 3b47 826c 0440 c991 edc8 9404 f3bf
00000790: 4230 f96d ec77 f7bf 0bc2 7804 07af eabf
000007a0: 105e 1e68 9f2e 0940 7cbb 7363 7bf8 f1bf
000007b0: f44c fb57 b60a b5bf ca9b db62 9653 efbf
000007c0: eee4 f543 8f5b 02c0 75c7 60cb fbb5 febf
000007d0: 146f 6ee1 a1a6 fcbf 4321 ead8 614e eebf
000007e0: 4dba da9c c4e2 eabf ed3e 7c69 ba08 b0bf
000007f0: a22a eab1 8000 afbf 8727 bab1 46f2 01c0

bias_1 f8 [1, 32]
-0.4471748796390487 -0.7758253874163573 0.07607500401379032 -0.891124175179285 0.07585259866880742 0.13805298483067774 -1.423064397170495 -0.5656628797778647
-1.3645623607754809 -1.5385649194107034 -1.1843088544359823 0.034244402396922856 -0.8219712487980978 -0.5146978369208945 -0.9964688587091858 -1.1453598044803068
-1.3123523603379537 -0.8464690166531459 -1.2731147497682351 -0.9246075917332146 -0.6626790112065051 -1.0445668523139746 -0.8868875414981038 -1.0747720026201255
-0.605458272172693 -0.7431884178576268 -1.2586073378378069 -0.9664067715006027 -1.4863903627908883 -0.7973553742612385 -1.5440661619151475 -1.253215306054961
00000000: e81d e962 839e dcbf 5b83 4bc3 8fd3 e8bf
00000010: b144 48c6 a679 b33f 793d a2d8 1684 ecbf
00000020: 4e61 996e 136b b33f c841 7b5f b8ab c13f
00000030: 0d30 5f2c dfc4 f6bf a2a0 260a e919 e2bf
00000040: c421 8e57 3fd5 f5bf 0145 ba3f f69d f8bf
00000050: fda6 62d7 edf2 f2bf 6350 bb78 7b88 a13f
00000060: 2de2 faa5 964d eabf bab5 1c99 6778 e0bf
00000070: c16d f4a8 12e3 efbf 7e55 66cd 6453 f2bf
00000080: bfad 4730 65ff f4bf 0448 f330 4616 ebbf
00000090: eaf4 6492 ad5e f4bf 4a14 04a9 6296 edbf
000000a0: f214 1c9d aa34 e5bf 74c9 52bb 8bb6 f0bf
000000b0: b7da 3efb 6161 ecbf cf8e 9e20 4432 f1bf
000000c0: 5961 c206 ea5f e3bf 19dd ae13 33c8 e7bf
000000d0: d74d a872 4123 f4bf 0d4c c7e4 cdec eebf
000000e0: 4d6c d442 41c8 f7bf 50bd f76a ef83 e9bf
000000f0: a292 44b8 7eb4 f8bf 9ca4 257e 2b0d f4bf

weight_2 f8 [32, 10]
2.395929274264486 -2.2715734298015313 -1.3962607545651298 -0.5195893909314612 0.26975831953648316 -0.3391090370500475 -1.700596385879469 -0.28739086689280796
-1.9731761669643395 1.2314542251834075 -3.2129067674462823 -2.9398462922394404 -0.5135463110408353 -1.0115254138200018 -1.1358991442515436 0.5158435317688391
2.195493664850489 -1.6150030909963515 0.5469127912670652 -1.5415698527298 1.1176319102249663 -5.350918471957664 -2.1199145202489076 -1.6940789667564633
0.3451140914989011 -2.6179019975281443 -2.3991393332948485 -1.0607426656660177 1.397704483721507 2.0179449380943955 -4.242488113448406 1.0120892747234562
-6.482332737507611 0.9997932828050958 0.46790935707352954 -1.3220485455164657 -5.078259143304195 1.3695883841246876 -3.774307270703111 0.8891364343589956
1.1931076025449927 -3.745098315464363 1.4358746000270153 -0.24366358435606722 -2.303461122676232 -0.3300871588406141 -1.6880072362852654 -2.124355622950624
2.1657146766147037 -3.371225606985665 0.5351372592454939 -2.835060087509726 0.08822181666038477 -0.7608788445719991 -1.3614999658277969 -1.2959756478165119
1.521964777701159 -4.410772965052801 1.8312858345163618 -2.8511597887528426 -0.287232201843472 -2.30204381257349 -1.1587671003630897 1.6725877288389874
-3.172813575005782 1.3304582620484346 -1.217166670509505 -1.6532403610467343 -4.023783440005773 -3.2010059112222975 -3.7213922934527632 0.9154058252500061
0.1484114407495702 -2.28171517260963 2.0547315287948753 -0.46822801506108386 -0.3292523073842014 -3.6313508470605202 0.797795649476568 -0.12386183172679262
-1.325842859101692 -1.3776282464615701 0.20076596001575064 2.8775021043190483 -2.343086696982108 -0.7615539681542001 -0.6542910211691082 -2.0965817145658296
-0.36710412736587267 -1.7718175485861063 0.15231402776309946 -1.4795432737124823 -1.9615177869795832 -3.153911200636376 -2.671889364218004 2.894790086882754
-1.4569640942414475 0.9839293383112753 -0.760015518000925 -2.150373216069149 -1.948337668865656 0.9869845782858755 1.2096685729280692 1.062291033529586
-3.4547487730942885 -0.27972172036538595 -2.203545530445985 -2.479732309385305 -1.5234356495636572 -2.800204693367849 -4.08416645031068 2.608506259190738
-1.6418049452872898 -1.7541680541769091 -1.718775880070433 -1.5858974287459038 -2.2719170414564864 -1.2980452574466717 2.5434548014278087 -2.777725455027308
-1.8225564678147668 2.827388817953908 -0.8378700013320121 -1.9362759172119113 -0.40526758185236966 -0.3786240812183701 1.7383123388077117 -2.6465766872422973
-2.0021683339649248 -0.9015941845692285 1.677272278816002 1.277011166007169 -1.8718640092192405 -0.21505048972347537 -0.6190609658645571 -0.7331693944853086
1.6579729537390515 -1.0155296205553945 -1.4106049374648468 -0.8834822463375813 1.347297811327085 -2.7281702084017505 1.490437827564744 -2.9072437067125985
1.2389203556124244 -0.7395488491442143 1.3009530699649738 -3.1570994905057956 -2.86206543837646 -1.3799721730354684 0.056422242552523705 -2.1865272720551876
-1.5273933584181874 -0.7600815861429691 3.6931205480484377 -0.4299087734730688 0.01487616669249225 -1.071988117741382 -0.3395680460670183 -1.7695122729365922
1.939339797123098 -2.4404039072629455 1.8065660055553696 -2.1159071478858746 -2.278034770032415 -0.27062761055577145 -0.8674113069222608 1.1507423936948038
-2.131562187201055 -1.7837481442927658 -2.72265811025534 0.26624832117465175 -2.7857561898135192 -1.7636111697992896 -0.7261460663260122 1.1127027818404942
-0.3030608455996324 -1.9552242293917181 0.8049203491832513 0.898452970461834 -1.6550669368644813 2.683321807228051 -0.2947280654977677 -2.319446843252435
-2.9499041471475893 -0.6644343928532942 -1.0876369475742542 2.7327935464357354 -1.1783551099561151 -2.372796769823426 -1.8930054195469754 -3.5156208398905697
-1.701609018241117 -0.5691565250482272 -4.6709993437282735 -1.6924184700066567 -3.456567375220985 3.1368795778528975 -1.5480218792833986 1.6295558171391682
2.1266435139734217 -3.7021656136321313 -3.3473940279573533 -1.220472050647457 -1.9400541661895123 0.44570230385442 0.9410250344509408 1.0970278282022654
-2.099083985086979 0.16576790695888008 -4.98149936525285 -6.068260432716076 1.8685472594947787 1.8804481511103948 -4.347042520930022 -1.9277013102975031
-3.9215681610878557 2.0490932003013356 -2.02870015549323 -7.11164879038321 -1.7276040442433735 -3.1813821995530147 -2.4809840223114006 2.5624647543740373
-0.00860784519654168 -0.8028953383632373 -2.4418878122679337 -1.8298940271663777 0.6516568117840478 1.1829195672227644 -1.1139309678053604 -3.236439912344238
0.2783820752823958 -2.0161434425643834 1.8224508877437782 -1.2525725295015728 0.07944533688471309 1.1485303980728956 -1.9484238503952491 -2.1521909930838587
-1.5955457086428027 -3.852363829524405 -2.1606536571458386 1.131163816570516 -3.521145833428692 1.3951349890270104 -0.9818522308878486 -1.7118328665299745
0.7150296443428136 -3.079533010287397 -3.128331489469911 -0.4324665691446277 0.6226351116166771 -1.1124297635252058 0.8911805598636148 -0.8134936913466695
00000000: b9f5 a3f7 dc2a 0340 58ae bbb0 2e2c 02c0
00000010: 6eba 5884 1557 f6bf 1fc6 2cee 79a0 e0bf
00000020: 53eb 0e66 b843 d13f c71c fa63 f6b3 d5bf
00000030: 15c5 508e a435 fbbf 1751 9ea9 9c64 d2bf
00000040: 4fbc 252c 2192 ffbf a9f0 7a58 09b4 f33f
00000050: 1b3b 9a76 08b4 09c0 677b 0322 ce84 07c0
00000060: cddb 5cac f86e e0bf 5be0 b645 352f f0bf
00000070: 15d6 c194 a42c f2bf 119c 594b ca81 e03f
00000080: 41dd 88fb 5e90 0140 b84a 2c7b 0dd7 f9bf
00000090: 2132 0841 4f80 e13f 9e95 5f26 45aa f8bf
000000a0: a61d 76ff d1e1 f13f 5a7b 022c 5767 15c0
000000b0: d646 76be 95f5 00c0 bbf7 f08b f21a fbbf
000000c0: 1919 186a 5916 d63f b221 3c9a 76f1 04c0
000000d0: 9263 78f6 6f31 03c0 581e 284d cdf8 f0bf
000000e0: 2ae7 7060 ff5c f63f 11f4 d150 c024 0040
000000f0: f4b7 d3cd 4ef8 10c0 191d f985 8431 f03f
00000100: 978a 15a2 e8ed 19c0 5511 8d7b 4efe ef3f
00000110: 70e2 8716 3af2 dd3f 3d7b 2b60 1c27 f5bf
00000120: 016b 342a 2350 14c0 97c0 6c82 d5e9 f53f
00000130: 8ecc a502 c831 0ec0 4020 6840 ce73 ec3f
00000140: a7a2 58ff f716 f33f 05cb 091b f6f5 0dc0
00000150: aa5e 04a5 57f9 f63f 7e89 044b 5e30 cfbf
00000160: cf03 6c06 7d6d 02c0 1e33 03e4 2520 d5bf
00000170: de1a 34e0 1302 fbbf 502c 2d29 aefe 00c0
00000180: 0d38 6437 6253 0140 8a87 8b21 45f8 0ac0
00000190: 3693 6a2c d81f e13f b464 b0fb 33ae 06c0
000001a0: 919d 5979 b495 b63f c9f5 3497 1e59 e8bf
000001b0: a1c4 2b30 b4c8 f5bf a08c fcf5 50bc f4bf
000001c0: 073f 1ebd f759 f83f 51ee 0bab a1a4 11c0
000001d0: 7303 0e60 f24c fd3f eae8 02dd 2ccf 06c0
000001e0: 6ea6 512c 0362 d2bf c7b2 47f2 956a 02c0
000001f0: f1d7 fb5e 4f8a f2bf b0de b059 ebc2 fa3f
00000200: 2ea3 6715 ec61 09c0 700e 439a 8e49 f53f
00000210: 9ae9 39c2 8379 f3bf a1f7 312a ac73 fabf
00000220: 710b a4af 5a18 10c0 0305 b8fc a89b 09c0
00000230: 7aba 9f52 69c5 0dc0 8a88 4028 014b ed3f
00000240: 1692 2f66 25ff c23f b029 69e2 f340 02c0
00000250: 61df 7115 1770 0040 d188 f0a2 72f7 ddbf
00000260: 7640 1645 7812 d5bf 276a 43ac 010d 0dc0
00000270: f592 ecbd 8a87 e93f 253e 7db4 68b5 bfbf
00000280: 65a1 7700 a736 f5bf 8592 89ea c30a f6bf
00000290: f476 35f0 b2b2 c93f 9ec5 c1d2 1f05 0740
000002a0: b6d8 f93c a4be 02c0 e48f 6b6d a65e e8bf
000002b0: c29b 3fb9 f3ef e4bf 619d 4ba2 ccc5 00c0
000002c0: add5 504f a27e d7bf de7f 9a5b 5d59 fcbf
000002d0: 5176 fbab 067f c33f 4bca 5991 35ac f7bf
000002e0: fb97 9979 6062 ffbf 48c5 a9cb 353b 09c0
000002f0: c1c5 ee87 0760 05c0 4892 7fb4 8728 0740
00000300: 9769 0395 b94f f7bf 2ce6 3361 597c ef3f
00000310: f186 4810 0c52 e8bf d1b0 69df f633 01c0
00000320: 657c 951e 642c ffbf 2e9d acae 6095 ef3f
00000330: cc99 fb6e cd5a f33f 6f7f fde1 24ff f03f
00000340: 52b0 2253 53a3 0bc0 e9cf 3cee f5e6 d1bf
00000350: 8e19 a47a dca0 01c0 d027 9de4 7dd6 03c0
00000360: 98fb 460f fe5f f8bf 07f7 e0b7 d166 06c0
00000370: e504 deba 2f56 10c0 8b15 9587 38de 0440
00000380: 3cb8 2643 d544 fabf 640b 8685 1211 fcbf
00000390: e6e5 2023 1b80 fbbf e862 74fb d55f f9bf
000003a0: d83e 82d7 e22c 02c0 b661 971a cbc4 f4bf
000003b0: 95e4 b7d4 fe58 0440 3fdf 941f c838 06c0
000003c0: 0f0b 86f8 3029 fdbf 4c81 5107 7e9e 0640
000003d0: ada7 c0bf d4cf eabf 2d52 c774 fcfa febf
000003e0: e8d5 8b70 e7ef d9bf 90e6 937f 603b d8bf
000003f0: 2a99 5699 20d0 fb3f 567e f065 302c 05c0
00000400: b1ba dbd4 7004 00c0 cfa2 1f0c dcd9 ecbf
00000410: b108 0075 1bd6 fa3f b90a aa42 a36e f43f
00000420: 4e7f e2ac 27f3 fdbf 33f1 2c42 c686 cbbf
00000430: 4dca 53f1 58cf e3bf c0c2 77a9 1f76 e7bf
00000440: 5163 dfa5 0e87 fa3f b079 c6fc 9b3f f0bf
00000450: 62cd 9f7b d691 f6bf 98ba 538f 7c45 ecbf
00000460: 91f4 5926 888e f53f 620e f8e6 4ad3 05c0
00000470: 31ca e155 d5d8 f73f cfa8 0efd 0842 07c0
00000480: cd43 9b26 9ed2 f33f 85cd 1b59 62aa e7bf
00000490: f715 922a b4d0 f43f 7686 af60 bd41 09c0
000004a0: dcb5 8690 82e5 06c0 fd3c 89b3 5d14 f6bf
000004b0: 3065 0f4d 60e3 ac3f 2150 aa02 027e 01c0
000004c0: 1f8a a804 3470 f8bf d6d3 589e 9652 e8bf
000004d0: d96d 30c9 828b 0d40 ae23 9516 a083 dbbf
000004e0: be08 794b 6577 8e3f b765 3603 dd26 f1bf
000004f0: 3cf7 279d 7bbb d5bf f421 e219 ec4f fcbf
00000500: 8599 c72a 8907 ff3f bccc d57b f285 03c0
00000510: 88cf 7ec1 b1e7 fc3f f956 0cba 60ed 00c0
00000520: 5585 234b 6a39 02c0 90d3 2e78 f651 d1bf
00000530: e12c 6d5b d5c1 ebbf 97a3 30db 7069 f23f
00000540: 9f59 db79 700d 01c0 229c 807e 3b8a fcbf
00000550: 04e3 adf9 00c8 05c0 97d7 0366 360a d13f
00000560: 7107 8f8a 3a49 06c0 3d5f 9258 c037 fcbf
00000570: 18a8 dfac 963c e7bf 34c5 a26e a1cd f13f
00000580: 101b 2351 5965 d3bf 0359 9933 9948 ffbf
00000590: 1810 f451 e8c1 e93f 8e15 a471 20c0 ec3f
000005a0: aa61 e877 277b fabf 3881 756c 7177 0540
000005b0: 37ae a11a d3dc d2bf 1ea3 8425 3a8e 02c0
000005c0: 5aab 7258 6799 07c0 7b8f 74ea 0b43 e5bf
000005d0: 030b fcff f566 f1bf 6d4a e5dc c2dc 0540
000005e0: 4060 45e3 8ada f2bf 8591 73df 7cfb 02c0
000005f0: 28ae 010d c049 febf 78ba a3d1 fd1f 0cc0
00000600: cac9 be60 ca39 fbbf 7563 acbe 8736 e2bf
00000610: 35cd b373 1aaf 12c0 fc32 bd63 2514 fbbf
00000620: 21f5 c7cb 0ca7 0bc0 a6f2 f251 5418 0940
00000630: 093c 1097 b2c4 f8bf 96e8 d91e a912 fa3f
00000640: 8421 b6ac 5d03 0140 fd67 5701 099e 0dc0
00000650: 6838 2785 76c7 0ac0 f867 73b3 0d87 f3bf
00000660: 420a c43c 760a ffbf 269f b3f4 6286 dc3f
00000670: dae3 7588 e01c ee3f e3e3 4e0d 6d8d f13f
00000680: 230c 5c8b ecca 00c0 7bb0 8efd e137 c53f
00000690: 1639 6b2b 0eed 13c0 6381 1810 e645 18c0
000006a0: cff7 a8cf 91e5 fd3f 287c edcc 5016 fe3f
000006b0: 05dd 561d 5f63 11c0 2cf2 4254 ddd7 febf
000006c0: f241 c720 5f5f 0fc0 7000 cef9 8a64 0040
000006d0: 49de a925 c73a 00c0 dc55 7d0f 5472 1cc0
000006e0: eb66 6723 44a4 fbbf 0341 b982 7873 09c0
000006f0: d9ce ad26 0ed9 03c0 6883 6985 ed7f 0440
00000700: 038c dd6c fda0 81bf d030 8c90 51b1 e9bf
00000710: bb88 317a fc88 03c0 8b34 9df5 3e47 fdbf
00000720: e67f da62 5fda e43f ee52 7011 3ded f23f
00000730: 459c 4b47 a9d2 f1bf 9fe6 d79b 3ae4 09c0
00000740: 1c5a 480d 03d1 d13f fdde 2ed0 0f21 00c0
00000750: a5cf 1643 c228 fd3f 6b3c 217e 890a f4bf
00000760: d652 bd93 8756 b43f 8cf5 2269 6160 f23f
00000770: 971a c37c be2c ffbf d653 50e9 af37 01c0
00000780: c04d deef 5a87 f9bf 1cce a020 a4d1 0ec0
00000790: b564 dbc8 0449 01c0 2c6c e93a 3f19 f23f
000007a0: e42e b881 4e2b 0cc0 7105 f610 7952 f63f
000007b0: da5f a55e 556b efbf 416d 1fdc aa63 fbbf
000007c0: c3ee 43d9 85e1 e63f 2b18 f133 e2a2 08c0
000007d0: d88f f2a8 d206 09c0 59ba c542 88ad dbbf
000007e0: 9c84 3778 a0ec e33f 1e01 d726 83cc f1bf
000007f0: 0b3f ee17 8d84 ec3f acc2 faeb 2308 eabf

bias_2 f8 [1, 10]
-0.6733783804785592 -0.03018132006634138 -0.20790111079277923 0.00863886905232202 -0.3384209563241201 -0.06722969008717752 -0.40493147200054763 -0.46816776745479144
0.9558522228188047 0.6264983384720048
00000000: b7a4 3fd1 508c e5bf 2e49 8a1a dae7 9ebf
00000010: 861a d4eb 809c cabf fbe5 6e60 41b1 813f
00000020: 695c ec5e b0a8 d5bf eaa0 3e08 f735 b1bf
00000030: 7343 57b1 65ea d9bf 4f9e 90f0 75f6 ddbf
00000040: fa19 9a66 5796 ee3f 078a 573e 460c e43f

loss_history f4 [60]
0.6367192 0.30673063 0.2487131 0.21908405 0.20082973 0.18924364 0.17680217 0.17230661
0.16500407 0.16182089 0.1621692 0.15474737 0.15679802 0.14726461 0.15023124 0.15676741
0.15037557 0.15161398 0.14657785 0.14426495 0.14934312 0.14809872 0.15182921 0.15125729
0.14523664 0.14636412 0.1394716 0.14958648 0.14660677 0.14697716 0.15264823 0.15043992
0.1499175 0.16153766 0.15496822 0.16588306 0.15783916 0.16066217 0.15482725 0.16166386
0.15951027 0.16913573 0.163837 0.162611 0.1702471 0.16872391 0.1622853 0.17497803
0.17850015 0.17333901 0.17564668 0.16897558 0.17684278 0.17806928 0.17310137 0.18889348
0.18458079 0.17535852 0.18116581 0.18484451
00000000: 0800 233f cc0b 9d3e a6ae 7e3e 9257 603e
00000010: 4fa6 4d3e 16c9 413e a10b 353e 2571 303e
00000020: d4f6 283e 60b4 253e af0f 263e 1876 1e3e
00000030: a98f 203e 89cc 163e 38d6 193e a387 203e
00000040: 0efc 193e b240 1b3e 8118 163e 31ba 133e
00000050: 67ed 183e 31a7 173e 1e79 1b3e 31e3 1a3e
00000060: eab8 143e 7ae0 153e a5d1 0e3e 332d 193e
00000070: 1620 163e 2e81 163e d14f 1c3e ec0c 1a3e
00000080: f983 193e 216a 253e fdaf 1e3e 40dd 293e
00000090: 97a0 213e a084 243e 098b 1e3e 368b 253e
000000a0: a956 233e eb31 2d3e e3c4 273e 7f83 263e
000000b0: 4155 2e3e f6c5 2c3e 1e2e 263e 712d 333e
000000c0: bec8 363e c87f 313e b9dc 333e ef07 2d3e
000000d0: 4616 353e cb57 363e 7c41 313e 4b6d 413e
000000e0: bf02 3d3e 2f91 333e 8883 393e e147 3d3e

accuracy_history f4 [60]
80.32333 91.06834 92.84167 93.67167 94.166664 94.545 94.95333 95.055
95.26667 95.46333 95.385 95.555 95.65 95.905 95.82667 95.76667
95.86 95.86 95.95333 96.026665 95.88333 95.96 95.775 95.97667
96.08 95.988335 96.17 95.94666 96.111664 95.971664 95.955 96.03333
95.975 95.871666 95.96 95.75667 95.925 95.878334 95.92167 95.878334
95.79 95.7 95.74167 95.80167 95.72 95.67167 95.746666 95.59333
95.53333 95.62334 95.55666 95.596664 95.505 95.55334 95.62666 95.38167
95.44833 95.65 95.45 95.455
00000000: 8ca5 a042 fd22 b642 efae b942 e557 bb42
00000010: 5555 bc42 0a17 bd42 1be8 bd42 291c be42
00000020: 8988 be42 3aed be42 1fc5 be42 291c bf42
00000030: cd4c bf42 5ccf bf42 41a7 bf42 8988 bf42
00000040: 52b8 bf42 52b8 bf42 1be8 bf42 a70d c042
00000050: 44c4 bf42 85eb bf42 cd8c bf42 0ef4 bf42
00000060: f628 c042 07fa bf42 0a57 c042 b1e4 bf42
00000070: 2c39 c042 7ef1 bf42 f6e8 bf42 1111 c042
00000080: 33f3 bf42 4bbe bf42 85eb bf42 6a83 bf42
00000090: 9ad9 bf42 b5c1 bf42 e5d7 bf42 b5c1 bf42
000000a0: 7b94 bf42 6666 bf42 bc7b bf42 749a bf42
000000b0: a470 bf42 e557 bf42 4b7e bf42 c92f bf42
000000c0: 1111 bf42 263f bf42 031d bf42 7e31 bf42
000000d0: 8f02 bf42 4f1b bf42 da40 bf42 6ac3 be42
000000e0: 8ce5 be42 cd4c bf42 66e6 be42 f6e8 be42

val_loss_history f4 [12]
0.10879517 0.1251187 0.24916871 0.10905062 0.17357665 0.18991357 0.22526257 0.2212109
0.28438246 0.14003056 0.13298894 0.2503902
00000000: 01d0 de3d 1e1f 003e 1526 7f3e ee55 df3d
00000010: 14be 313e b478 423e 3bab 663e 1c85 623e
00000020: 949a 913e 2c64 0f3e 412e 083e 2533 803e

val_accuracy_history f4 [12]
96.7 96.7 96.2 97.6 96.4 96.3 97.4 97.1
96.2 97.4 97.0 96.3
00000000: 6666 c142 6666 c142 6666 c042 3333 c342
00000010: cdcc c042 9a99 c042 cdcc c242 3333 c242
00000020: 6666 c042 cdcc c242 0000 c242 9a99 c042
