checkpoints/model_epoch_0035.npz (npz, 395163 bytes, 10 tensors)

weight_0 f8 [784, 64]
000000 4b 12 e5 21 00 00 00 00 7f 7a 51 0e 00 00 00 00
       2.809556444e-315 1.18684844e-315
000010 53 cc fd 0d 00 00 00 00 4e b4 30 1a 00 00 00 00
       1.159753507e-315 2.170921987e-315
000020 3d 4c 6e 04 00 00 00 00 11 08 d1 1d 00 00 00 80
       3.67275264e-316 -2.47150585e-315
000030 c0 ab ec 0b 00 00 00 80 b5 a1 76 1f 00 00 00 80
       -9.8842694e-316 -2.60801613e-315
000040 e1 a6 b9 03 00 00 00 00 d8 a0 b1 21 00 00 00 80
       3.0878376e-316 -2.79289962e-315
000050 73 4b f2 21 00 00 00 00 1f 60 f0 02 00 00 00 80
       2.813838017e-315 -2.43612303e-316
000060 8d 1a 09 20 00 00 00 00 ed 4b f4 04 00 00 00 00
       2.65544244e-315 4.10662844e-316
000070 0c b9 1a 21 00 00 00 80 3d c3 92 08 00 00 00 80
       -2.74403781e-315 -7.1064409e-316
000080 d0 89 ce 17 00 00 00 00 9f 28 67 0e 00 00 00 80
       1.973355817e-315 -1.193868285e-315
000090 21 27 19 13 00 00 00 00 8b f0 96 02 00 00 00 00
       1.583063013e-315 2.1465379e-316
0000a0 68 d6 3a 12 00 00 00 00 11 3b 4d 14 00 00 00 80
       1.511079343e-315 -1.682815816e-315
0000b0 71 2a 27 14 00 00 00 00 97 74 cf 11 00 00 00 00
       1.670490736e-315 1.47631e-315
0000c0 21 94 72 04 00 00 00 00 c1 48 92 17 00 00 00 00
       3.68661355e-316 1.95384608e-315
0000d0 09 86 80 0f 00 00 00 80 1f 7e 9c 06 00 00 00 80
       -1.28497167e-315 -5.48013657e-316
0000e0 2f 7e 0a 00 00 00 00 00 80 35 ac 02 00 00 00 00
       3.397507e-318 2.21540617e-316
0000f0 19 d8 c1 21 00 00 00 00 5f c6 95 0a 00 00 00 00
       2.79815016e-315 8.77400346e-316
000100 22 6b 8b 03 00 00 00 80 d6 cb e2 08 00 00 00 00
       -2.93813814e-316 7.36558233e-316
000110 aa 54 11 03 00 00 00 00 8e ff cb 1c 00 00 00 80
       2.5428291e-316 -2.38698567e-315
000120 f5 33 42 07 00 00 00 00 27 5b a3 0d 00 00 00 80
       6.01669137e-316 -1.13046919e-315
000130 fd fe 97 18 00 00 00 80 73 d7 d3 21 00 00 00 00
       -2.038585985e-315 2.803977573e-315
000140 61 8b ea 0d 00 00 00 80 79 ec 04 1b 00 00 00 80
       -1.153519337e-315 -2.23963669e-315
000150 70 ee c1 0c 00 00 00 80 30 c8 57 0d 00 00 00 00
       -1.05747874e-315 1.10599899e-315
000160 68 7b 82 1e 00 00 00 00 45 6c f3 0e 00 00 00 80
       2.528962715e-315 -1.23928457e-315
000170 a3 2a 90 1e 00 00 00 00 5d 66 63 15 00 00 00 00
       2.53339363e-315 1.772884437e-315
000180 fa 22 84 0b 00 00 00 80 11 ac 09 15 00 00 00 00
       -9.545797e-316 1.74383142e-315
000190 d2 af e3 1f 00 00 00 80 7f 41 8e 0a 00 00 00 80
       -2.643327183e-315 -8.7496575e-316
0001a0 ef 69 e4 21 00 00 00 80 b6 d9 8b 03 00 00 00 80
       -2.8093435e-315 -2.93953674e-316
0001b0 d5 91 45 01 00 00 00 00 b8 07 5c 0e 00 00 00 80
       1.0541648e-316 -1.19026497e-315
0001c0 82 97 98 0a 00 00 00 80 51 b1 11 14 00 00 00 00
       -8.78312445e-316 1.66353793e-315
0001d0 25 98 da 22 00 00 00 00 f8 23 83 23 00 00 00 80
       2.8890545e-315 -2.943628217e-315
0001e0 9f 02 7c 01 00 00 00 80 10 78 ad 18 00 00 00 80
       -1.23043843e-316 -2.04553873e-315
0001f0 58 bc 18 02 00 00 00 00 f7 17 26 0d 00 00 00 80
       1.7379012e-316 -1.08991035e-315
000200 a4 17 a7 08 00 00 00 80 6e eb 14 11 00 00 00 00
       -7.1722666e-316 1.41591142e-315
000210 0c dd 2b 12 00 00 00 80 16 f1 ae 08 00 00 00 80
       -1.50623088e-315 -7.1976822e-316
000220 cb e4 52 1b 00 00 00 80 34 2b 88 1f 00 00 00 80
       -2.264882666e-315 -2.61369448e-315
000230 a0 a2 34 03 00 00 00 80 20 9c 83 0a 00 00 00 00
       -2.65714196e-316 8.71518677e-316
000240 f6 71 88 0b 00 00 00 00 b9 37 90 1a 00 00 00 80
       9.5597476e-316 -2.20184834e-315
000250 37 b1 38 1c 00 00 00 00 d4 5e 46 21 00 00 00 80
       2.339289327e-315 -2.7581705e-315
000260 26 e7 0a 23 00 00 00 80 22 a7 2b 16 00 00 00 00
       -2.904696387e-315 1.83772453e-315
000270 53 ff 3b 01 00 00 00 80 af 93 ee 1e 00 00 00 00
       -1.0231706e-316 2.563962834e-315
000280 b7 35 fc 05 00 00 00 00 53 6a 85 16 00 00 00 00
       4.9611554e-316 1.866788797e-315
000290 d7 db 04 10 00 00 00 80 e7 d5 18 22 00 00 00 00
       -1.32782059e-315 2.826317186e-315
0002a0 2e 1e bd 1e 00 00 00 80 45 da 81 01 00 00 00 80
       -2.54794846e-315 -1.2493555e-316
0002b0 4f c0 e8 15 00 00 00 80 42 92 65 06 00 00 00 80
       -1.816062386e-315 -5.3023063e-316
0002c0 e7 02 78 0d 00 00 00 00 43 fd c6 0e 00 00 00 00
       1.11643456e-315 1.224897366e-315
0002d0 d8 93 a8 10 00 00 00 80 d0 35 55 02 00 00 00 80
       -1.38083123e-315 -1.93371207e-316
0002e0 0b 15 37 08 00 00 00 00 26 df 96 14 00 00 00 80
       6.80958797e-316 -1.70666008e-315
0002f0 69 8f b1 1b 00 00 00 00 93 4a 12 1f 00 00 00 00
       2.295534805e-315 2.575526836e-315
000300 99 38 5a 21 00 00 00 80 60 c3 6a 02 00 00 00 00
       -2.76459796e-315 2.00349864e-316
000310 b9 cc 12 21 00 00 00 80 41 a9 f5 14 00 00 00 80
       -2.74147237e-315 -1.737352047e-315
000320 96 95 62 08 00 00 00 80 48 e3 a3 0a 00 00 00 80
       -6.95044387e-316 -8.81969983e-316
000330 e4 4d 9f 15 00 00 00 00 b2 73 29 0b 00 00 00 80
       1.792280936e-315 -9.25216824e-316
000340 48 9f e4 00 00 00 00 80 47 d1 86 1d 00 00 00 00
       -7.4025777e-317 2.44747603e-315
000350 d5 d0 36 1e 00 00 00 80 19 26 1c 15 00 00 00 00
       -2.504462657e-315 1.749814003e-315
000360 20 33 61 1f 00 00 00 80 66 af 21 15 00 00 00 00
       -2.601076655e-315 1.751606616e-315
000370 33 9b 8b 12 00 00 00 00 72 81 12 11 00 00 00 00
       1.537231518e-315 1.41512979e-315
000380 61 8a ce 16 00 00 00 80 d7 90 2b 16 00 00 00 00
       -1.890466073e-315 1.837696335e-315
000390 b5 27 03 22 00 00 00 80 56 b2 6c 01 00 00 00 80
       -2.819297254e-315 -1.18085434e-316
0003a0 e1 bb 96 1e 00 00 00 80 06 4c 2b 24 00 00 00 00
       -2.53552008e-315 2.998075743e-315
0003b0 f2 01 92 21 00 00 00 00 f3 88 a4 1e 00 00 00 00
       2.782661126e-315 2.539988733e-315
0003c0 7c a5 0d 04 00 00 00 00 e6 30 c1 1f 00 00 00 80
       3.3598043e-316 -2.63215776e-315
0003d0 45 51 8f 0f 00 00 00 00 a2 e5 66 17 00 00 00 00
       1.28976179e-315 1.939797703e-315
0003e0 65 8b fd 1a 00 00 00 00 ef 9a c9 20 00 00 00 80
       2.23724737e-315 -2.717772663e-315
0003f0 86 2d 87 12 00 00 00 00 59 57 8d 14 00 00 00 80
       1.535797635e-315 -1.7035742e-315
000400 68 8c ff 10 00 00 00 00 21 2c 59 04 00 00 00 80
       1.408991626e-315 -3.60435044e-316
000410 02 44 e1 0e 00 00 00 00 6d 16 fe 06 00 00 00 00
       1.23340541e-315 5.79614007e-316
000420 d7 93 ed 01 00 00 00 00 df 8a d0 08 00 00 00 80
       1.59815884e-316 -7.3064783e-316
000430 f0 88 a7 21 00 00 00 00 ef 93 c8 1d 00 00 00 80
       2.789631473e-315 -2.468768637e-315
000440 5f 74 7d 09 00 00 00 80 bb 8e 57 0a 00 00 00 00
       -7.8663519e-316 8.57254937e-316
000450 21 60 82 01 00 00 00 80 2c 32 04 02 00 00 00 80
       -1.25104857e-316 -1.6713954e-316
000460 c2 46 89 0a 00 00 00 80 9f f3 c9 09 00 00 00 00
       -8.7335345e-316 8.1140424e-316
000470 90 cb 34 05 00 00 00 80 0c 59 00 14 00 00 00 00
       -4.31546895e-316 1.65792184e-315
000480 19 7f 37 21 00 00 00 00 2e 88 b2 1e 00 00 00 80
       2.75335445e-315 -2.54452083e-315
000490 0a fb 1e 1b 00 00 00 00 77 ab 41 1d 00 00 00 00
       2.24807368e-315 2.425086633e-315
0004a0 33 a6 ca 0d 00 00 00 80 66 01 c7 00 00 00 00 00
       -1.14319195e-315 6.443615e-317
0004b0 5d 53 0d 1e 00 00 00 80 1f 13 94 0d 00 00 00 00
       -2.491028537e-315 1.12552122e-315
0004c0 79 02 a0 0b 00 00 00 00 bb 2a 75 13 00 00 00 80
       9.6360473e-316 -1.61285633e-315
0004d0 a5 d2 1d 21 00 00 00 00 47 0a 30 0b 00 00 00 00
       2.74504156e-315 9.27350027e-316
0004e0 49 ae c4 11 00 00 00 80 94 a4 90 06 00 00 00 80
       -1.472821276e-315 -5.44176807e-316
0004f0 15 a4 2f 04 00 00 00 00 80 73 b5 12 00 00 00 80
       3.46987545e-316 -1.55078052e-315
000500 2f 72 dd 01 00 00 00 80 15 11 ac 0f 00 00 00 80
       -1.5459266e-316 -1.29907054e-315
000510 ed b4 42 20 00 00 00 80 a6 72 7f 1d 00 00 00 80
       -2.67409377e-315 -2.445089805e-315
000520 76 84 63 19 00 00 00 00 1c ad 49 14 00 00 00 80
       2.10448435e-315 -1.681664895e-315
000530 a0 01 67 02 00 00 00 00 59 3c b8 10 00 00 00 80
       1.99133435e-316 -1.385901216e-315
000540 74 9c 7c 14 00 00 00 00 bb 84 d3 1e 00 00 00 00
       1.69815716e-315 2.55520157e-315
000550 58 a8 66 0d 00 00 00 00 73 ef c7 02 00 00 00 80
       1.11081558e-315 -2.3051816e-316
000560 d8 53 8f 22 00 00 00 80 d8 d3 81 14 00 00 00 80
       -2.8646838e-315 -1.699846175e-315
000570 bd bd 9d 06 00 00 00 00 5d 87 2c 07 00 00 00 00
       5.4841791e-316 5.9465123e-316
000580 57 0b ef 0d 00 00 00 80 68 ce 5a 0e 00 00 00 80
       -1.154976346e-315 -1.18986869e-315
000590 33 f2 fc 0b 00 00 00 80 43 2c 66 08 00 00 00 80
       -9.936967e-316 -6.96206335e-316
0005a0 50 4e 87 1e 00 00 00 80 7f 56 29 1c 00 00 00 80
       -2.530524634e-315 -2.334317723e-315
0005b0 66 ff 64 0d 00 00 00 80 52 c5 78 04 00 00 00 80
       -1.110278104e-315 -3.7066632e-316
0005c0 51 72 0a 00 00 00 00 00 aa 46 f2 11 00 00 00 80
       3.382497e-318 -1.487584595e-315
0005d0 b1 4c b0 0f 00 00 00 80 3d 05 4a 00 00 00 00 80
       -1.3004411e-315 -2.396715e-317
0005e0 c4 ef 6f 20 00 00 00 80 90 17 4e 04 00 00 00 00
       -2.68873878e-315 3.5684733e-316
0005f0 f7 19 16 09 00 00 00 00 d7 14 92 02 00 00 00 00
       7.53170385e-316 2.13080745e-316
000600 ff b1 f6 22 00 00 00 80 ef cd 47 19 00 00 00 80
       -2.898153343e-315 -2.09551113e-315
000610 1d 5c de 0f 00 00 00 80 d9 98 ab 1f 00 00 00 80
       -1.315354986e-315 -2.62516584e-315
000620 ea bb 0c 02 00 00 00 80 a6 c5 46 18 00 00 00 80
       -1.69904087e-316 -2.0122864e-315
000630 5f c8 8b 1b 00 00 00 80 3d 9f 8e 15 00 00 00 80
       -2.283302797e-315 -1.78687938e-315
000640 1f 51 07 08 00 00 00 00 c2 9b 3e 0c 00 00 00 80
       6.65492823e-316 -1.014957564e-315
000650 c0 1e 96 00 00 00 00 80 d8 21 51 1a 00 00 00 00
       -4.860752e-317 2.18142184e-315
000660 da c9 2b 1f 00 00 00 00 aa 72 44 05 00 00 00 00
       2.58378259e-315 4.3661511e-316
000670 83 db 69 0f 00 00 00 80 f1 cb 55 15 00 00 00 00
       -1.27763259e-315 1.76847984e-315
000680 56 ce f5 15 00 00 00 00 01 fa c1 17 00 00 00 80
       1.82028941e-315 -1.969288437e-315
000690 c0 97 a1 18 00 00 00 80 8e 06 f5 22 00 00 00 00
       -2.041693317e-315 2.89761271e-315
0006a0 80 20 5e 1a 00 00 00 00 41 5a 16 14 00 00 00 80
       2.18562942e-315 -1.665046765e-315
0006b0 c1 19 8b 1a 00 00 00 80 7a 6e dc 1c 00 00 00 00
       -2.20019148e-315 2.39230662e-315
0006c0 e1 17 e1 11 00 00 00 80 3e 72 57 0e 00 00 00 00
       -1.482020976e-315 1.18878075e-315
0006d0 48 bb 52 1d 00 00 00 00 7f c1 fe 01 00 00 00 00
       2.43061108e-315 1.65378075e-316
0006e0 de 47 0d 22 00 00 00 00 75 fb 79 1c 00 00 00 00
       2.82257584e-315 2.360429636e-315
0006f0 3a 4b c8 00 00 00 00 80 df a0 a0 0d 00 00 00 80
       -6.485332e-317 -1.129585997e-315
000700 a1 a4 ae 1c 00 00 00 00 81 08 1f 0c 00 00 00 80
       2.37748073e-315 -1.0047338e-315
000710 b9 b5 46 04 00 00 00 80 52 50 d8 05 00 00 00 00
       -3.54457047e-316 4.8449272e-316
000720 19 1c f3 00 00 00 00 80 ec a7 4f 19 00 00 00 00
       -7.8716718e-317 2.09805338e-315
000730 2d c5 22 21 00 00 00 80 31 f8 ef 08 00 00 00 80
       -2.74664348e-315 -7.40823615e-316
000740 f0 e5 31 01 00 00 00 80 3a 4f 6a 04 00 00 00 00
       -9.904704e-317 3.6598388e-316
000750 fa e6 a9 11 00 00 00 00 54 de ca 1e 00 00 00 00
       1.464150627e-315 2.552400774e-315
000760 e7 99 ee 1c 00 00 00 80 3e c7 00 12 00 00 00 80
       -2.39818978e-315 -1.492280294e-315
000770 52 52 06 07 00 00 00 00 19 c3 ef 0a 00 00 00 80
       5.8228009e-316 -9.06537383e-316
000780 fa 1a 6b 02 00 00 00 00 72 95 9e 22 00 00 00 00
       2.00460664e-316 2.869623636e-315
000790 a7 19 ed 10 00 00 00 00 61 f6 51 1a 00 00 00 80
       1.40301825e-315 -2.181690657e-315
0007a0 e7 4f 7a 18 00 00 00 00 1a e9 38 0e 00 00 00 00
       2.0289746e-315 1.178893565e-315
0007b0 ed ed 7b 1d 00 00 00 00 90 7b 23 07 00 00 00 00
       2.443950563e-315 5.91722187e-316
0007c0 ee 95 8d 0f 00 00 00 00 28 1c e1 0d 00 00 00 80
       1.289201053e-315 -1.150464544e-315
0007d0 3c 2e 83 15 00 00 00 00 df 2e db 18 00 00 00 80
       1.783174753e-315 -2.060340536e-315
0007e0 ce 95 f9 0e 00 00 00 80 6e a0 6a 03 00 00 00 00
       -1.241279847e-315 2.83196126e-316
0007f0 c0 d1 06 1e 00 00 00 00 4a e7 c9 0c 00 00 00 00
       2.488921856e-315 1.060060026e-315

bias_0 f8 [1, 64]
000000 7e 00 9e 7a c6 95 a3 bf 6a a2 7c 2c da 97 cd bf
       -0.03825206991950923 -0.23119666263780242
000010 76 65 11 d6 94 3b ac bf 95 72 c6 f5 fa f8 aa bf
       -0.055142069941846936 -0.052680819036344285
000020 93 d1 75 9b 55 f1 a7 bf 2b 8e 36 f7 8e 2b d3 bf
       -0.046763110377386806 -0.29953359739212954
000030 5e d5 31 bc 13 98 93 bf 2a d2 99 6a 65 8e ca bf
       -0.019134815560808753 -0.20747058587188977
000040 99 02 38 61 05 d6 c8 bf 4c 67 23 f8 8b 63 a3 3f
       -0.1940314030362245 0.0378688564685051
000050 59 88 61 17 e7 b8 bd 3f 63 74 f8 ae f2 d9 ac bf
       0.11610264130425331 -0.05635031114454916
000060 70 1d ff 53 e4 59 d9 bf 30 a6 2c 34 9e f8 bf bf
       -0.3961115665701618 -0.12488735936917617
000070 9c 52 82 56 54 7f d3 bf f8 90 bc 3e 83 f6 d1 bf
       -0.30464657257224714 -0.2806709396993621
000080 97 9e 45 f1 09 53 d2 3f 7a 82 31 84 1c f8 c1 bf
       0.28631828843797663 -0.14038425879245492
000090 77 5b db f0 d1 07 c5 bf 06 35 49 af 0d 38 ab 3f
       -0.16430114994610864 0.053162028929913105
0000a0 d1 1b 8f 58 cb cc bc bf 5d eb 95 cb 47 e0 d0 3f
       -0.11249991333089261 0.2636889923230024
0000b0 84 6b 63 80 90 23 c4 bf d1 98 90 72 da f4 cd bf
       -0.15733534115755898 -0.23403483003602912
0000c0 a0 28 af 31 7e f4 c2 3f 6b bb 24 6d 46 9e bf bf
       0.14808633256899828 -0.12350883640895709
0000d0 af 6a 10 72 1d c7 79 bf 54 8d 29 1b 59 7b cf 3f
       -0.006293406507235018 0.24595178438458254
0000e0 94 18 c4 ab 64 21 c4 3f 09 5e 0a f6 69 ee b5 bf
       0.15726908099185677 -0.08566915757034378
0000f0 f1 3c 97 44 7a f0 a6 3f 91 cc 2b 48 9d f5 b6 bf
       0.04480344855584829 -0.08968527805318362
000100 86 bb 18 21 73 76 c6 bf 29 41 0f c8 7d 2a 99 bf
       -0.175489798698859 -0.024576154075306143
000110 eb ca d7 c3 dc 67 bd bf 67 61 7a e9 9e a7 d2 bf
       -0.11486606389352587 -0.2914807586726255
000120 8c 90 03 9c 6a 86 a6 bf 94 53 01 ec 84 0c cf bf
       -0.04399426607577181 -0.24256955646219736
000130 10 9d 51 75 86 e0 b1 bf ee c3 c4 6d 69 fc b3 3f
       -0.06983223308781228 0.07807024888894862
000140 44 80 2d 2e 85 4e b2 bf 86 ee dd f9 c3 cf 8f 3f
       -0.07151062371622269 0.015533000052293088
000150 8d 0d b2 ff 22 b6 96 3f 43 15 a5 a3 b2 57 9e bf
       0.022179171425262423 -0.02963141559418615
000160 d8 b0 d9 63 62 ca cb bf 6e f2 a6 da fa 2f 9a bf
       -0.21711377978807067 -0.025573653789012267
000170 25 1f d6 8b 17 77 a6 3f ae 01 a8 d5 a3 62 bd 3f
       0.04387734968173466 0.11478637663095156
000180 d2 79 90 dc fb 58 da bf a8 72 94 92 b2 1d c5 bf
       -0.411681142229921 -0.1649687972757381
000190 de c4 c3 4c 08 54 c0 bf e8 1d eb 8f 60 ef af 3f
       -0.127564465983176 0.06237317807022774
0001a0 e6 43 06 b1 d4 f2 a4 3f e9 cc 6a a0 5a 45 c3 3f
       0.04091515217726975 0.1505540164267594
0001b0 18 8a 94 cc c0 02 83 bf 31 b5 96 f3 cb 27 d7 bf
       -0.009282594912808625 -0.36180399692496495
0001c0 a8 b0 e4 51 a8 34 d8 bf 26 7a a6 4f e1 0d a3 3f
       -0.3782139587153872 0.037215271923958945
0001d0 bf f0 7b 50 92 37 d3 bf 0f 3d 3e d3 1c 47 c8 bf
       -0.3002668176629974 -0.18967018427472523
0001e0 df 6b 60 9b 0b 71 a1 3f df 10 bb de 6d de ad 3f
       0.03406559249579976 0.05833762496834693
0001f0 d1 ce b8 46 43 53 c7 3f 72 da 3e 20 cf 9a c1 bf
       0.18222847893922858 -0.1375368983696777

weight_1 f8 [64, 32]
000000 9d 84 df 85 9b 8f fd bf 72 40 a0 af 5d 65 db 3f
       -1.847560427610268 0.42806188727354944
000010 24 d5 aa fa a3 d5 09 c0 7b 6c 97 cf 02 25 c2 3f
       -3.22931667169418 0.14175448547652877
000020 34 33 90 45 b4 49 ff bf 51 8c 86 d6 63 76 da 3f
       -1.95549418614537 0.4134759516693452
000030 d3 67 b7 4e 9a 03 ec bf 0e 50 00 2c a0 8c de 3f
       -0.875439790480636 0.4773331098269872
000040 94 4e 38 2a 5b 4e d4 bf fe d0 38 f6 b8 f6 f9 bf
       -0.31728247759858985 -1.6227349870724193
000050 42 83 ba c0 b1 5f a7 bf 9c d1 6f ac 56 47 a1 bf
       -0.04565196492808933 -0.03374739508572874
000060 ff f4 f9 0d d8 3c f3 3f ab 7e db 78 4e da ec 3f
       1.202354483218471 0.9016487465377926
000070 c7 0e 83 32 a6 5f e9 3f 78 55 2a 22 c1 8a e1 3f
       0.7929259287415896 0.5481877963344877
000080 13 48 39 86 6c 0b d6 bf 11 74 0b d8 39 2a 01 c0
       -0.344447260930907 -2.1456181410308166
000090 ff ba 52 23 76 ab e2 3f 61 9d 4c 88 71 b7 fa bf
       0.5834303560166915 -1.669786007327126
0000a0 af 4f 8c 67 72 0c cb bf a4 ee f9 d0 27 bd e7 bf
       -0.21131734901484608 -0.741840274960357
0000b0 6c f6 4b 43 55 f7 09 c0 1f f7 39 3c d6 23 ed 3f
       -3.2457680947834913 0.9106246162698176
0000c0 5d 17 30 ce b2 c8 04 c0 0a 24 d5 64 ce 5a f3 3f
       -2.5979972942758836 1.209669488789816
0000d0 f7 aa 67 86 63 38 d1 bf 2d 2d 14 3b c0 bc c1 3f
       -0.2690666973636974 0.13857272038181048
0000e0 82 39 3f 20 c2 55 e4 bf 90 49 8b 86 b8 e4 04 c0
       -0.635468543035856 -2.611680079580033
0000f0 00 87 af b4 f6 d8 e0 3f b9 78 bd 73 04 67 a0 3f
       0.5264848259941743 0.03203596031993201
000100 74 8d bc a4 03 23 e4 3f 89 66 1b 0b 59 27 f0 bf
       0.6292741982946795 -1.0096064027660836
000110 df cc aa a6 be d9 9c 3f e5 45 cd 49 d8 ea f1 bf
       0.028174380228574655 -1.1198351748356512
000120 b5 eb f8 79 ac 44 cd 3f 54 8c f5 7f 6a 67 be 3f
       0.22865825610810267 0.11876550315860018
000130 a2 61 58 a0 56 52 e6 3f 18 e7 33 d8 d0 87 fa bf
       0.6975510722868885 -1.6581581540508008
000140 25 61 36 77 63 8b d0 3f 22 2d 32 6e ec 83 d1 3f
       0.2585076011832988 0.2736769748814415
000150 e1 6c db 6c d1 6f e3 3f c9 f6 39 24 2b fb f4 bf
       0.6073996664157698 -1.3113204398245435
000160 a2 c3 8a b6 67 28 f6 bf 5f 3f ab c4 80 c5 d6 3f
       -1.384864533476709 0.35580462652159456
000170 aa 7e 88 6a 92 0f dc 3f ad a0 fb c4 79 c4 cc bf
       0.43845043567305686 -0.22474596136385597
000180 c1 f8 e1 70 a0 12 85 3f ce 3e f7 95 2f 16 f1 bf
       0.010289433903605151 -1.0679164751090187
000190 95 c1 cd ac 2e 0b 05 c0 eb d8 76 22 82 e7 fc bf
       -2.630460119275265 -1.8065205904254593
0001a0 3d cd 54 30 1e 34 e0 3f dc 2e 9b 28 1d f3 d4 bf
       0.5063620513887269 -0.32733849492499956
0001b0 80 d7 4b 12 15 b3 8a bf 99 a5 ae fd ab f6 03 c0
       -0.013036884899957135 -2.4954452341959947
0001c0 42 ff 23 f2 b8 bd cc 3f be 94 ab e7 77 db f1 bf
       0.22453986953041222 -1.1160811471575438
0001d0 1c 96 fb 7d 62 8d ad 3f aa 09 21 58 a3 b6 03 c0
       0.057719304922823705 -2.464178741939766
0001e0 c7 72 2c be f7 19 e4 bf 52 b6 4f 1c 53 87 f8 bf
       -0.6281698908165588 -1.533038244811355
0001f0 d9 6b 10 88 85 55 e6 bf 60 11 b8 7c 4a 05 e2 bf
       -0.6979396493437618 -0.5631458698194756
000200 d0 75 36 c2 99 d6 e9 bf c5 75 eb 64 20 a6 d2 3f
       -0.8074463647096142 0.29138955932088734
000210 ab a5 97 26 da 78 e8 bf b0 da 14 27 fd d1 e1 3f
       -0.7647524598843821 0.5568834079084208
000220 68 6a ee 15 b5 e1 e6 bf 7a 2c 15 0e fc ae e7 bf
       -0.7150521686883851 -0.7401104235699585
000230 5f 29 23 fa 75 93 e4 3f ee e5 21 4b ae db f1 bf
       0.6430005918021314 -1.1161330160961103
000240 a1 f3 2d ae 40 6d 90 3f b7 41 fc e2 8b e3 ae bf
       0.01604176581485073 -0.06032979150598144
000250 3b c9 e5 66 b8 97 ed bf 36 ea 3e 4e 38 2a db 3f
       -0.9247705468863282 0.42445190087497353
000260 a4 97 68 2a 4b 5d cc 3f 9e 24 53 40 ba 29 c9 3f
       0.22159709521036774 0.19658592358454013
000270 97 f0 8e 3b 5f 56 07 c0 e8 f1 ab 36 85 66 f7 bf
       -2.9171738293644682 -1.4625293861018864
000280 a7 b3 95 de a0 27 e0 bf 9c ff c1 0f d1 80 87 bf
       -0.5048374507292593 -0.011476167004957287
000290 41 6c 9d 4e d8 71 e0 3f 52 ad 84 12 e7 06 df 3f
       0.5138970885703956 0.48479630287575504
0002a0 30 5f 29 09 81 88 d3 bf 87 77 d8 37 d3 b3 bc 3f
       -0.3052065457791171 0.11211891282479601
0002b0 ef 39 8b 63 e3 42 c0 bf 0a 14 4b e7 b8 c5 f3 bf
       -0.12704126701869664 -1.2357720408338104
0002c0 62 d6 c5 cd 36 13 d0 3f 1c eb 8c 52 a4 2f f5 bf
       0.25117273421287767 -1.3241313194873277
0002d0 86 f1 a7 91 85 0a 92 3f 83 16 0e d6 15 25 e1 bf
       0.017618262305391784 -0.5357770138513874
0002e0 d1 5b e1 aa ac b0 05 c0 04 2a ee 30 a8 02 9a bf
       -2.7112668371223454 -0.025400760637731792
0002f0 3c 22 84 34 d0 fd fc bf ac a2 34 a7 a6 63 97 bf
       -1.8119661380207068 -0.02284107585470234
000300 d6 7e d5 69 51 71 f9 bf ee 19 c9 60 b0 f2 f2 bf
       -1.590165532506878 -1.184250238483965
000310 9f 2d 7e 8d 3f 95 04 c0 bc eb f3 30 99 39 e2 bf
       -2.5728751234180005 -0.5695310550794299
000320 6d a3 de 19 60 52 d0 bf bd 55 13 57 ac e6 f8 bf
       -0.25502779508911183 -1.5563167001140379
000330 3d fa fb 8c 68 f3 f1 bf f1 05 fd 8a 74 56 fc bf
       -1.1219258792113032 -1.7711072377427366
000340 c4 9a b2 b8 bc 8d d6 3f b8 1c 08 c9 3f 79 e9 bf
       0.3524009517372344 -0.7960509230041657
000350 76 51 2f 83 0f e9 e7 3f 00 64 c2 ec 87 ed fd bf
       0.7471997797206729 -1.8704909561549812
000360 50 78 74 b8 c8 1e f6 bf 72 85 30 16 01 b1 fe bf
       -1.3825156407615573 -1.9182139269617804
000370 f6 4e 9d 19 44 c5 d6 3f 52 19 3b 8a f7 f3 ed bf
       0.35579016209997805 -0.9360311221906079
000380 d2 2d 0c bc fd 34 f0 3f 70 3b bc 9d b1 ea 03 c0
       1.0129372926338545 -2.489596588427439
000390 51 67 ca f2 b4 3c db 3f a9 02 f3 5b 8c eb a7 3f
       0.42558025083564127 0.046718965744280645
0003a0 73 65 de f8 9b dd fc bf d0 2d 3b 91 29 ba 00 40
       -1.8041038247523289 2.090899595850466
0003b0 bb 74 82 7e e6 e0 f3 bf c3 41 3e e3 6e d5 df 3f
       -1.2424073163777354 0.4974019259616648
0003c0 9b 3a ac 72 16 45 e6 bf 40 02 4c 6e 5e 71 ee bf
       -0.6959335555746579 -0.9513389734493742
0003d0 62 f2 fd 52 68 47 ef bf 48 5f 1e 5b e2 62 e7 bf
       -0.9774667378365616 -0.7308208255444493
0003e0 2e fd a0 da 04 25 e7 3f 36 5c e8 7b c9 15 01 c0
       0.7232689161391244 -2.1356382065091806
0003f0 75 d4 6c 21 83 be e7 3f ae 13 cf 63 44 4f e2 bf
       0.7420058873018563 -0.5721761655228101
000400 41 d4 a2 44 11 8c ed bf ee 06 07 0e 4d 19 f4 bf
       -0.9233480778262974 -1.2561770008036848
000410 dd b9 c3 e9 2a be 02 c0 a0 d9 cb 1b b1 d9 c0 bf
       -2.3428552878242344 -0.1316434274410314
000420 9f f5 c9 9d 6b 9a e9 bf a4 2f 2a 2c d7 34 08 c0
       -0.8001001436056646 -3.025801034009378
000430 47 3e e8 29 b7 f6 ec 3f 01 3c 1b 96 c3 54 e7 bf
       0.9051166361331945 -0.7290971690907783
000440 1b 2e 10 ba be b4 f6 3f 08 81 15 67 50 60 f2 bf
       1.4191272037595641 -1.148514177963138
000450 6b 68 f9 63 dc c7 07 40 51 72 90 dc 7d e9 03 c0
       2.9725883303154226 -2.4890095931607807
000460 1e a7 a4 6b 2f 23 00 c0 7a c2 d7 bb 1b c7 05 c0
       -2.0171802911398933 -2.7222208667010905
000470 46 6e 92 75 c5 71 c2 3f 16 d8 a4 d7 b6 37 f5 bf
       0.1440970253068931 -1.3261021064367973
000480 a4 b8 a8 56 92 a0 df 3f 01 53 cc 74 91 0b 00 c0
       0.4941755148200946 -2.005648529515725
000490 e9 97 b7 a0 ed 94 d9 bf 3e 84 a9 5f 7a 11 d4 bf
       -0.3997148580077679 -0.31356677381524267
0004a0 af bc be 09 4e 3d f8 bf ac c9 7a 19 68 10 f4 3f
       -1.5149670010248817 1.254005527047961
0004b0 60 2f f0 27 47 05 d4 3f 59 5e 03 68 23 60 b0 3f
       0.3128221406957348 0.06396695413001775
0004c0 7b 85 fe d4 86 bc c4 bf cf cb e2 4d 4d b5 fd bf
       -0.16200337791546446 -1.8567631761950343
0004d0 e8 8e 6b 25 d9 78 e2 bf 34 90 d9 8e ae a0 e8 bf
       -0.5772519808637897 -0.7696144857441198
0004e0 81 87 5d a4 dc 34 e3 3f ad 58 c7 bc bb a3 f2 bf
       0.6002028665791245 -1.1649739622276158
0004f0 ef 8a 36 3e c3 53 f5 3f 47 bf 5b 77 6d ca ee bf
       1.3329498701283986 -0.9622104006975655
000500 26 f9 93 6f ee 50 00 c0 00 54 e4 4a b9 63 00 40
       -2.0395172802956436 2.0486932612352575
000510 89 e0 1f 8d e3 17 f6 bf be 68 c3 ae 96 12 e9 bf
       -1.380832244174629 -0.7835191167207751
000520 3d a2 61 24 25 50 f3 bf 75 53 64 69 37 e0 f4 3f
       -1.2070666714809157 1.3047403447028192
000530 d2 0d 3d 73 63 0d f0 bf 8c ae cf 16 5d cf f0 bf
       -1.003268671179161 -1.0506258860649806
000540 8f 5c ac 7a 91 f4 da 3f 8f 24 f0 87 69 c0 fa bf
       0.4211772630673715 -1.6719756422119507
000550 78 7e 81 c1 75 29 f7 bf 03 36 30 2a 0c 69 f2 bf
       -1.4476220663854331 -1.1506463668805516
000560 e5 1e f6 53 bc eb f8 3f 26 3c 34 b0 bd 88 ff 3f
       1.5575526504271064 1.970884025857012
000570 c2 ea 45 33 7b 83 f1 3f 52 0e 4b b9 c3 66 e9 bf
       1.0945999148231498 -0.793794500256306
000580 a9 3d 10 55 3a d9 dd bf 60 1d 11 99 95 9f fa bf
       -0.46638353640534064 -1.6639610270666125
000590 cd 71 18 e5 d4 9a ed bf 09 c6 23 6f a3 3d d5 bf
       -0.9251503443261356 -0.33188711026659284
0005a0 0a 77 30 1f 76 a8 ef 3f 6a 4a 7b fa 68 9a e5 bf
       0.9893141373792969 -0.6750988857477982
0005b0 8b 92 06 89 90 71 e6 bf 94 33 fd 63 b8 92 f2 bf
       -0.7013628650934874 -1.1608203798125247
0005c0 39 77 41 f1 7f 03 fc bf 60 83 c0 f4 94 91 fc 3f
       -1.750854437260797 1.7855424461960965
0005d0 db e9 ba 95 6a be dc bf 15 5e 88 14 ac e9 f0 bf
       -0.4491220915039357 -1.0570488740976363
0005e0 24 32 d0 fb 72 d5 d2 bf 01 53 de 33 37 24 d6 bf
       -0.29427790251864594 -0.34596042695311274
0005f0 0d b6 c8 bd 42 ca f7 bf 1d cd 13 3d 1d 3e f9 3f
       -1.4868800557554807 1.5776646028360297
000600 e2 a0 58 69 40 c2 f4 bf 17 ea 74 5c a7 64 c0 3f
       -1.297424708851445 0.1280717088173595
000610 01 9c dd da 88 38 03 c0 e7 bd ee b3 dc 56 f9 bf
       -2.4026047800903148 -1.5837065724007233
000620 bb d7 a6 d1 55 07 e8 bf 18 45 5c 13 2c 91 ba bf
       -0.7508954138527238 -0.10377765152613383
000630 e7 1e de 36 15 0a fb bf c9 af 0f 41 01 4a dc 3f
       -1.6899616378086024 0.4420169005741142
000640 fe 51 63 85 36 d7 c5 bf 0a c6 6f 71 85 7f f5 bf
       -0.1706302787121245 -1.3436331206434056
000650 0a 3c cf c2 a4 e6 b2 3f 27 9b c4 d2 fc d6 fd bf
       0.07383184200374174 -1.8649872048496918
000660 57 bd 58 1c 9e 48 df 3f f7 85 96 e1 0d ff b2 3f
       0.48880722778536295 0.07420431859511455
000670 fa 08 5c 94 86 3d f9 3f 6a 18 5b f2 5e 29 bc 3f
       1.577520923165649 0.1100062696160379
000680 cd cd 57 ac 2e b7 d7 3f 42 c9 43 67 04 ac ff bf
       0.37055556135530027 -1.9794963868885849
000690 73 6a 45 d7 49 46 e0 bf ad 32 a4 00 93 6a 02 c0
       -0.5085801319613225 -2.302038197527813
0006a0 cd 39 71 b1 7d 19 d1 bf 0c 2c a1 c7 8e df c1 3f
       -0.2671808464846464 0.13963494060075765
0006b0 97 95 0b 11 c2 ef 06 c0 e3 7c fb 36 63 37 e7 3f
       -2.8670693713817843 0.725511176478815
0006c0 ef ae b5 c6 32 38 07 c0 1b f4 a5 19 42 ef e6 3f
       -2.9024405979342798 0.716706323713541
0006d0 30 4c 9c 13 a6 23 a1 bf 2c ed 2b 75 ac a5 e6 bf
       -0.033475103277077145 -0.7077238358028004
0006e0 2f 57 06 95 83 bc ce 3f 34 52 5e b0 98 2a 04 c0
       0.24012799049949637 -2.520799043539478
0006f0 57 dc 66 e0 5f 77 e3 3f 3c 2d 8a 1f aa 26 dd 3f
       0.6083220846984528 0.455484896469631
000700 2e 6a 7e 72 52 b1 02 40 4d 81 22 67 8f e3 fa bf
       2.3365830368832325 -1.6805566815092619
000710 a7 09 45 8a be 44 f9 3f 8f 5d 25 db 0e df e0 bf
       1.5792832757148092 -0.527228763598872
000720 5f 18 55 c7 a3 77 e2 3f c2 25 4e 40 7a e1 e6 3f
       0.5771044629298209 0.7150241142236882
000730 14 12 df ff 47 9f d2 bf 00 e7 e4 b2 2b 10 ec bf
       -0.2909717558616489 -0.876973962214123
000740 8e e7 a4 bc 2d 2b f2 bf a4 59 fa 31 a5 3c d7 3f
       -1.1355416649734908 0.3630764949861265
000750 8a bf 64 c4 fa 1d b1 bf e7 2d 9d a3 76 2a f4 bf
       -0.06686370177044246 -1.2603670493289145
000760 7b 97 e2 a1 9a b6 78 3f 7f a6 cc 23 42 30 ff 3f
       0.0060335197760305005 1.9492818258680982
000770 75 0c 77 50 b9 2b fe 3f c7 f6 0a b1 85 4d 61 bf
       1.885674776379145 -0.002112160793642601
000780 1d 79 d5 55 44 f7 fc 3f 5a c0 78 04 b9 34 f0 bf
       1.8103679039846334 -1.01287175890686
000790 d2 56 4e 8c 77 e3 f2 bf a9 56 57 28 fd f7 e2 bf
       -1.1805339317992787 -0.5927720821298027
0007a0 38 8b c4 e7 42 5e 01 40 6e 16 8d f1 1d 64 ea bf
       2.1710260493140616 -0.8247213094516164
0007b0 51 d1 94 55 7a 4f b0 3f 17 7e 24 ce 51 21 e5 bf
       0.06371273602855367 -0.6603173280927334
0007c0 d6 88 30 85 99 96 fb bf 83 ab 4a 2c 55 30 fa bf
       -1.72426750209029 -1.6367999773162587
0007d0 e6 98 d4 20 73 97 f7 bf 1b e9 c9 36 82 a3 e6 bf
       -1.4744750292243736 -0.7074595518199972
0007e0 92 2e da 02 8e ee e2 bf 6b a9 87 e0 b3 5a cb bf
       -0.5916204505642375 -0.2137055250489753
0007f0 21 62 f8 45 1b 21 c2 3f 01 7b 40 f0 1b f8 fd bf
       0.14163533131137832 -1.8730735192145291

bias_1 f8 [1, 32]
000000 8f cb 69 b4 a9 cd d1 bf df 94 ac 6a d2 15 da bf
       -0.2781776677940621 -0.4075819055309022
000010 8d 59 75 57 f6 98 b4 3f a3 ae b9 fc 0b fb e2 bf
       0.08045901904310977 -0.5931453643838335
000020 7d 0f ea 3a d5 4e a4 3f c9 bb 24 9f 30 49 81 3f
       0.03966394752663314 0.008440379959749127
000030 f2 81 e8 76 25 68 ea bf 4f b2 e0 1a 56 d1 cd bf
       -0.8252131769586966 -0.23295093834294042
000040 f1 c6 5b 5f ef fa e7 bf 2e 92 c0 61 c4 52 ed bf
       -0.7493817198248661 -0.9163534077857258
000050 a9 32 b2 79 4b d2 e4 bf e8 a3 aa dd 99 8e 63 bf
       -0.6506707550884886 -0.0023873334115091967
000060 fa 3b 9a 8d 19 5e da bf 9a 65 d2 3e 44 27 cd bf
       -0.4119933970295616 -0.22776082103227396
000070 62 d5 b4 fb 96 15 db bf de 32 31 80 49 00 e3 bf
       -0.42319273548795 -0.5937850478890956
000080 30 f9 7f 6e 06 2a e7 bf f7 42 33 31 2e 7b d3 bf
       -0.7238800199700446 -0.3043933372946834
000090 c7 54 9b f4 dc 62 e9 bf c7 19 63 24 e7 dc dc bf
       -0.793318250415404 -0.45098284295491137
0000a0 92 d6 c8 81 6d 26 d6 bf b7 40 3d 5d f6 b1 e4 bf
       -0.3460954444338792 -0.6467239209250896
0000b0 f2 e5 00 c8 d6 0e d5 bf d3 4c 01 a8 cb 86 e4 bf
       -0.3290307000312104 -0.6414545327519597
0000c0 b5 34 6d 4b 5f 84 cd bf 11 a1 2d 39 89 5a d9 bf
       -0.23060218031824822 -0.3961508806592216
0000d0 65 e4 19 7e 6a f5 e4 bf 22 66 77 e7 58 56 e0 bf
       -0.6549580061829486 -0.5105404396846931
0000e0 74 8c 61 35 6f e3 e9 bf 3f 7c 9b 55 a3 21 e4 bf
       -0.8090129892920133 -0.6291062042254295
0000f0 cf fa c0 e8 df 76 ea bf d2 d7 3f 98 a9 6b e4 bf
       -0.8270110650990662 -0.6381423925038183

weight_2 f8 [32, 10]
000000 12 92 c6 28 41 fc fa 3f 99 1a 33 35 c2 52 f7 bf
       1.6865855782317607 -1.4577047422514282
000010 fa 8f d1 94 61 9d dd bf 58 11 a2 9d 94 fe c7 bf
       -0.4627307847315475 -0.18745668122222514
000020 40 83 8e 94 85 f7 c0 3f f6 a0 eb 3d 32 63 9d 3f
       0.13255376580948486 0.02869871619159966
000030 f9 3f 50 07 e1 c6 f0 bf bb e5 09 1e 9a 7d c7 bf
       -1.0485544477160131 -0.18352056948405768
000040 e4 51 96 3d ba 0e f4 bf 6e f3 6f 33 e8 4b dd 3f
       -1.253595581603002 0.45775799773382786
000050 d8 00 76 08 89 93 01 c0 ea 5f 29 9e 30 3f 02 c0
       -2.197038713551688 -2.2808544498802705
000060 7e 8d bc 4b 47 22 e6 bf ef 25 e6 d5 62 e3 e6 bf
       -0.6916843871335201 -0.7152570893969691
000070 95 b6 5e 40 c5 43 f4 bf db 81 73 36 f8 b8 e0 3f
       -1.2665455355121698 0.5225792945384983
000080 7f 8e 5b 04 6d da f8 3f 18 d1 34 88 47 42 f3 bf
       1.5533266229839737 -1.2036814995345306
000090 a5 b6 ec 4f d3 d3 d5 3f 2b 1d 63 70 24 18 f1 bf
       0.34105379872458236 -1.0683941259502017
0000a0 ca 3f 8a 13 5f c8 ea 3f 8f 40 0c 93 89 a2 05 c0
       0.8369593984261823 -2.7043639648546285
0000b0 08 46 94 0c d2 ff f2 bf 77 b5 60 9a a4 ff ef bf
       -1.1874561778425932 -0.9999564185324478
0000c0 25 f9 bd d8 20 97 c0 3f 63 8f 2b d6 92 08 00 c0
       0.12961206992253796 -2.0041863185924043
0000d0 9f 9f ff 9a fe 3b fd bf 51 2d db e8 11 49 e5 bf
       -1.827147107565885 -0.6651696727725868
0000e0 0f 06 ee b4 a1 f1 ec 3f c3 de 90 e0 14 30 f9 3f
       0.9044960531029477 1.5742386600594933
0000f0 14 46 aa 87 9b af 06 c0 da b8 b9 77 c0 8f e5 3f
       -2.8357458685720847 0.6737978304279537
000100 f5 45 2b b9 d2 c0 11 c0 4b 7a 64 c0 fc 81 e4 3f
       -4.438303845659438 0.6408675916353074
000110 3d b6 a9 19 37 01 e1 3f df 5d db 35 02 7d e5 bf
       0.5313983441571463 -0.671509843053112
000120 66 2b 4f cb e7 a9 0b c0 ca 63 9f b2 e7 cb ed 3f
       -3.4579616435561773 0.9311407555315949
000130 ed 5d 1e 33 5f 14 01 c0 3e 2b 85 3f b4 7c e0 3f
       -2.1349472039835207 0.5152226677540523
000140 70 d7 81 e7 4a 4d e5 3f cc 08 ec 98 c6 a3 ff bf
       0.6656851312279581 -1.9774843190685258
000150 58 b5 91 4b 60 1a e9 3f 5c 75 db d9 11 78 e1 bf
       0.7844697452507416 -0.5459069495224571
000160 4d 06 66 e7 7d 7c f6 bf 47 cf 38 e0 44 9e c1 bf
       -1.4053935088162632 -0.137642487986904
000170 e5 5c 38 c9 84 2b ea bf 56 3b b6 8e 25 6b f6 bf
       -0.8178123407441517 -1.4011588644677508
000180 56 da 79 89 ea 51 fa 3f e4 41 a0 6f a3 f0 01 c0
       1.6449990625530027 -2.2424992295056985
000190 19 bd a7 de c0 ed e2 3f 2f 7b 23 cb a3 c6 f9 bf
       0.5915226315245575 -1.610996049413824
0001a0 17 76 cc 7b d8 ae bb bf 96 e0 a3 14 57 2f e6 bf
       -0.10813668272427211 -0.6932788279655309
0001b0 36 c4 c5 ee 52 4a e8 bf 5e 42 eb ca 49 05 f2 bf
       -0.7590727485204585 -1.1262910772822106
0001c0 63 d7 34 d3 7e 8b f0 3f 6d a2 d0 72 72 7c 06 c0
       1.034056496644063 -2.810765168182391
0001d0 7c 86 eb 30 83 68 f6 3f 73 8b 95 e3 fb 2b ff bf
       1.4005157385767282 -1.9482382669454779
0001e0 20 f7 03 3e 13 fe b6 bf 21 38 38 b6 d1 16 f7 bf
       -0.08981437934923209 -1.443071090503061
0001f0 52 a6 37 ae 6c e6 e4 bf f7 bd b5 ce 01 4b f2 3f
       -0.6531279947932467 1.1433122706038128
000200 be 68 6d c6 75 45 fe bf db 6b c0 82 4c 9e f0 3f
       -1.8919580222196113 1.0386471850858843
000210 0d 33 33 c0 a8 ae ec bf 6a 68 ce 79 1e b7 ec bf
       -0.8963207010179716 -0.897353399184124
000220 d4 e8 15 ea eb b0 02 c0 91 32 8a a1 55 35 fc bf
       -2.3363874710022206 -1.7630211172246713
000230 51 7a 15 68 ed 7e 03 c0 20 90 f6 18 89 e7 e0 3f
       -2.436976254611445 0.5282636153756393
000240 74 e9 2b 52 51 fc d3 3f a7 f5 c2 9b 34 77 f7 bf
       0.312275247808109 -1.4666029056964847
000250 b2 13 b2 7d 8b 04 f6 3f 08 f1 e5 0d 1f 61 a6 3f
       1.3761095914826282 0.04370972675948975
000260 ba 44 f3 87 a2 f7 ae bf d3 58 6a 25 f5 e3 04 c0
       -0.06048305425213969 -2.6113074229316253
000270 63 6e 37 d2 8c 55 e4 3f 65 c4 f0 de ef 7b d0 3f
       0.6354431253234448 0.2575645138886727
000280 b2 99 0a ce 02 69 f3 bf e1 c9 68 70 c6 70 e7 bf
       -1.21313744053769 -0.7325164981360183
000290 ff 14 d8 20 6b 0c e4 3f f6 68 5b 6b 30 d4 fa 3f
       0.6265159265027761 1.67680398880344
0002a0 4b 22 7d 7d 14 a0 fc bf eb 4c 04 f0 e3 7c da bf
       -1.7890820409685542 -0.41387270392551895
0002b0 e3 21 86 7b b3 7e d6 bf fe 0c 54 ff a0 68 f1 bf
       -0.3514832216538066 -1.0880441640627505
0002c0 14 78 e3 da b5 a0 d3 bf 55 93 58 fd dd c9 f2 bf
       -0.30668398261866625 -1.1742839714363147
0002d0 2f c8 9a ce 30 ec d8 3f 38 9b b7 4d 3d f6 f3 bf
       0.38941593338234076 -1.2476170574024774
0002e0 12 88 0f 8b 23 0d f7 bf c6 d1 b7 da 72 5d fd bf
       -1.4407077247674391 -1.83531461178528
0002f0 77 c2 46 54 20 ea ff bf a0 3c b8 9d 80 6f fa 3f
       -1.9946597377821982 1.6522222672390754
000300 54 c3 75 2e d3 50 ec bf 67 62 95 d7 fa 9a e1 3f
       -0.8848663241788963 0.5501684389701723
000310 16 75 24 0a d3 9c d5 bf 22 da e7 a7 8c ef f3 bf
       -0.3376968001410473 -1.2459837492766686
000320 17 10 b4 7d 38 53 e3 bf 83 6b 4e 5e b2 c7 e1 3f
       -0.6039087729591327 0.5556270448608845
000330 ad 91 4b bc 1b 62 e5 3f 96 10 be 1b 26 0f e5 3f
       0.6682261159553967 0.6580992261738341
000340 08 21 10 48 b5 0c 03 c0 c8 b9 3b 12 dc a7 bc bf
       -2.3812051420137585 -0.11193633504055989
000350 ed c6 bc d5 9c 3c f5 bf b1 13 df 1c fb 40 f4 bf
       -1.3272980069272606 -1.2658644798077427
000360 04 21 60 29 1d 3f e5 bf 86 98 c2 04 73 5e f5 bf
       -0.6639543350329693 -1.3355589090292894
000370 87 af b5 82 f6 23 00 c0 9c b3 c6 f1 cf 56 fb 3f
       -2.017560025376898 1.7086944050199468
000380 fa 13 23 8d 98 d5 f4 bf 58 bc a4 45 55 f2 f6 bf
       -1.3021474373974784 -1.4341633530091453
000390 b4 a7 67 14 3a 62 f0 bf db 38 57 05 7b 00 ef bf
       -1.0239811703745376 -0.968808660918309
0003a0 bc 03 c5 8a f4 bb f5 bf 8f 13 69 13 67 1a e2 bf
       -1.3583875103652039 -0.5657229785070842
0003b0 98 b8 ba ca 24 e6 fc 3f 52 53 ed 7e 17 35 f7 bf
       1.80618743125118 -1.450461860474395
0003c0 ca ab 61 44 41 bb ec bf 43 c8 4a de 60 c5 fc 3f
       -0.8978582702233038 1.7981880839620465
0003d0 af d0 20 28 74 89 dd bf 3f 23 9c 1c a7 2d f4 bf
       -0.46151451033370966 -1.2611456983160705
0003e0 82 55 5e 0d e6 b4 d3 bf e4 00 9c ff 6d 39 dc bf
       -0.307916176848572 -0.44100522958616595
0003f0 48 93 7d f3 0b d6 f2 3f 00 8f 97 40 33 c0 f9 bf
       1.1772574912403844 -1.6094238780141836
000400 6f 0f 7e 06 48 6a fc bf 60 0b 47 ac 7c 7b dd bf
       -1.7759475949869417 -0.46066204856849957
000410 2a ff 45 85 59 29 f2 3f a7 45 5d c5 88 b6 f1 3f
       1.1350951391213564 1.1070640286965074
000420 b8 96 9b e6 5d a6 ec bf 1b 3e 04 77 42 9f c8 bf
       -0.8953084472711543 -0.19236021815639578
000430 19 e2 f4 dd e7 bb e0 bf a8 83 28 b8 c0 6a e9 bf
       -0.5229377112473826 -0.7942813488808627
000440 7b b8 82 55 1b 8f f2 3f 37 f4 d5 d3 17 31 db bf
       1.1599381771334538 -0.42487140357099257
000450 88 41 86 7a ef ea e4 bf 3b 99 dc 0c 5c 7e e5 bf
       -0.6536786454253596 -0.6716747523503622
000460 a7 79 cd 1d ee fa ef 3f 06 ed 1e aa 93 48 f9 bf
       0.9993811208803905 -1.5802189488738931
000470 62 8c bb a1 7b 63 f0 3f 62 cb 02 dc aa 4e fb bf
       1.024287826316844 -1.7067059129883195
000480 b3 a9 37 9f 03 f9 ef 3f 72 c1 1f f0 c9 c5 d3 bf
       0.9991472348895541 -0.3089470715485937
000490 ca da cd 6b 21 f7 eb 3f ff 72 ab ff d8 5e 01 c0
       0.8739173036145413 -2.1713123296925683
0004a0 e4 da 2f 5a 38 f4 fb bf 84 28 5c da ce 00 df bf
       -1.7471240542342281 -0.484424317590886
0004b0 8c 96 7b e2 cd 6a ba 3f 38 13 75 ea 36 0e ff bf
       0.10319220332493212 -1.9409703405846823
0004c0 68 65 85 ae 48 a6 f2 bf a6 44 92 10 3b 7a dd bf
       -1.1655966584424622 -0.46058537119194864
0004d0 c6 92 af f8 61 94 06 40 c0 ae 08 9d 17 2e b4 bf
       2.8224524906712274 -0.07882831176601268
0004e0 7c bb 55 95 a6 f4 8e bf d5 e2 77 4c e1 59 e8 bf
       -0.015115071709002718 -0.760971688606413
0004f0 70 a6 c7 06 f5 76 d0 bf df bf 12 59 61 18 f0 bf
       -0.25726056730363833 -1.005952213232369
000500 64 8f 8b 7e 7f ac f3 3f 21 5f 4a b0 a2 74 f7 bf
       1.2296137755556282 -1.4659754644725995
000510 8b 2e 86 76 c4 1d f4 3f 8b e3 3e bc 7b d3 f0 bf
       1.2572674398278731 -1.0516316750856471
000520 53 2b d1 55 42 ed f6 bf 4a 6c c7 0c e4 c9 b0 bf
       -1.4329245903233712 -0.06558060943591318
000530 b9 7c 30 e4 01 25 c3 bf d6 2b e7 8c d5 4e e7 3f
       -0.14956687585888576 0.7283733131420103
000540 31 fe 7b a8 61 d0 f7 bf ba 3c 62 ae 1d 04 f2 bf
       -1.4883743840617962 -1.1260048686852273
000550 46 93 89 b1 a8 27 fd bf 89 62 e2 8d 9c cb d2 3f
       -1.822182363038523 0.29367746215715634
000560 bc 63 7a 4f e8 33 00 c0 a8 f4 5c 40 14 d2 ee bf
       -2.0253454407906855 -0.9631444222537953
000570 da 81 59 26 83 50 e1 bf 8d 14 af 29 4c 8b eb 3f
       -0.5410781620994911 0.8607540907038512
000580 52 39 cc 9b af b8 d4 bf 57 4f ec 05 b8 8b f8 bf
       -0.3237723370993041 -1.5341110450144322
000590 d5 bc b8 99 db 05 dc 3f 49 05 63 7b f9 0b e8 3f
       0.4378575326144987 0.751461735715716
0005a0 7c 89 77 00 dc 42 f2 bf 72 5e ee 4c cf aa fa 3f
       -1.1413230913391024 1.6667016034242832
0005b0 e8 d9 44 8c 1a c8 ce 3f c3 46 c2 34 08 58 f3 bf
       0.24048168038434814 -1.2089922009367207
0005c0 1f f5 d9 bc f7 84 ff bf 35 5e f2 c7 c0 34 db bf
       -1.9699628235824276 -0.4250947907071095
0005d0 07 ac 2e 52 38 af e8 bf 21 8a 7c c2 90 ba fe 3f
       -0.771389160644845 1.9205482098701696
0005e0 ef 31 05 92 b5 68 eb bf b7 1b 44 78 f3 e1 f5 bf
       -0.8565318920096255 -1.3676638315098282
0005f0 bd 20 aa 38 7b 09 f5 bf 95 7e 89 6c da e5 fc bf
       -1.3148147786578612 -1.8061165084581365
000600 27 97 ed 8a 66 2c ea bf 1c 42 2c b1 a1 69 b9 3f
       -0.8179199899138653 0.0992680604506479
000610 78 c8 b6 dc fe 76 09 c0 97 01 b0 de f2 6b f6 bf
       -3.1831032985001535 -1.401354665635244
000620 1e 51 25 ac 32 a2 03 c0 e6 aa 91 12 6e d6 fd 3f
       -2.454198212517567 1.8648510670997722
000630 fd 04 1c 90 43 fd f1 bf c1 e0 56 df 40 23 f1 3f
       -1.1243320111537394 1.071106789035227
000640 2d 75 81 b9 71 28 f7 3f 5e 95 40 99 ae fe 04 c0
       1.4473740812603169 -2.624356457980567
000650 56 bc 36 2b fa c9 00 c0 f8 b0 8d 90 f2 ff ea bf
       -2.098621690376187 -0.8437435935316264
000660 ea ef 1e 03 c6 de f4 bf 0f 25 f2 01 a1 5e d3 3f
       -1.3043880578907143 0.30265069189097543
000670 91 0f 19 86 7a 99 e7 3f e3 c8 af be 87 46 e7 3f
       0.7374851817225921 0.7273596500729379
000680 75 e6 c0 2c 24 a2 f8 bf 2c 0e a8 09 34 17 c2 3f
       -1.5395852802452314 0.14133310767657414
000690 5a 94 39 a5 c9 7d 05 c0 41 ba 13 46 86 3c 0a c0
       -2.6864197643467778 -3.279552981831586
0006a0 4e 74 7b 5e 11 ad f1 3f 54 97 2c b7 6e 42 f4 3f
       1.1047528925621637 1.2662188678018156
0006b0 9f b3 18 b8 23 7d 04 c0 e9 86 39 ec 4a 72 e6 bf
       -2.5611032850778908 -0.7014517415775262
0006c0 8b cf 84 13 f5 72 02 c0 85 6f 39 74 bc e9 f4 3f
       -2.306131508341371 1.3070644893659573
0006d0 60 cb 06 e9 1b 63 e0 bf 5e 2a 62 4e bc ae 0e c0
       -0.5120982695865273 -3.8353201030452473
0006e0 27 81 b5 27 ab 0c e8 bf 71 15 2b 65 54 cc 03 c0
       -0.7515464568678326 -2.474770346047699
0006f0 7c 19 20 13 a3 4b fc bf 4e d1 9a ee 9a 9c f8 3f
       -1.7684660670361998 1.5382336922167101
000700 03 90 55 7d d1 06 c5 bf 37 e5 ed 62 cf 8d de bf
       -0.1642705785735644 -0.47740540181219465
000710 b1 a3 07 3f c7 c8 f7 bf e3 43 55 aa 2d 52 eb bf
       -1.4865181409934218 -0.8537815405671804
000720 87 28 0a d3 d7 ab e0 3f de 78 e7 d7 80 0c f1 3f
       0.5209769365185516 1.065552562118277
000730 15 cc 49 10 97 94 eb bf bf 47 43 82 32 57 05 c0
       -0.8618884390001563 -2.6675768067152315
000740 85 55 c0 12 4c e1 cc 3f 45 4e 96 0d e5 55 f4 bf
       0.22562552371588765 -1.2709703951594673
000750 05 34 8a a9 93 ac f3 3f 20 b0 f6 16 35 e1 e6 bf
       1.2296330092096934 -0.7149911354549694
000760 13 dd c1 f7 36 3b 8c bf 3f 9b b4 7c 55 0e e9 3f
       -0.01378481811137403 0.7829997478155305
000770 f9 2f ae bc c4 c2 f4 bf 4a 89 43 95 98 de eb bf
       -1.297550904305352 -0.8709223666485653
000780 3a 49 79 19 28 51 f1 bf 0b 71 12 a6 ad 2e 03 c0
       -1.082313632494858 -2.397792146146576
000790 86 54 b6 8f 47 1d f4 bf f9 0c 47 87 e0 52 e7 3f
       -1.2571483243712307 0.7288668291224943
0007a0 0f 11 03 ae 5f d6 01 c0 dc ba 3b df cc 97 ee 3f
       -2.229674682110392 0.9560303077722341
0007b0 09 74 18 6e b1 3f ec bf df 73 ef 2d b3 10 ed bf
       -0.8827750349333893 -0.9082885644125972
0007c0 92 ab de a7 f2 6f ea 3f c2 33 b5 18 cd 1b f6 bf
       0.826165511961664 -1.3817873921536692
0007d0 28 9a e2 45 3d 2b 01 c0 0c 88 aa 85 a0 d5 a5 3f
       -2.146112962701654 0.0426454699675248
0007e0 43 b0 08 7b f7 6e dd 3f b8 98 01 45 07 0b e3 bf
       0.4598978711608234 -0.5950962398317392
0007f0 eb c7 ae 81 ed bf e5 3f d0 95 aa dd f8 23 e5 bf
       0.679678681646917 -0.6606411294384831

bias_2 f8 [1, 10]
000000 10 b0 a2 7d 38 4a d4 bf 08 ac cc b8 87 73 b3 bf
       -0.3170300700101061 -0.07598160039621871
000010 12 c0 3e 6f 26 e5 d3 bf 38 c2 82 23 3d 41 c4 bf
       -0.3108612142923458 -0.15824093088078128
000020 4f 3f df b7 43 00 d4 bf bc a8 8b 2e 8a 64 bf bf
       -0.3125161452889999 -0.12262786518445784
000030 4f 94 80 3c 5d ea dd bf 64 23 44 33 99 35 dc bf
       -0.4674294558374798 -0.44077138906918933
000040 ea 6d 53 cd 19 c3 f1 3f 57 99 31 17 65 7b e2 3f
       1.1101320286314782 0.577562852192197

loss_history f4 [35]
000000 08 00 23 3f cc 0b 9d 3e a6 ae 7e 3e 92 57 60 3e
       0.6367192 0.30673063 0.2487131 0.21908405
000010 4f a6 4d 3e 16 c9 41 3e a1 0b 35 3e 25 71 30 3e
       0.20082973 0.18924364 0.17680217 0.17230661
000020 d4 f6 28 3e 60 b4 25 3e af 0f 26 3e 18 76 1e 3e
       0.16500407 0.16182089 0.1621692 0.15474737
000030 a9 8f 20 3e 89 cc 16 3e 38 d6 19 3e a3 87 20 3e
       0.15679802 0.14726461 0.15023124 0.15676741
000040 0e fc 19 3e b2 40 1b 3e 81 18 16 3e 31 ba 13 3e
       0.15037557 0.15161398 0.14657785 0.14426495
000050 67 ed 18 3e 31 a7 17 3e 1e 79 1b 3e 31 e3 1a 3e
       0.14934312 0.14809872 0.15182921 0.15125729
000060 ea b8 14 3e 7a e0 15 3e a5 d1 0e 3e 33 2d 19 3e
       0.14523664 0.14636412 0.1394716 0.14958648
000070 16 20 16 3e 2e 81 16 3e d1 4f 1c 3e ec 0c 1a 3e
       0.14660677 0.14697716 0.15264823 0.15043992
000080 f9 83 19 3e 21 6a 25 3e fd af 1e 3e
       0.1499175 0.16153766 0.15496822

accuracy_history f4 [35]
000000 8c a5 a0 42 fd 22 b6 42 ef ae b9 42 e5 57 bb 42
       80.32333 91.06834 92.84167 93.67167
000010 55 55 bc 42 0a 17 bd 42 1b e8 bd 42 29 1c be 42
       94.166664 94.545 94.95333 95.055
000020 89 88 be 42 3a ed be 42 1f c5 be 42 29 1c bf 42
       95.26667 95.46333 95.385 95.555
000030 cd 4c bf 42 5c cf bf 42 41 a7 bf 42 89 88 bf 42
       95.65 95.905 95.82667 95.76667
000040 52 b8 bf 42 52 b8 bf 42 1b e8 bf 42 a7 0d c0 42
       95.86 95.86 95.95333 96.026665
000050 44 c4 bf 42 85 eb bf 42 cd 8c bf 42 0e f4 bf 42
       95.88333 95.96 95.775 95.97667
000060 f6 28 c0 42 07 fa bf 42 0a 57 c0 42 b1 e4 bf 42
       96.08 95.988335 96.17 95.94666
000070 2c 39 c0 42 7e f1 bf 42 f6 e8 bf 42 11 11 c0 42
       96.111664 95.971664 95.955 96.03333
000080 33 f3 bf 42 4b be bf 42 85 eb bf 42
       95.975 95.871666 95.96

val_loss_history f4 [7]
000000 01 d0 de 3d 1e 1f 00 3e 15 26 7f 3e ee 55 df 3d
       0.10879517 0.1251187 0.24916871 0.10905062
000010 14 be 31 3e b4 78 42 3e 3b ab 66 3e
       0.17357665 0.18991357 0.22526257

val_accuracy_history f4 [7]
000000 66 66 c1 42 66 66 c1 42 66 66 c0 42 33 33 c3 42
       96.7 96.7 96.2 97.6
000010 cd cc c0 42 9a 99 c0 42 cd cc c2 42
       96.4 96.3 97.4
