checkpoints/model_epoch_0005.npz (npz, 408061 bytes, 8 tensors)

weight_0 f8 [784, 64]
000000 0e 54 ec 66 9e 24 8a b4 60 5b f7 fe 1f d2 2b b5
       -1.332744600954455e-55 -1.4523135619129414e-52
000010 7b 94 5f 05 f8 bd 75 b4 66 00 7a 5b 07 7e b8 34
       -5.541937452412586e-56 9.988732067579623e-55
000020 e9 78 6b 5c c7 7a 68 b4 b8 97 8e ca 2d 6e 75 b4
       -3.1198607943117067e-56 -5.46249199003007e-56
000030 10 23 83 e7 52 cd f7 b5 a7 6e 06 c4 ff 8b bc 34
       -1.0178763087710999e-48 1.1642314228647533e-54
000040 19 ef 61 f9 17 21 49 34 e1 29 81 f0 dd 57 9b b4
       8.006648012359802e-57 -2.78785785468352e-55
000050 eb 53 02 dd 03 24 36 b4 37 da 90 e1 47 13 f3 33
       -3.527214450694539e-57 1.8992956834340996e-58
000060 5b e0 cf 3f 85 34 8d 34 23 b7 fa a5 7c 60 74 b4
       1.4888480424802973e-55 -5.193964435684994e-56
000070 98 c8 0d 48 12 42 43 b4 ca 13 9b 38 27 82 90 b4
       -6.135981943507708e-57 -1.6831626225129105e-55
000080 6d 51 01 23 8b 08 9f b4 00 97 3b 9b 6c fb 41 b4
       -3.164096998021963e-55 -5.729435879759658e-57
000090 4d 8f 92 0a ce 6d 21 34 18 ec 43 a6 b8 26 e8 b4
       1.3882939870531886e-57 -7.879714616894414e-54
0000a0 e5 3a 9a da c9 25 70 35 f3 41 85 64 82 a1 95 34
       2.6974228515687393e-51 2.205440336861355e-55
0000b0 2a 48 52 39 36 fd d3 b4 85 03 d7 fb 1e 6c 46 b5
       -3.2608754981984564e-54 -4.682004675710668e-52
0000c0 f9 a6 e6 2a 0c 1c a0 b4 00 d5 59 2c 3e 0a 89 b4
       -3.2849933802793755e-55 -1.2765132569271323e-55
0000d0 e7 d0 ff 07 92 4d 62 34 fc 93 f4 74 3b 3d b0 b4
       2.3326701119805827e-56 -6.622853075506871e-55
0000e0 89 09 cf 92 bb c8 1d b5 5c 08 50 cf e5 3d 49 34
       -7.774016001954265e-53 8.042497615481421e-57
0000f0 5c 39 2f 30 e8 12 fe 34 2d f4 98 fe 97 e0 ce 34
       1.9624106308386622e-53 2.5185488659639327e-54
000100 ca 53 54 c3 c2 64 62 34 d1 32 90 e5 9c 5b 89 b4
       2.344215228365708e-56 -1.2927169957397745e-55
000110 84 7c 71 98 ba a6 6d b4 78 47 dd fd a3 65 26 34
       -3.778977747508904e-56 1.784026650217514e-57
000120 c6 63 28 1d 7d 63 c2 34 21 d8 2f d9 83 91 f1 b4
       1.499892442279274e-54 -1.1463927710215865e-53
000130 ec 79 97 42 ec 4c 3f 34 d7 d5 7a 19 4d c8 9b b4
       4.9864541571693124e-57 -2.8326373658826605e-55
000140 df b2 b4 33 0b f7 41 34 db c5 7a c6 24 52 2f 34
       5.723983913567108e-57 2.4948515228088605e-57
000150 52 3f 67 a0 3a ef 75 35 f9 7a 19 78 7b 63 49 34
       3.664107894818122e-51 8.089275531864766e-57
000160 f8 0b 54 68 9a a5 8f b4 b1 6b b7 9e 74 16 c7 b3
       -1.6133248065646824e-55 -2.87350430992099e-59
000170 7f c7 3c e8 24 9f 88 34 0f e4 95 8e d0 93 d8 b4
       1.2551859987245979e-55 -4.009375626469531e-54
000180 ca fe e6 1c 1f 66 c2 b4 0f db 10 9a b7 0b 41 b4
       -1.5007313034968145e-54 -5.43109575406243e-57
000190 5e 5e 1b b2 f5 35 93 34 06 b9 f7 5d 48 db 47 35
       1.958690473830115e-55 4.981484873018031e-52
0001a0 2a 28 f8 a1 d7 4a 65 34 e6 d5 ea 21 42 44 81 34
       2.7136540003792853e-56 8.802347238372886e-56
0001b0 78 88 6e 1a c4 08 90 b5 42 b7 e3 c7 88 8f b7 b4
       -1.071393924186567e-50 -9.608788505162554e-55
0001c0 e5 60 eb 26 43 53 01 34 b5 31 ca 04 09 5e 2b 34
       3.4500881415895494e-58 2.1799332134698358e-57
0001d0 f4 d0 23 1f 29 a8 fe 34 21 f7 a5 e2 ed 87 81 b4
       2.000454595066094e-53 -8.937104711733992e-56
0001e0 0d 28 93 9f 77 34 84 b4 a5 bc 7e 92 05 45 cc 36
       -1.030026972780543e-55 9.903542468558665e-45
0001f0 3c 11 2b da c4 c1 33 b5 d7 d5 8d 06 33 5f cd 34
       -2.0627176470956048e-52 2.3957551225808137e-54
000200 72 c1 67 60 d0 45 f9 b5 46 79 ba d6 a0 df 5c 34
       -1.0807681539140795e-48 1.8399286277160914e-56
000210 d8 69 1e cd 1c 99 d2 34 e5 cf f7 9e 8e 05 81 34
       3.0339559277965073e-54 8.677486236589947e-56
000220 82 f1 8d bd be e1 55 35 a2 13 f3 4b 10 bd 9f 34
       9.138273049568755e-52 3.235993298106535e-55
000230 5a 2c 9b 4e db a8 b8 b4 2d 3c 54 40 d6 43 7b b4
       -1.0056960894223439e-54 -6.94970108550954e-56
000240 4a 68 b9 f0 8c 08 7a b4 38 97 58 6d 24 a5 34 34
       -6.635775981004918e-56 3.288952123804854e-57
000250 01 c8 6c 02 52 e3 2b b4 6e 6c f0 7e 16 8d 0c b5
       -2.2214049804246225e-57 -3.7260956065673984e-53
000260 93 83 82 01 bf 7a 51 b4 36 c4 d6 81 6c 9b 8a b4
       -1.1138565379728684e-56 -1.356403031072841e-55
000270 88 1b 20 c1 1c 51 7b 37 20 b1 fd 37 a7 65 86 b4
       1.9598875114946882e-41 -1.141779566392397e-55
000280 75 29 36 cf a6 fa 60 34 e4 45 99 0a b1 d4 65 34
       2.163942344797502e-56 2.782281040860313e-56
000290 62 10 1c 16 91 15 ef 34 c8 5b fd 74 3d 0f df b4
       1.0141708169241139e-53 -5.066822493283082e-54
0002a0 ff 31 b4 f0 c9 b4 67 b4 d3 aa 8a 53 89 8f 80 b4
       -3.0212932481281125e-56 -8.442463993961266e-56
0002b0 9e 6c 7d 3c 93 8d 51 34 15 e5 e5 c2 63 b4 8e 34
       1.1185434703738918e-56 1.5652904047152712e-55
0002c0 ea 3e 56 0b 9b 9b 96 b4 f6 5b 16 da 84 36 39 b6
       -2.3050469331690705e-55 -1.725141047752804e-47
0002d0 26 c6 21 41 7e cd d5 b4 78 97 33 c8 a2 0f 55 b4
       -3.5567326556898937e-54 -1.3420892950030737e-56
0002e0 5e e4 75 c2 a3 01 be b4 6f 39 a3 36 66 49 b9 b4
       -1.2237558047971943e-54 -1.031272001648507e-54
0002f0 a4 71 9e 5f 2e 9f 8a 34 84 4a 08 73 ac 8b fa b3
       1.3571512446797085e-55 -2.643098801527157e-58
000300 69 65 be d6 78 a4 5a 34 fe 66 74 43 b6 85 6b b4
       1.6977560649824524e-56 -3.5076458570129804e-56
000310 55 3a 6c 76 a1 73 44 b4 90 b3 fd b0 fd da 80 b4
       -6.516281983543811e-57 -8.592721537380114e-56
000320 a6 f4 d2 44 90 af 91 34 44 7c 93 f3 8f da 46 b4
       1.8032062172291235e-55 -7.28162772837261e-57
000330 f8 c8 7c db 62 06 55 34 11 d6 8d d5 53 03 e3 34
       1.339786852602537e-56 6.203280026368832e-54
000340 13 98 b2 25 ff a4 69 34 3d 9b 6c 33 32 70 95 b4
       3.2683259656087395e-56 -2.1858002022782276e-55
000350 54 5a 7f d7 ab bd 5b 35 b7 e2 c7 1a 64 b6 99 b4
       1.1585141795857839e-51 -2.6215884779017123e-55
000360 55 6b fd fb c8 b7 23 34 20 8d 85 f4 93 ec ba 34
       1.5706221882962241e-57 1.0980510178763595e-54
000370 65 9d ab d0 6e 9c 4a b5 36 f6 97 92 c2 79 54 b4
       -5.556649831838999e-52 -1.3047821147972063e-56
000380 bd 7a d6 1e f8 b4 a0 b4 9a d6 c4 43 7f da 3c b5
       -3.40680253470846e-55 -3.01244641943943e-52
000390 ed 7b d4 eb 95 84 be 34 34 1e da c0 a5 e1 3d 35
       1.2446166971753245e-54 3.1197674275189692e-52
0003a0 79 43 56 61 0f 12 15 35 5b 19 f4 17 90 1c 91 35
       5.499669427205257e-53 1.1433802575442366e-50
0003b0 ac 6e 47 29 da 8a 77 34 cf dd f4 07 c5 8e 34 34
       6.000830923282766e-56 3.275029595234662e-57
0003c0 58 80 a2 98 d7 98 83 34 bc 8f 4e 0c f0 71 22 34
       9.990363356088584e-56 1.469234518610682e-57
0003d0 22 61 b9 1e 7f e5 91 b4 f2 51 bf cc 4f 13 b0 b4
       -1.824686278675121e-55 -6.556069809649221e-55
0003e0 ce 56 50 64 56 0b 84 34 e5 22 af 6c 32 64 5d 34
       1.021836526728563e-55 1.8729277081389408e-56
0003f0 2a c1 7d 14 95 16 46 34 d0 f0 17 68 67 e4 60 b4
       7.037710463229268e-57 -2.152866538963626e-56
000400 c8 86 0f 73 fa ea 3b 34 e6 b8 9c 9b eb 4c 2c b5
       4.447575526461501e-57 -1.4773534714312616e-52
000410 04 b1 2d 97 bc 29 ef b4 cb 40 07 61 0c a6 a2 b4
       -1.0167414221536913e-53 -3.8027489092788835e-55
000420 4e 44 cb 12 67 79 82 b4 27 d5 9d 81 05 0e b2 b4
       -9.417966343970108e-56 -7.36330507913398e-55
000430 8e 00 42 0b 68 2e 17 b4 38 30 d3 78 f0 8b a0 36
       -9.232475456944666e-58 1.449173656547681e-45
000440 ac 92 97 89 8b 9d 56 b4 42 52 18 04 88 f6 71 34
       -1.4411370964605656e-56 4.578676898130541e-56
000450 60 03 2a 6e bf cb 52 34 60 57 fe bb b2 dc ac 34
       1.1977431966121198e-56 5.8854376530176796e-55
000460 d8 cf 40 48 56 a3 89 34 88 c5 9e 5e 84 17 60 b4
       1.3069998935566855e-55 -2.0508654125190426e-56
000470 d1 e6 23 46 e2 be f0 34 3c ff 7c 35 f8 a4 be 34
       1.0927040060130065e-53 1.2497757558939673e-54
000480 88 83 e4 bb 60 6f c9 b4 be b0 2f b0 43 18 e5 b4
       -2.074644682053389e-54 -6.882494035992269e-54
000490 b7 fd 9e 57 b5 50 24 b4 60 f5 3e ce dd db d6 b4
       -1.618204381563281e-57 -3.7290244287893035e-54
0004a0 be 96 e5 8b e7 9a 75 35 10 d7 e1 f1 06 ae 80 34
       3.609083570501729e-51 8.503182098071892e-56
0004b0 d4 9a 4e 8c aa 99 53 b4 a1 d5 87 0f 16 85 f5 35
       -1.2490005377225315e-56 9.202806945001347e-49
0004c0 85 f1 7e e7 0f de 18 35 06 34 d1 fa 1d 29 a3 34
       6.490702130464833e-53 3.9071511942880634e-55
0004d0 06 4e 7d 92 64 12 79 34 f9 89 ba 26 16 02 a3 b4
       6.390681092586041e-56 -3.8760615436741945e-55
0004e0 e6 6d 08 56 d0 27 6c 34 90 4b 5c e2 80 e6 a2 34
       3.5883468381418696e-56 3.854090357266998e-55
0004f0 79 47 4b af 9d 75 8d 37 44 b7 ec c9 e8 9c 1a b6
       4.22722194308219e-41 -4.552325908322828e-48
000500 4c b3 94 ce 84 8b a8 34 b0 0d 55 31 a0 51 c5 b4
       5.0051114686822135e-55 -1.7388998881389155e-54
000510 a1 22 48 0d a4 60 8f b5 9b 95 6d dd 8f db 12 34
       -1.0483085416516464e-50 7.510497977381982e-58
000520 e6 a3 7b e3 d5 19 41 34 68 4a 73 09 d1 84 64 34
       5.448667443035624e-57 2.6150686116206547e-56
000530 0e e8 70 74 ea a6 d5 b5 94 f3 3e 9b 35 a0 61 34
       -2.31482966346196e-49 2.246363842705698e-56
000540 f5 b6 09 8e b9 8a 97 b4 aa d7 94 69 e6 1c b6 b4
       -2.400281641765453e-55 -9.018334077065633e-55
000550 b7 ae ff d4 6c cc 85 b5 d7 70 16 6e e2 b3 5f b4
       -7.282794600433355e-51 -2.0202109275586568e-56
000560 b2 b5 58 4d 22 15 26 34 8f e7 24 b9 2a be 90 b4
       1.7589769602228532e-57 -1.7070644495901348e-55
000570 b2 d7 ab e9 f1 68 62 b4 9a 8b f2 4f b1 09 37 34
       -2.3462982850536735e-56 3.670143131666769e-57
000580 2f f9 d7 2e ae 19 75 34 6e 2a 27 42 d2 7a 6d 36
       5.378358347119174e-56 1.613670216206761e-46
000590 e8 c1 b2 1a d9 97 62 34 99 61 73 47 b7 f1 1a b5
       2.3696485776230187e-56 -7.032765094237996e-53
0005a0 d8 45 2d a7 14 d5 22 34 4b c8 31 8c 08 22 cc 34
       1.5000829351013954e-57 2.294700227207349e-54
0005b0 18 56 5d 40 88 e8 7b 34 74 b9 b5 23 e2 ee 61 b4
       7.113685317390412e-56 -2.285530981752934e-56
0005c0 a6 48 9b 73 ee 2a b0 34 34 53 ef bc 65 a1 cb 34
       6.59369821614244e-55 2.2537144409470025e-54
0005d0 b7 64 6e 03 f4 e3 62 b4 a6 88 7f c9 86 65 f9 34
       -2.4075368404567647e-56 1.6572046874349923e-53
0005e0 59 2e b2 98 0d 4a 8b b4 a9 c8 e1 79 a1 39 c0 b4
       -1.3911780877755684e-55 -1.3234231150358663e-54
0005f0 c8 48 ae 9e fa af 60 b4 3e 69 60 01 d3 8d 94 34
       -2.126767238619592e-56 2.0956424085387238e-55
000600 76 a5 72 ef 32 a1 bf b5 fa aa 55 42 eb f5 54 b4
       -8.4538701747702e-50 -1.3356878319252627e-56
000610 45 e6 fa 42 54 1b 70 34 9c 14 79 45 d7 ae 47 b4
       4.105526444423687e-56 -7.545830314346901e-57
000620 13 4b a8 26 3f 3c 48 b4 0d fb 05 48 d8 b5 1d b4
       -7.721824379951148e-57 -1.1832822174075452e-57
000630 ec 01 e8 00 3e ae 9c 34 0e 9d 38 ff 1b 20 40 34
       2.9242166651280305e-55 5.137857527070049e-57
000640 38 f1 d1 94 21 31 44 34 66 bc b5 d3 f5 d9 70 34
       6.433516457627916e-57 4.295334498650047e-56
000650 63 da 81 0c 46 7d 13 35 f1 b7 b6 44 6e ee c4 35
       5.086957734235765e-53 1.1188925447362102e-49
000660 f1 fa 5b 56 1d f0 3e 34 20 6e 21 13 98 ed 92 34
       4.9286994151915316e-57 1.9298691681994416e-55
000670 73 a3 cb e5 a7 95 59 34 f1 de 91 76 0d 58 76 b4
       1.6303443368087652e-56 -5.695355945717882e-56
000680 14 00 b7 2c ee 3f 52 34 4a 66 b6 af 9d 51 2f b4
       1.162939762733357e-56 -2.4946873313050232e-57
000690 bb 3d a7 cf b0 b6 99 34 f6 5f 30 14 e1 b3 40 34
       2.621707814383615e-55 5.321772335386943e-57
0006a0 3a 6c cd 18 a6 72 53 b4 35 ef 1f d4 c4 af a7 b5
       -1.2392883057917519e-56 -3.1654350437277364e-50
0006b0 db 09 c5 b9 bc b1 fd b4 49 bb 94 c2 71 f6 87 b4
       -1.9376425694721306e-53 -1.2215917142018168e-55
0006c0 8a f1 dc dc 61 36 91 b4 4c 19 0f 17 33 37 66 b4
       -1.754942990453783e-55 -2.8313223852881794e-56
0006d0 f3 88 66 74 9f 81 e5 b6 35 19 0d fa bc 83 6e b4
       -3.013680028404674e-44 -3.889005288479673e-56
0006e0 88 52 95 8a 52 0b 4d b4 98 8c cb 61 d1 3d 6c b4
       -9.254025011949804e-57 -3.5993013790740952e-56
0006f0 21 05 69 96 84 93 64 b4 b5 51 9b 3e e7 d2 f3 34
       -2.6223875594442396e-56 1.2935659832800317e-53
000700 42 f7 f5 bb e6 5a 3b b6 56 1d ba 09 62 02 c0 b4
       -1.8717107477743995e-47 -1.3058201487537076e-54
000710 0a cb d9 b4 a4 c7 a6 34 2a a0 01 75 2e c8 67 b4
       4.6451719522786045e-55 -3.0309477056074894e-56
000720 85 a7 53 1f c9 29 94 b4 a2 6c 2d 43 81 1f 51 34
       -2.0557997352342876e-55 1.0911447263214784e-56
000730 ae 2b f5 6d 4f 46 8c 34 8c b8 ed 3b e6 2d 87 b4
       1.4414116929884009e-55 -1.181655882380781e-55
000740 85 f0 d9 66 5e 9e bf b4 60 25 68 06 c1 e2 62 b5
       -1.2895073392319433e-54 -1.5774120952021147e-51
000750 73 43 a1 c6 5b b7 41 34 8a d3 bb 08 6f 05 7a 34
       5.644721046720483e-57 6.632672616908444e-56
000760 07 68 09 2b df 93 12 34 1a b4 41 f2 4e 4f 04 b5
       7.398965640631893e-58 -2.6505523616327503e-53
000770 69 94 44 37 cb 11 6b b4 9e d1 c1 68 f0 d7 8e 34
       -3.449937021195669e-56 1.5723695885701939e-55
000780 aa 03 32 0a 28 a1 36 b4 37 e2 24 dc f5 d6 1d b4
       -3.6050900818894874e-57 -1.1884341804080872e-57
000790 0f 51 db 36 67 1f 71 34 21 d8 ee 3b 77 38 55 b4
       4.364477594099877e-56 -1.3522526964030807e-56
0007a0 3c 58 56 0f 12 21 84 34 fd 32 4e 9e bb ad 57 34
       1.0261643756461557e-55 1.5088902539724141e-56
0007b0 4b 07 90 12 2d b0 12 b4 00 bd d0 be 06 04 69 34
       -7.443000185329336e-58 3.18818830482779e-56
0007c0 f3 8a e3 f8 eb f3 79 b4 e5 24 77 2a 09 b4 b9 b4
       -6.615236265247316e-56 -1.0482601814665891e-54
0007d0 b0 03 78 cb 9e 89 28 34 fc ae e6 62 77 33 13 b4
       1.9545309524002988e-57 -7.647255552916812e-58
0007e0 58 dc ce 62 88 79 ca 34 fb 9b 5a 8f db 6f 60 b5
       2.1594465227426108e-54 -1.37287761822134e-51
0007f0 1c 70 02 bd e2 40 24 b4 b9 ce 73 a6 15 ef 96 34
       -1.613281145181723e-57 2.338294334953128e-55

bias_0 f8 [1, 64]
000000 4a 43 98 08 2d 8d a8 3f 96 91 18 8b 5e 39 b4 bf
       0.0479520867339774 -0.07900038619897595
000010 27 9e 5d 34 b0 5c ab 3f 5a 2a b2 dd 88 81 ad bf
       0.05344153060178441 -0.05762889581918236
000020 d5 34 3e f9 e1 5a a7 3f 52 41 a4 03 07 d6 ae bf
       0.04561525504605305 -0.06022664946988478
000030 fd 18 eb 5e ab 24 b4 3f 9d 8f aa 41 66 81 ae bf
       0.07868453090040713 -0.05958098937597287
000040 85 a6 e9 40 5e 6b bc bf de 8f a6 01 af e0 b4 3f
       -0.11101330837996144 0.08155339994715358
000050 2e b5 ab 93 1e 1b 9d 3f 40 b8 36 96 a8 b3 29 3f
       0.028423764956575663 0.00019608910507201878
000060 d4 65 b1 09 23 fe c2 bf 33 b0 7e 24 25 4e a1 bf
       -0.14838064168252052 -0.03379932470792859
000070 90 2e 48 dd e8 f6 ac bf 84 3c 56 a0 4b 68 ae bf
       -0.05657127095409209 -0.05938946087109634
000080 04 8d 8d 32 31 c8 ba 3f c3 96 7e a0 9d ea 8b 3f
       0.10461719021036592 0.013631087742236208
000090 2e 5e 97 89 df 26 93 bf df 75 d7 bb f5 01 b2 3f
       -0.018702976963906597 0.07034240566232296
0000a0 63 e6 5b 1c 02 2b 7b 3f 98 b0 db b8 96 65 c3 3f
       0.006632812733863599 0.15153774286534794
0000b0 26 44 83 19 06 e7 8d bf b1 50 f8 1c 79 4a 57 3f
       -0.01460079923018227 0.001421564364027222
0000c0 df 35 9b ed d2 34 ac 3f bb e9 5a 50 d9 aa a2 bf
       0.05509051466433922 -0.036459723528838826
0000d0 9e 6a bb 12 ce 6d a1 3f b3 c0 6f c3 c7 96 bf 3f
       0.03404087046302105 0.12339447518729933
0000e0 92 7a e0 67 05 c2 ba 3f 60 59 ea 14 ad 5b 9f 3f
       0.10452302728706744 0.03062315406949645
0000f0 3f f2 a9 14 57 64 a0 3f 4f 13 d7 a9 e6 00 a3 bf
       0.032015534660761784 -0.03711624930614354
000100 0e bf a7 c2 24 57 8a 3f 76 36 08 d3 31 ea 8b bf
       0.012861525717169833 -0.01363028455036928
000110 d4 f1 0e 1d 36 f2 8e 3f c9 a5 3f e3 30 12 c2 bf
       0.015110419046202951 -0.14118014427303496
000120 e2 76 cb b1 1d 9c 67 bf c7 93 2a 55 e4 97 b2 bf
       -0.0028820590945163186 -0.07263018683677479
000130 03 11 c7 b1 9f cd b4 3f 1c 2a bb 9d 8d 66 97 3f
       0.0812625702884056 0.022852146865981124
000140 88 5e 77 fa 6e cb a4 3f 5c ab b0 d1 71 52 b9 3f
       0.04061457450341971 0.098914254850269
000150 4f 0b 22 d2 04 f8 a5 3f 50 d2 e3 ee e5 c6 ab 3f
       0.04290785851573863 0.054251847659462116
000160 25 92 5b df 07 db b4 bf 00 f8 6b 92 3c 5b 8d bf
       -0.08146714404171769 -0.014334176271855625
000170 95 14 bf 67 7a 5b b7 3f 97 16 43 3a 6d 2a a9 3f
       0.091239595726693 0.049151814806049625
000180 82 93 2b 87 18 6e c3 bf ca 89 1d f3 3b 8f 9a bf
       -0.15179735756023766 -0.025937020028672632
000190 a3 89 4b 0a 48 99 97 bf d2 a8 33 55 0d 8f aa 3f
       -0.023045659664498463 0.051872650766954145
0001a0 81 c3 40 87 9f 9b b2 3f c6 52 8a 58 1c c8 b1 3f
       0.07268712093424591 0.06945969735745469
0001b0 ac 88 99 76 e3 97 b4 3f 31 05 2f e3 52 0e c6 bf
       0.08044263501645571 -0.17231212704613477
0001c0 c7 12 2a b6 91 b2 c8 bf 79 50 b1 22 c0 d4 a9 3f
       -0.19294949908012013 0.05045128272527761
0001d0 e0 be 9c 44 39 7e be bf 00 c5 04 38 9d 1e b4 bf
       -0.11911352086167026 -0.07859213464395864
0001e0 4d f8 b0 1a 13 02 b0 3f eb 14 29 c5 ce a4 79 3f
       0.06253165628092568 0.006260688491754633
0001f0 14 ed 88 59 4c 14 ab 3f 3b 05 58 dc 92 c0 b0 3f
       0.05288923829035688 0.06543844108093293

weight_1 f8 [64, 32]
000000 d0 ce fc bd 19 42 ce bf 18 38 e0 1d 75 d0 cd 3f
       -0.2363922288583269 0.23292411764890697
000010 b1 29 6d 19 e6 93 eb bf a2 f1 2d 55 ee a1 9f 3f
       -0.8618040558442798 0.030891155194227367
000020 ee 8f 1d c3 88 6a dc bf 9c 3d c7 a5 88 dc e0 3f
       -0.4440023332047066 0.5269206273896319
000030 94 9c e5 c4 28 2a b6 bf a9 ef b1 55 08 26 ce bf
       -0.08658079917005274 -0.23553566154793984
000040 38 2c f5 93 08 ea cd 3f 53 c9 b7 f5 31 95 df bf
       0.23370463585374224 -0.49348114963426787
000050 4e 31 6d ee 80 62 a6 3f 73 3a b8 97 a2 d4 a9 bf
       0.043720273117829764 -0.05045040227934274
000060 49 80 65 e2 1c 4a de 3f ce f0 7d c6 ac d1 d1 3f
       0.4732734881308756 0.27842254051189463
000070 23 4b 13 ba c5 47 cb 3f 63 3e 48 77 6c 0b d7 3f
       0.21312781892501062 0.3600722470155004
000080 bd cd 6d 7d 0a 8f d4 3f 6e b1 9c 7c 2d ca c8 bf
       0.32123052834432625 -0.19366997322630247
000090 7c 19 c1 7a 5d 8b cd 3f 75 63 6c 36 fe ad e0 bf
       0.2308155869852263 -0.5212393820721518
0000a0 a7 34 56 63 ab 8a c1 bf 14 28 13 8e 90 00 d5 bf
       -0.13704435682703783 -0.32815946459288736
0000b0 31 32 ec c0 d4 10 f1 bf 18 93 37 48 51 e1 d3 3f
       -1.0666091476479205 0.31062728931856176
0000c0 67 15 d8 18 73 c8 e8 bf 3b 26 fd 16 fa 9f db 3f
       -0.7744689450488921 0.43163921589857396
0000d0 44 74 da 5d 34 d0 a7 bf f1 3e f1 e2 90 88 bf 3f
       -0.04651034970923054 0.12317758122048496
0000e0 dc ca 5b 1e de ad a2 bf aa b0 6f 48 5f 82 ea bf
       -0.03648275490367833 -0.8284145750781324
0000f0 4e 01 45 3b 28 99 c1 3f f8 26 93 67 cd 23 c3 3f
       0.13748648542424252 0.14953010136951383
000100 b8 b9 7d 47 bb 11 c3 3f 81 33 8f 89 8d 43 b0 3f
       0.14897862425591568 0.06353077515013973
000110 d0 61 97 ee 83 26 ce 3f e2 be 6a 47 21 b0 c2 bf
       0.23555039548842993 -0.14600006091267576
000120 d2 6b 28 d9 f8 c2 dc 3f f7 e5 95 c0 c6 5a cc 3f
       0.44940015036416725 0.22152027515021164
000130 d9 01 95 ae 90 47 d2 3f 5e 81 30 ca fa be d6 bf
       0.2856179909613537 -0.35540647263589686
000140 5d a6 0f f4 57 2c ce 3f 3d 76 24 83 da 9f d4 3f
       0.23572825829551194 0.3222566872298989
000150 37 ff fc 91 61 51 e9 3f 8d c1 5b 0f 7b 1f bc bf
       0.7911842204411873 -0.10985535740815618
000160 2b 91 44 db 4c 16 ca bf 26 ba f4 95 c5 fa c4 3f
       -0.20380554872930054 0.1639029485899794
000170 de 04 26 d6 a4 e9 d5 3f b3 98 1e 01 0c ab cb bf
       0.342385491494566 -0.21615743689216557
000180 48 61 18 54 1d 42 c3 3f 44 43 51 4c 55 7a cc bf
       0.15045515638554208 -0.22248331285893574
000190 1b f3 28 73 67 27 da bf fd 60 d2 1b 33 08 bc bf
       -0.40865503545846743 -0.10950011662714938
0001a0 30 28 48 46 dc 01 c5 3f 1b e7 52 a9 1b fc b7 3f
       0.16411927634936907 0.09369061359293733
0001b0 93 5c 4b d1 65 4f b5 3f c8 0e 2c b5 10 75 eb bf
       0.08324276313520533 -0.8580401934163655
0001c0 0d cc 1d 18 7f 13 cd 3f e0 23 93 a0 3d bd a1 bf
       0.2271574847942194 -0.03464691720143498
0001d0 49 7d 8e f9 00 c3 cf 3f ee 29 95 39 b5 4c e5 bf
       0.24813854394322224 -0.6656137585317177
0001e0 cd f7 14 1e ad 0a c8 bf b4 d6 81 88 05 05 db bf
       -0.18782581299632142 -0.42218149500636604
0001f0 cb 5b f3 dc d4 53 b0 bf 7f 0e f7 d7 99 91 b3 bf
       -0.06377916712095481 -0.07644044420799821
000200 7a 77 44 aa 14 78 bc bf 20 10 ac 8d 07 3d bc 3f
       -0.11120728642387503 0.11030623635093706
000210 ea 12 45 12 30 c3 b2 bf af 84 e1 8c 5f ca d8 3f
       -0.07329082914391064 0.3873518825331059
000220 6e 19 d7 09 94 bc 9f bf c8 f9 b4 9e c0 2d bb bf
       -0.030992806530571064 -0.10616687655144752
000230 65 4f 03 ef b6 9b db 3f 1c a5 4f 2d a3 ce d8 bf
       0.431379063998284 -0.3876121466151561
000240 40 c9 e4 34 5a 52 c4 3f 74 92 4c cf 7f f8 a7 3f
       0.15876319487285606 0.04681777387148581
000250 e8 de 30 c5 3b e9 c7 bf 44 45 87 bf 9a 61 c7 3f
       -0.18680522087537743 0.18266615249607743
000260 1a 13 23 6d 0b d8 b5 3f bb e8 b2 a3 35 24 c8 3f
       0.08532782949903286 0.18860502713306979
000270 a0 37 12 a5 9b 76 e9 bf a1 f8 86 ea 1f 14 de bf
       -0.7957285141035193 -0.469978312521457
000280 1a 05 c5 bd 50 0c be 3f 01 80 fc 3e f8 4a c9 3f
       0.11737541802451226 0.19760039401535326
000290 d4 47 ea 49 67 b5 d4 3f f7 78 ac 80 0c e9 c8 3f
       0.3235719892337532 0.19461208613297007
0002a0 ab 39 0c 36 57 2b bd bf bf ae ec bc ba 80 a2 3f
       -0.11394257611775653 0.0361383777256754
0002b0 1e 61 d0 10 b4 78 b5 bf fe f2 a9 fb bd 80 d1 bf
       -0.0838730374383698 -0.27348279549168797
0002c0 46 de 52 b3 84 cd d6 3f 2e 8f 3e c2 71 bb de bf
       0.3562938452919052 -0.48019069642235734
0002d0 3d 7d 0f 1d 5a 0b d0 3f 42 45 12 70 37 35 80 bf
       0.25069287145557323 -0.007914002521178024
0002e0 26 d1 c6 07 46 25 e3 bf 69 6a ad 25 a4 2b d3 3f
       -0.5982999946486742 0.29953864745554043
0002f0 ff e5 48 dc e0 8e e0 bf ff 67 00 47 ab a9 b1 bf
       -0.5174412062107762 -0.06899519427716426
000300 01 dd 49 82 d5 40 c3 bf 66 a8 72 f6 a7 87 d2 bf
       -0.15041607724899822 -0.289529791518936
000310 7b 7f f7 c2 16 0f ae bf 51 26 b6 2c e8 98 de bf
       -0.05870886926618276 -0.4780826985012015
000320 3f c4 78 fc 36 7a dc 3f 7f 7c 6e 4c 94 0a c1 bf
       0.44495939879840657 -0.13313535434733478
000330 aa e0 d2 a6 d3 11 d7 bf 29 20 ba b5 13 7d e0 bf
       -0.36046305934315603 -0.51526818746152
000340 dd ba 05 fa 4f 0b d2 3f 05 65 b1 9e 75 c8 c5 bf
       0.28194045463798806 -0.17018003700903975
000350 0a 84 93 71 69 3e b5 3f ed 59 0b 4f 51 83 d1 bf
       0.08298357985360397 -0.2736399909894363
000360 bd ec 04 87 1e fe d2 bf c4 7e b5 0c 41 43 c7 bf
       -0.2967602079913368 -0.18173993225626905
000370 33 5e c0 07 f2 6a d2 3f 74 5f 6a 9c 43 ec b8 bf
       0.2877774310777312 -0.09735510414827592
000380 03 e6 b5 c3 b2 f6 cc 3f 1b f1 4d 0f 3d 36 e1 bf
       0.22627863460711248 -0.537870912448429
000390 fb 13 35 c2 0d f4 dd 3f fd 99 5b f3 9e 9c b8 bf
       0.4680208584362046 -0.09613984528878201
0003a0 0b 58 39 5e a2 26 e0 bf b5 91 d7 fa 1d 6b e0 3f
       -0.5047160950005048 0.5130758189448473
0003b0 52 ea 54 74 0f 85 dd bf 68 09 d3 dc 62 2e c7 bf
       -0.4612463604022753 -0.18110309393348278
0003c0 a6 24 cf 78 f8 f4 c4 3f 9d 5b 19 fe 07 b9 be bf
       0.16372590922245428 -0.12001085237112226
0003d0 ab 45 28 0c 55 f9 bb bf a9 6e 87 50 9b df ca bf
       -0.10927325770196343 -0.2099489348610082
0003e0 75 94 45 9c 38 4c df 3f ee 70 e7 5b c3 97 e1 bf
       0.48902716885488157 -0.549775771618014
0003f0 f9 2f 66 18 48 24 d9 3f cd 60 d4 94 4b 61 ae 3f
       0.3928394544861927 0.05933605376975635
000400 b4 26 94 fb 4c 1c bf 3f ea 28 27 92 a1 4f c4 bf
       0.1215255846219872 -0.15868014942527192
000410 a4 31 aa 32 ee 95 e5 bf 00 3e fc 35 38 16 ae bf
       -0.6745520581767335 -0.058763271894459734
000420 35 42 31 10 ea bc cd bf ac 34 19 24 a0 5e ec bf
       -0.2323277072014364 -0.8865509705589338
000430 f0 54 59 0c 8b 30 e2 3f 24 cf 08 2a 34 80 bc bf
       0.5684256783667063 -0.11133123422842722
000440 fa 56 8b 32 0c f1 d1 3f 3f 8b 77 b0 7f 99 b1 bf
       0.280337380752243 -0.06874845560336683
000450 b5 a3 e3 b6 15 b2 ee 3f 43 cb c0 66 42 ce e5 bf
       0.9592388698630346 -0.6814281470200075
000460 9a d6 99 02 be 6a e2 bf 15 09 de e5 ad b6 e6 bf
       -0.5755300570296698 -0.709799717864629
000470 03 f3 d4 2f 16 28 ca 3f 1d f1 93 ad 2c 88 d3 bf
       0.20434834800280308 -0.3051864333244952
000480 56 ec cd 10 18 38 c3 3f ea 70 f2 20 bc d9 d6 bf
       0.1501493532231019 -0.35703948228343896
000490 2f 54 be 25 02 31 c3 bf 82 f6 e9 e7 d7 d9 c5 3f
       -0.14993311732237788 0.17071055244371186
0004a0 46 0e df 68 c9 0c b5 bf 32 33 f1 76 60 75 d7 3f
       -0.08222636041960482 0.366539112238388
0004b0 0c bd 6e a1 92 81 9d 3f 1a f4 ad 82 db 26 c7 3f
       0.028814593413412345 0.18087333565554858
0004c0 f7 b8 25 41 e0 d6 bc 3f a0 ff 87 b9 4d 06 e2 bf
       0.11265374746810496 -0.5632694839150538
0004d0 fc f6 51 ea 22 37 7a bf 26 80 7c ff 3a 75 c4 bf
       -0.006400238407079813 -0.15982758974951244
0004e0 dd 11 aa 97 b7 5b d5 3f 41 06 83 c3 38 5f e2 bf
       0.3337229710671446 -0.5741237467374917
0004f0 98 fc 29 5c a4 d6 e4 3f 65 40 17 e4 08 8f 90 bf
       0.6512014198377925 -0.016170634194907402
000500 45 f8 d9 91 10 76 d8 bf 4d fd 89 05 d3 95 e0 3f
       -0.38220609896950847 0.518289099520112
000510 2a 55 25 57 c5 96 c5 3f c2 53 02 b7 1b 75 ac bf
       0.16866366152923123 -0.05558096512792289
000520 ca b7 f5 aa 59 76 aa bf 90 03 58 72 fd ff d2 3f
       -0.05168419086372429 0.29687439123522896
000530 0b b9 f9 b8 a8 5c bf bf 7d b4 87 5d ee 9d c1 3f
       -0.12250761524203228 0.13763217512988382
000540 60 7d 6c f0 fe de d0 3f 73 a3 08 8f 74 cd da bf
       0.2636105869186931 -0.41878999679698053
000550 d4 82 40 d3 6a 1b d5 bf 25 d3 dd f7 d9 4e d0 bf
       -0.32979841833188783 -0.25481270986283483
000560 65 ed 52 28 14 61 b6 3f 68 30 19 cc 89 38 d4 3f
       0.08741880402060571 0.3159508221767795
000570 c7 cc 83 5e c6 84 d1 3f b6 6d 2d 3d 8e c3 b5 3f
       0.2737289355274694 0.0850151919707319
000580 6b 5c 18 4d 15 d0 a1 3f 11 48 ee 71 54 36 ab bf
       0.034790673886328026 -0.05314887896305732
000590 40 31 dc 27 bd 8d e4 bf 51 57 fe ee 93 19 b6 bf
       -0.6423021105306717 -0.08632778725435954
0005a0 2c 32 c5 a8 8e 43 ce 3f cc 71 a3 a5 e7 08 e1 bf
       0.23643668404328488 -0.5323370204092099
0005b0 a0 7f 81 7a f7 4f ba 3f 4e bc dc 78 16 b8 d1 bf
       0.10278269520631378 -0.2768608265204805
0005c0 26 03 ae ae 78 c1 d6 bf 90 f7 7e aa a4 1e c6 3f
       -0.3555585580689232 0.17281015706060687
0005d0 b2 a1 a5 dc 44 0d be 3f 69 01 ff 34 c2 e7 ab bf
       0.11738996874703991 -0.05450255295682178
0005e0 c7 f1 95 f6 90 79 b9 3f c9 36 1d 97 da 12 bb 3f
       0.09951120395812217 0.10575643719968321
0005f0 49 e5 52 00 58 57 d9 bf ef d0 4f 2d bd 06 d9 3f
       -0.39595603973028354 0.3910363142488355
000600 08 d7 4b 3f 5e fd b6 bf 5e d8 d7 9b 83 b1 c8 3f
       -0.08980359120672798 0.1929173003151758
000610 5c 9c 36 a4 81 b5 dd bf 4b 63 32 b0 9b 82 de bf
       -0.4642032722135292 -0.47672168928834385
000620 0e 29 61 06 38 58 af 3f 3a f6 0b 0a 57 22 af 3f
       0.06121993139147906 0.060808868385703055
000630 d5 8d c3 9b ed 27 d0 bf 6d e4 12 8e eb 55 d5 3f
       -0.25243702136341756 0.3333691489638742
000640 ed 7b 10 89 de 4f cd 3f f9 3c 1f 20 b6 33 ce bf
       0.228999916959736 -0.23595310753305634
000650 fe b7 1e e0 ac e2 bf 3f 3f 94 fe cf 7d 0f de bf
       0.12455254050902906 -0.46969552337606396
000660 7f c3 c8 b5 b9 13 d4 3f 84 0c d7 57 70 4c c4 3f
       0.3137039447056437 0.15858272828163333
000670 11 fb 38 22 50 6a e0 3f f1 21 8a a1 7e 00 cd 3f
       0.5129776638421807 0.22657759559321236
000680 45 38 3f ee 55 f1 ce 3f 34 ed f1 27 39 d0 c5 bf
       0.24173998006011935 -0.17041696978035648
000690 2c a7 97 06 c0 83 7b bf 3c 57 51 73 77 d0 e0 bf
       -0.006717443562118491 -0.5254475834178503
0006a0 ba 3c 72 3c 1c 7a c3 bf 6d 2d 1c f0 69 3b ce 3f
       -0.15216401053883094 0.23618816589474126
0006b0 94 6c 4b f4 71 27 e9 bf 8d d9 ef a5 f1 0c e3 3f
       -0.7860650798205762 0.5953300705867136
0006c0 b3 b2 2c 4e 45 59 ee bf 5c ca e7 f4 9b da db 3f
       -0.9483973051879587 0.43521784702821775
0006d0 4c 1b 2e 39 cc 6b b9 3f a3 e2 10 00 c7 90 d3 bf
       0.0993011130905021 -0.3057115078586696
0006e0 43 f4 70 01 68 e4 a3 bf 1f 5c 46 85 1c 98 ec bf
       -0.03885197656243424 -0.8935682871841698
0006f0 cd 52 a3 46 5a 14 de 3f a7 b5 64 7a e1 f7 d1 3f
       0.4699922265838666 0.28075444176178127
000700 b3 b4 43 31 1f ae de 3f e3 9e 6d 65 f3 3e e8 bf
       0.4793775540445708 -0.7576844197291986
000710 10 fc 48 4d 78 d2 d3 3f 9c c7 a8 6a 67 7b c9 bf
       0.30972106501934693 -0.19907849033330371
000720 f1 d2 5d 92 58 27 95 bf 22 22 aa 49 9a a9 d3 3f
       -0.020657905515196032 0.30722672647292104
000730 2c 9b 0a 5a c9 c4 cd 3f 65 69 60 04 5d 6d d9 bf
       0.23256794830850802 -0.39730000903514046
000740 e9 cb 8d e5 6f 24 e2 bf f5 f6 25 4b 6c 9d d0 3f
       -0.5669478877520052 0.25960833872510075
000750 e2 72 a9 79 1c 20 c2 3f 4b 2f f2 7c 38 8d d7 bf
       0.1416049570133487 -0.3679944248367419
000760 06 37 a9 be 23 00 e4 3f c1 b0 2a ba f6 a8 d6 3f
       0.6250170444343162 0.3540627306017648
000770 e4 de 01 fa 21 0f e6 3f d7 50 e7 a8 26 89 af bf
       0.6893472559886189 -0.06159325420199629
000780 27 43 9b 2a 08 d5 db 3f cb c7 e8 ce 1c 8a c9 bf
       0.43487743531027195 -0.19952735999100776
000790 c2 eb 98 e1 9f 08 d7 bf b1 57 61 db 53 5c bd bf
       -0.35990139990797954 -0.11469005685770985
0007a0 9c 1e 8e f7 de 1c e2 3f 90 66 4c a3 1c 4d d1 bf
       0.5660242877065289 -0.2703315348349884
0007b0 46 a1 cd 07 0c de d4 3f f3 93 32 a6 ba 3b a8 3f
       0.32605267297778473 0.04733069685725146
0007c0 42 04 89 07 a7 bb ce bf 43 56 54 70 07 54 e7 bf
       -0.2401016985695908 -0.7290074533399963
0007d0 48 96 6c eb fe a4 e7 bf da 93 2e 02 07 08 bb bf
       -0.7388910863998683 -0.10559123805303675
0007e0 fa 1e 35 26 46 f2 b8 bf 3b b1 df cc 02 78 cd bf
       -0.097446808174137 -0.23022494319537565
0007f0 0a ac 13 51 95 89 c8 3f 93 9f a4 ee d7 18 e0 bf
       0.19169870814161555 -0.5030326519963516

bias_1 f8 [1, 32]
000000 f1 d3 a4 3c 4d 76 82 3f d7 83 b7 ae b2 a8 98 3f
       0.009014705098346428 0.024081031717176984
000010 6d de 3e ed a5 9a c2 3f 54 0a ee 6b fe d5 ae 3f
       0.14534448704010874 0.060226393389730376
000020 e4 d6 6a 34 03 4a b0 3f 4e 10 1a d7 e0 be b5 3f
       0.06362934140892268 0.08494382144459786
000030 cf 8b 1c 6d dc f6 b0 bf d0 f9 44 34 9b ea c0 3f
       -0.0662668005357283 0.13215961506098362
000040 7c 46 4e 02 28 30 a3 bf 1a 1f e9 a1 a4 c6 a1 bf
       -0.03747677829882165 -0.034718651546937276
000050 fa 29 20 96 1e 5d 5e bf 2a a3 b3 c1 5f 03 bb 3f
       -0.0018532561011875824 0.10552023390813461
000060 de d0 e0 96 c9 c9 91 3f b1 5e 5d cc d3 b9 93 3f
       0.01737132056605694 0.019263562534745208
000070 f5 dc 23 dd ad c5 84 bf 59 10 01 b2 8d 83 a4 bf
       -0.010142668067131025 -0.04006617353346149
000080 c8 bd cf f2 98 04 83 bf 41 bd be dc 50 92 bd 3f
       -0.009286112699526408 0.115513852970925
000090 48 d2 60 23 b0 ba b6 bf 42 87 68 50 7e 28 72 3f
       -0.08878613342023656 0.004433148779328823
0000a0 a2 e1 cd f2 b9 29 b0 3f 77 f7 71 73 b3 b1 ba bf
       0.06313669374310973 -0.10427400177465339
0000b0 75 9f 74 58 69 ca c3 3f 39 b9 fd 9b 03 12 9f 3f
       0.1546146089469819 0.030342155834142324
0000c0 75 4e 42 f5 ee 2a b6 3f 03 6a d5 f4 43 7f a7 bf
       0.08659261214989462 -0.04589283336345675
0000d0 5b d2 b2 f9 cd ac a6 3f 57 10 71 2e 31 65 92 3f
       0.04428714440419831 0.017964142283986764
0000e0 40 ee da 7f 4f 5b 92 3f 75 77 71 04 40 5e ba bf
       0.017926447085058195 -0.1030006419036605
0000f0 9f c5 49 0b 60 3d a9 bf 6f 23 b8 8c 8b 0d 86 bf
       -0.04929638040347161 -0.010768022758399913

weight_2 f8 [32, 10]
000000 c0 64 6d cd 93 96 e4 3f 90 e4 f4 5c dc e4 db bf
       0.6433810245754543 -0.4358435542849941
000010 0e 02 e7 0a d8 46 c1 3f 07 5b c2 f6 61 48 d6 bf
       0.134974484752107 -0.34816788766458767
000020 ac 36 f4 67 33 ea a8 bf a4 40 30 96 d2 68 d2 3f
       -0.04866181034058789 0.2876478640255391
000030 cc da 10 ed c0 10 ce bf 44 1c 00 17 ed 28 d8 bf
       -0.23488627982597732 -0.37749793287406797
000040 1c 92 ff 35 b7 c7 dd bf df 29 ef eb fc 8a c6 3f
       -0.465314676983583 0.1761165763876553
000050 67 b0 a3 7b a0 19 df bf b1 df c4 ae 77 6b ee bf
       -0.4859391410270803 -0.9506185925920275
000060 13 6e b2 0d ab 55 e6 bf 49 42 63 68 b1 be d5 bf
       -0.6979575412291886 -0.3397639769946506
000070 b0 e6 18 a2 27 21 e7 bf 9f 60 85 30 dd 15 d6 3f
       -0.7227972188913636 0.3450844739759393
000080 6f 02 c9 49 f2 cd e7 3f 83 17 6e bd c1 94 e5 bf
       0.7438899460904177 -0.67440878866249
000090 8b ad 6d 83 60 ee c7 3f 86 5c 5b 17 2d f7 e1 bf
       0.18696218888667845 -0.5614228683651994
0000a0 68 6f 14 0c 31 01 d5 3f 30 12 66 a9 8d d1 e9 bf
       0.3281977289168396 -0.8068302448815015
0000b0 2d ab e9 34 f3 8d dd bf b8 21 f6 76 e6 16 cc bf
       -0.4617889420248272 -0.21944886025108956
0000c0 fb 5c 32 78 17 62 b1 3f ca d0 35 b7 48 98 e6 bf
       0.06790301022043714 -0.7060893610310128
0000d0 b9 f7 01 1c 22 42 e8 bf 77 bf a4 39 86 c2 bd 3f
       -0.7580729052567597 0.11624945552170894
0000e0 fb 39 09 5a ba 59 d7 3f b0 3c 9f 51 6c 4e e6 3f
       0.36485155861456037 0.6970731348209451
0000f0 de 5f 3f ee 3c 41 e8 bf ab 62 eb 08 2c 6c d0 3f
       -0.7579636243126477 0.25660229559938824
000100 f8 55 04 69 14 be f3 bf bd a9 10 2e 91 ee d1 3f
       -1.2339061834549039 0.28018598078292795
000110 58 95 ba e2 e3 7a d0 3f e5 81 d6 71 e5 82 bc bf
       0.2575006212376443 -0.11137231854673464
000120 2f 9e b4 b1 24 1f f2 bf 86 c9 54 32 b2 46 d4 3f
       -1.13260335365511 0.31681494631916285
000130 88 94 c9 7b cf a8 de bf a3 f6 b5 4d b1 04 be 3f
       -0.4790533741818952 0.11725910327182958
000140 87 65 98 2f d2 58 d2 3f ea 61 96 bd 2e b8 e5 bf
       0.2866712059781879 -0.6787332251433871
000150 0a 91 26 b1 b7 af cb 3f c8 42 99 36 97 b9 d2 bf
       0.2162999739640628 -0.29257755596067314
000160 9c 04 85 3e 3b a1 bf bf 86 b7 61 f8 71 25 c4 bf
       -0.12355394626958333 -0.15739273670208948
000170 e9 27 9c bf d1 d4 e2 bf e4 24 70 3e cb 7c de bf
       -0.5884789221174717 -0.4763668164965351
000180 a6 70 7c f8 97 2f ec 3f be 52 a4 92 50 2d eb bf
       0.8808097699398061 -0.8492815841769568
000190 a5 54 d2 62 9b ca d3 3f b1 c2 93 37 69 e9 e3 bf
       0.3092411484770515 -0.6222425542346938
0001a0 a0 0f 01 41 da 07 c6 bf 9b ad f0 33 80 b0 cd bf
       -0.17211464094191076 -0.23194887672557915
0001b0 fb 77 57 10 2c 9b b6 3f 8b bd 36 a5 e7 2c ee bf
       0.08830523871390021 -0.9429815508682834
0001c0 10 9a aa de ec 49 e1 3f f2 d3 88 a1 19 bd e9 bf
       0.5402740811303506 -0.8043335108728782
0001d0 5b eb 73 0b d9 17 e5 3f d2 73 b5 73 06 f3 e2 bf
       0.659161112183351 -0.5921661624848815
0001e0 d5 ea 65 b1 e4 11 b5 3f ab 7b 03 ea 4b ef e0 bf
       0.08230428057678847 -0.5292110033586729
0001f0 69 fe 37 c5 1c d2 b8 bf 0d 7b 04 39 f8 1e e1 3f
       -0.09695606055174157 0.535030471193609
000200 54 a6 58 c7 b2 0b db bf 30 71 20 c6 e9 70 d9 3f
       -0.4225890108815282 0.39751667354882425
000210 44 0c ed 66 bf 28 c1 bf 34 af a0 20 57 ed ce bf
       -0.13405602002794315 -0.2416180524172603
000220 82 7d 6d 18 18 81 e2 bf 5e 62 8e 5e 1b 67 e5 bf
       -0.578258559904427 -0.6688362929153973
000230 6c f1 51 70 47 cd ed bf 69 49 2f 97 41 8f db 3f
       -0.9313084787132033 0.4306186653531286
000240 39 1a c9 0d 49 c7 d8 3f 58 5b bd 92 98 b4 e6 bf
       0.38716341348882427 -0.7095454088219908
000250 f5 a6 b3 33 18 2b e2 3f 67 22 cf af ad af c3 3f
       0.5677605638313411 0.15379878124646781
000260 32 85 0c 0e a4 61 5c 3f 7b d8 61 b8 9c 30 e6 bf
       0.0017322637651847159 -0.6934341050353078
000270 97 55 28 35 a9 74 df 3f 20 cb 5c 83 46 a5 d4 3f
       0.4914954203717001 0.322587612422625
000280 3a 13 65 fd 4d ad e1 bf c8 1f c3 b0 2e a2 bd 3f
       -0.5524053525083226 0.11575595679744233
000290 2f 27 7e 9a c7 12 d5 3f 9c 09 96 e5 f3 17 e8 3f
       0.32927122199235986 0.7529239162543493
0002a0 72 64 82 d4 af 8d ed bf e7 a7 a5 e8 9c 81 c0 3f
       -0.9235457563946865 0.12895547256203985
0002b0 66 7b 60 9c 88 88 b5 bf ec 91 da 82 07 be d8 bf
       -0.08411458795351975 -0.38659847048464147
0002c0 43 c6 b1 6e b1 6d b3 bf 58 a8 17 c4 56 75 d5 bf
       -0.07589253380299348 -0.3352867999043432
0002d0 1c aa ab c8 01 9c d6 3f b4 35 cc 22 16 95 e4 bf
       0.3532719096826058 -0.6431990317957372
0002e0 8b 19 7c cf 44 01 e0 bf aa c8 53 ce 3a b5 e8 bf
       -0.5001548817097484 -0.7721227674321842
0002f0 43 f7 85 2f 55 d5 ed bf 7f 52 ea 66 01 d7 e6 3f
       -0.9322915962399992 0.7137457857193822
000300 64 7a e1 de 97 cd d0 bf 91 ce b1 5f f6 ac b7 3f
       -0.2625484158105904 0.09248294674199033
000310 be 62 1e 3f 53 3e bb bf 3a 5d 97 df 31 67 e6 bf
       -0.10641975680335755 -0.7000970236794395
000320 a1 93 8d 1e 8d 5e b6 bf 03 a6 3a dc 08 64 cc 3f
       -0.08738023754047088 0.22180281403898058
000330 b2 50 db 6d ec 61 c6 3f 47 d2 86 d3 bf 29 cb 3f
       0.17486338962647135 0.2122115881771995
000340 59 11 28 2e 04 7a e6 bf 50 9f f8 9f fa 10 b8 bf
       -0.702394571446841 -0.09400907903238687
000350 17 64 6f 92 cc 81 dd bf 2c 50 28 f4 11 49 d9 bf
       -0.4610473089247206 -0.3950848469114614
000360 c3 c9 e0 58 77 97 bd bf 2f f3 5f 0f d6 7d cc bf
       -0.11559244079470603 -0.2225902152130401
000370 9f f4 4c 57 dd 34 df bf d8 8a 67 07 fb d9 e2 3f
       -0.4876015999360081 0.5891089577310948
000380 b6 f2 80 6e 20 2c e1 bf 22 8b 59 a4 6f bf dd bf
       -0.5366365583682497 -0.4648093323686898
000390 91 50 ef cf 93 9c d9 bf e2 1d 8c da 6c d1 c6 bf
       -0.4001817255605227 -0.17826615020042796
0003a0 59 51 21 2b 5b 3d e0 bf e2 86 4d 88 a2 c4 bd bf
       -0.5074897615800565 -0.11628166034418144
0003b0 ce ae 02 5b 06 ca e5 3f 63 fc bf fe 55 52 c0 bf
       0.680911233668178 -0.12751269282304908
0003c0 64 49 f3 d5 ee 98 b7 3f 70 36 8d e4 dc 76 e3 3f
       0.09217732165715159 0.6082596267603559
0003d0 64 53 a2 94 7d 94 da bf 8d bb f0 43 df 46 c7 bf
       -0.41531314387366636 -0.18185034577751616
0003e0 71 12 e1 07 a2 6b d2 bf 9a 0e fe 45 c2 af d4 bf
       -0.2878193928666298 -0.32322747073360747
0003f0 e2 1a c2 5c e5 c2 d7 3f 36 08 43 16 88 81 da bf
       0.37127050455494104 -0.4141559808159657
000400 67 bb bb 52 11 41 ee bf 24 3e 45 f6 dc d9 bb bf
       -0.9454428306470221 -0.10879307758772733
000410 24 39 88 83 52 7f e0 3f 7b 30 6b 28 7f 90 e5 3f
       0.5155422753321415 0.6738887586048031
000420 b6 cf 8f 69 3b 18 d5 bf 6c e3 a4 c3 6c 71 85 bf
       -0.32960400875822005 -0.010470247002204856
000430 bb 18 df 00 f2 4a d4 bf 30 48 06 9c ae 84 d7 bf
       -0.3170742996702633 -0.36747327076693903
000440 f3 72 d3 33 1d 9f e2 3f bf e3 a1 dc 13 ae c2 3f
       0.5819231044984846 0.1459374263102102
000450 08 93 96 fc 9f c9 b8 3f 4b 6d 22 9d cb 40 ba bf
       0.09682655255035055 -0.10255119882861156
000460 2c 3c f1 96 14 8c e1 3f 10 52 80 c2 ab f9 75 bf
       0.5483496616451524 -0.005365057884791927
000470 99 da 0a f0 ff 2a e4 3f 6a e1 63 56 b5 c9 d6 bf
       0.6302489937141501 -0.35606130062617203
000480 71 88 de 8e e0 54 e1 3f cd 11 25 58 ca e4 ca bf
       0.5416109838881892 -0.21010712913461163
000490 78 06 85 68 0e 94 d3 3f 5a 3c dc 6f 0e 72 ee bf
       0.3059116383265983 -0.9514228997012524
0004a0 d8 d2 e8 03 38 b3 cd bf 7b 36 7f 96 d3 b8 85 bf
       -0.23203182402507738 -0.010606434850980442
0004b0 9c cc 8d 66 5b 36 a7 3f 28 8c 75 3f dc 9b e8 bf
       0.04533658625487044 -0.7690259208142196
0004c0 01 45 e1 44 1d 4e b7 bf 35 94 ea 82 88 fd ae 3f
       -0.09103568011893871 0.06052805517291696
0004d0 c0 4f 6d a4 4f c0 f5 3f c6 d9 43 8d b4 19 d7 bf
       1.359450952809297 -0.36094392581381063
0004e0 32 6f 6e 82 72 22 95 bf c5 51 3d a0 3c a2 b2 3f
       -0.020639218531513133 0.07278803741548419
0004f0 25 56 12 d9 f6 c2 cf bf d6 72 2d 8e 6e 8e ca bf
       -0.24813733672333274 -0.20747167532217387
000500 e7 41 fe e3 96 c6 e1 3f bf e3 bd 6e 93 13 d8 bf
       0.5554918721191456 -0.3761948186361756
000510 9c 63 a3 da 07 e4 dd 3f 77 fa 2d ff 21 1a ca bf
       0.46704288817778106 -0.20392250976506762
000520 7c 6e b8 b9 af 18 df bf 83 16 e1 80 53 81 95 bf
       -0.48588173996697726 -0.021001152745404383
000530 00 81 8e ba 07 a2 ce 3f c5 87 e9 7d 1e 06 e0 3f
       0.2393197689934894 0.5007469615195467
000540 7f d6 32 08 1c 7f e0 bf 5b 14 1a 8f 55 e6 df bf
       -0.5155162963989851 -0.4984334847907285
000550 7d 1a e9 8a 3b 5a e0 bf ae f5 59 e5 5e 64 d5 3f
       -0.5110147202584155 0.33425114057157657
000560 13 72 56 5f de a6 f0 bf 24 5d 2a 19 98 e0 d9 bf
       -1.0407394146087696 -0.4043331380612065
000570 43 d0 8a 8f b2 ad d4 bf 57 4d 0c 74 2a c1 dc 3f
       -0.3231016542224589 0.44928990681474573
000580 de c5 81 ed 64 01 b1 bf 5f 23 10 57 4b b6 e7 bf
       -0.06642752455243037 -0.7410027218294138
000590 75 b4 f2 af 1e ca c2 3f 28 f5 db a6 af 1d d1 3f
       0.14679320899213946 0.2674368981823414
0005a0 1e 3c 73 a8 b1 66 da bf dc f1 fa e3 7e 01 e5 3f
       -0.4125179429074154 0.6564325764407459
0005b0 0b d4 c6 75 ab 4f d8 3f 06 7b 76 a4 d3 59 d4 bf
       0.3798626566088507 -0.31798258839437243
0005c0 58 36 04 02 11 49 dd bf 3c 10 6a 7d 40 0f 89 3f
       -0.45758462140006406 0.012236121966687212
0005d0 05 3c a8 aa d5 28 c2 bf 14 e6 1a 8f 3f 72 ee 3f
       -0.14187117417210984 0.9514463229199372
0005e0 25 fe 81 71 8e 2b d5 bf 3b 70 1f bf 5b ff d7 bf
       -0.33078347286934423 -0.3749608389314322
0005f0 51 44 26 54 9a 89 ce bf 32 00 30 d0 5a cc e4 bf
       -0.23857430561887097 -0.6499456468736808
000600 fa 4d e7 57 8a 8c a6 3f ac ac bd 0c f5 85 93 3f
       0.04404098818818265 0.019065693762439537
000610 11 8d 4e 70 51 2c f4 bf 4c b6 69 e5 6b b2 e7 bf
       -1.2608198534952104 -0.7405299645158236
000620 b0 5a 4e ae 01 3b e0 bf d1 67 e5 35 4e e3 e3 3f
       -0.5072029499450164 0.6214972546251777
000630 43 3c 84 bc f9 dd d4 bf 98 47 0c 82 ff 7b e9 3f
       -0.3260483113271599 0.7963864841460575
000640 4c a1 bc 50 36 46 ea 3f bf 09 e7 c6 75 d3 e5 bf
       0.8210708214656193 -0.6820629963697725
000650 ec a1 45 29 50 43 e5 bf 6f 22 c3 7e f4 73 de bf
       -0.6644669347852505 -0.4758273351585904
000660 d3 a5 20 cc 9b 6d e2 bf a5 df fa a1 7e 9f d4 3f
       -0.5758799540391756 0.3222347814403242
000670 a6 29 32 61 8d 35 d4 3f f9 ca 24 15 fe 78 d1 3f
       0.31576857082168386 0.2730097967607175
000680 e8 1f f8 3d d3 33 e1 bf 73 38 55 d3 7a 64 b6 3f
       -0.5375763140045793 0.087470699877686
000690 12 a3 c1 92 42 f8 e0 bf d0 cf 49 71 71 1f ef bf
       -0.5303051821075278 -0.9725882733023301
0006a0 5f 4e 9c af 7e 12 e2 3f a3 af 82 86 ce 38 e4 3f
       0.5647576742071115 0.6319344164999062
0006b0 15 1b 94 e7 4e 2a d5 bf c4 80 13 9a 45 a7 c5 bf
       -0.3307072888859904 -0.16916723273516798
0006c0 00 d2 a5 31 cd 0e e6 bf a5 8a ef f7 b7 1c e2 3f
       -0.6893068284685455 0.5660056917661974
0006d0 74 43 40 e3 24 1a ab 3f dd 60 d8 24 b4 a4 ee bf
       0.05293383859692016 -0.9576054305680618
0006e0 98 07 ac 85 fa 4e a2 3f 36 5a 0a 5b d1 48 ee bf
       0.03575880891550226 -0.9463888910420966
0006f0 80 5a a1 61 33 08 e6 bf eb 32 88 de 34 50 df 3f
       -0.6885010630456492 0.48927041751521355
000700 fc 81 b5 a4 bb 42 b1 bf 0a a2 a1 16 33 ae be 3f
       -0.0674245144960039 0.11984557440303703
000710 48 8a f2 eb f3 01 e6 bf 7e 51 c0 e9 b2 e1 61 3f
       -0.6877383812282654 0.002182816924696406
000720 d2 6e 22 75 ef 92 ca 3f 7a 51 44 52 c1 3f e5 3f
       0.20760911197145632 0.6640326124930163
000730 53 77 e8 9c 02 c5 e4 bf c5 f8 d8 fe e0 cc f1 bf
       -0.6490490975008733 -1.1125192599279654
000740 70 95 2b d5 6f b8 d2 3f 26 ba d8 b7 48 6e d2 bf
       0.2925071317425454 -0.2879812045456752
000750 cb 5a 4a 16 0e 01 e0 3f 40 5c cb 6b 87 48 dc bf
       0.5001287875519095 -0.44192681814951484
000760 b2 8b 5d d1 30 14 b0 bf 5f 71 3e 7a e7 f3 d8 3f
       -0.06280808555088305 0.38988673150904235
000770 d3 a8 d3 53 f6 16 e6 bf 0e 8a ca 57 7a e3 b8 bf
       -0.6903030049554907 -0.0972210373243245
000780 50 b2 72 bd be 13 de bf 22 c7 23 6c de f9 e7 bf
       -0.46995514393600946 -0.7492515670876154
000790 7a 2d 15 b3 04 a7 dc bf 20 d8 56 ee fa 0d ce 3f
       -0.4476939915518511 0.23480164182336782
0007a0 9f 00 e9 17 c8 b6 e6 bf a6 bc 41 73 f7 4d d6 3f
       -0.7098122088427948 0.34850870376153364
0007b0 4b e9 36 d1 84 9f d5 bf bc ad 72 10 80 eb d6 bf
       -0.33786125594237565 -0.3581237946152347
0007c0 3e c5 97 f4 ad 82 dd 3f 44 ff a9 a1 94 3c d6 bf
       0.46110104452153056 -0.3474475458860875
0007d0 2f df e5 46 8d 0e e3 bf be dd 06 f6 65 66 d1 3f
       -0.5955263504720046 0.27187489534432163
0007e0 a7 1d 5a 96 2b 10 c4 3f a5 84 41 4b 46 4e bc bf
       0.15674347726256352 -0.11056937539389596
0007f0 52 5d 4a f4 88 a0 dd 3f 81 a8 c7 46 d9 22 d6 bf
       0.4629232774400026 -0.34587699806309763

bias_2 f8 [1, 10]
000000 82 02 71 b5 f5 e9 51 3f e8 b1 d3 8b 65 55 66 3f
       0.0010933780192915747 0.0027262671779821786
000010 0c 83 96 c1 57 e1 a0 3f 14 cb a8 17 2c 12 ba bf
       0.03296922910818098 -0.10183978631611651
000020 e7 cf e5 aa f8 47 ac bf e9 0d 3c a8 7e 89 c3 bf
       -0.05523659788278206 -0.15263350691394287
000030 c7 a2 35 58 b8 7c b1 bf fb 8b 30 ac b2 60 b0 bf
       -0.06830932763626683 -0.06397549346779378
000040 81 de 8d 9a 5a eb cb 3f b9 5a eb 85 dd 9d be 3f
       0.2181199316653313 0.11959633368983703

loss_history f4 [5]
000000 08 00 23 3f cc 0b 9d 3e a6 ae 7e 3e 92 57 60 3e
       0.6367192 0.30673063 0.2487131 0.21908405
000010 4f a6 4d 3e
       0.20082973

accuracy_history f4 [5]
000000 8c a5 a0 42 fd 22 b6 42 ef ae b9 42 e5 57 bb 42
       80.32333 91.06834 92.84167 93.67167
000010 55 55 bc 42
       94.166664
