checkpoints/model_epoch_0160.npz (npz, 383535 bytes, 10 tensors)

weight_0 f8 [784, 64]
0	0x0000000021e5124b	2.809556444e-315
1	0x000000000e517a7f	1.18684844e-315
2	0x000000000dfdcc53	1.159753507e-315
3	0x000000001a30b44e	2.170921987e-315
4	0x00000000046e4c3d	3.67275264e-316
5	0x800000001dd10811	-2.47150585e-315
6	0x800000000becabc0	-9.8842694e-316
7	0x800000001f76a1b5	-2.60801613e-315
8	0x0000000003b9a6e1	3.0878376e-316
9	0x8000000021b1a0d8	-2.79289962e-315
10	0x0000000021f24b73	2.813838017e-315
11	0x8000000002f0601f	-2.43612303e-316
12	0x0000000020091a8d	2.65544244e-315
13	0x0000000004f44bed	4.10662844e-316
14	0x80000000211ab90c	-2.74403781e-315
15	0x800000000892c33d	-7.1064409e-316
16	0x0000000017ce89d0	1.973355817e-315
17	0x800000000e67289f	-1.193868285e-315
18	0x0000000013192721	1.583063013e-315
19	0x000000000296f08b	2.1465379e-316
20	0x00000000123ad668	1.511079343e-315
21	0x80000000144d3b11	-1.682815816e-315
22	0x0000000014272a71	1.670490736e-315
23	0x0000000011cf7497	1.47631e-315
24	0x0000000004729421	3.68661355e-316
25	0x00000000179248c1	1.95384608e-315
26	0x800000000f808609	-1.28497167e-315
27	0x80000000069c7e1f	-5.48013657e-316
28	0x00000000000a7e2f	3.397507e-318
29	0x0000000002ac3580	2.21540617e-316
30	0x0000000021c1d819	2.79815016e-315
31	0x000000000a95c65f	8.77400346e-316
32	0x80000000038b6b22	-2.93813814e-316
33	0x0000000008e2cbd6	7.36558233e-316
34	0x00000000031154aa	2.5428291e-316
35	0x800000001ccbff8e	-2.38698567e-315
36	0x00000000074233f5	6.01669137e-316
37	0x800000000da35b27	-1.13046919e-315
38	0x800000001897fefd	-2.038585985e-315
39	0x0000000021d3d773	2.803977573e-315
40	0x800000000dea8b61	-1.153519337e-315
41	0x800000001b04ec79	-2.23963669e-315
42	0x800000000cc1ee70	-1.05747874e-315
43	0x000000000d57c830	1.10599899e-315
44	0x000000001e827b68	2.528962715e-315
45	0x800000000ef36c45	-1.23928457e-315
46	0x000000001e902aa3	2.53339363e-315
47	0x000000001563665d	1.772884437e-315
48	0x800000000b8422fa	-9.545797e-316
49	0x000000001509ac11	1.74383142e-315
50	0x800000001fe3afd2	-2.643327183e-315
51	0x800000000a8e417f	-8.7496575e-316
52	0x8000000021e469ef	-2.8093435e-315
53	0x80000000038bd9b6	-2.93953674e-316
54	0x00000000014591d5	1.0541648e-316
55	0x800000000e5c07b8	-1.19026497e-315
56	0x800000000a989782	-8.78312445e-316
57	0x000000001411b151	1.66353793e-315
58	0x0000000022da9825	2.8890545e-315
59	0x80000000238323f8	-2.943628217e-315
60	0x80000000017c029f	-1.23043843e-316
61	0x8000000018ad7810	-2.04553873e-315
62	0x000000000218bc58	1.7379012e-316
63	0x800000000d2617f7	-1.08991035e-315
64	0x8000000008a717a4	-7.1722666e-316
65	0x000000001114eb6e	1.41591142e-315
66	0x80000000122bdd0c	-1.50623088e-315
67	0x8000000008aef116	-7.1976822e-316
68	0x800000001b52e4cb	-2.264882666e-315
69	0x800000001f882b34	-2.61369448e-315
70	0x800000000334a2a0	-2.65714196e-316
71	0x000000000a839c20	8.71518677e-316
72	0x000000000b8871f6	9.5597476e-316
73	0x800000001a9037b9	-2.20184834e-315
74	0x000000001c38b137	2.339289327e-315
75	0x8000000021465ed4	-2.7581705e-315
76	0x80000000230ae726	-2.904696387e-315
77	0x00000000162ba722	1.83772453e-315
78	0x80000000013bff53	-1.0231706e-316
79	0x000000001eee93af	2.563962834e-315
80	0x0000000005fc35b7	4.9611554e-316
81	0x0000000016856a53	1.866788797e-315
82	0x800000001004dbd7	-1.32782059e-315
83	0x000000002218d5e7	2.826317186e-315
84	0x800000001ebd1e2e	-2.54794846e-315
85	0x800000000181da45	-1.2493555e-316
86	0x8000000015e8c04f	-1.816062386e-315
87	0x8000000006659242	-5.3023063e-316
88	0x000000000d7802e7	1.11643456e-315
89	0x000000000ec6fd43	1.224897366e-315
90	0x8000000010a893d8	-1.38083123e-315
91	0x80000000025535d0	-1.93371207e-316
92	0x000000000837150b	6.80958797e-316
93	0x800000001496df26	-1.70666008e-315
94	0x000000001bb18f69	2.295534805e-315
95	0x000000001f124a93	2.575526836e-315
96	0x80000000215a3899	-2.76459796e-315
97	0x00000000026ac360	2.00349864e-316
98	0x800000002112ccb9	-2.74147237e-315
99	0x8000000014f5a941	-1.737352047e-315
100	0x8000000008629596	-6.95044387e-316
101	0x800000000aa3e348	-8.81969983e-316
102	0x00000000159f4de4	1.792280936e-315
103	0x800000000b2973b2	-9.25216824e-316
104	0x8000000000e49f48	-7.4025777e-317
105	0x000000001d86d147	2.44747603e-315
106	0x800000001e36d0d5	-2.504462657e-315
107	0x00000000151c2619	1.749814003e-315
108	0x800000001f613320	-2.601076655e-315
109	0x000000001521af66	1.751606616e-315
110	0x00000000128b9b33	1.537231518e-315
111	0x0000000011128172	1.41512979e-315
112	0x8000000016ce8a61	-1.890466073e-315
113	0x00000000162b90d7	1.837696335e-315
114	0x80000000220327b5	-2.819297254e-315
115	0x80000000016cb256	-1.18085434e-316
116	0x800000001e96bbe1	-2.53552008e-315
117	0x00000000242b4c06	2.998075743e-315
118	0x00000000219201f2	2.782661126e-315
119	0x000000001ea488f3	2.539988733e-315
120	0x00000000040da57c	3.3598043e-316
121	0x800000001fc130e6	-2.63215776e-315
122	0x000000000f8f5145	1.28976179e-315
123	0x000000001766e5a2	1.939797703e-315
124	0x000000001afd8b65	2.23724737e-315
125	0x8000000020c99aef	-2.717772663e-315
126	0x0000000012872d86	1.535797635e-315
127	0x80000000148d5759	-1.7035742e-315
128	0x0000000010ff8c68	1.408991626e-315
129	0x8000000004592c21	-3.60435044e-316
130	0x000000000ee14402	1.23340541e-315
131	0x0000000006fe166d	5.79614007e-316
132	0x0000000001ed93d7	1.59815884e-316
133	0x8000000008d08adf	-7.3064783e-316
134	0x0000000021a788f0	2.789631473e-315
135	0x800000001dc893ef	-2.468768637e-315
136	0x80000000097d745f	-7.8663519e-316
137	0x000000000a578ebb	8.57254937e-316
138	0x8000000001826021	-1.25104857e-316
139	0x800000000204322c	-1.6713954e-316
140	0x800000000a8946c2	-8.7335345e-316
141	0x0000000009c9f39f	8.1140424e-316
142	0x800000000534cb90	-4.31546895e-316
143	0x000000001400590c	1.65792184e-315
144	0x0000000021377f19	2.75335445e-315
145	0x800000001eb2882e	-2.54452083e-315
146	0x000000001b1efb0a	2.24807368e-315
147	0x000000001d41ab77	2.425086633e-315
148	0x800000000dcaa633	-1.14319195e-315
149	0x0000000000c70166	6.443615e-317
150	0x800000001e0d535d	-2.491028537e-315
151	0x000000000d94131f	1.12552122e-315
152	0x000000000ba00279	9.6360473e-316
153	0x8000000013752abb	-1.61285633e-315
154	0x00000000211dd2a5	2.74504156e-315
155	0x000000000b300a47	9.27350027e-316
156	0x8000000011c4ae49	-1.472821276e-315
157	0x800000000690a494	-5.44176807e-316
158	0x00000000042fa415	3.46987545e-316
159	0x8000000012b57380	-1.55078052e-315
160	0x8000000001dd722f	-1.5459266e-316
161	0x800000000fac1115	-1.29907054e-315
162	0x800000002042b4ed	-2.67409377e-315
163	0x800000001d7f72a6	-2.445089805e-315
164	0x0000000019638476	2.10448435e-315
165	0x800000001449ad1c	-1.681664895e-315
166	0x00000000026701a0	1.99133435e-316
167	0x8000000010b83c59	-1.385901216e-315
168	0x00000000147c9c74	1.69815716e-315
169	0x000000001ed384bb	2.55520157e-315
170	0x000000000d66a858	1.11081558e-315
171	0x8000000002c7ef73	-2.3051816e-316
172	0x80000000228f53d8	-2.8646838e-315
173	0x800000001481d3d8	-1.699846175e-315
174	0x00000000069dbdbd	5.4841791e-316
175	0x00000000072c875d	5.9465123e-316
176	0x800000000def0b57	-1.154976346e-315
177	0x800000000e5ace68	-1.18986869e-315
178	0x800000000bfcf233	-9.936967e-316
179	0x8000000008662c43	-6.96206335e-316
180	0x800000001e874e50	-2.530524634e-315
181	0x800000001c29567f	-2.334317723e-315
182	0x800000000d64ff66	-1.110278104e-315
183	0x800000000478c552	-3.7066632e-316
184	0x00000000000a7251	3.382497e-318
185	0x8000000011f246aa	-1.487584595e-315
186	0x800000000fb04cb1	-1.3004411e-315
187	0x80000000004a053d	-2.396715e-317
188	0x80000000206fefc4	-2.68873878e-315
189	0x00000000044e1790	3.5684733e-316
190	0x00000000091619f7	7.53170385e-316
191	0x00000000029214d7	2.13080745e-316
192	0x8000000022f6b1ff	-2.898153343e-315
193	0x800000001947cdef	-2.09551113e-315
194	0x800000000fde5c1d	-1.315354986e-315
195	0x800000001fab98d9	-2.62516584e-315
196	0x80000000020cbbea	-1.69904087e-316
197	0x800000001846c5a6	-2.0122864e-315
198	0x800000001b8bc85f	-2.283302797e-315
199	0x80000000158e9f3d	-1.78687938e-315
200	0x000000000807511f	6.65492823e-316
201	0x800000000c3e9bc2	-1.014957564e-315
202	0x8000000000961ec0	-4.860752e-317
203	0x000000001a5121d8	2.18142184e-315
204	0x000000001f2bc9da	2.58378259e-315
205	0x00000000054472aa	4.3661511e-316
206	0x800000000f69db83	-1.27763259e-315
207	0x000000001555cbf1	1.76847984e-315
208	0x0000000015f5ce56	1.82028941e-315
209	0x8000000017c1fa01	-1.969288437e-315
210	0x8000000018a197c0	-2.041693317e-315
211	0x0000000022f5068e	2.89761271e-315
212	0x000000001a5e2080	2.18562942e-315
213	0x8000000014165a41	-1.665046765e-315
214	0x800000001a8b19c1	-2.20019148e-315
215	0x000000001cdc6e7a	2.39230662e-315
216	0x8000000011e117e1	-1.482020976e-315
217	0x000000000e57723e	1.18878075e-315
218	0x000000001d52bb48	2.43061108e-315
219	0x0000000001fec17f	1.65378075e-316
220	0x00000000220d47de	2.82257584e-315
221	0x000000001c79fb75	2.360429636e-315
222	0x8000000000c84b3a	-6.485332e-317
223	0x800000000da0a0df	-1.129585997e-315
224	0x000000001caea4a1	2.37748073e-315
225	0x800000000c1f0881	-1.0047338e-315
226	0x800000000446b5b9	-3.54457047e-316
227	0x0000000005d85052	4.8449272e-316
228	0x8000000000f31c19	-7.8716718e-317
229	0x00000000194fa7ec	2.09805338e-315
230	0x800000002122c52d	-2.74664348e-315
231	0x8000000008eff831	-7.40823615e-316
232	0x800000000131e5f0	-9.904704e-317
233	0x00000000046a4f3a	3.6598388e-316
234	0x0000000011a9e6fa	1.464150627e-315
235	0x000000001ecade54	2.552400774e-315
236	0x800000001cee99e7	-2.39818978e-315
237	0x800000001200c73e	-1.492280294e-315
238	0x0000000007065252	5.8228009e-316
239	0x800000000aefc319	-9.06537383e-316
240	0x00000000026b1afa	2.00460664e-316
241	0x00000000229e9572	2.869623636e-315
242	0x0000000010ed19a7	1.40301825e-315
243	0x800000001a51f661	-2.181690657e-315
244	0x00000000187a4fe7	2.0289746e-315
245	0x000000000e38e91a	1.178893565e-315
246	0x000000001d7beded	2.443950563e-315
247	0x0000000007237b90	5.91722187e-316
248	0x000000000f8d95ee	1.289201053e-315
249	0x800000000de11c28	-1.150464544e-315
250	0x0000000015832e3c	1.783174753e-315
251	0x8000000018db2edf	-2.060340536e-315
252	0x800000000ef995ce	-1.241279847e-315
253	0x00000000036aa06e	2.83196126e-316
254	0x000000001e06d1c0	2.488921856e-315
255	0x000000000cc9e74a	1.060060026e-315

bias_0 f8 [1, 64]
0	0xbfb562a2913fd304	-0.08353630109906979
1	0xbfd91bb4978c0f54	-0.3923160057022319
2	0x3f92fb0abb3eabc7	0.01853577392436614
3	0xbf8cd5142a704255	-0.014078290505524263
4	0xbfd1702f3b18105a	-0.27247219820879354
5	0xbfec5c203a6eddfe	-0.8862458363791459
6	0x3f836065aab8db10	0.009461206696057128
7	0xbfe83244c5464e0b	-0.7561363080043874
8	0xbfe453ff462ed935	-0.6352535601388697
9	0xbfb479bb328b06bf	-0.07998247131311141
10	0x3fd8374f313cf78d	0.3783758145181018
11	0xbfd099a775ef4436	-0.25937830464414746
12	0xbfea31cafa36715c	-0.8185782324758679
13	0xbfd34f062dc84191	-0.301698250493268
14	0xbfe9927d90c27725	-0.799132139905599
15	0xbfeaf973a7307544	-0.8429506555000121
16	0x3fccaa8a07d4f6db	0.22395444281021679
17	0xbfe4e2bb9fa4c0f8	-0.6526773565329043
18	0xbfdce5590962041b	-0.4514982787732735
19	0x3f8ea42d37f8140a	0.014961579580822022
20	0xbfe0240c895ae9cb	-0.5044005091397649
21	0x3fdb117bcbff6c1c	0.42294211312918306
22	0xbfd038d172392b86	-0.25346790461178903
23	0xbfe7115f20388200	-0.7208705548583225
24	0x3fdc0b455f2e1d2c	0.4381879262441142
25	0xbfbf0a8bf10eab78	-0.121254679061776
26	0xbfbf2e7883fe1dc5	-0.12180283758617978
27	0x3fd24a1dcc647bee	0.2857737060566582
28	0x3fe04c54f164241c	0.5093178476973921
29	0xbfc3123b1c53507c	-0.14899386294439754
30	0xbf7388c870e26ee8	-0.004769118282776687
31	0xbfd48bcc4bdeeb59	-0.3210325947690556
32	0xbfe543000ca3f94a	-0.6644287344823081
33	0xbf909b8d4f96fbae	-0.016218383772635007
34	0xbfd262100b8f7af1	-0.287235270776292
35	0xbfea6e1e08285d8a	-0.8259420546846041
36	0xbfd2cb973ecb8e8a	-0.29367619640672926
37	0xbfdea2c1d68d2972	-0.47868390991484155
38	0xbfda307703d2c423	-0.40920806287164363
39	0xbfb0020472a7c85b	-0.0625307826919949
40	0xbfc34b4d75fbbe58	-0.15073555241495984
41	0xbfcbc8e6cd3aa433	-0.21706852932882867
42	0x3fb76397084b4a9f	0.09136337234967094
43	0xbfd0fa25d6784015	-0.26526781029042584
44	0xbfe8592188b98df8	-0.7608802481085482
45	0xbf9a2ffadaa6f26e	-0.025573653789012267
46	0x3f9e1642a8746cda	0.029381791621841603
47	0x3fcfa5eb497b952f	0.24725094879173912
48	0xbfebe808037df91e	-0.8720741337017761
49	0xbfe1996a8c87ac90	-0.5499775643087492
50	0xbfe306d173208668	-0.5945822952819073
51	0x3fd1916be82832d4	0.27450082465729264
52	0xbfcbaa33e4d819de	-0.2161316745188761
53	0x3fd6752d97223d7c	0.35090198287158336
54	0xbfdd17982cb470c6	-0.4545650898524055
55	0xbfecf3f3e72a6ef8	-0.904779387946717
56	0xbfe6af40c6241f67	-0.7088931913321915
57	0x3fcfdd8ab363fe29	0.2489484191828393
58	0xbfe68b5521a31871	-0.704508367249913
59	0xbfe7e5be79315cf6	-0.7467949263617857
60	0xbfa87970c42257e0	-0.04780151743140926
61	0x3fade141aefbf46e	0.05835919629132823
62	0x3fb3d720fb68d796	0.07750135553291523
63	0xbfd5259a596ad66d	-0.3304201005188137

weight_1 f8 [64, 32]
0	0xc01a20c2c9dc7650	-6.531993059235518
1	0x3fe3f4c45fbdee29	0.6236287946662219
2	0xc024c5fae9379f81	-10.386679924049306
3	0xbff80cf32f3ad382	-1.5031616063035647
4	0xc02016d150bf82ea	-8.044565699937682
5	0xc00e643afdb1b714	-3.7989406413897857
6	0xc00e9af7dc795132	-3.8256680702708303
7	0x3ff9e5e4e4930609	1.6186264923748033
8	0xbffd16475859dc12	-1.8179391337596411
9	0xc010ee23d55db906	-4.232558568807013
10	0x3fc327609f3787b6	0.14963920377982526
11	0x3f985551a7cbc742	0.023762966028648032
12	0x3ff2e12b17298b32	1.1799727349068232
13	0x3fef1549c38a1255	0.9713486498954561
14	0x3fdacaf82c119d7c	0.4186382704123941
15	0x3fe4ee52ee65a85a	0.6540922790711747
16	0xc00290fcb8aace9c	-2.3207945277334385
17	0xc0185c6850ce6757	-6.090241682622795
18	0x3ff136f23679c679	1.07591458587231
19	0xc000afcb68b94394	-2.0858371907747344
20	0xbff9606acb38bc67	-1.5860393465370863
21	0xbff9b80934d504a9	-1.607430654883766
22	0xc014395ef7bc014b	-5.056026335573118
23	0x3ff28391164c3fb6	1.1571207877168326
24	0xc01555eeb07a4c3c	-5.333918340172257
25	0x3ff19e5ce3ae4407	1.1011628049639073
26	0xbfc5390acdafc603	-0.1658032898263145
27	0x3fee91c345e8da28	0.9552933087750874
28	0xbffffd6408c1c27f	-1.9993629781785385
29	0xc017c8e6296d9cf1	-5.946190497699022
30	0xbfd46d4f808ebeea	-0.3191717868275946
31	0xbfe496c3cf4ac3f6	-0.6434039162323859
32	0x3fd4c832abf91ce3	0.32471911234138257
33	0xc008a89d136b8208	-3.0823308484252756
34	0xc01a318e7e9b8612	-6.548395136110701
35	0xc00ef21cfd489772	-3.868219355371303
36	0x3f989d31a67ebdaa	0.024037147318890874
37	0xc02181df0e0ebc62	-8.753654898928463
38	0x3fc84d9e3e44f8ed	0.18986871757983384
39	0xc008319bd2c5c226	-3.024222990665538
40	0xbf78ca0e51692b89	-0.0060520705506616
41	0x3fc0767564610439	0.12861506844822815
42	0xbfe5cb38b5976c69	-0.6810573145588822
43	0xc02864770db0806a	-12.196220805926902
44	0xc00bbc0645e61786	-3.4668088398784134
45	0x3fe349eba8eb43a8	0.6027735041808358
46	0xbfb1fe8608aae89f	-0.07028997146236059
47	0x3fcc57c890797614	0.22142893843094724
48	0x3fd498053253c249	0.32177858271373744
49	0xbffd21efc9ed5c5d	-1.8207853210240252
50	0xc01435582b6390c5	-5.0520941524047815
51	0xc01338e7a83bb01d	-4.8055712019377355
52	0x3fe06088415311ea	0.511783721529864
53	0xc0008f5b717ba064	-2.069998632989199
54	0xbfc29937cbd5580e	-0.14530084088136203
55	0xc01197ff63af6d18	-4.398435170728838
56	0x3fce085247ecc251	0.23462894927935676
57	0xc00f1708ebdd2839	-3.886247484862022
58	0xbfe6366cab9d3327	-0.6941436149441856
59	0xc012cfa2d3950c02	-4.702769571277715
60	0xbffb603d0e5361c9	-1.7109957275007324
61	0xc000c4aa5403b85b	-2.0960280002246185
62	0xc004b3b25bd245e0	-2.587742535929223
63	0xbfc3288231872929	-0.1496737233959007
64	0xc01652003a8cf6ef	-5.580078997472568
65	0x3fc0d5203ee97789	0.13150408813356432
66	0xc01f0e2d57bea05d	-7.763844843873895
67	0x3ff5fb35eeec5725	1.3738307316720662
68	0xc017deab387e1161	-5.9674500300355655
69	0xc014d30fea43a360	-5.206115398767764
70	0x3fded3faa6b49275	0.48168817786999024
71	0x3fea1d9b2d9f5064	0.8161140338002153
72	0xbfd41b38e270fc4a	-0.3141615115491204
73	0x3f9e304b50ac5031	0.029481102751631908
74	0xc00d0fb2784d02ed	-3.63266462311764
75	0x3f9b618d599f3a5e	0.026739319415180034
76	0x3fe7488fe286d229	0.7276076721523782
77	0xbfa763701236813a	-0.045680525038962874
78	0xc0179c78f6ea2c71	-5.902805192988226
79	0xc001ffc2a7211ae3	-2.2498829895952084
80	0xc00156dab6f0a4db	-2.167409352511283
81	0xbff83e897534d125	-1.5152678087589007
82	0x3ff6a8db0baf6571	1.4162245232058377
83	0x3feea87a0020762b	0.95806598686949
84	0xbfe1c3efc4b010b3	-0.555168041377803
85	0x3feadfd331bee157	0.8398223849863297
86	0xbfe8bedbe3a2beee	-0.773298210717227
87	0xc0091d5b0b6d3c76	-3.1393338101111636
88	0x3fd05c31fb76579b	0.25562715107786865
89	0xc0010db8662f61a3	-2.1316993697366384
90	0xbffee4316741b982	-1.930711177202824
91	0xc002da339c7c5024	-2.3565437531888325
92	0xc01804f1dc278e7f	-6.004828872598977
93	0xc00c5ba3a25f6bd6	-3.5447457013483286
94	0xc0161ae4dd0fd3c1	-5.5262636700544485
95	0x3fc00e374d58271e	0.12543383862094343
96	0xc0189331eb2daa25	-6.143745112096927
97	0xc007b7e97a4e3e8c	-2.9648007922294877
98	0xc02451aaf8270f50	-10.159507517593426
99	0xbffb6fe653691341	-1.7148192651959138
100	0xc001f65ee12227ef	-2.245298155646189
101	0xc01d987d6c1fe155	-7.398915948339284
102	0xc00b02e728e422e7	-3.376417464697045
103	0xc012e9b7b3e37659	-4.728239832647511
104	0xbfdf1e6c6c93b7f4	-0.48623190501427804
105	0xbffb05d2e7a8e913	-1.6889218377314748
106	0x3ff26066e8f96646	1.1485356426768631
107	0xc01fd39c0a12f93c	-7.956649930389457
108	0xc00ea510bf207074	-3.830598347833126
109	0xc016a110ce474a06	-5.657290671445031
110	0x3fe6a8f4eac92042	0.7081245980889508
111	0xbf993ea25ba9512f	-0.024652993053977553
112	0x3ff4b8164bd50d41	1.2949431383320447
113	0xc0132154800df645	-4.78254890523164
114	0xbff43441baa97722	-1.2627579967006075
115	0xbfd569438fa14782	-0.33454979921690875
116	0xc00f5af1dc7530cc	-3.919406626058935
117	0x40042688c91f2b2f	2.5188155853878906
118	0xbff9848a9474b87e	-1.5948587225971376
119	0xbfd70d5be0405186	-0.3601903619721941
120	0xc0020ffa5ddb3a4e	-2.257801755192566
121	0xc007c0dbd0c7753c	-2.9691692648763404
122	0xc00abe97d7b43e78	-3.3430630542641744
123	0xbffc4b89ceea5ebd	-1.7684419710766826
124	0x3fead26416b28988	0.8381824916180429
125	0xc014d082c05bdd1b	-5.203623777014651
126	0x3ff347d8ab04bdfe	1.2050406151209923
127	0xc0034909dc257bf2	-2.4106633376063593
128	0xc00af497bd182df2	-3.369430043507003
129	0xc00b19bd36e1e106	-3.387567929046898
130	0xc021a5a97c0cf12a	-8.82355868967041
131	0xbff0a651acbc7c21	-1.0406052348623762
132	0xc0148df519cc24ba	-5.1386302977418215
133	0xc022904514321e5c	-9.281777030103676
134	0x3ff353f430b77e73	1.2079965498923257
135	0xc00c76cdb09e09b1	-3.5580095098714186
136	0x3fe5ccf8681f8bcc	0.6812707933098578
137	0xc00d3527a2a13745	-3.6509545045327365
138	0x4014b578a640b957	5.177218053532065
139	0xc0213891cca1c8e7	-8.610487360715025
140	0xc010fcf417c90578	-4.247024890560503
141	0xc019f93ad6344b8d	-6.493388506833878
142	0xbfb83c24bb07ea18	-0.09466771665749041
143	0xbfdfaa6a6c282331	-0.4947763496607421
144	0x3fd290fdc9e87514	0.29009957044202506
145	0xc0170f11b80a7dca	-5.764716029777853
146	0xbffe7d198148df21	-1.90554190160578
147	0xbffae2d0837105d1	-1.6803746351655386
148	0xc00c493c2645f641	-3.5357592573261916
149	0x4000fb241c1bf773	2.122627467730973
150	0x3fe70c060b563f78	0.7202177258895821
151	0xbffd1541ff563b77	-1.8176898931594374
152	0xc00ab15c207a4e41	-3.3366014993023616
153	0xc0113193aa521b25	-4.29841486097465
154	0xc01de70eabbe40b2	-7.4756419024344485
155	0xbffd4e1426109aa6	-1.8315621840389809
156	0x3fe31f558c64998f	0.5975749723482283
157	0xc00578b1d299d688	-2.6839329198072086
158	0x3fee4b3ffa78ce27	0.9466857807187282
159	0xc01064b17d52b497	-4.098333318875254
160	0xc00cd7ffeca17df1	-3.6054686056884226
161	0x4018129b1806b2f4	6.018169761093976
162	0xc0157d217468be54	-5.3721979321413365
163	0xbfec878c714725d2	-0.8915464603862182
164	0xc016ec3775a6673a	-5.730680311471412
165	0x4003e181a44dfc2a	2.4851105533885134
166	0xbff3298c959e3864	-1.1976438373999594
167	0xc0132c490c36d808	-4.7932474049066585
168	0xbfa026ef1a16dbfd	-0.031547042784431746
169	0xc00aa1acfa7192ad	-3.328943211165401
170	0xc0064a6ac6caf696	-2.7863364725770436
171	0xc0141ac98243ce41	-5.026159320248156
172	0x40012481495f6f59	2.142824719643539
173	0x40173b987d79b6e5	5.808198891214237
174	0x4005138b1278d014	2.634542602836527
175	0xbff73a65fc66a220	-1.4517574176226233
176	0xc0093df9591b93c8	-3.1552607499638476
177	0xc01725e41bbc00e6	-5.787002976751159
178	0xc0008abb4a430f1b	-2.067740039988974
179	0xbf9a9ab01b631f95	-0.025980712577421256
180	0xbfe4ef1cd69e2b74	-0.6541885558848279
181	0xbff3c539bb507cd0	-1.235650760361569
182	0xbfb454b5d0afd3fa	-0.07941757531064289
183	0xc009cf62a4005e68	-3.2262623608219663
184	0xc010fb0e7ead0785	-4.245172480879664
185	0x40185b87480c8c9c	6.089383245244928
186	0xc00bdbf5af1a7e67	-3.4824021987877134
187	0xc002e9b3b3a1dea9	-2.3641122850202305
188	0xbff3a529cff4f06d	-1.2278230784713984
189	0xbfd0efc84955b7e7	-0.26463515435795987
190	0xc00a740ee9a544c0	-3.3066690686760865
191	0x40073dea2aa56e12	2.9052317935691088
192	0xc014d2b3f4935bcf	-5.205764600271279
193	0x3fd64b10cd0633ed	0.3483316423597092
194	0xc02573474422e602	-10.725153092632357
195	0xc0104e958415f481	-4.07674223312381
196	0xc019935fbc6f3db8	-6.393919891633622
197	0xc011ff61a5c58770	-4.499395933324067
198	0xc01073996e63e859	-4.11288998112476
199	0xbfe2c38c569cdccd	-0.5863706294684562
200	0xc00452dc5349f36d	-2.5404592997496622
201	0xc0109611edf38a7a	-4.146552770604666
202	0x3fd5db5de0011ba3	0.3415140807668939
203	0xc02387d39748de8a	-9.765286185879877
204	0xbfc879e22b247fff	-0.19121958834239192
205	0xbfca393893d9d204	-0.20487124652176203
206	0x3ff87ef194b8325b	1.5309921082836329
207	0xbfd6b365fdd3bfd6	-0.3546996096401903
208	0x3fc88e2b362741aa	0.19183864731031736
209	0xc01e4ed68baa3496	-7.576990301383509
210	0xbffddd67aadba367	-1.8665539430750984
211	0xc0107cce90151276	-4.121881724630489
212	0xbff1bd38cf581185	-1.108696756303375
213	0x3fc4a816dadb7973	0.16137967764275238
214	0xc014deb80e4e85b7	-5.2174989924837325
215	0x3fc0b188d1b5e943	0.13041792144560746
216	0xc01a64ecac78cebd	-6.598559088586339
217	0x3fdc704861145161	0.4443531940499011
218	0xbffe2104cf529c5e	-1.883061227659503
219	0xbffb3dd30941180b	-1.7025938378806156
220	0x3fcdf348abefe031	0.23398693461763423
221	0xc0162a527c4bd312	-5.541330282333336
222	0x3fe165f69dcaf52d	0.5436966974154182
223	0x3fc17080ee311a66	0.13624583845576693
224	0x40101dc09ac10384	4.029055040388702
225	0xc0031f094fce04f0	-2.390154479479513
226	0xbf8d66d92479aeb6	-0.014356323648107999
227	0xbff296d8ed7727c1	-1.1618279720300821
228	0x4014f1a77681fffd	5.2359903828473735
229	0xc00d3d4490c64b66	-3.6549159346117674
230	0xbff3b360d473505f	-1.231293516048957
231	0xbf9f68a486ab95bf	-0.030672617644901253
232	0xbfbafd172eec826e	-0.10542435546495607
233	0xbfd86c0c2ebcd1f1	-0.3815947014257111
234	0xbfefa4a4d0b3161b	-0.988848121277161
235	0xc016becf28b79d92	-5.686337124068261
236	0xbfd941f98aff08c9	-0.394651780832771
237	0x40177ad66be9bc1d	5.8699585782442485
238	0x4001379f7687399b	2.1521596202866937
239	0x1a440b2787d58e30	3.7737032956023905e-182
240	0x401169dc5e31d065	4.3533796995071485
241	0xbff45f9adbd7a35b	-1.2733410441962494
242	0xbfc19ed953dbb432	-0.1376601848091084
243	0xbff6ad33e94de5bc	-1.4172858346413326
244	0x4015bfb0dc19dde7	5.437198103979859
245	0xbffa4cd647ccd451	-1.6437590412799816
246	0xbfba313ce3384e2a	-0.10231380984651453
247	0xa77d06d80356f3aa	-1.798539101506399e-118
248	0xc00834192d719c98	-3.0254386472984827
249	0xc0035c535b0a86e3	-2.420080863245731
250	0xbff547e68182be00	-1.3300538119327712
251	0xbf64dc91eba6b0b2	-0.002546582222938986
252	0xbff386bd0d683a45	-1.220395138141286
253	0x8000000019e6ce06	-2.146993993e-315
254	0xbfe192fd7217daae	-0.5491931179411347
255	0xc006babf6b3026df	-2.841185414702394

bias_1 f8 [1, 32]
0	0xbfff12f32bd54044	-1.9421264373995806
1	0xc00226833c9b3977	-2.268805001723361
2	0x3fb806b6572bd88f	0.09385242107586776
3	0xc006fcc3795bb82e	-2.873419712173038
4	0x3fb9abc55af30d65	0.10027726622052098
5	0x3fb7b41d2daa94bf	0.09259207119847
6	0xc00aa96d78b591a4	-3.332728331604999
7	0xbffa6a099334028d	-1.6508880376933661
8	0xc00bac080c963773	-3.458999727567908
9	0xc00a1741e33533e8	-3.2613561392413324
10	0xc008345ebdb765f0	-3.025571329268807
11	0x3fb9fffd4cd76db5	0.10156233907712571
12	0xc004df34270c64e4	-2.6089861918122654
13	0xbffccd778e8a4d56	-1.800162846372435
14	0xc0080df135f4f26f	-3.0068077292801756
15	0xc0022e2dfab9d632	-2.2725486362421856
16	0xc00884ef8f38794a	-3.064910048399871
17	0xc006bbb01d6f410b	-2.841644506414132
18	0xc0036cf3caf225b5	-2.428199372782468
19	0xc00783d8a13c051e	-2.939378032344975
20	0xc00123b56d1dd6d4	-2.1424358868342583
21	0xc00896ea8a0382ee	-3.073689535362397
22	0xc003a62e34f5f000	-2.4561428201250237
23	0xc0090efa526c7f90	-3.132313388763528
24	0xc0046a5c8363bf9b	-2.551934267503339
25	0xc0074a0cca45069a	-2.911157207709789
26	0xc006af3425ec4d4c	-2.83554868342768
27	0xc00316ad667d8f55	-2.386072922426971
28	0xc007fe1ea700f484	-2.9990819022337423
29	0xbffac64d1afe7f76	-1.6734133772333428
30	0xc010077d5173080a	-4.007313988347969
31	0xc006ccce969bd8d3	-2.8500034109411927

weight_2 f8 [32, 10]
0	0x40174526803d963e	5.817529681929555
1	0xc015e3912781c83b	-5.472233407303118
2	0xc01566cd5a39a4a1	-5.3503927323992295
3	0xbff8311417233ee5	-1.5119820503058972
4	0xbffdc5d9cb6df5ae	-1.8608034082857148
5	0xc0109d696096f177	-4.153722295010417
6	0xc01198b1d9bbe460	-4.399115945904754
7	0xc000086074ae5278	-2.0040902248095414
8	0xc01262f26cf4b1ee	-4.596627905306816
9	0x4017984b3dd42382	5.898724523613852
10	0xc01d220dc660ea0f	-7.283255672135524
11	0xc0148aadc0efcceb	-5.135428442608126
12	0xbff3fd951bf5f56e	-1.2494097797601529
13	0xc008e36ad5dc549d	-3.1110436160912074
14	0xbff912e95b33f3bf	-1.5671170771231429
15	0xbff09fd5e64f5c99	-1.039022349976028
16	0x401beec868ba7585	6.983186375027235
17	0xc00ae97311ada70b	-3.363989008056597
18	0xbfd639cb01885eac	-0.3472774043052407
19	0xc010742185c16282	-4.113409128120681
20	0xc00d1ab553e86021	-3.638041167763746
21	0xc02c9f0e37241744	-14.3106553298527
22	0xc0227843432f26ec	-9.234888171678413
23	0xc019f6fa6d4d78ed	-6.491189678052462
24	0x3fd449640be5c3f8	0.3169794193445905
25	0xc01f2daf5d7bc611	-7.794614277534053
26	0xc02861971af0f4a0	-12.19060596648552
27	0xc008d5ec237916f6	-3.1044543048218385
28	0x4011098e3bb7d17e	4.259331639379864
29	0x401c90771c798ec2	7.141079373282709
30	0xc021d83756ac7d59	-8.922297199779381
31	0xbff8b9a041482f68	-1.545318846709927
32	0xc02fd65d9284db6a	-15.918682650297075
33	0xbfd17269038cc99e	-0.2726080450694556
34	0xc0045f880115dc25	-2.546646126250851
35	0xc011e9638143e33a	-4.4779186437306695
36	0xc0266da44a838ca9	-11.214144066389354
37	0x4021c63b111bee68	8.887169394168453
38	0xc02844531bd98593	-12.133446569731666
39	0x400f35914f08300f	3.9011560606359192
40	0x4016f01550613429	5.734456306393477
41	0xc022b28baf27e7e8	-9.348721955891918
42	0x3ff740333520e36c	1.4531738353091113
43	0xc000551a650f2ab7	-2.041554250264507
44	0xc0172015b3f52cc3	-5.781332790221486
45	0xbfea7e336347fb4a	-0.8279053629956732
46	0xc0169735fec02382	-5.647666912533966
47	0xc01afe326c36ff6a	-6.748239222389978
48	0x4015ec2ceec4729b	5.480640154590811
49	0xc02437cb41a2f231	-10.108972598210217
50	0xc006d4a4415eb35a	-2.85382891721967
51	0xc01d0d4e884751f8	-7.262994889596023
52	0xbff0aac17f8b0d49	-1.0416884405284057
53	0xc0126a2086ed8e9b	-4.60363970589574
54	0xc0135b1e37b0160b	-4.838982458231395
55	0xc0018952697b77a3	-2.1920517197422256
56	0x4010573c8ef3954c	4.085191949479235
57	0xc024d75483a2e523	-10.42056666720834
58	0x401f6a06b4691dc4	7.853541201511181
59	0xc022345873b745c6	-9.102237335321558
60	0xc000567a03c0568c	-2.0422249119827196
61	0xc016dcc788cfe7ef	-5.715604913415503
62	0xc01a819820332185	-6.626556876297745
63	0x401b4d11bc56a64c	6.82526296881549
64	0xc01f3cb884ca2a94	-7.809297633017781
65	0x3fff7345888125f5	1.9656424839216673
66	0xc017ee64cb011889	-5.982806369726071
67	0xc013c5b93896d1fc	-4.9430893747380615
68	0xc021b9de1a809b1b	-8.863022640418015
69	0xc021c02248502faf	-8.875261554516184
70	0xc018eb170fe25638	-6.2295801622290625
71	0x40105263acbfb8c2	4.0804583541886945
72	0xbff67b747fb4a830	-1.4051403988364761
73	0xc013b64878b816ab	-4.928010832057832
74	0x400f9a5e8f120109	3.9503756692284964
75	0xc006a1b3207a52de	-2.8289549386339408
76	0xbff8c13d309cf11e	-1.5471774958560398
77	0xc0142d77c6bb2f30	-5.0444022228000875
78	0x3fd925f37809788c	0.3929413482891355
79	0xc0041c144e778625	-2.513710606596549
80	0xc004bd7d02f4bb06	-2.5925235968528595
81	0xc00c9aee02a18ef7	-3.5756492810777405
82	0xc0135bd20ee0bb70	-4.839668495623172
83	0x402254bbf192f1c8	9.165496396243626
84	0xc01104728443cc06	-4.254343096387862
85	0xbffa988001b77b3c	-1.6622314517077958
86	0xc00759f5f84c6003	-2.9189261816318335
87	0xc015f92197f58614	-5.493292211876469
88	0xbffc40d0ec9f8eb0	-1.7658242457481883
89	0xc010277f3b369fb6	-4.038571286400773
90	0xbffabb24c7ff6122	-1.6706893741994198
91	0xc006a5cca3d53636	-2.83095672602101
92	0xc00727b0e6804294	-2.8943803794757716
93	0xc017ecda9973279e	-5.981302640584458
94	0xc016d5018593a61c	-5.7080136176459995
95	0x401bd9045fcd791d	6.961930748859484
96	0xc00e70695f7a1083	-3.8048884829641465
97	0x40106df5279e190a	4.107380503677868
98	0xc000c61fd2b135ee	-2.0967403850870516
99	0xc0189eca5346fd61	-6.155068684776183
100	0xc01b792abfd5e37e	-6.868327138356902
101	0x400f7631b7e66c16	3.932712017745426
102	0x4010be9d476872e5	4.186146846532869
103	0x40112fc84d846f9c	4.296662532051325
104	0xc022a4c704cc108b	-9.321830892477257
105	0xc002c25500fb7655	-2.3448886944523033
106	0xc01d44c7597871fa	-7.31716670797004
107	0xc0239fff8cbfa38f	-9.812496565240307
108	0xc01c98d68f0bd002	-7.149255976768474
109	0xc026f20bcac5d37b	-11.472746216438955
110	0xc021aa52d9aace43	-8.832663347339922
111	0x401c9c0913dce88d	7.152378378256015
112	0xc00ca7cdebab69eb	-3.5819357310949633
113	0xc0122eb5a4bbd3b4	-4.545614789928482
114	0xc0145b44eeab0ec1	-5.089130143347291
115	0xc00596ee99c2a46d	-2.698697282078277
116	0xc01417ef565842fc	-5.023373936783852
117	0xc00f0dfd94f894c4	-3.8818313253746926
118	0x401c07aa8541978f	7.007486421707553
119	0xc0228078cbbb5b58	-9.250921599026398
120	0xc013a1c6dec4a8cd	-4.907985192063461
121	0x401ffec2b7dbcf4c	7.998789665976641
122	0xc00187e2acdd14e4	-2.1913503174752
123	0xc010339ec4cfa991	-4.0504103423831035
124	0xc002fcb7acbd4aae	-2.3733972068087814
125	0xbff3e8fb8750086f	-1.2443805013322409
126	0x40023ca99f3efa6c	2.2796204033941674
127	0xc01720cb9096ad79	-5.782026538082726
128	0xc0109bfdddcd93ed	-4.152335611031032
129	0xc00afd29d1fdf149	-3.37361492210599
130	0x4016a2d582e1226b	5.659017605773083
131	0x4007684a0005d4e1	2.925922393968549
132	0xc01f2630a097d56c	-7.787294873492424
133	0xbffedae0587321d0	-1.9284366087978135
134	0xc00a0ab30b02bc45	-3.2552243099412714
135	0xc00316f014c7c5e7	-2.386200105997648
136	0x401616be1a242606	5.522209557014781
137	0xc011e094cec26c84	-4.469317656151478
138	0xc0129b528e2a71bc	-4.651682111111253
139	0xc00d9456cfee0892	-3.6974312061802914
140	0x400bbe497ab30d66	3.467913588132137
141	0xc021c9ebb7819d06	-8.894376501628823
142	0x400de1090c21eea9	3.7348805377822214
143	0xc026719208a8a279	-11.2218172746518
144	0x400e82dab0efa873	3.813893682779104
145	0xc014a30bd255d25c	-5.159224783409254
146	0x400e50b5a1bab90d	3.7894089350803655
147	0xc025445b0311c0bc	-10.633506866376017
148	0xc022dc6b764f78f1	-9.430507371140694
149	0xc022d2564815af04	-9.410814526221209
150	0xbff4c1fd8a1976c5	-1.2973609346876611
151	0xc00b9a86642398f9	-3.4504516433108816
152	0xc00671a14079e9da	-2.8054833447651903
153	0xbffc9823df37ecc7	-1.7871435851546253
154	0x401a439057d3894b	6.565980312620307
155	0xc004957c1de97bf8	-2.572990640342592
156	0xbff38c8ecd9ed3db	-1.221815875248686
157	0xbff5005f4448b7d3	-1.312590853437986
158	0xbff14a1a085906ca	-1.0805912328800553
159	0xc00eaa0f3f968dfa	-3.8330368964977852
160	0x4011a0129363108d	4.406320860787798
161	0xc0153721f81cfaf1	-5.303840519684614
162	0x4010cd38497dc71b	4.200410030652871
163	0xc01b05fd86268efd	-6.755849929908206
164	0xc016ddcf80dde3f4	-5.716611875098341
165	0xbffeeb391818d23e	-1.9324274960791992
166	0xc016e7f8ca889448	-5.726535000406393
167	0x400b3ee58f011e28	3.4057112858024716
168	0xc012ebf8ca141e13	-4.7304412436274275
169	0xc012fc2479c7193e	-4.746232893731131
170	0xc0142d12d445c02c	-5.044017140156978
171	0x3fc6a9b85fd53f8c	0.1770544498381209
172	0xc017a0d3e17e09cc	-5.907058261220708
173	0xc00cfd8990a48d43	-3.623797540685389
174	0xc011acc8a1c49b0a	-4.4187340999840305
175	0x4011f9aef232d745	4.493831428864557
176	0xbfed0214c200a018	-0.9065040387258732
177	0xc010b64297e6ea02	-4.177988408535841
178	0x3ff1fa3a10d37119	1.1235905320418793
179	0xbfa1da2fbfef672d	-0.034867756061159084
180	0xc011f15d0dac7cf2	-4.485706533100926
181	0x401f6173f21fb642	7.845168860612434
182	0xc00f196d2e77cc00	-3.887415278464232
183	0xc0170ef3c4e167b9	-5.764601780183448
184	0xc01906db873a082d	-6.256696808735836
185	0xc000ebf4c245a49e	-2.115212934255921
186	0xc00c5cae478b5132	-3.545254286707995
187	0x401619f1b97071b3	5.525336167800947
188	0xc01134c9f7b09ccf	-4.301551695017408
189	0xc019f6b810ee49b9	-6.49093653158564
190	0xc01177d6ac4d9c82	-4.367029850232145
191	0xc020d9e90b2fb67a	-8.425606107305828
192	0xc020b33397ceda0a	-8.350002998352483
193	0xc016067436a4c61e	-5.50630269413662
194	0xc01bff7750fa7eac	-6.999478593148222
195	0xc00baffcfc4a42ee	-3.4609317503130717
196	0xc01aa684dc5c7a13	-6.662616198677386
197	0x4027adf7e56dc2bb	11.839781922958869
198	0xc014d069349b66d1	-5.203526327118838
199	0x3ff77b793a2fd124	1.4676449082299508
200	0x401e5b494d0106ea	7.589146807849582
201	0xc0172e3f12bb0b0b	-5.795162480035979
202	0xc0219bc442a31e95	-8.804231722271007
203	0xc002b3c902103391	-2.33778573619788
204	0xc011e1186389dd73	-4.4698195984741345
205	0xbfe0629549df6aac	-0.5120340769602385
206	0xbff9b82dd30888e1	-1.6074655765046872
207	0x4010497d3c8be202	4.071766801870128
208	0xc0109d7dcfa1f2c4	-4.153800243625202
209	0xbff74ad9451da976	-1.455773611053329
210	0xc02d670687ed59af	-14.701221702311924
211	0xc02f1efdffdcac2f	-15.560531612098286
212	0x4019a5a48ee0a54f	6.411760551892555
213	0x401843d0713bf701	6.066224831852879
214	0xc029a6b9ba0dfae9	-12.825635732847745
215	0xc0262532e37b7fa2	-11.07265387423087
216	0xc030ab84a512a899	-16.669992749266928
217	0x4019d6869c346748	6.459497872065022
218	0xc02e24f15b16296d	-15.072153898673344
219	0xc0371c140fc64107	-23.10968111601053
220	0xc0102ab4539d5e7b	-4.041703516464277
221	0xc01583ae91d3f730	-5.378595617830612
222	0xc01d20c77d1ca9dd	-7.2820109890694456
223	0x4020b44de3236259	8.352156732625348
224	0xc00247577e611b1f	-2.2848348496803648
225	0xbff98d6352a51dfc	-1.5970185497588991
226	0xc014d133037f6e7c	-5.204296164181525
227	0xc015233b7936b95d	-5.284406560864537
228	0xbfd0eb960c896896	-0.2643790361813755
229	0x3fdeb43483adb04b	0.47974884852624616
230	0xc00d80f3f17665b8	-3.6879652847535134
231	0xc017901c56de9c85	-5.890733105980989
232	0xbff304d4e6d43444	-1.1886796013598238
233	0xc01586f472f4b947	-5.381791874109985
234	0x401b6f0abf07f98a	6.8584394310586365
235	0xc01888c7a1261bfc	-6.133574026061066
236	0xbfeb25f2dee3af98	-0.8483824113186413
237	0x3ffad5bcebe4d0e7	1.677182122669416
238	0xc01260b973da2481	-4.594457445325248
239	0xc01f3d704eeadbcd	-7.809998734554893
240	0xc00d665433b0bc97	-3.674965289908481
241	0xc021a637b599a9d5	-8.824643778808346
242	0xc0193657f55bf827	-6.303069909799922
243	0x400594b43a1963d7	2.697609380626527
244	0xc02048b31fb87cd3	-8.14199160697027
245	0x4013813b90ab76ae	4.876203785386378
246	0xc00dde6547d90641	-3.7335916150193786
247	0xc016e09841eb9e04	-5.7193308162745815
248	0xbfcd71cc627ad1cb	-0.2300353508814069
249	0xc0283ccadd99df90	-12.118735241921769
250	0xc01ca7fef04e696f	-7.164058451448326
251	0xc004d377d4440bd7	-2.6032558997407977
252	0x3f99a9554a7a7754	0.025060017271804583
253	0xc008c1fbbf29454c	-3.094718450018865
254	0x3ff3ce98c059190b	1.237938643798375
255	0xc005014a2b6aad59	-2.625629748528507

bias_2 f8 [1, 10]
0	0xbfeb0083bae6634d	-0.8438128137960149
1	0xbfdc5a5dc0e275a1	-0.4430155166281456
2	0xbfd49d81a9f7bd9d	-0.32211343382274454
3	0x3fd9859059febeb3	0.3987770918711064
4	0xbfc211b6fd6a49e7	-0.14116561292446692
5	0xbfcf9ac3fae6d715	-0.24691056967793004
6	0xbfda57dbc7fc670d	-0.4116124585140007
7	0xbfbfec119ab8393e	-0.1246958735211807
8	0x3fdd97a789442e2d	0.46238125233569144
9	0x3fecbf30aff03296	0.8983386455816624

loss_history f4 [160]
0	0x3f230008	0.6367192
1	0x3e9d0bcc	0.30673063
2	0x3e7eaea6	0.2487131
3	0x3e605792	0.21908405
4	0x3e4da64f	0.20082973
5	0x3e41c916	0.18924364
6	0x3e350ba1	0.17680217
7	0x3e307125	0.17230661
8	0x3e28f6d4	0.16500407
9	0x3e25b460	0.16182089
10	0x3e260faf	0.1621692
11	0x3e1e7618	0.15474737
12	0x3e208fa9	0.15679802
13	0x3e16cc89	0.14726461
14	0x3e19d638	0.15023124
15	0x3e2087a3	0.15676741
16	0x3e19fc0e	0.15037557
17	0x3e1b40b2	0.15161398
18	0x3e161881	0.14657785
19	0x3e13ba31	0.14426495
20	0x3e18ed67	0.14934312
21	0x3e17a731	0.14809872
22	0x3e1b791e	0.15182921
23	0x3e1ae331	0.15125729
24	0x3e14b8ea	0.14523664
25	0x3e15e07a	0.14636412
26	0x3e0ed1a5	0.1394716
27	0x3e192d33	0.14958648
28	0x3e162016	0.14660677
29	0x3e16812e	0.14697716
30	0x3e1c4fd1	0.15264823
31	0x3e1a0cec	0.15043992
32	0x3e1983f9	0.1499175
33	0x3e256a21	0.16153766
34	0x3e1eaffd	0.15496822
35	0x3e29dd40	0.16588306
36	0x3e21a097	0.15783916
37	0x3e2484a0	0.16066217
38	0x3e1e8b09	0.15482725
39	0x3e258b36	0.16166386
40	0x3e2356a9	0.15951027
41	0x3e2d31eb	0.16913573
42	0x3e27c4e3	0.163837
43	0x3e26837f	0.162611
44	0x3e2e5541	0.1702471
45	0x3e2cc5f6	0.16872391
46	0x3e262e1e	0.1622853
47	0x3e332d71	0.17497803
48	0x3e36c8be	0.17850015
49	0x3e317fc8	0.17333901
50	0x3e33dcb9	0.17564668
51	0x3e2d07ef	0.16897558
52	0x3e351646	0.17684278
53	0x3e3657cb	0.17806928
54	0x3e31417c	0.17310137
55	0x3e416d4b	0.18889348
56	0x3e3d02bf	0.18458079
57	0x3e33912f	0.17535852
58	0x3e398388	0.18116581
59	0x3e3d47e1	0.18484451
60	0x3e337166	0.17523727
61	0x3e3fcbca	0.18730083
62	0x3e3c9e18	0.18419683
63	0x3e4c5374	0.1995371
64	0x3e401a6a	0.18760076
65	0x3e3dd89a	0.18539658
66	0x3e43fe68	0.19140017
67	0x3e4ed888	0.20199788
68	0x3e42a218	0.19007146
69	0x3e4e2f0a	0.20135131
70	0x3e3e8cbe	0.18608376
71	0x3e4e6502	0.20155719
72	0x3e55a0dc	0.20862144
73	0x3e4a74a2	0.19771054
74	0x3e5359de	0.2063975
75	0x3e4eb457	0.20185982
76	0x3e58a0db	0.21155111
77	0x3e4ea197	0.20178829
78	0x3e554015	0.20825227
79	0x3e617715	0.22018082
80	0x3e5a5e55	0.21325047
81	0x3e63ea21	0.22257282
82	0x3e536eff	0.2064781
83	0x3e5e9e7e	0.21740147
84	0x3e600e74	0.21880513
85	0x3e69b786	0.22823915
86	0x3e69bd09	0.22826017
87	0x3e6948d1	0.22781684
88	0x3e61c1d5	0.22046597
89	0x3e6d032f	0.23145746
90	0x3e6926d3	0.22768717
91	0x3e6d2f73	0.23162632
92	0x3e62499d	0.22098394
93	0x3e70582e	0.23471138
94	0x3e6b9687	0.2300664
95	0x3e72e7f3	0.23721294
96	0x3e5f103a	0.21783534
97	0x3e7806b6	0.2422131
98	0x3e71cd48	0.23613465
99	0x3e7786a7	0.2417246
100	0x3e7aebb5	0.24503978
101	0x3e6c48da	0.23074666
102	0x3e77b7f7	0.24191271
103	0x3e7d30e8	0.24725688
104	0x3e77b8b6	0.24191555
105	0x3e8055be	0.25065416
106	0x3e808595	0.25101915
107	0x3e77e800	0.24209595
108	0x3e7b1f48	0.24523652
109	0x3e82b227	0.25526544
110	0x3e807d66	0.2509567
111	0x3e7b5d60	0.24547338
112	0x3e837f13	0.25682887
113	0x3e8d0c88	0.27548623
114	0x3e8e2d55	0.2776896
115	0x3e89c797	0.26910087
116	0x3e8c490b	0.27399477
117	0x3e8f7618	0.28019786
118	0x3e883f9b	0.26611027
119	0x3e88d822	0.26727396
120	0x3e861387	0.26186773
121	0x3e85bf47	0.26122496
122	0x3e851e30	0.25999594
123	0x3e90cb67	0.28280184
124	0x3e8f95d7	0.28044006
125	0x3e8b0da7	0.27158853
126	0x3e95632e	0.2917723
127	0x3e847707	0.2587206
128	0x3e899da8	0.26878095
129	0x3e91f59e	0.28507704
130	0x3e89a600	0.2688446
131	0x3e95ea10	0.29280138
132	0x3e98cb1e	0.29842466
133	0x3e93f2db	0.28896222
134	0x3e8e5c6d	0.2780489
135	0x3e98bd0a	0.29831725
136	0x3e9b7eea	0.30370265
137	0x3e96a86e	0.29425377
138	0x3e9c894b	0.30573496
139	0x3e9511ba	0.29115087
140	0x3e9ed6b8	0.31023192
141	0x3e98142c	0.2970289
142	0x3e94c856	0.29059094
143	0x3e9c408c	0.30517995
144	0x3e9babd3	0.3040453
145	0x3e99b35d	0.30019656
146	0x3e9d3aa4	0.30708802
147	0x3e990550	0.29886866
148	0x3ea41edb	0.3205479
149	0x3ea502a4	0.32228577
150	0x3e98a2a7	0.29811594
151	0x3e9d3eaa	0.3071187
152	0x3e9a5619	0.30143812
153	0x3ea67525	0.3251125
154	0x3eab4a2e	0.33455032
155	0x3e9ceb24	0.30648148
156	0x3e9d8724	0.30767167
157	0x3ea69905	0.3253862
158	0x3ea01fd7	0.31274292
159	0x3ea16311	0.31520894

accuracy_history f4 [160]
0	0x42a0a58c	80.32333
1	0x42b622fd	91.06834
2	0x42b9aeef	92.84167
3	0x42bb57e5	93.67167
4	0x42bc5555	94.166664
5	0x42bd170a	94.545
6	0x42bde81b	94.95333
7	0x42be1c29	95.055
8	0x42be8889	95.26667
9	0x42beed3a	95.46333
10	0x42bec51f	95.385
11	0x42bf1c29	95.555
12	0x42bf4ccd	95.65
13	0x42bfcf5c	95.905
14	0x42bfa741	95.82667
15	0x42bf8889	95.76667
16	0x42bfb852	95.86
17	0x42bfb852	95.86
18	0x42bfe81b	95.95333
19	0x42c00da7	96.026665
20	0x42bfc444	95.88333
21	0x42bfeb85	95.96
22	0x42bf8ccd	95.775
23	0x42bff40e	95.97667
24	0x42c028f6	96.08
25	0x42bffa07	95.988335
26	0x42c0570a	96.17
27	0x42bfe4b1	95.94666
28	0x42c0392c	96.111664
29	0x42bff17e	95.971664
30	0x42bfe8f6	95.955
31	0x42c01111	96.03333
32	0x42bff333	95.975
33	0x42bfbe4b	95.871666
34	0x42bfeb85	95.96
35	0x42bf836a	95.75667
36	0x42bfd99a	95.925
37	0x42bfc1b5	95.878334
38	0x42bfd7e5	95.92167
39	0x42bfc1b5	95.878334
40	0x42bf947b	95.79
41	0x42bf6666	95.7
42	0x42bf7bbc	95.74167
43	0x42bf9a74	95.80167
44	0x42bf70a4	95.72
45	0x42bf57e5	95.67167
46	0x42bf7e4b	95.746666
47	0x42bf2fc9	95.59333
48	0x42bf1111	95.53333
49	0x42bf3f26	95.62334
50	0x42bf1d03	95.55666
51	0x42bf317e	95.596664
52	0x42bf028f	95.505
53	0x42bf1b4f	95.55334
54	0x42bf40da	95.62666
55	0x42bec36a	95.38167
56	0x42bee58c	95.44833
57	0x42bf4ccd	95.65
58	0x42bee666	95.45
59	0x42bee8f6	95.455
60	0x42bef777	95.48333
61	0x42bedd03	95.43166
62	0x42bea58c	95.32333
63	0x42be81b5	95.253334
64	0x42be769d	95.23167
65	0x42bf2fc9	95.59333
66	0x42bec889	95.39167
67	0x42bde741	94.95167
68	0x42be6d3a	95.21333
69	0x42be0b18	95.02167
70	0x42bed70a	95.42
71	0x42be7852	95.235
72	0x42bde666	94.95
73	0x42be3777	95.10833
74	0x42bdec60	94.96167
75	0x42be24b1	95.07166
76	0x42bdeaab	94.958336
77	0x42bddb4f	94.92834
78	0x42bdce82	94.903336
79	0x42bd47ae	94.64
80	0x42bdcbf2	94.89833
81	0x42bd57e5	94.67167
82	0x42bdb333	94.85
83	0x42bd5b4f	94.67834
84	0x42bd681b	94.70333
85	0x42bcf777	94.48333
86	0x42bca8f6	94.33
87	0x42bd0ccd	94.525
88	0x42bcf5c3	94.48
89	0x42bcd8bf	94.42333
90	0x42bcf40e	94.47667
91	0x42bd1f93	94.56167
92	0x42bd2aab	94.583336
93	0x42bc5a74	94.17667
94	0x42bcb333	94.35
95	0x42bcb259	94.348335
96	0x42bd1c29	94.555
97	0x42bbad3a	93.83833
98	0x42bcab85	94.335
99	0x42bbeeef	93.96667
100	0x42bc1dde	94.058334
101	0x42bc6666	94.2
102	0x42bbaaab	93.833336
103	0x42bc1a74	94.05167
104	0x42bbc36a	93.88167
105	0x42bba222	93.816666
106	0x42bb6d3a	93.71333
107	0x42bc0da7	94.026665
108	0x42bbc7ae	93.89
109	0x42bb740e	93.72667
110	0x42bb5d03	93.68166
111	0x42bbda74	93.92667
112	0x42bb45f9	93.636665
113	0x42b9e148	92.94
114	0x42ba9c29	93.305
115	0x42baa666	93.325
116	0x42baf17e	93.471664
117	0x42ba4963	93.14333
118	0x42baaeef	93.34167
119	0x42bb01b5	93.503334
120	0x42bb91ec	93.785
121	0x42bacccd	93.4
122	0x42bb281b	93.57833
123	0x42b9a8f6	92.83
124	0x42ba0ccd	93.025
125	0x42bac5f9	93.386665
126	0x42ba2d3a	93.08833
127	0x42bab333	93.35
128	0x42ba6c60	93.21167
129	0x42b9547b	92.665
130	0x42ba1c29	93.055
131	0x42b92e14	92.59
132	0x42b91d03	92.55666
133	0x42b951ec	92.66
134	0x42ba13a0	93.03833
135	0x42b97a07	92.738335
136	0x42b83852	92.11
137	0x42b8fbbc	92.49167
138	0x42b8c51f	92.385
139	0x42b95dde	92.683334
140	0x42b83259	92.098335
141	0x42b93852	92.61
142	0x42b980da	92.75166
143	0x42b89b4f	92.30334
144	0x42b88da7	92.276665
145	0x42b91eb8	92.56
146	0x42b906d4	92.513336
147	0x42b84f5c	92.155
148	0x42b75b4f	91.67834
149	0x42b79c29	91.805
150	0x42b8ba07	92.363335
151	0x42b86fc9	92.21833
152	0x42b893a0	92.28833
153	0x42b7658c	91.69833
154	0x42b76aab	91.708336
155	0x42b7aeef	91.84167
156	0x42b86148	92.19
157	0x42b76aab	91.708336
158	0x42b85b4f	92.17834
159	0x42b853a0	92.16333

val_loss_history f4 [32]
0	0x3dded001	0.10879517
1	0x3e001f1e	0.1251187
2	0x3e7f2615	0.24916871
3	0x3ddf55ee	0.10905062
4	0x3e31be14	0.17357665
5	0x3e4278b4	0.18991357
6	0x3e66ab3b	0.22526257
7	0x3e62851c	0.2212109
8	0x3e919a94	0.28438246
9	0x3e0f642c	0.14003056
10	0x3e082e41	0.13298894
11	0x3e803325	0.2503902
12	0x3ebe3771	0.37151673
13	0x3e9e7b9d	0.30953684
14	0x3e8de0fe	0.27710718
15	0x3e5d57aa	0.21615472
16	0x3e9a59d9	0.30146673
17	0x3ec7acfd	0.38999167
18	0x3ea87697	0.32902977
19	0x3e5dc40f	0.21656822
20	0x3ea086f2	0.31352955
21	0x3ec8b95d	0.3920392
22	0x3eb7cfd9	0.35900763
23	0x3ebc1c38	0.3674028
24	0x3ea298fe	0.3175735
25	0x3ed538c2	0.41644865
26	0x3ec821b8	0.39088225
27	0x3eeaadb2	0.45835644
28	0x3e8fdd7a	0.2809866
29	0x3ede8b97	0.43465874
30	0x3ecf61be	0.4050426
31	0x3f2195db	0.63119286

val_accuracy_history f4 [32]
0	0x42c16666	96.7
1	0x42c16666	96.7
2	0x42c06666	96.2
3	0x42c33333	97.6
4	0x42c0cccd	96.4
5	0x42c0999a	96.3
6	0x42c2cccd	97.4
7	0x42c23333	97.1
8	0x42c06666	96.2
9	0x42c2cccd	97.4
10	0x42c20000	97.0
11	0x42c0999a	96.3
12	0x42becccd	95.4
13	0x42c03333	96.1
14	0x42bf3333	95.6
15	0x42c0999a	96.3
16	0x42c06666	96.2
17	0x42be999a	95.3
18	0x42becccd	95.4
19	0x42c03333	96.1
20	0x42bf0000	95.5
21	0x42bb6666	93.7
22	0x42bf3333	95.6
23	0x42bd0000	94.5
24	0x42bd0000	94.5
25	0x42bd0000	94.5
26	0x42bb999a	93.8
27	0x42bd999a	94.8
28	0x42bc999a	94.3
29	0x42b90000	92.5
30	0x42b6999a	91.3
31	0x42b96666	92.7
