checkpoints/model_epoch_0110.npz (npz, 386031 bytes, 10 tensors)

weight_0 f8 [784, 64]
0	0x0000000021e5124b	2.809556444e-315
1	0x000000000e517a7f	1.18684844e-315
2	0x000000000dfdcc53	1.159753507e-315
3	0x000000001a30b44e	2.170921987e-315
4	0x00000000046e4c3d	3.67275264e-316
5	0x800000001dd10811	-2.47150585e-315
6	0x800000000becabc0	-9.8842694e-316
7	0x800000001f76a1b5	-2.60801613e-315
8	0x0000000003b9a6e1	3.0878376e-316
9	0x8000000021b1a0d8	-2.79289962e-315
10	0x0000000021f24b73	2.813838017e-315
11	0x8000000002f0601f	-2.43612303e-316
12	0x0000000020091a8d	2.65544244e-315
13	0x0000000004f44bed	4.10662844e-316
14	0x80000000211ab90c	-2.74403781e-315
15	0x800000000892c33d	-7.1064409e-316
16	0x0000000017ce89d0	1.973355817e-315
17	0x800000000e67289f	-1.193868285e-315
18	0x0000000013192721	1.583063013e-315
19	0x000000000296f08b	2.1465379e-316
20	0x00000000123ad668	1.511079343e-315
21	0x80000000144d3b11	-1.682815816e-315
22	0x0000000014272a71	1.670490736e-315
23	0x0000000011cf7497	1.47631e-315
24	0x0000000004729421	3.68661355e-316
25	0x00000000179248c1	1.95384608e-315
26	0x800000000f808609	-1.28497167e-315
27	0x80000000069c7e1f	-5.48013657e-316
28	0x00000000000a7e2f	3.397507e-318
29	0x0000000002ac3580	2.21540617e-316
30	0x0000000021c1d819	2.79815016e-315
31	0x000000000a95c65f	8.77400346e-316
32	0x80000000038b6b22	-2.93813814e-316
33	0x0000000008e2cbd6	7.36558233e-316
34	0x00000000031154aa	2.5428291e-316
35	0x800000001ccbff8e	-2.38698567e-315
36	0x00000000074233f5	6.01669137e-316
37	0x800000000da35b27	-1.13046919e-315
38	0x800000001897fefd	-2.038585985e-315
39	0x0000000021d3d773	2.803977573e-315
40	0x800000000dea8b61	-1.153519337e-315
41	0x800000001b04ec79	-2.23963669e-315
42	0x800000000cc1ee70	-1.05747874e-315
43	0x000000000d57c830	1.10599899e-315
44	0x000000001e827b68	2.528962715e-315
45	0x800000000ef36c45	-1.23928457e-315
46	0x000000001e902aa3	2.53339363e-315
47	0x000000001563665d	1.772884437e-315
48	0x800000000b8422fa	-9.545797e-316
49	0x000000001509ac11	1.74383142e-315
50	0x800000001fe3afd2	-2.643327183e-315
51	0x800000000a8e417f	-8.7496575e-316
52	0x8000000021e469ef	-2.8093435e-315
53	0x80000000038bd9b6	-2.93953674e-316
54	0x00000000014591d5	1.0541648e-316
55	0x800000000e5c07b8	-1.19026497e-315
56	0x800000000a989782	-8.78312445e-316
57	0x000000001411b151	1.66353793e-315
58	0x0000000022da9825	2.8890545e-315
59	0x80000000238323f8	-2.943628217e-315
60	0x80000000017c029f	-1.23043843e-316
61	0x8000000018ad7810	-2.04553873e-315
62	0x000000000218bc58	1.7379012e-316
63	0x800000000d2617f7	-1.08991035e-315
64	0x8000000008a717a4	-7.1722666e-316
65	0x000000001114eb6e	1.41591142e-315
66	0x80000000122bdd0c	-1.50623088e-315
67	0x8000000008aef116	-7.1976822e-316
68	0x800000001b52e4cb	-2.264882666e-315
69	0x800000001f882b34	-2.61369448e-315
70	0x800000000334a2a0	-2.65714196e-316
71	0x000000000a839c20	8.71518677e-316
72	0x000000000b8871f6	9.5597476e-316
73	0x800000001a9037b9	-2.20184834e-315
74	0x000000001c38b137	2.339289327e-315
75	0x8000000021465ed4	-2.7581705e-315
76	0x80000000230ae726	-2.904696387e-315
77	0x00000000162ba722	1.83772453e-315
78	0x80000000013bff53	-1.0231706e-316
79	0x000000001eee93af	2.563962834e-315
80	0x0000000005fc35b7	4.9611554e-316
81	0x0000000016856a53	1.866788797e-315
82	0x800000001004dbd7	-1.32782059e-315
83	0x000000002218d5e7	2.826317186e-315
84	0x800000001ebd1e2e	-2.54794846e-315
85	0x800000000181da45	-1.2493555e-316
86	0x8000000015e8c04f	-1.816062386e-315
87	0x8000000006659242	-5.3023063e-316
88	0x000000000d7802e7	1.11643456e-315
89	0x000000000ec6fd43	1.224897366e-315
90	0x8000000010a893d8	-1.38083123e-315
91	0x80000000025535d0	-1.93371207e-316
92	0x000000000837150b	6.80958797e-316
93	0x800000001496df26	-1.70666008e-315
94	0x000000001bb18f69	2.295534805e-315
95	0x000000001f124a93	2.575526836e-315
96	0x80000000215a3899	-2.76459796e-315
97	0x00000000026ac360	2.00349864e-316
98	0x800000002112ccb9	-2.74147237e-315
99	0x8000000014f5a941	-1.737352047e-315
100	0x8000000008629596	-6.95044387e-316
101	0x800000000aa3e348	-8.81969983e-316
102	0x00000000159f4de4	1.792280936e-315
103	0x800000000b2973b2	-9.25216824e-316
104	0x8000000000e49f48	-7.4025777e-317
105	0x000000001d86d147	2.44747603e-315
106	0x800000001e36d0d5	-2.504462657e-315
107	0x00000000151c2619	1.749814003e-315
108	0x800000001f613320	-2.601076655e-315
109	0x000000001521af66	1.751606616e-315
110	0x00000000128b9b33	1.537231518e-315
111	0x0000000011128172	1.41512979e-315
112	0x8000000016ce8a61	-1.890466073e-315
113	0x00000000162b90d7	1.837696335e-315
114	0x80000000220327b5	-2.819297254e-315
115	0x80000000016cb256	-1.18085434e-316
116	0x800000001e96bbe1	-2.53552008e-315
117	0x00000000242b4c06	2.998075743e-315
118	0x00000000219201f2	2.782661126e-315
119	0x000000001ea488f3	2.539988733e-315
120	0x00000000040da57c	3.3598043e-316
121	0x800000001fc130e6	-2.63215776e-315
122	0x000000000f8f5145	1.28976179e-315
123	0x000000001766e5a2	1.939797703e-315
124	0x000000001afd8b65	2.23724737e-315
125	0x8000000020c99aef	-2.717772663e-315
126	0x0000000012872d86	1.535797635e-315
127	0x80000000148d5759	-1.7035742e-315
128	0x0000000010ff8c68	1.408991626e-315
129	0x8000000004592c21	-3.60435044e-316
130	0x000000000ee14402	1.23340541e-315
131	0x0000000006fe166d	5.79614007e-316
132	0x0000000001ed93d7	1.59815884e-316
133	0x8000000008d08adf	-7.3064783e-316
134	0x0000000021a788f0	2.789631473e-315
135	0x800000001dc893ef	-2.468768637e-315
136	0x80000000097d745f	-7.8663519e-316
137	0x000000000a578ebb	8.57254937e-316
138	0x8000000001826021	-1.25104857e-316
139	0x800000000204322c	-1.6713954e-316
140	0x800000000a8946c2	-8.7335345e-316
141	0x0000000009c9f39f	8.1140424e-316
142	0x800000000534cb90	-4.31546895e-316
143	0x000000001400590c	1.65792184e-315
144	0x0000000021377f19	2.75335445e-315
145	0x800000001eb2882e	-2.54452083e-315
146	0x000000001b1efb0a	2.24807368e-315
147	0x000000001d41ab77	2.425086633e-315
148	0x800000000dcaa633	-1.14319195e-315
149	0x0000000000c70166	6.443615e-317
150	0x800000001e0d535d	-2.491028537e-315
151	0x000000000d94131f	1.12552122e-315
152	0x000000000ba00279	9.6360473e-316
153	0x8000000013752abb	-1.61285633e-315
154	0x00000000211dd2a5	2.74504156e-315
155	0x000000000b300a47	9.27350027e-316
156	0x8000000011c4ae49	-1.472821276e-315
157	0x800000000690a494	-5.44176807e-316
158	0x00000000042fa415	3.46987545e-316
159	0x8000000012b57380	-1.55078052e-315
160	0x8000000001dd722f	-1.5459266e-316
161	0x800000000fac1115	-1.29907054e-315
162	0x800000002042b4ed	-2.67409377e-315
163	0x800000001d7f72a6	-2.445089805e-315
164	0x0000000019638476	2.10448435e-315
165	0x800000001449ad1c	-1.681664895e-315
166	0x00000000026701a0	1.99133435e-316
167	0x8000000010b83c59	-1.385901216e-315
168	0x00000000147c9c74	1.69815716e-315
169	0x000000001ed384bb	2.55520157e-315
170	0x000000000d66a858	1.11081558e-315
171	0x8000000002c7ef73	-2.3051816e-316
172	0x80000000228f53d8	-2.8646838e-315
173	0x800000001481d3d8	-1.699846175e-315
174	0x00000000069dbdbd	5.4841791e-316
175	0x00000000072c875d	5.9465123e-316
176	0x800000000def0b57	-1.154976346e-315
177	0x800000000e5ace68	-1.18986869e-315
178	0x800000000bfcf233	-9.936967e-316
179	0x8000000008662c43	-6.96206335e-316
180	0x800000001e874e50	-2.530524634e-315
181	0x800000001c29567f	-2.334317723e-315
182	0x800000000d64ff66	-1.110278104e-315
183	0x800000000478c552	-3.7066632e-316
184	0x00000000000a7251	3.382497e-318
185	0x8000000011f246aa	-1.487584595e-315
186	0x800000000fb04cb1	-1.3004411e-315
187	0x80000000004a053d	-2.396715e-317
188	0x80000000206fefc4	-2.68873878e-315
189	0x00000000044e1790	3.5684733e-316
190	0x00000000091619f7	7.53170385e-316
191	0x00000000029214d7	2.13080745e-316
192	0x8000000022f6b1ff	-2.898153343e-315
193	0x800000001947cdef	-2.09551113e-315
194	0x800000000fde5c1d	-1.315354986e-315
195	0x800000001fab98d9	-2.62516584e-315
196	0x80000000020cbbea	-1.69904087e-316
197	0x800000001846c5a6	-2.0122864e-315
198	0x800000001b8bc85f	-2.283302797e-315
199	0x80000000158e9f3d	-1.78687938e-315
200	0x000000000807511f	6.65492823e-316
201	0x800000000c3e9bc2	-1.014957564e-315
202	0x8000000000961ec0	-4.860752e-317
203	0x000000001a5121d8	2.18142184e-315
204	0x000000001f2bc9da	2.58378259e-315
205	0x00000000054472aa	4.3661511e-316
206	0x800000000f69db83	-1.27763259e-315
207	0x000000001555cbf1	1.76847984e-315
208	0x0000000015f5ce56	1.82028941e-315
209	0x8000000017c1fa01	-1.969288437e-315
210	0x8000000018a197c0	-2.041693317e-315
211	0x0000000022f5068e	2.89761271e-315
212	0x000000001a5e2080	2.18562942e-315
213	0x8000000014165a41	-1.665046765e-315
214	0x800000001a8b19c1	-2.20019148e-315
215	0x000000001cdc6e7a	2.39230662e-315
216	0x8000000011e117e1	-1.482020976e-315
217	0x000000000e57723e	1.18878075e-315
218	0x000000001d52bb48	2.43061108e-315
219	0x0000000001fec17f	1.65378075e-316
220	0x00000000220d47de	2.82257584e-315
221	0x000000001c79fb75	2.360429636e-315
222	0x8000000000c84b3a	-6.485332e-317
223	0x800000000da0a0df	-1.129585997e-315
224	0x000000001caea4a1	2.37748073e-315
225	0x800000000c1f0881	-1.0047338e-315
226	0x800000000446b5b9	-3.54457047e-316
227	0x0000000005d85052	4.8449272e-316
228	0x8000000000f31c19	-7.8716718e-317
229	0x00000000194fa7ec	2.09805338e-315
230	0x800000002122c52d	-2.74664348e-315
231	0x8000000008eff831	-7.40823615e-316
232	0x800000000131e5f0	-9.904704e-317
233	0x00000000046a4f3a	3.6598388e-316
234	0x0000000011a9e6fa	1.464150627e-315
235	0x000000001ecade54	2.552400774e-315
236	0x800000001cee99e7	-2.39818978e-315
237	0x800000001200c73e	-1.492280294e-315
238	0x0000000007065252	5.8228009e-316
239	0x800000000aefc319	-9.06537383e-316
240	0x00000000026b1afa	2.00460664e-316
241	0x00000000229e9572	2.869623636e-315
242	0x0000000010ed19a7	1.40301825e-315
243	0x800000001a51f661	-2.181690657e-315
244	0x00000000187a4fe7	2.0289746e-315
245	0x000000000e38e91a	1.178893565e-315
246	0x000000001d7beded	2.443950563e-315
247	0x0000000007237b90	5.91722187e-316
248	0x000000000f8d95ee	1.289201053e-315
249	0x800000000de11c28	-1.150464544e-315
250	0x0000000015832e3c	1.783174753e-315
251	0x8000000018db2edf	-2.060340536e-315
252	0x800000000ef995ce	-1.241279847e-315
253	0x00000000036aa06e	2.83196126e-316
254	0x000000001e06d1c0	2.488921856e-315
255	0x000000000cc9e74a	1.060060026e-315

bias_0 f8 [1, 64]
0	0xbfc375fde70e1ad5	-0.15203832418429522
1	0xbfd967945ab512a5	-0.39694699152122787
2	0xbfaf9a07718edebe	-0.061722023593970374
3	0xbfb22ae335b9d613	-0.07096691190403019
4	0xbfd0244734550d5a	-0.252214242082308
5	0xbfe5714c42ff460d	-0.6700803097284634
6	0xbfa80b2f29edf949	-0.04696032893024211
7	0xbfdfc136774a976d	-0.4961677708582702
8	0xbfd9da03a25d0479	-0.40393153053089
9	0x3fb043c72e246062	0.06353421093479164
10	0x3fd47abf7023b33f	0.31999193144911325
11	0xbfc944cb734da3aa	-0.19741194849055194
12	0xbfe384b54157a139	-0.60994971048516
13	0xbfc48eabaa0f881b	-0.16060396007293395
14	0xbfe0e669e8d42421	-0.5281266734538158
15	0xbfe43af6b6af5a65	-0.6321977203431969
16	0x3fd4da9657f337f8	0.32584150875925344
17	0xbfd65d13fa6d1b46	-0.34943103271182385
18	0xbfd4d02fb4377b67	-0.3252066860131237
19	0x3f969777864d0af3	0.022062175342635503
20	0xbfd709be483dd194	-0.35996968321639966
21	0x3fdc316c4813097b	0.44051653898727466
22	0xbfcdfda27566de2f	-0.23430281384001847
23	0xbfe12ddaf13be39d	-0.5368475638962199
24	0x3fd56fe76b8dda93	0.3349550772030991
25	0xbfc076f4c1adcd9e	-0.128630251474175
26	0xbfb7fd563a4ef7e0	-0.09370936320826173
27	0x3fd69a17179d9e77	0.35315491968365315
28	0x3fd65238e4fde678	0.3487684475181605
29	0xbfc8ff377979a2bc	-0.19528859549907007
30	0xbf7e7bfae103ab70	-0.007442455287882108
31	0xbfcc0c5bc27886d5	-0.21912714954037563
32	0xbfdfe97490211963	-0.4986239821922906
33	0x3f99d4f34f416ec5	0.02522640391576549
34	0xbfcee21706969d97	-0.24127471753784555
35	0xbfe39db382f4e15a	-0.6130006368394263
36	0xbfc650a9420e5058	-0.17433658337961577
37	0xbfdb037491c9ba6b	-0.422085897799582
38	0xbfd4b8e257192cd6	-0.32378443246552757
39	0x3fb85a3efb582800	0.09512704502427027
40	0xbfc4b13cccd7c0d5	-0.16165885927285353
41	0xbfb51c9c3b3d88ea	-0.08246780821130853
42	0xbfa4ecaea72a2907	-0.04086824217400147
43	0xbfc479e645cd6158	-0.159970077593935
44	0xbfe23f26b46ecb48	-0.5702088855817715
45	0xbf9a2ffadaa6f26e	-0.025573653789012267
46	0x3f9fe3eb7001014a	0.03114288207166397
47	0x3fc6edde1fcc90b7	0.17913414528550728
48	0xbfe8c52353a83af0	-0.7740646966866205
49	0xbfdcea1e1d840992	-0.4517894066085769
50	0xbfd7afc9f2b27757	-0.3701043005074686
51	0x3fcbe5c2c5c71c6c	0.2179492440902523
52	0xbfb9b9f31baf43f3	-0.10049361635107328
53	0x3fd02d357c478356	0.2527593339601045
54	0xbfd226cc6ba00f4e	-0.2836180735614463
55	0xbfe7e13752e56386	-0.7462422007621263
56	0xbfe01f462e75720f	-0.5038176448247799
57	0x3fc455d470bfcb51	0.15886931901294557
58	0xbfe1e9a9d0d2cf1c	-0.5597733572562649
59	0xbfdaf591922f16d8	-0.42123832011962525
60	0x3fa64274fe8791b7	0.04347577673960095
61	0x3f6423263504dd3f	0.002458166716816784
62	0x3fc6e2b1df22a363	0.17879317660597413
63	0xbfd369e052541ebd	-0.3033371738424469

weight_1 f8 [64, 32]
0	0xc0149664190355ef	-5.146866217449754
1	0x3fe43b7bab4a64e2	0.6322611184615676
2	0xc01cb4f6ea85dc7c	-7.176723160190814
3	0xbff1c5915bb8d6d1	-1.1107343275920594
4	0xc01493921685d15a	-5.1441119689155475
5	0xbff24850874dd4cd	-1.1426549229920966
6	0xc007260a07e97ac6	-2.8935738199355425
7	0x3ff9a12b5f79ccfa	1.6018480042956171
8	0xbffc2014647ad0a1	-1.7578319478025508
9	0xc00bba2dd39fa94c	-3.4659077199077384
10	0x3fc5cf2ef4a020aa	0.17038523621181884
11	0xbfb9bd845c43ca05	-0.10054805042799593
12	0x3ff89b9d24beb3a7	1.5379916606282025
13	0x3ff29aa95a6516f6	1.1627591639566481
14	0x3fe4fc9427ad2768	0.6558323645524355
15	0x3fe69e17b73a23e9	0.7067984179167272
16	0xbffaebae030d8104	-1.6825389975784342
17	0xc014f18378caec60	-5.235853087792833
18	0x3ff12ae930b9b97f	1.0729762938823055
19	0xc000fcacff2cc165	-2.123376840165451
20	0xbff0cb08418738ca	-1.0495684203811373
21	0xbff7596ef42eb8b6	-1.4593343294505252
22	0xc01324784216ca9e	-4.785614998475152
23	0x3ff19435df569d06	1.0986841892388965
24	0xc0126b5205ce38f0	-4.6048050791853115
25	0x3ff49a4eb597c3cc	1.2876727193326927
26	0xbfc9ba1e860b9993	-0.20099240822964912
27	0x3fe7e4c3ec0b7cd1	0.7466754541636879
28	0xbffab21138de4408	-1.668473455564028
29	0xc013b5fdd25a2aef	-4.927726065400505
30	0x3fcc886f01ba1396	0.22291362366027262
31	0xbfd5fd76b6b1a0bd	-0.34359519807049904
32	0x3fd8f2e3689fe3ba	0.38982472626917863
33	0xc001c07bd5649eee	-2.2189861937839543
34	0xbff6b723dbfafce2	-1.4197119324670031
35	0xc008b3dc3822657f	-3.087822378682801
36	0x3fb6fe1fedfe6317	0.08981513557808928
37	0xc00d0dd6cda40a6f	-3.6317573610006586
38	0x3fdbbcb04077af46	0.4333916310849769
39	0xc005ab784a478020	-2.7087255290098398
40	0x3fca936be0ba835d	0.2076239440257507
41	0x3fd0479e418a4b73	0.25437122726832867
42	0xbfc2a479b2601a02	-0.14564439019905256
43	0xc01ca76decc9ae7c	-7.163505267915408
44	0xc00a26a240c01deb	-3.2688641604070106
45	0x3fe3f1c83749fa0a	0.6232644157278753
46	0x3fbc03abb60cc91b	0.10943101114824964
47	0xbfaf146855c317b4	-0.060702572316173514
48	0x3fc2c1237f950b41	0.14651912431335215
49	0xbffa4a42569af1b3	-1.6431296713845824
50	0xc01398a92202f7c4	-4.899082690650122
51	0xc01093a30b2301c1	-4.144176649104737
52	0x3fde33a9ecc78848	0.47190330622664023
53	0xbff62b9d87053787	-1.385648276732782
54	0xbfb2c6953d14af37	-0.07334263554792818
55	0xc010164d4225d632	-4.021779092368478
56	0x3fdd04351b65d54c	0.4533818023258689
57	0xc009da70c71faded	-3.2316604191344056
58	0xbfdb8c1f815b9a3b	-0.4304274333248121
59	0xc0112ccbfdb4f04c	-4.29374691407072
60	0xbff7da68d9d5bbf5	-1.490822649877143
61	0xc0004defc8d68d1a	-2.0380550089336227
62	0xc001f004af82d6d0	-2.242196437054055
63	0xbfd9e1f1e8157a8e	-0.40441558517878995
64	0xc00dc0daea058528	-3.71916754559847
65	0x3fd141886e4b27f6	0.2696248128019073
66	0xc01200b3ca85cf34	-4.5006858486338395
67	0x3ff0a388b50b9f69	1.0399252960287078
68	0xc00bcdfd91ca64c7	-3.475581301678719
69	0xc00670b1d3d0e520	-2.805026678860159
70	0x3fe115631be1b0ca	0.5338607353746962
71	0xbfc1eab0387bbdc6	-0.13997462041832714
72	0xbfaaeb53595e1c76	-0.05257664171136238
73	0xbfe0425a4391b93c	-0.5080996818267418
74	0xc0084b575ac3f56b	-3.036787709336456
75	0x3fc22b141f7255b1	0.1419396546886396
76	0x3fe50d83837b34b0	0.6578996246331794
77	0x3fd0b8eff35c2fb8	0.2612876774371631
78	0xc014e1ad51904c91	-5.220387720520322
79	0xc002765b19f3ec81	-2.307790949589219
80	0xbff78d210117e2d0	-1.4719553034503186
81	0xbff2d2268b3b270e	-1.176306289550158
82	0x3ff0dc581c0d96ed	1.0537949653457261
83	0x3fe3f01a7238f797	0.6230594855221508
84	0xbfe6bd864320ace3	-0.7106353102766686
85	0x3fd5c1ad38779df4	0.3399460841596629
86	0xbfe58de5a8bc7582	-0.6735714240673334
87	0xc00548487fcf3fb9	-2.6602945313570356
88	0x3fd18d97a3e88190	0.2742671108881263
89	0xc00145aced751548	-2.159021239410013
90	0xbff8bdd930de9b79	-1.5463497075049573
91	0xbffb83ebe273de75	-1.7197073789410784
92	0xc014b60d0e5155ef	-5.177784179415069
93	0xc0005e625dba5d0e	-2.0460860559939027
94	0xc00f471e816e2147	-3.909726153539086
95	0xbfc987ef898c4e62	-0.19946092811788946
96	0xc013792f05448e4c	-4.868343431767766
97	0xc00341fe7770ccf4	-2.407223637704755
98	0xc01cf0cdd8e1f2c6	-7.235160244742195
99	0xbff2c37225d2a8b8	-1.172716281648304
100	0xbff24d247413a5f9	-1.143833592819986
101	0xc01492d8d9b466f7	-5.1434053436621445
102	0xc0061ea8e4d6bd91	-2.7649705770524595
103	0xc00cf544a8e82a19	-3.619759864411446
104	0xbfd54c0dbbe19d48	-0.3327669462946301
105	0xbff7a9fa7f1ae1e3	-1.4789986577071594
106	0x3feb029d9b40c44d	0.8440692932400765
107	0xc0167a3d4da1895d	-5.619374478325281
108	0xc0095a214a86027d	-3.169008810248043
109	0xc012c352550a5c0d	-4.690743759877489
110	0x3fe3723c98a6ecee	0.6076949101910978
111	0xbff529142c144a4a	-1.3225290033193624
112	0x3ff2e9154446a5ff	1.1819050471334547
113	0xc011d003d2609059	-4.453139578956404
114	0xbfe0f23d767d4d18	-0.5295703233954638
115	0xbfb4bc3f2229eabc	-0.08099741539073596
116	0xc00bcb28fc885241	-3.474199269209095
117	0x40054f6b4de1f920	2.663778885325101
118	0xbffa93534835ecf7	-1.6609680958488846
119	0x3fa4de1c8e1792aa	0.04075707659265977
120	0xc00122f825c9b81d	-2.1420748665032208
121	0xc003a4cd86ad0a49	-2.4554701348836585
122	0xc0048514820d1d51	-2.5649805221798165
123	0xbff8676f3efca388	-1.525252576868498
124	0x3fe75db45bc66379	0.7301885406951519
125	0xc010f930d0e9f835	-4.243350281029099
126	0x3fe815e26e2c8361	0.7526714469750965
127	0xbffd536eb7e0d3b5	-1.8328692610495925
128	0xc0051d20c4f1d2dd	-2.6392226587580425
129	0xc0050aaac06ef691	-2.6302084955085054
130	0xc0171670ffe37b5f	-5.771915434131045
131	0xbfd8b89eb4b70edd	-0.3862683071895228
132	0xc00583f4d0aa9316	-2.6894317915015433
133	0xc01accd4ec0832da	-6.700030982971578
134	0x3ff1417e2b17b11c	1.0784894641211116
135	0xc005f4a70a234b29	-2.7444592277546644
136	0x3feef0d1547e697c	0.9668966913480257
137	0xc00723326c0ed4f2	-2.892186016276008
138	0x40152114177a15b3	5.282303206278288
139	0xc017bf374ed7930e	-5.936734420688266
140	0xc00e06bef0cd9788	-3.75329387786309
141	0xc01554be3026f963	-5.332756760004801
142	0x3facd5f2a90816ee	0.05631979287504217
143	0xc0001bfb96aff9ac	-2.01366346096548
144	0x3fd990952ec1af98	0.3994496304137498
145	0xc011fc37b7187202	-4.496306286685014
146	0xbff72f3fd7d61464	-1.4490354949096167
147	0xbff6682f4a007204	-1.4004357233708342
148	0xc008a0a9d2f3487c	-3.078448913621342
149	0x3ffefbe8bea0bf72	1.9365012594607518
150	0x3fe68526a0b3eb4b	0.7037537707068194
151	0xbff9577ea07d643d	-1.5838609952100022
152	0xbff490547f39ae37	-1.2852368325938082
153	0xc00b6ae95c647d6a	-3.427202913109501
154	0xc013ef6c8c592b3d	-4.983812516157568
155	0xbff7eade5a6bd3f4	-1.4948409587934721
156	0x3fe7e0aa663c0d9c	0.746175002743644
157	0xc001c5639ee63da3	-2.221381417657271
158	0x3ff322954178e190	1.1959431226260655
159	0xc0088598f1a5f7e9	-3.0652331236624275
160	0xc00b51c2c898f67d	-3.4149223014526897
161	0x4012a48fc40caefe	4.660704673074859
162	0xc00e67495e0b4404	-3.800432905882646
163	0xbfeb7fb8201e187e	-0.859340727548229
164	0xc00ef2e64e922ee7	-3.868603338085325
165	0x400a5d515cfba897	3.2955653442669006
166	0xbffb28669dc54260	-1.6973634875213506
167	0xc00c41f5a7c2cca9	-3.532206831581409
168	0xbf7c646d5fffcfeb	-0.006931712385256343
169	0xc0081327b7a3e44c	-3.0093530985728076
170	0xc0036852cf4509de	-2.4259391968673603
171	0xc009f98b3574a5ce	-3.2468475509856267
172	0x400677ae40f098c6	2.808437831251555
173	0x40130f51fe443433	4.7649612168434485
174	0x40012f616a23fec1	2.1481350223765223
175	0xbff8bc7e19ee61db	-1.546018697065043
176	0xc004025c15522484	-2.5011521974270767
177	0xc0122b9b968ea2ac	-4.542585709052826
178	0xbff964b8292fdcec	-1.587089692007619
179	0xbf5483bb14380417	-0.0012521101897393688
180	0x3fd367903ad4178a	0.30319600815743597
181	0xbff12fa495e53704	-1.074131570366661
182	0xbfdad06b0b8a3b20	-0.4189708340353935
183	0xc0071866076e56a5	-2.8869133549258827
184	0xc00e0e0c8e20569d	-3.756859884607208
185	0x40139544b576a601	4.8957699159304875
186	0xc0056a8e52733d5e	-2.6770292703073855
187	0xc00081def588a928	-2.0634135420160824
188	0xbfed55d9bb6f5071	-0.9167297993503906
189	0xbfc97c4e5b66e4f1	-0.19910602057442575
190	0xc007c31663c49846	-2.9702575487490632
191	0x4003245cbfc5159a	2.392755029871023
192	0xc01065b972c80da0	-4.099340241871147
193	0x3fd5ea3b772f79ec	0.342421404258771
194	0xc01c6b5b4ad706e6	-7.104840440153316
195	0xc00d028ae36d7a99	-3.626241471079379
196	0xc00ac39b06e5e118	-3.345510534181937
197	0xbff53197519fed16	-1.3246071995225228
198	0xc00ad0d840cdf2f8	-3.3519749701357533
199	0xbfbdfd8e70c80d10	-0.11715021375134804
200	0xc000e41303f4eab7	-2.111364394103784
201	0xc009079763cc1403	-3.1287067219404903
202	0x3fd1ea09068c8e41	0.27990937842898594
203	0xc018020777815018	-6.001981608646041
204	0x3fc15fa6c9a3f4e7	0.1357315525600946
205	0xbfc139f4910c2069	-0.1345811565627202
206	0x3ffef80b4a35a6d7	1.9355576418696978
207	0xbfcd60dea3dbacea	-0.2295187282646574
208	0x3fc0582d80a392e3	0.12769097119521353
209	0xc01617a7eedb4870	-5.523101551183672
210	0xbff56fc2c69a12c3	-1.3397853620419233
211	0xc00e3edf288921f7	-3.780699078259427
212	0xbfe45565885fdd11	-0.6354243911327179
213	0x3fc13a291a530608	0.13458741937033403
214	0xc012678ab575958c	-4.601115069677132
215	0x3fd5b0f809e44a2a	0.33892632452003346
216	0xc015b3821122f7e9	-5.4253008534997
217	0x3fe5e622ec90e70c	0.6843428249769388
218	0xbfe6e10b484e6e78	-0.7149712002023554
219	0xbff124ee1dfa9f00	-1.0715161486677403
220	0x3fd521a780e2c10f	0.33017909609317625
221	0xc012b1d2cef7f22a	-4.673655732997341
222	0x3fe2b06d41bfd185	0.5840364727178416
223	0x3fbed61ae40ae0c3	0.12045448367541937
224	0x401029f1281155ad	4.040959001596474
225	0xc001d140f9120ffa	-2.227174707282754
226	0x4002baa9c39ab975	2.3411441117852356
227	0xbfedaf3cac4908e7	-0.9276412358233558
228	0x40045139dda05c65	2.539661151367499
229	0xbff903516506a7cb	-1.5633100458457985
230	0xbff1c3bf1bef5bae	-1.1102896777353908
231	0xbfe8bca21ab807be	-0.773026516137399
232	0xbfc623ee9465ab76	-0.17297155614809484
233	0x3fc0251f33e87897	0.1261328700501891
234	0xbfe8d2bb73c22161	-0.7757241497902606
235	0xc00d708bf677fdbe	-3.6799544577949908
236	0xbfe309c96e01f8f8	-0.5949446819866173
237	0x4011a00658091e4c	4.4062742000165365
238	0x4002f409efcb5f9e	2.369159577745406
239	0xbda48c6a854a5b5d	-9.344376110844197e-12
240	0x400d0ff79cafc83b	3.6327965012688117
241	0xbff4525c28cb42c9	-1.2701074212565564
242	0xbfc36ddc5e2b5a2f	-0.15179018591034452
243	0xbff31c0d192ed167	-1.194348429079662
244	0x40122b3d4c877a30	4.54222602440727
245	0xbff52ac7d663dc04	-1.3229444861042348
246	0xbfb2d614c9b71dd1	-0.07357911991777334
247	0xbfe358fba4bbc13f	-0.6046121804666099
248	0xc00728f485466282	-2.894997636042093
249	0xc0042bd13e8c88af	-2.52139519564033
250	0xbffd9342de08cffb	-1.8484524415225667
251	0xbfb24eacf4d276c6	-0.07151299454786927
252	0xbff34eef05ffdf9b	-1.2067709192615215
253	0x3f7a72f9246020e4	0.006457303248687849
254	0xbfd1a9aaa0191ceb	-0.2759806216676696
255	0xc004a215838f4494	-2.5791425970169914

bias_1 f8 [1, 32]
0	0xbff4a3fac66c9a6b	-1.2900340796419651
1	0xbff524a1b03ff3f8	-1.3214432606466726
2	0x3fc01b5ec49113c5	0.12583527181609902
3	0xbffc7ea27ad65d83	-1.7809166715940996
4	0x3fb4802861c9bd6e	0.08008053195384487
5	0x3fbac50cb15a5e2e	0.10456923799426285
6	0xc003d12e0c5fd51b	-2.4771386114831677
7	0xbff2d0d9a95fa4fe	-1.1759888282925313
8	0xc0040241ca2262ee	-2.5011020461791906
9	0xc0040495538eb986	-2.502237942498314
10	0xc00131d51c658d87	-2.1493322580806224
11	0x3fbaa04ca6b79c78	0.1040084750198832
12	0xbffa7417054ae119	-1.6533422667253659
13	0xbff16d01937f9d8f	-1.0891128312740397
14	0xbffe58cfb50aac05	-1.8966824600163374
15	0xbffcc369d0cd5748	-1.7977083355267087
16	0xc002f04761b0e09f	-2.367323649607058
17	0xbffd957949c2c286	-1.8489926224976059
18	0xbffe82986028b586	-1.9068835979663574
19	0xc0013884f901aa27	-2.152597375262548
20	0xbff7ed36e29290eb	-1.4954136705865106
21	0xc00125c61e6e73c1	-2.143444288011296
22	0xbffa18a9fe612705	-1.6310214935969622
23	0xc001f0d7ad15505b	-2.2425988695268138
24	0xbff676e7029e611e	-1.4040289022723935
25	0xbffb5f3055569918	-1.71073945365203
26	0xc0016875c167f0c1	-2.1760058507771594
27	0xbff85b80ef63f086	-1.5223397589861931
28	0xc00260ecbd50db4c	-2.297326544790314
29	0xbff403d1f00d5171	-1.2509326340706048
30	0xc008297edffcc096	-3.0202615260132673
31	0xc001da1f523a6ad9	-2.2315050529553955

weight_2 f8 [32, 10]
0	0x400f4420d2a53786	3.9082657295866197
1	0xc00d4c027009cc23	-3.6621140244474346
2	0xc00b1f14a42f8fd5	-3.390176089002106
3	0xbff2bf54398984ec	-1.1717111823602933
4	0xbfd910b28091044f	-0.3916441207439378
5	0xbff88d85f22111bc	-1.5345515688105555
6	0xc004284a13ccd007	-2.519672541320691
7	0xbfeb523023a404f0	-0.8537827201945714
8	0xc00aa5a813dea822	-3.3308869888615087
9	0x40099ec875cef840	3.202530784968104
10	0xc012fa0b7feca40e	-4.744184492891703
11	0xc0113869c45c0279	-4.305090969196152
12	0xbfdc8d33a79fd506	-0.44611827249112
13	0xbfff2fe19ad402de	-1.9491897628760664
14	0xbfe6584bce257074	-0.6982783342641725
15	0x3fd13864a4f70c8a	0.26906696424357135
16	0x400e47f57105c9ba	3.7851361112490993
17	0xc002d58fe25ab95a	-2.354278343576124
18	0x3fd0ef161e60ff92	0.2645926758450453
19	0xc007f5882ae2177e	-2.994888625168584
20	0x3ff3438065638e22	1.203979869890539
21	0xc024852d987d2f92	-10.260113492280457
22	0xc010885c02a60f11	-4.133163491616657
23	0xc0065cf6e6fcffc3	-2.795392803760451
24	0x3ff29551a87e041e	1.1614548284271744
25	0xc01168421ef632c6	-4.351814731384996
26	0xc016a7c88c4fa7f3	-5.663850967752285
27	0xbffcd5eb234e23ba	-1.8022261981115961
28	0x40056c289fdc0b0b	2.6778118599917256
29	0x4007d57ffff398df	2.9792480465140296
30	0xc01b8c987fb815b4	-6.887300487146991
31	0x3fe041e65b6e19c7	0.5080444131606833
32	0xc025e02da3bb6fb1	-10.937848202352912
33	0x3fff5999b165c7b0	1.9593750886528873
34	0xbff27f9fb6b66f19	-1.1561581742489067
35	0xc0062639de9e8bc8	-2.7686650650152593
36	0xc01ec429dcd1d7d3	-7.691565943057827
37	0x400e2ecdb866f499	3.7728533178729546
38	0xc01f9919da45e9bc	-7.8995126824542545
39	0x4003cf14df6ad45e	2.4761140303112787
40	0x4008e7eb920cb09f	3.1132422838328035
41	0xc01db50762a43dd9	-7.426785985254775
42	0x40063c83f5e95782	2.7795485698542857
43	0xbfc647eb8b11ddad	-0.1740698269893363
44	0xc010f779faa8019a	-4.24167625093869
45	0xbfd92688bec0fc07	-0.39297693851762044
46	0xc00bc19b68eb56a6	-3.469534701997719
47	0xc012165fe330a82e	-4.521850156636033
48	0x4009bc28d8962325	3.2168747826402915
49	0xc01c46128ebd0051	-7.068430166516991
50	0xbfe4dd070bd69597	-0.6519808989730106
51	0xc016c95491b52655	-5.696611668282988
52	0x3feabcd4cc4e9e16	0.8355506887791673
53	0xbfff534b73d9f176	-1.9578356290286059
54	0xc00272d385be369b	-2.3060675095246785
55	0xbff89e9f34db53bd	-1.5387260498730335
56	0x4006347be84d46bf	2.7756269596655723
57	0xc01dec30f55758b0	-7.480655511337474
58	0x4010aaec97e1a661	4.166918156764582
59	0xc019032c71a3604a	-6.253099227520645
60	0xbfe0be42aa7d7673	-0.523225148189978
61	0xc00ffc918ae7108c	-3.998324475456746
62	0xc0096d1da9e12824	-3.1782792350613978
63	0x400b3ad4d671d55e	3.403726268147394
64	0xc015e61c06d35184	-5.474716288230756
65	0x3ffb0222dce55847	1.68802152907803
66	0xc00d06cc84129063	-3.6283197706380164
67	0xc00a5f6e22d115e6	-3.29659678650454
68	0xc01b93de00006ea5	-6.894401550318126
69	0xc01897628089225c	-6.147836693162926
70	0xc0139c2f315b1052	-4.902523776228991
71	0x40028edd97f79f9c	2.3197585937923133
72	0xbfe222a1ce7cf244	-0.5667275460214758
73	0xc00cfe9cf5a52aa4	-3.6243228140859447
74	0x4006a99b6a4c23ed	2.8328159622656046
75	0xbffad8f177134315	-1.677964654100099
76	0xbfe4b5ec63ad35c9	-0.647207445793975
77	0xc0119601612c946d	-4.396489637704787
78	0x3ff0c3c394b7648a	1.0477939423783789
79	0xbfef853136c2b7a2	-0.985008818582845
80	0xbffc57d097be0cde	-1.7714391639172429
81	0xc003ea119b3cafba	-2.489291394032958
82	0xbffb1fc02757b0de	-1.695251611406142
83	0x4016ed2871448056	5.731599588209141
84	0xc007fda58398bff1	-2.9988508492460757
85	0xbff1e984967d04ec	-1.1195112112475796
86	0xbff924672d031324	-1.571387458637397
87	0xc00f77bae2e38f90	-3.9334619260498087
88	0xbfe343108618eaf1	-0.6019365901077817
89	0xc005a19e8a7db472	-2.7039156741726
90	0xbfe13c7016cf105a	-0.5386276669965
91	0xc0003d0f6c0d197f	-2.029814571523445
92	0xc00153a696df60ef	-2.1658450877113107
93	0xc014644ced97cc67	-5.097949707403223
94	0xc00ffa6cd4faf057	-3.9972778929787114
95	0x4013213ece54f28b	4.782466148314266
96	0xc001cc0877a907aa	-2.224625525327572
97	0x4001937b4cce4019	2.1970125198786374
98	0xbff3d4a45ec36cad	-1.2394145681089797
99	0xc00ded12880707b7	-3.7407580020089557
100	0xc0119dbafc0d56e2	-4.4040336020604816
101	0x4002d8a77609341a	2.355788156658048
102	0x4003ddded5100dd3	2.4833351750873844
103	0x40042744b621212d	2.519174025426898
104	0xc019025c86132ae3	-6.252306075019734
105	0xbfed85fe4bffac42	-0.9226066097593348
106	0xc010e6bb038f5ed8	-4.225322776437416
107	0xc016ef654e0c4ef0	-5.7337848849308415
108	0xc00eefa1643cf848	-3.8670070487123986
109	0xc01a64b6b52745dd	-6.598353224298504
110	0xc01b1fabe0f7b9fc	-6.7809291030121095
111	0x40122dde818a916f	4.544794105608488
112	0xc00225c0bbd7136f	-2.2684340167056045
113	0xc008425e8fdf016b	-3.032406925194825
114	0xc008ba8ce022e582	-3.0910890112542697
115	0xbfff07309a3b1e72	-1.939255335297187
116	0xc00e2fd3730b7f01	-3.773352526462873
117	0xc00697f410fced38	-2.8241959883868297
118	0x40130c24da853a1f	4.761859335309537
119	0xc019203d1ea4e8c2	-6.281483153167018
120	0xc00b1ebf49e58650	-3.3900132916612975
121	0x4015e2efcc1ca8af	5.471617879151537
122	0xbff7d8eaf3aa04a7	-1.4904584425096716
123	0xc00960968a85d7f6	-3.1721621343704056
124	0xbff1661d40606e23	-1.0874302401269993
125	0xbfe47991d8338a8d	-0.6398400519068034
126	0x4003af2e5329e68c	2.460537576404766
127	0xc0139f42e042ccf3	-4.905528549267944
128	0xc0084de56361ce71	-3.0380351795409344
129	0xc00380284a152635	-2.4375768459038007
130	0x400ceb952cddfc41	3.61503062298246
131	0x3ffd5f1ec86a3125	1.8357227162078484
132	0xc01285b6968f37fb	-4.630579330912947
133	0xbfe9b6817aef1096	-0.8035285378505417
134	0xbff79e68ba443df4	-1.4761740947759536
135	0xbfeed1a0d81834c2	-0.9630893917652872
136	0x400cb91f5553649a	3.590391794784023
137	0xc0053a08f336cc16	-2.6533373833749563
138	0xc00785c6f688b2e6	-2.940320898100583
139	0xc000fba90a2937fe	-2.122881011374374
140	0x40013fa2b2826e88	2.156072039227926
141	0xc01646692be3185e	-5.5687605721815014
142	0x400321b513e6a3e3	2.391458659626083
143	0xc01ae580a37d17ea	-6.72412352992067
144	0x4002ffe7dbc1a4b3	2.374953953597094
145	0xc002bb95462e03ff	-2.3415933115761614
146	0x40019f8601f7240b	2.202892318110121
147	0xc018e01f16df1496	-6.21886859642577
148	0xc0168e42e5c01fa5	-5.638927068568511
149	0xc011820d5459ca3a	-4.377003972988456
150	0xbfe34752444951bb	-0.6024562200278106
151	0xc004da9333ae48c6	-2.6067260778009738
152	0xc000ce44a91849cc	-2.100716897062034
153	0xbff41c817a0b6582	-1.256959416138074
154	0x40143d4b3c896ba1	5.059857316863515
155	0xbff9575720afbd7c	-1.583823325807173
156	0xbfd22c6d19f74a05	-0.2839615586828191
157	0xbff23078d4abad45	-1.1368339831777388
158	0xbfe6fc0f5343b28a	-0.718269026399484
159	0xc0069e77ac9929b0	-2.8273766979447927
160	0x4007736ff67f4baa	2.9313658959958575
161	0xc00f580c0129c692	-3.9179916468500062
162	0x40052c3f3d1a83a7	2.6466049932209503
163	0xc012d173a5b48d01	-4.704542721886583
164	0xc0104a81da8da146	-4.072760977644355
165	0xbfee47eb9dd8200b	-0.9462793429274837
166	0xc006146fcbe1b8ff	-2.759978859735497
167	0x4002244f28208024	2.2677291045111065
168	0xc00ada423c90eb34	-3.3565716487622925
169	0xc008cd3e21e59c61	-3.1002161644169495
170	0xc010b91c3c27d76a	-4.180771770412187
171	0x3f94e639b713200c	0.02040949039363231
172	0xc0121591191efba4	-4.521061317935992
173	0xc008deb8bcec63d0	-3.108750797237441
174	0xc002e9e9c10670a0	-2.3642153816309275
175	0x400181754595abd4	2.1882119594861056
176	0xbfc07034003d262e	-0.12842416774428628
177	0xc0060465a1753ef1	-2.752146970167694
178	0x3ff210ee9d6d6927	1.1291338109500175
179	0x3ff663f70bd955d2	1.3994055235719896
180	0xc0084bf9b4c6fa18	-3.0370973704550686
181	0x4014c4b38b88e604	5.192091160040494
182	0xc0021b6594661f30	-2.2633773416199787
183	0xc011efab18b4b834	-4.484051118879552
184	0xc011beee91c426a0	-4.436456945035076
185	0xbff4e4b6f1055a43	-1.3058385290984382
186	0xc001c87060f71b3c	-2.2228705954943546
187	0x401120382b5c68a7	4.281464269175706
188	0xc005e353297b0051	-2.735998462740135
189	0xc012fdbb7c8d3356	-4.7477855168516125
190	0xc007ff30d3b0bab4	-2.999604848700381
191	0xc019069377eb4268	-6.256421922430128
192	0xc01157db2fe37b37	-4.335797069796903
193	0xc0039739b10b352b	-2.4488405067010226
194	0xc01864f2500dca71	-6.098580599633906
195	0xc0036e1d80b12ae6	-2.428767209440923
196	0xc0130136f319bd64	-4.751186178632768
197	0x401c5e0425bd5ab8	7.091812696153902
198	0xc008c6876d6b6480	-3.09693799480425
199	0x400069e2464a548a	2.051701115744952
200	0x40120df7139b2009	4.5136378348761435
201	0xc01479149e0f2f1b	-5.118242711712607
202	0xc0180eec81a92116	-6.014574075649099
203	0xbffe3233c44a8f15	-1.8872563998820102
204	0xc00b0a077e42e009	-3.3798971046599076
205	0x3fcca7a90cfd1261	0.22386658796507944
206	0x3fed29a184edec27	0.9113319011952442
207	0x40037435dbbd8193	2.4317433516700446
208	0xc008d5eafdee0f5e	-3.104452117755428
209	0xbfdc8aa7c1159dea	-0.4459628472891085
210	0xc02352696d1347de	-9.660960587123494
211	0xc026d9c670d08fa6	-11.425342107257006
212	0x401044529c0ed0b6	4.06672138061929
213	0x400eef59a4dda54f	3.866870201124278
214	0xc0207e0f09117274	-8.246208461169978
215	0xc019be4e083d268f	-6.435844544155443
216	0xc0235d2ee2536fd9	-9.681998322186631
217	0x401067956693c530	4.101155855912381
218	0xc01e9e5734469d3b	-7.654629532632778
219	0xc02daff53105ab9f	-14.843667537634074
220	0xc007e6682425489d	-2.987503321063811
221	0xc0109f8ed345e9a3	-4.155818272726182
222	0xc010788701fe547a	-4.117702513835974
223	0x40138d7fca3dcc1f	4.888182792684375
224	0xbfdf5478d3460ae4	-0.4895307601183687
225	0xbff02ec8d01e4edc	-1.0114219789147034
226	0xc00cae85ad00df04	-3.5852159038439613
227	0xc00cd0511102d4a2	-3.601717121981509
228	0x3fea2b1e20741b12	0.8177633890016713
229	0x3ff5af02af35df6f	1.3552271694333873
230	0xc0013384304eae89	-2.150154473687341
231	0xc011bf9a91e998f9	-4.437113075144446
232	0xbfc918980afe55f3	-0.1960630468062586
233	0xc00de5d4744a6772	-3.7372216305929493
234	0x400e6a239293172b	3.8018256617678126
235	0xc00af2ecbe500d21	-3.368615614717456
236	0x3fbc3e8fcea480c2	0.11032961649880504
237	0x3ffda639bb82e24c	1.8530824017199334
238	0xc00a6d70f823843d	-3.303438128074531
239	0xc01380fd5c77dfcd	-4.875966496292631
240	0xc0026578d554f6a5	-2.2995468775323666
241	0xc01b267dbeebc0ab	-6.787589057101438
242	0xc010b4cb795ffbaf	-4.17655744217238
243	0x3ffae30c72dcb4ad	1.6804317938615825
244	0xc018526e8667be9e	-6.080499744493549
245	0x400412c36d905140	2.509161811796872
246	0xbff80fc6947168b2	-1.5038514898829303
247	0xc00a835d5c6b82a3	-3.314142915755228
248	0x3fe79ca69ddbf4d2	0.7378724177539431
249	0xc01f726a998e2076	-7.8617347710606875
250	0xc012be9d05e737c6	-4.68614587043516
251	0xbffc939c6708623b	-1.7860378288952592
252	0x3fe506ee4adeb6cd	0.6570960485748515
253	0xc00129da1c9b6a5e	-2.145435546391396
254	0x3ffb243c1def0282	1.6963463944704533
255	0xbff3e110207259af	-1.2424470202873683

bias_2 f8 [1, 10]
0	0xbfed9a60bb21d0b9	-0.9250949530528693
1	0xbfa3629da867deee	-0.037861754233686415
2	0xbfd337fd6d3f0e8a	-0.3002923552378226
3	0x3fca5c9f8dff45d0	0.20595163758711843
4	0xbfd8e7fc0e992286	-0.389159216171301
5	0xbfaaa018d68dfddc	-0.0520026933581865
6	0xbfd3ce47be43152b	-0.3094653471019508
7	0xbfd16ebba35c78e1	-0.2723836036037835
8	0x3fe5a4bcb383e72e	0.6763595110089449
9	0x3fe78393216a0735	0.7348113682385021

loss_history f4 [110]
0	0x3f230008	0.6367192
1	0x3e9d0bcc	0.30673063
2	0x3e7eaea6	0.2487131
3	0x3e605792	0.21908405
4	0x3e4da64f	0.20082973
5	0x3e41c916	0.18924364
6	0x3e350ba1	0.17680217
7	0x3e307125	0.17230661
8	0x3e28f6d4	0.16500407
9	0x3e25b460	0.16182089
10	0x3e260faf	0.1621692
11	0x3e1e7618	0.15474737
12	0x3e208fa9	0.15679802
13	0x3e16cc89	0.14726461
14	0x3e19d638	0.15023124
15	0x3e2087a3	0.15676741
16	0x3e19fc0e	0.15037557
17	0x3e1b40b2	0.15161398
18	0x3e161881	0.14657785
19	0x3e13ba31	0.14426495
20	0x3e18ed67	0.14934312
21	0x3e17a731	0.14809872
22	0x3e1b791e	0.15182921
23	0x3e1ae331	0.15125729
24	0x3e14b8ea	0.14523664
25	0x3e15e07a	0.14636412
26	0x3e0ed1a5	0.1394716
27	0x3e192d33	0.14958648
28	0x3e162016	0.14660677
29	0x3e16812e	0.14697716
30	0x3e1c4fd1	0.15264823
31	0x3e1a0cec	0.15043992
32	0x3e1983f9	0.1499175
33	0x3e256a21	0.16153766
34	0x3e1eaffd	0.15496822
35	0x3e29dd40	0.16588306
36	0x3e21a097	0.15783916
37	0x3e2484a0	0.16066217
38	0x3e1e8b09	0.15482725
39	0x3e258b36	0.16166386
40	0x3e2356a9	0.15951027
41	0x3e2d31eb	0.16913573
42	0x3e27c4e3	0.163837
43	0x3e26837f	0.162611
44	0x3e2e5541	0.1702471
45	0x3e2cc5f6	0.16872391
46	0x3e262e1e	0.1622853
47	0x3e332d71	0.17497803
48	0x3e36c8be	0.17850015
49	0x3e317fc8	0.17333901
50	0x3e33dcb9	0.17564668
51	0x3e2d07ef	0.16897558
52	0x3e351646	0.17684278
53	0x3e3657cb	0.17806928
54	0x3e31417c	0.17310137
55	0x3e416d4b	0.18889348
56	0x3e3d02bf	0.18458079
57	0x3e33912f	0.17535852
58	0x3e398388	0.18116581
59	0x3e3d47e1	0.18484451
60	0x3e337166	0.17523727
61	0x3e3fcbca	0.18730083
62	0x3e3c9e18	0.18419683
63	0x3e4c5374	0.1995371
64	0x3e401a6a	0.18760076
65	0x3e3dd89a	0.18539658
66	0x3e43fe68	0.19140017
67	0x3e4ed888	0.20199788
68	0x3e42a218	0.19007146
69	0x3e4e2f0a	0.20135131
70	0x3e3e8cbe	0.18608376
71	0x3e4e6502	0.20155719
72	0x3e55a0dc	0.20862144
73	0x3e4a74a2	0.19771054
74	0x3e5359de	0.2063975
75	0x3e4eb457	0.20185982
76	0x3e58a0db	0.21155111
77	0x3e4ea197	0.20178829
78	0x3e554015	0.20825227
79	0x3e617715	0.22018082
80	0x3e5a5e55	0.21325047
81	0x3e63ea21	0.22257282
82	0x3e536eff	0.2064781
83	0x3e5e9e7e	0.21740147
84	0x3e600e74	0.21880513
85	0x3e69b786	0.22823915
86	0x3e69bd09	0.22826017
87	0x3e6948d1	0.22781684
88	0x3e61c1d5	0.22046597
89	0x3e6d032f	0.23145746
90	0x3e6926d3	0.22768717
91	0x3e6d2f73	0.23162632
92	0x3e62499d	0.22098394
93	0x3e70582e	0.23471138
94	0x3e6b9687	0.2300664
95	0x3e72e7f3	0.23721294
96	0x3e5f103a	0.21783534
97	0x3e7806b6	0.2422131
98	0x3e71cd48	0.23613465
99	0x3e7786a7	0.2417246
100	0x3e7aebb5	0.24503978
101	0x3e6c48da	0.23074666
102	0x3e77b7f7	0.24191271
103	0x3e7d30e8	0.24725688
104	0x3e77b8b6	0.24191555
105	0x3e8055be	0.25065416
106	0x3e808595	0.25101915
107	0x3e77e800	0.24209595
108	0x3e7b1f48	0.24523652
109	0x3e82b227	0.25526544

accuracy_history f4 [110]
0	0x42a0a58c	80.32333
1	0x42b622fd	91.06834
2	0x42b9aeef	92.84167
3	0x42bb57e5	93.67167
4	0x42bc5555	94.166664
5	0x42bd170a	94.545
6	0x42bde81b	94.95333
7	0x42be1c29	95.055
8	0x42be8889	95.26667
9	0x42beed3a	95.46333
10	0x42bec51f	95.385
11	0x42bf1c29	95.555
12	0x42bf4ccd	95.65
13	0x42bfcf5c	95.905
14	0x42bfa741	95.82667
15	0x42bf8889	95.76667
16	0x42bfb852	95.86
17	0x42bfb852	95.86
18	0x42bfe81b	95.95333
19	0x42c00da7	96.026665
20	0x42bfc444	95.88333
21	0x42bfeb85	95.96
22	0x42bf8ccd	95.775
23	0x42bff40e	95.97667
24	0x42c028f6	96.08
25	0x42bffa07	95.988335
26	0x42c0570a	96.17
27	0x42bfe4b1	95.94666
28	0x42c0392c	96.111664
29	0x42bff17e	95.971664
30	0x42bfe8f6	95.955
31	0x42c01111	96.03333
32	0x42bff333	95.975
33	0x42bfbe4b	95.871666
34	0x42bfeb85	95.96
35	0x42bf836a	95.75667
36	0x42bfd99a	95.925
37	0x42bfc1b5	95.878334
38	0x42bfd7e5	95.92167
39	0x42bfc1b5	95.878334
40	0x42bf947b	95.79
41	0x42bf6666	95.7
42	0x42bf7bbc	95.74167
43	0x42bf9a74	95.80167
44	0x42bf70a4	95.72
45	0x42bf57e5	95.67167
46	0x42bf7e4b	95.746666
47	0x42bf2fc9	95.59333
48	0x42bf1111	95.53333
49	0x42bf3f26	95.62334
50	0x42bf1d03	95.55666
51	0x42bf317e	95.596664
52	0x42bf028f	95.505
53	0x42bf1b4f	95.55334
54	0x42bf40da	95.62666
55	0x42bec36a	95.38167
56	0x42bee58c	95.44833
57	0x42bf4ccd	95.65
58	0x42bee666	95.45
59	0x42bee8f6	95.455
60	0x42bef777	95.48333
61	0x42bedd03	95.43166
62	0x42bea58c	95.32333
63	0x42be81b5	95.253334
64	0x42be769d	95.23167
65	0x42bf2fc9	95.59333
66	0x42bec889	95.39167
67	0x42bde741	94.95167
68	0x42be6d3a	95.21333
69	0x42be0b18	95.02167
70	0x42bed70a	95.42
71	0x42be7852	95.235
72	0x42bde666	94.95
73	0x42be3777	95.10833
74	0x42bdec60	94.96167
75	0x42be24b1	95.07166
76	0x42bdeaab	94.958336
77	0x42bddb4f	94.92834
78	0x42bdce82	94.903336
79	0x42bd47ae	94.64
80	0x42bdcbf2	94.89833
81	0x42bd57e5	94.67167
82	0x42bdb333	94.85
83	0x42bd5b4f	94.67834
84	0x42bd681b	94.70333
85	0x42bcf777	94.48333
86	0x42bca8f6	94.33
87	0x42bd0ccd	94.525
88	0x42bcf5c3	94.48
89	0x42bcd8bf	94.42333
90	0x42bcf40e	94.47667
91	0x42bd1f93	94.56167
92	0x42bd2aab	94.583336
93	0x42bc5a74	94.17667
94	0x42bcb333	94.35
95	0x42bcb259	94.348335
96	0x42bd1c29	94.555
97	0x42bbad3a	93.83833
98	0x42bcab85	94.335
99	0x42bbeeef	93.96667
100	0x42bc1dde	94.058334
101	0x42bc6666	94.2
102	0x42bbaaab	93.833336
103	0x42bc1a74	94.05167
104	0x42bbc36a	93.88167
105	0x42bba222	93.816666
106	0x42bb6d3a	93.71333
107	0x42bc0da7	94.026665
108	0x42bbc7ae	93.89
109	0x42bb740e	93.72667

val_loss_history f4 [22]
0	0x3dded001	0.10879517
1	0x3e001f1e	0.1251187
2	0x3e7f2615	0.24916871
3	0x3ddf55ee	0.10905062
4	0x3e31be14	0.17357665
5	0x3e4278b4	0.18991357
6	0x3e66ab3b	0.22526257
7	0x3e62851c	0.2212109
8	0x3e919a94	0.28438246
9	0x3e0f642c	0.14003056
10	0x3e082e41	0.13298894
11	0x3e803325	0.2503902
12	0x3ebe3771	0.37151673
13	0x3e9e7b9d	0.30953684
14	0x3e8de0fe	0.27710718
15	0x3e5d57aa	0.21615472
16	0x3e9a59d9	0.30146673
17	0x3ec7acfd	0.38999167
18	0x3ea87697	0.32902977
19	0x3e5dc40f	0.21656822
20	0x3ea086f2	0.31352955
21	0x3ec8b95d	0.3920392

val_accuracy_history f4 [22]
0	0x42c16666	96.7
1	0x42c16666	96.7
2	0x42c06666	96.2
3	0x42c33333	97.6
4	0x42c0cccd	96.4
5	0x42c0999a	96.3
6	0x42c2cccd	97.4
7	0x42c23333	97.1
8	0x42c06666	96.2
9	0x42c2cccd	97.4
10	0x42c20000	97.0
11	0x42c0999a	96.3
12	0x42becccd	95.4
13	0x42c03333	96.1
14	0x42bf3333	95.6
15	0x42c0999a	96.3
16	0x42c06666	96.2
17	0x42be999a	95.3
18	0x42becccd	95.4
19	0x42c03333	96.1
20	0x42bf0000	95.5
21	0x42bb6666	93.7
