checkpoints/model_epoch_0115.npz (npz, 385750 bytes, 10 tensors)

weight_0 f8 [784, 64]
00000000: 4b12 e521 0000 0000 7f7a 510e 0000 0000
00000010: 53cc fd0d 0000 0000 4eb4 301a 0000 0000
00000020: 3d4c 6e04 0000 0000 1108 d11d 0000 0080
00000030: c0ab ec0b 0000 0080 b5a1 761f 0000 0080
00000040: e1a6 b903 0000 0000 d8a0 b121 0000 0080
00000050: 734b f221 0000 0000 1f60 f002 0000 0080
00000060: 8d1a 0920 0000 0000 ed4b f404 0000 0000
00000070: 0cb9 1a21 0000 0080 3dc3 9208 0000 0080
00000080: d089 ce17 0000 0000 9f28 670e 0000 0080
00000090: 2127 1913 0000 0000 8bf0 9602 0000 0000
000000a0: 68d6 3a12 0000 0000 113b 4d14 0000 0080
000000b0: 712a 2714 0000 0000 9774 cf11 0000 0000
000000c0: 2194 7204 0000 0000 c148 9217 0000 0000
000000d0: 0986 800f 0000 0080 1f7e 9c06 0000 0080
000000e0: 2f7e 0a00 0000 0000 8035 ac02 0000 0000
000000f0: 19d8 c121 0000 0000 5fc6 950a 0000 0000
00000100: 226b 8b03 0000 0080 d6cb e208 0000 0000
00000110: aa54 1103 0000 0000 8eff cb1c 0000 0080
00000120: f533 4207 0000 0000 275b a30d 0000 0080
00000130: fdfe 9718 0000 0080 73d7 d321 0000 0000
00000140: 618b ea0d 0000 0080 79ec 041b 0000 0080
00000150: 70ee c10c 0000 0080 30c8 570d 0000 0000
00000160: 687b 821e 0000 0000 456c f30e 0000 0080
00000170: a32a 901e 0000 0000 5d66 6315 0000 0000
00000180: fa22 840b 0000 0080 11ac 0915 0000 0000
00000190: d2af e31f 0000 0080 7f41 8e0a 0000 0080
000001a0: ef69 e421 0000 0080 b6d9 8b03 0000 0080
000001b0: d591 4501 0000 0000 b807 5c0e 0000 0080
000001c0: 8297 980a 0000 0080 51b1 1114 0000 0000
000001d0: 2598 da22 0000 0000 f823 8323 0000 0080
000001e0: 9f02 7c01 0000 0080 1078 ad18 0000 0080
000001f0: 58bc 1802 0000 0000 f717 260d 0000 0080
00000200: a417 a708 0000 0080 6eeb 1411 0000 0000
00000210: 0cdd 2b12 0000 0080 16f1 ae08 0000 0080
00000220: cbe4 521b 0000 0080 342b 881f 0000 0080
00000230: a0a2 3403 0000 0080 209c 830a 0000 0000
00000240: f671 880b 0000 0000 b937 901a 0000 0080
00000250: 37b1 381c 0000 0000 d45e 4621 0000 0080
00000260: 26e7 0a23 0000 0080 22a7 2b16 0000 0000
00000270: 53ff 3b01 0000 0080 af93 ee1e 0000 0000
00000280: b735 fc05 0000 0000 536a 8516 0000 0000
00000290: d7db 0410 0000 0080 e7d5 1822 0000 0000
000002a0: 2e1e bd1e 0000 0080 45da 8101 0000 0080
000002b0: 4fc0 e815 0000 0080 4292 6506 0000 0080
000002c0: e702 780d 0000 0000 43fd c60e 0000 0000
000002d0: d893 a810 0000 0080 d035 5502 0000 0080
000002e0: 0b15 3708 0000 0000 26df 9614 0000 0080
000002f0: 698f b11b 0000 0000 934a 121f 0000 0000
00000300: 9938 5a21 0000 0080 60c3 6a02 0000 0000
00000310: b9cc 1221 0000 0080 41a9 f514 0000 0080
00000320: 9695 6208 0000 0080 48e3 a30a 0000 0080
00000330: e44d 9f15 0000 0000 b273 290b 0000 0080
00000340: 489f e400 0000 0080 47d1 861d 0000 0000
00000350: d5d0 361e 0000 0080 1926 1c15 0000 0000
00000360: 2033 611f 0000 0080 66af 2115 0000 0000
00000370: 339b 8b12 0000 0000 7281 1211 0000 0000
00000380: 618a ce16 0000 0080 d790 2b16 0000 0000
00000390: b527 0322 0000 0080 56b2 6c01 0000 0080
000003a0: e1bb 961e 0000 0080 064c 2b24 0000 0000
000003b0: f201 9221 0000 0000 f388 a41e 0000 0000
000003c0: 7ca5 0d04 0000 0000 e630 c11f 0000 0080
000003d0: 4551 8f0f 0000 0000 a2e5 6617 0000 0000
000003e0: 658b fd1a 0000 0000 ef9a c920 0000 0080
000003f0: 862d 8712 0000 0000 5957 8d14 0000 0080
00000400: 688c ff10 0000 0000 212c 5904 0000 0080
00000410: 0244 e10e 0000 0000 6d16 fe06 0000 0000
00000420: d793 ed01 0000 0000 df8a d008 0000 0080
00000430: f088 a721 0000 0000 ef93 c81d 0000 0080
00000440: 5f74 7d09 0000 0080 bb8e 570a 0000 0000
00000450: 2160 8201 0000 0080 2c32 0402 0000 0080
00000460: c246 890a 0000 0080 9ff3 c909 0000 0000
00000470: 90cb 3405 0000 0080 0c59 0014 0000 0000
00000480: 197f 3721 0000 0000 2e88 b21e 0000 0080
00000490: 0afb 1e1b 0000 0000 77ab 411d 0000 0000
000004a0: 33a6 ca0d 0000 0080 6601 c700 0000 0000
000004b0: 5d53 0d1e 0000 0080 1f13 940d 0000 0000
000004c0: 7902 a00b 0000 0000 bb2a 7513 0000 0080
000004d0: a5d2 1d21 0000 0000 470a 300b 0000 0000
000004e0: 49ae c411 0000 0080 94a4 9006 0000 0080
000004f0: 15a4 2f04 0000 0000 8073 b512 0000 0080
00000500: 2f72 dd01 0000 0080 1511 ac0f 0000 0080
00000510: edb4 4220 0000 0080 a672 7f1d 0000 0080
00000520: 7684 6319 0000 0000 1cad 4914 0000 0080
00000530: a001 6702 0000 0000 593c b810 0000 0080
00000540: 749c 7c14 0000 0000 bb84 d31e 0000 0000
00000550: 58a8 660d 0000 0000 73ef c702 0000 0080
00000560: d853 8f22 0000 0080 d8d3 8114 0000 0080
00000570: bdbd 9d06 0000 0000 5d87 2c07 0000 0000
00000580: 570b ef0d 0000 0080 68ce 5a0e 0000 0080
00000590: 33f2 fc0b 0000 0080 432c 6608 0000 0080
000005a0: 504e 871e 0000 0080 7f56 291c 0000 0080
000005b0: 66ff 640d 0000 0080 52c5 7804 0000 0080
000005c0: 5172 0a00 0000 0000 aa46 f211 0000 0080
000005d0: b14c b00f 0000 0080 3d05 4a00 0000 0080
000005e0: c4ef 6f20 0000 0080 9017 4e04 0000 0000
000005f0: f719 1609 0000 0000 d714 9202 0000 0000
00000600: ffb1 f622 0000 0080 efcd 4719 0000 0080
00000610: 1d5c de0f 0000 0080 d998 ab1f 0000 0080
00000620: eabb 0c02 0000 0080 a6c5 4618 0000 0080
00000630: 5fc8 8b1b 0000 0080 3d9f 8e15 0000 0080
00000640: 1f51 0708 0000 0000 c29b 3e0c 0000 0080
00000650: c01e 9600 0000 0080 d821 511a 0000 0000
00000660: dac9 2b1f 0000 0000 aa72 4405 0000 0000
00000670: 83db 690f 0000 0080 f1cb 5515 0000 0000
00000680: 56ce f515 0000 0000 01fa c117 0000 0080
00000690: c097 a118 0000 0080 8e06 f522 0000 0000
000006a0: 8020 5e1a 0000 0000 415a 1614 0000 0080
000006b0: c119 8b1a 0000 0080 7a6e dc1c 0000 0000
000006c0: e117 e111 0000 0080 3e72 570e 0000 0000
000006d0: 48bb 521d 0000 0000 7fc1 fe01 0000 0000
000006e0: de47 0d22 0000 0000 75fb 791c 0000 0000
000006f0: 3a4b c800 0000 0080 dfa0 a00d 0000 0080
00000700: a1a4 ae1c 0000 0000 8108 1f0c 0000 0080
00000710: b9b5 4604 0000 0080 5250 d805 0000 0000
00000720: 191c f300 0000 0080 eca7 4f19 0000 0000
00000730: 2dc5 2221 0000 0080 31f8 ef08 0000 0080
00000740: f0e5 3101 0000 0080 3a4f 6a04 0000 0000
00000750: fae6 a911 0000 0000 54de ca1e 0000 0000
00000760: e799 ee1c 0000 0080 3ec7 0012 0000 0080
00000770: 5252 0607 0000 0000 19c3 ef0a 0000 0080
00000780: fa1a 6b02 0000 0000 7295 9e22 0000 0000
00000790: a719 ed10 0000 0000 61f6 511a 0000 0080
000007a0: e74f 7a18 0000 0000 1ae9 380e 0000 0000
000007b0: eded 7b1d 0000 0000 907b 2307 0000 0000
000007c0: ee95 8d0f 0000 0000 281c e10d 0000 0080
000007d0: 3c2e 8315 0000 0000 df2e db18 0000 0080
000007e0: ce95 f90e 0000 0080 6ea0 6a03 0000 0000
000007f0: c0d1 061e 0000 0000 4ae7 c90c 0000 0000
2.809556444e-315 1.18684844e-315 1.159753507e-315 2.170921987e-315 3.67275264e-316 -2.47150585e-315 -9.8842694e-316 -2.60801613e-315
3.0878376e-316 -2.79289962e-315 2.813838017e-315 -2.43612303e-316 2.65544244e-315 4.10662844e-316 -2.74403781e-315 -7.1064409e-316
1.973355817e-315 -1.193868285e-315 1.583063013e-315 2.1465379e-316 1.511079343e-315 -1.682815816e-315 1.670490736e-315 1.47631e-315
3.68661355e-316 1.95384608e-315 -1.28497167e-315 -5.48013657e-316 3.397507e-318 2.21540617e-316 2.79815016e-315 8.77400346e-316
-2.93813814e-316 7.36558233e-316 2.5428291e-316 -2.38698567e-315 6.01669137e-316 -1.13046919e-315 -2.038585985e-315 2.803977573e-315
-1.153519337e-315 -2.23963669e-315 -1.05747874e-315 1.10599899e-315 2.528962715e-315 -1.23928457e-315 2.53339363e-315 1.772884437e-315
-9.545797e-316 1.74383142e-315 -2.643327183e-315 -8.7496575e-316 -2.8093435e-315 -2.93953674e-316 1.0541648e-316 -1.19026497e-315
-8.78312445e-316 1.66353793e-315 2.8890545e-315 -2.943628217e-315 -1.23043843e-316 -2.04553873e-315 1.7379012e-316 -1.08991035e-315
-7.1722666e-316 1.41591142e-315 -1.50623088e-315 -7.1976822e-316 -2.264882666e-315 -2.61369448e-315 -2.65714196e-316 8.71518677e-316
9.5597476e-316 -2.20184834e-315 2.339289327e-315 -2.7581705e-315 -2.904696387e-315 1.83772453e-315 -1.0231706e-316 2.563962834e-315
4.9611554e-316 1.866788797e-315 -1.32782059e-315 2.826317186e-315 -2.54794846e-315 -1.2493555e-316 -1.816062386e-315 -5.3023063e-316
1.11643456e-315 1.224897366e-315 -1.38083123e-315 -1.93371207e-316 6.80958797e-316 -1.70666008e-315 2.295534805e-315 2.575526836e-315
-2.76459796e-315 2.00349864e-316 -2.74147237e-315 -1.737352047e-315 -6.95044387e-316 -8.81969983e-316 1.792280936e-315 -9.25216824e-316
-7.4025777e-317 2.44747603e-315 -2.504462657e-315 1.749814003e-315 -2.601076655e-315 1.751606616e-315 1.537231518e-315 1.41512979e-315
-1.890466073e-315 1.837696335e-315 -2.819297254e-315 -1.18085434e-316 -2.53552008e-315 2.998075743e-315 2.782661126e-315 2.539988733e-315
3.3598043e-316 -2.63215776e-315 1.28976179e-315 1.939797703e-315 2.23724737e-315 -2.717772663e-315 1.535797635e-315 -1.7035742e-315
1.408991626e-315 -3.60435044e-316 1.23340541e-315 5.79614007e-316 1.59815884e-316 -7.3064783e-316 2.789631473e-315 -2.468768637e-315
-7.8663519e-316 8.57254937e-316 -1.25104857e-316 -1.6713954e-316 -8.7335345e-316 8.1140424e-316 -4.31546895e-316 1.65792184e-315
2.75335445e-315 -2.54452083e-315 2.24807368e-315 2.425086633e-315 -1.14319195e-315 6.443615e-317 -2.491028537e-315 1.12552122e-315
9.6360473e-316 -1.61285633e-315 2.74504156e-315 9.27350027e-316 -1.472821276e-315 -5.44176807e-316 3.46987545e-316 -1.55078052e-315
-1.5459266e-316 -1.29907054e-315 -2.67409377e-315 -2.445089805e-315 2.10448435e-315 -1.681664895e-315 1.99133435e-316 -1.385901216e-315
1.69815716e-315 2.55520157e-315 1.11081558e-315 -2.3051816e-316 -2.8646838e-315 -1.699846175e-315 5.4841791e-316 5.9465123e-316
-1.154976346e-315 -1.18986869e-315 -9.936967e-316 -6.96206335e-316 -2.530524634e-315 -2.334317723e-315 -1.110278104e-315 -3.7066632e-316
3.382497e-318 -1.487584595e-315 -1.3004411e-315 -2.396715e-317 -2.68873878e-315 3.5684733e-316 7.53170385e-316 2.13080745e-316
-2.898153343e-315 -2.09551113e-315 -1.315354986e-315 -2.62516584e-315 -1.69904087e-316 -2.0122864e-315 -2.283302797e-315 -1.78687938e-315
6.65492823e-316 -1.014957564e-315 -4.860752e-317 2.18142184e-315 2.58378259e-315 4.3661511e-316 -1.27763259e-315 1.76847984e-315
1.82028941e-315 -1.969288437e-315 -2.041693317e-315 2.89761271e-315 2.18562942e-315 -1.665046765e-315 -2.20019148e-315 2.39230662e-315
-1.482020976e-315 1.18878075e-315 2.43061108e-315 1.65378075e-316 2.82257584e-315 2.360429636e-315 -6.485332e-317 -1.129585997e-315
2.37748073e-315 -1.0047338e-315 -3.54457047e-316 4.8449272e-316 -7.8716718e-317 2.09805338e-315 -2.74664348e-315 -7.40823615e-316
-9.904704e-317 3.6598388e-316 1.464150627e-315 2.552400774e-315 -2.39818978e-315 -1.492280294e-315 5.8228009e-316 -9.06537383e-316
2.00460664e-316 2.869623636e-315 1.40301825e-315 -2.181690657e-315 2.0289746e-315 1.178893565e-315 2.443950563e-315 5.91722187e-316
1.289201053e-315 -1.150464544e-315 1.783174753e-315 -2.060340536e-315 -1.241279847e-315 2.83196126e-316 2.488921856e-315 1.060060026e-315

bias_0 f8 [1, 64]
00000000: 1040 ce5c a313 c2bf 9b62 714a d208 dabf
00000010: 90dc 5b2c 540b acbf c783 a5c3 1c38 b1bf
00000020: 82d4 758f 8e1f d0bf 1f48 7c82 29db e5bf
00000030: 1f6d 84bf 0cdc 98bf a0d6 b230 b539 e1bf
00000040: 0cf0 acea c2ed dbbf ec05 8a99 fea1 aa3f
00000050: f29c 0501 92ce d53f 8a4d 4edc 0a7e c8bf
00000060: 1f8a 333a 880f e3bf 7b4c aa1e 2d3d c6bf
00000070: ccc7 c946 60fd e1bf b90d 5198 8b31 e5bf
00000080: a2fa 967f 8857 d43f 1f1a 8d45 86d0 d8bf
00000090: c883 4d08 dd45 d5bf 0249 a5a8 f9f8 913f
000000a0: e75c 8aaa be8c d6bf efa3 445f e158 dc3f
000000b0: 0b01 13a6 aae0 cfbf 6630 4ac3 080a e1bf
000000c0: cd10 0621 c6f4 d63f 8325 989e 8448 c3bf
000000d0: e5fe c733 c3b9 b5bf 814f b70b 83d7 d63f
000000e0: 4a66 78f9 3736 d83f a845 3d3d 8ce8 c5bf
000000f0: 2418 2868 0b58 fbbe 8d3c a804 2dac cbbf
00000100: 80de 79d8 4928 e1bf 0584 b3f9 b01b 703f
00000110: 31db f31d b73d cfbf e359 4d8d ff58 e4bf
00000120: 27de 43ef 0163 c6bf d327 23eb da1f dabf
00000130: d9a4 b39c 57db d5bf 2491 d84e 50f4 b33f
00000140: 6df8 d022 5e6a c5bf 9eb1 1922 5d69 babf
00000150: 5cc8 e2b5 5be7 8fbf 2c46 10f1 6700 c6bf
00000160: 57fa 9db1 2713 e2bf 6ef2 a6da fa2f 9abf
00000170: a87c 574f d400 a23f 9201 2dc8 e17d c73f
00000180: ae53 bfbb b8e3 e8bf d5fa 73db 6e29 ddbf
00000190: 915c b77c 82f7 d9bf dec8 0a99 4e16 ce3f
000001a0: 9232 cc52 9b78 c0bf 2eef 6be0 d164 d03f
000001b0: 2089 1e5f f860 d3bf 8340 8de0 f485 e8bf
000001c0: e447 7f12 d248 e1bf 9b72 4911 f119 c63f
000001d0: 150b 5627 1584 e1bf 4ecc b5fd c841 dcbf
000001e0: 89e0 c6f1 89da a23f e63f 88dc 23b2 953f
000001f0: 640c 9071 b17a c93f a6bb 8203 af0d d4bf
-0.14122430831457722 -0.4067884184819747 -0.05477393189897228 -0.06726245667006402 -0.25192607888977403 -0.6830031918091243 -0.024276923360145305 -0.5382944060463224
-0.4363868037942218 0.05201717018372762 0.3407330522517916 -0.19134650952456084 -0.5956460129494338 -0.17374195096326503 -0.562179697282994 -0.6622980093892955
0.3178426023477333 -0.3877273253641835 -0.33238912401980913 0.017551327627480802 -0.3523403802332283 0.44292482665565464 -0.24904378041356554 -0.5324748815778662
0.3586898157593737 -0.15065057510245702 -0.08486576093855154 0.35690380233904057 0.37830924379668274 -0.17115929594232893 -2.6077198080919195e-05 -0.2161918900241954
-0.5361680248306158 0.003932658491266676 -0.244070901513362 -0.6358640441711113 -0.174896470860163 -0.40819428408269437 -0.3415125875749943 0.07794668126058873
-0.1673085851670665 -0.10317022402313689 -0.015577999580589523 -0.1718873908107964 -0.5648382634243018 -0.025573653789012267 0.03516257732894107 0.18352911256989707
-0.7777980486813385 -0.4556538718315271 -0.405731794160098 0.23505575630912906 -0.1286806253705391 0.2561535541169516 -0.3027935913943498 -0.7663521180893585
-0.5401392327569252 0.17266667694174917 -0.5473733680995304 -0.4415152051580592 0.036823569072511005 0.02118736299058801 0.19905679745724847 -0.3133351835521644

weight_1 f8 [64, 32]
00000000: e620 a0a1 8e23 15c0 5fa2 d776 eec5 e33f
00000010: f804 7ff8 3ea2 1dc0 cafb 345a d47a f3bf
00000020: 665d 4d54 816e 15c0 787e 8eba ca26 f5bf
00000030: 7fea 469f bf11 08c0 d5f6 a875 ec8f fa3f
00000040: e650 73fc f701 fdbf 02b9 8773 9745 0cc0
00000050: 9b72 c359 5b6d ca3f 9cbc 41b5 ce65 b3bf
00000060: 0660 ade0 4c16 f83f c737 cec6 e239 f23f
00000070: 52c4 d062 c4d7 e33f 0e92 da0f 6b6c e53f
00000080: 4d5b 21ca 2735 fcbf 732f c92f 845f 15c0
00000090: d460 ace1 ff4a f13f b142 5867 13bc 00c0
000000a0: 3df7 6d7f e2f4 f1bf 1001 dc93 a6aa f6bf
000000b0: 691e 06e0 8921 13c0 056a 2498 a440 f23f
000000c0: 683b cfa8 cbb7 12c0 19a8 0602 80df f43f
000000d0: 7453 b385 f21f ccbf 979e 1259 27be e73f
000000e0: 4f51 9513 0916 fbbf 8374 b56e 7817 14c0
000000f0: 98f6 e74f 6662 c73f e9c8 ae10 aab6 dbbf
00000100: ab1d d0c9 d9e3 d83f 81cc cc66 8b76 02c0
00000110: 907e a8bf 3eef fcbf 6a23 7721 1491 09c0
00000120: d9ab b7ec 30c0 bb3f 1562 8ec8 fccb 10c0
00000130: 785a 23bd 5c6d d23f 9794 be15 a075 06c0
00000140: 2839 ce4c 386b c23f db48 7d71 1971 cf3f
00000150: 1a9f 0c8c b106 c6bf 8798 1a2b 6acd 1ec0
00000160: 20dc 5403 023b 0ac0 39da 5bbd 0170 e43f
00000170: 2a17 f34b 48fb c13f 558d e2d0 e5f4 b6bf
00000180: 94aa 4de1 8044 c23f 4b91 6620 7063 fcbf
00000190: e7ac 20db 68ab 13c0 b27a a476 b2ec 10c0
000001a0: 9dc2 a3e4 6370 e03f bc81 3882 9a4b f8bf
000001b0: 8802 462b c541 b9bf b68e 90fd 3b3c 10c0
000001c0: 93f9 cccb 1a06 da3f c821 f00c 1d9b 0ac0
000001d0: 0b05 73fb 9293 debf a792 107b 0584 11c0
000001e0: d89b 6ecc 5fcf f7bf 1a39 0996 4901 00c0
000001f0: bab5 8eb7 d367 02c0 51be b718 bbdc d6bf
00000200: 6b0b 0f32 7388 0fc0 ec52 0d8c d3a2 c63f
00000210: c3b1 cbe5 992b 13c0 ef17 1f6c a8f5 f03f
00000220: c3cf 303b c3b1 0dc0 52a3 a1ab 8b72 08c0
00000230: 43cd 8d42 d2ea e13f 528f da3b 74d7 873f
00000240: 734d dca4 40f3 b5bf e9cb 45cd 1fc4 dabf
00000250: f323 f911 2211 09c0 79db 39f1 790d c03f
00000260: eddd 29e6 969d e43f 4649 ea18 78ff d13f
00000270: 29bf ae40 8e19 15c0 2695 6332 9f6f 02c0
00000280: 08e9 f060 0a0a f8bf 828d 3484 5c02 f4bf
00000290: 2480 7ec5 9a4c f13f ba9c bfa9 2450 e83f
000002a0: 77b2 58c1 d4b3 e6bf 9c9f 34b7 e21b d93f
000002b0: d5f1 7c6b 1b72 e5bf e205 ce62 968a 05c0
000002c0: f5ed 0576 e0f5 d13f 820b ed54 e8f5 01c0
000002d0: f3af 61d4 aa30 fabf 7b2b 617c 7697 fbbf
000002e0: c01b 0567 d8f8 14c0 8c8b 4fca 97a9 01c0
000002f0: f1ef f4ef 71e9 0fc0 1b1f f155 e4dc c3bf
00000300: 43c6 338b d733 14c0 d73b b676 a20b 04c0
00000310: 94d7 1141 4c40 1ec0 19cd 5cfa 5388 f3bf
00000320: e143 4569 3b41 f2bf 04af a85e f76c 15c0
00000330: e732 8c63 73ff 06c0 a9c2 8fb8 0db9 0dc0
00000340: ee49 b712 fd5a d9bf abc1 842f a96d f8bf
00000350: 8118 5758 e789 ed3f 5f1d 87fe cb76 17c0
00000360: fa2f e31a f38e 0ac0 c06d ab49 1b73 13c0
00000370: eded f6a0 69db e43f 9913 e88b 7fac f3bf
00000380: df17 bc17 5f19 f33f 1e0a eaea e427 12c0
00000390: 9317 c476 e713 e4bf 41e6 65c2 1124 c0bf
000003a0: 13c1 5369 3359 0cc0 425f 20f4 8130 0540
000003b0: fddc 7956 5163 fabf b9a6 e013 c550 a4bf
000003c0: bba2 21e5 c569 01c0 6e22 d6d6 8777 04c0
000003d0: 098a 1ea9 db3e 05c0 963f d782 2865 f9bf
000003e0: bc70 47d0 5ce0 e73f 028f 23a8 028e 11c0
000003f0: 5d16 7eb7 d76a e63f 0d62 9baa cb32 febf
00000400: 8f47 6e79 7705 06c0 19db 4028 9f8e 05c0
00000410: b692 d08f 3919 18c0 0b49 e0c5 76f1 debf
00000420: fd2b 7610 e2d5 06c0 2baa ba5f ab9a 1bc0
00000430: 91e4 d835 9dd7 f13f 7f34 073e 3fac 06c0
00000440: fe25 e212 519c ef3f bcc4 0770 e302 08c0
00000450: 697f e959 91a9 1540 95e3 bfb0 b8ac 18c0
00000460: 729a 8dc7 de8c 0ec0 bae5 7daf 0400 16c0
00000470: 4c8c 4f77 c839 833f b05f 4d5f 0e13 00c0
00000480: b5c8 350c 2c16 d93f 863e 71aa 2eb7 12c0
00000490: 67df f8a3 e415 f8bf b6e4 a439 1ac0 f6bf
000004a0: 57d9 d520 b428 09c0 b8a0 5d54 36bd fe3f
000004b0: 26d7 819b 7207 e63f 3d54 2da6 2612 fabf
000004c0: 99c7 7b60 1743 f7bf 31b5 6a5c 2f58 0cc0
000004d0: 7fd2 1813 0928 15c0 a2ea e29b 6c60 f8bf
000004e0: be4f 6fce 4bb9 e73f a47a c4ed 1749 02c0
000004f0: 7dd0 73ee 51d4 f23f 4021 942d 6387 09c0
00000500: c47f bb7f 967b 0bc0 9639 f1a4 9442 1340
00000510: e75c 5fb7 dc42 0fc0 ec87 361b 5d78 ebbf
00000520: 7cf1 5241 6d1f 10c0 2785 03fd 5b9c 0a40
00000530: 7809 4a3d 212a fabf d44c bd3b 954b 0dc0
00000540: 7af8 0a8f dfc6 55bf d297 9f85 a792 08c0
00000550: 4f9c 0439 ca79 03c0 982d 4bdb 17ff 0ac0
00000560: 4cba 499a 4111 0640 322d a87a 0d57 1340
00000570: e838 3b3b 1142 0140 7c78 6dc4 15b4 f8bf
00000580: 9c4e 1a9d d07f 04c0 dcc6 ab0a 31a3 12c0
00000590: 5a42 97d6 a9e4 f9bf b044 673e 566e 54bf
000005a0: c172 78d8 299c cb3f f634 3a3a 7aa1 f1bf
000005b0: 1643 68d1 c424 d9bf 7c36 900e d11b 08c0
000005c0: 3afb 3d86 a632 0fc0 aa24 c612 bd19 1440
000005d0: 4875 7a65 332f 06c0 ca64 b75d e3c6 00c0
000005e0: 0f1a 008b b070 eebf ce38 b689 71db cdbf
000005f0: 0d81 601e 59dd 07c0 107f 4206 6b4c 0340
00000600: 98d9 bf46 a6c2 10c0 d5d4 244f c70a d33f
00000610: 71e7 d38e cc53 1dc0 6e93 ad0e a33a 0dc0
00000620: f7d9 38ad 396a 0cc0 5686 3f80 0c97 f8bf
00000630: 851e df2d b5ad 0bc0 847e fcdf 6cb0 c1bf
00000640: 7c80 4bbf 137f 01c0 1bd0 c726 3559 0ac0
00000650: db57 fba3 6381 d63f fba8 7745 622f 19c0
00000660: b51c 63ab df51 c13f 750c af17 5c01 c6bf
00000670: 0fd1 4280 fa63 fe3f 29d9 0884 3926 d0bf
00000680: ba63 3212 85d9 c53f 25d1 1fc9 2cd3 16c0
00000690: 647a e276 0c24 f7bf 3b19 489f 7c48 0ec0
000006a0: 0c39 6c82 f396 e8bf 0b02 144d 7b2e c53f
000006b0: 342a 20c1 869c 12c0 d7e8 a35a eed9 d33f
000006c0: 1133 20b8 0969 16c0 e621 02ae d0a5 e33f
000006d0: f0b2 224f e819 eabf efd2 27a2 c9aa f1bf
000006e0: 9745 95c1 3cd2 d53f 68a3 b210 dfff 12c0
000006f0: 75fc 771d fb5a e23f 944d 686c e987 bd3f
00000700: 551e 5466 1b1f 1040 b607 ea34 34c8 01c0
00000710: 7af8 e9ba b212 0140 a68f 810b ad15 efbf
00000720: b880 961b 10f5 0540 add9 5c50 d7a2 fcbf
00000730: 05ea 4330 4ecf f2bf 3d19 14b8 1c20 dcbf
00000740: 7ca4 53a3 cbef c5bf e15e 849c f319 a03f
00000750: d637 5f4b 2247 e9bf 1327 44c4 1cf7 0ec0
00000760: f6c7 6b08 fce9 e2bf 49cd 0f4b 3a47 1240
00000770: 9844 eecf f723 0340 656f c79b b262 21b9
00000780: 4a42 bb08 ef16 0d40 362c d433 926a f5bf
00000790: 3ac7 bd3d 50a9 c2bf b53d 4625 3939 f4bf
000007a0: 8d9b fe9a 247a 1240 60be c1d5 4182 f6bf
000007b0: b72d 1997 9c8c b2bf 8baf 02dc 78b8 c8bf
000007c0: bfe3 ba2a 47cc 07c0 d5f0 4850 fb1e 04c0
000007d0: b652 7909 ce34 febf 2b26 8b83 05ff 2dbf
000007e0: bfcb 7d1c 661e f3bf bbdf 278a 4fee fc3e
000007f0: 2d8b 1a16 fb88 d1bf 9c30 40d1 8312 05c0
-5.284723782919377 0.6179115601672257 -7.4084433391119475 -1.2174876712522171 -5.357915227148032 -1.3219706809394705 -3.0086662715451093 1.6601376148313893
-1.8129806386323764 -3.5339802766603734 0.20646230586034595 -0.07577220845426996 1.5054444099860134 1.139132286628852 0.6200887613287114 0.6694846448559149
-1.7629773994173832 -5.343277689604167 1.0808104338994342 -2.091833884602544 -1.1222863176075883 -1.416662767005679 -4.7827525142416585 1.1407819693619115
-4.679487836502496 1.3045654372349473 -0.21972495582908957 0.7419621219350628 -1.6928797497722206 -5.022920350861685 0.18269041921296458 -0.4330239451329719
0.38890690525337374 -2.3078830748796126 -1.8084094511649802 -3.195839177559198 0.10840135363802918 -4.199206479730965 0.28792494268910884 -2.807434244040063
0.14389709234496562 0.24563901940798058 -0.17207927072853907 -7.7006003127081675 -3.2788124332687545 0.6386727045454058 0.14048103054499822 -0.08967434262972536
0.14271555901662636 -1.7742768541002814 -4.917392181271885 -4.231149534024256 0.5137195077532685 -1.5184578978297472 -0.09865982347947455 -4.058822595546806
0.4066225996247336 -3.3257390032560785 -0.4777572112617043 -4.378927157293822 -1.4881284700038488 -2.000628635555711 -2.3006967869211765 -0.35722234166948846
-3.941625968059659 0.1768440660331615 -4.7925792604041275 1.0599750731939783 -3.7117981552382573 -3.055930462713527 0.5599147128945464 0.011641414715377305
-0.08574298882404267 -0.4182204727759982 -3.1333657650143265 0.12541126516927273 0.6442369933492366 0.2812175982773123 -5.274956713357633 -2.3045028626098825
-1.5024513041267387 -1.2505765117901722 1.0812022890677406 0.7597831073188879 -0.7094520355509094 0.3923270024411012 -0.6701790904403945 -2.6926696509478782
0.280632128960604 -2.2450720438804987 -1.6368816658168697 -1.7244782312943403 -5.243013009726326 -2.2078090482259025 -3.9889868494628833 -0.15517858692532446
-5.0506269216871855 -2.505680968700726 -7.562790886606212 -1.220783212641271 -1.14092579957309 -5.356412390752443 -2.8747318055305757 -3.7153582018730344
-0.39617850139361976 -1.5267726761049782 0.9230839467425228 -5.8660125513045775 -3.3197996235448928 -4.862408782089403 0.651783766158983 -1.2296138253306934
1.1936942031038524 -4.538959188971175 -0.6274297065399302 -0.12610074989406608 -3.543555090778804 2.6486853668574506 -1.649247491642938 -0.039678724934061056
-2.1766469860925475 -2.5583645614718113 -2.6556924068875145 -1.5871968375176713 0.7461380069685428 -4.388682009859396 0.7005423148954822 -1.8874012626967016
-2.7526692854671135 -2.6946395058433947 -6.024633643250743 -0.48348779033507644 -2.854435089689558 -6.901044364708052 1.1151401618392678 -2.834105000109559
0.9878316277328734 -3.001410365330768 5.415593533398217 -6.1686732880706545 -3.8187842931832217 -5.500017873820463 0.009387556210589086 -2.0093047566878894
0.39197827522651646 -4.678888953363304 -1.5053450017130332 -1.4219000102732884 -3.14487481739631 1.921194390824935 0.6884091412782467 -1.6294313899318376
-1.4538797158133774 -3.543059083944762 -5.289097116842298 -1.5235410775482383 0.7413691551141637 -2.2856901717744496 1.1768359484240414 -3.1911071358519223
-3.4353456477255992 4.815020158026888 -3.9076475454308937 -0.8584428340438968 -4.030690212905366 3.326347328824926 -1.6352856058225296 -3.6619057337899026
-0.0013291533652331198 -3.071608585293668 -2.4344677404911077 -3.374557221633676 2.758425908446304 4.835012356295282 2.1572594287346085 -1.5439660714105505
-2.562409617772415 -4.659366766676353 -1.6183260328727074 -0.0012470094894648058 0.21570323057030374 -1.1019232058054604 -0.39286919069222515 -3.013582338119532
-3.8997316825547417 5.025135320037558 -2.7730472496029144 -2.0971133538811033 -0.9512560572482601 -0.2332593843861503 -2.9830801366043773 2.4123135079424927
-4.190087418994516 0.29753287056821637 -7.331835014041517 -3.6536313196870003 -3.551867821977108 -1.5368771562283619 -3.45981822812229 -0.13819657265502283
-2.1870493836323117 -3.293558409664923 0.3516472913155419 -6.296273312977287 0.13531108730805888 -0.17191649586138494 1.8994088182635698 -0.2523330487632785
0.1707006777621965 -5.706225531165079 -1.446300949471742 -3.785393947971128 -0.7684266612357376 0.16548100722867817 -4.652857797229945 0.3101764569434073
-5.602576138463307 0.6139911078071776 -0.8156625314346382 -1.1041961988641409 0.34095686821555077 -4.749874363806931 0.5736060691414325 0.11535509964624274
4.030377959140954 -2.2227558263702702 2.1341299631740727 -0.971395990822647 2.7446596293740093 -1.7897561206024009 -1.1756116757738948 -0.4394599721566868
-0.1713804767125885 0.031447995048606854 -0.789933345042068 -3.8706603368090184 -0.5910625614617391 4.569558308448287 2.392562508066998 -1.6741663971918548e-33
3.6361981088778395 -1.3385183357775197 -0.14579203619683218 -1.263970513918918 4.6192802637005 -1.4068010663867412 -0.07245806397366193 -0.1931296419401146
-2.974745115116519 -2.515127780176139 -1.8878918047022757 -0.00022885267551080285 -1.1949215996689728 2.7590657404957574e-05 -0.2739856448990164 -2.6340404842104146

bias_1 f8 [1, 32]
00000000: 6183 033c 763c f7bf 80cb dd23 55e7 f6bf
00000010: 9608 da1a 36da c03f 463b 8eaa 9f71 febf
00000020: 43bf 10f1 ba54 bd3f 3f48 51d3 400b be3f
00000030: bbd8 6e61 fc6f 05c0 b3f6 3f29 e652 f3bf
00000040: 3181 f849 1162 04c0 9eb1 60f3 f8e6 04c0
00000050: 5511 41a4 d05a 01c0 5e04 7543 9af6 b93f
00000060: fce7 a1c7 8b64 fcbf 27ca 83a4 3492 f2bf
00000070: b489 0e2c e055 00c0 ba1d 3a64 f0e3 fdbf
00000080: c843 5d40 5a43 03c0 3337 46d7 a216 00c0
00000090: 4419 c091 6ea3 ffbf 333a dda0 e688 01c0
000000a0: 1c5b f85d 70ed f8bf d666 1054 c739 02c0
000000b0: 857e 3168 d987 fbbf 1e5a e394 6738 02c0
000000c0: a9fd 9e44 8cfd f9bf cb43 32dc aa05 fdbf
000000d0: 3198 a022 d56b 02c0 293f 5755 3d39 f9bf
000000e0: 9243 a82f ff14 03c0 97ef e644 5725 f4bf
000000f0: ae22 d9c9 0c42 09c0 6508 7f55 e84d 02c0
-1.4522611946378776 -1.4314776803045959 0.1316592818366799 -1.9027401602104006 0.11457413087259476 0.11735921057814468 -2.6796805965378474 -1.2077390300104696
-2.5478845385515787 -2.612779523266183 -2.1693432648045623 0.10141910693074993 -1.774547366918795 -1.160694735179854 -2.041931480592405 -1.8681491770856682
-2.4078869846784734 -2.0110527818968875 -1.9774003690123019 -2.1918461387170054 -1.5579684897144892 -2.278212219954052 -1.7206663198520868 -2.2775413162119227
-1.6244013481626587 -1.813883648054104 -2.3026526170024444 -1.576474507677583 -2.3852523539757806 -1.2591164294708272 -3.1572509545697676 -2.288040798129304

weight_2 f8 [32, 10]
00000000: 36f1 d102 064c 1040 85a7 fb90 e308 0ec0
00000010: 0e39 0d8d 0a76 0cc0 29f3 a3ed 1627 f3bf
00000020: 026f 3b3f b8aa e0bf 2b65 7e19 afb6 fcbf
00000030: 94d8 9345 d776 05c0 4db1 6768 daae efbf
00000040: 1876 229e 9e6d 0bc0 37c7 3c04 ca28 0c40
00000050: 03c4 8147 46b3 13c0 a353 c27c 95ac 11c0
00000060: 445a 3aec 5733 debf ce19 8f45 f3d7 00c0
00000070: d4cc 5d38 54a4 e6bf e529 4524 fce2 c73f
00000080: b16d 0574 9dea 0f40 e11c b557 f3a2 03c0
00000090: 8dcf 1df5 3a56 d03f 853c d824 80f9 08c0
000000a0: 49ff eebb afd0 f13f cfdc 689e ab35 25c0
000000b0: 5954 def7 75da 11c0 71f1 cf0a 68bd 07c0
000000c0: b3b8 4968 9b3c f23f f685 523f 0747 12c0
000000d0: 3f47 a4fd 8d3e 17c0 6de8 4794 e7e9 febf
000000e0: f8a8 6aa4 3376 0640 6266 076b 5382 0940
000000f0: 0d56 fed1 f24a 1cc0 4c7d 7320 06be cf3f
00000100: 1337 4c7e 4bd9 26c0 bfcd f3b0 6b04 0040
00000110: 57b5 b1a2 fe58 f5bf 98aa d62e 66ed 07c0
00000120: bed2 2d4c 5cc6 1fc0 5fc8 58d2 f7ad 1040
00000130: 1107 377a 9981 20c0 2c59 def1 aa6e 0540
00000140: 3255 f909 4f83 0a40 2cb9 ac49 dfa1 1ec0
00000150: 7600 cafb 6e6a 0640 1963 f4c7 596c d3bf
00000160: 60d5 7fea 045d 11c0 e7f6 5b5a 7abb dbbf
00000170: 0341 c4ad ad3e 0dc0 4d00 f003 0af0 12c0
00000180: 6fca 5e3f 310a 0b40 cfd9 5def ac8f 1dc0
00000190: 4a8b b386 16f0 eabf 72d6 b957 87a6 17c0
000001a0: 0e86 aef6 3ee8 eb3f 1e37 1d0e 4864 01c0
000001b0: 6b51 1b1b 137c 03c0 c5ca d7d2 0bf1 f8bf
000001c0: 9120 aff9 f114 0740 16b8 2e7a 6c44 1fc0
000001d0: abab f0dd 1bde 1140 530f 387a 8939 1ac0
000001e0: 3fa2 bb4a 97f4 e0bf 2d60 153c 147a 10c0
000001f0: 34d7 1b9d ca23 0bc0 72e3 b25c e1fc 0c40
00000200: c30a ab22 c7ce 16c0 433a 273e c731 fb3f
00000210: e5f7 3687 3cab 0ec0 6c5e 894b 8388 0bc0
00000220: 3c9b 08aa 2e11 1cc0 10d0 eb04 996b 19c0
00000230: 4ffa 4f88 55ea 13c0 880a 7d08 adab 0340
00000240: be05 792f b2ed e3bf ad22 bbec 69ec 0dc0
00000250: 4795 a6a5 ac3d 0740 bb94 0b33 5f83 fcbf
00000260: 933e dc2e 5e4d e5bf 4251 0247 9f34 12c0
00000270: 7379 a646 83b4 f03f f2d3 9e2a b84d f1bf
00000280: e250 2a5f cebf fcbf 9d27 d85b 7695 04c0
00000290: 2ad1 42b6 4a55 febf 1be8 f0a6 56f4 1740
000002a0: 0b47 ec79 4ac1 08c0 85a0 7f1a 766c f2bf
000002b0: 70a4 979e 946a fabf 235c 3546 714b 10c0
000002c0: fe52 ca6c d607 e4bf 44b3 84a9 4f6c 06c0
000002d0: 159f 8930 9eaa e3bf f364 3730 1bb2 00c0
000002e0: 5e65 3ae0 b75f 01c0 65e3 cfcd 5cce 14c0
000002f0: 880b 7d8a 4b9c 10c0 fca1 6b14 1dc7 1340
00000300: 4c42 9c62 d631 02c0 fd0c 1f46 c701 0340
00000310: 2ef3 8ee4 8907 f4bf be53 fc77 b096 0fc0
00000320: 8194 b456 0a55 12c0 3b3d c910 4ca8 0340
00000330: e8ce 00f6 6e2c 0540 60df b085 860f 0540
00000340: 5ed7 8f65 730d 1ac0 11bc 46ce 3025 f0bf
00000350: 3c85 c7c9 aca3 11c0 4a7b 2b81 cc4c 18c0
00000360: 0d4a 0fce 016d 10c0 9e5b 1c76 4412 1cc0
00000370: f74b 172b c311 1cc0 3999 32d7 81df 1240
00000380: 974e 3fdc b59b 02c0 1919 9aac 0b99 09c0
00000390: 38a4 09af e83d 09c0 8c73 c777 9d73 ffbf
000003a0: c23f 9625 e5b5 0ec0 1cd6 d72f 3cad 07c0
000003b0: cfed 12db 3ce1 1340 d12a be2a 285b 1ac0
000003c0: 2ebb 1c5b 5f2a 0cc0 d0bb 355a b4dd 1640
000003d0: 6136 9cd9 32e8 f8bf 481c 6f74 c874 0ac0
000003e0: 42ba a4b4 9fdd f2bf 72cd 9f36 fa04 e7bf
000003f0: 8fbb 8133 01fb 0340 8612 b8af 595e 14c0
00000400: 4498 9eae 23e1 08c0 1547 374f 0754 04c0
00000410: 4292 394d 2fa2 0e40 3140 2cde 390b ff3f
00000420: 363f 3125 03b5 13c0 1cec b19b f1db ecbf
00000430: 0f61 c4c4 d640 f9bf 957e 6afb 154c f0bf
00000440: 1f10 4f09 ffc4 0d40 855d 8fa8 61fa 06c0
00000450: 7609 130b ed84 08c0 ec5f b38b 7be7 01c0
00000460: e14f 85a4 208c 0240 46dd 6d10 778c 17c0
00000470: 88a5 c2e7 1d20 0440 5a2b 75eb df57 1cc0
00000480: d775 f2bd e5cc 0340 6514 1a99 a83b 04c0
00000490: 3af4 d8fc 884d 0240 95d5 2696 563b 1ac0
000004a0: c90c f9e9 ba89 17c0 eb1d 471e bb70 13c0
000004b0: c54c 2269 9707 e4bf 4271 7f48 f579 05c0
000004c0: d9cf 6a78 160c 01c0 f73a d6d3 9c0c f5bf
000004d0: a01c 3861 2a9f 1440 767b 1c95 db9e fabf
000004e0: 1c3b 96f8 7942 d6bf 15b3 9103 30cc f2bf
000004f0: 2102 7efb 4200 e9bf efdb 7bc6 3442 07c0
00000500: 0668 32fa 5096 0840 5f21 ff79 0460 10c0
00000510: 65a8 b243 4589 0640 4f02 fa41 5ba1 13c0
00000520: 9033 8cc5 07a0 10c0 cfca 562f 2730 f1bf
00000530: 10d7 3e87 df4a 08c0 1178 56f1 438a 0240
00000540: 07db fec7 f8dc 0bc0 a9e3 a1f0 7541 0ac0
00000550: c889 4c24 cd12 11c0 7acc ae8f cdf9 b73f
00000560: 3be2 aaa0 227c 12c0 c431 c9a6 bb7d 09c0
00000570: f713 f0b9 98a8 04c0 6987 d5d9 bf97 0240
00000580: d034 ed3e 6bf9 b3bf c0ad d529 156f 07c0
00000590: e25c 56be faed f23f 7cb2 f091 9ace f63f
000005a0: d624 2771 802f 09c0 8feb 2473 c561 1540
000005b0: c74d 3895 bf63 03c0 2945 d611 29d8 12c0
000005c0: 699e 41f5 2d1b 12c0 c6df 1b57 3a9c f5bf
000005d0: c395 b7da af74 02c0 ccf7 2217 c897 1140
000005e0: 8d4c 60be bcc9 06c0 7fbe b6ec b6aa 13c0
000005f0: 776f a4c2 8dd9 08c0 89a2 be34 3c38 1ac0
00000600: 6326 2429 72a8 12c0 7541 0589 71e5 05c0
00000610: ba10 1fdf 36c1 18c0 27a2 184a 0f1c 04c0
00000620: f645 071d 456b 13c0 8685 dd15 ac17 1e40
00000630: 2b70 135b c9c5 09c0 6b1b 78c2 ff0c 0140
00000640: 2540 7d7a 2f2d 1340 fd31 1baa dbf1 14c0
00000650: 8811 cf27 0c2c 19c0 da55 c21d ff90 febf
00000660: e8c2 885c af8e 0bc0 895d 25cf 74b6 bb3f
00000670: bca5 b7df 1db0 e63f af07 2648 937b 0440
00000680: fcf1 2832 7691 09c0 8f0d 0bbf 8ed7 dfbf
00000690: 8efd 9027 d84c 24c0 02cc dad4 52d4 27c0
000006a0: fca3 d938 f65c 1140 ad98 be25 e942 1040
000006b0: c985 9f59 21a0 21c0 b06b 9516 fce9 1bc0
000006c0: 2929 d697 e8f1 24c0 1312 92d6 8253 1140
000006d0: 3219 a025 7dbf 20c0 9701 3435 dc6c 2fc0
000006e0: 3cfa d8f0 30b7 08c0 e8c6 9b7e c5f2 10c0
000006f0: b173 402e 2440 11c0 3bf7 6021 b27c 1440
00000700: 88a7 b031 a11f e7bf 929a 9cfe a6b2 f0bf
00000710: d9cd 7a21 099d 0dc0 da72 6701 6efb 0dc0
00000720: 7588 e29b a19b e83f 6542 bf7b eeba f63f
00000730: 9c37 2154 854d 02c0 2872 e1c9 8959 12c0
00000740: 32cd 5c06 c8f8 d1bf 2971 64fb 90b9 0ec0
00000750: 172d 2c18 3f51 1040 72e7 6163 755c 0dc0
00000760: 41ca 4cf5 b1c9 b03f f7d4 d65a eca5 fd3f
00000770: b744 f0d5 3563 0bc0 5954 f90e 13cc 14c0
00000780: e5d6 7f5b 2e43 02c0 60e1 50fd e7e0 1bc0
00000790: 780c f455 6641 11c0 fe58 4c64 59ea fb3f
000007a0: 354e ed02 5935 19c0 c700 203c e24f 0540
000007b0: 717c 158d 390c f9bf a68c fccf afce 0bc0
000007c0: 6e99 8233 7c90 e73f f2ff 9904 c0bd 20c0
000007d0: 4410 c637 2776 13c0 915b 1f71 7c7c febf
000007e0: 277e 439c 987c e63f a622 cc85 57d7 01c0
000007f0: 9281 ba43 b4fd fa3f 92dc 59cd 091f f5bf
4.074241680206162 -3.7543402983473606 -3.5576373119030285 -1.197043350489546 -0.5208398089411903 -1.7946005817269206 -2.683027785849001 -0.9900943793450466
-3.4285251955286746 3.5199165659950284 -4.925072781844395 -4.418538998947869 -0.47188375538954497 -2.105444472722616 -0.707559690561903 0.1866145302868311
3.9895581306606904 -2.454565701689362 0.25526307999756953 -3.121826446389209 1.113448843112524 -10.604824972439387 -4.463340638108172 -2.96748360106556
1.1397966455220228 -4.569363583957502 -5.811088526870491 -1.9321056167814519 2.807715687279707 3.1886356698640137 -7.073191910885282 0.24798657021072257
-11.424404093555074 2.0021585297015174 -1.3342272143593925 -2.9909175547848683 -7.94371146230395 4.169890677136293 -8.253124064652669 2.67903698882869
3.314115598603757 -7.658078337828822 2.8019694968243654 -0.3034882023508075 -4.340839065601671 -0.43331774543899687 -3.6556047034756616 -4.734413205646047
3.3799767447283595 -7.390308132270049 -0.8418076163182857 -5.91262566634906 0.872100335884342 -2.173965559259968 -2.435583316584759 -1.558849166493631
2.885227156311949 -7.816820057965762 4.466903178991667 -6.55618849723017 -0.5298572978618451 -4.119217814259213 -3.392476298725251 3.623476719102137
-5.701931516351297 1.6996529033527998 -3.8336115420961385 -3.4416566754624025 -7.016779572272579 -6.355075909512394 -4.978841905480819 2.4588261283072974
-0.6227656295015362 -3.7404364103898247 2.905114454408849 -1.7820732110933892 -0.6656943240395371 -4.55138884498257 1.0440705070282916 -1.0814744629726616
-1.7968276708025361 -2.572979657682437 -1.8958232039995644 5.988611801580215 -3.094380333445661 -1.1514798197841014 -1.6510206408513817 -4.073674294478255
-0.6259567379771338 -2.802886318552199 -0.6145773838042908 -2.086965920153142 -2.1717374341794047 -5.201525893987172 -4.152631915933746 4.944446868008978
-2.274334688562055 2.375868366072267 -1.2518404892027308 -3.9485787748221517 -4.583047251483664 2.4571763335622143 2.6466960162159587 2.6325807995416852
-6.513135516075492 -1.0090797479313134 -4.409838822176706 -6.074998873022944 -4.106452197726424 -7.017839284401729 -7.017346070572777 4.718268740142144
-2.3260304648227463 -3.1997292980696668 -3.155228965265021 -1.9657263449546205 -3.838815969131219 -2.9595874536269218 4.969958708792048 -6.589020412308586
-3.5206896894591386 5.71650830224003 -1.556689119377005 -3.307022962227652 -1.179107385290664 -0.7193575922851052 2.4975608848539603 -5.092139001474271
-3.109931339468888 -2.5410295666450886 3.829191783255994 1.9402407339694145 -4.926769810801309 -0.9018486061971802 -1.578329819318302 -1.0185756512582078
3.721189568257628 -2.872256581187403 -3.0649052491364115 -2.2380286134830296 2.3184216359313585 -5.887172943788135 2.5156820398594313 -7.085815123583268
2.4750475730531707 -2.529130169018162 2.2878589395245656 -6.557947488899477 -5.884502082658579 -4.860088799563054 -0.6259266904256938 -2.6845498718159044
-2.130902233848229 -1.315579249847074 5.15543510346393 -1.663783628908019 -0.3478074004751066 -1.1748504771632657 -0.781281939693205 -2.907327223448639
3.073396639502792 -4.093767076680108 2.81702664269419 -4.90757468307909 -4.156279646570411 -1.074256119649977 -3.036559158902385 2.3175124029649017
-3.4828963875437497 -3.281963233890981 -4.268360678836366 0.09365544088250202 -4.6212258438395635 -3.1863930730962426 -2.582322552336787 2.324096395329367
-0.07802458082479125 -2.9292395847639625 1.1831004557660028 1.4254403782644252 -3.1481942024298446 5.345479773643901 -2.423705259114033 -4.7110941683797956
-4.526542503480962 -1.3506415751162293 -2.3069760405803392 4.398224221715235 -2.8485045312059527 -4.916713427213494 -3.1062274176055626 -6.554917167792731
-4.664497988540094 -2.7370329575280103 -6.188685880919531 -2.513701037289383 -4.854755834168364 7.523117391248325 -3.2215754618937544 2.1313471978095797
4.794126428503692 -5.236189515981548 -6.293015119565446 -1.910399547812054 -3.4446704129444363 0.10825281197809579 0.7089986199836669 2.5603395115476455
-3.1960262221093654 -0.4975315919548046 -10.150086628388433 -11.91469445391522 4.340783012660719 4.065342511900025 -8.812754440997098 -6.9785007027339105
-10.472477669613527 4.331553795495455 -8.374001670640244 -15.712617552374281 -3.089448815938594 -4.237081506975052 -4.312638018306573 5.12177326349575
-0.7226110430249131 -1.0436162896891443 -3.7016775718309245 -3.7477684125609416 0.7689979595782136 1.4206375917312013 -2.2878519604336827 -4.58743968428147
-0.2808094083913658 -3.8406085624721027 4.079342248626992 -3.670145775246902 0.06557762373703559 1.8530086086660142 -3.4234425271939375 -5.19929145237719
-2.282803263510561 -6.969634969769999 -4.3138669424252996 1.7447141569041942 -6.302097364171961 2.6640057275072624 -1.5654845725146311 -3.475921273131081
0.736387348752755 -8.370605605887224 -4.86538397928604 -1.9053921145293524 0.7027094890617648 -2.2301474049493946 1.6869394918104246 -1.3200777074360173

bias_2 f8 [1, 10]
00000000: 4739 f5ba 9bef e9bf e3d1 c7be 5686 bebf
00000010: f30f 16e8 6a6e cdbf fdd9 cec2 f913 c63f
00000020: a2d9 8be1 ae8f d5bf cf6f a95a 6046 c3bf
00000030: 1293 5ece 46c2 d1bf ba0c b3aa 436a d1bf
00000040: 1a5e fef6 ec92 e53f 57de 0133 5c6d e63f
-0.8104990626832568 -0.11923734815338309 -0.22993217785199213 0.1724846078120236 -0.33689472223286476 -0.1505852167782664 -0.2774827018095475 -0.27211085958351655
0.6741852592558104 0.7008496280895525

loss_history f4 [115]
00000000: 0800 233f cc0b 9d3e a6ae 7e3e 9257 603e
00000010: 4fa6 4d3e 16c9 413e a10b 353e 2571 303e
00000020: d4f6 283e 60b4 253e af0f 263e 1876 1e3e
00000030: a98f 203e 89cc 163e 38d6 193e a387 203e
00000040: 0efc 193e b240 1b3e 8118 163e 31ba 133e
00000050: 67ed 183e 31a7 173e 1e79 1b3e 31e3 1a3e
00000060: eab8 143e 7ae0 153e a5d1 0e3e 332d 193e
00000070: 1620 163e 2e81 163e d14f 1c3e ec0c 1a3e
00000080: f983 193e 216a 253e fdaf 1e3e 40dd 293e
00000090: 97a0 213e a084 243e 098b 1e3e 368b 253e
000000a0: a956 233e eb31 2d3e e3c4 273e 7f83 263e
000000b0: 4155 2e3e f6c5 2c3e 1e2e 263e 712d 333e
000000c0: bec8 363e c87f 313e b9dc 333e ef07 2d3e
000000d0: 4616 353e cb57 363e 7c41 313e 4b6d 413e
000000e0: bf02 3d3e 2f91 333e 8883 393e e147 3d3e
000000f0: 6671 333e cacb 3f3e 189e 3c3e 7453 4c3e
00000100: 6a1a 403e 9ad8 3d3e 68fe 433e 88d8 4e3e
00000110: 18a2 423e 0a2f 4e3e be8c 3e3e 0265 4e3e
00000120: dca0 553e a274 4a3e de59 533e 57b4 4e3e
00000130: dba0 583e 97a1 4e3e 1540 553e 1577 613e
00000140: 555e 5a3e 21ea 633e ff6e 533e 7e9e 5e3e
00000150: 740e 603e 86b7 693e 09bd 693e d148 693e
00000160: d5c1 613e 2f03 6d3e d326 693e 732f 6d3e
00000170: 9d49 623e 2e58 703e 8796 6b3e f3e7 723e
00000180: 3a10 5f3e b606 783e 48cd 713e a786 773e
00000190: b5eb 7a3e da48 6c3e f7b7 773e e830 7d3e
000001a0: b6b8 773e be55 803e 9585 803e 00e8 773e
000001b0: 481f 7b3e 27b2 823e 667d 803e 605d 7b3e
000001c0: 137f 833e 880c 8d3e 552d 8e3e
0.6367192 0.30673063 0.2487131 0.21908405 0.20082973 0.18924364 0.17680217 0.17230661
0.16500407 0.16182089 0.1621692 0.15474737 0.15679802 0.14726461 0.15023124 0.15676741
0.15037557 0.15161398 0.14657785 0.14426495 0.14934312 0.14809872 0.15182921 0.15125729
0.14523664 0.14636412 0.1394716 0.14958648 0.14660677 0.14697716 0.15264823 0.15043992
0.1499175 0.16153766 0.15496822 0.16588306 0.15783916 0.16066217 0.15482725 0.16166386
0.15951027 0.16913573 0.163837 0.162611 0.1702471 0.16872391 0.1622853 0.17497803
0.17850015 0.17333901 0.17564668 0.16897558 0.17684278 0.17806928 0.17310137 0.18889348
0.18458079 0.17535852 0.18116581 0.18484451 0.17523727 0.18730083 0.18419683 0.1995371
0.18760076 0.18539658 0.19140017 0.20199788 0.19007146 0.20135131 0.18608376 0.20155719
0.20862144 0.19771054 0.2063975 0.20185982 0.21155111 0.20178829 0.20825227 0.22018082
0.21325047 0.22257282 0.2064781 0.21740147 0.21880513 0.22823915 0.22826017 0.22781684
0.22046597 0.23145746 0.22768717 0.23162632 0.22098394 0.23471138 0.2300664 0.23721294
0.21783534 0.2422131 0.23613465 0.2417246 0.24503978 0.23074666 0.24191271 0.24725688
0.24191555 0.25065416 0.25101915 0.24209595 0.24523652 0.25526544 0.2509567 0.24547338
0.25682887 0.27548623 0.2776896

accuracy_history f4 [115]
00000000: 8ca5 a042 fd22 b642 efae b942 e557 bb42
00000010: 5555 bc42 0a17 bd42 1be8 bd42 291c be42
00000020: 8988 be42 3aed be42 1fc5 be42 291c bf42
00000030: cd4c bf42 5ccf bf42 41a7 bf42 8988 bf42
00000040: 52b8 bf42 52b8 bf42 1be8 bf42 a70d c042
00000050: 44c4 bf42 85eb bf42 cd8c bf42 0ef4 bf42
00000060: f628 c042 07fa bf42 0a57 c042 b1e4 bf42
00000070: 2c39 c042 7ef1 bf42 f6e8 bf42 1111 c042
00000080: 33f3 bf42 4bbe bf42 85eb bf42 6a83 bf42
00000090: 9ad9 bf42 b5c1 bf42 e5d7 bf42 b5c1 bf42
000000a0: 7b94 bf42 6666 bf42 bc7b bf42 749a bf42
000000b0: a470 bf42 e557 bf42 4b7e bf42 c92f bf42
000000c0: 1111 bf42 263f bf42 031d bf42 7e31 bf42
000000d0: 8f02 bf42 4f1b bf42 da40 bf42 6ac3 be42
000000e0: 8ce5 be42 cd4c bf42 66e6 be42 f6e8 be42
000000f0: 77f7 be42 03dd be42 8ca5 be42 b581 be42
00000100: 9d76 be42 c92f bf42 89c8 be42 41e7 bd42
00000110: 3a6d be42 180b be42 0ad7 be42 5278 be42
00000120: 66e6 bd42 7737 be42 60ec bd42 b124 be42
00000130: abea bd42 4fdb bd42 82ce bd42 ae47 bd42
00000140: f2cb bd42 e557 bd42 33b3 bd42 4f5b bd42
00000150: 1b68 bd42 77f7 bc42 f6a8 bc42 cd0c bd42
00000160: c3f5 bc42 bfd8 bc42 0ef4 bc42 931f bd42
00000170: ab2a bd42 745a bc42 33b3 bc42 59b2 bc42
00000180: 291c bd42 3aad bb42 85ab bc42 efee bb42
00000190: de1d bc42 6666 bc42 abaa bb42 741a bc42
000001a0: 6ac3 bb42 22a2 bb42 3a6d bb42 a70d bc42
000001b0: aec7 bb42 0e74 bb42 035d bb42 74da bb42
000001c0: f945 bb42 48e1 b942 299c ba42
80.32333 91.06834 92.84167 93.67167 94.166664 94.545 94.95333 95.055
95.26667 95.46333 95.385 95.555 95.65 95.905 95.82667 95.76667
95.86 95.86 95.95333 96.026665 95.88333 95.96 95.775 95.97667
96.08 95.988335 96.17 95.94666 96.111664 95.971664 95.955 96.03333
95.975 95.871666 95.96 95.75667 95.925 95.878334 95.92167 95.878334
95.79 95.7 95.74167 95.80167 95.72 95.67167 95.746666 95.59333
95.53333 95.62334 95.55666 95.596664 95.505 95.55334 95.62666 95.38167
95.44833 95.65 95.45 95.455 95.48333 95.43166 95.32333 95.253334
95.23167 95.59333 95.39167 94.95167 95.21333 95.02167 95.42 95.235
94.95 95.10833 94.96167 95.07166 94.958336 94.92834 94.903336 94.64
94.89833 94.67167 94.85 94.67834 94.70333 94.48333 94.33 94.525
94.48 94.42333 94.47667 94.56167 94.583336 94.17667 94.35 94.348335
94.555 93.83833 94.335 93.96667 94.058334 94.2 93.833336 94.05167
93.88167 93.816666 93.71333 94.026665 93.89 93.72667 93.68166 93.92667
93.636665 92.94 93.305

val_loss_history f4 [23]
00000000: 01d0 de3d 1e1f 003e 1526 7f3e ee55 df3d
00000010: 14be 313e b478 423e 3bab 663e 1c85 623e
00000020: 949a 913e 2c64 0f3e 412e 083e 2533 803e
00000030: 7137 be3e 9d7b 9e3e fee0 8d3e aa57 5d3e
00000040: d959 9a3e fdac c73e 9776 a83e 0fc4 5d3e
00000050: f286 a03e 5db9 c83e d9cf b73e
0.10879517 0.1251187 0.24916871 0.10905062 0.17357665 0.18991357 0.22526257 0.2212109
0.28438246 0.14003056 0.13298894 0.2503902 0.37151673 0.30953684 0.27710718 0.21615472
0.30146673 0.38999167 0.32902977 0.21656822 0.31352955 0.3920392 0.35900763

val_accuracy_history f4 [23]
00000000: 6666 c142 6666 c142 6666 c042 3333 c342
00000010: cdcc c042 9a99 c042 cdcc c242 3333 c242
00000020: 6666 c042 cdcc c242 0000 c242 9a99 c042
00000030: cdcc be42 3333 c042 3333 bf42 9a99 c042
00000040: 6666 c042 9a99 be42 cdcc be42 3333 c042
00000050: 0000 bf42 6666 bb42 3333 bf42
96.7 96.7 96.2 97.6 96.4 96.3 97.4 97.1
96.2 97.4 97.0 96.3 95.4 96.1 95.6 96.3
96.2 95.3 95.4 96.1 95.5 93.7 95.6
