checkpoints/model_epoch_0150.npz (npz, 384061 bytes, 10 tensors)

weight_0 f8 [784, 64]
0	0x0000000021e5124b	2.809556444e-315
1	0x000000000e517a7f	1.18684844e-315
2	0x000000000dfdcc53	1.159753507e-315
3	0x000000001a30b44e	2.170921987e-315
4	0x00000000046e4c3d	3.67275264e-316
5	0x800000001dd10811	-2.47150585e-315
6	0x800000000becabc0	-9.8842694e-316
7	0x800000001f76a1b5	-2.60801613e-315
8	0x0000000003b9a6e1	3.0878376e-316
9	0x8000000021b1a0d8	-2.79289962e-315
10	0x0000000021f24b73	2.813838017e-315
11	0x8000000002f0601f	-2.43612303e-316
12	0x0000000020091a8d	2.65544244e-315
13	0x0000000004f44bed	4.10662844e-316
14	0x80000000211ab90c	-2.74403781e-315
15	0x800000000892c33d	-7.1064409e-316
16	0x0000000017ce89d0	1.973355817e-315
17	0x800000000e67289f	-1.193868285e-315
18	0x0000000013192721	1.583063013e-315
19	0x000000000296f08b	2.1465379e-316
20	0x00000000123ad668	1.511079343e-315
21	0x80000000144d3b11	-1.682815816e-315
22	0x0000000014272a71	1.670490736e-315
23	0x0000000011cf7497	1.47631e-315
24	0x0000000004729421	3.68661355e-316
25	0x00000000179248c1	1.95384608e-315
26	0x800000000f808609	-1.28497167e-315
27	0x80000000069c7e1f	-5.48013657e-316
28	0x00000000000a7e2f	3.397507e-318
29	0x0000000002ac3580	2.21540617e-316
30	0x0000000021c1d819	2.79815016e-315
31	0x000000000a95c65f	8.77400346e-316
32	0x80000000038b6b22	-2.93813814e-316
33	0x0000000008e2cbd6	7.36558233e-316
34	0x00000000031154aa	2.5428291e-316
35	0x800000001ccbff8e	-2.38698567e-315
36	0x00000000074233f5	6.01669137e-316
37	0x800000000da35b27	-1.13046919e-315
38	0x800000001897fefd	-2.038585985e-315
39	0x0000000021d3d773	2.803977573e-315
40	0x800000000dea8b61	-1.153519337e-315
41	0x800000001b04ec79	-2.23963669e-315
42	0x800000000cc1ee70	-1.05747874e-315
43	0x000000000d57c830	1.10599899e-315
44	0x000000001e827b68	2.528962715e-315
45	0x800000000ef36c45	-1.23928457e-315
46	0x000000001e902aa3	2.53339363e-315
47	0x000000001563665d	1.772884437e-315
48	0x800000000b8422fa	-9.545797e-316
49	0x000000001509ac11	1.74383142e-315
50	0x800000001fe3afd2	-2.643327183e-315
51	0x800000000a8e417f	-8.7496575e-316
52	0x8000000021e469ef	-2.8093435e-315
53	0x80000000038bd9b6	-2.93953674e-316
54	0x00000000014591d5	1.0541648e-316
55	0x800000000e5c07b8	-1.19026497e-315
56	0x800000000a989782	-8.78312445e-316
57	0x000000001411b151	1.66353793e-315
58	0x0000000022da9825	2.8890545e-315
59	0x80000000238323f8	-2.943628217e-315
60	0x80000000017c029f	-1.23043843e-316
61	0x8000000018ad7810	-2.04553873e-315
62	0x000000000218bc58	1.7379012e-316
63	0x800000000d2617f7	-1.08991035e-315
64	0x8000000008a717a4	-7.1722666e-316
65	0x000000001114eb6e	1.41591142e-315
66	0x80000000122bdd0c	-1.50623088e-315
67	0x8000000008aef116	-7.1976822e-316
68	0x800000001b52e4cb	-2.264882666e-315
69	0x800000001f882b34	-2.61369448e-315
70	0x800000000334a2a0	-2.65714196e-316
71	0x000000000a839c20	8.71518677e-316
72	0x000000000b8871f6	9.5597476e-316
73	0x800000001a9037b9	-2.20184834e-315
74	0x000000001c38b137	2.339289327e-315
75	0x8000000021465ed4	-2.7581705e-315
76	0x80000000230ae726	-2.904696387e-315
77	0x00000000162ba722	1.83772453e-315
78	0x80000000013bff53	-1.0231706e-316
79	0x000000001eee93af	2.563962834e-315
80	0x0000000005fc35b7	4.9611554e-316
81	0x0000000016856a53	1.866788797e-315
82	0x800000001004dbd7	-1.32782059e-315
83	0x000000002218d5e7	2.826317186e-315
84	0x800000001ebd1e2e	-2.54794846e-315
85	0x800000000181da45	-1.2493555e-316
86	0x8000000015e8c04f	-1.816062386e-315
87	0x8000000006659242	-5.3023063e-316
88	0x000000000d7802e7	1.11643456e-315
89	0x000000000ec6fd43	1.224897366e-315
90	0x8000000010a893d8	-1.38083123e-315
91	0x80000000025535d0	-1.93371207e-316
92	0x000000000837150b	6.80958797e-316
93	0x800000001496df26	-1.70666008e-315
94	0x000000001bb18f69	2.295534805e-315
95	0x000000001f124a93	2.575526836e-315
96	0x80000000215a3899	-2.76459796e-315
97	0x00000000026ac360	2.00349864e-316
98	0x800000002112ccb9	-2.74147237e-315
99	0x8000000014f5a941	-1.737352047e-315
100	0x8000000008629596	-6.95044387e-316
101	0x800000000aa3e348	-8.81969983e-316
102	0x00000000159f4de4	1.792280936e-315
103	0x800000000b2973b2	-9.25216824e-316
104	0x8000000000e49f48	-7.4025777e-317
105	0x000000001d86d147	2.44747603e-315
106	0x800000001e36d0d5	-2.504462657e-315
107	0x00000000151c2619	1.749814003e-315
108	0x800000001f613320	-2.601076655e-315
109	0x000000001521af66	1.751606616e-315
110	0x00000000128b9b33	1.537231518e-315
111	0x0000000011128172	1.41512979e-315
112	0x8000000016ce8a61	-1.890466073e-315
113	0x00000000162b90d7	1.837696335e-315
114	0x80000000220327b5	-2.819297254e-315
115	0x80000000016cb256	-1.18085434e-316
116	0x800000001e96bbe1	-2.53552008e-315
117	0x00000000242b4c06	2.998075743e-315
118	0x00000000219201f2	2.782661126e-315
119	0x000000001ea488f3	2.539988733e-315
120	0x00000000040da57c	3.3598043e-316
121	0x800000001fc130e6	-2.63215776e-315
122	0x000000000f8f5145	1.28976179e-315
123	0x000000001766e5a2	1.939797703e-315
124	0x000000001afd8b65	2.23724737e-315
125	0x8000000020c99aef	-2.717772663e-315
126	0x0000000012872d86	1.535797635e-315
127	0x80000000148d5759	-1.7035742e-315
128	0x0000000010ff8c68	1.408991626e-315
129	0x8000000004592c21	-3.60435044e-316
130	0x000000000ee14402	1.23340541e-315
131	0x0000000006fe166d	5.79614007e-316
132	0x0000000001ed93d7	1.59815884e-316
133	0x8000000008d08adf	-7.3064783e-316
134	0x0000000021a788f0	2.789631473e-315
135	0x800000001dc893ef	-2.468768637e-315
136	0x80000000097d745f	-7.8663519e-316
137	0x000000000a578ebb	8.57254937e-316
138	0x8000000001826021	-1.25104857e-316
139	0x800000000204322c	-1.6713954e-316
140	0x800000000a8946c2	-8.7335345e-316
141	0x0000000009c9f39f	8.1140424e-316
142	0x800000000534cb90	-4.31546895e-316
143	0x000000001400590c	1.65792184e-315
144	0x0000000021377f19	2.75335445e-315
145	0x800000001eb2882e	-2.54452083e-315
146	0x000000001b1efb0a	2.24807368e-315
147	0x000000001d41ab77	2.425086633e-315
148	0x800000000dcaa633	-1.14319195e-315
149	0x0000000000c70166	6.443615e-317
150	0x800000001e0d535d	-2.491028537e-315
151	0x000000000d94131f	1.12552122e-315
152	0x000000000ba00279	9.6360473e-316
153	0x8000000013752abb	-1.61285633e-315
154	0x00000000211dd2a5	2.74504156e-315
155	0x000000000b300a47	9.27350027e-316
156	0x8000000011c4ae49	-1.472821276e-315
157	0x800000000690a494	-5.44176807e-316
158	0x00000000042fa415	3.46987545e-316
159	0x8000000012b57380	-1.55078052e-315
160	0x8000000001dd722f	-1.5459266e-316
161	0x800000000fac1115	-1.29907054e-315
162	0x800000002042b4ed	-2.67409377e-315
163	0x800000001d7f72a6	-2.445089805e-315
164	0x0000000019638476	2.10448435e-315
165	0x800000001449ad1c	-1.681664895e-315
166	0x00000000026701a0	1.99133435e-316
167	0x8000000010b83c59	-1.385901216e-315
168	0x00000000147c9c74	1.69815716e-315
169	0x000000001ed384bb	2.55520157e-315
170	0x000000000d66a858	1.11081558e-315
171	0x8000000002c7ef73	-2.3051816e-316
172	0x80000000228f53d8	-2.8646838e-315
173	0x800000001481d3d8	-1.699846175e-315
174	0x00000000069dbdbd	5.4841791e-316
175	0x00000000072c875d	5.9465123e-316
176	0x800000000def0b57	-1.154976346e-315
177	0x800000000e5ace68	-1.18986869e-315
178	0x800000000bfcf233	-9.936967e-316
179	0x8000000008662c43	-6.96206335e-316
180	0x800000001e874e50	-2.530524634e-315
181	0x800000001c29567f	-2.334317723e-315
182	0x800000000d64ff66	-1.110278104e-315
183	0x800000000478c552	-3.7066632e-316
184	0x00000000000a7251	3.382497e-318
185	0x8000000011f246aa	-1.487584595e-315
186	0x800000000fb04cb1	-1.3004411e-315
187	0x80000000004a053d	-2.396715e-317
188	0x80000000206fefc4	-2.68873878e-315
189	0x00000000044e1790	3.5684733e-316
190	0x00000000091619f7	7.53170385e-316
191	0x00000000029214d7	2.13080745e-316
192	0x8000000022f6b1ff	-2.898153343e-315
193	0x800000001947cdef	-2.09551113e-315
194	0x800000000fde5c1d	-1.315354986e-315
195	0x800000001fab98d9	-2.62516584e-315
196	0x80000000020cbbea	-1.69904087e-316
197	0x800000001846c5a6	-2.0122864e-315
198	0x800000001b8bc85f	-2.283302797e-315
199	0x80000000158e9f3d	-1.78687938e-315
200	0x000000000807511f	6.65492823e-316
201	0x800000000c3e9bc2	-1.014957564e-315
202	0x8000000000961ec0	-4.860752e-317
203	0x000000001a5121d8	2.18142184e-315
204	0x000000001f2bc9da	2.58378259e-315
205	0x00000000054472aa	4.3661511e-316
206	0x800000000f69db83	-1.27763259e-315
207	0x000000001555cbf1	1.76847984e-315
208	0x0000000015f5ce56	1.82028941e-315
209	0x8000000017c1fa01	-1.969288437e-315
210	0x8000000018a197c0	-2.041693317e-315
211	0x0000000022f5068e	2.89761271e-315
212	0x000000001a5e2080	2.18562942e-315
213	0x8000000014165a41	-1.665046765e-315
214	0x800000001a8b19c1	-2.20019148e-315
215	0x000000001cdc6e7a	2.39230662e-315
216	0x8000000011e117e1	-1.482020976e-315
217	0x000000000e57723e	1.18878075e-315
218	0x000000001d52bb48	2.43061108e-315
219	0x0000000001fec17f	1.65378075e-316
220	0x00000000220d47de	2.82257584e-315
221	0x000000001c79fb75	2.360429636e-315
222	0x8000000000c84b3a	-6.485332e-317
223	0x800000000da0a0df	-1.129585997e-315
224	0x000000001caea4a1	2.37748073e-315
225	0x800000000c1f0881	-1.0047338e-315
226	0x800000000446b5b9	-3.54457047e-316
227	0x0000000005d85052	4.8449272e-316
228	0x8000000000f31c19	-7.8716718e-317
229	0x00000000194fa7ec	2.09805338e-315
230	0x800000002122c52d	-2.74664348e-315
231	0x8000000008eff831	-7.40823615e-316
232	0x800000000131e5f0	-9.904704e-317
233	0x00000000046a4f3a	3.6598388e-316
234	0x0000000011a9e6fa	1.464150627e-315
235	0x000000001ecade54	2.552400774e-315
236	0x800000001cee99e7	-2.39818978e-315
237	0x800000001200c73e	-1.492280294e-315
238	0x0000000007065252	5.8228009e-316
239	0x800000000aefc319	-9.06537383e-316
240	0x00000000026b1afa	2.00460664e-316
241	0x00000000229e9572	2.869623636e-315
242	0x0000000010ed19a7	1.40301825e-315
243	0x800000001a51f661	-2.181690657e-315
244	0x00000000187a4fe7	2.0289746e-315
245	0x000000000e38e91a	1.178893565e-315
246	0x000000001d7beded	2.443950563e-315
247	0x0000000007237b90	5.91722187e-316
248	0x000000000f8d95ee	1.289201053e-315
249	0x800000000de11c28	-1.150464544e-315
250	0x0000000015832e3c	1.783174753e-315
251	0x8000000018db2edf	-2.060340536e-315
252	0x800000000ef995ce	-1.241279847e-315
253	0x00000000036aa06e	2.83196126e-316
254	0x000000001e06d1c0	2.488921856e-315
255	0x000000000cc9e74a	1.060060026e-315

bias_0 f8 [1, 64]
0	0xbfbd74ea6819e7fe	-0.11506524125607595
1	0xbfd9a3d17e8bd18f	-0.4006236778070837
2	0xbf675e318856917d	-0.002852532141974061
3	0x3f6ebc139cb14a43	0.003751791291088298
4	0xbfd101ee8d1aecca	-0.2657429101925116
5	0xbfeb1be6e916e5cd	-0.8471560051468089
6	0x3f6ff9fa42cf51dd	0.003903378287285471
7	0xbfe608b7e6e5b0fb	-0.6885642537795599
8	0xbfe37b531bac1dbf	-0.60880427746536
9	0xbfa65c209ec94cfe	-0.04367162645635324
10	0x3fd82e0e766aa451	0.37781106533163206
11	0xbfd115064b58d634	-0.26690823896510385
12	0xbfe7de9f4771e72d	-0.7459255595597135
13	0xbfcf80ef73b42144	-0.24612229489890514
14	0xbfe7aebd6266163c	-0.7400805398799046
15	0xbfe9d21e43f895db	-0.8068991973456677
16	0x3fcd8dbf1dfc3f11	0.23088826145293997
17	0xbfe21f1479949890	-0.5662939428919049
18	0xbfdbddb3e3a3d630	-0.43540665846316795
19	0xbf8444a72fa0705a	-0.009896570340110756
20	0xbfde5d3851598f03	-0.47443969673462066
21	0x3fdc7b6494cc6c28	0.44503130465608587
22	0xbfd106ec4f2a643c	-0.2660475514508709
23	0xbfe58608488a8540	-0.6726113716905857
24	0x3fdb8f393b41823f	0.4306166723891102
25	0xbfba91f0c211ddfc	-0.10378937471420352
26	0xbfbecc92e6bdcd54	-0.12030904897055922
27	0x3fd44f51f40335c9	0.3173413165030437
28	0x3fde7043c8dc8fbb	0.4756020986117126
29	0xbfc2c54f1511a6ac	-0.14664639023549364
30	0x3f73be24803b3b0d	0.004820005971579955
31	0xbfd2c23ad6fd1a9a	-0.2931048488139055
32	0xbfe48e2774fab85b	-0.6423527989152363
33	0x3f97cfc3a49417c8	0.02325349514014599
34	0xbfd2224ae2257948	-0.2833430489025841
35	0xbfe88197c552348a	-0.7658194402626048
36	0xbfcdeb476fca1658	-0.23374264677493062
37	0xbfdc5bc0b6cf67c1	-0.4431001458411821
38	0xbfd889a1bc062f95	-0.38340037690863343
39	0xbf846bc5f4f0ee88	-0.009971186196813933
40	0xbfc871bda611d676	-0.19097109421607045
41	0xbfc757c67b67d3f3	-0.1823661902014063
42	0x3faf1d5d3f3208de	0.0607709064143067
43	0xbfd0684810a3b3ee	-0.256364837884404
44	0xbfe8cf381b839d67	-0.7752953088174025
45	0xbf9a2ffadaa6f26e	-0.025573653789012267
46	0x3fa9b400b85311f2	0.050201437473820124
47	0x3fd045de7e72c5c5	0.254264472469995
48	0xbfeaa2a363111382	-0.8323532996079026
49	0xbfe10fa9b0067916	-0.5331619680398798
50	0xbfe20ed29165a9a9	-0.564309391001463
51	0x3fd31f1fa5694673	0.2987746348709159
52	0xbfc937c3f7276088	-0.19701432769830185
53	0x3fd4f7cdeefbf547	0.32762478197385686
54	0xbfdbe4a7736f0433	-0.43583093903368136
55	0xbfec23f7ac6ec341	-0.8793905608964466
56	0xbfe6b6cde16b6ce8	-0.709814968369213
57	0x3fcb8e64a430988d	0.21528299347955163
58	0xbfe618f8dad87578	-0.6905483507468224
59	0xbfe56c4e365d5f3a	-0.6694708883105485
60	0xbf93991ec29777ee	-0.0191387945432026
61	0x3fa4c1d68437b4aa	0.040541366233676726
62	0x3fc0a053258ab3e9	0.12989272435279922
63	0xbfd5a86b7945fb24	-0.33840452998258486

weight_1 f8 [64, 32]
0	0xc01975e0c252a725	-6.365115200323804
1	0x3fe73533d7653bfc	0.725244446462852
2	0xc023641ab5c53ec6	-9.69551628144053
3	0xbff71542069b58e8	-1.4426899202422252
4	0xc01da619114cfc90	-7.412205000232589
5	0xc0094812653a07a7	-3.160191336472923
6	0xc00dfc3735cccec2	-3.7481521800162634
7	0x3ff94c1d04eaa7b5	1.5810823623710182
8	0xbffe410a6b47eed4	-1.8908790770209878
9	0xc010f24f6100cab5	-4.23663093154271
10	0x3fc5905681cf0663	0.16846734369578362
11	0xbf91d27fa5389c3f	-0.01740455099038862
12	0x3ff2b9e8681f5b6c	1.1703876559529034
13	0x3ff10af3e580cbd6	1.065174004074597
14	0x3fdc67c3cfc39752	0.443833306212004
15	0x3fe523fa60707ade	0.6606418498593845
16	0xc001d99c2339dc22	-2.231254840090984
17	0xc017e16b1ed9ebec	-5.9701351948269625
18	0x3ff055541aaeee46	1.0208321611707034
19	0xc00137c23bce5eb4	-2.1522259399751764
20	0xbff826db45e2c6a9	-1.509486458770349
21	0xbff89ae0f6c5aa13	-1.5378121985946833
22	0xc0142b336455a9b4	-5.0421882321629035
23	0x3ff3102da5c7e6a4	1.191449782926079
24	0xc014be79d6732dd8	-5.186011648921941
25	0x3ff365ad944bdd95	1.2123237412286916
26	0xbfc8b3bc79cc77f0	-0.19298511454775236
27	0x3fef58330056db6c	0.9795165068270371
28	0xbfff38e96db522a0	-1.95139448980823
29	0xc0175f40a6582444	-5.843020056848278
30	0xbfce7dfdd79da068	-0.2382199576197792
31	0xbfe46d1647449140	-0.6383162872266794
32	0x3fd5ae6032c498c7	0.3387680526524374
33	0xc00748cc88cffe6b	-2.910546368453472
34	0xc015eb17e58acc8a	-5.479583345982187
35	0xc00d5945c4fc105e	-3.668590105955487
36	0x3f97d5e89e50eede	0.023276934302187573
37	0xc01f503c0b9ca327	-7.828354054866202
38	0x3fc25daff6ff1c7a	0.1434841114080177
39	0xc007e78838ff9da0	-2.9880527928359726
40	0xbf79c2c25341bfb0	-0.0062892523602470635
41	0x3fc8239fdf4c62d2	0.188587173492826
42	0xbfe0934655f9fe8f	-0.5179778746823603
43	0xc02692e84fdac8b9	-11.286928649384537
44	0xc00b65f3925b763b	-3.4247809824144304
45	0x3fe29ac59b58d753	0.5813930544015683
46	0xbfa888fcfc2589c3	-0.047920137195223166
47	0x3fa88d7ac43079ed	0.04795440335168508
48	0x3fd5882a3c49f1cd	0.3364358509786854
49	0xbffd5ef186eb392a	-1.8356795568721034
50	0xc01445c7074c28c0	-5.068142045997035
51	0xc012c4e73de0f6e1	-4.692288367133842
52	0x3fddf4c2a8a2058f	0.4680639883809698
53	0xbffed4a715d36c89	-1.9269171574185597
54	0xbfc40f8558a9f098	-0.15672365979469727
55	0xc010f7278ac8e847	-4.24136177874795
56	0x3fd07f2add0d48a8	0.2577616842946875
57	0xc00e69cb0f9e94e1	-3.8016568393965007
58	0xbfe4f168690ddc85	-0.6544687320555488
59	0xc01245611cdcd33b	-4.567753268220993
60	0xbffb3f9e6f0d6751	-1.703031953619263
61	0xc000ac60f344a4a3	-2.0841692929576126
62	0xc0048a956b55517a	-2.5676678071415013
63	0xbfc94525d15c7d7d	-0.1974227211257861
64	0xc014e901b22e5b69	-5.227545532302295
65	0x3fc4c64353b12923	0.16230050646329017
66	0xc01c4378426690e7	-7.065888440618642
67	0x3ff3c594c4c08b47	1.2357375798826113
68	0xc01594296f87501d	-5.394689314493033
69	0xc012b8545060ff39	-4.680009132309174
70	0x3fe328ded4d7660c	0.598739066797124
71	0x3fe6e121bbfad50b	0.7149819060784081
72	0xbfcf5f1c41624dbb	-0.24509003822877937
73	0xbfc4755c093aa606	-0.1598315281928963
74	0xc00d39818e0c5fd0	-3.653079137566216
75	0x3fb2bba87f0db160	0.0731759367169551
76	0x3fe862087044be47	0.7619669144386955
77	0x3fc992399d29a21b	0.1997749345203069
78	0xc0172d24daf38374	-5.794085904229053
79	0xc002a0c56f57909b	-2.3285015772435833
80	0xbfffff65bc4bfcb3	-1.999852881941291
81	0xbff7a07444ee9ab9	-1.4766733830125942
82	0x3ff538f67ed833e7	1.3264069514145775
83	0x3fed48a8a6e6a50e	0.9151194820198343
84	0xbfe37db65df72942	-0.609095748449626
85	0x3fe80dd8bbe69972	0.7516902608811462
86	0xbfe4b1f4b99c6c4d	-0.6467231393065817
87	0xc00854ea5faace4a	-3.0414626573563384
88	0x3fd5bad507e1dc16	0.3395283295607795
89	0xc001d0b231efcc47	-2.226902380114129
90	0xbffedaffce0e1603	-1.9284666108154631
91	0xc001d34f2f80739b	-2.2281783782077134
92	0xc0179d0677e14df4	-5.903344987036224
93	0xc00a58ed6c90cf0e	-3.293421600503172
94	0xc014b81997b10b28	-5.1797851278122735
95	0x3fbdc60c3c420957	0.11630321952001076
96	0xc017e03cb9143745	-5.968981639727478
97	0xc006f2c33ba62ec5	-2.8685364399042066
98	0xc0233f63b203168c	-9.623807490231478
99	0xbffa7733661c70e5	-1.654101752158618
100	0xbffe78af10787a2d	-1.9044638293631906
101	0xc01bbde88621a390	-6.935457320979268
102	0xc00a143ccd6ddee9	-3.2598815964846506
103	0xc011e18a4abb5013	-4.470254104311624
104	0xbfddbcbceb5db412	-0.4646446512695671
105	0xbffba138a0d1497e	-1.7268606454786943
106	0x3ff1039676c733d8	1.0633759155054943
107	0xc01df12977fb0d42	-7.48550975293921
108	0xc00e2629675cc112	-3.7686336589032488
109	0xc0163b86beef92c8	-5.558131202099226
110	0x3fe53cd44ff29662	0.6636754571415617
111	0xbfd1da030cff9aad	-0.27893139142399087
112	0x3ff2863594c3146e	1.1577659426705185
113	0xc012e3998f1015e7	-4.722265467983994
114	0xbff1ce6e83ab7226	-1.1128983634326999
115	0xbfd1f5a972a872da	-0.28061901280470425
116	0xc00f0a193972bf29	-3.8799309242384834
117	0x4004da0b42d8cdbb	2.6064667913830966
118	0xbff96ecef38b3a45	-1.5895528329307507
119	0xbfd74c5acd1a42b7	-0.36403532056378246
120	0xc001a812df68d0f6	-2.207067246805418
121	0xc0078e3902602bf8	-2.944444674072198
122	0xc00a3ac22e57717c	-3.278690683406408
123	0xbffcd8f9299b1264	-1.8029719948982796
124	0x3fea3f292d057fda	0.8202100638700316
125	0xc0145908669027ec	-5.086946108387547
126	0x3ff0f68bcc868c02	1.0601919163971165
127	0xc00242effa47e64d	-2.2826842835609455
128	0xc00aa8fb80a0b4b1	-3.3325109528583075
129	0xc0099755523f7472	-3.1988932061781776
130	0xc0205660a2b395a4	-8.168706020757618
131	0xbfede2312e1aa49c	-0.9338613415212822
132	0xc0120933185ba2b3	-4.508983975022306
133	0xc02154e168f2ef13	-8.665782241492286
134	0x3ff0e0c4af8f3477	1.054875074175724
135	0xc00b89dd3648ef7a	-3.442316459751905
136	0x3fe7089dc092509f	0.7198017846262877
137	0xc00c9315246cbc93	-3.5718176694568426
138	0x4015213d675f7830	5.282460799409861
139	0xc020059dc9f0018c	-8.010969458148587
140	0xc010cecdb0cc360b	-4.201956522430474
141	0xc019224c29690d51	-6.283493659054629
142	0xbfba093337442126	-0.10170288180609485
143	0xbffa625198203fdb	-1.6490035955830453
144	0x3fd5f8a86ef44379	0.34330187640539794
145	0xc016696bfbf950fe	-5.602950989811005
146	0xbffca6f31a9ff267	-1.790759185793968
147	0xbffa08d4f224df68	-1.6271562060118985
148	0xc00c2ef4cb5dfcc4	-3.52292784576966
149	0x400099e1c7325958	2.0751376688232703
150	0x3fe52feac1bb8dc2	0.6620992454376664
151	0xbffc76169203fce5	-1.7788301185353756
152	0xc0076f2c0985effd	-2.929283213043162
153	0xc0109b6cd5c941d8	-4.151782360466733
154	0xc01c7221a034a41b	-7.111456397259668
155	0xbffc655b7b3b4e00	-1.7747454465614965
156	0x3fe48e739d7e8dc6	0.6423891140042819
157	0xc005a0defd742f92	-2.703550319774828
158	0x3ff0b2e327f58c0f	1.0436736641793265
159	0xc00f6b78e1fbb526	-3.9274766592922274
160	0xc00ce2ccb233dc95	-3.6107419893338126
161	0x4017479c2169a0d8	5.819931528160133
162	0xc01451add1bac21d	-5.079764630340404
163	0xbfed5b7c30320f49	-0.9174176160163167
164	0xc015a26b22b0a896	-5.408611814529783
165	0x4005e5c858fde54e	2.737198539016993
166	0xbff379013dbfcd3a	-1.2170421993331062
167	0xc012d597768c6f97	-4.708585598298575
168	0xbfa043038bf720b0	-0.03176127513467131
169	0xc00acf6dc9cc840a	-3.351283623269869
170	0xc005bc384ffcb75d	-2.716904282474316
171	0xc012e983a2f59641	-4.728041216124951
172	0x4001838c3121467e	2.1892322386054834
173	0x4016e7dbda67f194	5.72642461070463
174	0x4003cddf11b739ed	2.4755231269875737
175	0xbff7e4ed75a55def	-1.4933905215783587
176	0xc008a70edd0d5534	-3.0815713185972076
177	0xc01660d9ea0306e6	-5.5945812763545515
178	0xc000499956d1235f	-2.0359370024274734
179	0xbf9b47ef216f7e5e	-0.02664159432958823
180	0xbfe0b2a9bff18d60	-0.5218094586274837
181	0xbff2a7ba1d22d256	-1.1659489763379915
182	0xbfb029e2c8e042d6	-0.06313912777137473
183	0xc008c58931672f89	-3.096453081094243
184	0xc010c6f461dd577c	-4.194291619429233
185	0x401810f59b91c6f1	6.016561918995408
186	0xc00a9a0abbe692bc	-3.3252157859554625
187	0xc0029dc58aa32744	-2.327036936859175
188	0xbff24efdc5db7ef3	-1.1442849854283252
189	0xbfd02933004d8287	-0.25251460103576345
190	0xc009b0a80e41592a	-3.2112580407803266
191	0x400698aea5a4eb74	2.824551862807704
192	0xc01406bbbad2c380	-5.006575507272714
193	0x3fd6cdb3c612051c	0.3563050684243352
194	0xc023cfb076907559	-9.905643181928712
195	0xc01047723d261daa	-4.06977172417775
196	0xc0168eff0c2ccd56	-5.639644804224494
197	0xc00e35fea866cb16	-3.7763646274919536
198	0xc010396ae8b61012	-4.0560718880770015
199	0xbfe1d90e0124a1dd	-0.5577459356618949
200	0xc004070cbe77c772	-2.5034422760299373
201	0xc010013705b55787	-4.001186455910903
202	0x3fd874b0d1971463	0.3821222349909645
203	0xc021e78ff9e22c96	-8.952270325526381
204	0xbfbf66e32e0d5650	-0.1226636874610787
205	0xbfcbe5352f51fe6e	-0.21793236551819767
206	0x3ffb7a37f451987c	1.717338518495608
207	0xbfd64d89cb67a2cb	-0.3484825598120948
208	0x3fd0d24ecc52c1fe	0.2628361697525462
209	0xc01ccc6c73721688	-7.199632457579021
210	0xbffcb006a0fe5658	-1.7929750717934407
211	0xc01034f72c38414e	-4.0517241391501795
212	0xbfefaeb75a67d4e8	-0.9900776639684894
213	0x3fd02f0a7209241d	0.25287114273356953
214	0xc014996b43949bf3	-5.149823242135414
215	0x3fcc6620e977890f	0.22186671638252917
216	0xc019ed4856aff538	-6.481721262445085
217	0x3fdfb3c052dcaf1f	0.4953461465072326
218	0xbff9b4e82df355bb	-1.6066667361204583
219	0xbff90e0315e1927c	-1.565920911286553
220	0x3fd03ba3e6445b08	0.2536401509000119
221	0xc015bdb2c7fbafa7	-5.43525230859442
222	0x3fe2e92db3d37d7f	0.5909641754368947
223	0x3fb9239205c09270	0.09819901123462116
224	0x40105738c2997df4	4.085177460306557
225	0xc002ac240dd1b073	-2.3340531425110895
226	0x3fd8f8e2221e2af1	0.3901906331235941
227	0xbff1a270947ad804	-1.1021581459040144
228	0x4012f164ded8a99c	4.735736352895767
229	0xc00a7c854f3607a4	-3.3108011425365067
230	0xbff364193d130725	-1.2119381318775109
231	0xbfa08e7c10196ae6	-0.0323370713856173
232	0xbfc7a1117773005b	-0.18460291225892686
233	0xbfd20bf1694c9baa	-0.2819789436638823
234	0xbfee2dd6762ad0b7	-0.9430954273180053
235	0xc015900b170e1f8f	-5.390667305218712
236	0xbfdda9ecfecef339	-0.46349644549973196
237	0x4016da8324ea82d6	5.713390900433941
238	0x4001e714cabf968f	2.237832626315885
239	0x307c8b9884cca78d	3.944351803570524e-75
240	0x4010d2f9cea680ab	4.206031063950074
241	0xbff46af1c2502451	-1.2761094656327894
242	0xbfbc31bcabeb8e11	-0.11013392636555631
243	0xbff6683387277aef	-1.4004397658788397
244	0x4014ffbd59739c75	5.249745748216005
245	0xbffa5448261f6084	-1.6455766190684082
246	0xbfbc5897cae993a5	-0.1107268209830879
247	0xb07bfdea3a7597d6	-3.8678780874185516e-75
248	0xc0079fab4c00d7a1	-2.9529634416348505
249	0xc003090027dfa6fe	-2.3793948283317823
250	0xbffd74895f4d6b81	-1.8409513209105344
251	0xbf6660a58192caa0	-0.002731631521407721
252	0xbff493fa634747dd	-1.286127460295112
253	0x0b5228b3d555ef35	3.8700400045709064e-254
254	0xbfe0b16e830523ae	-0.5216591414438108
255	0xc006a7719a814f82	-2.831759650298353

bias_1 f8 [1, 32]
0	0xbffe2bef67fc0932	-1.8857263624091272
1	0xc000547963e2aa28	-2.0412471583888596
2	0x3fb59b248a15d1e5	0.08439854022237332
3	0xc0058bfdf851c403	-2.693355503077784
4	0x3fb6d87778ca5a35	0.08924051951394392
5	0x3fb9e6257317cc63	0.10116800365340022
6	0xc009db3867e572df	-3.2320411793610755
7	0xbff854b1ceb2134b	-1.520677382855143
8	0xc00a24e2df78b90a	-3.268010850783985
9	0xc009044c347a620f	-3.1270984744881
10	0xc006ece6b6d87788	-2.865674427491232
11	0x3fb6dddb085ed616	0.08932274774891655
12	0xc003ec2c4317adf0	-2.4903187982179062
13	0xbffafb33d2589cc2	-1.6863287178655786
14	0xc0063fb5575e5ff8	-2.7811075997997214
15	0xc0018563de25e390	-2.1901318888962535
16	0xc0077f1b99771aa6	-2.9370643605683027
17	0xc00521b811d538a4	-2.641464366263863
18	0xc002f65837a5e2f7	-2.3702854487895553
19	0xc00685bd1cdcef1e	-2.8153021101878855
20	0xc00099e879d4381e	-2.0751504438294566
21	0xc0070028e255829e	-2.8750779802652024
22	0xc00317baae67c11e	-2.3865865350163764
23	0xc006e1f40166a5a5	-2.860328684754409
24	0xc0035ac501bf2ad6	-2.419321073194946
25	0xc0050f2c4a987411	-2.6324086978697854
26	0xc005d378a4d267f1	-2.7282574536047766
27	0xc0016a23d036dfbb	-2.1768261210199547
28	0xc0072b6ed79a2318	-2.8962075084604173
29	0xbff9c03132a38614	-1.6094219186856025
30	0xc00ebf3b3687f4f1	-3.843374658607552
31	0xc005727aa9701e91	-2.680898021444428

weight_2 f8 [32, 10]
0	0x40157d4936055015	5.372349590372342
1	0xc0141926cf36bbe1	-5.024562108722393
2	0xc013b2d7d39eed6a	-4.924651438307913
3	0xbff5abc14f07a926	-1.3544324004274784
4	0xbff91edd1339a4e6	-1.570035052393274
5	0xc00c38443370a210	-3.527473832964695
6	0xc010057ae4e70ff5	-4.005351616480756
7	0xbffb419d0ceb7c32	-1.7035189156229191
8	0xc01118084007d03c	-4.273468971707242
9	0x401596d97e05389a	5.397314042156859
10	0xc01abd233b83cf88	-6.684704713745198
11	0xc013f8f25cc43386	-4.993112039065528
12	0xbfed52781b5cb942	-0.9163170370500568
13	0xc00740700fe6b1ae	-2.906463741519665
14	0xbff34db98de30d0e	-1.206475786443494
15	0xbfe35087824a72bd	-0.6035802407019087
16	0x4018a83b09c5ea6c	6.164287712769333
17	0xc0099ac83b577c24	-3.200577224356964
18	0xbfd389491a8314b6	-0.3052542456537809
19	0xc00f346fab5ab8a4	-3.90060361738786
20	0xc0037b74fd787b35	-2.435281734694764
21	0xc02b8ae8af0ca949	-13.771306486411634
22	0xc01f1fbe15def1af	-7.780998555881907
23	0xc015a1bbd400d4b5	-5.407943069983209
24	0x3fe3027ba4041791	0.5940530970990371
25	0xc01b5c1abc97295c	-6.8399457423459715
26	0xc024f5698202a14b	-10.47932058603387
27	0xc005efa963e4cfcd	-2.742022304935722
28	0x40105dc11d58300c	4.091556986339139
29	0x4017d05b452462df	5.953473167749251
30	0xc020f191b7ae825b	-8.471814861347573
31	0xbff153403f68389d	-1.082824943241156
32	0xc02dc48aacd8dc60	-14.883870507690688
33	0x3fe26293dddd6217	0.5745333989426084
34	0xc003072e2b77de94	-2.378506030650735
35	0xc0108c3a6fb5a62a	-4.136941667043667
36	0xc02514f437b30178	-10.540925732232367
37	0x401eb1bc3ff2b98c	7.673569678487535
38	0xc0267b786f6f6277	-11.241153223368412
39	0x400e8620edc30c4f	3.8154924941204977
40	0x401471a156f13ccd	5.110967024301499
41	0xc0223359fc7eb144	-9.100295916047465
42	0x3ffe9825dbce8db7	1.9121454797940325
43	0xbff7e43c418faa78	-1.4932215271934677
44	0xc0160d378f6e72b3	-5.512907258144582
45	0xbfe5e87b0230e910	-0.6846289675516193
46	0xc014b40fa7661bc4	-5.175840964896398
47	0xc018b4dde99c7d6a	-6.176627779175172
48	0x40141dd417e021a6	5.029129384093187
49	0xc02379e35847add9	-9.738062628507508
50	0xc003d1af6b46c6f2	-2.4773853665327517
51	0xc01c511c9556b23e	-7.079210599342842
52	0xbfe3112206020dbf	-0.5958414189666924
53	0xc00e3e035e8112ea	-3.780279863657019
54	0xc00edee0fb90f22e	-3.858827557907964
55	0xbffff58a67f1484a	-1.9974464473966855
56	0x400fa60c5e9d9b69	3.9560782806251393
57	0xc0236fc5c59566f0	-9.71830575417286
58	0x401ce4a3eb4bc4d9	7.22328155183751
59	0xc021873cb7f92ba8	-8.76413512150414
60	0xbff99b9942f92a73	-1.6004879585404097
61	0xc015e420a94931ba	-5.4727808428692075
62	0xc0177a6870a42dcc	-5.869539032002148
63	0x40185232e7fd797c	6.080272316785678
64	0xc01d1ea4e42bc1f2	-7.279925885363342
65	0x3ffe4cc274872612	1.89374013441773
66	0xc016160dff80db8c	-5.521537773361057
67	0xc0123c904b23be78	-4.559144186073915
68	0xc020e5f557849c34	-8.44913743490006
69	0xc020aa5d2d419dbc	-8.332742132434639
70	0xc017a959f4acb9a6	-5.915382216493901
71	0x400ddf8c71fffc27	3.7341545969243444
72	0xbff429c05632c756	-1.2601931922076424
73	0xc012d66398568dfa	-4.709364300043939
74	0x400d1f631a2c84e3	3.64032574127542
75	0xc004e7a705ee6537	-2.613111540162801
76	0xbff3a21a4a36e058	-1.2270758532522645
77	0xc013de2744c6d04c	-4.966946673044799
78	0x3fe0f9528e3d4fc0	0.5304348734011839
79	0xc0022f4608489d7b	-2.273082794872321
80	0xc002d950e1502b33	-2.356111297854477
81	0xc00bfc441905f721	-3.4981767611451606
82	0xc010a326a4be52ba	-4.159327100864795
83	0x4020f377db5c28af	8.475523810386532
84	0xc00f9ef8d6fc9a80	-3.952623061736915
85	0xbff8691999dba49a	-1.5256591806485518
86	0xc00507291c345076	-2.6284963801827486
87	0xc01497c703d42dec	-5.1482201193098085
88	0xbff78ce2baddb3bb	-1.471895914025693
89	0xc00dd59ad1587d24	-3.729299197686162
90	0xbff72ca7c98be1de	-1.4484022019297451
91	0xc004e0d81ae97026	-2.6097871878137253
92	0xc00507ce02e21603	-2.6288109040494887
93	0xc017322df0082338	-5.799003363129309
94	0xc0157f3d7133d30c	-5.374257820880995
95	0x4019ab68ca1b9d05	6.417391927657495
96	0xc00b4a20024a2eb2	-3.4111938647164033
97	0x400dd56b3d1f87bd	3.7292084479567777
98	0xbfff6b93424ffe95	-1.963763484032744
99	0xc0169c591451e12d	-5.652683560845884
100	0xc01963cc6bbf89d3	-6.347459491315436
101	0x400ceb66ae8574f9	3.6149419435956784
102	0x400e96651d84e8a1	3.823435049646904
103	0x400f143623ac6465	3.884868887613765
104	0xc0215e93ca44f1cb	-8.684721299091413
105	0xbfff16159d500114	-1.942891706945436
106	0xc01ac8117b0afcb9	-6.695379183335882
107	0xc021c0d6352de368	-8.876634275294876
108	0xc019a07025c764c7	-6.406677809042953
109	0xc024d72d169e8074	-10.420265871857033
110	0xc020cd34e657a618	-8.400794218253438
111	0x401a79d51ee8b5fb	6.618977053597969
112	0xc009d08ac387a4a6	-3.22682717092228
113	0xc01148e138b50276	-4.321171651885939
114	0xc011d29c955c621a	-4.455675443423866
115	0xc0032a52fe3d06bd	-2.395666109311462
116	0xc0131ec8823e067e	-4.780061755214431
117	0xc00d680a6412376f	-3.675801069074559
118	0x401aa43c12a647a4	6.6603854097356
119	0xc021b7d91402962f	-8.859078049960855
120	0xc0125f157dc14306	-4.592855420037045
121	0x401e22cffc9764e1	7.533996531238899
122	0xc00057381981dda8	-2.042587470317546
123	0xc00f27745818a612	-3.8942648775598707
124	0xc000af69744b2511	-2.085650356810796
125	0xbff221d27dbaaf26	-1.1332573806093449
126	0x4003b5fe76a42ef6	2.463864256749612
127	0xc016fd3117bb36b4	-5.747257586289994
128	0xc01012a6c45ae38f	-4.018214290664118
129	0xc009ecc34cda4228	-3.24060688057968
130	0x401544b58d3c58b7	5.3170988147814375
131	0x40061ecc77a6a866	2.7650384280905653
132	0xc01c97b6e2ba3b68	-7.148158590904906
133	0xbffa9d2fc0e91105	-1.663375619465172
134	0xc0067b2401bd8874	-2.8101272712674987
135	0xbfff274c79c14530	-1.9470944171956255
136	0x4014b71776523b36	5.1788004386606215
137	0xc0104f09e60cef08	-4.0771861977953066
138	0xc011480357c0bbe2	-4.320325251711411
139	0xc00bb419586c2d6f	-3.4629389675152917
140	0x4009c052dfe6da42	3.218908070786058
141	0xc020e0b83ed71026	-8.438905681374376
142	0x400b95e7ba9006c2	3.4481958937838906
143	0xc024ef9c85b8e1d8	-10.467991045778874
144	0x400bfb03fe30f6d9	3.4975662096684172
145	0xc011e345a56878bd	-4.4719453663839746
146	0x400bc2b4ad360807	3.470071175776869
147	0xc0238ecf0c709f34	-9.77892340540675
148	0xc020c60a376841ff	-8.386796695210249
149	0xc021198ec6bf567e	-8.549917422157929
150	0xbff125783397a30c	-1.0716478362393813
151	0xc00a5282c0e423ee	-3.2902884549734983
152	0xc004de5226b64917	-2.60855512851516
153	0xbffadaf1629a94b9	-1.678452859088152
154	0x4018ceddf5cd6d76	6.202018585837655
155	0xc00303ae2dfa68e3	-2.376797064976118
156	0xbfedf06ee66bc4b6	-0.935599756279905
157	0xbff4a752a868f0a3	-1.2908503130447933
158	0xbff04104f2c1978f	-1.0158738596596526
159	0xc00d05f26f447c15	-3.627903813626754
160	0x40100ec9a501ba86	4.014441087942606
161	0xc0142dae32c268c9	-5.04460982619839
162	0x400ede27329c3f73	3.8584732011731204
163	0xc0199c395aa3fd08	-6.4025625383940294
164	0xc0158a51f1b7c8ee	-5.385078217356051
165	0xbffce87deb0d4007	-1.8067607099255854
166	0xc0149d012bfa6188	-5.153324782521288
167	0x40098f6d34aa083b	3.1950325121297545
168	0xc01172e365a1a348	-4.362195575705137
169	0xc01202c16f694e15	-4.502691021730716
170	0xc013bb602e9e275e	-4.932984093096676
171	0x3fc58edc1b76cbb4	0.16842223492639408
172	0xc016b4544663ce98	-5.6761027334611285
173	0xc00c7c5602000b6b	-3.560710921884881
174	0xc010123669434c2e	-4.017785687191504
175	0x400ef9faa593de3f	3.872060102057531
176	0xbfe0b961ea5a030a	-0.5226296975307332
177	0xc00faebd35db905c	-3.960321827662524
178	0x3ff1f31ec69a2716	1.121855521955188
179	0x3fe077d305fdc958	0.5146269909876464
180	0xc010926a8408ea20	-4.142984450382329
181	0x401d2640c0a5c067	7.2873563862959605
182	0xc00c1d0d26c91a79	-3.5141852407571688
183	0xc01633938d7df682	-5.550367556393782
184	0xc01705bd6221f478	-5.755605252573439
185	0xbffdea9f3c8fbfc5	-1.8697807660755512
186	0xc00a43653bb66e4e	-3.2829079308556066
187	0x4015008a3479cd13	5.250527210172794
188	0xc01027cb7db80af8	-4.038862194402775
189	0xc0183fff15155be4	-6.062496499470374
190	0xc0102aba8abe4f96	-4.041727226129202
191	0xc01fe554428dc378	-7.973954238798676
192	0xc01de8e3d55f6006	-7.477431615778192
193	0xc01317827ffbed33	-4.772958755256059
194	0xc01b86ff1ffced82	-6.881832599461065
195	0xc009eed4625c530a	-3.2416160282540476
196	0xc018bbb49c0d1de4	-6.183306158352455
197	0x4025925517e1bb32	10.785805460267145
198	0xc012a8539b01593b	-4.664381429631528
199	0x3ffd7047cd80e988	1.839912226436896
200	0x401ba04449b09278	6.906510497476681
201	0xc01681b3c1bc7a2f	-5.626662280205479
202	0xc02087cbcd018c40	-8.265226751746127
203	0xc001bd0642120ab3	-2.2172970926052016
204	0xc011199c70f95231	-4.275010838715887
205	0xbfdb9911f5d22d3d	-0.43121766096074393
206	0xbff18597fe5d8128	-1.095115655531183
207	0x400e3351efa4f67b	3.7750586244790703
208	0xc00f8df1a0a519b0	-3.9443085241684557
209	0xbff4333e316133be	-1.2625104836363188
210	0xc02b5d215cfb10b7	-13.681895166061038
211	0xc02dac420ff3f686	-14.836441515474927
212	0x4017ba2f3b00cc03	5.931820794986382
213	0x4016af08a5fe1788	5.670931428559818
214	0xc0280aff8c34d5ef	-12.021480924081485
215	0xc02474fd2e443d1d	-10.228494115667269
216	0xc02f2a49cb44b883	-15.582594253672374
217	0x4017ff06ec81160a	5.999049849871435
218	0xc02b335235655649	-13.600236576671834
219	0xc0358f17170208f5	-21.558946073529075
220	0xc00e2751b89fd3d6	-3.7691988395476796
221	0xc01516bb568e7f3a	-5.27219901318295
222	0xc01a56bdce8ba5ae	-6.584708430550945
223	0x401e8701f2c9113e	7.631843369981935
224	0xbffee5f9f534df0d	-1.9311465814952868
225	0xbff724369a80d4be	-1.44634113648253
226	0xc01372bd4da5de00	-4.862050259827356
227	0xc0139da6b7b7745e	-4.903956289837053
228	0x3f784434658c3e2c	0.005924420046326467
229	0x3fe9ea5b1cf88eb8	0.8098578992689545
230	0xc00aa3483eb5d76b	-3.329727640079843
231	0xc016b1f7213ea6d2	-5.673794288109734
232	0xbfeea2864c21c0db	-0.9573394286108184
233	0xc013e12ba22cf68a	-4.969893011087729
234	0x4018d6ef4908f051	6.209897175951554
235	0xc01693e4af2d3197	-5.644427048810392
236	0xbfe099da03ddced5	-0.5187807155147889
237	0x3ffd2ebe364cb1c2	1.8239118691518432
238	0xc0112050c5b21f08	-4.2815581216780245
239	0xc01d6282bd73284d	-7.346201858667041
240	0xc00a31453594851b	-3.274057787508935
241	0xc021081670d84a37	-8.515796209719253
242	0xc01757430d39fb43	-5.835216719306859
243	0x4003fe9bba3f948d	2.4993204641965066
244	0xc01ee57b20ef7979	-7.724102511040081
245	0x401101a2100d7484	4.2515947826588025
246	0xc00a31ce01981090	-3.274318706944605
247	0xc0154783038fd862	-5.319835715918176
248	0x3fa77bcbb46f3d4d	0.04586636140413223
249	0xc026ea8e8c71bdc9	-11.458118809589807
250	0xc01a4fd1a2729f97	-6.577948129888589
251	0xc003bd2a03f38c6c	-2.467365294332515
252	0x3fd7b1ce0dc01f8a	0.3702273496896785
253	0xc007473146b95947	-2.909761955768008
254	0x3ff904821f208669	1.5636006561184337
255	0xc001807478495cab	-2.1877221486461926

bias_2 f8 [1, 10]
0	0xbfea7be86aef5b08	-0.8276254738401301
1	0xbfd538c79ce85bad	-0.3315905601788767
2	0xbfd4f88a1a76aed5	-0.32766964516006897
3	0x3fdaf88d1d6a0e60	0.421420363163838
4	0xbfc7647fa42f50b1	-0.18275447384678992
5	0xbfbcf7107ff953d1	-0.1131449043690076
6	0xbfd7751dc09f56ff	-0.3665232068136532
7	0xbfc6491426e536fb	-0.17410518550098417
8	0x3fdbaa3dbff098b1	0.43226569885372174
9	0x3fe8e4bbead33d77	0.7779216371945229

loss_history f4 [150]
0	0x3f230008	0.6367192
1	0x3e9d0bcc	0.30673063
2	0x3e7eaea6	0.2487131
3	0x3e605792	0.21908405
4	0x3e4da64f	0.20082973
5	0x3e41c916	0.18924364
6	0x3e350ba1	0.17680217
7	0x3e307125	0.17230661
8	0x3e28f6d4	0.16500407
9	0x3e25b460	0.16182089
10	0x3e260faf	0.1621692
11	0x3e1e7618	0.15474737
12	0x3e208fa9	0.15679802
13	0x3e16cc89	0.14726461
14	0x3e19d638	0.15023124
15	0x3e2087a3	0.15676741
16	0x3e19fc0e	0.15037557
17	0x3e1b40b2	0.15161398
18	0x3e161881	0.14657785
19	0x3e13ba31	0.14426495
20	0x3e18ed67	0.14934312
21	0x3e17a731	0.14809872
22	0x3e1b791e	0.15182921
23	0x3e1ae331	0.15125729
24	0x3e14b8ea	0.14523664
25	0x3e15e07a	0.14636412
26	0x3e0ed1a5	0.1394716
27	0x3e192d33	0.14958648
28	0x3e162016	0.14660677
29	0x3e16812e	0.14697716
30	0x3e1c4fd1	0.15264823
31	0x3e1a0cec	0.15043992
32	0x3e1983f9	0.1499175
33	0x3e256a21	0.16153766
34	0x3e1eaffd	0.15496822
35	0x3e29dd40	0.16588306
36	0x3e21a097	0.15783916
37	0x3e2484a0	0.16066217
38	0x3e1e8b09	0.15482725
39	0x3e258b36	0.16166386
40	0x3e2356a9	0.15951027
41	0x3e2d31eb	0.16913573
42	0x3e27c4e3	0.163837
43	0x3e26837f	0.162611
44	0x3e2e5541	0.1702471
45	0x3e2cc5f6	0.16872391
46	0x3e262e1e	0.1622853
47	0x3e332d71	0.17497803
48	0x3e36c8be	0.17850015
49	0x3e317fc8	0.17333901
50	0x3e33dcb9	0.17564668
51	0x3e2d07ef	0.16897558
52	0x3e351646	0.17684278
53	0x3e3657cb	0.17806928
54	0x3e31417c	0.17310137
55	0x3e416d4b	0.18889348
56	0x3e3d02bf	0.18458079
57	0x3e33912f	0.17535852
58	0x3e398388	0.18116581
59	0x3e3d47e1	0.18484451
60	0x3e337166	0.17523727
61	0x3e3fcbca	0.18730083
62	0x3e3c9e18	0.18419683
63	0x3e4c5374	0.1995371
64	0x3e401a6a	0.18760076
65	0x3e3dd89a	0.18539658
66	0x3e43fe68	0.19140017
67	0x3e4ed888	0.20199788
68	0x3e42a218	0.19007146
69	0x3e4e2f0a	0.20135131
70	0x3e3e8cbe	0.18608376
71	0x3e4e6502	0.20155719
72	0x3e55a0dc	0.20862144
73	0x3e4a74a2	0.19771054
74	0x3e5359de	0.2063975
75	0x3e4eb457	0.20185982
76	0x3e58a0db	0.21155111
77	0x3e4ea197	0.20178829
78	0x3e554015	0.20825227
79	0x3e617715	0.22018082
80	0x3e5a5e55	0.21325047
81	0x3e63ea21	0.22257282
82	0x3e536eff	0.2064781
83	0x3e5e9e7e	0.21740147
84	0x3e600e74	0.21880513
85	0x3e69b786	0.22823915
86	0x3e69bd09	0.22826017
87	0x3e6948d1	0.22781684
88	0x3e61c1d5	0.22046597
89	0x3e6d032f	0.23145746
90	0x3e6926d3	0.22768717
91	0x3e6d2f73	0.23162632
92	0x3e62499d	0.22098394
93	0x3e70582e	0.23471138
94	0x3e6b9687	0.2300664
95	0x3e72e7f3	0.23721294
96	0x3e5f103a	0.21783534
97	0x3e7806b6	0.2422131
98	0x3e71cd48	0.23613465
99	0x3e7786a7	0.2417246
100	0x3e7aebb5	0.24503978
101	0x3e6c48da	0.23074666
102	0x3e77b7f7	0.24191271
103	0x3e7d30e8	0.24725688
104	0x3e77b8b6	0.24191555
105	0x3e8055be	0.25065416
106	0x3e808595	0.25101915
107	0x3e77e800	0.24209595
108	0x3e7b1f48	0.24523652
109	0x3e82b227	0.25526544
110	0x3e807d66	0.2509567
111	0x3e7b5d60	0.24547338
112	0x3e837f13	0.25682887
113	0x3e8d0c88	0.27548623
114	0x3e8e2d55	0.2776896
115	0x3e89c797	0.26910087
116	0x3e8c490b	0.27399477
117	0x3e8f7618	0.28019786
118	0x3e883f9b	0.26611027
119	0x3e88d822	0.26727396
120	0x3e861387	0.26186773
121	0x3e85bf47	0.26122496
122	0x3e851e30	0.25999594
123	0x3e90cb67	0.28280184
124	0x3e8f95d7	0.28044006
125	0x3e8b0da7	0.27158853
126	0x3e95632e	0.2917723
127	0x3e847707	0.2587206
128	0x3e899da8	0.26878095
129	0x3e91f59e	0.28507704
130	0x3e89a600	0.2688446
131	0x3e95ea10	0.29280138
132	0x3e98cb1e	0.29842466
133	0x3e93f2db	0.28896222
134	0x3e8e5c6d	0.2780489
135	0x3e98bd0a	0.29831725
136	0x3e9b7eea	0.30370265
137	0x3e96a86e	0.29425377
138	0x3e9c894b	0.30573496
139	0x3e9511ba	0.29115087
140	0x3e9ed6b8	0.31023192
141	0x3e98142c	0.2970289
142	0x3e94c856	0.29059094
143	0x3e9c408c	0.30517995
144	0x3e9babd3	0.3040453
145	0x3e99b35d	0.30019656
146	0x3e9d3aa4	0.30708802
147	0x3e990550	0.29886866
148	0x3ea41edb	0.3205479
149	0x3ea502a4	0.32228577

accuracy_history f4 [150]
0	0x42a0a58c	80.32333
1	0x42b622fd	91.06834
2	0x42b9aeef	92.84167
3	0x42bb57e5	93.67167
4	0x42bc5555	94.166664
5	0x42bd170a	94.545
6	0x42bde81b	94.95333
7	0x42be1c29	95.055
8	0x42be8889	95.26667
9	0x42beed3a	95.46333
10	0x42bec51f	95.385
11	0x42bf1c29	95.555
12	0x42bf4ccd	95.65
13	0x42bfcf5c	95.905
14	0x42bfa741	95.82667
15	0x42bf8889	95.76667
16	0x42bfb852	95.86
17	0x42bfb852	95.86
18	0x42bfe81b	95.95333
19	0x42c00da7	96.026665
20	0x42bfc444	95.88333
21	0x42bfeb85	95.96
22	0x42bf8ccd	95.775
23	0x42bff40e	95.97667
24	0x42c028f6	96.08
25	0x42bffa07	95.988335
26	0x42c0570a	96.17
27	0x42bfe4b1	95.94666
28	0x42c0392c	96.111664
29	0x42bff17e	95.971664
30	0x42bfe8f6	95.955
31	0x42c01111	96.03333
32	0x42bff333	95.975
33	0x42bfbe4b	95.871666
34	0x42bfeb85	95.96
35	0x42bf836a	95.75667
36	0x42bfd99a	95.925
37	0x42bfc1b5	95.878334
38	0x42bfd7e5	95.92167
39	0x42bfc1b5	95.878334
40	0x42bf947b	95.79
41	0x42bf6666	95.7
42	0x42bf7bbc	95.74167
43	0x42bf9a74	95.80167
44	0x42bf70a4	95.72
45	0x42bf57e5	95.67167
46	0x42bf7e4b	95.746666
47	0x42bf2fc9	95.59333
48	0x42bf1111	95.53333
49	0x42bf3f26	95.62334
50	0x42bf1d03	95.55666
51	0x42bf317e	95.596664
52	0x42bf028f	95.505
53	0x42bf1b4f	95.55334
54	0x42bf40da	95.62666
55	0x42bec36a	95.38167
56	0x42bee58c	95.44833
57	0x42bf4ccd	95.65
58	0x42bee666	95.45
59	0x42bee8f6	95.455
60	0x42bef777	95.48333
61	0x42bedd03	95.43166
62	0x42bea58c	95.32333
63	0x42be81b5	95.253334
64	0x42be769d	95.23167
65	0x42bf2fc9	95.59333
66	0x42bec889	95.39167
67	0x42bde741	94.95167
68	0x42be6d3a	95.21333
69	0x42be0b18	95.02167
70	0x42bed70a	95.42
71	0x42be7852	95.235
72	0x42bde666	94.95
73	0x42be3777	95.10833
74	0x42bdec60	94.96167
75	0x42be24b1	95.07166
76	0x42bdeaab	94.958336
77	0x42bddb4f	94.92834
78	0x42bdce82	94.903336
79	0x42bd47ae	94.64
80	0x42bdcbf2	94.89833
81	0x42bd57e5	94.67167
82	0x42bdb333	94.85
83	0x42bd5b4f	94.67834
84	0x42bd681b	94.70333
85	0x42bcf777	94.48333
86	0x42bca8f6	94.33
87	0x42bd0ccd	94.525
88	0x42bcf5c3	94.48
89	0x42bcd8bf	94.42333
90	0x42bcf40e	94.47667
91	0x42bd1f93	94.56167
92	0x42bd2aab	94.583336
93	0x42bc5a74	94.17667
94	0x42bcb333	94.35
95	0x42bcb259	94.348335
96	0x42bd1c29	94.555
97	0x42bbad3a	93.83833
98	0x42bcab85	94.335
99	0x42bbeeef	93.96667
100	0x42bc1dde	94.058334
101	0x42bc6666	94.2
102	0x42bbaaab	93.833336
103	0x42bc1a74	94.05167
104	0x42bbc36a	93.88167
105	0x42bba222	93.816666
106	0x42bb6d3a	93.71333
107	0x42bc0da7	94.026665
108	0x42bbc7ae	93.89
109	0x42bb740e	93.72667
110	0x42bb5d03	93.68166
111	0x42bbda74	93.92667
112	0x42bb45f9	93.636665
113	0x42b9e148	92.94
114	0x42ba9c29	93.305
115	0x42baa666	93.325
116	0x42baf17e	93.471664
117	0x42ba4963	93.14333
118	0x42baaeef	93.34167
119	0x42bb01b5	93.503334
120	0x42bb91ec	93.785
121	0x42bacccd	93.4
122	0x42bb281b	93.57833
123	0x42b9a8f6	92.83
124	0x42ba0ccd	93.025
125	0x42bac5f9	93.386665
126	0x42ba2d3a	93.08833
127	0x42bab333	93.35
128	0x42ba6c60	93.21167
129	0x42b9547b	92.665
130	0x42ba1c29	93.055
131	0x42b92e14	92.59
132	0x42b91d03	92.55666
133	0x42b951ec	92.66
134	0x42ba13a0	93.03833
135	0x42b97a07	92.738335
136	0x42b83852	92.11
137	0x42b8fbbc	92.49167
138	0x42b8c51f	92.385
139	0x42b95dde	92.683334
140	0x42b83259	92.098335
141	0x42b93852	92.61
142	0x42b980da	92.75166
143	0x42b89b4f	92.30334
144	0x42b88da7	92.276665
145	0x42b91eb8	92.56
146	0x42b906d4	92.513336
147	0x42b84f5c	92.155
148	0x42b75b4f	91.67834
149	0x42b79c29	91.805

val_loss_history f4 [30]
0	0x3dded001	0.10879517
1	0x3e001f1e	0.1251187
2	0x3e7f2615	0.24916871
3	0x3ddf55ee	0.10905062
4	0x3e31be14	0.17357665
5	0x3e4278b4	0.18991357
6	0x3e66ab3b	0.22526257
7	0x3e62851c	0.2212109
8	0x3e919a94	0.28438246
9	0x3e0f642c	0.14003056
10	0x3e082e41	0.13298894
11	0x3e803325	0.2503902
12	0x3ebe3771	0.37151673
13	0x3e9e7b9d	0.30953684
14	0x3e8de0fe	0.27710718
15	0x3e5d57aa	0.21615472
16	0x3e9a59d9	0.30146673
17	0x3ec7acfd	0.38999167
18	0x3ea87697	0.32902977
19	0x3e5dc40f	0.21656822
20	0x3ea086f2	0.31352955
21	0x3ec8b95d	0.3920392
22	0x3eb7cfd9	0.35900763
23	0x3ebc1c38	0.3674028
24	0x3ea298fe	0.3175735
25	0x3ed538c2	0.41644865
26	0x3ec821b8	0.39088225
27	0x3eeaadb2	0.45835644
28	0x3e8fdd7a	0.2809866
29	0x3ede8b97	0.43465874

val_accuracy_history f4 [30]
0	0x42c16666	96.7
1	0x42c16666	96.7
2	0x42c06666	96.2
3	0x42c33333	97.6
4	0x42c0cccd	96.4
5	0x42c0999a	96.3
6	0x42c2cccd	97.4
7	0x42c23333	97.1
8	0x42c06666	96.2
9	0x42c2cccd	97.4
10	0x42c20000	97.0
11	0x42c0999a	96.3
12	0x42becccd	95.4
13	0x42c03333	96.1
14	0x42bf3333	95.6
15	0x42c0999a	96.3
16	0x42c06666	96.2
17	0x42be999a	95.3
18	0x42becccd	95.4
19	0x42c03333	96.1
20	0x42bf0000	95.5
21	0x42bb6666	93.7
22	0x42bf3333	95.6
23	0x42bd0000	94.5
24	0x42bd0000	94.5
25	0x42bd0000	94.5
26	0x42bb999a	93.8
27	0x42bd999a	94.8
28	0x42bc999a	94.3
29	0x42b90000	92.5
