checkpoints/model_epoch_0055.npz (npz, 393316 bytes, 10 tensors)

weight_0 f8 [784, 64]
00000000: 4b12 e521 0000 0000 7f7a 510e 0000 0000
00000010: 53cc fd0d 0000 0000 4eb4 301a 0000 0000
00000020: 3d4c 6e04 0000 0000 1108 d11d 0000 0080
00000030: c0ab ec0b 0000 0080 b5a1 761f 0000 0080
00000040: e1a6 b903 0000 0000 d8a0 b121 0000 0080
00000050: 734b f221 0000 0000 1f60 f002 0000 0080
00000060: 8d1a 0920 0000 0000 ed4b f404 0000 0000
00000070: 0cb9 1a21 0000 0080 3dc3 9208 0000 0080
00000080: d089 ce17 0000 0000 9f28 670e 0000 0080
00000090: 2127 1913 0000 0000 8bf0 9602 0000 0000
000000a0: 68d6 3a12 0000 0000 113b 4d14 0000 0080
000000b0: 712a 2714 0000 0000 9774 cf11 0000 0000
000000c0: 2194 7204 0000 0000 c148 9217 0000 0000
000000d0: 0986 800f 0000 0080 1f7e 9c06 0000 0080
000000e0: 2f7e 0a00 0000 0000 8035 ac02 0000 0000
000000f0: 19d8 c121 0000 0000 5fc6 950a 0000 0000
00000100: 226b 8b03 0000 0080 d6cb e208 0000 0000
00000110: aa54 1103 0000 0000 8eff cb1c 0000 0080
00000120: f533 4207 0000 0000 275b a30d 0000 0080
00000130: fdfe 9718 0000 0080 73d7 d321 0000 0000
00000140: 618b ea0d 0000 0080 79ec 041b 0000 0080
00000150: 70ee c10c 0000 0080 30c8 570d 0000 0000
00000160: 687b 821e 0000 0000 456c f30e 0000 0080
00000170: a32a 901e 0000 0000 5d66 6315 0000 0000
00000180: fa22 840b 0000 0080 11ac 0915 0000 0000
00000190: d2af e31f 0000 0080 7f41 8e0a 0000 0080
000001a0: ef69 e421 0000 0080 b6d9 8b03 0000 0080
000001b0: d591 4501 0000 0000 b807 5c0e 0000 0080
000001c0: 8297 980a 0000 0080 51b1 1114 0000 0000
000001d0: 2598 da22 0000 0000 f823 8323 0000 0080
000001e0: 9f02 7c01 0000 0080 1078 ad18 0000 0080
000001f0: 58bc 1802 0000 0000 f717 260d 0000 0080
00000200: a417 a708 0000 0080 6eeb 1411 0000 0000
00000210: 0cdd 2b12 0000 0080 16f1 ae08 0000 0080
00000220: cbe4 521b 0000 0080 342b 881f 0000 0080
00000230: a0a2 3403 0000 0080 209c 830a 0000 0000
00000240: f671 880b 0000 0000 b937 901a 0000 0080
00000250: 37b1 381c 0000 0000 d45e 4621 0000 0080
00000260: 26e7 0a23 0000 0080 22a7 2b16 0000 0000
00000270: 53ff 3b01 0000 0080 af93 ee1e 0000 0000
00000280: b735 fc05 0000 0000 536a 8516 0000 0000
00000290: d7db 0410 0000 0080 e7d5 1822 0000 0000
000002a0: 2e1e bd1e 0000 0080 45da 8101 0000 0080
000002b0: 4fc0 e815 0000 0080 4292 6506 0000 0080
000002c0: e702 780d 0000 0000 43fd c60e 0000 0000
000002d0: d893 a810 0000 0080 d035 5502 0000 0080
000002e0: 0b15 3708 0000 0000 26df 9614 0000 0080
000002f0: 698f b11b 0000 0000 934a 121f 0000 0000
00000300: 9938 5a21 0000 0080 60c3 6a02 0000 0000
00000310: b9cc 1221 0000 0080 41a9 f514 0000 0080
00000320: 9695 6208 0000 0080 48e3 a30a 0000 0080
00000330: e44d 9f15 0000 0000 b273 290b 0000 0080
00000340: 489f e400 0000 0080 47d1 861d 0000 0000
00000350: d5d0 361e 0000 0080 1926 1c15 0000 0000
00000360: 2033 611f 0000 0080 66af 2115 0000 0000
00000370: 339b 8b12 0000 0000 7281 1211 0000 0000
00000380: 618a ce16 0000 0080 d790 2b16 0000 0000
00000390: b527 0322 0000 0080 56b2 6c01 0000 0080
000003a0: e1bb 961e 0000 0080 064c 2b24 0000 0000
000003b0: f201 9221 0000 0000 f388 a41e 0000 0000
000003c0: 7ca5 0d04 0000 0000 e630 c11f 0000 0080
000003d0: 4551 8f0f 0000 0000 a2e5 6617 0000 0000
000003e0: 658b fd1a 0000 0000 ef9a c920 0000 0080
000003f0: 862d 8712 0000 0000 5957 8d14 0000 0080
00000400: 688c ff10 0000 0000 212c 5904 0000 0080
00000410: 0244 e10e 0000 0000 6d16 fe06 0000 0000
00000420: d793 ed01 0000 0000 df8a d008 0000 0080
00000430: f088 a721 0000 0000 ef93 c81d 0000 0080
00000440: 5f74 7d09 0000 0080 bb8e 570a 0000 0000
00000450: 2160 8201 0000 0080 2c32 0402 0000 0080
00000460: c246 890a 0000 0080 9ff3 c909 0000 0000
00000470: 90cb 3405 0000 0080 0c59 0014 0000 0000
00000480: 197f 3721 0000 0000 2e88 b21e 0000 0080
00000490: 0afb 1e1b 0000 0000 77ab 411d 0000 0000
000004a0: 33a6 ca0d 0000 0080 6601 c700 0000 0000
000004b0: 5d53 0d1e 0000 0080 1f13 940d 0000 0000
000004c0: 7902 a00b 0000 0000 bb2a 7513 0000 0080
000004d0: a5d2 1d21 0000 0000 470a 300b 0000 0000
000004e0: 49ae c411 0000 0080 94a4 9006 0000 0080
000004f0: 15a4 2f04 0000 0000 8073 b512 0000 0080
00000500: 2f72 dd01 0000 0080 1511 ac0f 0000 0080
00000510: edb4 4220 0000 0080 a672 7f1d 0000 0080
00000520: 7684 6319 0000 0000 1cad 4914 0000 0080
00000530: a001 6702 0000 0000 593c b810 0000 0080
00000540: 749c 7c14 0000 0000 bb84 d31e 0000 0000
00000550: 58a8 660d 0000 0000 73ef c702 0000 0080
00000560: d853 8f22 0000 0080 d8d3 8114 0000 0080
00000570: bdbd 9d06 0000 0000 5d87 2c07 0000 0000
00000580: 570b ef0d 0000 0080 68ce 5a0e 0000 0080
00000590: 33f2 fc0b 0000 0080 432c 6608 0000 0080
000005a0: 504e 871e 0000 0080 7f56 291c 0000 0080
000005b0: 66ff 640d 0000 0080 52c5 7804 0000 0080
000005c0: 5172 0a00 0000 0000 aa46 f211 0000 0080
000005d0: b14c b00f 0000 0080 3d05 4a00 0000 0080
000005e0: c4ef 6f20 0000 0080 9017 4e04 0000 0000
000005f0: f719 1609 0000 0000 d714 9202 0000 0000
00000600: ffb1 f622 0000 0080 efcd 4719 0000 0080
00000610: 1d5c de0f 0000 0080 d998 ab1f 0000 0080
00000620: eabb 0c02 0000 0080 a6c5 4618 0000 0080
00000630: 5fc8 8b1b 0000 0080 3d9f 8e15 0000 0080
00000640: 1f51 0708 0000 0000 c29b 3e0c 0000 0080
00000650: c01e 9600 0000 0080 d821 511a 0000 0000
00000660: dac9 2b1f 0000 0000 aa72 4405 0000 0000
00000670: 83db 690f 0000 0080 f1cb 5515 0000 0000
00000680: 56ce f515 0000 0000 01fa c117 0000 0080
00000690: c097 a118 0000 0080 8e06 f522 0000 0000
000006a0: 8020 5e1a 0000 0000 415a 1614 0000 0080
000006b0: c119 8b1a 0000 0080 7a6e dc1c 0000 0000
000006c0: e117 e111 0000 0080 3e72 570e 0000 0000
000006d0: 48bb 521d 0000 0000 7fc1 fe01 0000 0000
000006e0: de47 0d22 0000 0000 75fb 791c 0000 0000
000006f0: 3a4b c800 0000 0080 dfa0 a00d 0000 0080
00000700: a1a4 ae1c 0000 0000 8108 1f0c 0000 0080
00000710: b9b5 4604 0000 0080 5250 d805 0000 0000
00000720: 191c f300 0000 0080 eca7 4f19 0000 0000
00000730: 2dc5 2221 0000 0080 31f8 ef08 0000 0080
00000740: f0e5 3101 0000 0080 3a4f 6a04 0000 0000
00000750: fae6 a911 0000 0000 54de ca1e 0000 0000
00000760: e799 ee1c 0000 0080 3ec7 0012 0000 0080
00000770: 5252 0607 0000 0000 19c3 ef0a 0000 0080
00000780: fa1a 6b02 0000 0000 7295 9e22 0000 0000
00000790: a719 ed10 0000 0000 61f6 511a 0000 0080
000007a0: e74f 7a18 0000 0000 1ae9 380e 0000 0000
000007b0: eded 7b1d 0000 0000 907b 2307 0000 0000
000007c0: ee95 8d0f 0000 0000 281c e10d 0000 0080
000007d0: 3c2e 8315 0000 0000 df2e db18 0000 0080
000007e0: ce95 f90e 0000 0080 6ea0 6a03 0000 0000
000007f0: c0d1 061e 0000 0000 4ae7 c90c 0000 0000
2.809556444e-315 1.18684844e-315 1.159753507e-315 2.170921987e-315 3.67275264e-316 -2.47150585e-315 -9.8842694e-316 -2.60801613e-315
3.0878376e-316 -2.79289962e-315 2.813838017e-315 -2.43612303e-316 2.65544244e-315 4.10662844e-316 -2.74403781e-315 -7.1064409e-316
1.973355817e-315 -1.193868285e-315 1.583063013e-315 2.1465379e-316 1.511079343e-315 -1.682815816e-315 1.670490736e-315 1.47631e-315
3.68661355e-316 1.95384608e-315 -1.28497167e-315 -5.48013657e-316 3.397507e-318 2.21540617e-316 2.79815016e-315 8.77400346e-316
-2.93813814e-316 7.36558233e-316 2.5428291e-316 -2.38698567e-315 6.01669137e-316 -1.13046919e-315 -2.038585985e-315 2.803977573e-315
-1.153519337e-315 -2.23963669e-315 -1.05747874e-315 1.10599899e-315 2.528962715e-315 -1.23928457e-315 2.53339363e-315 1.772884437e-315
-9.545797e-316 1.74383142e-315 -2.643327183e-315 -8.7496575e-316 -2.8093435e-315 -2.93953674e-316 1.0541648e-316 -1.19026497e-315
-8.78312445e-316 1.66353793e-315 2.8890545e-315 -2.943628217e-315 -1.23043843e-316 -2.04553873e-315 1.7379012e-316 -1.08991035e-315
-7.1722666e-316 1.41591142e-315 -1.50623088e-315 -7.1976822e-316 -2.264882666e-315 -2.61369448e-315 -2.65714196e-316 8.71518677e-316
9.5597476e-316 -2.20184834e-315 2.339289327e-315 -2.7581705e-315 -2.904696387e-315 1.83772453e-315 -1.0231706e-316 2.563962834e-315
4.9611554e-316 1.866788797e-315 -1.32782059e-315 2.826317186e-315 -2.54794846e-315 -1.2493555e-316 -1.816062386e-315 -5.3023063e-316
1.11643456e-315 1.224897366e-315 -1.38083123e-315 -1.93371207e-316 6.80958797e-316 -1.70666008e-315 2.295534805e-315 2.575526836e-315
-2.76459796e-315 2.00349864e-316 -2.74147237e-315 -1.737352047e-315 -6.95044387e-316 -8.81969983e-316 1.792280936e-315 -9.25216824e-316
-7.4025777e-317 2.44747603e-315 -2.504462657e-315 1.749814003e-315 -2.601076655e-315 1.751606616e-315 1.537231518e-315 1.41512979e-315
-1.890466073e-315 1.837696335e-315 -2.819297254e-315 -1.18085434e-316 -2.53552008e-315 2.998075743e-315 2.782661126e-315 2.539988733e-315
3.3598043e-316 -2.63215776e-315 1.28976179e-315 1.939797703e-315 2.23724737e-315 -2.717772663e-315 1.535797635e-315 -1.7035742e-315
1.408991626e-315 -3.60435044e-316 1.23340541e-315 5.79614007e-316 1.59815884e-316 -7.3064783e-316 2.789631473e-315 -2.468768637e-315
-7.8663519e-316 8.57254937e-316 -1.25104857e-316 -1.6713954e-316 -8.7335345e-316 8.1140424e-316 -4.31546895e-316 1.65792184e-315
2.75335445e-315 -2.54452083e-315 2.24807368e-315 2.425086633e-315 -1.14319195e-315 6.443615e-317 -2.491028537e-315 1.12552122e-315
9.6360473e-316 -1.61285633e-315 2.74504156e-315 9.27350027e-316 -1.472821276e-315 -5.44176807e-316 3.46987545e-316 -1.55078052e-315
-1.5459266e-316 -1.29907054e-315 -2.67409377e-315 -2.445089805e-315 2.10448435e-315 -1.681664895e-315 1.99133435e-316 -1.385901216e-315
1.69815716e-315 2.55520157e-315 1.11081558e-315 -2.3051816e-316 -2.8646838e-315 -1.699846175e-315 5.4841791e-316 5.9465123e-316
-1.154976346e-315 -1.18986869e-315 -9.936967e-316 -6.96206335e-316 -2.530524634e-315 -2.334317723e-315 -1.110278104e-315 -3.7066632e-316
3.382497e-318 -1.487584595e-315 -1.3004411e-315 -2.396715e-317 -2.68873878e-315 3.5684733e-316 7.53170385e-316 2.13080745e-316
-2.898153343e-315 -2.09551113e-315 -1.315354986e-315 -2.62516584e-315 -1.69904087e-316 -2.0122864e-315 -2.283302797e-315 -1.78687938e-315
6.65492823e-316 -1.014957564e-315 -4.860752e-317 2.18142184e-315 2.58378259e-315 4.3661511e-316 -1.27763259e-315 1.76847984e-315
1.82028941e-315 -1.969288437e-315 -2.041693317e-315 2.89761271e-315 2.18562942e-315 -1.665046765e-315 -2.20019148e-315 2.39230662e-315
-1.482020976e-315 1.18878075e-315 2.43061108e-315 1.65378075e-316 2.82257584e-315 2.360429636e-315 -6.485332e-317 -1.129585997e-315
2.37748073e-315 -1.0047338e-315 -3.54457047e-316 4.8449272e-316 -7.8716718e-317 2.09805338e-315 -2.74664348e-315 -7.40823615e-316
-9.904704e-317 3.6598388e-316 1.464150627e-315 2.552400774e-315 -2.39818978e-315 -1.492280294e-315 5.8228009e-316 -9.06537383e-316
2.00460664e-316 2.869623636e-315 1.40301825e-315 -2.181690657e-315 2.0289746e-315 1.178893565e-315 2.443950563e-315 5.91722187e-316
1.289201053e-315 -1.150464544e-315 1.783174753e-315 -2.060340536e-315 -1.241279847e-315 2.83196126e-316 2.488921856e-315 1.060060026e-315

bias_0 f8 [1, 64]
00000000: 4da7 0e31 0d02 bdbf 954f 8233 e2ae d1bf
00000010: dd53 68b8 60da b1bf a0cb a28b c101 b3bf
00000020: c3a7 db9d 1b5d c3bf 7806 f021 8230 d9bf
00000030: 9982 8b40 81e1 aabf 57c7 2a96 850c d2bf
00000040: 250a e0df 77e2 d0bf 65d3 5766 dc5e a43f
00000050: 9147 b25e 824f cc3f 5076 6685 cb7e b8bf
00000060: 8ca5 35c6 4657 ddbf 5d81 f3ca 8fd1 bfbf
00000070: df4a c070 8c24 d6bf 96ee a0d7 c0c7 dabf
00000080: c79b e9a8 9d6b d33f ccee c9b4 423e c7bf
00000090: fdf9 e8d4 bb17 cbbf 5e81 944f 774a ab3f
000000a0: 85c0 21bf 3618 cabf 1706 c0f0 1b13 d53f
000000b0: e39a 38dc 1126 c8bf f4a3 5594 2e87 d4bf
000000c0: 0b05 5d1b 839b c83f b68d 2851 edda c4bf
000000d0: d08d e7e7 9794 b1bf ed59 1c2f 8f19 d23f
000000e0: f7a1 bb0f 2a30 ca3f 95c4 50d4 dc3d bcbf
000000f0: 6738 fa69 8579 903f bf0f 3831 ecc1 b9bf
00000100: e908 0120 d8d5 d0bf e5bd 9d5c 4aeb 803f
00000110: 566e cd89 e8e7 c3bf 385e 02cc 924a d8bf
00000120: 732c 1e6c b01a bdbf 1ff4 ab1c 010a d3bf
00000130: 768b 9ea5 6154 c0bf 1740 39d8 f3ce b83f
00000140: 62ec f4c0 d9bd c0bf 3f49 5f44 9173 9cbf
00000150: 58c7 50ef 5b07 443f b4a7 ea5b 9a70 a8bf
00000160: ef13 ebb9 f097 d4bf 6ef2 a6da fa2f 9abf
00000170: 15d1 af71 66cd a73f 1e74 d5f3 7704 c03f
00000180: 0a05 010c 49ad e1bf c3fb 38f4 aae8 cbbf
00000190: a742 7c5b a807 cabf 6693 fd59 7ae3 b53f
000001a0: 523f cd0e be64 833f 3fb0 049d ccb8 c33f
000001b0: 3018 8349 e21a acbf 6add 6a69 32ee dcbf
000001c0: ca1b 9637 4f60 dbbf f6bc 9cfc acfe af3f
000001d0: ee04 11d7 c7cd d6bf 3af0 96a7 b1ba cdbf
000001e0: 8af8 218d 1970 b03f 40ed 0021 65b4 a03f
000001f0: e8d5 6a0c 6956 c93f 9403 6a2b 8c97 cbbf
-0.11331255386053592 -0.27629904775789643 -0.06973843099724726 -0.07424554499702518 -0.15127892692481568 -0.393585713522135 -0.05250171578314173 -0.2820142714000346
-0.26382252562339864 0.03978623151116415 0.22117642997596623 -0.0956847382244288 -0.4584519324913223 -0.1242914076315222 -0.3459807492337585 -0.41844197328075816
0.30344335074772427 -0.1815875418432057 -0.21166179557799572 0.05330250593601947 -0.2038639481793362 0.3292913294863821 -0.18866179707511951 -0.3207508514956878
0.19224585376836276 -0.1629311224252043 -0.06867360507708686 0.28281001663836386 0.2045948578663823 -0.11031894858821752 0.016088566392277317 -0.10061527444491868
-0.2630520165004229 0.008261280967160676 -0.15551478127132395 -0.37955160067346894 -0.11368849410625774 -0.29748561668367474 -0.1275751169860901 0.09690784481904334
-0.1307937805339377 -0.02778460483370648 0.000611228838016435 -0.04773409244565077 -0.32177370220261897 -0.025573653789012267 0.04648895395067335 0.12513636976191916
-0.5524029955342098 -0.21803795742923002 -0.20335869280872496 0.0855022878364032 0.009469494654382214 0.15407712618741873 -0.05489260814060548 -0.45203838629409765
-0.42775326183658235 0.06248989661832553 -0.35630985262476045 -0.2322599476154908 0.06421050735113645 0.03262630489231322 0.19794953447642105 -0.21556236381368576

weight_1 f8 [64, 32]
00000000: cb67 789d aa79 05c0 da1f 767a 2493 e03f
00000010: fd96 f4d5 bf47 12c0 d539 4311 8a41 b03f
00000020: 6b07 06c1 3d9d 07c0 bec2 923f 2887 85bf
00000030: aa01 7e8e 27b3 f5bf 48cf 2ef1 e62f ed3f
00000040: f210 c8c5 d14e eabf c3f7 eaea 540e 01c0
00000050: 5f2a 49d4 5506 cabf 6efb be3b ad31 72bf
00000060: c3e1 e835 26da f63f 3e38 6ad5 6f2f f33f
00000070: 57f9 d1e9 30bf e63f c107 0e18 fa53 e03f
00000080: 8f4b 40f7 3fe2 ecbf d472 23d0 9c81 0ac0
00000090: 690d 2193 6a25 ea3f 9a7b dee0 fea6 febf
000000a0: 5abd e2b2 1249 d0bf 1ab4 a002 f1ee f1bf
000000b0: aef5 4a40 a42f 10c0 f0f6 0f9b 7600 f03f
000000c0: f703 c58b bff9 0ac0 9f73 4b27 826a f63f
000000d0: a4c0 826c d0a9 d0bf d5da 44b6 d1e4 d43f
000000e0: be9e 2c86 857f f0bf 8a54 bd1c 509e 0ac0
000000f0: 8f95 7350 8440 e33f 2f1f 7b84 3802 b83f
00000100: 8884 7cd6 04f0 e13f 30c8 abf3 c897 f7bf
00000110: 9389 f0fa ea7e 953f e689 3161 c545 fcbf
00000120: ed9e 5b10 f074 cc3f 6bd9 2177 d93d 9e3f
00000130: a04e 81fb 43f9 e63f ed20 3899 e97d ffbf
00000140: f55e 0dce b1f1 c43f de61 3b75 73e2 d33f
00000150: 9d32 8f77 f37a dd3f cd24 fa41 f78a 04c0
00000160: 2695 ac5f 66a5 02c0 d8a8 a1e0 ff0c dc3f
00000170: 1097 b09d c79a d23f b93f 72b2 f4de c4bf
00000180: 3ef8 a41a e67b be3f 2ba7 3446 c5b7 f6bf
00000190: ec7b a2db c1fa 0cc0 49eb 1b06 3cfc 05c0
000001a0: bc91 c76b f6b5 e13f a130 8d3a d64d e4bf
000001b0: ead9 50bd 8a7e c0bf 5493 ddc5 998b 09c0
000001c0: bbd7 36bc b748 cb3f fdcb f482 f996 fcbf
000001d0: 5d3f 772d 1e34 c2bf 4b4f 07c1 f132 0ac0
000001e0: 43f8 072d 82ff eebf 471c 3ef9 d201 fdbf
000001f0: 2c8c 5c67 30e1 f2bf 744d b16f 46e3 e5bf
00000200: 9068 f696 08f4 f6bf a9d7 b546 0352 db3f
00000210: ab66 2846 bcc5 f9bf eefe 5248 e67f e83f
00000220: 1198 8bb7 94ad f4bf 9d0e 023b 35b0 edbf
00000230: d9c7 a540 18d5 e73f 39f2 83b9 f076 f4bf
00000240: 5174 0728 96b3 b63f 6338 0b7e ebd5 cabf
00000250: 36f3 f202 5bce f8bf 8a65 e714 328e d33f
00000260: 893c b2ad 70cb d33f 350b fbf2 17e8 bf3f
00000270: e73e 1070 a2c5 0dc0 73bf 1879 d52c fcbf
00000280: 57ff ad7c aea8 edbf 5090 3747 5b43 ddbf
00000290: 8e8c 8771 a134 e23f 9ddb 7704 4115 e23f
000002a0: 656b 3f4e 77c8 ddbf 4d71 f929 4353 d63f
000002b0: 734a 16e4 72df d5bf a7af 8d19 1cfa f7bf
000002c0: 5cdc 24bc 7fd4 d03f ab92 44e9 8a8a f9bf
000002d0: 5fc9 f6bf 9caf dabf a40f 6069 1630 e8bf
000002e0: a879 22a9 32ef 0cc0 03bb 89d3 84fb e1bf
000002f0: 6577 e9ec 32cc 02c0 f419 1ef6 b7ed b7bf
00000300: cd74 8cdb 387f 04c0 3d1c a8fc 3bbb f7bf
00000310: 87c4 a360 2069 0ec0 f8ad 8cd3 d7b2 e7bf
00000320: 571a 8cee 2d71 e4bf 10bb 3e08 44cb 04c0
00000330: a9a0 4855 5e87 fabf 2ecc d642 ba0e 03c0
00000340: 007f 745c 68fb a5bf abb2 47bc 95b0 efbf
00000350: bcfd e120 e249 e93f 5a27 51c8 16bf 06c0
00000360: 984c eda3 3a51 febf ca6e 3f8d 84c3 06c0
00000370: cc8d 294b c8c1 d53f 120b 84c3 3878 f3bf
00000380: e639 2aaa 79fc f23f 697e f4e5 58bc 09c0
00000390: dc91 6630 a62f d33f efeb 5695 db08 a7bf
000003a0: 5536 ef52 fbec 03c0 a5f3 238c 40e9 0340
000003b0: 1441 4ac3 a661 f8bf f2c2 bd9e 7099 de3f
000003c0: 18ab 1d1b 2b89 f4bf f3ab 079c df3c f4bf
000003d0: b2ba 697a 7f56 f7bf f3a0 ea24 e76b edbf
000003e0: 0ca5 6c85 27bf e53f e456 e1c6 b70e 06c0
000003f0: 1120 c43b 5679 e73f d758 1666 e460 ebbf
00000400: 0e46 1512 7761 f7bf 4acd d7f0 d5f0 f9bf
00000410: 5d64 61ff e667 09c0 1c20 e917 490c b4bf
00000420: f9cb bed2 7707 f4bf 387a 09f8 7324 10c0
00000430: 5bb7 1e7a ff80 ef3f 6f8e 026c 6257 f6bf
00000440: af4d 5fe1 df5c f73f 0e3f 1f85 cf5c fbbf
00000450: d9cd 4b2c 6668 0f40 d663 08f2 f25f 0bc0
00000460: 1507 a08c 5d37 05c0 092e 32de ab65 0cc0
00000470: 2d6c 34a8 40a2 c93f 4034 8f33 1ca5 f9bf
00000480: 1891 10f2 2ec7 e03f f2dc 28c4 a2e4 06c0
00000490: da6b 2819 7ff1 e5bf d1ee 5f5a 5bd8 e4bf
000004a0: e2a9 4e4f 6cd9 00c0 b8f1 3626 667b f93f
000004b0: d46e dc73 01cc e03f 62e6 8e9d c234 d3bf
000004c0: f7a8 ca9d b689 d0bf 3be1 7aaa 4e26 02c0
000004d0: e2b9 4b7f cff8 f7bf 86cf 8f91 3ac9 eebf
000004e0: 4fbb 4c46 79a5 e53f 3f36 7456 ac53 f8bf
000004f0: 1ce0 862c de0b f53f 9e66 e53f d244 fabf
00000500: 1d25 e1b5 e0ff 04c0 c99c 2685 7ec8 0540
00000510: 6b3e b274 a36d 01c0 77ef dd4c e7fe ecbf
00000520: 2b23 4ea5 7851 00c0 c8ea e41c fd8a 0040
00000530: 5801 31bd 9c05 f7bf 5ca7 7f71 a26f ffbf
00000540: 46ae e106 ecd1 da3f 7d91 f9bd 6f77 01c0
00000550: 23ac e0f1 0064 febf b0b1 dffe 02a9 f9bf
00000560: d26e e7e1 7484 0240 78ff d4e0 4bc1 0740
00000570: 449e 08a7 c43b fa3f 117d ab86 52c8 f2bf
00000580: cb4a a321 9bfe f2bf d474 126d de15 05c0
00000590: 4d96 103e 3905 f3bf 45e5 12a1 ef96 d7bf
000005a0: ff1a 9ce6 0442 f13f 18ee b220 c4de ebbf
000005b0: 4724 1135 bbdc eabf 3381 aed2 e936 fdbf
000005c0: 797e 0f65 d4bf 03c0 ec17 d7f6 0329 0640
000005d0: f501 55c6 287a f3bf a1a7 9256 3b98 f7bf
000005e0: 7497 0ab5 d068 e2bf e48d b00f d407 d9bf
000005f0: 4e58 bf55 c762 00c0 bae1 1f48 652c 0140
00000600: 2a0d b0d4 8877 00c0 6023 e596 6d67 c63f
00000610: bf1f 6f72 7880 0dc0 915d 9009 9540 01c0
00000620: 1ba4 5ec7 e50d f2bf e312 75d3 b07f d1bf
00000630: 8461 ee59 5ea8 01c0 bee7 5d45 baf5 d63f
00000640: 2b0f a93b 3e02 eabf 5f35 3e2b 88e4 febf
00000650: 2014 f523 6811 c43f 0380 3a7f 1b54 05c0
00000660: 30e7 0e6b c453 db3f 0a40 958b e8ca b0bf
00000670: e0ab c213 e490 fd3f 3c62 2083 e03b 97bf
00000680: ca9d 32b3 2701 ce3f b555 bebe 0cd0 08c0
00000690: 77f2 43e1 0c0f e7bf 0eb0 cca6 afe9 07c0
000006a0: d21f dbc7 8304 d7bf 3569 5cd5 ed61 c13f
000006b0: 61e4 abfd c0a9 0cc0 d178 d25e dcdc e73f
000006c0: 2b19 f212 7d8b 0ec0 3aab 2b3c 587d ea3f
000006d0: d636 ea91 57f3 c5bf 6679 f0f1 1fbf e9bf
000006e0: 64cf 9616 59b9 d03f 10f8 787c b35b 09c0
000006f0: 153f bdb7 5d1c e53f 1243 6ad3 4a96 d93f
00000700: 7591 9809 21fd 0740 bfff 5492 ae4d febf
00000710: 071e 4d6d d0c2 0140 b0be 7362 66d8 e5bf
00000720: a6d6 e3af d421 e53f df5b d705 bbff e13f
00000730: be0d a068 994f e2bf ceec 78c5 164b f0bf
00000740: 3f20 c5e5 1a5e f2bf a227 98dd d266 d93f
00000750: 37e5 9646 b1a3 debf 1c9e 9ef2 336a fcbf
00000760: b103 bd5a 9644 d4bf c39e c21f 4b57 0440
00000770: 65ba aac6 a7f7 0040 20e7 6f61 b426 99bf
00000780: acaa 6ed2 d301 0340 ff65 6f71 f8fd f2bf
00000790: 331f a2a1 2b9a f6bf 14da a53a a271 e7bf
000007a0: f7fa db90 6e74 0740 31c8 d128 c8d3 f0bf
000007b0: 1af8 533d 04e4 c0bf e722 f43c dbe1 ecbf
000007c0: 5882 d053 be80 01c0 0f92 9924 a85a febf
000007d0: 13aa d61d 095c fbbf bada 2a6e b137 edbf
000007e0: 1236 d51f 64af e8bf aa79 d683 9779 c1bf
000007f0: ecbf ce16 ec20 89bf be2a 54be 4c71 01c0
-2.6844074537629914 0.5179617301773718 -4.570067732862069 0.06350005074930405 -2.951777942654123 -0.010511698188879644 -1.3562388959981981 0.912097426471953
-0.822121511737832 -2.1319979050594795 -0.20331833711164202 -0.004441906636144617 1.4282590967032867 1.1990812622566547 0.7108387533951753 0.5102510900326181
-0.9026183919071274 -3.3132873783891714 0.8170674203505942 -1.9157704147289452 -0.25446002454096617 -1.1208353140493785 -4.046525005889107 1.0001131112216477
-3.3719473762034755 1.4010030302954204 -0.260364633529216 0.32646601485923316 -1.0311331978972897 -3.3273012395171166 0.6016255923574806 0.09378388628385602
0.5605491818606803 -1.4745568769835806 0.02099196583379521 -1.7670339390393734 0.22231865690923006 0.029532812019590276 0.7179279243668653 -1.9682403550269172
0.16362593232292225 0.31069647262986944 0.4606293361255583 -2.567854419180185 -2.3307616686385186 0.4382934278170416 0.2906970062198164 -0.1630540725059271
0.11907804632662164 -1.419865869751855 -3.6224400671921924 -2.7481613614340046 0.5534622292585065 -0.6345015662750663 -0.12886175388275883 -3.1931643923038937
0.2131566685690681 -1.7868590465047867 -0.14221551151285441 -3.2748751716953044 -0.9686900023950858 -1.8129453407325558 -1.1799778020438323 -0.6839935475822316
-1.4345785042737909 0.4268806639223564 -1.6107752552547179 0.7656127369482115 -1.292378155683313 -0.9277597572804158 0.7447625410697994 -1.2790381666847124
0.08867777325890926 -0.20965331701740117 -1.550379764098762 0.30555393258472263 0.30929200136683527 0.12463521654266858 -3.721501231666355 -1.7609457712496492
-0.9268410143995237 -0.4572361178854907 0.5689246384976216 0.5650944793004445 -0.46536047593479274 0.3488319311052422 -0.3417632319844081 -1.4985619543249216
0.26296990750728866 -1.596323882296171 -0.41696852442250604 -0.7558700616941576 -3.6167958463331225 -0.5619529849626307 -2.3497065075634276 -0.09347104796152178
-2.562120166038403 -1.48321150487915 -3.8013312864282542 -0.7405814296557187 -0.6388158473135473 -2.59925085488738 -1.658048947467288 -2.382191202335455
-0.04293371323205797 -0.9903057744355314 0.7902689592592007 -2.8433051728979253 -1.894831314410828 -2.845467666147532 0.3399525388724356 -1.216851009114809
1.1866394660061075 -3.21696643497835 0.29978327490451107 -0.04498945425026323 -2.490713737416437 2.488892645690117 -1.5238406780736726 0.4781152296264245
-1.2834883746351746 -1.2648616881294827 -1.4586176664121635 -0.9194217415834188 0.6795842748589691 -2.757186464073003 0.7335616271311683 -0.8555776590244716
-1.46129519523345 -1.6212977798393973 -3.1757335616680806 -0.07831246217494975 -1.2518232567060734 -4.035598636225181 0.98449682094154 -1.3963340968265603
1.4601744464497235 -1.7101588440017994 3.9259761295922826 -3.4218501004038258 -2.652033899911553 -3.5496442183555286 0.2002640553772336 -1.6028100980795585
0.5243143775774426 -2.8616385769815844 -0.6857295504918242 -0.6514107480174635 -2.106163615787623 1.5926267140158483 0.524903036395211 -0.30009522806685685
-0.25840535554256355 -2.268704730868334 -1.4982447597973239 -0.9620640604975825 0.6764494298020994 -1.5204280259234932 1.315397428448711 -1.6418020721379558
-2.624940319951419 2.7228975679787237 -2.1785344235320756 -0.9061161519343689 -2.039780894705833 2.067865586982723 -1.438870181111346 -1.964754527429668
0.4190626208498752 -2.183318599871369 -1.8994149635643758 -1.603762622452546 2.314676060557624 2.96938300752657 1.6395918392899071 -1.173906827978332
-1.1871596635798365 -2.63567815029692 -1.188775293770408 -0.3685874054895815 1.0786179550356676 -0.8709431303645401 -0.8394447361434992 -1.8259065847160627
-2.4686668296197323 2.7700270923987684 -1.2173240420671594 -1.4746659642937419 -0.5752948318447424 -0.3911028054446588 -2.048231763746151 2.146677554581598
-2.05836645281092 0.17503137462542906 -3.68772973443626 -2.1565342662031033 -1.1283929622534348 -0.27341862344864704 -2.2072112108109554 0.3587480237398458
-0.8127738156549403 -1.9307939232997666 0.15678121333817874 -2.666068071339397 0.42698774771598647 -0.06559613616741458 1.8478737613574978 -0.022689350131346084
0.23441025018585854 -3.1015868093333787 -0.7205871963229374 -2.989104560014318 -0.3596505595892242 0.1358010570336973 -3.5828876321871097 0.7457105495448336
-3.8181096534855405 0.8278008628088636 -0.17148871063948573 -0.8045806622865654 0.2613127441975307 -3.1697759365479286 0.6597126568467241 0.39979811330799564
2.998598170250427 -1.8939653125853366 2.2201241053733187 -0.6826660082715161 0.6603797374106832 0.5624671091162518 -0.5722167056523444 -1.0183322633518403
-1.1479748702422652 0.3969008602149363 -0.47874099629878536 -1.775928447468579 -0.3166862379185274 2.5426237565296517 2.1209254761554797 -0.02456170887669551
2.3758922996542733 -1.1870045119343329 -1.4126392663765273 -0.7326213021722787 2.9318515126354856 -1.051704558802623 -0.13195851320773572 -0.9025703611851811
-2.187863020706839 -1.8971330098803525 -1.7099696317260438 -0.9130484725672752 -0.7714100476966357 -0.136523188947604 -0.012269825407059863 -2.180322157805988

bias_1 f8 [1, 32]
00000000: 0bc6 e6a2 e138 dabf 42a6 a540 ffe9 e5bf
00000010: 747e 8651 95b2 b23f 8c60 4448 c5f9 eabf
00000020: 09f1 dc69 53c5 b63f fede 2072 ae5f bd3f
00000030: ca54 7d12 6f62 f5bf 631b 12a1 e710 e0bf
00000040: e350 1e11 d0f5 f3bf 1c7a 7e87 7c9d f6bf
00000050: 52c4 8838 aef3 f0bf 0b59 5dbe 7ba3 a23f
00000060: 0f8f f98f 742e e7bf 154c fe13 1efe d9bf
00000070: a4dd c6f0 d730 edbf d09c e238 668c f1bf
00000080: d5b5 50e6 9457 f3bf 313e 5934 092c e9bf
00000090: b242 d5d5 f553 f3bf f4de a8fa 1625 eabf
000000a0: b740 baf8 a89b e1bf 43cd 4ce9 8f58 efbf
000000b0: 2150 0efb 324a e8bf e2cb d675 322a f0bf
000000c0: f416 38a2 9947 e0bf d150 2c95 b144 e5bf
000000d0: b379 0590 74b7 f2bf 86d0 fdce 397b ebbf
000000e0: a827 c1fa ae78 f5bf 4afc 02ad 685c e8bf
000000f0: e743 e2c4 766d f6bf dc2c 563e 8350 f2bf
-0.4097217646441044 -0.6848140967023897 0.07303746452680021 -0.8429895793406259 0.0889484532789916 0.11474123274171785 -1.3365317079781556 -0.5020635744011596
-1.247512881153903 -1.413448838494907 -1.0594923218125314 0.03640352915560826 -0.7244208156593873 -0.4061351008651298 -0.9122123434707885 -1.0967771741941768
-1.208882236165086 -0.7866254827912994 -1.2079981186727022 -0.8170275588699654 -0.5502514703712426 -0.9795608097687495 -0.7590575126109834 -1.0103020289504845
-0.5087402504293252 -0.6646354592835683 -1.1697888971171835 -0.8587922137071622 -1.3419637484644031 -0.7612803820737863 -1.401724595143827 -1.1446564135574624

weight_2 f8 [32, 10]
00000000: d495 49b6 1f0a 0240 f5c1 20aa c34a 00c0
00000010: 9945 393e 3a8a f3bf 148c 1581 9ad6 dabf
00000020: 7aff f8f0 daa6 d23f c240 e6e3 70a5 c8bf
00000030: f9c2 e679 1bf4 f8bf 98fd 977a 5626 d2bf
00000040: e00b db47 4c73 fcbf 28c3 4a3b 4d3f f03f
00000050: c018 3942 c570 08c0 7784 de68 97b3 06c0
00000060: 1138 4aaf e254 e3bf e260 e430 d047 efbf
00000070: c695 7a95 60c2 f1bf e85e 1c6a af76 e03f
00000080: 9531 8584 87b0 0040 b9f4 2c56 4529 f8bf
00000090: 5607 7c24 60aa df3f 1560 8ab2 2638 f6bf
000000a0: 4472 15eb 47f0 f03f 15c6 2df9 430c 13c0
000000b0: 820f 091d c7f6 febf eec1 85c7 95e7 f8bf
000000c0: 0667 4aee 00ab d33f ee33 fcdb 10ea 03c0
000000d0: 6285 1663 6f0b 02c0 2edc 54bf 9b24 f1bf
000000e0: 3c29 3e38 1cd7 f43f a16a dbbf 79ca fe3f
000000f0: ee32 e4eb b4ea 0fc0 0ed0 a329 040f ee3f
00000100: 7f59 6f5e a285 18c0 79ee 52d0 9474 ed3f
00000110: 16e1 b5ca fc6e e13f 3777 2fb4 d94b f3bf
00000120: c23a 7b4c c169 13c0 458d f7fc c356 f43f
00000130: f09f 978f 46eb 0bc0 8be3 b017 d41b e93f
00000140: 98e4 64e6 3186 f03f 1e0a 6cd0 7dfe 0ac0
00000150: 324e 6218 eca1 f53f 9ec6 acb0 c19a d6bf
00000160: 6c4d d18c 9017 01c0 5aa8 0d4d 3f99 d2bf
00000170: 6a57 9054 bf67 f7bf c106 2491 2230 00c0
00000180: 583b 1d35 4379 0040 2570 e891 1db1 08c0
00000190: 8a75 87c3 27f5 e13f b958 15d2 df4f 04c0
000001a0: 57ff 6c20 aaed af3f 4f7b 4ac2 e551 e9bf
000001b0: 9c70 a3bf 52fe f3bf 4190 def0 e3a9 f4bf
000001c0: 1605 1c23 23a2 f63f 8bb2 dbd5 c82b 10c0
000001d0: 3fa7 e368 d5b5 fb3f 23fc 0d43 1b0c 05c0
000001e0: 3290 4758 ea35 d4bf 4f61 85aa 658f 00c0
000001f0: deed b9f9 ce16 f0bf 3d90 b2cf 99e6 f83f
00000200: f3d1 fecb 2f89 07c0 9faa f9da 7761 f43f
00000210: 9c13 46d5 3b8e f2bf 91a9 860f 138a f7bf
00000220: ea52 4128 ae05 0ec0 f88c 9e28 05a8 07c0
00000230: d356 9bc3 2b05 0cc0 2f0e 380b 32ce e93f
00000240: b904 9950 78e4 c63f 4917 f09f fa9b 01c0
00000250: b939 522d 2de0 ff3f 327c d05c 85ed d7bf
00000260: ee86 fbcd dfa6 d5bf 3d14 148b 90df 0bc0
00000270: 4432 c9b6 55db e83f 9060 44a0 ebb4 b0bf
00000280: 6147 98f1 bdd5 f4bf b676 d2b4 640f f4bf
00000290: 75cb e3a8 25a9 d43f 68a6 b81c 2fee 0440
000002a0: d1fd f6c6 e765 02c0 d4e1 ee6b a5c4 e5bf
000002b0: 9a09 60a0 cdb4 e3bf 729c 4e5f 1220 febf
000002c0: 7521 8d71 30d8 d7bf 0c68 167c c8e6 fabf
000002d0: 7657 bd9c 49e1 cc3f b5f7 3b57 72e0 f6bf
000002e0: c5bc 16bf 9995 febf 8bf8 02fe 4a1a 07c0
000002f0: ac6b 2f23 32a2 04c0 964d 7773 1ff8 0440
00000300: 776a 843d 3c8b f5bf 7463 1125 1bc2 ec3f
00000310: 26a7 1fc3 da60 e2bf 1ac1 0051 bc62 00c0
00000320: 14f7 8358 2ab7 fabf 5227 e533 70a3 ec3f
00000330: ee6f 37b7 8acc f03f e92b 42b9 b9bf ef3f
00000340: 2107 1da5 e890 09c0 80e1 8391 ff96 cdbf
00000350: c9ff 12f1 17c8 ffbf 7f0f a1ba 2073 01c0
00000360: 428a 5fd1 42a2 f5bf 92e4 d4a3 4bf1 03c0
00000370: bfb5 a582 8fa1 0dc0 59ae 59ee a04f 0340
00000380: 85c4 c5e8 cc5e f8bf 6164 3939 6ba6 fabf
00000390: 5035 a21e 491c fabf 1fc5 02d9 2ad0 f7bf
000003a0: db7f ddc7 ada8 00c0 d1ea a2fd 080e f2bf
000003b0: 76a8 5aa2 b2fe 0240 e0d1 078e eec4 03c0
000003c0: e2fb 56c8 02f5 fabf 190f d437 f775 0440
000003d0: 9ef0 9a2b bcce e6bf 46e5 a2d6 7b20 fdbf
000003e0: 0cd8 838b 7a63 d7bf ed89 0178 2e98 d8bf
000003f0: 801b c431 107a fa3f b619 dc04 3b1c 03c0
00000400: 80d0 a777 a141 00c0 3e71 bd08 8ab2 e9bf
00000410: 9ae2 7c2e 1d5c f83f a93c 1ddf 2705 f23f
00000420: f206 bd84 0328 fabf 9361 ba91 3315 cbbf
00000430: 7492 8d01 e3fc e1bf be8a 821c dc18 e7bf
00000440: b311 861b 4b31 f93f 794e 4db9 54f0 eabf
00000450: 3d30 7b25 dbd2 f3bf 6299 12f9 5efe eabf
00000460: bd63 6a1f ec3b f43f cc7b 0e11 1bf3 03c0
00000470: 189e ffda 4d1f f63f b617 5bc2 163d 05c0
00000480: 68c3 a4f0 e428 f33f 47f5 248a 4c91 e4bf
00000490: 7d2a 23b5 bf78 f33f 69d6 3660 3fc0 07c0
000004a0: b36f f0ed 7ec0 04c0 ad7a c601 53ef f2bf
000004b0: 248c 776e b9de b53f e461 b48c 026e 01c0
000004c0: 2c85 2274 840f f8bf a451 1405 2ed8 e7bf
000004d0: b6a8 b4a5 54e9 0c40 11ef 70fa 60f0 d4bf
000004e0: 23c6 8cbb c52e aabf 1c1f f3a5 cf4f f1bf
000004f0: 1a7b 12d6 3a1a d5bf 2856 3081 620e fbbf
00000500: 103f bece ab3c fd3f e3cb ab57 77e9 01c0
00000510: 7df9 ff9f 3835 fb3f 7f9d ac2a d2c0 fdbf
00000520: da5d 3e7a a5ea 00c0 e42b 85a7 bb34 d0bf
00000530: 96b1 e5c4 0a52 e6bf 0839 8d21 bd04 f03f
00000540: 8269 6f80 6b60 ffbf 30a8 3f92 764d f9bf
00000550: 1d92 d8a4 3a35 04c0 a5b8 9d36 f118 d03f
00000560: 9f99 7fb6 1008 05c0 5982 4ada 2727 f9bf
00000570: 4d7a fb59 480c e5bf a3b9 78b6 e962 f03f
00000580: 944f af37 a872 d0bf d607 8815 69c2 febf
00000590: f42e 0341 f874 e93f f982 f5d9 7a24 e93f
000005a0: cd97 f413 4737 f9bf 4c35 9905 aa62 0340
000005b0: fa5e 02d7 7a50 c4bf c02e 2951 4cce 00c0
000005c0: e8b8 7be5 fed1 05c0 4fdb 96ab 743a e3bf
000005d0: 91c9 facf 2bd6 eebf 0cb6 282b 9386 0440
000005e0: 510e 63d8 efa5 f2bf eec8 4c72 5cba 01c0
000005f0: e5b6 5ab5 73e3 fcbf 79bc 37c8 a248 09c0
00000600: 1102 ceca 58cc f8bf eff8 135d d29b dcbf
00000610: ed00 9f4e b4a6 11c0 9797 7374 c2fd f9bf
00000620: 3000 0cd4 831b 0ac0 50c1 6b65 29f5 0640
00000630: c5b9 d8a4 01c1 f5bf c679 f997 76ef f73f
00000640: a784 16f5 faa8 fe3f 3bf0 80c9 179a 0bc0
00000650: a4ca 5952 15ca 08c0 0249 5da6 a760 f2bf
00000660: 0e60 f4bf e3a9 febf ac5d f336 daa0 da3f
00000670: 60b6 8458 44c6 ed3f 9502 f4cd ac8d f03f
00000680: 1014 0a38 8c10 ffbf 0e84 7641 c2c1 c43f
00000690: 102f 3bdc 9e42 12c0 742f d0f2 aab6 15c0
000006a0: 376d 9529 ea53 fb3f 4575 c79f 4067 fb3f
000006b0: 47d0 f305 f9b4 0fc0 b7cb bcdb 1c24 fabf
000006c0: d13f 19c2 d6fd 0bc0 d5f4 a3ad dc7d fd3f
000006d0: c860 4b56 e7d4 f9bf cdaf 4c4f c38b 19c0
000006e0: 5018 4129 2457 f8bf 9f49 ccad 6754 08c0
000006f0: ab2f 1aed 10be 02c0 99fd f22e 97b3 0240
00000700: e65a e089 e687 aabf dc7b 3e16 da2e e6bf
00000710: e771 91b6 1026 03c0 fa78 fa79 c504 fabf
00000720: 39d7 4be7 3655 e53f 0e60 90c0 302a f23f
00000730: 8668 ac00 149f efbf 528a 8a51 9e8a 08c0
00000740: ebc9 964e 8402 d13f 6dcd 001c c37e fdbf
00000750: 9fec 87c9 3a12 fb3f cb67 cbe0 535b f1bf
00000760: 180f 231d 9ca1 923f 8a37 7916 cbde f03f
00000770: ffaf 6fd6 9f8b fcbf 4af8 2916 68bb fdbf
00000780: af81 1879 7918 f8bf 5b7f 553d 05d7 0cc0
00000790: 2d80 d403 3ada febf 3a33 1c39 b1c1 f03f
000007a0: 9f98 c28d 10f6 09c0 c774 cf8d 686d f53f
000007b0: dc6e 5386 f86e eebf 6b23 ace6 ea89 f8bf
000007c0: a6d0 a5e1 1290 e63f 8b50 65b6 f009 06c0
000007d0: 06a1 0eac 8ce5 07c0 a239 b580 f502 d8bf
000007e0: 2fdd ccf8 41b4 e23f d5ac fa8e 1087 f1bf
000007f0: c33e ee9b fe4e ec3f 0189 5948 8bd2 e7bf
2.254943298454899 -2.036506013035473 -1.2212469511617654 -0.41934836011768195 0.29143403561101133 -0.1925488579549946 -1.5595965158246925 -0.2835899541095954
-1.7781489188062025 1.015454513177426 -3.0550637410807155 -2.8376911347300466 -0.6041119979506694 -0.9775162653850453 -1.1099553908364768 0.5144879410244956
2.0861959794185148 -1.5100758901819928 0.49477389872492006 -1.3887087797393225 1.0586623366317705 -4.7619780477703175 -1.9352484831042323 -1.5565393251273423
0.30731223364419724 -2.4892899690953447 -2.2555835477111694 -1.0714375947843666 1.3025171467766787 1.9244325155656627 -3.98960289278181 0.9393330395964783
-6.130502200647583 0.9204811161830114 0.544798274916533 -1.2060181654446305 -4.853276438733419 1.2711830026172077 -3.4898806780001834 0.7846470320429132
1.0327624320764581 -3.3742634089442296 1.3520317986011716 -0.3531955933895946 -2.136506176125911 -0.2906034710382578 -1.4628289511942634 -2.023503431236208
2.0592102193399278 -3.086482181459376 0.561176187413069 -2.5390011227383096 0.062360111673568745 -0.791247252916813 -1.2495906339527556 -1.291477147003221
1.4145842906439774 -4.042758313688533 1.7318929764973772 -2.6309113730090004 -0.31579073544549197 -2.0700181314424877 -1.0055684809620895 1.5562990296539418
-2.9419856965198448 1.273795943615063 -1.1597250300412503 -1.4712095839009616 -3.7527735848365085 -2.9570410893808194 -3.502524879625392 0.8064203471298635
0.178847350458488 -2.2011616225380846 1.99223058417884 -0.3738721281424119 -0.3383101951168176 -3.4841624131682054 0.7767742700612605 -0.0652606264378639
-1.3021830975817112 -1.2537581504215445 0.3228239201845818 2.616300796876022 -2.2997584861875358 -0.6802546604222308 -0.6158207065894203 -1.882830021184216
-0.37257014359467827 -1.6813435408753348 0.22562523034383347 -1.4297965438449698 -1.9115235771567296 -2.8878383488327635 -2.5791971920820824 2.621153738096562
-1.3464929965035972 0.8986945842726599 -0.5743230639465977 -2.04821074756195 -1.669718118442181 0.8949509633614332 1.0499369770905065 0.9921539896325814
-3.1957562350734325 -0.231170602848362 -1.9863509575807134 -2.1812147694017194 -1.3521145037308462 -2.4928200530380957 -3.703887005502764 2.413881170379494
-1.5231446354557943 -1.6656296000785675 -1.6319056698442473 -1.4883221127495927 -2.0823627104254974 -1.1284265430137348 2.374364155189194 -2.471158132184641
-1.684817106797475 2.557600437315966 -0.7127362109818198 -1.8204306015234848 -0.3654466974688837 -0.38428842276894565 1.6548006004320257 -2.388784444777424
-2.0320462558830172 -0.8030443354323678 1.5224887672358478 1.12625872758853 -1.6347689805119754 -0.21158451667430409 -0.5621199636776297 -0.7217846447786866
1.5745345187325313 -0.8418372744731207 -1.2389785255536616 -0.8435511460018399 1.2646294810458436 -2.493703969244484 1.3826426081303733 -2.654828565983702
1.197483959211434 -0.6427366922504597 1.2169797015837098 -2.968870879815587 -2.593992098712954 -1.1834287709568045 0.085429753751257 -2.1787158005283676
-1.5037884270207753 -0.7451391314703426 3.6139309831388244 -0.32717155892508837 -0.05113809503962965 -1.081985138169279 -0.32972594171035186 -1.6910119100988457
1.8273122859863555 -2.238997158937751 1.7004934549327964 -1.8595754305805199 -2.114573435810354 -0.25321856841463686 -0.6975149007462729 1.0011569319354425
-1.9610400216102737 -1.5814119065130505 -2.5259907606689596 0.25152235349276914 -2.628938127297445 -1.572059490870876 -0.6577493436305503 1.024148667125339
-0.25699811399430783 -1.9224634972638248 0.7955285329603314 0.7857031113636302 -1.5759955195912767 2.4231758534794263 -0.1587060499048148 -2.100731500691694
-2.7275369575864836 -0.6008857108452988 -0.9636439382650669 2.5657103893088387 -1.165511937390779 -2.215996640175141 -1.8055302700189995 -3.1604667322167725
-1.549889366346296 -0.4470106038060199 -4.412797192053614 -1.6244530247581446 -3.2634350362932523 2.8697078631886725 -1.3596207084006988 1.49596270909352
1.9162549566029072 -3.450240682837856 -3.0986734803821765 -1.1485973833665075 -1.9164769647813986 0.4160676514270232 0.9304525116801408 1.0345886273427471
-1.9415399731672132 0.16216304966386058 -4.565059128868384 -5.428386491734148 1.7079869865763848 1.7127081147549046 -3.9633655991583825 -1.6338165839667746
-3.4989447750049085 1.8432280333357103 -1.6144784327389505 -6.386487235122286 -1.5212747203345494 -3.041213376805174 -2.3428057216278453 2.33769070319222
-0.051818088846791885 -0.6932192263083112 -2.3935865653167983 -1.6261648907453137 0.6666521565918863 1.1353003999738607 -0.9881687176850995 -3.0676847811130665
0.2657786147566685 -1.8434477895615047 1.6919505951216605 -1.0847967892682273 0.018194617536905516 1.0543928983565558 -1.7840879799286993 -1.858253561571035
-1.505975220709029 -3.6049904624668847 -1.9282779836285144 1.0472881537309164 -3.2451487612734833 1.3392110385387228 -0.9510462401917397 -1.5336712847367504
0.7050871283704694 -2.754853653876187 -2.9870847169842163 -0.3751806027329626 0.584504114091862 -1.095474775803088 0.8846428914566434 -0.7444511807518951

bias_2 f8 [1, 10]
00000000: ee33 4628 e03e e3bf cca6 6c9b 40dc a6bf
00000010: b07b f2f2 7618 cabf e4e3 1d8c 43e6 733f
00000020: 1de4 c31c 233c d8bf c738 c9bb d66a b6bf
00000030: 9f59 b713 a1c6 dabf 89cc 03ca 5fcb debf
00000040: e13c dfd5 2065 f03f a9b5 20e6 84e3 e23f
-0.6014252459150364 -0.0446491422392917 -0.2038716017022728 0.0048582686011906275 -0.3786704808149482 -0.08756773075694745 -0.418373364690888 -0.4811629746247453
1.0246895174384962 0.5902733320887609

loss_history f4 [55]
00000000: 0800 233f cc0b 9d3e a6ae 7e3e 9257 603e
00000010: 4fa6 4d3e 16c9 413e a10b 353e 2571 303e
00000020: d4f6 283e 60b4 253e af0f 263e 1876 1e3e
00000030: a98f 203e 89cc 163e 38d6 193e a387 203e
00000040: 0efc 193e b240 1b3e 8118 163e 31ba 133e
00000050: 67ed 183e 31a7 173e 1e79 1b3e 31e3 1a3e
00000060: eab8 143e 7ae0 153e a5d1 0e3e 332d 193e
00000070: 1620 163e 2e81 163e d14f 1c3e ec0c 1a3e
00000080: f983 193e 216a 253e fdaf 1e3e 40dd 293e
00000090: 97a0 213e a084 243e 098b 1e3e 368b 253e
000000a0: a956 233e eb31 2d3e e3c4 273e 7f83 263e
000000b0: 4155 2e3e f6c5 2c3e 1e2e 263e 712d 333e
000000c0: bec8 363e c87f 313e b9dc 333e ef07 2d3e
000000d0: 4616 353e cb57 363e 7c41 313e
0.6367192 0.30673063 0.2487131 0.21908405 0.20082973 0.18924364 0.17680217 0.17230661
0.16500407 0.16182089 0.1621692 0.15474737 0.15679802 0.14726461 0.15023124 0.15676741
0.15037557 0.15161398 0.14657785 0.14426495 0.14934312 0.14809872 0.15182921 0.15125729
0.14523664 0.14636412 0.1394716 0.14958648 0.14660677 0.14697716 0.15264823 0.15043992
0.1499175 0.16153766 0.15496822 0.16588306 0.15783916 0.16066217 0.15482725 0.16166386
0.15951027 0.16913573 0.163837 0.162611 0.1702471 0.16872391 0.1622853 0.17497803
0.17850015 0.17333901 0.17564668 0.16897558 0.17684278 0.17806928 0.17310137

accuracy_history f4 [55]
00000000: 8ca5 a042 fd22 b642 efae b942 e557 bb42
00000010: 5555 bc42 0a17 bd42 1be8 bd42 291c be42
00000020: 8988 be42 3aed be42 1fc5 be42 291c bf42
00000030: cd4c bf42 5ccf bf42 41a7 bf42 8988 bf42
00000040: 52b8 bf42 52b8 bf42 1be8 bf42 a70d c042
00000050: 44c4 bf42 85eb bf42 cd8c bf42 0ef4 bf42
00000060: f628 c042 07fa bf42 0a57 c042 b1e4 bf42
00000070: 2c39 c042 7ef1 bf42 f6e8 bf42 1111 c042
00000080: 33f3 bf42 4bbe bf42 85eb bf42 6a83 bf42
00000090: 9ad9 bf42 b5c1 bf42 e5d7 bf42 b5c1 bf42
000000a0: 7b94 bf42 6666 bf42 bc7b bf42 749a bf42
000000b0: a470 bf42 e557 bf42 4b7e bf42 c92f bf42
000000c0: 1111 bf42 263f bf42 031d bf42 7e31 bf42
000000d0: 8f02 bf42 4f1b bf42 da40 bf42
80.32333 91.06834 92.84167 93.67167 94.166664 94.545 94.95333 95.055
95.26667 95.46333 95.385 95.555 95.65 95.905 95.82667 95.76667
95.86 95.86 95.95333 96.026665 95.88333 95.96 95.775 95.97667
96.08 95.988335 96.17 95.94666 96.111664 95.971664 95.955 96.03333
95.975 95.871666 95.96 95.75667 95.925 95.878334 95.92167 95.878334
95.79 95.7 95.74167 95.80167 95.72 95.67167 95.746666 95.59333
95.53333 95.62334 95.55666 95.596664 95.505 95.55334 95.62666

val_loss_history f4 [11]
00000000: 01d0 de3d 1e1f 003e 1526 7f3e ee55 df3d
00000010: 14be 313e b478 423e 3bab 663e 1c85 623e
00000020: 949a 913e 2c64 0f3e 412e 083e
0.10879517 0.1251187 0.24916871 0.10905062 0.17357665 0.18991357 0.22526257 0.2212109
0.28438246 0.14003056 0.13298894

val_accuracy_history f4 [11]
00000000: 6666 c142 6666 c142 6666 c042 3333 c342
00000010: cdcc c042 9a99 c042 cdcc c242 3333 c242
00000020: 6666 c042 cdcc c242 0000 c242
96.7 96.7 96.2 97.6 96.4 96.3 97.4 97.1
96.2 97.4 97.0
