checkpoints/model_epoch_0100.npz (npz, 386344 bytes, 10 tensors)

weight_0 f8 [784, 64]
000000 4b 12 e5 21 00 00 00 00 7f 7a 51 0e 00 00 00 00
       2.809556444e-315 1.18684844e-315
000010 53 cc fd 0d 00 00 00 00 4e b4 30 1a 00 00 00 00
       1.159753507e-315 2.170921987e-315
000020 3d 4c 6e 04 00 00 00 00 11 08 d1 1d 00 00 00 80
       3.67275264e-316 -2.47150585e-315
000030 c0 ab ec 0b 00 00 00 80 b5 a1 76 1f 00 00 00 80
       -9.8842694e-316 -2.60801613e-315
000040 e1 a6 b9 03 00 00 00 00 d8 a0 b1 21 00 00 00 80
       3.0878376e-316 -2.79289962e-315
000050 73 4b f2 21 00 00 00 00 1f 60 f0 02 00 00 00 80
       2.813838017e-315 -2.43612303e-316
000060 8d 1a 09 20 00 00 00 00 ed 4b f4 04 00 00 00 00
       2.65544244e-315 4.10662844e-316
000070 0c b9 1a 21 00 00 00 80 3d c3 92 08 00 00 00 80
       -2.74403781e-315 -7.1064409e-316
000080 d0 89 ce 17 00 00 00 00 9f 28 67 0e 00 00 00 80
       1.973355817e-315 -1.193868285e-315
000090 21 27 19 13 00 00 00 00 8b f0 96 02 00 00 00 00
       1.583063013e-315 2.1465379e-316
0000a0 68 d6 3a 12 00 00 00 00 11 3b 4d 14 00 00 00 80
       1.511079343e-315 -1.682815816e-315
0000b0 71 2a 27 14 00 00 00 00 97 74 cf 11 00 00 00 00
       1.670490736e-315 1.47631e-315
0000c0 21 94 72 04 00 00 00 00 c1 48 92 17 00 00 00 00
       3.68661355e-316 1.95384608e-315
0000d0 09 86 80 0f 00 00 00 80 1f 7e 9c 06 00 00 00 80
       -1.28497167e-315 -5.48013657e-316
0000e0 2f 7e 0a 00 00 00 00 00 80 35 ac 02 00 00 00 00
       3.397507e-318 2.21540617e-316
0000f0 19 d8 c1 21 00 00 00 00 5f c6 95 0a 00 00 00 00
       2.79815016e-315 8.77400346e-316
000100 22 6b 8b 03 00 00 00 80 d6 cb e2 08 00 00 00 00
       -2.93813814e-316 7.36558233e-316
000110 aa 54 11 03 00 00 00 00 8e ff cb 1c 00 00 00 80
       2.5428291e-316 -2.38698567e-315
000120 f5 33 42 07 00 00 00 00 27 5b a3 0d 00 00 00 80
       6.01669137e-316 -1.13046919e-315
000130 fd fe 97 18 00 00 00 80 73 d7 d3 21 00 00 00 00
       -2.038585985e-315 2.803977573e-315
000140 61 8b ea 0d 00 00 00 80 79 ec 04 1b 00 00 00 80
       -1.153519337e-315 -2.23963669e-315
000150 70 ee c1 0c 00 00 00 80 30 c8 57 0d 00 00 00 00
       -1.05747874e-315 1.10599899e-315
000160 68 7b 82 1e 00 00 00 00 45 6c f3 0e 00 00 00 80
       2.528962715e-315 -1.23928457e-315
000170 a3 2a 90 1e 00 00 00 00 5d 66 63 15 00 00 00 00
       2.53339363e-315 1.772884437e-315
000180 fa 22 84 0b 00 00 00 80 11 ac 09 15 00 00 00 00
       -9.545797e-316 1.74383142e-315
000190 d2 af e3 1f 00 00 00 80 7f 41 8e 0a 00 00 00 80
       -2.643327183e-315 -8.7496575e-316
0001a0 ef 69 e4 21 00 00 00 80 b6 d9 8b 03 00 00 00 80
       -2.8093435e-315 -2.93953674e-316
0001b0 d5 91 45 01 00 00 00 00 b8 07 5c 0e 00 00 00 80
       1.0541648e-316 -1.19026497e-315
0001c0 82 97 98 0a 00 00 00 80 51 b1 11 14 00 00 00 00
       -8.78312445e-316 1.66353793e-315
0001d0 25 98 da 22 00 00 00 00 f8 23 83 23 00 00 00 80
       2.8890545e-315 -2.943628217e-315
0001e0 9f 02 7c 01 00 00 00 80 10 78 ad 18 00 00 00 80
       -1.23043843e-316 -2.04553873e-315
0001f0 58 bc 18 02 00 00 00 00 f7 17 26 0d 00 00 00 80
       1.7379012e-316 -1.08991035e-315
000200 a4 17 a7 08 00 00 00 80 6e eb 14 11 00 00 00 00
       -7.1722666e-316 1.41591142e-315
000210 0c dd 2b 12 00 00 00 80 16 f1 ae 08 00 00 00 80
       -1.50623088e-315 -7.1976822e-316
000220 cb e4 52 1b 00 00 00 80 34 2b 88 1f 00 00 00 80
       -2.264882666e-315 -2.61369448e-315
000230 a0 a2 34 03 00 00 00 80 20 9c 83 0a 00 00 00 00
       -2.65714196e-316 8.71518677e-316
000240 f6 71 88 0b 00 00 00 00 b9 37 90 1a 00 00 00 80
       9.5597476e-316 -2.20184834e-315
000250 37 b1 38 1c 00 00 00 00 d4 5e 46 21 00 00 00 80
       2.339289327e-315 -2.7581705e-315
000260 26 e7 0a 23 00 00 00 80 22 a7 2b 16 00 00 00 00
       -2.904696387e-315 1.83772453e-315
000270 53 ff 3b 01 00 00 00 80 af 93 ee 1e 00 00 00 00
       -1.0231706e-316 2.563962834e-315
000280 b7 35 fc 05 00 00 00 00 53 6a 85 16 00 00 00 00
       4.9611554e-316 1.866788797e-315
000290 d7 db 04 10 00 00 00 80 e7 d5 18 22 00 00 00 00
       -1.32782059e-315 2.826317186e-315
0002a0 2e 1e bd 1e 00 00 00 80 45 da 81 01 00 00 00 80
       -2.54794846e-315 -1.2493555e-316
0002b0 4f c0 e8 15 00 00 00 80 42 92 65 06 00 00 00 80
       -1.816062386e-315 -5.3023063e-316
0002c0 e7 02 78 0d 00 00 00 00 43 fd c6 0e 00 00 00 00
       1.11643456e-315 1.224897366e-315
0002d0 d8 93 a8 10 00 00 00 80 d0 35 55 02 00 00 00 80
       -1.38083123e-315 -1.93371207e-316
0002e0 0b 15 37 08 00 00 00 00 26 df 96 14 00 00 00 80
       6.80958797e-316 -1.70666008e-315
0002f0 69 8f b1 1b 00 00 00 00 93 4a 12 1f 00 00 00 00
       2.295534805e-315 2.575526836e-315
000300 99 38 5a 21 00 00 00 80 60 c3 6a 02 00 00 00 00
       -2.76459796e-315 2.00349864e-316
000310 b9 cc 12 21 00 00 00 80 41 a9 f5 14 00 00 00 80
       -2.74147237e-315 -1.737352047e-315
000320 96 95 62 08 00 00 00 80 48 e3 a3 0a 00 00 00 80
       -6.95044387e-316 -8.81969983e-316
000330 e4 4d 9f 15 00 00 00 00 b2 73 29 0b 00 00 00 80
       1.792280936e-315 -9.25216824e-316
000340 48 9f e4 00 00 00 00 80 47 d1 86 1d 00 00 00 00
       -7.4025777e-317 2.44747603e-315
000350 d5 d0 36 1e 00 00 00 80 19 26 1c 15 00 00 00 00
       -2.504462657e-315 1.749814003e-315
000360 20 33 61 1f 00 00 00 80 66 af 21 15 00 00 00 00
       -2.601076655e-315 1.751606616e-315
000370 33 9b 8b 12 00 00 00 00 72 81 12 11 00 00 00 00
       1.537231518e-315 1.41512979e-315
000380 61 8a ce 16 00 00 00 80 d7 90 2b 16 00 00 00 00
       -1.890466073e-315 1.837696335e-315
000390 b5 27 03 22 00 00 00 80 56 b2 6c 01 00 00 00 80
       -2.819297254e-315 -1.18085434e-316
0003a0 e1 bb 96 1e 00 00 00 80 06 4c 2b 24 00 00 00 00
       -2.53552008e-315 2.998075743e-315
0003b0 f2 01 92 21 00 00 00 00 f3 88 a4 1e 00 00 00 00
       2.782661126e-315 2.539988733e-315
0003c0 7c a5 0d 04 00 00 00 00 e6 30 c1 1f 00 00 00 80
       3.3598043e-316 -2.63215776e-315
0003d0 45 51 8f 0f 00 00 00 00 a2 e5 66 17 00 00 00 00
       1.28976179e-315 1.939797703e-315
0003e0 65 8b fd 1a 00 00 00 00 ef 9a c9 20 00 00 00 80
       2.23724737e-315 -2.717772663e-315
0003f0 86 2d 87 12 00 00 00 00 59 57 8d 14 00 00 00 80
       1.535797635e-315 -1.7035742e-315
000400 68 8c ff 10 00 00 00 00 21 2c 59 04 00 00 00 80
       1.408991626e-315 -3.60435044e-316
000410 02 44 e1 0e 00 00 00 00 6d 16 fe 06 00 00 00 00
       1.23340541e-315 5.79614007e-316
000420 d7 93 ed 01 00 00 00 00 df 8a d0 08 00 00 00 80
       1.59815884e-316 -7.3064783e-316
000430 f0 88 a7 21 00 00 00 00 ef 93 c8 1d 00 00 00 80
       2.789631473e-315 -2.468768637e-315
000440 5f 74 7d 09 00 00 00 80 bb 8e 57 0a 00 00 00 00
       -7.8663519e-316 8.57254937e-316
000450 21 60 82 01 00 00 00 80 2c 32 04 02 00 00 00 80
       -1.25104857e-316 -1.6713954e-316
000460 c2 46 89 0a 00 00 00 80 9f f3 c9 09 00 00 00 00
       -8.7335345e-316 8.1140424e-316
000470 90 cb 34 05 00 00 00 80 0c 59 00 14 00 00 00 00
       -4.31546895e-316 1.65792184e-315
000480 19 7f 37 21 00 00 00 00 2e 88 b2 1e 00 00 00 80
       2.75335445e-315 -2.54452083e-315
000490 0a fb 1e 1b 00 00 00 00 77 ab 41 1d 00 00 00 00
       2.24807368e-315 2.425086633e-315
0004a0 33 a6 ca 0d 00 00 00 80 66 01 c7 00 00 00 00 00
       -1.14319195e-315 6.443615e-317
0004b0 5d 53 0d 1e 00 00 00 80 1f 13 94 0d 00 00 00 00
       -2.491028537e-315 1.12552122e-315
0004c0 79 02 a0 0b 00 00 00 00 bb 2a 75 13 00 00 00 80
       9.6360473e-316 -1.61285633e-315
0004d0 a5 d2 1d 21 00 00 00 00 47 0a 30 0b 00 00 00 00
       2.74504156e-315 9.27350027e-316
0004e0 49 ae c4 11 00 00 00 80 94 a4 90 06 00 00 00 80
       -1.472821276e-315 -5.44176807e-316
0004f0 15 a4 2f 04 00 00 00 00 80 73 b5 12 00 00 00 80
       3.46987545e-316 -1.55078052e-315
000500 2f 72 dd 01 00 00 00 80 15 11 ac 0f 00 00 00 80
       -1.5459266e-316 -1.29907054e-315
000510 ed b4 42 20 00 00 00 80 a6 72 7f 1d 00 00 00 80
       -2.67409377e-315 -2.445089805e-315
000520 76 84 63 19 00 00 00 00 1c ad 49 14 00 00 00 80
       2.10448435e-315 -1.681664895e-315
000530 a0 01 67 02 00 00 00 00 59 3c b8 10 00 00 00 80
       1.99133435e-316 -1.385901216e-315
000540 74 9c 7c 14 00 00 00 00 bb 84 d3 1e 00 00 00 00
       1.69815716e-315 2.55520157e-315
000550 58 a8 66 0d 00 00 00 00 73 ef c7 02 00 00 00 80
       1.11081558e-315 -2.3051816e-316
000560 d8 53 8f 22 00 00 00 80 d8 d3 81 14 00 00 00 80
       -2.8646838e-315 -1.699846175e-315
000570 bd bd 9d 06 00 00 00 00 5d 87 2c 07 00 00 00 00
       5.4841791e-316 5.9465123e-316
000580 57 0b ef 0d 00 00 00 80 68 ce 5a 0e 00 00 00 80
       -1.154976346e-315 -1.18986869e-315
000590 33 f2 fc 0b 00 00 00 80 43 2c 66 08 00 00 00 80
       -9.936967e-316 -6.96206335e-316
0005a0 50 4e 87 1e 00 00 00 80 7f 56 29 1c 00 00 00 80
       -2.530524634e-315 -2.334317723e-315
0005b0 66 ff 64 0d 00 00 00 80 52 c5 78 04 00 00 00 80
       -1.110278104e-315 -3.7066632e-316
0005c0 51 72 0a 00 00 00 00 00 aa 46 f2 11 00 00 00 80
       3.382497e-318 -1.487584595e-315
0005d0 b1 4c b0 0f 00 00 00 80 3d 05 4a 00 00 00 00 80
       -1.3004411e-315 -2.396715e-317
0005e0 c4 ef 6f 20 00 00 00 80 90 17 4e 04 00 00 00 00
       -2.68873878e-315 3.5684733e-316
0005f0 f7 19 16 09 00 00 00 00 d7 14 92 02 00 00 00 00
       7.53170385e-316 2.13080745e-316
000600 ff b1 f6 22 00 00 00 80 ef cd 47 19 00 00 00 80
       -2.898153343e-315 -2.09551113e-315
000610 1d 5c de 0f 00 00 00 80 d9 98 ab 1f 00 00 00 80
       -1.315354986e-315 -2.62516584e-315
000620 ea bb 0c 02 00 00 00 80 a6 c5 46 18 00 00 00 80
       -1.69904087e-316 -2.0122864e-315
000630 5f c8 8b 1b 00 00 00 80 3d 9f 8e 15 00 00 00 80
       -2.283302797e-315 -1.78687938e-315
000640 1f 51 07 08 00 00 00 00 c2 9b 3e 0c 00 00 00 80
       6.65492823e-316 -1.014957564e-315
000650 c0 1e 96 00 00 00 00 80 d8 21 51 1a 00 00 00 00
       -4.860752e-317 2.18142184e-315
000660 da c9 2b 1f 00 00 00 00 aa 72 44 05 00 00 00 00
       2.58378259e-315 4.3661511e-316
000670 83 db 69 0f 00 00 00 80 f1 cb 55 15 00 00 00 00
       -1.27763259e-315 1.76847984e-315
000680 56 ce f5 15 00 00 00 00 01 fa c1 17 00 00 00 80
       1.82028941e-315 -1.969288437e-315
000690 c0 97 a1 18 00 00 00 80 8e 06 f5 22 00 00 00 00
       -2.041693317e-315 2.89761271e-315
0006a0 80 20 5e 1a 00 00 00 00 41 5a 16 14 00 00 00 80
       2.18562942e-315 -1.665046765e-315
0006b0 c1 19 8b 1a 00 00 00 80 7a 6e dc 1c 00 00 00 00
       -2.20019148e-315 2.39230662e-315
0006c0 e1 17 e1 11 00 00 00 80 3e 72 57 0e 00 00 00 00
       -1.482020976e-315 1.18878075e-315
0006d0 48 bb 52 1d 00 00 00 00 7f c1 fe 01 00 00 00 00
       2.43061108e-315 1.65378075e-316
0006e0 de 47 0d 22 00 00 00 00 75 fb 79 1c 00 00 00 00
       2.82257584e-315 2.360429636e-315
0006f0 3a 4b c8 00 00 00 00 80 df a0 a0 0d 00 00 00 80
       -6.485332e-317 -1.129585997e-315
000700 a1 a4 ae 1c 00 00 00 00 81 08 1f 0c 00 00 00 80
       2.37748073e-315 -1.0047338e-315
000710 b9 b5 46 04 00 00 00 80 52 50 d8 05 00 00 00 00
       -3.54457047e-316 4.8449272e-316
000720 19 1c f3 00 00 00 00 80 ec a7 4f 19 00 00 00 00
       -7.8716718e-317 2.09805338e-315
000730 2d c5 22 21 00 00 00 80 31 f8 ef 08 00 00 00 80
       -2.74664348e-315 -7.40823615e-316
000740 f0 e5 31 01 00 00 00 80 3a 4f 6a 04 00 00 00 00
       -9.904704e-317 3.6598388e-316
000750 fa e6 a9 11 00 00 00 00 54 de ca 1e 00 00 00 00
       1.464150627e-315 2.552400774e-315
000760 e7 99 ee 1c 00 00 00 80 3e c7 00 12 00 00 00 80
       -2.39818978e-315 -1.492280294e-315
000770 52 52 06 07 00 00 00 00 19 c3 ef 0a 00 00 00 80
       5.8228009e-316 -9.06537383e-316
000780 fa 1a 6b 02 00 00 00 00 72 95 9e 22 00 00 00 00
       2.00460664e-316 2.869623636e-315
000790 a7 19 ed 10 00 00 00 00 61 f6 51 1a 00 00 00 80
       1.40301825e-315 -2.181690657e-315
0007a0 e7 4f 7a 18 00 00 00 00 1a e9 38 0e 00 00 00 00
       2.0289746e-315 1.178893565e-315
0007b0 ed ed 7b 1d 00 00 00 00 90 7b 23 07 00 00 00 00
       2.443950563e-315 5.91722187e-316
0007c0 ee 95 8d 0f 00 00 00 00 28 1c e1 0d 00 00 00 80
       1.289201053e-315 -1.150464544e-315
0007d0 3c 2e 83 15 00 00 00 00 df 2e db 18 00 00 00 80
       1.783174753e-315 -2.060340536e-315
0007e0 ce 95 f9 0e 00 00 00 80 6e a0 6a 03 00 00 00 00
       -1.241279847e-315 2.83196126e-316
0007f0 c0 d1 06 1e 00 00 00 00 4a e7 c9 0c 00 00 00 00
       2.488921856e-315 1.060060026e-315

bias_0 f8 [1, 64]
000000 3b d4 96 f3 00 6d c0 bf b0 9c b3 bc 3a ae d7 bf
       -0.12832652944567421 -0.3700091212071568
000010 40 7a e7 4d 6f 4f b4 bf 9e 0d 6d 83 fc b3 ab bf
       -0.07933707858999473 -0.05410756210633426
000020 b3 36 c1 15 9e 85 cd bf d3 c2 0c 1a 07 79 e4 bf
       -0.23064018308871467 -0.63977389419423
000030 66 b8 de 0e ec 75 b0 bf 11 4d f2 ff 5f a1 db bf
       -0.06429934847867144 -0.4317245482900072
000040 bc 41 a7 0d ba 43 d8 bf 77 af 5c 54 5e be b0 3f
       -0.37913371404013296 0.06540479240055484
000050 2f b1 04 49 bb 3c d4 3f 14 58 6f 7c 94 5e c4 bf
       0.3162067616529098 -0.1591363532631368
000060 47 6a e7 67 d5 37 e2 bf b7 b7 1b 41 a6 3e c5 bf
       -0.5693156270384144 -0.1659744089042172
000070 22 ae ac fa e8 38 df bf d7 44 bd 0e d2 6f e3 bf
       -0.48784851531920215 -0.6073999679448673
000080 0d 89 68 80 11 5c d5 3f b1 75 21 74 f7 82 d4 bf
       0.3337444070804317 -0.32049356785668254
000090 b8 fb 61 82 89 8b d3 bf 56 96 b1 a8 80 03 92 3f
       -0.3053916714924827 0.017591486259695387
0000a0 4a 44 70 4c 33 aa d4 bf 19 55 1d 1f 39 7a db 3f
       -0.3228882070989739 0.4293349078992193
0000b0 44 e9 fd 60 3b d5 cd bf 27 30 84 80 22 72 de bf
       -0.23306982265405385 -0.4757162337343765
0000c0 47 69 6f 2a db f1 d3 3f cc f9 5b 5d 57 33 c6 bf
       0.3116367258459331 -0.1734418111663686
0000d0 50 d9 86 a0 14 17 b5 bf 64 f5 68 ef 9f 16 d6 3f
       -0.08238343161688033 0.3451309049595095
0000e0 0c 61 5e a5 78 13 d4 3f 67 68 9f 78 6e 85 c8 bf
       0.3136884322098161 -0.1915720070817912
0000f0 ec 13 f1 0a 71 a8 a1 bf cf 75 2f 07 9b 07 c8 bf
       -0.03448823221746253 -0.18773210383271396
000100 9f bc c9 f4 57 16 dd bf 3c c7 62 d1 b8 05 a7 3f
       -0.45448874383050425 0.044965529975697
000110 b5 08 0d 41 c4 c5 ca bf a1 30 97 18 bc 10 e3 bf
       -0.20916035820306936 -0.5957928161892775
000120 c0 67 a1 42 28 5c c3 bf fe ed 25 6e 60 1d d9 bf
       -0.15124991658632148 -0.39241801029831425
000130 91 53 6e bc df f5 d1 bf 05 d9 ba 64 f7 9d b6 3f
       -0.2806319561143989 0.08834787568307341
000140 34 f0 d1 a5 27 c9 c7 bf 1f 45 d3 c5 59 36 bb bf
       -0.18582625958140542 -0.10629807548254576
000150 f0 a3 f8 9c 63 b7 a0 bf d6 12 3d c3 f0 26 be bf
       -0.03264914790299389 -0.1177816845566427
000160 a5 23 43 52 2c 9a e0 bf 6e f2 a6 da fa 2f 9a bf
       -0.5188199621853654 -0.025573653789012267
000170 da 66 74 b4 f3 fa a1 3f 20 35 b4 50 35 86 c5 3f
       0.03511773660484403 0.16815821114179474
000180 a2 b4 ec 71 8d a3 e7 bf a6 23 97 9a a7 df da bf
       -0.7387149071779684 -0.41990079971997785
000190 c9 e8 fa f5 15 5b d6 bf 8d ec 49 2d 54 3e c7 3f
       -0.3493094350957447 0.18158962451329722
0001a0 7f 83 2b bc 51 4f bd bf 91 0d 9d f6 42 94 cc 3f
       -0.11449156612390075 0.22327458421396476
0001b0 2d db 92 e4 ed c4 cc bf 6a a8 ec c4 11 63 e6 bf
       -0.22475980435202683 -0.6995934339695513
0001c0 f2 96 63 7e 7e 94 de bf ca 0b 8e 61 8c b2 c0 3f
       -0.47781336157491616 0.13044886363431224
0001d0 18 f8 2f 7a 61 3b e0 bf f6 56 a4 6d 63 4d d9 bf
       -0.5072486292335752 -0.395348412582606
0001e0 10 04 02 c9 9b 42 a6 3f 96 b1 96 1d 5d d8 a3 3f
       0.04347693279942899 0.03876009927930395
0001f0 12 21 33 6d 70 26 c9 3f 86 5a 58 7e d5 01 d4 bf
       0.19648557025926344 -0.3126119359816716

weight_1 f8 [64, 32]
000000 71 90 33 7f 64 c0 12 c0 1a 9f d9 23 7b 0b e3 3f
       -4.687883365175467 0.595151491183944
000010 cf 19 27 8a 8b c5 1a c0 2d a5 12 04 23 cd ea bf
       -6.692915114056134 -0.8375411109492795
000020 0a 7b 34 bd 5e c0 12 c0 d0 5e 53 b9 64 f0 ea bf
       -4.687861400917209 -0.8418449039117721
000030 5f 05 44 0e 34 60 04 c0 2c ab 27 0c 58 ca f8 3f
       -2.5469742884167057 1.549400374870582
000040 ab 70 90 84 a7 58 f9 bf 30 0f 35 bd 2e e9 09 c0
       -1.5841441324510395 -3.238858678991072
000050 f8 23 2f 2f 23 0f a9 3f c4 0b bd e1 77 2b ad bf
       0.048943614492209464 -0.056972261720623446
000060 97 68 c5 78 5e 5c f8 3f 6d e6 50 3f 4d c3 f3 3f
       1.5225510327932505 1.2351810906679035
000070 c3 6d 61 d4 19 af e3 3f f5 12 c3 f6 69 14 e5 3f
       0.6151246212061142 0.6587419337816686
000080 1d 71 ad f5 e6 2d f8 bf 58 f2 78 f7 b6 08 14 c0
       -1.5112065884378076 -5.0085104625291805
000090 b7 31 0a d5 9f 3d f1 3f 4a ee a8 f7 3b 7d 01 c0
       1.0775450059764873 -2.1861495350292772
0000a0 21 ce 7f df 19 16 eb bf 8a 48 15 d2 6e c2 f6 bf
       -0.8464478841037285 -1.422468968045481
0000b0 f0 a8 3f 51 43 ee 12 c0 6b b1 e7 7b 8f a9 f0 3f
       -4.732678670416348 1.0413966026345303
0000c0 a3 78 92 da 32 89 11 c0 3e d9 e7 89 7d 87 f4 3f
       -4.38398305434217 1.2830787074031629
0000d0 3c 25 00 f6 49 da ca bf 6b 77 d9 22 93 4c e3 3f
       -0.20978664886232845 0.6030975037244678
0000e0 bb 09 05 07 94 2d f8 bf fe ee 82 28 0a 87 12 c0
       -1.511127498074173 -4.6318746881404405
0000f0 1a c1 da 7e f4 1d d8 3f 85 87 e9 95 76 c8 c7 bf
       0.3768283118070187 -0.18580515212948626
000100 02 41 72 41 47 05 db 3f 5e 86 2d b2 73 93 00 c0
       0.42219716445198696 -2.071998016371068
000110 b2 be d4 3b b0 f3 e7 bf 5c b9 8c ac 00 38 07 c0
       -0.7484971207213305 -2.902345035595472
000120 a6 ea 2e ed 6f 03 c1 3f 74 f2 a0 a4 d7 24 05 c0
       0.13291739541258102 -2.642989431535449
000130 b7 d7 17 ea d3 9a e2 3f f4 0b b4 0f 54 48 04 c0
       0.5813998767978238 -2.5353165842839136
000140 58 25 e5 25 65 48 c5 3f 02 a6 13 26 97 3f d2 3f
       0.16627182340952618 0.2851312515109329
000150 e7 5e e6 b2 89 e8 bb bf 51 5e 97 e4 c6 b8 18 c0
       -0.10901699655220974 -6.180446216334148
000160 59 0f ef 5c ed fa 08 c0 4c 84 72 ca 75 8b e4 3f
       -3.122523046536952 0.6420239404725492
000170 fb a5 54 50 4d fd b7 3f b4 35 0a 74 93 0a 88 3f
       0.09370883189389893 0.011738922098880923
000180 3b b5 db e1 9e f8 c3 3f d8 f5 9e ff a5 a5 fa bf
       0.15602479961618507 -1.6654415116494103
000190 75 27 bf fe f8 16 13 c0 3b 31 17 33 b1 fc 0f c0
       -4.772434215943453 -3.998384856362603
0001a0 af f3 eb 90 fa 70 e0 3f 84 2f 87 a0 20 5f f3 bf
       0.5137913542272282 -1.2107244749667823
0001b0 2f 07 9b 55 7e 64 bc bf ac a7 b8 d8 0c e7 0e c0
       -0.11090840902309361 -3.8628174716331696
0001c0 a5 5e 0c 2a cb 19 d8 3f 1f 1f cb b9 0e e4 07 c0
       0.3765743170383565 -2.9863562121498854
0001d0 3e 31 90 39 4e 5f d9 bf b3 59 96 35 a1 88 10 c0
       -0.3964419901028754 -4.133427464772853
0001e0 45 49 d5 8c b1 ee f7 bf c0 60 35 89 1d 09 00 c0
       -1.4957747937483685 -2.0044508666433956
0001f0 e5 4e 69 e5 70 93 00 c0 75 50 c1 28 b0 c0 df bf
       -2.071992676044703 -0.49613574962609813
000200 f4 fc 56 35 b5 b1 0a c0 b6 86 04 db c0 da d3 3f
       -3.3367714087649976 0.3102266444057976
000210 09 bd c6 69 6b b1 0f c0 ec 0a 0c ba 57 92 ec 3f
       -3.961630655648723 0.8928640969973833
000220 58 7a 24 8b 31 01 09 c0 81 17 5a ba 7f fe 03 c0
       -3.1255827780253576 -2.499267059206375
000230 3b 45 e3 8f d1 c5 e3 3f eb 55 8e 29 75 db db bf
       0.6178977785404308 -0.4352696328945444
000240 b0 b4 22 65 4e 30 89 3f 75 3e 19 d1 d5 27 e0 bf
       0.01229916807309403 -0.5048626979787075
000250 6e d2 96 f4 fc 1e 06 c0 2f 8d b5 3b 72 fd c6 3f
       -2.765130911686632 0.17960956492889
000260 ea d2 9a e1 34 72 e3 3f 20 55 9d fb c4 a4 cc 3f
       0.6076912313788772 0.22377836500042125
000270 c6 79 8a 90 f9 a4 13 c0 68 fe 14 88 0b d3 01 c0
       -4.911108263446698 -2.2280493384749214
000280 70 8a 6f 3b 8d 84 f7 bf c3 8f e7 f9 93 c4 f0 bf
       -1.4698612519938727 -1.0479926835914604
000290 95 ee 95 1e 28 65 ee 3f 8c 71 a4 ff 8c 8c e3 3f
       0.9498482320190812 0.6109070771231457
0002a0 d9 e2 1c f1 41 c4 e7 bf 4b 5c 43 86 42 65 ca 3f
       -0.7427072247729384 0.20621520572487592
0002b0 a0 94 7a 81 cf 7c df bf 95 fd 07 b4 41 ea 03 c0
       -0.49199283260743165 -2.489383131498196
0002c0 57 b5 b0 85 fc 75 d5 3f 1c 54 a2 fc 7e 6c 00 c0
       0.3353263192719473 -2.0529765831984275
0002d0 62 22 9f 11 b2 c9 f5 bf 8f 29 f0 aa 74 ac f8 bf
       -1.3617420852989643 -1.5421034505148759
0002e0 62 1b 36 11 92 9f 13 c0 a4 0b c9 4e 51 09 fd bf
       -4.905830639769961 -1.8147748067428688
0002f0 c2 2b c3 0a 83 8d 0c c0 6c bd 82 e7 be 28 cd bf
       -3.569097599106926 -0.22780596069558656
000300 d4 26 66 56 be 75 12 c0 92 43 5b 58 3a 8e 01 c0
       -4.614983892426341 -2.194447222027926
000310 18 3f ea 05 a2 ae 1a c0 97 c1 bc b0 8f 85 ef bf
       -6.670539944097776 -0.9850538684750515
000320 2a 36 16 73 57 9f f0 bf 56 79 78 a6 3d 9f 12 c0
       -1.0389017577721327 -4.655508614638469
000330 55 17 9b 35 91 02 05 c0 3d cf 04 d6 00 7f 0a c0
       -2.6262535274462757 -3.3120133133142233
000340 be f8 fd cf a7 72 cf bf 3d d9 18 71 79 df f6 bf
       -0.2456865087114632 -1.4295591752866834
000350 53 4b 79 04 dd 5c e8 3f ef b4 e7 f8 ec 57 14 c0
       0.7613358580950752 -5.085864915029773
000360 ce 0e 31 e5 4c 23 08 c0 3a c6 35 2c 4d b1 11 c0
       -3.0172365098568212 -4.423145952970623
000370 30 0b e9 9a b7 3f e2 3f bf a4 d1 7e ff 8d f5 bf
       0.5702779794304202 -1.3471674875129762
000380 da cd 87 f8 fb fd f3 3f 47 89 98 37 98 35 11 c0
       1.2495078762266218 -4.302338474927018
000390 31 b3 14 60 8c a3 d1 bf d4 5b 90 41 1b b0 b3 bf
       -0.2756071985520974 -0.07690592146569425
0003a0 57 ce 66 99 37 24 0b c0 9b fc 28 ed 75 50 05 40
       -3.392684172105685 2.6642874267705117
0003b0 d1 f3 a0 24 59 a4 fa bf 10 b6 b4 46 1d d0 74 3f
       -1.6651240759667767 0.005081285820137463
0003c0 a3 2b 45 88 43 7e 00 c0 1b 94 03 c5 fa 4f 01 c0
       -2.061652245150485 -2.16405252377673
0003d0 08 5a 64 ca 54 2f 03 c0 44 99 cc 03 62 70 f7 bf
       -2.3981109439730552 -1.4649372242361816
0003e0 47 06 fe e1 d4 37 e6 3f e8 d2 10 45 c5 47 10 c0
       0.6943153776084693 -4.070088462020728
0003f0 8e b8 2c 31 e3 ff e9 3f fe fb dc 9c 25 71 fb bf
       0.8124862633174119 -1.715123760935739
000400 7d 30 f3 26 33 22 03 c0 3a 63 a5 fc 3d b2 03 c0
       -2.3916991274800794 -2.4620322931263248
000410 f6 46 27 8b d6 20 15 c0 8b 8d 30 6b 37 97 d1 bf
       -5.282068418762483 -0.2748545214437505
000420 d7 ba 43 34 c3 de 02 c0 e1 26 35 04 07 bc 18 c0
       -2.3587707598847873 -6.18362051557935
000430 cd 8f 97 04 9b 2f f1 3f 9c a4 d3 48 c3 24 04 c0
       1.0741224460007175 -2.5179506005848236
000440 98 14 67 5e b5 78 f1 3f d4 dd 06 24 33 99 05 c0
       1.0919698417285755 -2.699804574451017
000450 f0 7d f3 6c ec 69 14 40 a9 12 5c 36 94 ba 15 c0
       5.103440954553193 -5.432206010217365
000460 09 22 30 b0 27 b8 0c c0 ba 6b 18 a2 49 57 14 c0
       -3.589919449299718 -5.085241825809982
000470 9c 01 37 58 ee f0 b1 3f b3 b9 f8 1e 57 4e ff bf
       0.07008256581958111 -1.956626053793667
000480 21 ae 8c 52 a6 8b d9 3f 93 44 7d 44 45 ff 10 c0
       0.39914854108312353 -4.249287672181839
000490 d8 26 f6 50 af b0 f4 bf d9 a3 f4 e6 38 a8 f4 bf
       -1.2931359446105741 -1.2910698911384684
0004a0 35 de 7a 7b 37 b7 07 c0 e5 de 76 32 e3 2c fe 3f
       -2.9644612929221474 1.8859588595641352
0004b0 fe 2e c2 f1 f0 f6 e6 3f e5 c7 20 4f 5a 08 f6 bf
       0.7176441881033211 -1.3770392504634341
0004c0 95 e2 a2 61 8a c4 ec bf 3c 61 3f e2 76 85 09 c0
       -0.8989917666395565 -3.1901681590644824
0004d0 43 5e 64 31 dd ca 11 c0 7c fa c2 78 2f 83 f6 bf
       -4.4481094090948 -1.4070276944400169
0004e0 e2 db 80 96 3e 5f e8 3f d1 c8 b5 d1 5b c1 00 c0
       0.761626523925653 -2.094413412437554
0004f0 77 ce 09 29 8b d4 f3 3f a4 f0 d7 30 a0 bb 06 c0
       1.239390526109586 -2.8416141334438
000500 2e c8 6b d1 f9 6f 0a c0 f9 a1 de f8 2d f9 10 40
       -3.3046757088677827 4.243339432323858
000510 fb 37 f7 25 1f 83 0b c0 1a c8 13 14 2b c2 ed bf
       -3.4390242544241096 -0.9299521820196361
000520 cf 58 c9 8e 88 9d 0b c0 59 af 63 bb 44 0e 0b 40
       -3.4519206195064736 3.381967033366817
000530 62 71 83 26 6a 22 fb bf ee 8a 07 8f 37 e1 09 c0
       -1.6959020142013164 -3.2349692510773513
000540 a4 fd 98 ce 8c 5c b8 3f 8d 36 99 69 a1 8a 07 c0
       0.09516220134627545 -2.9426906823999333
000550 02 80 32 41 3c d1 02 c0 01 cb 50 da 5a 04 07 c0
       -2.352165707925452 -2.8771264129549086
000560 c5 4d d0 5f cf 18 06 40 b7 c0 16 18 1b b6 11 40
       2.762114285034587 4.427837730778427
000570 c4 3b 3c 56 c7 02 00 40 0d 9b e0 52 31 7a f7 bf
       2.0013567673808854 -1.467332195033751
000580 eb 9d a9 d3 6d fd 01 c0 0b d8 34 c1 c9 b7 10 c0
       -2.248744634259983 -4.179480570650422
000590 e1 27 02 89 cb 68 f7 bf 48 48 31 8f 1a fb 75 bf
       -1.463084731282372 -0.005366424319690984
0005a0 5e 6f 9e f8 bb a4 e1 3f e6 8d 78 c9 53 33 f1 bf
       0.5513591628873475 -1.0750310773809075
0005b0 3a f4 00 e8 df ac d9 bf 28 52 57 c5 d1 b0 05 c0
       -0.4011764302884476 -2.7113376061700087
0005c0 bd 73 e7 c6 11 2d 0c c0 ac d9 d4 e6 ed 3e 12 40
       -3.5220065631278588 4.561454397908545
0005d0 03 74 e2 e9 4d 54 03 c0 24 32 49 0d 93 4b 00 c0
       -2.4161642334206603 -2.036901572986851
0005e0 c6 8f 87 ea fd 45 eb bf 9a 66 60 2c 10 8c cd bf
       -0.8522939282088309 -0.23083688895058146
0005f0 c6 88 03 03 7b 42 06 c0 0b 86 40 4e 26 c0 02 40
       -2.7824611888364386 2.3438230622712175
000600 0d 46 8a 6c 16 7c 0d c0 56 d1 ce b7 85 1b d5 3f
       -3.685589645356919 0.32980483007420014
000610 c2 be a4 a7 bd fb 19 c0 31 ad 4e a0 4b 08 0b c0
       -6.495840663366552 -3.379050495530145
000620 01 27 1d fe c5 bc 06 c0 95 9c 7c ba 45 71 ed bf
       -2.842174515976581 -0.9200771944350828
000630 35 dc 00 69 4c 40 09 c0 d4 3a b6 55 0d c4 b1 3f
       -3.156395740832091 0.06939776747297383
000640 ba f3 b4 12 f3 c1 ff bf 76 f4 d4 50 c5 85 07 c0
       -1.984850953172311 -2.940317756174916
000650 63 0d 1f f4 59 44 d3 3f eb 5f dd 2f 22 74 15 c0
       0.3010468372342158 -5.36341166294731
000660 20 32 88 63 b4 24 c5 3f 71 7e 91 f5 b4 56 b9 bf
       0.1651826368328253 -0.09897929187126821
000670 fb 35 e8 75 75 cd fe 3f 5d 20 61 f8 da 78 ca bf
       1.9251608472580972 -0.20681321266079325
000680 2c 8c ca 6b bd 9d c4 3f b0 f1 86 a5 fc 8f 14 c0
       0.16106384051553968 -5.140612207757314
000690 de d3 5c fb f8 58 f3 bf da 28 b2 a0 3a 15 0e c0
       -1.2092218226291531 -3.7603657297487247
0006a0 9e fd 3f ef 0f 0d e2 bf 05 78 34 1e ec 06 c9 3f
       -0.5640945122576573 0.19552375292636284
0006b0 99 45 d3 6c 8c ea 11 c0 33 5a 30 29 72 30 dd 3f
       -4.479051304240238 0.45608190557814793
0006c0 b5 4c e8 04 8d 9d 14 c0 ec ad 8c 6c 5b 8a e7 3f
       -5.153858257940716 0.7356392974956498
0006d0 0d c1 b3 ac e3 6a e3 bf 21 02 61 57 ac 20 f0 bf
       -0.606798016842761 -1.0079768574943346
0006e0 28 9f 07 2a 0c 12 d6 3f 40 0d 5d 1b b2 f7 11 c0
       0.34485153297872495 -4.491890361360959
0006f0 3f ad 4e 50 a5 98 e6 3f 80 3c c6 59 ce 61 c1 3f
       0.7061335152151641 0.1357973039962168
000700 31 9c a6 91 83 d4 0f 40 ed de f8 8c 6c 5d 01 c0
       3.9787665728540778 -2.170617200226721
000710 68 12 01 77 e3 7a 05 40 b7 59 10 fe 52 47 ef bf
       2.685004167289936 -0.9774565660653057
000720 b1 83 d4 3f f7 23 00 40 6d 06 4d d8 3f b8 f1 bf
       2.017561434433866 -1.1074827622655008
000730 e6 22 51 2b 18 d3 f0 bf af 25 eb 52 29 37 ef bf
       -1.0515367214267655 -0.9754835719588096
000740 6b 6f 7d 93 99 cb e0 bf 6a b9 61 a0 4f 96 c2 3f
       -0.5248535042442034 0.1452121289361899
000750 a4 6d e9 6a fb d5 e8 bf 39 11 a0 96 1f e1 09 c0
       -0.7761208618280091 -3.2349235313032776
000760 2f 10 92 ba 29 6f e3 bf 35 76 c1 e6 75 60 10 40
       -0.6073197025257339 4.094199758108108
000770 ac 2b 81 d6 1f b6 02 40 63 96 ad 3c bd de 72 bf
       2.338927913491224 -0.0046069519110908145
000780 be 6c 2e c3 d7 ba 0b 40 89 91 48 fc 9c 8c f3 bf
       3.46623184667041 -1.2218294005225252
000790 36 b5 15 64 ee 65 f0 bf 38 52 43 9b 3f f9 f1 bf
       -1.0248855504572254 -1.1233516755065818
0007a0 8d 8b fe 82 37 78 11 40 cc bc 0b 6c 58 35 f4 bf
       4.367399260317041 -1.263023778966999
0007b0 67 d2 55 ef b8 60 b6 bf 05 8c 53 12 f6 34 ef bf
       -0.08741336672921705 -0.9752149923264147
0007c0 2c 90 1d 9e f8 bd 06 c0 af 1b 6b 9f eb a7 03 c0
       -2.8427593567630733 -2.456992383438283
0007d0 48 3a 94 f1 44 7e fd bf 0e d0 8d 5c ab e0 e8 bf
       -1.843327468555474 -0.7774254615492298
0007e0 8d 80 19 91 52 ed f2 bf 0b 97 57 e1 1f 8b ae 3f
       -1.1829400699571437 0.059655185945116505
0007f0 0c 43 f4 50 0e 84 d3 bf 1a 6c 1c 33 4a 50 04 c0
       -0.304935053879533 -2.5392040246056355

bias_1 f8 [1, 32]
000000 dc c3 5b 54 ec 27 f3 bf 89 5d ba 34 12 e1 f1 bf
       -1.1972468657734145 -1.117449003189764
000010 dc a8 cf 6f 4b c0 c0 3f 04 33 43 14 4b a7 f8 bf
       0.13086836776284982 -1.5408430854324147
000020 7d f7 94 76 89 11 b3 3f d6 91 95 0e f1 5c bb 3f
       0.07448634285989715 0.1068869267088027
000030 ae 6c 4e 7a 27 af 01 c0 7e c8 5c d4 f2 4b f1 bf
       -2.2105245165999667 -1.0810421271712864
000040 cf 54 4e ce 13 19 02 c0 6e e6 70 54 55 cf 02 c0
       -2.262244807973367 -2.351236972518385
000050 6b 7e 51 cc 03 b9 ff bf 2d 30 2f 2a d6 79 b6 3f
       -1.9826696377930613 0.08779657869234887
000060 00 fb 62 ac d1 48 f8 bf bd e2 fe 32 eb 9a ec bf
       -1.5177780851224156 -0.8939109798439727
000070 b6 ae c9 c4 b5 6c fc bf b7 91 d4 09 a0 fc fa bf
       -1.7765405356430342 -1.6866760620115266
000080 bd d6 f7 7d 66 86 01 c0 ee 8a b4 a9 4e 1b fa bf
       -2.1906251755961805 -1.631666815672982
000090 83 76 0d 82 6b a4 fd bf 79 00 45 b8 b3 35 ff bf
       -1.8526415901355058 -1.9506108472851607
0000a0 5d 23 30 3e ca 75 f5 bf 5f 59 d1 d3 8d 9e ff bf
       -1.3412573270054147 -1.9762094759112967
0000b0 a2 08 13 9e 22 5e f8 bf ee 8b 3d a3 03 1d 00 c0
       -1.522982232549602 -2.0141670945317776
0000c0 c8 21 46 28 8a 19 f3 bf 48 38 63 90 3b 35 f6 bf
       -1.1937352727128303 -1.3879962577953098
0000d0 9e 91 0e 65 ed f1 00 c0 47 29 be d4 9a b9 f7 bf
       -2.1181285758086252 -1.48281367399848
0000e0 99 b5 de db 43 ab 00 c0 85 83 63 88 f3 4a f3 bf
       -2.083625524267245 -1.205798657196483
0000f0 c2 27 33 65 eb 4e 05 c0 82 46 0c 04 01 58 01 c0
       -2.6635349184261665 -2.167970687508217

weight_2 f8 [32, 10]
000000 0c 2c 24 ee 00 6f 0c 40 1c de 41 02 14 42 0a c0
       3.5542009930409275 -3.2822647262908173
000010 de 9d f6 df 93 65 08 c0 07 66 74 42 f7 9e f1 bf
       -3.0495984551559863 -1.1013100238691338
000020 23 ba 31 e0 7c 6d c2 bf c1 21 da c2 4e 8e f1 bf
       -0.14396630236611072 -1.0972430812272338
000030 81 e4 c9 0c a3 ff 01 c0 54 34 7e 5a e0 b9 e1 bf
       -2.2498227118599634 -0.5539399878922588
000040 c2 d1 f2 c6 0f 7a 08 c0 42 c4 85 52 71 05 06 40
       -3.059600405011424 2.752657551486238
000050 ad 59 22 4d cf c8 11 c0 65 eb 6f 7c 10 77 10 c0
       -4.446103291722847 -4.116273826914811
000060 e8 2c 67 7f 81 4d d6 bf 05 7d 38 46 8c 1e fa bf
       -0.34848058168127105 -1.6324579947466316
000070 e4 98 89 54 49 4f e6 bf 40 ca 0f 9d e0 30 d9 3f
       -0.697178521263393 0.3936082395368068
000080 f0 2c 8a 36 73 39 0b 40 08 07 b8 bf 9a 92 00 c0
       3.403051782695563 -2.0715842226062513
000090 e0 c1 d5 41 8d 76 d7 3f 00 eb 8a 17 48 51 04 c0
       0.3666108267707653 -2.5396882857579612
0000a0 95 8b 12 0d 99 ec f3 3f 49 37 23 4c 6c b1 22 c0
       1.2452631483690528 -9.346529368685554
0000b0 71 bb 0f c3 6b 15 0e c0 42 a0 eb 84 2a 95 03 c0
       -3.7604594458747944 -2.4478350052268363
0000c0 93 24 68 67 95 c7 f0 3f 18 a9 f3 e2 2b ac 0f c0
       1.0487264670685235 -3.9590680819138804
0000d0 67 0d 2f 5f cf 68 12 c0 2b 9e 1a f2 37 72 f8 bf
       -4.602353560683105 -1.5278853852449952
0000e0 35 41 80 43 1c 9d 03 40 85 1d 31 39 96 92 05 40
       2.4517140649333222 2.6965755909074596
0000f0 61 80 ba f1 ed c1 19 c0 fd 63 6a 16 3b 76 ec 3f
       -6.439384247787616 0.8894324720196206
000100 89 02 95 fb 76 d3 23 c0 6f de 6f 24 0f 36 fc 3f
       -9.913017141284643 1.7631980346031033
000110 05 dc 73 27 8f c5 e6 bf bc 0b 87 77 71 58 03 c0
       -0.7116161127622723 -2.41818517094495
000120 8c 70 93 dd 3d 5b 1c c0 26 a9 33 41 44 18 08 40
       -7.089103185771943 3.0118489354982954
000130 2e 66 88 02 d4 43 1c c0 97 94 dc c0 d8 70 00 40
       -7.06623844106211 2.0551009242358975
000140 f9 f3 22 a3 9c c5 05 40 9d 81 f1 b7 b7 10 1b c0
       2.7214901680986228 -6.766325830569625
000150 b7 b5 a1 a1 b4 96 04 40 d6 a2 3a 06 ce 34 a0 bf
       2.5735867145037576 -0.0316528685191934
000160 79 33 9f 71 d4 14 0e c0 29 e9 c2 3b 90 33 d2 bf
       -3.7601708294591245 -0.2843971809012538
000170 1d 6c 7a d0 aa 34 08 c0 58 46 7d 6f d5 e5 0e c0
       -3.0257164275513007 -3.8622235021692113
000180 e6 18 6a 0d cb 46 07 40 a2 d2 ce 2d 3f 6e 19 c0
       2.9095669792178454 -6.357662883518659
000190 f1 6e f6 4d ee ef d6 bf f4 9d 7d da 59 96 14 c0
       -0.3583942185739338 -5.146827138821653
0001a0 6c 99 4a b1 19 32 e6 3f 38 f1 df 53 f5 d5 fa bf
       0.6936157667849279 -1.677235915790403
0001b0 7d c4 5e 8d c1 91 00 c0 6c b7 42 84 fd 0f f6 bf
       -2.071169952826095 -1.378903881686223
0001c0 99 68 d1 ab dc be 03 40 d4 05 5a 83 8d 5b 1b c0
       2.4681943343430928 -6.839407017106584
0001d0 df 49 8a 78 71 9e 0c 40 d7 50 44 48 c3 1a 16 c0
       3.577364865989906 -5.526135567826905
0001e0 d8 40 88 a5 8b 3d d6 bf 9b 20 01 e1 7a c8 0d c0
       -0.34750643887765653 -3.722890622946648
0001f0 34 98 d5 93 26 84 05 c0 22 f6 3e 5f 1f 37 07 40
       -2.689526705699814 2.9019153061951934
000200 59 1c 02 ad ec 73 14 c0 5e 12 0e 0f 94 04 fb 3f
       -5.113207534078435 1.6886177623829535
000210 8b 15 fb 93 50 e0 08 c0 ab 4e 22 aa ea dd 07 c0
       -3.1095286904334833 -2.9833577434272534
000220 08 12 00 de 02 82 19 c0 ae 53 8c 29 69 11 16 c0
       -6.376964062456416 -5.517002724828599
000230 5e 66 ac f9 d3 dc 12 c0 10 b1 00 f3 b0 8a 00 40
       -4.715652371547177 2.0677203163705897
000240 d8 09 de 9f 20 73 d9 bf 96 57 8f 72 fd 12 0b c0
       -0.3976518212513418 -3.3842724752420947
000250 32 14 36 01 73 c1 04 40 d7 fe ce 0d 5d 30 f7 bf
       2.594457635367257 -1.4493074931523802
000260 5b 8e 67 03 e1 8d e1 bf 4d ae 55 8d d5 25 11 c0
       -0.5485692087645008 -4.286947449068589
000270 49 5f 96 23 a3 28 f1 3f ab dc f8 f1 97 5d e5 bf
       1.0724212064869383 -0.6676749921815789
000280 a6 46 e4 7f a3 51 f9 bf 2a a5 17 4c b6 05 02 c0
       -1.5824313159722947 -2.2527891106334623
000290 a7 7d b1 53 28 76 f3 bf 65 5a 87 3f 48 4e 14 40
       -1.2163470525045825 5.076447479854868
0002a0 84 d0 98 62 c8 50 06 c0 01 7c 04 0d 60 4e ed bf
       -2.7894447043309487 -0.9158172849892027
0002b0 e1 e4 28 4d 13 9a f5 bf 21 c7 37 56 d3 b8 0c c0
       -1.3501160635044516 -3.590246842934804
0002c0 43 92 43 d7 a5 af dc bf 1a 40 b3 89 ef 8b 04 c0
       -0.4482206918894784 -2.568327976019657
0002d0 63 91 ac 4b 32 25 d9 bf 38 b5 56 2d 4a e9 fe bf
       -0.3928952921871966 -1.9319555064242433
0002e0 b6 9d 46 d7 6c 67 01 c0 66 6e e4 7e 6e 6f 13 c0
       -2.17550056633237 -4.858819945041978
0002f0 99 80 8b f8 6f 6c 0d c0 35 07 5a 26 c2 de 11 40
       -3.6779479425022825 4.467537497753985
000300 c2 9a 5c 21 4b bc 00 c0 fc ee b4 8e 1c 68 ff 3f
       -2.091940174711767 1.9629178595050112
000310 b2 d1 e9 b3 70 7d f2 bf e8 c6 4f 70 d9 d0 0a c0
       -1.155625059877917 -3.351977231440163
000320 92 f3 6a a3 07 02 10 c0 86 0a dd 34 5c 5d 00 40
       -4.0019822629955275 2.0455860261875527
000330 c3 1a f4 64 20 d7 01 40 5a 18 23 14 91 9d 01 40
       2.230042256068687 2.2019368718347723
000340 ff 97 f2 9b 02 4c 16 c0 82 60 5f 90 35 d8 e3 bf
       -5.57422870319533 -0.6201427287842451
000350 26 e8 cf ed 67 1a 0e c0 ab 40 7f 71 0a 1f 14 c0
       -3.7628935412476663 -5.030313275710948
000360 d6 73 91 7c 88 58 0a c0 25 ca c5 3e 0a b8 16 c0
       -3.293229077519281 -5.679726582357522
000370 a3 e2 fe 93 76 7d 19 c0 0c 31 3e 4e d8 99 10 40
       -6.372522652084316 4.150239203019975
000380 c6 29 97 d0 49 bb 01 c0 38 76 30 9f d1 11 06 c0
       -2.216449384320387 -2.7587006031669965
000390 11 4d b0 cc 75 f8 06 c0 ea 99 97 85 d4 f2 fd bf
       -2.8713184348395164 -1.871784707874776
0003a0 3d 8b e4 48 1a f2 0b c0 a6 b4 cd a7 9c 69 05 c0
       -3.493214196657759 -2.676568327870501
0003b0 3f 0d dd 5a cb 62 11 40 57 0d aa cf 36 1f 16 c0
       4.346478862516334 -5.530482525591046
0003c0 27 3c f4 89 6f c5 08 c0 4e 35 8e 72 8c c6 13 40
       -3.096404149785957 4.9438951396271715
0003d0 41 ef 21 cf 26 75 f6 bf c3 94 9c 20 37 7c 07 c0
       -1.4036014643779284 -2.9356520221504936
0003e0 57 35 b7 57 ea fa ed bf 31 50 82 1e 93 ef e0 bf
       -0.9368793214031638 -0.529244956577264
0003f0 6a c7 c9 06 1a 57 03 40 02 ee 37 9d 3e a7 12 c0
       2.4175301103904774 -4.663324791468314
000400 62 d0 90 fe 26 0e 06 c0 82 56 fb ba 9a 7e 01 c0
       -2.7569103134101605 -2.1868185623123404
000410 ad a1 01 9c 3f e3 09 40 af e2 9f 9e af 9b fa 3f
       3.2359611690519245 1.6630092808028782
000420 4a 0e aa 85 24 77 10 c0 f6 73 50 58 83 a8 e3 bf
       -4.116350258354553 -0.6143204426658702
000430 6e d0 d6 c1 6a d0 f2 bf 17 8f 30 e8 36 93 e9 bf
       -1.1758830615845244 -0.7992205176310304
000440 5f 8c a3 92 f9 d6 08 40 d0 e1 ae 72 43 3b 03 c0
       3.10496820985422 -2.403937240564325
000450 d7 18 8d d7 f0 e2 04 c0 9d f7 cc 50 9a d2 fe bf
       -2.6108109321531674 -1.9264166981006163
000460 e3 53 64 1f e6 1a 00 40 47 db 20 e8 b7 94 13 c0
       2.0131342365734652 -4.895232798581509
000470 42 5d 96 1c 9e 74 01 40 cc 5e 54 37 63 b8 17 c0
       2.181942199076418 -5.93006597950416
000480 7c 4a 65 f8 6c 9e 00 40 31 6a 7a 19 e3 45 ff bf
       2.0773562818442866 -1.9545622821084516
000490 bb 4f 36 28 b9 18 ff 3f de c8 cf 20 79 77 15 c0
       1.9435359545504827 -5.3666730048009565
0004a0 c0 3e 06 6e c9 0b 14 c0 36 cd fb 20 4e 03 0e c0
       -5.011510581141636 -3.7516138626903297
0004b0 e5 cf ab f4 35 4f e0 bf 76 13 73 6f 6e 91 03 c0
       -0.5096692827923986 -2.4460114199632086
0004c0 0e 6e 96 d5 00 e5 fe bf a5 33 5b cd 92 db f1 bf
       -1.9309089988008767 -1.1161067983368664
0004d0 50 5c 4d 84 4a e0 12 40 08 be 0d 03 bf fc f4 bf
       4.719034259053913 -1.3117056006702814
0004e0 99 2f cd 6b c6 f4 ca bf 23 99 24 d1 a1 76 f1 bf
       -0.21059494270081983 -1.0914629144331875
0004f0 4d f5 c5 83 e5 d8 e2 bf 2f a7 bd 5e 43 40 04 c0
       -0.5889766286560786 -2.531378498232605
000500 0f 4b 6e d3 50 ac 05 40 4e 32 6e 10 bf bb 0c c0
       2.7091385381730855 -3.591673019755297
000510 5a 0e 68 ed f4 91 03 40 2b 7f b1 c8 08 33 11 c0
       2.4462679431324377 -4.299838195642034
000520 be 0e c4 8f d9 c4 0d c0 62 12 33 b3 3c 56 eb bf
       -3.7211180907923724 -0.8542769908895702
000530 15 65 0e 39 a5 81 02 c0 f7 a9 a8 c8 72 c5 00 40
       -2.3133034188764534 2.0964103390190263
000540 85 3d 3d 69 b3 1f 09 c0 b5 53 b2 60 87 7f 07 c0
       -3.1404789182485637 -2.937269931261165
000550 d0 a5 bc 96 a5 2f 10 c0 84 42 a5 8e e8 c7 ba 3f
       -4.046530108703749 0.10461286051327973
000560 19 4f 3a 8d 6c 9d 10 c0 74 63 0f d5 ba 7b 07 c0
       -4.153734404262445 -2.9354149480172342
000570 68 a4 f0 1f 67 f6 ff bf c1 ab 8c e1 54 23 ff 3f
       -1.9976569411903942 1.9461258707549265
000580 04 fe cf ab 81 30 b3 bf 70 fb ce 87 8c 5f 04 c0
       -0.07495890087738394 -2.5466547594109485
000590 f8 73 49 34 3c 95 f0 3f 98 65 c9 d3 f3 bf f5 3f
       1.0364343683679618 1.3593633912008496
0005a0 db e2 8e 9f be ee 05 c0 cb e8 0c bd bf e2 12 40
       -2.7415745225410837 4.721434549248623
0005b0 9f e2 37 22 93 c7 fc bf 75 29 45 58 38 3a 10 c0
       -1.7987243019726191 -4.056855563374815
0005c0 e8 c3 7a c1 ee 9e 10 c0 a3 4e f8 fc 95 72 f1 bf
       -4.155207656019208 -1.0904750711096447
0005d0 52 db a8 9d d4 31 ff bf a8 50 f1 d2 34 f9 0e 40
       -1.9496656569078437 3.8716827850240243
0005e0 8e 6c 34 f0 0a 7a 02 c0 db 93 26 78 0b 08 11 c0
       -2.309591175651412 -4.257856252054775
0005f0 e5 e7 7e fe 70 1e 06 c0 39 8d c6 47 0a cc 16 c0
       -2.7648639566877926 -5.699257966512328
000600 9e 13 c0 0a c9 31 0d c0 24 1c bb da e7 94 ff bf
       -3.649309238421167 -1.9738539261031827
000610 3a a9 8d 7a 28 85 17 c0 e7 42 29 a2 09 ed 01 c0
       -5.8800372265780485 -2.240741030582615
000620 21 e8 8f a8 e9 9c 11 c0 c6 27 f5 01 28 8d 18 40
       -4.403235086234447 6.1378479295617066
000630 9e cb 5f c4 25 cf 05 c0 10 22 6f 66 0e 7b 00 40
       -2.7261462537512235 2.060086059824478
000640 9e c5 01 c6 9c 14 10 40 b2 94 ca 63 bd dd 13 c0
       4.0201292933064945 -4.966542777289918
000650 97 11 ca b0 84 27 16 c0 b6 78 2f 39 96 12 fd bf
       -5.53859211190538 -1.8170377954298096
000660 4f 78 33 31 a1 cb 08 c0 6f d5 9b 1b 1f 00 d3 3f
       -3.099428543456305 0.29688241668858145
000670 8e be 76 2e 9d d5 f0 3f f5 49 d2 cd d6 50 01 40
       1.0521518530839873 2.1644722060966566
000680 da 0c 34 d3 07 7f 07 c0 e8 c1 b3 ea d0 f7 d5 bf
       -2.937026643777796 -0.34325049324163937
000690 57 2c 06 76 e6 5c 21 c0 08 7f 72 63 d4 d6 24 c0
       -8.681445778134885 -10.419589145399655
0006a0 d3 d2 5c d2 39 da 0c 40 b5 12 0c f6 2a b0 0b 40
       3.606555598695516 3.4610194418367777
0006b0 16 92 a3 6a b1 80 1c c0 bb d5 dc 28 f4 5e 16 c0
       -7.125676790460167 -5.592728270033542
0006c0 3f 73 8e bd 2d 78 20 c0 96 af 61 d8 4d 28 0d 40
       -8.234723971976221 3.644679728013169
0006d0 52 8d 1f 93 db 7f 19 c0 55 d4 3d 73 44 ab 2a c0
       -6.374861048508437 -13.334506608293092
0006e0 3b 47 f8 c3 ef 41 05 c0 81 a8 e2 8a d5 ae 0f c0
       -2.6571955976623065 -3.960368237535534
0006f0 b8 a5 fa b9 0a 9d 0d c0 dd aa 2c 0a 19 2b 11 40
       -3.701680615388536 4.2920877065432395
000700 d0 a8 aa a0 b0 04 d3 bf 91 8f 66 73 10 fc e9 bf
       -0.2971612519273892 -0.8120195630949515
000710 61 b1 05 35 be a2 0a c0 36 69 7a 1b 90 de 09 c0
       -3.329464353786691 -3.2336733004314295
000720 65 5a f9 12 9b c1 e9 3f c3 84 ab ab a8 b8 f5 3f
       0.8048835154139168 1.3575827318057214
000730 fc 8c 9a 7a 62 1f 00 c0 20 78 99 22 49 8e 10 c0
       -2.0153245523848664 -4.138950863472957
000740 c3 b7 13 51 86 de 71 bf 19 c0 06 f8 b8 85 0b c0
       -0.004362606691968143 -3.4402942063388875
000750 74 3e fc 7b cd 0c 0a 40 53 c7 96 0c 23 2e 06 c0
       3.2562513052324054 -2.7725277884973507
000760 1d 1d 05 44 7c 28 c6 3f 7f fa bd 3f 4f 59 fc 3f
       0.17311051675117364 1.771804093353836
000770 a8 85 a8 35 1c c2 07 c0 da 90 9f 36 e3 1a 11 c0
       -2.969780368047129 -4.276257375229955
000780 20 29 f2 bb 1f 5c 01 c0 6c 26 f4 ec 28 10 19 c0
       -2.169982403113991 -6.265781118776072
000790 44 06 86 83 67 af 0e c0 c4 64 cb da 4d c0 f8 3f
       -3.8356466555858635 1.546949247995415
0007a0 a3 98 2d 9f c3 bf 16 c0 52 be 20 81 63 b0 01 40
       -5.687269675405477 2.211127289592505
0007b0 e7 6c d6 f7 2f 39 f4 bf 84 7a 73 ab db 72 07 c0
       -1.263961761584875 -2.931083049260737
0007c0 39 0b 4b cf ba 37 ea 3f fc 77 94 50 fa 4c 1b c0
       0.8193029450124875 -6.825173625051317
0007d0 5d 42 48 0c 1f 85 11 c0 f4 76 40 d1 ca 36 f9 bf
       -4.3800012511352096 -1.5758770154856707
0007e0 39 28 48 f8 f6 ca e7 3f da 39 08 5c 56 3d fe bf
       0.7435259675269271 -1.8899749369626222
0007f0 98 b5 bc 0e cf 92 f8 3f ca 32 82 56 de d4 f0 bf
       1.5358419967336427 -1.0519698504678439

bias_2 f8 [1, 10]
000000 46 f7 b0 cb c3 81 ea bf 8a 4b 80 87 7d 34 aa bf
       -0.8283404329629114 -0.051181719580333754
000010 4a b5 f5 d6 b3 9c cb bf a5 76 44 f4 ae 8e d0 3f
       -0.2157196807487856 0.2587087045120405
000020 6e 82 59 44 5d cd db bf 1f be 0b db df a9 a6 bf
       -0.43440944361467515 -0.04426478909396913
000030 b8 e7 1c 4a b0 3d d6 bf 20 4f 27 0e b9 41 d7 bf
       -0.3475151752241987 -0.36338640577490544
000040 43 bc 1e 95 91 d3 e4 3f 8d 40 db 27 25 27 e7 3f
       0.6508262550831961 0.7235284594007837

loss_history f4 [100]
000000 08 00 23 3f cc 0b 9d 3e a6 ae 7e 3e 92 57 60 3e
       0.6367192 0.30673063 0.2487131 0.21908405
000010 4f a6 4d 3e 16 c9 41 3e a1 0b 35 3e 25 71 30 3e
       0.20082973 0.18924364 0.17680217 0.17230661
000020 d4 f6 28 3e 60 b4 25 3e af 0f 26 3e 18 76 1e 3e
       0.16500407 0.16182089 0.1621692 0.15474737
000030 a9 8f 20 3e 89 cc 16 3e 38 d6 19 3e a3 87 20 3e
       0.15679802 0.14726461 0.15023124 0.15676741
000040 0e fc 19 3e b2 40 1b 3e 81 18 16 3e 31 ba 13 3e
       0.15037557 0.15161398 0.14657785 0.14426495
000050 67 ed 18 3e 31 a7 17 3e 1e 79 1b 3e 31 e3 1a 3e
       0.14934312 0.14809872 0.15182921 0.15125729
000060 ea b8 14 3e 7a e0 15 3e a5 d1 0e 3e 33 2d 19 3e
       0.14523664 0.14636412 0.1394716 0.14958648
000070 16 20 16 3e 2e 81 16 3e d1 4f 1c 3e ec 0c 1a 3e
       0.14660677 0.14697716 0.15264823 0.15043992
000080 f9 83 19 3e 21 6a 25 3e fd af 1e 3e 40 dd 29 3e
       0.1499175 0.16153766 0.15496822 0.16588306
000090 97 a0 21 3e a0 84 24 3e 09 8b 1e 3e 36 8b 25 3e
       0.15783916 0.16066217 0.15482725 0.16166386
0000a0 a9 56 23 3e eb 31 2d 3e e3 c4 27 3e 7f 83 26 3e
       0.15951027 0.16913573 0.163837 0.162611
0000b0 41 55 2e 3e f6 c5 2c 3e 1e 2e 26 3e 71 2d 33 3e
       0.1702471 0.16872391 0.1622853 0.17497803
0000c0 be c8 36 3e c8 7f 31 3e b9 dc 33 3e ef 07 2d 3e
       0.17850015 0.17333901 0.17564668 0.16897558
0000d0 46 16 35 3e cb 57 36 3e 7c 41 31 3e 4b 6d 41 3e
       0.17684278 0.17806928 0.17310137 0.18889348
0000e0 bf 02 3d 3e 2f 91 33 3e 88 83 39 3e e1 47 3d 3e
       0.18458079 0.17535852 0.18116581 0.18484451
0000f0 66 71 33 3e ca cb 3f 3e 18 9e 3c 3e 74 53 4c 3e
       0.17523727 0.18730083 0.18419683 0.1995371
000100 6a 1a 40 3e 9a d8 3d 3e 68 fe 43 3e 88 d8 4e 3e
       0.18760076 0.18539658 0.19140017 0.20199788
000110 18 a2 42 3e 0a 2f 4e 3e be 8c 3e 3e 02 65 4e 3e
       0.19007146 0.20135131 0.18608376 0.20155719
000120 dc a0 55 3e a2 74 4a 3e de 59 53 3e 57 b4 4e 3e
       0.20862144 0.19771054 0.2063975 0.20185982
000130 db a0 58 3e 97 a1 4e 3e 15 40 55 3e 15 77 61 3e
       0.21155111 0.20178829 0.20825227 0.22018082
000140 55 5e 5a 3e 21 ea 63 3e ff 6e 53 3e 7e 9e 5e 3e
       0.21325047 0.22257282 0.2064781 0.21740147
000150 74 0e 60 3e 86 b7 69 3e 09 bd 69 3e d1 48 69 3e
       0.21880513 0.22823915 0.22826017 0.22781684
000160 d5 c1 61 3e 2f 03 6d 3e d3 26 69 3e 73 2f 6d 3e
       0.22046597 0.23145746 0.22768717 0.23162632
000170 9d 49 62 3e 2e 58 70 3e 87 96 6b 3e f3 e7 72 3e
       0.22098394 0.23471138 0.2300664 0.23721294
000180 3a 10 5f 3e b6 06 78 3e 48 cd 71 3e a7 86 77 3e
       0.21783534 0.2422131 0.23613465 0.2417246

accuracy_history f4 [100]
000000 8c a5 a0 42 fd 22 b6 42 ef ae b9 42 e5 57 bb 42
       80.32333 91.06834 92.84167 93.67167
000010 55 55 bc 42 0a 17 bd 42 1b e8 bd 42 29 1c be 42
       94.166664 94.545 94.95333 95.055
000020 89 88 be 42 3a ed be 42 1f c5 be 42 29 1c bf 42
       95.26667 95.46333 95.385 95.555
000030 cd 4c bf 42 5c cf bf 42 41 a7 bf 42 89 88 bf 42
       95.65 95.905 95.82667 95.76667
000040 52 b8 bf 42 52 b8 bf 42 1b e8 bf 42 a7 0d c0 42
       95.86 95.86 95.95333 96.026665
000050 44 c4 bf 42 85 eb bf 42 cd 8c bf 42 0e f4 bf 42
       95.88333 95.96 95.775 95.97667
000060 f6 28 c0 42 07 fa bf 42 0a 57 c0 42 b1 e4 bf 42
       96.08 95.988335 96.17 95.94666
000070 2c 39 c0 42 7e f1 bf 42 f6 e8 bf 42 11 11 c0 42
       96.111664 95.971664 95.955 96.03333
000080 33 f3 bf 42 4b be bf 42 85 eb bf 42 6a 83 bf 42
       95.975 95.871666 95.96 95.75667
000090 9a d9 bf 42 b5 c1 bf 42 e5 d7 bf 42 b5 c1 bf 42
       95.925 95.878334 95.92167 95.878334
0000a0 7b 94 bf 42 66 66 bf 42 bc 7b bf 42 74 9a bf 42
       95.79 95.7 95.74167 95.80167
0000b0 a4 70 bf 42 e5 57 bf 42 4b 7e bf 42 c9 2f bf 42
       95.72 95.67167 95.746666 95.59333
0000c0 11 11 bf 42 26 3f bf 42 03 1d bf 42 7e 31 bf 42
       95.53333 95.62334 95.55666 95.596664
0000d0 8f 02 bf 42 4f 1b bf 42 da 40 bf 42 6a c3 be 42
       95.505 95.55334 95.62666 95.38167
0000e0 8c e5 be 42 cd 4c bf 42 66 e6 be 42 f6 e8 be 42
       95.44833 95.65 95.45 95.455
0000f0 77 f7 be 42 03 dd be 42 8c a5 be 42 b5 81 be 42
       95.48333 95.43166 95.32333 95.253334
000100 9d 76 be 42 c9 2f bf 42 89 c8 be 42 41 e7 bd 42
       95.23167 95.59333 95.39167 94.95167
000110 3a 6d be 42 18 0b be 42 0a d7 be 42 52 78 be 42
       95.21333 95.02167 95.42 95.235
000120 66 e6 bd 42 77 37 be 42 60 ec bd 42 b1 24 be 42
       94.95 95.10833 94.96167 95.07166
000130 ab ea bd 42 4f db bd 42 82 ce bd 42 ae 47 bd 42
       94.958336 94.92834 94.903336 94.64
000140 f2 cb bd 42 e5 57 bd 42 33 b3 bd 42 4f 5b bd 42
       94.89833 94.67167 94.85 94.67834
000150 1b 68 bd 42 77 f7 bc 42 f6 a8 bc 42 cd 0c bd 42
       94.70333 94.48333 94.33 94.525
000160 c3 f5 bc 42 bf d8 bc 42 0e f4 bc 42 93 1f bd 42
       94.48 94.42333 94.47667 94.56167
000170 ab 2a bd 42 74 5a bc 42 33 b3 bc 42 59 b2 bc 42
       94.583336 94.17667 94.35 94.348335
000180 29 1c bd 42 3a ad bb 42 85 ab bc 42 ef ee bb 42
       94.555 93.83833 94.335 93.96667

val_loss_history f4 [20]
000000 01 d0 de 3d 1e 1f 00 3e 15 26 7f 3e ee 55 df 3d
       0.10879517 0.1251187 0.24916871 0.10905062
000010 14 be 31 3e b4 78 42 3e 3b ab 66 3e 1c 85 62 3e
       0.17357665 0.18991357 0.22526257 0.2212109
000020 94 9a 91 3e 2c 64 0f 3e 41 2e 08 3e 25 33 80 3e
       0.28438246 0.14003056 0.13298894 0.2503902
000030 71 37 be 3e 9d 7b 9e 3e fe e0 8d 3e aa 57 5d 3e
       0.37151673 0.30953684 0.27710718 0.21615472
000040 d9 59 9a 3e fd ac c7 3e 97 76 a8 3e 0f c4 5d 3e
       0.30146673 0.38999167 0.32902977 0.21656822

val_accuracy_history f4 [20]
000000 66 66 c1 42 66 66 c1 42 66 66 c0 42 33 33 c3 42
       96.7 96.7 96.2 97.6
000010 cd cc c0 42 9a 99 c0 42 cd cc c2 42 33 33 c2 42
       96.4 96.3 97.4 97.1
000020 66 66 c0 42 cd cc c2 42 00 00 c2 42 9a 99 c0 42
       96.2 97.4 97.0 96.3
000030 cd cc be 42 33 33 c0 42 33 33 bf 42 9a 99 c0 42
       95.4 96.1 95.6 96.3
000040 66 66 c0 42 9a 99 be 42 cd cc be 42 33 33 c0 42
       96.2 95.3 95.4 96.1
