checkpoints/model_epoch_0020.npz (npz, 409089 bytes, 10 tensors)

weight_0 f8 [784, 64]
2.4524053412640162e-216 -4.5142710046166155e-213 2.5454587654891985e-217 4.0230133145861336e-216 3.858435014414395e-217 4.836173674414776e-217 2.1430168629365066e-210 3.3524598959775073e-215
-7.515586015110895e-218 -6.22937844155174e-216 -2.8086828211129992e-217 1.659615407307848e-219 1.6556168472051556e-216 8.57845825793912e-217 3.528462204031396e-218 6.330163665602863e-216
4.594252530264134e-216 -2.711253356776247e-220 3.551365432912497e-218 1.1794138565017519e-214 5.996031957173286e-212 -3.165675225206917e-217 -6.377624690706234e-215 -1.4731529241275687e-212
-2.191042950318962e-216 6.326012287929799e-215 6.859617199223592e-217 1.4517222812469948e-215 2.0535411157303114e-213 -7.444656210191786e-218 2.2736899607832494e-215 -8.518044413156038e-215
-1.2483173526050223e-217 2.376737280611548e-216 -3.3595693212044075e-217 -8.102889090671802e-219 -1.7479375858111108e-215 1.6821876982918565e-214 4.209243525332852e-218 3.523394093105103e-216
-7.872953645210262e-218 2.848959170596706e-217 -4.457752558755786e-212 -4.993849042278181e-218 5.2013995262516404e-216 -2.948628113153897e-220 1.071954208125923e-218 -6.786173037274936e-215
1.7441855831391707e-215 7.741683186588625e-218 -5.081274221057369e-216 5.7693083641634154e-213 -1.0624258178419135e-216 -1.023593950930986e-216 -1.1711990640831155e-211 1.0064466871580817e-215
2.5847235578840468e-219 3.253659611899881e-218 -4.719880988351319e-215 -5.463861989064027e-217 1.4811080008408672e-216 -8.057942648552967e-206 2.475688939504022e-213 -1.4596514581311132e-215
6.706415833590449e-210 -2.0411114232261876e-217 1.7440188517177174e-215 -1.223022845568744e-216 -1.1783297760746666e-212 -4.626238103746588e-216 2.255706012993117e-215 5.844606701594113e-217
1.3652725320946697e-216 6.401143070193577e-218 -2.858481737063245e-217 -4.508176230257916e-214 9.631225129376974e-218 -9.883566234821417e-217 -2.5971254895215964e-202 2.6153144691283144e-216
-1.8636203436849447e-217 1.1842976643024045e-215 -7.401133437473775e-215 -6.630681368174267e-215 4.537603265737526e-217 9.971408171009695e-217 -4.9379389830021e-218 1.486141341119151e-216
5.666408271357563e-217 -1.9072798572842405e-208 -2.8612131370372054e-214 -3.5610020366267903e-217 -4.0103529891595006e-215 5.096783988975865e-216 9.947917566035784e-217 3.6285622616529967e-218
3.70166478118459e-217 -5.723228822010528e-217 1.6513822213435411e-217 -3.5497484714804966e-217 2.3193609391202492e-215 -1.2697376339636014e-217 -1.227397371535237e-217 3.572224427418862e-215
2.351504041656616e-217 4.899190215049878e-217 7.69340217461642e-213 1.49173021916948e-216 -2.3681348827193557e-218 -6.618694855587817e-216 -1.4553039140327142e-212 -2.0738479631292465e-217
-6.541909936722211e-216 -7.591101499118648e-214 8.43599190005736e-215 2.1968772021860035e-213 7.782678674117752e-214 1.2932030342542002e-211 -5.799486272864346e-217 -1.734692038780843e-219
-1.0916668518976227e-216 -4.862800932021914e-220 -5.183791534886722e-217 7.238315665564035e-215 -2.48873677127387e-217 3.753346679801927e-217 -2.132415697310035e-218 -9.13883134947201e-218
1.5566209181589625e-218 1.669608260550156e-213 7.485380326856031e-215 2.276903471275971e-216 1.1769765931505178e-216 -8.728940015179527e-216 -3.309576430322328e-219 1.2213973354623975e-206
-5.881765453066086e-219 -5.2634529397721844e-217 -6.0122728464186954e-217 6.779682205787078e-216 -2.398888464073407e-216 -1.3587602843838797e-217 -5.741469596307318e-215 -1.026535934003357e-215
-2.1345492466503258e-215 6.858979865532573e-215 2.9253036931058785e-219 -4.878968921519432e-215 -4.4564661873458577e-212 -1.00536752364272e-216 2.0086978376789476e-217 1.8228488672048206e-210
4.510142050253789e-214 -3.787709163813721e-216 -6.496710988014579e-217 2.819131123263515e-216 9.490545856496842e-218 -2.6309625557360388e-216 -2.3939316249345906e-202 2.1974202561371497e-209
3.700639102689413e-218 2.6083330917056947e-215 -9.80282006780433e-212 3.527419538952756e-219 -1.5641211775964284e-217 3.690320289574836e-217 -1.1894836980199972e-210 1.6966224376110384e-218
8.213301700228109e-217 -8.630834220380623e-215 -3.230521902881593e-212 -2.1056919384059717e-218 -1.8158145336954125e-218 -2.0361104424585842e-216 1.2355342626368233e-217 -2.0438462641330243e-217
-1.0960076386008605e-216 -2.3961248041406877e-207 -6.0461106625851e-218 1.0072774928710634e-214 -2.506018453094254e-218 1.4143090183742316e-215 -1.7551911812924755e-217 -4.645979619141248e-217
7.895921017844217e-216 -1.203759238935631e-216 8.094494368682852e-217 -1.952620982855829e-214 -1.472676746766029e-216 1.8050738706043164e-215 -1.4797296263363886e-217 1.7830336292505674e-216
9.782886310013239e-211 1.2228709224143398e-217 -9.738457782643419e-217 5.236457302665147e-218 7.874291223385145e-218 -3.600829324127806e-218 -3.190179956901587e-216 -7.592546032023341e-218
-1.7148869266307701e-217 4.602302264686303e-217 -9.006855809787287e-214 -1.2069070218534137e-210 -2.0906433921641445e-218 2.1346690345290462e-216 1.6285416225892695e-217 -3.4133362858528893e-217
-2.7421887326389467e-217 -3.0911653086166436e-218 -4.160380243836521e-216 -2.5557304284529637e-218 -4.4482054032447395e-217 1.095513078525657e-211 -4.291277757256581e-215 -6.8945417031228224e-217
-2.0842357828468244e-216 -3.537534472167489e-217 -9.108859103797938e-205 -5.9496854863560055e-217 1.326289340440734e-216 -3.828720471900103e-217 1.1384854637419366e-217 -2.0833218532675453e-214
-9.335000937285297e-209 9.033324668319108e-215 -1.2427125433107875e-216 1.6481822482989186e-218 -1.8884160215710706e-216 -7.415620481867295e-217 -2.3333397052411087e-216 7.069698934155518e-216
-4.0827930352162406e-216 2.2921965498859732e-212 1.43108664363484e-219 -6.928237168221936e-217 3.528604565052118e-219 -6.292024321431533e-214 -2.698667872661174e-217 9.859776208653353e-217
1.2410656411551319e-217 -2.1659707430988805e-219 1.1188129981129207e-216 1.241060407821413e-217 -2.740638859408978e-217 -1.3852639612412782e-217 -3.5283204627624514e-219 -8.502405364926519e-217
4.700486486117273e-217 5.6453877416631744e-216 -8.669254462518315e-217 1.1126243072027497e-217 -3.1617364919999686e-216 2.3709893939842264e-212 2.8256936607943438e-219 -5.2815416066463206e-216
00000000: 5f7f 937d a00d 2b13 07e0 928a c950 d893
00000010: 4da5 1897 ba76 f612 3002 59db 8530 3613
00000020: 4c73 0b7e 8206 0113 ae77 5002 f856 0513
00000030: 6be0 eaf9 8c8b 6614 4995 7df7 1e1d 6713
00000040: a252 2ce5 b787 da92 f78b cf81 f62d 4193
00000050: cb54 1358 68c9 f892 8ed3 697d 42bf 8212
00000060: 2daf a52e 7c43 2213 eac2 c31d 23ed 1213
00000070: e455 faa3 3be9 c812 de86 881d 1e75 4113
00000080: a204 f7db 1d57 3913 6027 9e08 4d80 5892
00000090: f557 75a7 a012 c912 3230 407a 3054 8413
000000a0: 16dc e016 812f 1414 a005 22c7 edef fb92
000000b0: 9915 8d17 48fc 7593 9110 afe1 5fd6 f393
000000c0: 808c 282f 892b 2893 77b7 a4c2 bbce 7513
000000d0: b261 8b71 a944 0e13 4ca9 2ae0 9a04 5413
000000e0: 7a7d a331 4f1f c613 f183 f7c3 9e47 da92
000000f0: 72df c24c 2a5a 5f13 e1bb 1b1b 365d 7d93
00000100: c2e4 2ecd 6c08 e692 0e59 1f73 f037 2a13
00000110: 97c2 a6fd f9a5 fd92 06ac 16c9 f6e1 a692
00000120: 4fe2 920b 401a 5893 9f26 d09d b0fe 8c13
00000130: 5ad6 67ee a7b7 cd12 7137 dc9a 0e6f 3313
00000140: 5fcc 8779 aaca db92 cdf8 ce7e 6624 f912
00000150: d507 040a 9103 0e94 9ce8 9522 dda0 d192
00000160: 3885 3d95 69b0 3c13 bc72 188a 73a5 5a92
00000170: 80fb 4fbc aa45 ae12 eedd 69ca d364 7793
00000180: 7e5a 2e6b 010d 5813 9d11 95f1 0954 db12
00000190: 9502 1c6f cb06 3c93 2e98 47eb 5f13 df13
000001a0: 9072 7b55 9c70 1793 7f42 a886 4995 1693
000001b0: ef27 8a5a d1b6 2394 0f54 c579 8cc1 4b13
000001c0: bb56 c17e 7a32 8d12 5799 9f34 90f8 c612
000001d0: a8a0 97c8 5045 7093 208e 7e4e 021c 0893
000001e0: 58ea 686f ab56 2013 ce97 cdef cade 5995
000001f0: 2e55 d807 85ab ca13 00b7 8159 9820 5493
00000200: 4ed8 5b8d 69a3 8114 e9e9 8b3d 4d03 f292
00000210: 471f ffbe 6a0c 5813 2cf8 01cc aafb 1a93
00000220: 2b07 b255 12bc ef93 3e1f 3cce 4784 3993
00000230: 18e9 4e7c ae1a 5f13 592e 6ab1 19ca 0913
00000240: 7cbe a4ed 181f 1e13 16c6 6912 9d98 d612
00000250: 8970 caf2 e939 f992 6d2b a042 1b6d a393
00000260: bcd9 7555 cbff e012 c30d 960b 44ce 1593
00000270: 74db b4c9 585b 1496 7848 cc3f afd9 2c13
00000280: e30a 1ed8 4f72 f092 5a79 3d67 9754 5013
00000290: ec66 bd54 8883 7993 c3a2 6cf0 9adb 7693
000002a0: 696a 43b5 b305 0413 fd4d 7411 e1ff 1513
000002b0: 4f55 c5b8 566e d192 03e5 bd46 e264 2013
000002c0: a1ba a571 ce00 0913 c257 0f7f 0a5a cf94
000002d0: 04a3 e52a 95a8 9893 462a 9f39 0e6d ff92
000002e0: a6ef efd9 4ea6 6b93 87e6 fdce b11c 3c13
000002f0: 0ba8 b092 9cf2 1513 487f 9e94 269e c912
00000300: f16c 17d4 6b55 0013 2f65 70c1 fd40 0993
00000310: c5ac 7a6e a425 ed12 1de6 8ea2 a153 ff92
00000320: cf27 1c74 62fb 5f13 d4a4 76fc 3569 e692
00000330: e2bc 7c52 e6a9 e592 f12d 0cdd 01a1 6813
00000340: 5a7a 0a50 8bc0 f412 8d51 3312 279e 0513
00000350: eddf 1832 44b8 e413 3f2e febd aa74 2013
00000360: 1637 36ea 17b8 c092 89be a558 d240 4293
00000370: 642b 640d d898 f393 8e16 9dae 424d f292
00000380: a5a6 847a 9c0a 4293 4113 6cd4 fc5a b093
00000390: 6fa6 e3b5 cc14 7d13 6552 9cf8 9aaa c713
000003a0: 7896 1ca9 a7c4 b013 768c 04a6 8bc4 2514
000003b0: 7386 adcf 2197 0993 18ca fb97 5d98 8392
000003c0: 47ec 9acd c315 1893 78c2 b755 e1f8 6592
000003d0: 0e47 f5cd a3df 0693 66d7 b05b d8f3 7813
000003e0: 97f2 bef7 94f6 f592 86b7 5626 cd8f 0013
000003f0: 9eb6 5caf 1f1c be92 3f8b 085a 4f21 e092
00000400: 4e2b cbcd c6fa b512 52b4 2242 7dfc c113
00000410: 64cc 7a7b e1cd 7913 f1ed e8d6 011e 2913
00000420: d6f2 76be 98f7 1913 0856 2a80 a912 4893
00000430: a59d 7ced 4cb1 9292 57cc 9d1c e55e 2f15
00000440: c054 8943 359c a092 3822 5736 a039 0793
00000450: 151b de39 7f87 0a93 b8a8 27b3 7ab2 4213
00000460: df4f 1298 7e76 2a93 5f22 b6eb 73fb e792
00000470: 2267 0139 dfca 7393 6336 0428 614f 4c93
00000480: 9a19 6fff fe6e 5d93 06bd ff63 14a5 7713
00000490: d473 9db2 ae85 9012 0076 691b b6d1 7093
000004a0: 0775 c86c 5901 0e94 0e56 f305 582e 1693
000004b0: be17 fe94 12ba f112 48a1 590f 472d 6314
000004c0: 48f1 1a69 466f a313 0807 0d93 45e4 3493
000004d0: 0614 df93 b8aa 0c93 06cc 3601 4419 2f13
000004e0: 1802 50bc 3ac0 e012 71fd d5fe df05 2d93
000004f0: b57d 271e 9fc3 1296 0797 5930 96e5 9c14
00000500: e043 db8e 6b20 ca12 fded b10c bbfb 6113
00000510: 0dd5 0fef 2280 2094 b7bc ee5e 47ec 9312
00000520: 5116 032d 5c9b eb92 a3f9 493d 9b48 0013
00000530: b1a8 db9c 0207 5994 aef8 436a d8f4 b712
00000540: fdbd 8a4e e51e 1213 b6ea 80b4 bfc0 7d93
00000550: 46f0 e7d5 42c0 0594 363e 2e3e 86bb bd92
00000560: 0867 cc8c b1a3 b992 f326 861a 0176 2693
00000570: 8d55 3265 aace e512 566f 2bf5 7a09 f292
00000580: 738c 2520 482e 1893 2f11 f596 f89d 0895
00000590: fd38 f5ba c657 d592 9449 b247 a25c 8113
000005a0: 53b5 2fc6 4cb1 c192 e604 5517 8980 5313
000005b0: 4670 bded b1fa ee92 944c 72e0 1f80 0493
000005c0: 5056 263c 8cc6 4513 0c7d 3da4 dd8e 1a93
000005d0: 6556 2c03 cbdb 1113 29cc 46c8 fdd3 9093
000005e0: d3f9 9c14 dc3e 2093 a761 e037 f1e3 5813
000005f0: a3f3 b91b 0b1e ea92 c981 ead5 4fab 2313
00000600: 3efc b2f9 6e95 5414 fd8e 6c81 7295 e512
00000610: 1de9 73e2 4e7c 1593 86b5 7fe9 1a7c d212
00000620: 4d7b 14ea dfcb db12 c370 1ced 066c c992
00000630: aa12 e86d 8e98 3193 7d7b d712 44cd da92
00000640: ddf4 0259 9544 ee92 4946 414d c94e 0413
00000650: a67d 9853 de67 b393 d176 92dc db64 5994
00000660: 9b25 e2b9 2085 bd92 1e3a 70cc 558c 2713
00000670: 6cd6 c457 70be ec12 f8e1 518c 721f fe92
00000680: faf3 bdf3 2e33 f892 380e 314b e0d2 c592
00000690: 2a32 a266 7cf2 3693 58c3 d7d4 250b c292
000006a0: 9798 90b8 b7a0 0393 dd04 92d6 ad70 2214
000006b0: 8da6 a486 2496 6d93 441b afe0 1c6c 0e93
000006c0: 653a a033 e9fd 2693 2981 ef91 0938 ff92
000006d0: 1858 7beb 1547 9295 419d 2546 cc40 0a93
000006e0: 97a9 1752 eb42 1d13 6efe 77ab f1e4 0093
000006f0: fe74 457c 2818 e412 7fca b2ff 59f4 9193
00000700: 683d 752e 8ab0 be94 56b5 eacb f223 7f13
00000710: 484c 0a09 e06a 1b93 4e51 4b2d bf45 b712
00000720: fa97 c9c7 e9d4 2493 6ffb 70f7 5c5c 1093
00000730: b1d1 2347 62bd 2993 2ce0 1d6c 3b7f 4313
00000740: 3be4 a7a8 ee84 3693 010c 3d74 d9dd fe13
00000750: e427 fb07 672a 8012 35cb 49e6 2c92 0e93
00000760: 26a9 da01 feed 9312 6b82 8373 ec1c ab93
00000770: 1de9 e04f dcd0 f792 c888 c541 d4c0 1513
00000780: 8596 46a1 a8e7 e512 2f38 eb7d 8877 8892
00000790: 513c c248 16af 1813 80a0 9593 a2e7 e512
000007a0: 9ca8 0892 ae2f f892 681a a426 3573 e892
000007b0: 1046 d6d8 94ed 9392 bd28 56aa 2ec2 1293
000007c0: 2917 a01e b2bd 0413 0f36 38af 5323 3f13
000007d0: 29e4 a04b 6b20 1393 a37e 0678 4ea3 e312
000007e0: cf6f c3dc 6470 3193 d799 907b 78ed ff13
000007f0: 2115 9f41 50eb 8f12 f777 20d8 9221 3d93

bias_0 f8 [1, 64]
-0.023628024211048607 -0.18570635790821358 -0.0031579579673911636 -0.04995622261826096 0.0011410083978313005 -0.2035858546707578 0.03289412278158158 -0.16052672118663378
-0.15005279490397264 0.051411941006575486 0.06930963758210744 -0.02739436671332845 -0.2935210637273776 -0.10915334531541558 -0.20843558993372763 -0.19700280007142776
0.24764809375621089 -0.07617200298872809 -0.1171165293076519 0.048134577870650674 -0.06326312689045391 0.23424924345650597 -0.08908196534630865 -0.14881663949421048
0.10047408218309761 -0.11171045540209258 0.022292595125568054 0.1933959522186292 0.12053449067687963 -0.03756921193937653 0.04720633026493857 -0.09590026755298127
-0.07859060039418565 -0.038189563424712816 -0.06104569450315887 -0.2443354785123475 -0.008231663306974895 -0.17261094167778143 -0.016003164813596243 0.06471144815361897
-0.03570489454388556 0.043368862860053765 0.0285296960034776 0.0106409540623403 -0.15023060328193025 -0.025573653789012267 0.04099169553953516 0.06242334267683519
-0.30600602380603464 -0.10967607403617216 -0.04762677693747166 0.05901685032755381 0.05630249963132294 0.1116165799804706 0.035988144771465884 -0.3045202595926735
-0.3071522305352268 0.04054316666186446 -0.21544262116419277 -0.11445963093062451 0.027508583322530738 0.03950562637967913 0.14571219852412828 -0.07117330781114344
00000000: e4ae 05dd f131 98bf 9501 f0d6 39c5 c7bf
00000010: 1195 25c6 b7de 69bf b316 c1ac dc93 a9bf
00000020: 9b8e 3370 bcb1 523f 469b deed 190f cabf
00000030: 45ae 279b 7fd7 a03f dbba d0bc 238c c4bf
00000040: 459a 6413 ee34 c3bf e986 7e7a aa52 aa3f
00000050: b377 b6c2 46be b13f 2f75 83d4 440d 9cbf
00000060: a55b 5992 0cc9 d2bf cbf2 6040 79f1 bbbf
00000070: ea3d 0b75 04ae cabf 937b c343 6337 c9bf
00000080: e8c1 ccc7 eeb2 cf3f 4218 b525 0280 b3bf
00000090: 2e88 324f 59fb bdbf 50bd 856b 18a5 a83f
000000a0: ca85 0925 0332 b0bf 6714 e113 e1fb cd3f
000000b0: b167 d35f 13ce b6bf 7e37 dd73 6c0c c3bf
000000c0: f06f 1261 abb8 b93f c9c0 9270 0e99 bcbf
000000d0: 6875 07bc ded3 963f e698 fad4 32c1 c83f
000000e0: 7a49 7f2f 59db be3f 6b73 3b91 453c a3bf
000000f0: 3dde 4d99 6d2b a83f 1555 d180 eb8c b8bf
00000100: e14d 777a 831e b4bf 5252 ea1b 958d a3bf
00000110: eec4 e79a 6141 afbf 0045 bb8c 6246 cfbf
00000120: c3a5 8f25 c3db 80bf f70a b886 1d18 c6bf
00000130: 2b0f 0736 2263 90bf b920 7ff1 ed90 b03f
00000140: 3c09 bf74 e947 a2bf 891a 4c8f 7134 a63f
00000150: d0f3 327d e336 9d3f 2c63 91ad ecca 853f
00000160: 8f24 faa3 c13a c3bf 6ef2 a6da fa2f 9abf
00000170: ecf1 7f0f ddfc a43f f8a6 9bce f3f5 af3f
00000180: 030f 284a 9a95 d3bf be97 232f bb13 bcbf
00000190: e37c b872 8962 a8bf f6b8 23e4 7437 ae3f
000001a0: affc 3265 aed3 ac3f 091e b578 e792 bc3f
000001b0: 27a0 acc1 096d a23f ace0 fa8a 427d d3bf
000001c0: 40b4 42d4 61a8 d3bf 1629 c7ed 12c2 a43f
000001d0: ec48 08b2 9f93 cbbf d12b 8ff3 394d bdbf
000001e0: eb11 ebc6 352b 9c3f 1f10 9eda 143a a43f
000001f0: bf0a a583 b2a6 c23f f3a1 65f5 6938 b2bf

weight_1 f8 [64, 32]
-1.1677073644721596 0.34812453490771406 -2.2332254089628263 0.24625639013413667 -1.2482676220528506 0.5390442737541379 -0.5861771440984384 0.11801223754147781
-0.0020445864332577193 -1.1898442638496414 -0.04606574258057248 0.144339375000327 0.8739179756095625 0.685737895573853 0.6090057955494911 0.5537205483613229
0.06832751030534838 -1.137964991366825 0.44669191492381133 -1.2026695357588761 -0.21244102853849325 -0.5215813853542149 -2.4534276731484086 0.6902817035997824
-1.8299099607200304 0.9072535194551989 -0.03997402906553481 0.12918560999640538 -0.3890149383067618 -1.9810615795144784 0.36910996112524186 0.09308315532071988
0.4455566194212058 -0.5119489248920545 0.06056961337666178 -0.7006638465670164 0.36804020594877523 0.2639646700347956 0.5377507672643396 -1.1624138819371004
0.1916114009013354 0.26094695226345893 0.6762635127959535 -0.6294733751137073 -0.5738630574332932 0.2629677635807325 0.37609027038091064 -0.29636290146389616
0.031802508439972746 -0.7913225400423571 -1.6555530703007737 -0.9963432625885364 0.3681823544611654 -0.07344567173231688 0.08857626994722125 -1.930090741159462
0.1810217172215179 -0.49165627128195627 0.06706647868413211 -1.8647312738853943 -0.4832092468960909 -1.1728275450325416 -0.3228113923466697 -0.36673166907846627
-0.44246837201463995 0.15770929108368748 -0.3369239082398329 0.5538922749613088 -0.37036202083573644 -0.4586048907407072 0.677754797156971 -0.7345188176870011
-0.024588259503554272 -0.014991219938574269 -0.5645068452285763 0.45174424166575206 0.12893836847209614 0.1675682148333816 -2.0229564321504907 -1.0919822612472971
-0.15352910963899294 0.1794108830375173 0.3369350816041061 0.41286487068939826 -0.15918677186422073 0.037867889602652756 -0.08564833811151572 -0.8165189231912738
0.3912567854329276 -1.0369369747996404 0.20323407631821624 -0.2373291658069795 -1.8188021073653386 0.17886156766911765 -1.2354683324760916 -0.013714387640742516
-0.7769512610900482 -0.8007811393074465 -1.3429188945707793 -0.5754447066816771 -0.006604075478272678 -0.8233303973054117 -0.7590402550136254 -1.1030766474761675
0.5290726735399562 -0.5982592151253843 0.523355750532529 -1.0915985488596538 -0.8286869020879739 -1.0814945876950537 0.36403640722803005 -0.5654241863523691
0.6229863976164656 -1.643788685192858 0.4347205153846255 -0.07684819130912937 -1.1771879497632376 1.4644793181605107 -0.8587399146612098 0.2947557841449679
-0.282714909013603 -0.541052924343151 -0.6337603427836908 -0.44046506478020814 0.5756626564935345 -1.454782627289875 0.7200032018956728 -0.27662103709269886
-0.41966390930606207 -0.809660323588014 -1.6035529826803834 -0.13231672473161424 -0.4801587642265987 -2.049248392113988 0.780270666108144 -0.2811752634798067
0.9530164158650035 -0.6213640388147991 2.0969830409933583 -1.817348097575449 -1.3500061216107644 -1.8535219527986524 0.18859445369068836 -0.8961062344420705
0.35554445649307903 -1.230220648351316 -0.12036439871167627 -0.066296748690021 -0.8837000227962943 0.9141440248869313 0.12263328789370004 0.20726319001685395
-0.1145436337323645 -1.342509460022308 -0.2364160721793974 -0.5314293956709113 0.5781321314050349 -0.9757423787111074 1.2802802812721652 -0.5965031648127049
-1.2772089663995632 1.1671018286520711 -0.5935765138846214 -0.5489632409984287 -0.5950814007209426 0.8456668285908717 -0.5461493472650335 -0.43784585290109773
0.40782406994880116 -1.1183484836996727 -0.8829020574731214 -0.6424398299808719 0.8394230709775677 1.1853055217384223 0.5102267061066404 -0.42832496467494774
0.12247505827686275 -0.728257366515919 -0.7750722857988088 -0.178934522011586 0.5994391043331894 -0.6317371981752448 -0.32304849464294827 -0.8470012060986204
-1.044159465034543 0.8596450823163002 0.010097159247343175 -0.7084083792889518 -0.021146347067632378 -0.1559906621436354 -1.0081910199640691 0.988815639983882
-0.7066569309237987 0.21029619940668595 -1.5219378962467396 -1.172062164241783 -0.3710572643211407 0.0999622112160541 -0.9948266879353985 0.4805009710506634
0.06645717100190188 -0.8232374100543457 0.06720710028472263 -1.3325055913008645 0.468953960343365 0.19114459836427194 1.1472098211163861 0.19887951677655208
0.2636792861586109 -1.1289148734446288 -0.26144219099969174 -1.562342838329669 -0.1593174891972587 0.16091757014161368 -2.0626360573662015 0.7754291415900965
-2.1360105315895064 0.6332387146890329 0.07022340704444376 -0.6048471713493195 0.12882261475656845 -1.9032557304910878 0.5777924941895105 0.41517749264509934
1.448021369380292 -1.383682001071324 1.2188376451858667 -0.46559699265726273 0.5179655345792744 0.6603962064112211 0.07222578090534439 -0.7743835286166427
-0.9404344939951489 0.4884229759460178 0.34364755351453014 -1.0067557852058096 0.49382156236053987 1.200863261449211 1.4198050853674578 -0.05552713269133197
1.1673597307368628 -0.7521584296032549 -0.9200813877844375 -0.363557813673361 1.4620891233290727 -0.695363151883979 0.12580689557278207 -0.3912750332695067
-1.1445193598684782 -1.3314374917722736 -1.2586573784811026 -0.4917582615355209 -0.3435904792677284 -0.2642033347721706 0.1903692679152159 -1.3322560193224164
00000000: ea4c dbea edae f2bf 3149 1721 ac47 d63f
00000010: 86bb 8048 a5dd 01c0 2b50 0753 5485 cf3f
00000020: 81f6 5578 e7f8 f3bf ced7 dbc6 d93f e13f
00000030: 5918 f291 f6c1 e2bf dfb7 c4cc 0c36 be3f
00000040: 7984 abfb cebf 60bf 1714 8923 9a09 f3bf
00000050: 6df3 b2d3 ed95 a7bf d863 936f b679 c23f
00000060: a825 94d4 22f7 eb3f 11c3 6399 90f1 e53f
00000070: 71b4 deb8 f97c e33f e1b8 ca27 14b8 e13f
00000080: 0bb7 2d66 e97d b13f 6f9d 5ec7 1a35 f2bf
00000090: 8810 7faf 9996 dc3f 92ad 3f69 223e f3bf
000000a0: 1962 f382 4431 cbbf 2b8f 0972 cbb0 e0bf
000000b0: ba30 1ab0 9ea0 03c0 969f bfa7 c916 e63f
000000c0: c0ac beaa 4f47 fdbf 1ab6 6788 3808 ed3f
000000d0: fe38 0dd7 7977 a4bf 0c31 0671 2789 c03f
000000e0: 44b6 6be9 9ee5 d8bf 5307 76a0 6db2 ffbf
000000f0: a649 ea62 7f9f d73f 0136 e933 4cd4 b73f
00000100: a18b 3be9 ff83 dc3f 8d47 34b6 e261 e0bf
00000110: a012 2bf9 fa02 af3f 33d6 4f96 d66b e6bf
00000120: 2370 0a82 f88d d73f 0654 4612 cce4 d03f
00000130: 6c93 d918 4135 e13f 4961 754c 3f99 f2bf
00000140: c7bb 34ee b886 c83f 7198 7dd8 5ab3 d03f
00000150: 6ef9 dd60 f3a3 e53f 991d fa58 a524 e4bf
00000160: c2df 010f 165d e2bf fed0 1ebe 76d4 d03f
00000170: c94e e8ec dc11 d83f 273f 621a 9cf7 d2bf
00000180: 8a63 5c1b 6b48 a03f f439 c2a5 8352 e9bf
00000190: 55bf 5b37 257d fabf ea0b 0d44 0be2 efbf
000001a0: c1ff d7b8 4c90 d73f 6180 1fe6 55cd b2bf
000001b0: e1fe 9f36 efac b63f 067a 39d4 a6e1 febf
000001c0: db84 aa39 b82b c73f 27e0 81dd 4b77 dfbf
000001d0: cb31 9bcc 442b b13f b4a8 d275 f0d5 fdbf
000001e0: b4c8 227a e6ec debf 2834 dcd0 e6c3 f2bf
000001f0: 53ee 391d f1a8 d4bf 535e 461b 8878 d7bf
00000200: aa4d d4dc 6651 dcbf 8069 bd6b d12f c43f
00000210: 8b5b c84b 2990 d5bf 55e8 ce4a 7cb9 e13f
00000220: 9ae0 cae7 02b4 d7bf 6016 e153 c859 ddbf
00000230: b9e1 0fd4 2ab0 e53f 6764 889b 2d81 e7bf
00000240: 05ba bb29 aa2d 99bf 1d14 e87a b7b3 8ebf
00000250: edfe d3a8 7010 e2bf 2116 07ae 60e9 dc3f
00000260: 9fc4 e46d 0d81 c03f 257c 4711 e072 c53f
00000270: b98d 2ac8 032f 00c0 87e8 3d64 c278 f1bf
00000280: a515 7184 d7a6 c3bf b4a7 9891 eff6 c63f
00000290: b057 1729 5890 d53f 98ce 51c7 606c da3f
000002a0: 056b 8e6d 3b60 c4bf c1e8 d286 6b63 a33f
000002b0: 474d 25ab 0ced b5bf 377e f54a ec20 eabf
000002c0: db70 71e6 590a d93f 2e71 ac39 4b97 f0bf
000002d0: cd18 9cff 9203 ca3f 7c93 c356 cd60 cebf
000002e0: ec7a 103d d019 fdbf 2838 d393 efe4 c63f
000002f0: cea7 3371 7ac4 f3bf 4497 36f3 4916 8cbf
00000300: 84f7 1ee4 c8dc e8bf 0388 92c4 ff9f e9bf
00000310: a0ca d585 987c f5bf eb54 7b04 0b6a e2bf
00000320: 7623 3103 e00c 7bbf 7d57 47fd b858 eabf
00000330: 5331 f4c9 0e4a e8bf 6c43 deb2 33a6 f1bf
00000340: f6f6 c1d0 29ee e03f 1cd0 6f82 f024 e3bf
00000350: 70be 168f 54bf e03f 8f69 3b0a 3077 f1bf
00000360: c4ec e264 9a84 eabf 5c38 cf44 cd4d f1bf
00000370: 2941 e65b 5f4c d73f d706 9876 f417 e2bf
00000380: c4b2 732b 81ef e33f b902 475d f54c fabf
00000390: f68a 1eff 75d2 db3f 3af1 6db4 52ac b3bf
000003a0: 83a7 1708 c3d5 f2bf 32af 92dd 816e f73f
000003b0: d8ab 2721 cc7a ebbf ff67 4d5d 47dd d23f
000003c0: c985 1346 0018 d2bf 18b0 ee38 4e50 e1bf
000003d0: 173f 38c5 c347 e4bf abbc 1062 9430 dcbf
000003e0: 0062 6517 d46b e23f c8fb ef25 ca46 f7bf
000003f0: c807 a527 440a e73f 3bb8 ecb8 28b4 d1bf
00000400: abfc 7103 c6db dabf cebc 55c4 bce8 e9bf
00000410: 7e3f 202c 27a8 f9bf b3d2 b722 c1ef c0bf
00000420: cf6c 4fd3 ebba debf d014 4c57 dc64 00c0
00000430: bccd 1e30 faf7 e83f cac1 4588 c6fe d1bf
00000440: 571f 5648 1c7f ee3f 57d7 33d6 36e2 e3bf
00000450: 31aa 6a0b 9fc6 0040 c88c 4899 db13 fdbf
00000460: 0f7d db04 a099 f5bf 2503 9ba2 06a8 fdbf
00000470: b37c 67f1 dc23 c83f ee73 55fb e6ac ecbf
00000480: 115c 3a89 3dc1 d63f 6d86 b8d8 fbae f3bf
00000490: 31c1 1184 33d0 bebf e06b 74df d2f8 b0bf
000004a0: 244e 2c45 4547 ecbf 4a24 57f8 aa40 ed3f
000004b0: 6486 e728 e564 bf3f 1ebd 64a7 9987 ca3f
000004c0: 3573 d848 bb52 bdbf e8dc 1533 eb7a f5bf
000004d0: 5330 21c1 e142 cebf 7844 5138 7801 e1bf
000004e0: 44d8 a4f4 0e80 e23f a155 bc14 4839 efbf
000004f0: 2d71 1c2d 077c f43f 1798 1ace 8d16 e3bf
00000500: 6181 4dab 726f f4bf 5c99 92f7 72ac f23f
00000510: 46dc 592c 94fe e2bf df6b d95b 1b91 e1bf
00000520: fcbc 5126 e80a e3bf be83 83e1 b30f eb3f
00000530: a985 2732 0e7a e1bf 7390 b99c aa05 dcbf
00000540: f0e8 bc20 ca19 da3f 2d57 3061 c1e4 f1bf
00000550: a461 cdd0 bb40 ecbf f74c 6df9 dd8e e4bf
00000560: c768 abc5 8ddc ea3f e627 3aec 02f7 f23f
00000570: 2bc3 08f5 c653 e03f 5eb6 d51c ad69 dbbf
00000580: 2ef4 df81 865a bf3f ff38 8864 e24d e7bf
00000590: d456 f164 64cd e8bf c423 1590 53e7 c6bf
000005a0: 1fbf a1ea 9a2e e33f 038a baed 3037 e4bf
000005b0: 16dd e097 d3ac d4bf 57b7 fb45 a21a ebbf
000005c0: 901d 228e e0b4 f0bf 52e7 5667 3682 eb3f
000005d0: a4ad ffc5 d1ad 843f e944 a80c 48ab e6bf
000005e0: 1765 5754 63a7 95bf cbb3 3184 80f7 c3bf
000005f0: 6edd 2de8 8c21 f0bf 7321 70b2 60a4 ef3f
00000600: fce6 f9fe ee9c e6bf 3360 7661 fcea ca3f
00000610: bdc3 2e8d db59 f8bf 4fc2 8441 c4c0 f2bf
00000620: 34f6 ccf7 66bf d7bf 8140 029c 1f97 b93f
00000630: 6bdb 3bc7 9ed5 efbf 45f7 1625 87c0 de3f
00000640: 6ab0 0950 5603 b13f 77de 20fb f557 eabf
00000650: 0629 c809 7c34 b13f 5cfd 0562 f151 f5bf
00000660: a448 c078 5703 de3f 920b 641b 6d77 c83f
00000670: aa84 75af f85a f23f 4225 334e e274 c93f
00000680: 5ac4 ab15 1fe0 d03f 419a d60a 0910 f2bf
00000690: 47d9 0807 78bb d0bf 7c40 3c34 5bff f8bf
000006a0: 4a3b e4f6 8364 c4bf 0815 8e6a f298 c43f
000006b0: 7781 4f55 4780 00c0 8cd5 6fc6 50d0 e83f
000006c0: 42b5 88b0 8c16 01c0 a9d0 44d6 7d43 e43f
000006d0: b969 ab44 29fa b13f fcbf 8074 e85a e3bf
000006e0: 75ad ae6a 427d c03f 1824 e647 bc73 febf
000006f0: 0a62 4daf 467d e23f f98a 3c9e 4492 da3f
00000700: 1e5c 9674 182b f73f 8da4 eabc 8f23 f6bf
00000710: aa4f 13e7 5b80 f33f a00c 2554 57cc ddbf
00000720: f823 ef74 2c93 e03f 8109 9e39 f721 e53f
00000730: c1a0 ea86 637d b23f a406 3ff7 bfc7 e8bf
00000740: c3a9 7714 0a18 eebf aa66 1371 5242 df3f
00000750: 1280 ec4e 52fe d53f b748 48f4 ab1b f0bf
00000760: 2e7b 19c1 c59a df3f b146 2e65 bc36 f33f
00000770: 4290 8589 85b7 f63f 585c e665 0d6e acbf
00000780: 42ea a265 81ad f23f 78d0 118e ae11 e8bf
00000790: 9328 c685 4e71 edbf 93ab fbfd 8744 d7bf
000007a0: 2392 8890 b764 f73f ebec 8539 6a40 e6bf
000007b0: 6256 0cbb 701a c03f e390 e86f a60a d9bf
000007c0: 2d62 4488 f34f f2bf 6f48 3d66 914d f5bf
000007d0: 7b20 57eb 7523 f4bf db4d b5a4 f778 dfbf
000007e0: bfff eaeb 62fd d5bf 98cc 951a b5e8 d0bf
000007f0: 04fe ed29 055e c83f 0739 0eb0 eb50 f5bf

bias_1 f8 [1, 32]
-0.18120398978119356 -0.20490667862284567 0.12104160599820836 -0.29630299251013764 0.05681210484069619 0.1292229654169868 -0.44702640140575106 0.02969805378249344
-0.4683603246470244 -0.44214520347529723 -0.3574963197246147 0.0705227973519345 -0.1604448695097946 -0.0981940462725268 -0.2085627360438158 -0.26398018627118225
-0.3855641117089865 -0.042296125895228846 -0.5091740791998736 -0.2254467750115306 -0.09641474194847012 -0.426582734664165 -0.031078653839951828 -0.34155649839275354
-0.03666683913416826 -0.12125126533603643 -0.23709591422353957 -0.2775481852994763 -0.37149331632511173 -0.3667732350618794 -0.40334982332870717 -0.29268541380256824
00000000: b4e9 013d b131 c7bf ae63 b5cd 613a cabf
00000010: 19b6 372b 95fc be3f 2b6e a2d3 a0f6 d2bf
00000020: 9d8c 9de8 7916 ad3f 22d6 2dcd 608a c03f
00000030: 091f 9f9f 149c dcbf 9aac 00a7 2a69 9e3f
00000040: 1e96 4695 9df9 ddbf 639e 4065 1b4c dcbf
00000050: ca15 6a3e 38e1 d6bf 13be 3f34 c80d b23f
00000060: d782 ad1d 7589 c4bf 8f04 67b9 3e23 b9bf
00000070: e079 3c09 2fb2 cabf eae8 b426 0de5 d0bf
00000080: f049 9318 15ad d8bf 075d ef7a d6a7 a5bf
00000090: c44c 4470 274b e0bf 8ae3 d49e 70db ccbf
000000a0: 895d 85f3 a2ae b8bf f3ee 9aab 214d dbbf
000000b0: ec9b 6227 15d3 9fbf 6152 95c9 0fdc d5bf
000000c0: c39e dbf5 fec5 a2bf 6d86 37ab 520a bfbf
000000d0: 3f7b cdae 2859 cebf bb39 bb76 59c3 d1bf
000000e0: cc21 13e7 8bc6 d7bf 9ee3 6872 3679 d7bf
000000f0: c4d3 02c7 7bd0 d9bf a716 139a 5bbb d2bf

weight_2 f8 [32, 10]
1.0767818770798492 -0.935569243704981 0.0029710983979093376 -0.17431388149276866 -0.01501787658642588 0.19127433562896856 -0.5893468087482459 -0.40305287238291143
-0.8120556307439403 0.2830169192549257 -1.4219016932480617 -1.6993925562415326 -0.8555901548533129 -0.5333755736006398 -1.286537512733975 0.45757339472896996
1.2288822093298202 -0.865042979623457 0.2085736896843941 -0.7557439734146155 0.5955946009450217 -1.5874443924110826 -0.7124097074051723 -0.4329105093804327
0.07085084059824749 -1.4556675803624926 -1.4250107135421906 -0.2980783381197488 0.6354136165295211 1.1865596133201177 -1.9107303690318878 0.6142185452566753
-3.0266830848011193 0.5208707859182188 0.42162756109977034 -0.38949339189145676 -2.4955260490800355 0.6284544807970236 -1.1957247416545245 0.3623309002231864
0.40477355646253393 -1.3310424142212236 0.47534842735104904 -0.5091862830962182 -0.5503762348005431 -0.2324166035488223 -0.6212671596268804 -0.9647427587095938
1.3532586056770763 -1.5724072098232138 0.4803571604009488 -1.0647071905105412 -0.12563487334858434 -0.5580608988081269 -0.22604902473819102 -1.1727187444510918
0.7838259121369708 -1.636633166969656 1.102708655807143 -1.2406065598308755 0.018443223909446235 -1.0638232819038491 -0.3981660380854334 0.8511424771086008
-1.282512149598035 0.7605963696100796 -0.5571354090575962 -0.5603145382809689 -1.3171167968480968 -1.094686425022834 -1.6186929408362607 0.4787259400702316
0.4272340784435969 -1.0802785652005022 0.9204201786213845 0.13396570311543574 -0.0010424732374308555 -1.6353672540608528 0.5201432117009175 0.36831401549577425
-0.9079776662710914 -0.268574157893727 0.6139529524744449 1.1360823313699844 -1.3378085825360257 -0.12108123073829127 -0.26149402268549615 -0.5860890347624178
-0.29965329216414033 -0.7199593960203645 0.4022860191598713 -1.0450020176165262 -1.005628554442218 -1.1436250707407833 -1.530479779657337 1.1720593901149756
-0.5442940889180035 0.2764158009398517 -0.19396624348266628 -0.8855941123173375 -0.2821044180533002 0.40547863895090824 0.46375001337400845 0.429545940048781
-1.6909919600225085 -0.07740657082825168 -0.9575540766887396 -0.7295917615866523 -0.36334912698798444 -0.673906032750923 -1.0063552929775625 1.136852172271397
-0.9516928805586375 -1.1327974198141846 -0.6002057908132238 -0.47388094603681763 -1.0502998000845425 -0.1702727864411875 1.3116636313145453 -0.7674358714985278
-0.2336597801140402 1.2393020327933502 -0.4427430162362088 -0.7430804509962714 -0.37026139017585874 -0.4776184615328492 0.8672077666427241 -0.9766932260462826
-1.5629428604057696 -0.3295367586979939 0.8439121157395744 1.0072478475586173 -0.5206176816275908 -0.2255285730427634 -0.5513802958777085 -0.7305536796627501
0.9736553717373168 -0.0576348342563652 -0.2725394780196397 -0.35743762628716513 0.8286765348232034 -0.8246837562900684 0.8936854815464358 -1.0463446977154078
0.7877349367944086 -0.2126205133596262 0.5999526678112206 -1.6074433648665436 -0.9851342508557523 -0.2110518365112556 0.1290984541919642 -1.5899436820386266
-0.6791465287442866 -0.20640263406933734 2.113982823575038 -0.15501796612828966 -0.11809441589673243 -0.33774379243865943 -0.3119217834069269 -0.44592347546387745
0.7821442867370153 -0.8548671214650642 0.8730194352399081 -0.572474527958888 -0.8921223571984033 0.014933123642384465 0.17567438275189393 0.6365194980848088
-1.0672165521594013 -0.8432237207123666 -1.3033621424585107 0.31695211740768775 -1.4714406096864643 -0.6663770203972504 -0.4095518752625246 0.7431197540624552
-0.27361818010307215 -1.2116272749597712 0.30065992086150717 0.5366361595421604 -0.8017142109424739 1.2263493307582622 0.30920083931894277 -0.7039422533791969
-1.2674280563755171 -0.27563347381482056 -0.42034747582283233 1.5124950139816058 -0.6300961839505246 -0.9076274565613539 -0.7974478743424468 -1.1107202632611368
-0.3054750288986419 0.20656766699327184 -2.2405603755399595 -1.2190939102160938 -1.5240373963719671 1.2444091059194116 -0.7047833327254064 0.8895681115802603
1.1433236458282703 -1.8291625229928006 -1.3747077821344567 -0.5458538105376086 -0.9997231603298019 0.32252474258303343 0.5595285096082132 0.4622386952089384
-1.1285595992571138 0.08393517039764188 -1.5222325351968957 -2.0633496604140884 0.8073874525443344 0.9712198855171972 -1.4387028426400434 -0.33007787077260176
-1.5372265134765595 1.027033612755328 -0.18800212689784726 -2.303988893226108 -0.268069681170303 -1.9003381504231343 -1.3307982237618459 1.0548608898305198
-0.21349181579836363 -0.16597298996376214 -1.1499196812613235 -0.4862903610372133 0.42262079019667587 0.9243377331239542 -0.5660353395276537 -2.1267767001599553
0.3284460914800866 -0.757531055117396 0.835926671850851 -0.5430061860268861 -0.1617230562534282 0.5051049112793383 -0.8771381909222672 -0.22200730786296866
-0.7727602705634715 -1.6376565630123812 -1.000131075258688 0.4695404184293661 -1.414295468887211 0.7152361867397576 -0.7051672536914173 -0.5354377398880457
0.7864701228762896 -0.7819491393837713 -1.4115026739662357 0.21074282135402822 0.29729106907057123 -0.4634581909718308 0.5465063961988437 -0.6485265998205868
00000000: 30bc 2fa2 7f3a f13f 3267 1be9 2ef0 edbf
00000010: 2493 784e d856 683f 8e08 20d2 ea4f c6bf
00000020: d83d 5a46 b1c1 8ebf 1097 0b6c ad7b c83f
00000030: fe6b b2d6 eddb e2bf c061 5c46 9ecb d9bf
00000040: f57d 1217 5cfc e9bf 7588 1aff f21c d23f
00000050: 080a 6afd 1bc0 f6bf b9f8 c13f b630 fbbf
00000060: 5afc bb9a fe60 ebbf 1c33 a3a6 6911 e1bf
00000070: 4f50 e45b a895 f4bf 285c 78eb e148 dd3f
00000080: 2a53 3b64 80a9 f33f a1bf 639d 6eae ebbf
00000090: 3611 00ec 8ab2 ca3f 31e0 3efc 0d2f e8bf
000000a0: 0e75 9768 1c0f e33f affc 5917 2c66 f9bf
000000b0: 840f 5571 0fcc e6bf e18d f847 ceb4 dbbf
000000c0: 1d7a 43db 4723 b23f d911 b816 6a4a f7bf
000000d0: 36d0 b108 d8cc f6bf d6b3 772a b713 d3bf
000000e0: 15ad cdef 4e55 e43f d26d dfee 25fc f23f
000000f0: 9c74 e701 5a92 febf f62b 8fa6 ada7 e33f
00000100: 1c9e 049f a536 08c0 f7bc de35 f9aa e03f
00000110: 2302 812a f2fb da3f 8da4 0bb1 75ed d8bf
00000120: 33eb 785c d6f6 03c0 3488 4192 4c1c e43f
00000130: a7c9 4644 b021 f3bf 1b7c b2f1 6d30 d73f
00000140: 49b3 d258 cfe7 d93f 64b4 6a21 f34b f5bf
00000150: df60 6bcf 1b6c de3f b00a 2f08 414b e0bf
00000160: add8 1e9f ae9c e1bf 4311 a5c7 d3bf cdbf
00000170: f2a3 95aa 6be1 e3bf 9ebc b634 2cdf eebf
00000180: 1e9e e67e f2a6 f53f 0bf7 6276 9428 f9bf
00000190: 7a93 94f5 2bbe de3f e9f0 3068 0a09 f1bf
000001a0: 7f77 22b4 cd14 c0bf 29d5 b187 a2db e1bf
000001b0: 6988 45a8 2cef ccbf 8d2d edba 74c3 f2bf
000001c0: 5257 4c14 1a15 e93f f2ef 7a42 a62f fabf
000001d0: 2653 dbd4 b1a4 f13f acd3 9a43 86d9 f3bf
000001e0: 2c73 18ce c7e2 923f b901 c88f 6b05 f1bf
000001f0: e21b fd67 8d7b d9bf 2f5f ed25 8f3c eb3f
00000200: 84f0 b375 2b85 f4bf d5cf 9d32 ce56 e83f
00000210: 1612 2ba3 0dd4 e1bf b67b 2cc1 18ee e1bf
00000220: fe98 f70f e912 f5bf 5892 ade9 d583 f1bf
00000230: 5c86 b291 2ae6 f9bf d64d 1620 72a3 de3f
00000240: 81b9 a99a cd57 db3f 04b2 412d d248 f1bf
00000250: 013c b804 1574 ed3f f74d d5c4 c925 c13f
00000260: 43d5 8c1d 7314 51bf 4040 92da 762a fabf
00000270: 32bd 6f60 03a5 e03f 509e cdf2 7492 d73f
00000280: 683f c42d 270e edbf 3713 2daa 5130 d1bf
00000290: dc21 85a9 80a5 e33f a2c2 acaa 642d f23f
000002a0: 39ce e4f8 a967 f5bf 1a2e 2ef6 2dff bebf
000002b0: f227 e26c 51bc d0bf 4d29 9bca 3dc1 e2bf
000002c0: 33f5 7e00 852d d3bf 425f 8b49 e809 e7bf
000002d0: d27f fbdb 0dbf d93f 04ac 1e09 54b8 f0bf
000002e0: a00c 94f7 0d17 f0bf 457a 5bcd 494c f2bf
000002f0: ae14 8d5d d87c f8bf 6737 d858 c1c0 f23f
00000300: d8e2 e96f db6a e1bf 8598 48e6 cbb0 d13f
00000310: 769c 24c8 e2d3 c8bf 15dc bd76 c956 ecbf
00000320: 7625 66b0 ff0d d2bf d953 61ad 5cf3 d93f
00000330: dc7f 3d89 14ae dd3f dee6 2841 ae7d db3f
00000340: a287 e195 4d0e fbbf e3ed 33c2 ead0 b3bf
00000350: 96f2 7072 48a4 eebf 2e43 6ed2 d058 e7bf
00000360: 0763 5cb2 1c41 d7bf 14c1 6762 a390 e5bf
00000370: 0dec f701 081a f0bf e2ac 44e7 8b30 f23f
00000380: 74bb baa0 4474 eebf 8d85 f12f f01f f2bf
00000390: 2134 4dc6 e234 e3bf 383e 5bbf 1054 debf
000003a0: 34bc c529 07ce f0bf e1f3 94a8 7fcb c5bf
000003b0: c293 fd00 93fc f43f 43a1 3bac d58e e8bf
000003c0: 3c7c fd4c 90e8 cdbf 8e6b 4b5e 2ed4 f33f
000003d0: 1e15 d1cd e655 dcbf e86d 6aa7 50c7 e7bf
000003e0: 3db7 71d4 5cb2 d7bf 85f6 0f06 4d91 debf
000003f0: 992a 9280 2ac0 eb3f 1cfe 0227 1241 efbf
00000400: 015a 6f5f d001 f9bf ba03 5c58 2117 d5bf
00000410: a496 39fb 5301 eb3f c3b0 43eb af1d f03f
00000420: 3bea 8969 e6a8 e0bf a71f c4ca 1ede ccbf
00000430: 9483 4e4a e8a4 e1bf 94f7 431c b260 e7bf
00000440: cbf7 654f 2f28 ef3f d4a1 7b20 5082 adbf
00000450: 1ba6 3d6c 4971 d1bf fed8 d010 42e0 d6bf
00000460: 89e7 00a7 8484 ea3f 6add 5930 cf63 eabf
00000470: cddc 844b 1299 ec3f ad7d 10f0 d3bd f0bf
00000480: 085b eee5 1f35 e93f 414e ab23 2637 cbbf
00000490: 68b5 ecef cf32 e33f 4e62 a488 16b8 f9bf
000004a0: 8e09 b343 3886 efbf 6dcd c91f bf03 cbbf
000004b0: 68fc 5b53 4c86 c03f 5167 4dc9 6870 f9bf
000004c0: 9ec1 4480 91bb e5bf 646a 91c9 666b cabf
000004d0: f57b 9cd3 6fe9 0040 cc1e 68f3 a0d7 c3bf
000004e0: 49df 1d86 6f3b bebf 13de bc23 989d d5bf
000004f0: c222 a9c8 86f6 d3bf 6cb4 e89d 028a dcbf
00000500: 413d 8974 5307 e93f 8fc7 234b 125b ebbf
00000510: e616 6474 c6ef eb3f f90b ec19 b651 e2bf
00000520: 8352 862f 448c ecbf 1c8c 5eed 4195 8e3f
00000530: 1b0a 5588 7f7c c63f 804c 7123 5e5e e43f
00000540: 6164 d4a9 5113 f1bf 4379 f54f b0fb eabf
00000550: c042 0b43 92da f4bf 817e aa88 f148 d43f
00000560: 30c1 094f 058b f7bf 0d30 ade6 f552 e5bf
00000570: 2727 9111 1936 dabf c0b6 1614 a3c7 e73f
00000580: 148f c8d3 f582 d1bf 134d 0e48 d362 f3bf
00000590: 1a5c d41b 033e d33f 2fb5 6298 1f2c e13f
000005a0: 5990 978f a4a7 e9bf 6740 d179 209f f33f
000005b0: ad51 3151 f2c9 d33f 8528 91e7 b186 e6bf
000005c0: aba6 42a4 6247 f4bf f5eb ed94 faa3 d1bf
000005d0: b15f 6719 f9e6 dabf fd9f c6f8 2d33 f83f
000005e0: 64dc ec78 bf29 e4bf e13e 5cbc 480b edbf
000005f0: cb18 9267 b184 e9bf a360 5b9c 82c5 f1bf
00000600: 0d51 b722 e78c d3bf ded4 122f cf70 ca3f
00000610: c642 0deb aaec 01c0 1918 b29d 6881 f3bf
00000620: 04c7 7409 7562 f8bf aa4b cc85 19e9 f33f
00000630: c949 9ac6 958d e6bf 80a7 598b 5777 ec3f
00000640: eb36 39bc 0d4b f23f b52a f5eb 3f44 fdbf
00000650: dc2f 5d96 cdfe f5bf 07fe 1469 a277 e1bf
00000660: cd72 d56c bbfd efbf 6ae0 62d1 3ea4 d43f
00000670: fc4c 3e55 a8e7 e13f fd8e b79b 5195 dd3f
00000680: b656 a682 940e f2bf 3191 d77b c67c b53f
00000690: d13e b980 105b f8bf 9c87 7d77 bd81 00c0
000006a0: 0d1e fc35 1ed6 e93f e2ad b0b9 3b14 ef3f
000006b0: cdd1 9c45 ed04 f7bf 4081 06ef fe1f d5bf
000006c0: 98d0 1ed4 7a98 f8bf 6dd4 2acc ba6e f03f
000006d0: ad66 4d25 7410 c8bf e706 96ba 916e 02c0
000006e0: 013d 6bbc 0d28 d1bf 2d89 f6f9 c867 febf
000006f0: bf1c 0a14 f34a f5bf b76c facf b5e0 f03f
00000700: 08a8 6827 b353 cbbf f2f3 f459 9a3e c5bf
00000710: c0b4 002e 1266 f2bf 87f3 409b 611f dfbf
00000720: 1848 2012 380c db3f b23c c7b9 2c94 ed3f
00000730: 53d9 f424 f61c e2bf 8aa7 a880 a303 01c0
00000740: d7fb 59c1 4205 d53f f7df 6dc4 b13d e8bf
00000750: 4f83 ae4a e9bf ea3f 7d5b 5082 4e60 e1bf
00000760: e80e cf52 57b3 c4bf b7cc 5fc6 d129 e03f
00000770: 03ae 821c 8411 ecbf 454a 5f47 bc6a ccbf
00000780: acfb 36bf 73ba e8bf af7c 435e d733 fabf
00000790: a930 3f71 8900 f0bf 6079 5341 f30c de3f
000007a0: 6006 1c49 f4a0 f6bf f6d0 deff 36e3 e63f
000007b0: 9e12 9aea ba90 e6bf 3ea0 bb53 4e22 e1bf
000007c0: cc1c 2164 c32a e93f 913c 9933 ba05 e9bf
000007d0: ae6c eed3 8395 f6bf 8489 caea 9ef9 ca3f
000007e0: 4443 c31e d106 d33f b563 528b 4ca9 ddbf
000007f0: c252 57fb fa7c e13f 9318 1adb bac0 e4bf

bias_2 f8 [1, 10]
-0.01675762224066645 -0.10696640559116873 -0.23842111033282565 -0.20031126161885815 -0.1953478316069197 -0.17914165544595437 -0.34551076455572816 -0.2746902776363479
0.8196302154854151 0.42311562705904965
00000000: 3df6 edfd e828 91bf cde4 c87d 2662 bbbf
00000010: 6c1a c73b 9584 cebf 1c35 d6a6 cca3 c9bf
00000020: 7051 0c62 2801 c9bf 2fef be1f 1dee c6bf
00000030: 22b3 8b2e d91c d6bf aa8b be87 8694 d1bf
00000040: 6658 4a25 693a ea3f 274a 2991 5314 db3f

loss_history f4 [20]
0.6367192 0.30673063 0.2487131 0.21908405 0.20082973 0.18924364 0.17680217 0.17230661
0.16500407 0.16182089 0.1621692 0.15474737 0.15679802 0.14726461 0.15023124 0.15676741
0.15037557 0.15161398 0.14657785 0.14426495
00000000: 0800 233f cc0b 9d3e a6ae 7e3e 9257 603e
00000010: 4fa6 4d3e 16c9 413e a10b 353e 2571 303e
00000020: d4f6 283e 60b4 253e af0f 263e 1876 1e3e
00000030: a98f 203e 89cc 163e 38d6 193e a387 203e
00000040: 0efc 193e b240 1b3e 8118 163e 31ba 133e

accuracy_history f4 [20]
80.32333 91.06834 92.84167 93.67167 94.166664 94.545 94.95333 95.055
95.26667 95.46333 95.385 95.555 95.65 95.905 95.82667 95.76667
95.86 95.86 95.95333 96.026665
00000000: 8ca5 a042 fd22 b642 efae b942 e557 bb42
00000010: 5555 bc42 0a17 bd42 1be8 bd42 291c be42
00000020: 8988 be42 3aed be42 1fc5 be42 291c bf42
00000030: cd4c bf42 5ccf bf42 41a7 bf42 8988 bf42
00000040: 52b8 bf42 52b8 bf42 1be8 bf42 a70d c042

val_loss_history f4 [4]
0.10879517 0.1251187 0.24916871 0.10905062
00000000: 01d0 de3d 1e1f 003e 1526 7f3e ee55 df3d

val_accuracy_history f4 [4]
96.7 96.7 96.2 97.6
00000000: 6666 c142 6666 c142 6666 c042 3333 c342
