checkpoints/model_epoch_0010.npz (npz, 408229 bytes, 10 tensors)

weight_0 f8 [784, 64]
0	0xa973ee1c6b8faef0	-5.303853468377775e-109
1	0x2a2072be0f206c7e	8.964586056900854e-106
2	0xa953dad656c1d992	-1.320954402585199e-109
3	0xa9955080fdee441c	-2.2689037466031938e-108
4	0xa900d5f987d1f610	-3.500308858158049e-111
5	0x2960ebd673c6b5b1	2.251561398621973e-109
6	0xaad4598e81351d5d	-2.271445303140407e-102
7	0x29a97524cc12117e	5.4198703733727944e-108
8	0xa922599404bdbd8b	-1.526039070861133e-110
9	0x2987ed512ddc2c42	1.2735036252315988e-108
10	0xa94375117a4572ef	-6.472530719711887e-110
11	0xa8c0ca6944be6981	-2.181823526331222e-112
12	0xa96bb9d91c714cdc	-3.6892519676220857e-109
13	0x2948628276a16a39	8.111680686689149e-110
14	0x292dfb97630eb6c4	2.4934661666073638e-110
15	0x297fa91bd1332909	8.425592572499055e-109
16	0xa9807ac5389cb610	-8.771169392811677e-109
17	0x291f4611b39da7e8	1.3004120217944222e-110
18	0xa8f4463d8dd00d76	-2.107604539431841e-111
19	0xa9ef33e88dcea64f	-1.0628810384891075e-106
20	0x2a5782d363c18653	1.0251167315512468e-104
21	0x2964ab9aa152ea5a	2.7504196074064834e-109
22	0xa9bd3043ed4b735e	-1.2428361613209934e-107
23	0x2a348104551a1644	2.2350103260007444e-105
24	0xa97aa439cbc7784a	-7.089904152838538e-109
25	0xa9b9bc208570d418	-1.0957804820614563e-107
26	0x295392f807042427	1.3022768648001732e-109
27	0xa94c0186bc323b60	-9.316270476143565e-110
28	0xaa1755241d589dc7	-6.358348701657378e-106
29	0xa92295e9340392a9	-1.5456385610270964e-110
30	0xa9d56a71868b8295	-3.647503761652006e-107
31	0xa9c2610794cd3a16	-1.565142745598996e-107
32	0xa921115eb2321794	-1.4194184561333322e-110
33	0xa97246b4bcdc5c86	-4.863706611353407e-109
34	0xa940c700cbdf4740	-5.581039660241054e-110
35	0xa9044ae94415e556	-4.219002388261634e-111
36	0xa96633b43914d3e3	-2.9542216012487183e-109
37	0x29e108fb1b907518	5.802775465589145e-107
38	0x29309abd93309be0	2.761761849222892e-110
39	0xa97985fc4ba0383a	-6.792345697632299e-109
40	0xa90db73a0222500e	-6.178143565296029e-111
41	0x29438ffac079ab4e	6.507499874327915e-110
42	0x2a2c479205ca22bd	1.5412900012848838e-105
43	0xa9252cf864aed1ae	-1.7610377329207115e-110
44	0xa98391ebaca7f234	-1.0416035512872047e-108
45	0x2890e22d25eefec8	2.742358053119848e-113
46	0xa966b3b2341f249d	-3.0207481237061415e-109
47	0xa9bdedf6f8f984e6	-1.2743882087421032e-107
48	0x296fc545b7089333	4.227434927240066e-109
49	0x2908dd4ecae4e430	5.1695298978971016e-111
50	0x2983dc62caa03f8b	1.0570854976429485e-108
51	0xaa18663310953b79	-6.649016625885764e-106
52	0x296f40b28294d3f3	4.1585263448252634e-109
53	0xa947958ae6146391	-7.84534112829028e-110
54	0xaa6b9864a70440d2	-2.406392194133477e-104
55	0x2987f5c698a13c50	1.2752622500558437e-108
56	0xa8d1439f03e14d6c	-4.486696571668333e-112
57	0xa903b5987d84a0c9	-4.09773706656842e-111
58	0xa9d831174b452c30	-4.120301989164654e-107
59	0x296cc1e7ccfe207a	3.8265012017080994e-109
60	0xa95d36fcd8ddd172	-1.94367854021593e-109
61	0xaba80dbdfe17376d	-2.1994442643062208e-98
62	0xaa0e80955ddbf8c1	-4.156079349328904e-106
63	0x2995dc24153b3f11	2.326967130832229e-108
64	0xaad6782fecf126b0	-2.508040410006878e-102
65	0xa937db101212b9cb	-3.967838751168192e-110
66	0x29afaca7a8a42417	6.743423240842528e-108
67	0xa9436d592f1a7b50	-6.462499283167627e-110
68	0xaa4aca0613728364	-5.8402379284454706e-105
69	0x29809c3cd7951279	8.840750588729335e-109
70	0xa956263ad90ee774	-1.4736090752825646e-109
71	0xa9260896083c22d2	-1.8323813576524646e-110
72	0xa9677483a3e26a56	-3.1209692877297876e-109
73	0x2932fa65b9e96b68	3.156564465318419e-110
74	0xa943955e35da0763	-6.514501845215928e-110
75	0x29b3dbcd241c29f9	8.455711682531097e-108
76	0x2932f23a6e4d9cd2	3.151256879365176e-110
77	0xa958d0d7a383cfbc	-1.6510099822062888e-109
78	0xac5397ac51ee9561	-3.669024730161328e-95
79	0xa973ba8087cb4536	-5.250203856122312e-109
80	0xa935c0c16fd1d19d	-3.6180935297801713e-110
81	0xa9947a377ac979cd	-2.1797996342788507e-108
82	0xa9a816e877717478	-5.128602912104587e-108
83	0xa9bc1cc1c91efe7c	-1.1970118038411687e-107
84	0x296626dc90daad38	2.9475464951722862e-109
85	0x295524c4600de1da	1.406698296838117e-109
86	0x29134d34ad5edb86	8.025915424989269e-111
87	0x2941084ca8a73502	5.665887433434898e-110
88	0xa967bb070e62b734	-3.1576200428821655e-109
89	0x2b1518a74884f972	3.767626219719216e-101
90	0xa9d03b27d2db5433	-2.7644508606942125e-107
91	0xa930e33ee1664cd2	-2.8088693630237023e-110
92	0xa9b6017a3e6bfa36	-9.369969147803705e-108
93	0x299c99708b637020	3.044374599841669e-108
94	0xa9657952a277ad5b	-2.8573461516127703e-109
95	0xa918f65c8b871006	-1.0379754122642487e-110
96	0x29488bc91f05b644	8.165315812412155e-110
97	0xa94a708a662ca482	-8.795219159562738e-110
98	0x293b6bdb63d3dd78	4.560893120503085e-110
99	0x2962265efd998a5e	2.415046553102539e-109
100	0x29b0202d7ebe9645	6.866255829613997e-108
101	0x294cde0644669ea8	9.602791582546213e-110
102	0xa933041620896a3c	-3.1628595784821325e-110
103	0x29adaff94227f4a7	6.3203872370546125e-108
104	0x2933eb7f910ebdef	3.3132109063793114e-110
105	0xa96bd7ccdd6c4cc2	-3.7048202182166997e-109
106	0xaa3d1cee9469a73e	-3.173428494234772e-105
107	0xa9712d578f9023a7	-4.571217232674415e-109
108	0xa905ba648eb5be88	-4.517449410961083e-111
109	0xa99bd08978294e4e	-2.9608359904022635e-108
110	0x2a364c2788e46888	2.4305092334402906e-105
111	0xa94048876094aa1b	-5.416695647167783e-110
112	0x2986481d6c9b47ca	1.1859322427114491e-108
113	0x29f797afbbd2e67c	1.6072963994815027e-106
114	0x29c5185a2ecca68d	1.7964439934116956e-107
115	0x29a89bafd6b66870	5.2390261127149146e-108
116	0xaa05be3e2e7acb3b	-2.9626048392473495e-106
117	0x2a5ad2109cee3880	1.1694171431987806e-104
118	0xa96087487745f016	-2.199296067335854e-109
119	0xa926f4c5d77bc074	-1.9091081736210157e-110
120	0xa954e3c405770f1e	-1.3898053967345665e-109
121	0xa8fd4ea58a6a6746	-3.0466049290623443e-111
122	0xa953a75707d1dc56	-1.3075710146594838e-109
123	0xa9b679ef9a7ca6d8	-9.570323516202757e-108
124	0xa96261ae1bfd5938	-2.4458736508594826e-109
125	0x2948bbac0ac36c9c	8.227540668691943e-110
126	0xa9233466df48003a	-1.597125367067687e-110
127	0x296089dc7de9ae23	2.200636153285226e-109
128	0xa917adcedc3155d8	-9.84609040205292e-111
129	0xaa0425acd421df33	-2.7451466867754953e-106
130	0x29a8df0660790a7d	5.2950266338341796e-108
131	0xa9745caec0b86851	-5.418797189817994e-109
132	0x294f0b2533030783	1.0326728995089292e-109
133	0x2983edfb46d1056d	1.0607437764396287e-108
134	0x28eeac22669df8ad	1.594260828075466e-111
135	0x2b70a8bce4984522	1.9041178143064252e-99
136	0x29466fe702c1b361	7.463777369298988e-110
137	0x29283712355c3f48	2.0138088915178728e-110
138	0xa94090f7fb474fb7	-5.51082590132795e-110
139	0xa95a97d5e8e5855b	-1.7692560130724395e-109
140	0x29726b5517ca3327	4.901781241949182e-109
141	0xa943823d9c402ab6	-6.489647273194435e-110
142	0x29ef00ce983f492c	1.0560814221582592e-106
143	0xa998c464ffa395c6	-2.636439966837444e-108
144	0xa9ad2fb65516fee4	-6.2137208274262215e-108
145	0x29cde7b1f50b0bd3	2.54669081844396e-107
146	0x2901007be762f7a7	3.5348323962874505e-111
147	0xa9b21c69d0d9244e	-7.711586646976734e-108
148	0x2a2766c7c8b73efc	1.2754251190443594e-105
149	0xa954554891bc6a8f	-1.3527763664005416e-109
150	0x293c128eba80c69f	4.669200647696494e-110
151	0x2ad0b9b57668bba3	1.866889654163286e-102
152	0x29e9e18e974b78c6	8.816048627179692e-107
153	0x297d38bd3ad29ea1	7.776534911368208e-109
154	0xa9601fe77eff9e9f	-2.145562824026243e-109
155	0xa9779b539f5f3506	-6.282285688034082e-109
156	0x295905fff040dfb5	1.6648248115244046e-109
157	0x29767ce4f5075f5f	5.984527588967709e-109
158	0x2c58377290d8497e	4.534969824840624e-95
159	0xaaf46a7342efa8fd	-9.115244637474957e-102
160	0x29739f83cf43582f	5.2221495655275485e-109
161	0x298bf96089095d97	1.4889089869475055e-108
162	0xaa392048a22b1722	-2.73884057784259e-105
163	0xa8e75089efdd3c61	-1.2118243495598308e-111
164	0xa93aec737e17dc3d	-4.478115869930092e-110
165	0x2947dc488ee0ec00	7.937263652644292e-110
166	0xaac2b1ae64cc9a5b	-1.043314609437486e-102
167	0x2925fa0f76650082	1.827662600858204e-110
168	0xa96ac3c5ba0b3e84	-3.5613490703822677e-109
169	0xa9c5329ceb1b4f31	-1.8051796922930294e-107
170	0xaa6639ae89e422d3	-1.9381149256683468e-104
171	0x2919d8b0d9e7796c	1.0747376940309623e-110
172	0xa906964faec67d6c	-4.696054292698901e-111
173	0x296526a93c8527e1	2.8143810332858377e-109
174	0x2920abdf1594e1ce	1.3864460084306405e-110
175	0xa9400931c8d3e6f9	-5.334397336242934e-110
176	0x29434fd706e62656	6.424155260729433e-110
177	0x2b2b6f6a999028d5	9.799409662384841e-101
178	0x28eaa4f92c5e1ab4	1.384898687492706e-111
179	0xa9f6c430638d3514	-1.551012173939681e-106
180	0xa9053a31fae8e05c	-4.4133348603554446e-111
181	0x29abbd9e95e21400	5.905939554997908e-108
182	0x294c65b22ba83945	9.446433571222252e-110
183	0xa9406fb0352c6247	-5.467580520339403e-110
184	0xa973d12a3cf0e444	-5.273762890457316e-109
185	0x29a39f8845477f0a	4.17773414427573e-108
186	0x2956d630eed3562c	1.519338812803081e-109
187	0xa9d5d3f09f622bfc	-3.7176912216920993e-107
188	0x296cd87034f01520	3.838213104918202e-109
189	0xa9857e92cb3e3ed7	-1.1440301080283095e-108
190	0xa944137e2ebbd4f7	-6.678391836169919e-110
191	0xa9309dfae7bc681d	-2.763866641181991e-110
192	0x2a9b2816a5ad52c8	1.8945096633865726e-103
193	0x293308aa679f647b	3.165834751048873e-110
194	0x294ed1f73401fac0	1.0252428229606397e-109
195	0x2930707d153cad44	2.73431022163458e-110
196	0x2920acc85ace47a0	1.3867420217933957e-110
197	0x28eebd2f82317b9f	1.5977228247960768e-111
198	0x297902e028fd9924	6.6560515805191355e-109
199	0xa904186e6ea02b8f	-4.178005637476949e-111
200	0xa93c74ba2a49cae9	-4.732982772230351e-110
201	0x294b141ac7a27253	9.007758493195082e-110
202	0x29f67b0d9e706bbe	1.5315490873605587e-106
203	0xaab0a5037e5a8060	-4.644665596312459e-103
204	0xa92b30e4101117b3	-2.2612910290388648e-110
205	0xa952dc3e2971e91d	-1.2547890640223208e-109
206	0x293bf57c180c7b76	4.650311673998296e-110
207	0xa951d2f081da0ba6	-1.1858406411196896e-109
208	0xa9412ab5463b729c	-5.710598941266845e-110
209	0x29078ba9d955e77c	4.895314978619813e-111
210	0x297de74bd86670de	7.957994161190517e-109
211	0xa92c2117c0bda0f2	-2.3393221955563696e-110
212	0xa95b1a9218f60f08	-1.8032321386387659e-109
213	0x2a6b4d60b7d49ad7	2.3808392000371808e-104
214	0x29d455e15b806ba6	3.463504571834334e-107
215	0xa96060388a7a7f75	-2.1789926849559743e-109
216	0x296004a9525ea930	2.131402784973869e-109
217	0xa946cf9eccb28e84	-7.58815575099501e-110
218	0xabc9df1217ad866b	-9.462607839648927e-98
219	0xa94d652c078465c4	-9.778405798739543e-110
220	0xa97028f1aad61dba	-4.300522819273351e-109
221	0xa94d7d1a42d880cc	-9.809501838477032e-110
222	0x292895a7c6c5f0e6	2.0445352051709392e-110
223	0xa9cf6eb5071fafab	-2.6767621754855205e-107
224	0x2b18304655c0da02	4.319880345473888e-101
225	0x29c440f4e1ca8117	1.7247919412901677e-107
226	0x297a8816ec4a98a0	7.060655396464989e-109
227	0x28a331d1935cf240	6.235492972540148e-113
228	0x294068a398301f9b	5.458420513535719e-110
229	0xa962fee8c0bafedb	-2.527596684591642e-109
230	0x2973e80e123789b9	5.297557955429468e-109
231	0x297aafda28c99e2a	7.101990292002883e-109
232	0x2996e1496d9a709c	2.435555867954806e-108
233	0xaa27e36730d49de7	-1.301957037888153e-105
234	0xa91ec8a7d7ea4d57	-1.2800413216037748e-110
235	0xa95fa0ba5bac50a6	-2.104220122972052e-109
236	0xa8e6dc31dab841f0	-1.1882023904019656e-111
237	0x29e2b27b5feeaf3e	6.368952451178808e-107
238	0xa9387c780663440b	-4.072706392039038e-110
239	0x293a17abc40f85f4	4.339869795813445e-110
240	0xa927ed6da3b05ad2	-1.98988552967793e-110
241	0x28f5a39b2653a0da	2.2494716744958142e-111
242	0xa957bee2891cc45b	-1.579812487555622e-109
243	0x2932f4841e42478a	3.152743319736133e-110
244	0xa962507911703794	-2.436929860141745e-109
245	0xa930a51d134ef6ec	-2.7685013549474345e-110
246	0x28e70a0bcbb9bf1e	1.1975118318508855e-111
247	0xa954a77873a05381	-1.3741355655022412e-109
248	0xa94e3d1e2240d570	-1.0059011330154677e-109
249	0x29919446ee80ec69	1.871288970881102e-108
250	0xa961631881bd69f3	-2.3135482008035327e-109
251	0x29378526a125eec0	3.912020676820523e-110
252	0x29a2283d4fee0762	3.865628344041976e-108
253	0xaa38f31dce20d22c	-2.7196085237565033e-105
254	0x2900eb39b85d2a4b	3.517567464220418e-111
255	0xa982f923b97b25c3	-1.0098391180084534e-108

bias_0 f8 [1, 64]
0	0x3f8a559cb9b1930f	0.012858604828758695
1	0xbfc05f2bca37a8d4	-0.12790439008614973
2	0x3fa3aa6d237a795d	0.038409624653683784
3	0xbfaba32f2dd15280	-0.0539793723516242
4	0x3f944658f561ddb4	0.01979960439390789
5	0xbfbb66158e1b44ae	-0.10702643126866704
6	0x3faefe1778c0792c	0.06053231572171777
7	0xbfba12157c972a2b	-0.10183843890914861
8	0xbfc177711c853a52	-0.13645757572745026
9	0x3fb23734b0351ce7	0.071154873866465
10	0x3fadd45f9bc2ddd5	0.05826090599424175
11	0xbf903180df847b96	-0.015813840525079913
12	0xbfcaeabf7e5f266d	-0.21028894110195342
13	0xbfb42af058989c1e	-0.07878019488326557
14	0xbfc1f6d637d9a535	-0.14034536101397924
15	0xbfbfe35cc3143c5e	-0.12456302416488671
16	0x3fc7aff48fc949e3	0.18505723019423134
17	0xbf90c8cc007d79c7	-0.016390979318538414
18	0xbfa8a42d29d9519e	-0.0481275666794858
19	0x3facb68a2a6fc7b1	0.0560801674654522
20	0xbf9fd2a47d46bb6c	-0.031076975008257277
21	0x3fca21788c0f3d7a	0.20414645041317298
22	0xbf9d6348a92c7705	-0.02869905026010768
23	0xbfafddd3569d6c7f	-0.06223926956473579
24	0x3fb1c266188afdaf	0.06937254046623907
25	0xbfaafa45d4a9ee33	-0.05269067975038091
26	0x3f9fd3198ee10ed4	0.031078719468736818
27	0x3fc5e3087b7a71e4	0.1709910014077557
28	0x3fb635de357541e5	0.08675946049812173
29	0x3f903602a84d79f1	0.01583103325116925
30	0x3fa10c69de46ae67	0.03329783285456927
31	0xbfac3645295951c9	-0.05510154847857824
32	0xbfa12f5ebf5be955	-0.03356453023839615
33	0xbfa194c25c9be6b1	-0.03433806782227345
34	0xbf715da1344b2c06	-0.004239682869136457
35	0xbfc948e2c416062e	-0.19753679823411247
36	0xbf867f6741b610fa	-0.010985190098616194
37	0xbfbd0289c2057329	-0.1133199785885607
38	0x3fadd77a973bc4f5	0.058284598313443604
39	0x3fa4d5284d08ae45	0.04068876209597908
40	0x3f7e64ebd27073a6	0.0074204646871551035
41	0x3fb3c45dde51ce2b	0.07721506765101853
42	0x3faba82bf3539192	0.05401742310803849
43	0x3fa3ebf3bfd54fa2	0.03890954701151307
44	0xbfbb90a0940ecc40	-0.10767558684055789
45	0xbf8d873115ea7681	-0.014418014031714723
46	0x3fb4cab9f21da08a	0.08121835862186991
47	0x3fabc83efb18140c	0.05426213088143336
48	0xbfc9dd7d4024c218	-0.20207181579600397
49	0xbfafdf2d82535f54	-0.0622495862568814
50	0xbf8725a707b0f70d	-0.011302285120219158
51	0x3fa63d379cfc534b	0.04343580046967207
52	0x3fb793620ae4645e	0.09209263578340329
53	0x3fb91161e9a31992	0.09792148546248416
54	0x3fb4e5d667edea94	0.08163204228723436
55	0xbfcf5def501fdede	-0.24505416309670286
56	0xbfcf40bbadf5ad35	-0.24416299814343181
57	0x3fa6794893af919d	0.04389406969838492
58	0xbfc5c1fa9ce879ad	-0.16998226796654362
59	0xbfbc1b77c35e537b	-0.10979412574518037
60	0x3fa651fe9923ebd1	0.043594318574797015
61	0x3f9f5c40f38177a4	0.030625357496652975
62	0x3fb7c5d3b9fc0fb8	0.09286235132827769
63	0x3f89437b97f02f32	0.012335744451796058

weight_1 f8 [64, 32]
0	0xbfe1c1ddda88af3f	-0.5549153583756165
1	0x3fcc485f23ba6fb7	0.2209586071447782
2	0xbff4ee1be0a28881	-1.3081320547867394
3	0x3fc8bd4db83827a2	0.1932770871647423
4	0xbfe6719e49fabbc0	-0.7013694233809176
5	0x3fe2c6152f227c16	0.5866800232505536
6	0xbfd305c80dfc1820	-0.2972278725213773
7	0xbfc04d7584fdfb02	-0.1273638629317802
8	0x3fc5bc63d24e0e9c	0.16981170433802084
9	0xbfe7010ecf59693a	-0.7188791322508117
10	0x3f8874ed36d02632	0.01194176982427839
11	0x3fab5568cf046e74	0.05338599707667138
12	0x3fe34c9671594796	0.6030990804522272
13	0x3fdd30876dbf69b2	0.4560869762186953
14	0x3fd4db344450487d	0.3258791606068668
15	0x3fdc1f980702be69	0.4394283359970133
16	0x3fd2056f22900256	0.28158167243239995
17	0xbfdbc338566897f3	-0.43379028738343023
18	0x3fd6c653e3641ba7	0.3558549614539807
19	0xbfe80eaae2064f00	-0.7517904676955993
20	0xbfc658c135e8fa64	-0.1745835793717162
21	0xbfd98c5a4a0ece01	-0.39919144851884886
22	0xbff9f26dd338d8fa	-1.6216867686139822
23	0x3fda693d064a0328	0.4126732407967659
24	0xbff34599293ef674	-1.2044917689485404
25	0x3fe2a0e46b0ae2fe	0.5821401682543124
26	0xbf8b8a6a11c33031	-0.013447598139826851
27	0x3fc3c2df31601568	0.15438451681999799
28	0xbfc21b88e2b1744c	-0.1414652926349923
29	0xbff42651a7e30514	-1.2593552167966822
30	0x3fcc65f9a2aee909	0.22186203425901166
31	0x3fb744ef9082a7fe	0.09089562681279514
32	0x3fceba0aabfef663	0.24005254171599963
33	0xbfbf181b7ed49ecb	-0.12146159979294706
34	0x3fcd0a0dd73d6b91	0.2268693257309136
35	0xbfd5fdaa589b4080	-0.34360750821088715
36	0x3fda82811fde982a	0.4142153559899976
37	0x3fd0c90949b7b702	0.2622702808283607
38	0x3fd909c9028e6f57	0.3912222409214698
39	0xbfe394fbd331f182	-0.6119364857582215
40	0x3fcac64c109c90a5	0.20917654811012656
41	0x3fd343eb1d426581	0.3010204110847426
42	0x3fe8e5613f4b38eb	0.7780004726608046
43	0xbfd1529524c87162	-0.27066544143760585
44	0xbfcd9846e70cfcc8	-0.23120962411664991
45	0x3fc8b5e63d873524	0.19305112842850136
46	0x3fd6d2f13dc3a228	0.3566248992124508
47	0xbfd05a251be29246	-0.25550201151989815
48	0x3fb5796768692111	0.08388372706497572
49	0xbfdcac9851eda41a	-0.448034362800685
50	0xbfeb4d15ad7d5588	-0.8531597507923587
51	0xbfda81d7fdb08182	-0.4141750314174929
52	0x3fd11eee4ec3e318	0.26751287166512006
53	0x3fb0cdff781f0bc9	0.06564327891014367
54	0x3fc1729e0550daf7	0.13631034144938045
55	0xbff4b4ec9b5029d2	-1.2941709582251986
56	0x3fd2018bbd4ff2e3	0.2813443516495637
57	0xbfc2c95d60f41c4f	-0.14677016481457136
58	0x3fc84b71663af828	0.18980233661381019
59	0xbff2141f497ac451	-1.1299126501364933
60	0xbfd51fe343ffc17c	-0.33007127419025273
61	0xbfe7d30e440f992c	-0.7445136384310778
62	0xbfc40d2a7fcdf9fe	-0.15665179481943875
63	0xbfc4334775584c48	-0.1578149149869168
64	0xbfca3e8a16732f78	-0.2050335511797774
65	0x3fbfd9dd1a82b270	0.12441808602552284
66	0xbfc248e227dc211b	-0.14284922548564158
67	0x3fde134ff91e8e60	0.46992873504698274
68	0xbfc0d6bb43a1f317	-0.1315530853497868
69	0xbfd001bc9bb1feef	-0.25010600285166523
70	0x3fe0b1249e6a8af8	0.5216239065233301
71	0xbfe122a575378f55	-0.5354792870898374
72	0x3fb6f3c51f3cafc2	0.0896571351301523
73	0x3fa1155484c8d299	0.033365861138382864
74	0xbfd7b6fa3a337234	-0.37054305728614456
75	0x3fd005b80f80ecfc	0.25034905923867234
76	0x3fb9db7d95d6163b	0.10100541027176117
77	0x3fcf0ff4bd7ffaf4	0.24267443898130348
78	0xbff41f5a9de44c5b	-1.2576547782562304
79	0xbfe7a401518a5a0a	-0.7387701599680565
80	0x3fae8ef701f02aca	0.059684485422697955
81	0x3fc93044d4ba9d7c	0.19678554904133339
82	0x3fd326fba08ac818	0.299254328517351
83	0x3fd1772df86b09ad	0.2728991437872093
84	0xbfb31d757d1868d3	-0.07466825775228196
85	0x3fa6aee239d7d933	0.04430300670712697
86	0xbfaabd382b989ed2	-0.05222487957172252
87	0xbfdc9f0f0d4effc0	-0.44720817851702677
88	0x3fda1a375edb42a9	0.40785011542633726
89	0xbfe60d8d01a9ca51	-0.6891541511998388
90	0x3fcc72c3c9de1152	0.22225234371956987
91	0xbfa5d46cf2afce3e	-0.0426363035438979
92	0xbff10909eb72ad00	-1.06470672580582
93	0x3fcdca94298465c0	0.23274471308904587
94	0xbfe8fa8f9f38f215	-0.7805860624135358
95	0xbfa870dbb4a0035a	-0.047736039923626364
96	0xbfd42eeb6319440c	-0.31536373784644023
97	0xbfe030277fed283d	-0.5058782099306495
98	0xbfdb303e00b3fa58	-0.4248194701066601
99	0xbfe0688c4b832319	-0.5127622103546826
100	0x3fd2d00c98ebe266	0.2939483159421229
101	0xbfd53c5d7e73b94f	-0.3318094000705018
102	0xbfdede1a79d681ad	-0.48230611704095844
103	0xbfe7274dabb057db	-0.7235477784440677
104	0x3fddfab013ef67d1	0.46842576929850305
105	0xbfd2e11ebddec8d5	-0.29499023954407494
106	0x3fd21a1a6f48b890	0.2828432165869197
107	0xbfe19abfab1ac5ea	-0.5501402227293373
108	0xbfe07e8a4879a3cc	-0.515446797898329
109	0xbfdf23bea8c0ecb6	-0.48655668716282763
110	0x3fd5b24ad79fe799	0.3390071016034369
111	0xbfd09e903ca120a3	-0.2596779434284235
112	0x3fd98c3009f92202	0.39918137525504005
113	0xbfee78f19d198b8e	-0.9522636478762807
114	0x3fe076fcd6c8e88d	0.5145248599067301
115	0xbfbfff42bbceab22	-0.12498871884478693
116	0xbfe7dfd78dced7f0	-0.7460744638144643
117	0x3fee0baf11bb0190	0.9389262529658016
118	0xbfe437a66ed60da7	-0.6317932286041711
119	0x3f73a0d87eae9abe	0.004792066271795901
120	0xbf9a9c2c22a7314d	-0.025986375441605692
121	0xbfd2a7ff4a5471dd	-0.29150373705649973
122	0xbfd54dc0d4d8c17e	-0.33287068162737643
123	0xbfd1a6d0ca64685d	-0.27580661549439417
124	0x3fe14b66aae020cb	0.5404542291080586
125	0xbfee291ed5efccbd	-0.9425195864154358
126	0x3fe112ff2dcd65a5	0.5335689444138337
127	0xbfafd78880c55a30	-0.062191262930970104
128	0x3f7901f4d705365c	0.006105381399107292
129	0xbfd9c4162dfdfcf5	-0.40259317866725947
130	0xbfefef7ec6f83d83	-0.9979852567793589
131	0xbfbf27b40ce107fc	-0.12169957460812947
132	0xbfd40e440cc850eb	-0.3133707165554955
133	0xbff5f0f3dd05af90	-1.3713263162307818
134	0x3fe51f2121b6c316	0.6600499781107796
135	0xbfc7ac94cc9fd459	-0.18495426169798426
136	0x3fe0af9d6f4b7720	0.521437375424032
137	0xbfcfed2b4fe98baf	-0.24942532922713442
138	0x3ff61f8b8dd3fef2	1.3827014484558586
139	0xbff2a2e9fad3ecc3	-1.1647739217722097
140	0xbfec58c11ef9c537	-0.8858342747682063
141	0xbff21c56ff43f90c	-1.131918904429372
142	0x3fcdfe721cd24998	0.23432756812378552
143	0xbfe10d9c4411e3c2	-0.5329114274492144
144	0x3fcf76d727f90049	0.245814222829724
145	0xbfe5ac76213be3e6	-0.6773024224377167
146	0xbfb2df944d0da6fc	-0.0737240493887405
147	0x3fbdcab05554136c	0.11637403567517673
148	0xbfd7b8525bc0f816	-0.37062510452585806
149	0x3fe2dd668cfd02fa	0.5895264390638595
150	0xbf9b8f96ff030d7d	-0.026914939226811086
151	0x3fd19066c17b53cf	0.27443856138898765
152	0x3fadea6cebe724d8	0.058429149433843086
153	0xbfeb91ce58525d34	-0.8615485882791405
154	0xbfa82ce5a18d9672	-0.04721753689845522
155	0xbfd3792c4d410f62	-0.30427081627225594
156	0x3fd9dd173a77a0c9	0.40411930761048304
157	0xbfe8724fb8264e05	-0.7639540287659093
158	0x3fecd20a9829fc81	0.9006398174241356
159	0xbfc6e2b88eab29d4	-0.17879397360077454
160	0xbfe3aae39274fafe	-0.6146104679572486
161	0x3fe50fe164f5d224	0.6581885311011928
162	0x3f954adeee48d66d	0.020793422025425935
163	0xbfcb2d32eef5dc30	-0.21231686275470585
164	0xbfc97ca0e4640dc3	-0.19911585952659835
165	0x3fdb254eafd9d71d	0.4241520612043688
166	0xbfd09b6639a6f374	-0.25948482160656927
167	0x3fa6e44e966e0db2	0.04471059404661605
168	0x3fd4f1fd12657a46	0.3272698096897425
169	0xbfe59427435c7d0a	-0.6743351283693368
170	0xbfdfab4f3af13f2c	-0.49483090168085897
171	0xbfd5d96120b5db22	-0.34139278597233347
172	0x3fcd0245b8370099	0.22663184637895453
173	0x3fe19b4055aa3870	0.5502015755789795
174	0x3fd4bb1b95d22d02	0.3239201510520645
175	0xbfa22f5572e80433	-0.03551737811722724
176	0x3fb6f4fa00c8a9e8	0.08967554587494642
177	0xbfc832fe70041093	-0.1890562102272538
178	0xbfe8baca94a2d725	-0.772801676087259
179	0xbfbc13c2ab7c5a52	-0.10967652022041222
180	0x3fd6c335fbfaf00c	0.3556647263283146
181	0xbfe1bc1135d16825	-0.5542074252255175
182	0x3f8cda9d62232e66	0.014088849599281871
183	0xbfd98c4a00331f8a	-0.39918756503583863
184	0xbfe2caa9ab5dd849	-0.5872391077998681
185	0x3fd44e1af023e7eb	0.31726716471859956
186	0x3fc0941e6d416f44	0.12952022871729174
187	0xbfca5174bd1b474b	-0.20561084016531547
188	0x3fa83a20f5f8808f	0.04731848719188846
189	0x3fb4b61188154825	0.08090314457265942
190	0xbfe16a84fd3ced79	-0.5442528673224124
191	0x3fe30bb32073b6f1	0.5951781877353978
192	0xbfca8c772ac55c89	-0.20741166675972902
193	0x3fd130a52e6fc162	0.268594069812954
194	0xbfea688cd0508c18	-0.8252624577183978
195	0xbfe7daaecada936d	-0.7454446756351963
196	0xbf817d6560e71edb	-0.008539955157984938
197	0x3fc40549f1b825a2	0.1564114027280939
198	0xbfddcaaed1edcacc	-0.46549578190676466
199	0x3fdb4056b9473f8a	0.4258019265516785
200	0x3fc220d11d08e574	0.14162649076187572
201	0xbfdb3c210d1d8c9e	-0.4255449894028035
202	0x3fb9709e4e21e6d0	0.09937467010049805
203	0xbfe67a9d5774c05a	-0.7024676044584439
204	0x3fd8299284530566	0.37753737375540763
205	0x3fcb362ebd552120	0.2125910210109021
206	0x3fe925b7b228a92e	0.7858541946091344
207	0x3fd028b084d7b9b4	0.25248349163930617
208	0x3fcd997b54f38a61	0.23124639175428555
209	0xbfdd7b0d91482b51	-0.4606355589646017
210	0xbfc2e4c4289a44d9	-0.147606391740317
211	0xbfedbb9ad227379e	-0.9291509728006877
212	0xbfc3d768306cab29	-0.1550111996123971
213	0x3fc1377c85c5b416	0.134505811041351
214	0xbff42dd6d2372195	-1.2611911975419379
215	0x3fe511c3634b2991	0.6584183635070976
216	0xbff5ae2ee54ebc04	-1.3550251920057699
217	0x3fe080fd9dc9a93d	0.5157459337035913
218	0x3fb75194b0d137ec	0.09108857456996561
219	0xbfdc2aec37c10101	-0.44011979527205375
220	0xbf7307112ebe2025	-0.004645411605345405
221	0xbff4dd5c8d3b6bdb	-1.3040433422927353
222	0x3fe095f56cd47e6b	0.5183055043780319
223	0x3fd605cde3c2e974	0.3441042637092757
224	0x3fe7590d2de93084	0.7296205422112654
225	0xbff04f7188945952	-1.0193953833709952
226	0x3fe3ec9678cd5bd9	0.6226303443353302
227	0xbfd4ad4771949d13	-0.32307611553047016
228	0x3fc5b8ba0faaccd6	0.1696999145984594
229	0x3fda6ebb090886e7	0.41300845987471607
230	0x3fc59a8fb6a9b63a	0.16877933901871406
231	0xbfe09e8518bb9b0a	-0.5193505747855351
232	0xbfe84a0e2b060331	-0.7590399589827027
233	0x3fd54327b77990ec	0.332223824667621
234	0x3fd5edabd8186edd	0.34263130286283944
235	0xbfe2b31e293b90fe	-0.5843649678540996
236	0x3fe6ad91e582e319	0.7086877329485076
237	0x3fe3112e8384b9bc	0.5958473747939972
238	0x3fec5cdc3f867518	0.8863354912497554
239	0xbf9012a2822e81c7	-0.015696086116465027
240	0x3fe4397413268c86	0.6320133565935897
241	0xbfd9ab35637d0123	-0.4010747405591408
242	0xbfe23dc31f8ef5c7	-0.5700393310905206
243	0xbfc4444572db92f8	-0.1583334742382687
244	0x3fe8f636dfb8f91f	0.7800554627972679
245	0xbfda09c22da6a2e8	-0.4068456121263311
246	0x3fd7dfc5748a1e83	0.37303291683972634
247	0xbfb3413e0a6c64b7	-0.07521426920392825
248	0xbfe1335e1c03a544	-0.5375204608109603
249	0xbfeefcfe568d4d7a	-0.9683829966037785
250	0xbfee84fa6117cbae	-0.9537326713892662
251	0xbfc7361162c1f4c7	-0.18133752176428272
252	0xbfc4ce884ec378c6	-0.1625528702342704
253	0xbfceb32ff1032e6f	-0.23984336155114103
254	0x3fcfaa83c8e449d0	0.24739119824569267
255	0xbfea78fc42917c7a	-0.8272687244569987

bias_1 f8 [1, 32]
0	0xbf7a6063707ae8ed	-0.00643957942491567
1	0xbfa9510bc10febb2	-0.049446456257974516
2	0x3fc8c5d1c4d50324	0.19353696928922048
3	0xbfb2d78e80637a00	-0.0736016334007914
4	0x3fb677ffe7e6899a	0.08776854907640655
5	0x3fc1da268715a43c	0.13946992488789245
6	0xbfcaa4d6f5f4b8ed	-0.20815550813262665
7	0x3fc1e518c4d8c31c	0.13980397807747458
8	0xbfca2fcb06355ba5	-0.20458352854867914
9	0xbfc24f0a1d1bbf33	-0.1430370943194191
10	0xbfb798fc71dd040c	-0.09217813281885884
11	0x3fc0437cf38088bb	0.12705957307577428
12	0xbf83d9e2d0975f76	-0.009692928305341058
13	0x3f9341b28510d52a	0.018805302974404338
14	0xbfaa83b1ad33cf2f	-0.051785995858067195
15	0xbfb448423d63c19a	-0.07922758101245223
16	0xbfc0e325c0f4fdc6	-0.13193199083069213
17	0x3fbbb50a88512bb7	0.10823121860555217
18	0xbfcf835219a9d275	-0.24619508984655494
19	0xbfb9619317724b2d	-0.09914511988089876
20	0x3fb08fc2f0a7b41e	0.06469362616890392
21	0xbfcf277c91fa7251	-0.24339253547522557
22	0x3fb66e3769cad9ac	0.08761926968404649
23	0xbfbe0d590f7dcd22	-0.11739117267807278
24	0x3fb0d2a9a2560e42	0.06571445668492351
25	0xbfaedd34e42d81f3	-0.060281422475558254
26	0xbf9869fe006a358c	-0.02384182813198303
27	0xbfbcae4b16fc8724	-0.1120345049971801
28	0xbfb8d220e8fca560	-0.09695630729824734
29	0xbfc9472e673714a7	-0.1974847797374981
30	0xbfc87ca2fffa1ffa	-0.19130361079101005
31	0xbfb7e59a5686ae0b	-0.09334721195653388

weight_2 f8 [32, 10]
0	0x3fe8aac5ad895b7c	0.7708462132821832
1	0xbfe22533cad8e6cf	-0.5670412980900553
2	0x3fc072677b582150	0.12849133989971984
3	0xbfd6ff97a6eb23a2	-0.3593501215041731
4	0xbfb420935dffc60e	-0.07862206501865662
5	0x3fd44c0026783161	0.317138707702517
6	0xbfd6d22ea59425c8	-0.35657850427432125
7	0xbfdb4482ab2689b1	-0.42605654443664337
8	0xbfe16cc50b0fa141	-0.5445275512729851
9	0x3fcb135b2c63265c	0.21152820269917327
10	0xbfe8df09217c0fed	-0.7772260335918851
11	0xbff3ecf310721d62	-1.24534899162412
12	0xbfe989062f8bc105	-0.7979765823966153
13	0xbfdb167519b2d55e	-0.4232456923449116
14	0xbfef65348703566f	-0.9811041485761062
15	0x3fd99f137849b959	0.4003342318236683
16	0x3fede20880ee7eab	0.9338419454761228
17	0xbfe850f22f9d7e97	-0.7598811082825304
18	0x3fc948528ab51f5c	0.19751960537746072
19	0xbfe5c723a1561eba	-0.6805589820005118
20	0x3fdad8df571e9f28	0.41948684222960475
21	0xbff103472dfac26b	-1.0633003040385585
22	0xbfe1e6efa694d6f9	-0.5594404462378569
23	0xbfd14444d096f8b2	-0.2697917973527054
24	0x3fb3c6cfd2871ded	0.07725237741316678
25	0xbfeea1ae77ca7297	-0.9572365131058004
26	0xbff00b36d39e5755	-1.0027378336285058
27	0xbf917370ad35047e	-0.01704193169758072
28	0x3fdc6a105b73a2a5	0.4439736264307988
29	0x3fecb1b873271b28	0.8966943978383357
30	0xbff31f505af46807	-1.19514499215302
31	0x3fd9b9a76922e649	0.4019564177247941
32	0xbffd4f46e8e1bbe1	-1.8318547341293583
33	0x3fd76ca79f2e8db6	0.3660067610273602
34	0x3fd411db3b10c4a1	0.31358986633410707
35	0xbfc7fa037f5c8105	-0.1873173114663659
36	0xbffaa40a6ea07ec9	-1.6650490113606102
37	0x3fddf487b088a46c	0.46804992904305354
38	0xbfe6f3a3334cad36	-0.7172409059470854
39	0x3fcbcdd699e2347a	0.2172191859612303
40	0x3fd4368d22a85c0c	0.31582954773460936
41	0xbfed7cf25d430bf5	-0.921502287056113
42	0x3fd17fb1dfa0d3bf	0.2734188732022708
43	0xbfd862f60a47ce17	-0.38104010585740994
44	0xbfd06c89fb9bf072	-0.2566246945496068
45	0xbfcf8caab07550a3	-0.24648030868650492
46	0xbfe328caf2a95469	-0.5987295855981191
47	0xbfe3d5dae5f81d78	-0.6198553554140025
48	0x3ff1d3d128996ea6	1.1142131410514735
49	0xbff1855e91bb5e84	-1.0950608914044162
50	0x3fdba962182a90bb	0.4322133289335956
51	0xbfe9bf48ed8606a4	-0.804600204384958
52	0xbfc4d241720d80fe	-0.16266649312002096
53	0xbfd7c6e56a08681a	-0.37151465754289037
54	0xbfa09f928fcbf551	-0.032467441609677856
55	0xbff1c52c842bab14	-1.1106381571686983
56	0x3fe4c333e2c8d079	0.6488284520514888
57	0xbff13d1c5e2745bf	-1.0774196317546367
58	0x3fead26146589090	0.8381811498588991
59	0xbfe982cfe0213aa3	-0.7972182633910346
60	0x3fad4f6c097ad5cd	0.05724656692238348
61	0xbfe62d42f47b921d	-0.6930250906994534
62	0xbfc9a5117a0d6fed	-0.20034998378366656
63	0x3fe50ca0f805bf46	0.6577915996731256
64	0xbfe7b477a59e6e70	-0.7407797083610159
65	0x3fe12d1be28b55fe	0.5367564606373774
66	0xbfcd92ad57a3c1f1	-0.2310387304237476
67	0xbfd99f69c113790b	-0.4003548036106543
68	0xbfe86fa5cbb3e098	-0.7636288622443486
69	0xbfe9c9b8fdf87c20	-0.8058743439067975
70	0xbff2cfe416a95b76	-1.1757546315399998
71	0x3fdd1224d9a4e7ad	0.4542324185782672
72	0x3fdb9f5ddaa0d9a1	0.431601966385097
73	0xbfebd2640b3e6af9	-0.8694324702840667
74	0x3fe60889a2507cbf	0.6885421915248101
75	0x3fc2f4f609e128e5	0.14810061914824427
76	0xbf26f7e4fdd47bbc	-0.0001752345114391633
77	0xbff080780814717a	-1.0313644710177798
78	0x3fe0db187fcc3025	0.5267450805708945
79	0x3fd62cd48807e2a5	0.34648621830232634
80	0xbfe5ec17b77bddc2	-0.6850699027699465
81	0x3fada4c1fb8ae54b	0.057897626834754044
82	0x3fdce2e7bb0c7e33	0.45134919420704306
83	0x3fecd8c70512904f	0.9014620875427769
84	0xbff1f6b248e40cdb	-1.1227286193177892
85	0x3fb49d02b218595c	0.08052079055810196
86	0xbfc34aa034d4c400	-0.15071489886898348
87	0xbfe0639164d2074e	-0.5121542901181131
88	0xbfc6ebe8516c12dc	-0.1790743253296999
89	0xbfdccbaa704f6a03	-0.44993077247423247
90	0x3fd8715dee6645e5	0.3819193676109463
91	0xbfead193c5ea6404	-0.838083159021267
92	0xbfe59b657913650b	-0.6752192845116566
93	0xbfed8e9f1e027287	-0.9236598573803158
94	0xbff39d95464a138b	-1.225972437446418
95	0x3fec9b983f778bbf	0.893993495902002
96	0xbfd5f777d229d594	-0.343229251134596
97	0x3fc59f79a7284856	0.16892929708461918
98	0xbfbc68bda1f36f38	-0.11097321704749852
99	0xbfe7bad6bd5fc175	-0.741557474013503
100	0xbfbeb5a978772a36	-0.11995944205333661
101	0x3fd3e8d4f2f9fdee	0.31108592727829787
102	0x3fd2c8ab0f0b00c2	0.2934978148368935
103	0x3fd21b44ffa97db2	0.2829143997859901
104	0xbff089a547bbd80e	-1.0336048891163077
105	0xbfb066c2d209d78f	-0.06406800868884786
106	0xbfe5fbe4f7ff60bb	-0.6869988292410406
107	0xbfe0f04031e37385	-0.529327485502663
108	0xbfc7ce452ddbde1c	-0.1859823678894238
109	0xbfd80d01fe9e6b9d	-0.375793932582093
110	0xbfe1a55af15966c5	-0.5514349664547004
111	0x3fe97a929c561cf6	0.7962124875492964
112	0xbfe6110993a3ca98	-0.6895797618474999
113	0xbfe692486b22a3a8	-0.7053567974554555
114	0xbfe014a81708ae5b	-0.5025215577965797
115	0xbfd57f6533cc3def	-0.33590059336071837
116	0xbfe52605e0195c87	-0.6608914734778332
117	0xbfb40e4b59cf4006	-0.0783431143056533
118	0x3fed7d81bab70d42	0.921570648839783
119	0xbfd4c21507a27baf	-0.32434583421302937
120	0x3fa451a3c24290ee	0.03968536135042365
121	0x3fea6c47b08de796	0.8257177780462708
122	0xbfdae6001cda7629	-0.4202881128092906
123	0xbfd35d0e6c746f81	-0.3025547083977856
124	0xbfd34d532c1280ff	-0.3015945368188255
125	0xbfd8cfc29fd2635e	-0.3876806793937727
126	0x3fe13e1c2838c622	0.5388317857343206
127	0xbfe36950f9a7cc4c	-0.6066059948046898
128	0xbff3d68755e18ff1	-1.2398751597147533
129	0xbfc47732eea341d2	-0.15988766338570187
130	0x3fe52b4eb8cddb9d	0.6615365609603604
131	0x3fea0b6ae6176988	0.8138937467550003
132	0xbfd87527802129b0	-0.3821505309357702
133	0xbfb9deddba40f585	-0.10105691716395
134	0xbfd8ab29bb2c7a4b	-0.3854469611996236
135	0xbfe080ef4da76a5d	-0.515739108722595
136	0x3fe70f46858769d8	0.7206146820056416
137	0x3fba24f9c8e7c954	0.10212670473973634
138	0xbfaa6b40fd0d8b9b	-0.05159953202271269
139	0xbfc319d712911bf5	-0.1492260780962337
140	0x3fe58e2fa5d181bc	0.6736067045822476
141	0xbfd2efc68c6de472	-0.29588474000735865
142	0x3fe9860918fd3034	0.7976117599550947
143	0xbfe1a83a42a0cbfa	-0.5517855931597062
144	0x3fe494c4b47df9f8	0.6431602025257339
145	0xbfd208051d85c4a7	-0.28173950083789595
146	0x3fd9b551090834ff	0.40169168359791735
147	0xbff3cedbc9cc25e0	-1.2380025751793866
148	0xbfde53339d221047	-0.473828223657851
149	0xbfbeafca6ab3082a	-0.11986985306705891
150	0x3fb32265523a55f0	0.0747435880424161
151	0xbff1a26707ed3ec3	-1.1021490392339934
152	0xbfd37f7c6dedb00a	-0.30465613112642187
153	0xbf90be9e9f8f6924	-0.016352156151563282
154	0x3ffab03fb02fd9c3	1.6680294878293445
155	0xbfd662fb17a0710a	-0.3497913103799567
156	0xbfb42b363f38a456	-0.07878436130035146
157	0xbfb04a9ff8a640f7	-0.06363868542235084
158	0xbfd546da7218738e	-0.33244954244747127
159	0xbfd4eb85d2264a4d	-0.32687516710681025
160	0x3fe3100093c343c1	0.5957034002295744
161	0xbfe016b7a427f994	-0.5027731138396114
162	0x3fe3a70ae1f4efba	0.6141409314363877
163	0xbfd4ce0bc1324f2b	-0.325076044720151
164	0xbfe37f3c950104c3	-0.6092818174585307
165	0xbf8b7bee2bd002a3	-0.013419972145130748
166	0x3fcd1e1d904c480c	0.22748155160712746
167	0x3fe291ab9fdc6c08	0.5802820322309126
168	0xbfe4427bc8c7864e	-0.6331156655762216
169	0xbfe43512b79635d7	-0.6314786515883338
170	0xbfe97779cc9d83c3	-0.7958344456093233
171	0x3fd7f6f39c3b4828	0.37444772965420947
172	0xbff430826d427232	-1.261843134684693
173	0xbfe017803d466e03	-0.5028687664775479
174	0xbfd6c295ba823460	-0.35562651838046655
175	0x3fe2d654f38a3dd6	0.5886635548249
176	0xbfc46da3fdbffe29	-0.15959596529136036
177	0xbfee77cb5f791f22	-0.9521233429631801
178	0x3fcbb33707c11f70	0.21640670660621764
179	0x3fd7858167a55f53	0.36752352830580043
180	0xbfe38ea5054a9163	-0.6111626723618823
181	0x3fec693210d16307	0.8878412559962222
182	0x3fd8bcc0302fa9b7	0.3865204306190679
183	0xbfde94effd0ab46f	-0.47784042082896055
184	0xbfe68338ca81b5cd	-0.7035182910164451
185	0xbfb2bab4fb55a98e	-0.07316142212008556
186	0xbfd12ce8d9134f75	-0.268366062152601
187	0x3ff2dbfef973bea5	1.1787099594329586
188	0xbfdd2f528439423d	-0.45601332581012227
189	0xbfe32d627ebe7643	-0.5992901301830859
190	0xbfda773e5fadefe9	-0.41352805465407855
191	0xbfe8ae27c2ca1574	-0.771259193847682
192	0xbfb0865dd5313195	-0.0645502706040076
193	0x3fba3b98ff0e98a5	0.10247188784578272
194	0xbff92f6143b8630d	-1.5740673680613242
195	0xbfefea60a29fd4c7	-0.9973605324036264
196	0xbfe8c72b717f55f7	-0.7743127075906945
197	0x3feb22341d63a398	0.8479252408989053
198	0xbfd93d3323d400d0	-0.39436033724633734
199	0x3fea37be90749354	0.8193047353166585
200	0x3feebb9a0f7c1030	0.9604006102022193
201	0xbff2b2ec8371bda0	-1.1686825880568463
202	0xbfee577631da25bd	-0.9481764768290116
203	0xbfdfbec8ab8f377b	-0.49601952318049997
204	0xbfe9527b0ce9a613	-0.791318440647219
205	0x3fd62a56ef8eb70f	0.3463342036655925
206	0x3fd8e1c5b0fe8be8	0.38878004345514094
207	0x3fd7414647b7504e	0.3633590412475812
208	0xbfe7cd5221f502de	-0.7438135779594537
209	0x3fb49da3c9046b75	0.08053039224289
210	0xbfe9603eb9de549a	-0.7929986601108283
211	0xbff491477124f0b1	-1.2854685229968192
212	0x3fe4db4e3447f21b	0.6517706891168616
213	0x3fe83b1b18969345	0.7572150688398344
214	0xbfe5a44717e25361	-0.676303431175807
215	0xbfcf41ac40ef3cf0	-0.24419167681342158
216	0xbfeef132d2e014a8	-0.9669431799562931
217	0x3fe8bee222c28db2	0.773301189318252
218	0xbf9aa0ab2c12deb8	-0.02600352722649177
219	0xbff56637035bd497	-1.3374548083495819
220	0xbfb01dc6cabdd0e3	-0.06295435380690466
221	0xbff52b6b66f01d53	-1.3231004735005925
222	0xbfeeb0192477626b	-0.9589963638528166
223	0x3fe5419a356f4254	0.6642581027645726
224	0xbfc3417da06b67bb	-0.15043611844049373
225	0x3fb2e401f5b807e9	0.0737916207217776
226	0xbfed42f9bce5ded1	-0.9144257249272078
227	0xbfc6000371b30018	-0.1718754105731939
228	0x3fd123ea9d0011e6	0.26781716663415833
229	0x3fea2ff25b6cc2b2	0.8183528695718307
230	0xbfe67a342700210e	-0.7024174463013269
231	0xbff84789d151d7b6	-1.517465417532987
232	0x3fd5e3850e417271	0.3420117034163815
233	0xbfde154fe59d9534	-0.4700507871951516
234	0x3fe488e430778304	0.6417103716486001
235	0xbfe1dc2ec7316ecc	-0.558127774285333
236	0xbfbaa939b2b44ae0	-0.10414467442414432
237	0x3fdc8fe4fdd48437	0.4462826231775269
238	0xbfeae54509f2590e	-0.8404870218535352
239	0xbfbc54e8f0638db0	-0.11067062252873572
240	0xbfe2a53605e3e9c8	-0.5826673617405556
241	0xbff0c5a22188fd4f	-1.048250323292297
242	0xbfe57c76382a91c5	-0.6714430901525296
243	0x3fd5191c294baa5e	0.3296575930859599
244	0xbfef9ebf9630cb09	-0.9881284650240058
245	0x3fdf728f44f0655e	0.491367165873802
246	0xbfdecfadde539ab4	-0.48142573081569684
247	0xbfdbf35138653719	-0.43672590739594025
248	0x3fe471a672e85fd4	0.6388733143130545
249	0xbfe096dd340c5e12	-0.5184160248344958
250	0xbfeb5d9501ccbbbb	-0.8551735911513484
251	0x3fcfee273a05261e	0.24945535977376293
252	0x3fcd3918bba4f171	0.22830495035476475
253	0xbfd0e75164064dc6	-0.2641185261538478
254	0x3fdfc902bc4996ab	0.4966437185997658
255	0xbfdf7eaf91a8a014	-0.4921072885940714

bias_2 f8 [1, 10]
0	0x3fb32a3cff4b7e23	0.07486325485978589
1	0xbfadb224efb2e1ef	-0.05799975801477674
2	0xbfb0a03b9756bcaf	-0.06494495816035582
3	0xbfc15791128271d2	-0.1354848232630404
4	0xbfb770714afd99e1	-0.0915594871599761
5	0xbfcb95e35d91dc13	-0.21551172322116993
6	0xbfc538c06c748b79	-0.16579442306200656
7	0xbfbfbd7454812f16	-0.12398459494687261
8	0x3fdc4b6ecbec9a7f	0.44210405268169234
9	0x3fca299848d33375	0.2043943744269218

loss_history f4 [10]
0	0x3f230008	0.6367192
1	0x3e9d0bcc	0.30673063
2	0x3e7eaea6	0.2487131
3	0x3e605792	0.21908405
4	0x3e4da64f	0.20082973
5	0x3e41c916	0.18924364
6	0x3e350ba1	0.17680217
7	0x3e307125	0.17230661
8	0x3e28f6d4	0.16500407
9	0x3e25b460	0.16182089

accuracy_history f4 [10]
0	0x42a0a58c	80.32333
1	0x42b622fd	91.06834
2	0x42b9aeef	92.84167
3	0x42bb57e5	93.67167
4	0x42bc5555	94.166664
5	0x42bd170a	94.545
6	0x42bde81b	94.95333
7	0x42be1c29	95.055
8	0x42be8889	95.26667
9	0x42beed3a	95.46333

val_loss_history f4 [2]
0	0x3dded001	0.10879517
1	0x3e001f1e	0.1251187

val_accuracy_history f4 [2]
0	0x42c16666	96.7
1	0x42c16666	96.7
