checkpoints/model_epoch_0130.npz (npz, 385132 bytes, 10 tensors)

weight_0 f8 [784, 64]
000000 4b 12 e5 21 00 00 00 00 7f 7a 51 0e 00 00 00 00
       2.809556444e-315 1.18684844e-315
000010 53 cc fd 0d 00 00 00 00 4e b4 30 1a 00 00 00 00
       1.159753507e-315 2.170921987e-315
000020 3d 4c 6e 04 00 00 00 00 11 08 d1 1d 00 00 00 80
       3.67275264e-316 -2.47150585e-315
000030 c0 ab ec 0b 00 00 00 80 b5 a1 76 1f 00 00 00 80
       -9.8842694e-316 -2.60801613e-315
000040 e1 a6 b9 03 00 00 00 00 d8 a0 b1 21 00 00 00 80
       3.0878376e-316 -2.79289962e-315
000050 73 4b f2 21 00 00 00 00 1f 60 f0 02 00 00 00 80
       2.813838017e-315 -2.43612303e-316
000060 8d 1a 09 20 00 00 00 00 ed 4b f4 04 00 00 00 00
       2.65544244e-315 4.10662844e-316
000070 0c b9 1a 21 00 00 00 80 3d c3 92 08 00 00 00 80
       -2.74403781e-315 -7.1064409e-316
000080 d0 89 ce 17 00 00 00 00 9f 28 67 0e 00 00 00 80
       1.973355817e-315 -1.193868285e-315
000090 21 27 19 13 00 00 00 00 8b f0 96 02 00 00 00 00
       1.583063013e-315 2.1465379e-316
0000a0 68 d6 3a 12 00 00 00 00 11 3b 4d 14 00 00 00 80
       1.511079343e-315 -1.682815816e-315
0000b0 71 2a 27 14 00 00 00 00 97 74 cf 11 00 00 00 00
       1.670490736e-315 1.47631e-315
0000c0 21 94 72 04 00 00 00 00 c1 48 92 17 00 00 00 00
       3.68661355e-316 1.95384608e-315
0000d0 09 86 80 0f 00 00 00 80 1f 7e 9c 06 00 00 00 80
       -1.28497167e-315 -5.48013657e-316
0000e0 2f 7e 0a 00 00 00 00 00 80 35 ac 02 00 00 00 00
       3.397507e-318 2.21540617e-316
0000f0 19 d8 c1 21 00 00 00 00 5f c6 95 0a 00 00 00 00
       2.79815016e-315 8.77400346e-316
000100 22 6b 8b 03 00 00 00 80 d6 cb e2 08 00 00 00 00
       -2.93813814e-316 7.36558233e-316
000110 aa 54 11 03 00 00 00 00 8e ff cb 1c 00 00 00 80
       2.5428291e-316 -2.38698567e-315
000120 f5 33 42 07 00 00 00 00 27 5b a3 0d 00 00 00 80
       6.01669137e-316 -1.13046919e-315
000130 fd fe 97 18 00 00 00 80 73 d7 d3 21 00 00 00 00
       -2.038585985e-315 2.803977573e-315
000140 61 8b ea 0d 00 00 00 80 79 ec 04 1b 00 00 00 80
       -1.153519337e-315 -2.23963669e-315
000150 70 ee c1 0c 00 00 00 80 30 c8 57 0d 00 00 00 00
       -1.05747874e-315 1.10599899e-315
000160 68 7b 82 1e 00 00 00 00 45 6c f3 0e 00 00 00 80
       2.528962715e-315 -1.23928457e-315
000170 a3 2a 90 1e 00 00 00 00 5d 66 63 15 00 00 00 00
       2.53339363e-315 1.772884437e-315
000180 fa 22 84 0b 00 00 00 80 11 ac 09 15 00 00 00 00
       -9.545797e-316 1.74383142e-315
000190 d2 af e3 1f 00 00 00 80 7f 41 8e 0a 00 00 00 80
       -2.643327183e-315 -8.7496575e-316
0001a0 ef 69 e4 21 00 00 00 80 b6 d9 8b 03 00 00 00 80
       -2.8093435e-315 -2.93953674e-316
0001b0 d5 91 45 01 00 00 00 00 b8 07 5c 0e 00 00 00 80
       1.0541648e-316 -1.19026497e-315
0001c0 82 97 98 0a 00 00 00 80 51 b1 11 14 00 00 00 00
       -8.78312445e-316 1.66353793e-315
0001d0 25 98 da 22 00 00 00 00 f8 23 83 23 00 00 00 80
       2.8890545e-315 -2.943628217e-315
0001e0 9f 02 7c 01 00 00 00 80 10 78 ad 18 00 00 00 80
       -1.23043843e-316 -2.04553873e-315
0001f0 58 bc 18 02 00 00 00 00 f7 17 26 0d 00 00 00 80
       1.7379012e-316 -1.08991035e-315
000200 a4 17 a7 08 00 00 00 80 6e eb 14 11 00 00 00 00
       -7.1722666e-316 1.41591142e-315
000210 0c dd 2b 12 00 00 00 80 16 f1 ae 08 00 00 00 80
       -1.50623088e-315 -7.1976822e-316
000220 cb e4 52 1b 00 00 00 80 34 2b 88 1f 00 00 00 80
       -2.264882666e-315 -2.61369448e-315
000230 a0 a2 34 03 00 00 00 80 20 9c 83 0a 00 00 00 00
       -2.65714196e-316 8.71518677e-316
000240 f6 71 88 0b 00 00 00 00 b9 37 90 1a 00 00 00 80
       9.5597476e-316 -2.20184834e-315
000250 37 b1 38 1c 00 00 00 00 d4 5e 46 21 00 00 00 80
       2.339289327e-315 -2.7581705e-315
000260 26 e7 0a 23 00 00 00 80 22 a7 2b 16 00 00 00 00
       -2.904696387e-315 1.83772453e-315
000270 53 ff 3b 01 00 00 00 80 af 93 ee 1e 00 00 00 00
       -1.0231706e-316 2.563962834e-315
000280 b7 35 fc 05 00 00 00 00 53 6a 85 16 00 00 00 00
       4.9611554e-316 1.866788797e-315
000290 d7 db 04 10 00 00 00 80 e7 d5 18 22 00 00 00 00
       -1.32782059e-315 2.826317186e-315
0002a0 2e 1e bd 1e 00 00 00 80 45 da 81 01 00 00 00 80
       -2.54794846e-315 -1.2493555e-316
0002b0 4f c0 e8 15 00 00 00 80 42 92 65 06 00 00 00 80
       -1.816062386e-315 -5.3023063e-316
0002c0 e7 02 78 0d 00 00 00 00 43 fd c6 0e 00 00 00 00
       1.11643456e-315 1.224897366e-315
0002d0 d8 93 a8 10 00 00 00 80 d0 35 55 02 00 00 00 80
       -1.38083123e-315 -1.93371207e-316
0002e0 0b 15 37 08 00 00 00 00 26 df 96 14 00 00 00 80
       6.80958797e-316 -1.70666008e-315
0002f0 69 8f b1 1b 00 00 00 00 93 4a 12 1f 00 00 00 00
       2.295534805e-315 2.575526836e-315
000300 99 38 5a 21 00 00 00 80 60 c3 6a 02 00 00 00 00
       -2.76459796e-315 2.00349864e-316
000310 b9 cc 12 21 00 00 00 80 41 a9 f5 14 00 00 00 80
       -2.74147237e-315 -1.737352047e-315
000320 96 95 62 08 00 00 00 80 48 e3 a3 0a 00 00 00 80
       -6.95044387e-316 -8.81969983e-316
000330 e4 4d 9f 15 00 00 00 00 b2 73 29 0b 00 00 00 80
       1.792280936e-315 -9.25216824e-316
000340 48 9f e4 00 00 00 00 80 47 d1 86 1d 00 00 00 00
       -7.4025777e-317 2.44747603e-315
000350 d5 d0 36 1e 00 00 00 80 19 26 1c 15 00 00 00 00
       -2.504462657e-315 1.749814003e-315
000360 20 33 61 1f 00 00 00 80 66 af 21 15 00 00 00 00
       -2.601076655e-315 1.751606616e-315
000370 33 9b 8b 12 00 00 00 00 72 81 12 11 00 00 00 00
       1.537231518e-315 1.41512979e-315
000380 61 8a ce 16 00 00 00 80 d7 90 2b 16 00 00 00 00
       -1.890466073e-315 1.837696335e-315
000390 b5 27 03 22 00 00 00 80 56 b2 6c 01 00 00 00 80
       -2.819297254e-315 -1.18085434e-316
0003a0 e1 bb 96 1e 00 00 00 80 06 4c 2b 24 00 00 00 00
       -2.53552008e-315 2.998075743e-315
0003b0 f2 01 92 21 00 00 00 00 f3 88 a4 1e 00 00 00 00
       2.782661126e-315 2.539988733e-315
0003c0 7c a5 0d 04 00 00 00 00 e6 30 c1 1f 00 00 00 80
       3.3598043e-316 -2.63215776e-315
0003d0 45 51 8f 0f 00 00 00 00 a2 e5 66 17 00 00 00 00
       1.28976179e-315 1.939797703e-315
0003e0 65 8b fd 1a 00 00 00 00 ef 9a c9 20 00 00 00 80
       2.23724737e-315 -2.717772663e-315
0003f0 86 2d 87 12 00 00 00 00 59 57 8d 14 00 00 00 80
       1.535797635e-315 -1.7035742e-315
000400 68 8c ff 10 00 00 00 00 21 2c 59 04 00 00 00 80
       1.408991626e-315 -3.60435044e-316
000410 02 44 e1 0e 00 00 00 00 6d 16 fe 06 00 00 00 00
       1.23340541e-315 5.79614007e-316
000420 d7 93 ed 01 00 00 00 00 df 8a d0 08 00 00 00 80
       1.59815884e-316 -7.3064783e-316
000430 f0 88 a7 21 00 00 00 00 ef 93 c8 1d 00 00 00 80
       2.789631473e-315 -2.468768637e-315
000440 5f 74 7d 09 00 00 00 80 bb 8e 57 0a 00 00 00 00
       -7.8663519e-316 8.57254937e-316
000450 21 60 82 01 00 00 00 80 2c 32 04 02 00 00 00 80
       -1.25104857e-316 -1.6713954e-316
000460 c2 46 89 0a 00 00 00 80 9f f3 c9 09 00 00 00 00
       -8.7335345e-316 8.1140424e-316
000470 90 cb 34 05 00 00 00 80 0c 59 00 14 00 00 00 00
       -4.31546895e-316 1.65792184e-315
000480 19 7f 37 21 00 00 00 00 2e 88 b2 1e 00 00 00 80
       2.75335445e-315 -2.54452083e-315
000490 0a fb 1e 1b 00 00 00 00 77 ab 41 1d 00 00 00 00
       2.24807368e-315 2.425086633e-315
0004a0 33 a6 ca 0d 00 00 00 80 66 01 c7 00 00 00 00 00
       -1.14319195e-315 6.443615e-317
0004b0 5d 53 0d 1e 00 00 00 80 1f 13 94 0d 00 00 00 00
       -2.491028537e-315 1.12552122e-315
0004c0 79 02 a0 0b 00 00 00 00 bb 2a 75 13 00 00 00 80
       9.6360473e-316 -1.61285633e-315
0004d0 a5 d2 1d 21 00 00 00 00 47 0a 30 0b 00 00 00 00
       2.74504156e-315 9.27350027e-316
0004e0 49 ae c4 11 00 00 00 80 94 a4 90 06 00 00 00 80
       -1.472821276e-315 -5.44176807e-316
0004f0 15 a4 2f 04 00 00 00 00 80 73 b5 12 00 00 00 80
       3.46987545e-316 -1.55078052e-315
000500 2f 72 dd 01 00 00 00 80 15 11 ac 0f 00 00 00 80
       -1.5459266e-316 -1.29907054e-315
000510 ed b4 42 20 00 00 00 80 a6 72 7f 1d 00 00 00 80
       -2.67409377e-315 -2.445089805e-315
000520 76 84 63 19 00 00 00 00 1c ad 49 14 00 00 00 80
       2.10448435e-315 -1.681664895e-315
000530 a0 01 67 02 00 00 00 00 59 3c b8 10 00 00 00 80
       1.99133435e-316 -1.385901216e-315
000540 74 9c 7c 14 00 00 00 00 bb 84 d3 1e 00 00 00 00
       1.69815716e-315 2.55520157e-315
000550 58 a8 66 0d 00 00 00 00 73 ef c7 02 00 00 00 80
       1.11081558e-315 -2.3051816e-316
000560 d8 53 8f 22 00 00 00 80 d8 d3 81 14 00 00 00 80
       -2.8646838e-315 -1.699846175e-315
000570 bd bd 9d 06 00 00 00 00 5d 87 2c 07 00 00 00 00
       5.4841791e-316 5.9465123e-316
000580 57 0b ef 0d 00 00 00 80 68 ce 5a 0e 00 00 00 80
       -1.154976346e-315 -1.18986869e-315
000590 33 f2 fc 0b 00 00 00 80 43 2c 66 08 00 00 00 80
       -9.936967e-316 -6.96206335e-316
0005a0 50 4e 87 1e 00 00 00 80 7f 56 29 1c 00 00 00 80
       -2.530524634e-315 -2.334317723e-315
0005b0 66 ff 64 0d 00 00 00 80 52 c5 78 04 00 00 00 80
       -1.110278104e-315 -3.7066632e-316
0005c0 51 72 0a 00 00 00 00 00 aa 46 f2 11 00 00 00 80
       3.382497e-318 -1.487584595e-315
0005d0 b1 4c b0 0f 00 00 00 80 3d 05 4a 00 00 00 00 80
       -1.3004411e-315 -2.396715e-317
0005e0 c4 ef 6f 20 00 00 00 80 90 17 4e 04 00 00 00 00
       -2.68873878e-315 3.5684733e-316
0005f0 f7 19 16 09 00 00 00 00 d7 14 92 02 00 00 00 00
       7.53170385e-316 2.13080745e-316
000600 ff b1 f6 22 00 00 00 80 ef cd 47 19 00 00 00 80
       -2.898153343e-315 -2.09551113e-315
000610 1d 5c de 0f 00 00 00 80 d9 98 ab 1f 00 00 00 80
       -1.315354986e-315 -2.62516584e-315
000620 ea bb 0c 02 00 00 00 80 a6 c5 46 18 00 00 00 80
       -1.69904087e-316 -2.0122864e-315
000630 5f c8 8b 1b 00 00 00 80 3d 9f 8e 15 00 00 00 80
       -2.283302797e-315 -1.78687938e-315
000640 1f 51 07 08 00 00 00 00 c2 9b 3e 0c 00 00 00 80
       6.65492823e-316 -1.014957564e-315
000650 c0 1e 96 00 00 00 00 80 d8 21 51 1a 00 00 00 00
       -4.860752e-317 2.18142184e-315
000660 da c9 2b 1f 00 00 00 00 aa 72 44 05 00 00 00 00
       2.58378259e-315 4.3661511e-316
000670 83 db 69 0f 00 00 00 80 f1 cb 55 15 00 00 00 00
       -1.27763259e-315 1.76847984e-315
000680 56 ce f5 15 00 00 00 00 01 fa c1 17 00 00 00 80
       1.82028941e-315 -1.969288437e-315
000690 c0 97 a1 18 00 00 00 80 8e 06 f5 22 00 00 00 00
       -2.041693317e-315 2.89761271e-315
0006a0 80 20 5e 1a 00 00 00 00 41 5a 16 14 00 00 00 80
       2.18562942e-315 -1.665046765e-315
0006b0 c1 19 8b 1a 00 00 00 80 7a 6e dc 1c 00 00 00 00
       -2.20019148e-315 2.39230662e-315
0006c0 e1 17 e1 11 00 00 00 80 3e 72 57 0e 00 00 00 00
       -1.482020976e-315 1.18878075e-315
0006d0 48 bb 52 1d 00 00 00 00 7f c1 fe 01 00 00 00 00
       2.43061108e-315 1.65378075e-316
0006e0 de 47 0d 22 00 00 00 00 75 fb 79 1c 00 00 00 00
       2.82257584e-315 2.360429636e-315
0006f0 3a 4b c8 00 00 00 00 80 df a0 a0 0d 00 00 00 80
       -6.485332e-317 -1.129585997e-315
000700 a1 a4 ae 1c 00 00 00 00 81 08 1f 0c 00 00 00 80
       2.37748073e-315 -1.0047338e-315
000710 b9 b5 46 04 00 00 00 80 52 50 d8 05 00 00 00 00
       -3.54457047e-316 4.8449272e-316
000720 19 1c f3 00 00 00 00 80 ec a7 4f 19 00 00 00 00
       -7.8716718e-317 2.09805338e-315
000730 2d c5 22 21 00 00 00 80 31 f8 ef 08 00 00 00 80
       -2.74664348e-315 -7.40823615e-316
000740 f0 e5 31 01 00 00 00 80 3a 4f 6a 04 00 00 00 00
       -9.904704e-317 3.6598388e-316
000750 fa e6 a9 11 00 00 00 00 54 de ca 1e 00 00 00 00
       1.464150627e-315 2.552400774e-315
000760 e7 99 ee 1c 00 00 00 80 3e c7 00 12 00 00 00 80
       -2.39818978e-315 -1.492280294e-315
000770 52 52 06 07 00 00 00 00 19 c3 ef 0a 00 00 00 80
       5.8228009e-316 -9.06537383e-316
000780 fa 1a 6b 02 00 00 00 00 72 95 9e 22 00 00 00 00
       2.00460664e-316 2.869623636e-315
000790 a7 19 ed 10 00 00 00 00 61 f6 51 1a 00 00 00 80
       1.40301825e-315 -2.181690657e-315
0007a0 e7 4f 7a 18 00 00 00 00 1a e9 38 0e 00 00 00 00
       2.0289746e-315 1.178893565e-315
0007b0 ed ed 7b 1d 00 00 00 00 90 7b 23 07 00 00 00 00
       2.443950563e-315 5.91722187e-316
0007c0 ee 95 8d 0f 00 00 00 00 28 1c e1 0d 00 00 00 80
       1.289201053e-315 -1.150464544e-315
0007d0 3c 2e 83 15 00 00 00 00 df 2e db 18 00 00 00 80
       1.783174753e-315 -2.060340536e-315
0007e0 ce 95 f9 0e 00 00 00 80 6e a0 6a 03 00 00 00 00
       -1.241279847e-315 2.83196126e-316
0007f0 c0 d1 06 1e 00 00 00 00 4a e7 c9 0c 00 00 00 00
       2.488921856e-315 1.060060026e-315

bias_0 f8 [1, 64]
000000 ba 05 7b 72 e0 68 c2 bf 94 fe f6 64 b8 60 db bf
       -0.14382558431502251 -0.4277783380493727
000010 55 f0 0d da d3 d5 a5 bf 1a d4 d2 82 9f 6f 7f 3f
       -0.04264699971005884 0.007674811449011743
000020 5d e2 cb 0c 2c 5a d1 bf 98 8c c0 e4 f2 0f e8 bf
       -0.2711286663975779 -0.751946875363859
000030 22 aa 42 67 00 da ae bf de 3c e2 a2 57 75 e3 bf
       -0.06025697002890619 -0.6080740147898742
000040 1b ae ca 21 58 31 e0 bf 3c ae e1 15 60 ae a2 3f
       -0.5060234699244036 0.036486628218736133
000050 98 06 84 7c 73 97 d7 3f 6d 04 7c dc 61 8c cc bf
       0.36861884269465284 -0.22303412690965577
000060 6e d7 c5 c0 75 c2 e5 bf d7 b7 ca 44 ee ee c5 bf
       -0.679987789639865 -0.17135408743837274
000070 ba 14 a5 c0 3e 6b e4 bf a4 28 a9 51 8a 63 e6 bf
       -0.6380914461702993 -0.699650916570381
000080 ad f5 b5 22 2c 85 d2 3f 6e 26 0e 05 e2 43 de bf
       0.28937819852566343 -0.47289324277571765
000090 f5 84 04 3e a1 99 d7 bf 92 c6 d3 87 dc 21 78 3f
       -0.3687518220559263 0.0058916677928536765
0000a0 54 27 9a eb cc ad d9 bf 32 d8 bb ec cf 24 dc 3f
       -0.4012329388429994 0.439746838746376
0000b0 05 d2 1f 13 16 aa ce bf c6 99 6a 89 48 a4 e3 bf
       -0.23956561979106553 -0.6138041194833981
0000c0 92 6e 47 3d f8 c4 d7 3f 06 0d d5 e5 fe b2 ba bf
       0.37139707550316203 -0.10429375754488399
0000d0 f3 2a fa 9a a6 8b bd bf 5a 32 f3 41 62 ef d5 3f
       -0.1154121521341656 0.3427358287852137
0000e0 4c 64 55 1b 15 77 da 3f 69 65 17 3d cb 02 c5 bf
       0.41351821584027415 -0.16414776308992465
0000f0 7e 1f 8b d1 be b2 93 3f bb 20 11 47 00 39 ce bf
       0.019236547030942124 -0.23611453504623178
000100 e5 73 f0 e8 32 43 e3 bf ff 72 83 d2 3a 19 a5 3f
       -0.6019529866786085 0.0412081129049735
000110 f9 77 d3 bc bf 70 cf bf 30 b5 f6 63 74 a8 e6 bf
       -0.24562832565328543 -0.7080633118072566
000120 e4 0f 89 0c 4c aa c6 bf 6c fb 2f 5f 50 b7 db bf
       -0.17707205402450577 -0.43306359573028064
000130 ce eb fa 6c c4 12 d7 bf ca 32 84 d5 4a 73 ab 3f
       -0.36052046434968765 0.05361398559953086
000140 e6 30 31 13 11 99 c5 bf 3f 42 e4 2d 26 a9 bb bf
       -0.16873372494808975 -0.10804976101304307
000150 ef e4 4a eb eb 37 97 bf 0b 21 4c a1 03 50 cb bf
       -0.02267426131831923 -0.2133793389878139
000160 68 eb 89 7e 8f 22 e5 bf 6e f2 a6 da fa 2f 9a bf
       -0.6604688140354087 -0.025573653789012267
000170 99 69 43 69 27 78 ac 3f 40 f0 31 cf 6c 58 cc 3f
       0.055604201888587564 0.22144851796099552
000180 44 f6 d3 47 4b 08 ea bf f8 ac 8b 76 2f 80 e0 bf
       -0.8135124590768972 -0.5156476321548373
000190 87 28 fd 00 26 fc df bf 57 65 81 f4 40 40 d0 3f
       -0.4997649202019904 0.2539217365025101
0001a0 bb 0a d8 41 55 d1 c0 bf e2 86 7b 76 3a c1 cd 3f
       -0.13138833727869845 0.23245936188964494
0001b0 31 2c e5 35 05 39 d8 bf b9 51 51 3c c5 a0 ea bf
       -0.3784802461929671 -0.8321252992705502
0001c0 77 54 c8 c4 a1 e9 e3 bf 07 a0 ec 38 e8 16 cb 3f
       -0.6222695201310121 0.21163656978137643
0001d0 76 76 0b 64 1b 8d e3 bf 5e 97 3d c1 cc 01 e1 bf
       -0.6109749750136888 -0.5314697050314228
0001e0 76 b0 15 d9 24 d4 58 3f 2c 45 ff fe 01 05 a7 3f
       0.001515422806131842 0.04496008146055383
0001f0 20 9e 31 ab 65 13 c9 3f 3c 46 eb 5b 4d 83 d3 bf
       0.19590445384095379 -0.3048890493056182

weight_1 f8 [64, 32]
000000 fa 58 6a 28 f0 db 16 c0 06 c0 63 9a e5 a9 e5 3f
       -5.714783317080441 0.6769893660948589
000010 fb 04 e4 0c c4 6a 20 c0 b6 77 76 d8 7b 98 f6 bf
       -8.208526995500952 -1.4122274833275532
000020 26 1c d3 93 93 71 18 c0 25 0d 8e 76 fe b2 ff bf
       -6.110914525756959 -1.9811997061777415
000030 41 1f 04 a0 e7 ff 0a c0 b7 fc 09 6e 35 2c fa 3f
       -3.3749535084970437 1.6357931421660348
000040 00 89 49 10 c3 8d fe bf eb 2b 3a 38 23 8c 0f c0
       -1.9096098552914214 -3.943426551127677
000050 05 98 cb 3e 77 f9 c1 3f c4 ac 4a 57 09 51 b1 bf
       0.14042559209991637 -0.06764276868004787
000060 ea d7 88 b5 95 85 f6 3f d1 4c ab 8a 1b 3b f1 3f
       1.4076134768670223 1.0769305626643482
000070 f0 aa f4 34 47 4c e2 3f 1b ba 9d 42 6c b2 e5 3f
       0.5718112978259722 0.6780301381202806
000080 0a 17 5f fd bf df fe bf 5e e5 92 73 83 ac 16 c0
       -1.9296264550516207 -5.668470197525805
000090 6c 5f 58 4e 08 10 f2 3f 32 cf f6 15 74 89 01 c0
       1.1289141712531672 -2.1921159473366965
0000a0 52 3f 69 7f 06 f1 f4 bf b8 90 7b 5f 42 9b f7 bf
       -1.3088440873143168 -1.475405095080573
0000b0 f5 b3 9d 8c db 8c 13 c0 c6 19 cc 3a 4d df f1 3f
       -4.887556264043259 1.1170170113342563
0000c0 83 e2 f0 32 7f a8 13 c0 be 2d d7 eb 98 98 f3 3f
       -4.9145477256321355 1.2247552120705758
0000d0 19 e0 9e c4 68 87 d2 bf ab 61 42 96 e9 4e ea 3f
       -0.28951472474318646 0.8221328673126228
0000e0 45 ec 8d 8c c8 96 fd bf 1b af 32 22 40 a2 15 c0
       -1.8493123522191734 -5.408447775214678
0000f0 44 72 45 57 a6 ae a1 bf b4 3c 49 17 44 4d e4 bf
       -0.0345355969936674 -0.6344318823629664
000100 78 5a 9d bf b4 1f d2 3f 3b dd 16 82 2d 5e 04 c0
       0.28318518364304834 -2.5459852374293894
000110 3e e0 03 ca c7 30 09 c0 c4 c2 df 96 81 35 0b c0
       -3.148818567508015 -3.401126078323019
000120 f6 d0 33 d4 50 73 aa 3f aa 3c 0d 26 75 96 16 c0
       0.0516610392604963 -5.6469312615946965
000130 1b 2a bb b6 fe 9b d0 3f ba 22 25 c9 67 2e 07 c0
       0.25952117771945077 -2.8976588930566693
000140 74 a1 6d 8e be b6 c9 3f f5 58 b3 e1 94 bd d1 3f
       0.20088941530708448 0.2771961406809987
000150 79 02 b8 ef 1a 01 d1 bf ad 5f 9c ee ec 43 22 c0
       -0.2656924572948252 -9.132667023266402
000160 d4 0b 9b b5 75 f9 0a c0 4b c6 e1 1e 7b 13 e4 3f
       -3.3718065441075655 0.6273780444300397
000170 84 dc a3 37 7a 7e a8 3f 7c d9 df 88 f4 d3 b4 bf
       0.04783994607162703 -0.08135917989407021
000180 fc 92 25 35 03 2a c7 3f 11 69 5e ef 16 62 fd bf
       0.18096962065751387 -1.8364476538031946
000190 c3 44 71 ec 6c 4b 14 c0 b2 90 f4 66 44 bf 11 c0
       -5.0736576980718295 -4.436784371068073
0001a0 f4 2e 0d 9e 24 2d e1 3f 7c 93 a2 9d 79 ca fc bf
       0.5367606245940508 -1.7994323880786558
0001b0 4c 14 d2 a3 69 f6 a9 bf 2f 89 6d fd d5 73 10 c0
       -0.050708104369768664 -4.113120994387187
0001c0 55 d5 39 1c b3 31 d6 3f 1c 14 19 9e fd 83 0c c0
       0.3467834258693377 -3.564448580875718
0001d0 e6 88 85 cb 9e 99 e2 bf e6 85 82 44 19 e8 11 c0
       -0.5812524771720546 -4.476658888308043
0001e0 38 85 8d 1f 8a 66 f9 bf 45 81 88 56 07 ce 00 c0
       -1.587534068349056 -2.100599933663178
0001f0 70 8d 40 22 8c 1e 03 c0 83 b0 6e 9d a6 bf d5 bf
       -2.3899157215070588 -0.3398224389482111
000200 d4 c3 bf fd 4e 3b 12 c0 06 8e e7 93 09 6f c6 3f
       -4.55791851504269 0.17526359292888588
000210 ac 43 44 d6 d5 f9 16 c0 9c ff df 3e d7 99 f0 3f
       -5.743979785839581 1.0375587898306327
000220 82 03 4d 51 72 7f 11 c0 f4 9e 14 38 9f 6a 0d c0
       -4.374459524465125 -3.677061498765278
000230 9d f7 4a a9 08 24 e3 3f 83 84 58 1f 6f 36 d9 3f
       0.5981486612797543 0.3939473920928053
000240 0e aa 61 68 15 11 c1 bf 09 8a c2 0c 35 e7 ce bf
       -0.13333385082962973 -0.24143088458102138
000250 f8 53 6e a0 3b 40 0b c0 ca 4e 8e fe 5e ca be 3f
       -3.406363728873199 0.12027543749564554
000260 bf 46 a6 9a dc e5 e7 3f 4c 6f 89 6f 30 34 d2 3f
       0.7468092937944774 0.2844353760935874
000270 18 d1 c3 bd 3f 6d 16 c0 9b 67 d5 4b 05 46 03 c0
       -5.606688466145236 -2.4091897892476033
000280 06 02 4c 25 26 c8 f9 bf 8f 26 32 5a af 63 f7 bf
       -1.611364503565825 -1.4618371508862855
000290 15 76 5a 2f bd 0f f3 3f c5 b7 8e 9d 79 bb e9 3f
       1.1913425302258294 0.80413513920734
0002a0 4c 65 03 26 67 55 e6 bf 00 fc 7c 0f 1a cf e2 3f
       -0.6979251615950175 0.5877809813026715
0002b0 a8 f3 ce ae a6 3b e3 bf 44 9d 30 66 ea 2e 07 c0
       -0.6010316290117901 -2.897908018454162
0002c0 cb a3 f2 4c e7 59 d4 3f a6 bc cc f3 22 ac 01 c0
       0.31798727526125664 -2.209051041303229
0002d0 bd fc 46 b7 01 ee fd bf 4e 60 de 94 a9 e3 ff bf
       -1.8706071051854416 -1.9930816474134363
0002e0 ee 83 12 7c 05 1c 16 c0 61 30 91 a8 97 58 06 c0
       -5.527364672308051 -2.7932580155666504
0002f0 a8 c2 d5 23 78 d9 11 c0 65 12 23 b0 9a de af bf
       -4.462372360155008 -0.06224521064863068
000300 7f b1 f8 72 ed e1 15 c0 0f ec 67 97 12 77 05 c0
       -5.470632358960187 -2.683140929087592
000310 5e b4 6d 10 33 cb 20 c0 45 77 2c 3d d2 67 f6 bf
       -8.396873963729544 -1.4003469838712175
000320 73 c2 dc 11 ad a1 f2 bf 6a b1 ec 72 d8 c2 17 c0
       -1.1644716928241479 -5.940278812119098
000330 b0 bf 5c 07 bf 85 08 c0 24 9e 4a fb c1 4f 10 c0
       -3.065305764692276 -4.077888418607049
000340 f8 73 b5 41 1a 22 d5 bf 12 c0 f0 d9 07 8d f9 bf
       -0.33020645539164617 -1.5969313157365872
000350 99 46 e6 59 9b b7 f0 3f ef 33 cf 5b 5a e2 19 c0
       1.044825888795833 -6.471047815820369
000360 81 7e 0c 41 29 95 0c c0 f0 25 ba e2 63 e9 14 c0
       -3.572832592195312 -5.227920096026978
000370 f4 d8 8b 21 06 1d e3 3f e2 ab f4 78 de 11 d7 bf
       0.5972929625702634 -0.36046563922962893
000380 36 3e 1e b1 3b c6 f1 3f fc 24 7e 68 37 66 12 c0
       1.1108967703511445 -4.599820740412948
000390 82 7d 50 49 b2 fc eb bf 15 16 a5 08 00 a0 cb bf
       -0.8745967323228998 -0.21582031652558045
0003a0 39 90 74 8e d3 9d 0d c0 0f c5 5f 83 e9 0e 05 40
       -3.7020636681864088 2.6322813285447704
0003b0 76 6a c5 16 d6 b8 f7 bf c2 e1 11 1b a2 14 c9 bf
       -1.4826260461328764 -0.1959421760727889
0003c0 a6 d9 40 a2 c3 e5 01 c0 24 8e 3d 2e 08 d8 05 c0
       -2.237189548114844 -2.730484353307263
0003d0 67 e5 8c b6 17 4f 07 c0 ac be 75 0d bd ed fb bf
       -2.9136194478748396 -1.7455416227129872
0003e0 f4 c6 62 0c 81 22 e8 3f d3 01 38 bc dc d9 12 c0
       0.7542119256888484 -4.712756100576786
0003f0 49 b3 9a 44 14 20 ec 3f 6a 2d db 93 2f 6e 00 c0
       0.8789159145286273 -2.053801684499992
000400 fb 81 00 0a 2e f8 07 c0 42 bd b4 ad c8 a8 07 c0
       -2.9961815625576924 -2.9574140139372114
000410 42 36 b9 3d df 49 1b c0 53 70 dc f0 b4 27 e6 bf
       -6.822140659741821 -0.6923470215147155
000420 01 19 b6 d0 ba 31 0b c0 e6 5e b5 9f 71 16 1e c0
       -3.399282103116207 -7.5219178156328095
000430 9c 18 d2 45 78 bf f1 3f 01 11 09 a8 5b 1e 09 c0
       1.1092455603953004 -3.139823258186994
000440 6a e8 c6 69 50 f2 ed 3f e2 81 e6 21 9a 13 0a c0
       0.9358293596226421 -3.25957132801726
000450 2f b6 d4 3b f0 86 15 40 b4 b3 c4 3f 7a 46 1b c0
       5.381775793893708 -6.818825718289123
000460 75 18 74 ee 95 3d 10 c0 8e 57 cf 7f 6b 2d 17 c0
       -4.060142255626592 -5.794355389623787
000470 8a 7b 81 a3 9d ba a8 bf 8d b6 8f ad 55 2f ff bf
       -0.048298765382006684 -1.9490563182584169
000480 a5 80 df 5d 62 c7 d6 3f 85 9f e9 a8 3e 7b 14 c0
       0.3559194485405988 -5.120356215724205
000490 c9 25 ad 77 9d 5e fb bf 4c 2f 07 df d3 90 f8 bf
       -1.7105993914468505 -1.5353583061250502
0004a0 71 49 cd 86 5f 81 0a c0 94 41 12 cf 38 32 00 40
       -3.3131704837225517 2.0245224168249454
0004b0 5b 3c f5 45 08 f9 e9 3f 65 26 21 de 61 8c fc bf
       0.8116494528166059 -1.7842730214055333
0004c0 44 be 1f 21 36 14 ff bf 39 55 7b c4 a0 f2 0e c0
       -1.9424344343095905 -3.868470702184507
0004d0 22 63 40 0c 14 9b 18 c0 ee 89 fe 15 0c b0 fb bf
       -6.151443664007077 -1.73048027602692
0004e0 b0 03 5c 9f 23 aa e6 3f 19 71 80 c8 33 c1 03 c0
       0.7082689392556087 -2.469337049884541
0004f0 52 ee 05 a1 a2 d9 f0 3f 09 1d e5 56 79 13 0c c0
       1.0531336107223024 -3.5095087803525797
000500 27 3b f5 e3 38 37 0c c0 0c 56 ac 5d 75 28 15 40
       -3.5269639786923963 5.289510215419352
000510 e0 75 68 24 28 99 11 c0 96 4f d6 0e 76 75 ed bf
       -4.399567192912826 -0.920588520983517
000520 1b 3d 3a e1 69 67 12 c0 ff 4e bb 1a 9f e4 08 40
       -4.600989836864097 3.11163159259911
000530 1b 3e 27 56 ac e2 f7 bf 49 4c 02 cb 1d 68 10 c0
       -1.4928401341784425 -4.101676151290186
000540 85 b1 25 a3 eb f6 f2 39 8d bf 7f 30 22 2d 09 c0
       1.4960378700841205e-29 -3.1470378674493475
000550 81 3e 73 b1 05 c2 04 c0 e8 9c 56 8a f0 38 0f c0
       -2.594737421349976 -3.902802544372765
000560 4f e3 26 e5 db cd 03 40 b3 66 e4 7d e8 61 15 40
       2.47551707291533 5.345613448205472
000570 56 58 08 47 d5 4b 02 40 bd f7 4d 8b 8b 46 f8 bf
       2.2870278882428847 -1.5172229234299117
000580 47 5e 01 00 72 46 06 c0 9c 24 5f 13 6c 1a 14 c0
       -2.7843971252839625 -5.025802900964802
000590 4f 99 21 56 cd 14 fd bf d8 88 7d 28 4b f2 99 3f
       -1.8175786365987567 0.025338339182220476
0005a0 39 f8 88 e0 1b 35 c1 bf 52 94 01 1d be 02 f2 bf
       -0.13443325484871751 -1.1256695874265188
0005b0 5f c4 d8 16 3c ac 93 bf 45 4c 02 c1 cc f3 08 c0
       -0.019211710829214797 -3.1190428809000275
0005c0 44 f3 e3 57 fd 0c 10 c0 b2 b8 79 91 f7 2d 16 40
       -4.012685178077678 5.544889710478104
0005d0 37 c9 e8 1c 2b 1d 08 c0 31 4d b1 03 2f 8c 01 c0
       -3.014242387632432 -2.1934490478976376
0005e0 4b 75 2e 4b 5f 3f f1 bf 5b e2 66 8a b8 84 d2 bf
       -1.0779717385078864 -0.2893506385403605
0005f0 c2 66 0a 1d 11 8e 08 c0 7e 32 b3 be 5a c8 04 40
       -3.0693685787963156 2.5978293322025925
000600 ae 08 fd 41 86 78 12 c0 19 f7 b7 c4 1e 0f d7 3f
       -4.617699652737583 0.36029786310960926
000610 d6 76 0b b1 eb b7 20 c0 25 ab 22 4b 98 78 0e c0
       -8.359220059060515 -3.8088842267947194
000620 d0 25 5d c0 62 39 11 c0 47 5c fc f6 16 1a 03 c0
       -4.3060407692768905 -2.3877391143574047
000630 a0 04 f4 21 03 bb 0d c0 ca 61 0f 8c 24 8d ce bf
       -3.7163145687669186 -0.23868233527060873
000640 6d 83 0c b8 9d 48 02 c0 bd ac 61 a1 5f a0 0c c0
       -2.2854570750063687 -3.578307400506303
000650 ce 17 e2 93 6f 60 d4 3f 39 e7 40 3f bf 46 1d c0
       0.31838597718922024 -7.319088924728754
000660 62 71 98 8e f1 a4 6a 3f 5c 86 ef e3 46 54 c9 bf
       0.0032524793539449462 -0.19788442735357392
000670 7a 19 17 24 d0 0f ff 3f f1 42 bb 7d 35 d0 d5 bf
       1.9413606080794055 -0.34083306578126754
000680 4c a2 af d6 91 97 d0 3f 4e ec 31 05 30 74 19 c0
       0.25925107922970336 -6.363464432880461
000690 6b 8c d9 5d d9 fb f9 bf 1b 04 44 af a5 ba 0e c0
       -1.6239865938194054 -3.8411363308555457
0006a0 db 8e 05 34 e2 5e ea bf 6f fb 7b 0c e4 a7 d1 3f
       -0.8240824714707417 0.27587224215670053
0006b0 57 f9 93 7c f7 57 13 c0 73 c9 37 68 c2 31 d0 3f
       -4.835905024081817 0.25303707292109506
0006c0 b9 2b 59 0f c7 e2 17 c0 73 dc f4 7a 0f 73 e2 3f
       -5.9714624784637005 0.5765454675191805
0006d0 d3 3d 0f 70 30 bc f2 bf bb 5a 65 a7 30 d5 f4 bf
       -1.170944631321494 -1.3020483530905682
0006e0 51 cc ef fc 02 ad d2 3f cb f9 d8 00 85 7b 14 c0
       0.29180979443407745 -5.120624554865979
0006f0 37 2e de 68 e8 37 e1 3f 64 85 07 74 f5 10 bc 3f
       0.5380746887398747 0.109633770778165
000700 99 23 37 18 3a 3e 10 40 a4 7d f1 a8 0e 6f 02 c0
       4.06076848827879 -2.3042271803567065
000710 d1 55 cd 6a 03 4c f6 3f 0e 63 21 5b 04 ee f0 bf
       1.3935579463917416 -1.0581096229345266
000720 d4 58 7f 5c 0b 7b 0d 40 7b 6c 23 97 a1 bf 03 c0
       3.685080263744661 -2.46856992794852
000730 36 8b 27 33 34 21 f3 bf af f0 eb b2 e0 8a 5c bf
       -1.1956064222546963 -0.0017420954060858686
000740 ed 85 8f eb 77 51 c5 bf 8d 9a 27 ce fd 9d bf bf
       -0.16654871942505114 -0.12350450785707263
000750 4f 58 a6 ee d1 af e9 bf a2 03 fd e1 4c 20 12 c0
       -0.8027124081734288 -4.53154328448082
000760 9c 2d 04 bb 74 8e e3 bf 39 99 72 5e c0 f4 14 40
       -0.6111396458303946 5.239015079254664
000770 08 a1 a9 aa 8c 11 04 40 b1 fc 8d dd 1b e0 f8 27
       2.5085690815941497 3.945773894894084e-116
000780 2d e7 79 b4 22 cf 0e 40 12 f8 c7 b6 63 f1 f5 bf
       3.851140413255868 -1.3714329852950908
000790 a0 60 b1 74 35 bd b1 bf 0f 36 ef 6c d2 0a f6 bf
       -0.0692933473486641 -1.3776420836687782
0007a0 6d 0e 78 0e 76 d5 13 40 9d 3c 03 ca 28 e5 f8 bf
       4.9584581623818 -1.5559471026533978
0007b0 6f b5 12 08 a2 95 b4 bf fa 60 77 d9 52 93 1a bb
       -0.08040821740242675 -5.4956810627920885e-24
0007c0 4a 30 e8 ca 2d 84 08 c0 ef 8f 92 7f 35 72 04 c0
       -3.0645404674633356 -2.5557661024667975
0007d0 4f 9e ce 35 20 9d fe bf c5 0f ee 6d 1c 3b a0 3f
       -1.9133607961502042 0.031700981539898566
0007e0 7c 60 fe 3a 9b 86 f3 bf 0c 1b 8a ae c3 ee db b7
       -1.2203628830375512 -1.2826054588493649e-39
0007f0 0e 35 2a 6c 50 e7 d8 bf 47 37 68 f7 50 c1 05 c0
       -0.38911829531646525 -2.719392712467115

bias_1 f8 [1, 32]
000000 12 26 d9 c3 b0 85 fb bf b2 e2 77 fe bd 53 fa bf
       -1.7201392793962254 -1.6454448642891006
000010 48 a0 1e b8 b0 4c c0 3f 51 5e 95 34 a6 2f 02 c0
       0.12734040250984635 -2.273266230400431
000020 91 18 3f 8a 43 5c bb 3f fe c6 01 9e 24 51 bf 3f
       0.10687658429296422 0.12233189447013257
000030 d1 59 bd 4c 88 41 07 c0 3d ba 52 5a 82 21 f5 bf
       -2.9069982524190228 -1.3206809547661031
000040 da f6 1f a5 40 be 06 c0 6a 69 fe 9b 89 73 06 c0
       -2.842896738088581 -2.806414812757045
000050 bf c1 91 04 dc 74 04 c0 56 ce 98 c4 30 53 bc 3f
       -2.557060275743623 0.11064438628891912
000060 cd 10 c9 29 97 8a 00 c0 a2 7d 19 f6 7c 47 f5 bf
       -2.067671133469139 -1.329953156782587
000070 b9 c1 54 a7 2d 69 02 c0 53 78 21 19 26 30 00 c0
       -2.3013566086521817 -2.0235101664866675
000080 ea e6 e7 7c 26 d3 04 c0 71 29 50 47 4a 56 01 c0
       -2.6031007536192776 -2.1671338626230683
000090 b0 85 eb f9 3f 67 01 c0 aa cb a6 d8 14 b5 03 c0
       -2.1754149937630345 -2.463418667402455
0000a0 85 75 d4 f4 f3 36 fc bf 80 72 12 51 8b 63 04 c0
       -1.7634162486714058 -2.5486055692438754
0000b0 b4 0f e3 d9 0d 18 00 c0 5c 04 9e 5d f8 f9 04 c0
       -2.011745168916571 -2.622055751213834
0000c0 95 3f 68 51 6a a3 fd bf e5 b4 f8 8f 52 9a 01 c0
       -1.8523963146180666 -2.2003527877592313
0000d0 46 82 00 43 c9 2b 04 c0 65 46 21 5c 1d 21 fd bf
       -2.5213799700289057 -1.820584640391098
0000e0 26 c1 40 66 8f 5b 04 c0 58 f7 92 39 5e 5a f8 bf
       -2.5447071064483167 -1.5220625161159287
0000f0 7a 10 bd e8 c4 d2 0b c0 19 70 66 50 65 22 04 c0
       -3.477914636869227 -2.5167948037396966

weight_2 f8 [32, 10]
000000 f6 3d 7c 53 a6 78 12 40 07 d8 dd 68 c8 29 11 c0
       4.617821983774311 -4.290803564586901
000010 12 09 d1 bf 76 76 10 c0 f0 a7 5c 3a fb 0e f2 bf
       -4.115687367566595 -1.1286575584185776
000020 63 76 ad 42 d7 42 ec bf d9 26 a4 a7 ae 98 03 c0
       -0.8831592848106989 -2.4495518776865137
000030 11 01 da 6d 8e 26 09 c0 3e 6b 37 be d4 c1 f2 bf
       -3.1438263494639007 -1.1723220281916862
000040 01 e0 80 98 61 56 0e c0 7f d5 6d 5a 10 c6 10 40
       -3.79217833655639 4.193421757653936
000050 24 95 01 34 b5 5b 16 c0 da 27 19 f3 88 9a 12 c0
       -5.5895584226575785 -4.650913046274548
000060 28 7d 79 98 65 52 e3 bf 03 f5 0c 91 af 4c 03 c0
       -0.6038082101839892 -2.4124442417220293
000070 44 44 22 52 70 0e e9 bf 51 06 24 f1 30 6a b4 bf
       -0.7830125431229438 -0.07974534880852359
000080 57 d8 5e 2a e9 29 13 40 f3 1d f7 ca 9d 43 06 c0
       4.790928518332371 -2.783015809694683
000090 6d c7 13 f4 0c a3 6f bf 81 4f 61 70 f3 6e 0b c0
       -0.003861928271924711 -3.4291752605149104
0000a0 94 f5 0e b0 46 1d c5 3f 3e f4 18 2c 56 cb 27 c0
       0.1649559363994909 -11.897141817136909
0000b0 50 08 9c ea 38 74 16 c0 69 56 ae 8f 3c 2c 0e c0
       -5.6134983690008795 -3.7715998864248843
0000c0 0f f2 82 07 54 40 f1 3f 42 22 3a 32 3b d0 15 c0
       1.0782051366251186 -5.453350815580565
0000d0 82 38 75 53 b6 01 1d c0 6c 20 93 17 c0 ff 00 c0
       -7.2516720810218676 -2.1248781053328027
0000e0 b1 b0 11 03 e4 84 09 40 cd 82 d1 b5 ea 27 10 40
       3.1898880233548756 4.038981285965474
0000f0 95 47 7f ce 37 e3 1e c0 a9 46 6d d8 09 6c d0 bf
       -7.721892572897464 -0.25659414420543186
000100 61 37 a3 52 56 dc 29 c0 00 59 83 b3 53 fd f9 3f
       -12.930346090721004 1.624347401831585
000110 d2 93 92 c0 a2 43 fd bf 0e b0 f4 bf 0f 2d 0c c0
       -1.8290126345029774 -3.522002696661736
000120 4f 2e 8e 85 32 10 22 c0 6d 7c a7 26 4b b6 16 40
       -9.031635449987474 5.678021053288018
000130 48 a4 76 76 9c 4d 23 c0 65 0b ef 11 72 0a 09 40
       -9.651584341032631 3.1301003838611217
000140 ea a9 c2 6c 7d 13 10 40 b2 42 c4 1e 46 6b 20 c0
       4.019033145314532 -8.209519349534592
000150 34 c5 6d 32 a3 f6 04 40 ef af 8a b6 5d 10 eb bf
       2.620428461050915 -0.8457478108662125
000160 38 4d 33 90 17 4d 13 c0 61 86 7b 5e 1d 33 e1 bf
       -4.8252851992904695 -0.537489590202494
000170 bc 38 db 16 12 88 10 c0 ff 75 75 73 c5 7b 15 c0
       -4.132881505136705 -5.370870403331991
000180 85 20 9f 29 23 2a 10 40 49 3b a7 da 12 05 21 c0
       4.041149759614318 -8.509909470476162
000190 f8 c0 47 dd 2e 83 f8 bf c2 60 b3 6e d3 78 19 c0
       -1.5320271152268656 -6.36799405069195
0001a0 95 38 2f 75 f9 f1 e0 3f 05 9b d7 74 7a 9d 06 c0
       0.5295378960379532 -2.8268937233254996
0001b0 f7 cc ca 90 64 58 07 c0 c7 1e d2 e2 10 91 fc bf
       -2.9181605636491628 -1.7854164943873216
0001c0 ec a3 f8 c0 0c a6 0a 40 8e 97 5c 07 23 56 21 c0
       3.331079013431454 -8.66823599820398
0001d0 06 51 19 73 da c1 16 40 b8 07 26 d4 17 86 1e c0
       5.689309881611058 -7.630950274296929
0001e0 83 8c f0 42 26 a4 f0 bf 08 ed 01 0e 79 f2 11 c0
       -1.04007555149363 -4.4867899120975
0001f0 d5 a9 81 30 e3 d1 11 c0 18 dc 05 2c ef 72 12 40
       -4.454968221582438 4.612240493638659
000200 89 87 9c d4 34 4b 19 c0 ed 38 cb a9 b8 44 fd 3f
       -6.323443719915198 1.8292776711055538
000210 f3 3b 0f d9 c5 5e 12 c0 db 78 0e 44 6d 8f 0f c0
       -4.592551604800053 -3.9450326268116505
000220 3c d4 96 4a 03 79 1e c0 28 06 16 11 5e cb 1c c0
       -7.618176618057131 -7.198601023644677
000230 10 e3 5f 13 56 7e 15 c0 30 b2 bd 3f ce ab 08 40
       -5.373375227668262 3.0838894824758185
000240 6d d9 df c9 e1 2e ef bf 15 8b 59 05 9f 6c 10 c0
       -0.9744728987559889 -4.106075366583146
000250 6d 3b f8 f8 44 97 09 40 8b ed e0 5c ac 76 01 c0
       3.198862023425525 -2.182945943464522
000260 07 e8 5c 7f d6 5f eb bf 21 34 58 92 15 e2 12 c0
       -0.8554489600712721 -4.720785414346239
000270 72 26 a6 11 bb ee ed 3f c4 6c 77 0c e6 1a f9 bf
       0.9353919357974532 -1.5690670477841175
000280 e9 27 6d c8 00 c1 ff bf 66 9e d0 2e a3 92 06 c0
       -1.984619887271487 -2.8216003091254604
000290 1e 52 99 2c bd 34 07 c0 7b 60 aa c7 e1 6b 1c 40
       -2.9007514461793695 7.105353469633083
0002a0 e9 7e 34 7c 3c e9 0a c0 d5 f7 4f 75 05 50 f5 bf
       -3.36388489756779 -1.3320364553942359
0002b0 39 0f a3 b7 b4 6a 00 c0 2b 6d 34 34 d2 45 12 c0
       -2.0521025034558105 -4.568184676837784
0002c0 36 5f 7f cf 4c 0b ee bf ec 21 36 51 39 9e 09 c0
       -0.938879399555822 -3.202257761444562
0002d0 b6 a3 13 ed 83 ae f0 bf 4b a9 fd ab 06 80 01 c0
       -1.0426062832650422 -2.1875127255235944
0002e0 06 14 fc bf 60 32 03 c0 73 ed 15 3f 44 d1 15 c0
       -2.3995985983660857 -5.454361901963568
0002f0 98 2a 0f 61 9a c5 12 c0 6e ff 89 91 c7 53 16 40
       -4.692971722174342 5.58181598095676
000300 c3 30 da f0 1b 5d 05 c0 42 db 82 2a dc 84 07 40
       -2.670463449152608 2.9398730584320285
000310 73 81 b7 c7 a0 a1 f9 bf b0 4c 7c 8e 45 a9 12 c0
       -1.6019599725187532 -4.665304399811404
000320 65 a0 97 4d 69 89 15 c0 09 3f 52 42 0d af 07 40
       -5.384190761928129 2.9604745084142263
000330 9d 37 a8 f4 c5 de 08 40 24 41 87 3e 0c 3f 09 40
       3.1087760080180957 3.1557850728060135
000340 f6 8c 8b 1d 70 47 1d c0 65 dd a6 c4 68 ad f4 bf
       -7.31976362385034 -1.2923362428390075
000350 03 7c a1 e9 1a 2d 15 c0 3f 54 f1 2a 2d a0 1c c0
       -5.294047975999095 -7.156422301272925
000360 d5 4e 1a eb ac 42 14 c0 73 3d f8 48 b5 b1 20 c0
       -5.065112756233892 -8.347086220076312
000370 17 3a ce a6 2a 52 1e c0 a0 9b e6 c5 29 a9 15 40
       -7.580240827881901 5.415198414039793
000380 78 ed 41 49 9f 9f 05 c0 59 c9 b2 b1 01 1d 0d c0
       -2.702940532993747 -3.639163387554771
000390 de a0 f4 9c a0 fe 0c c0 0a 0c 0e 4f 2c 4e 01 c0
       -3.6243297826914462 -2.163170449844533
0003a0 1b 2d a5 c0 fa 8c 10 c0 6e 3e ce 6e 1f 0f 0a c0
       -4.137675294953875 -3.2573841721239694
0003b0 dc 75 01 9f fb 6b 17 40 a3 fe cf 1d d8 b1 1e c0
       5.8554520458833075 -7.673675981349933
0003c0 c2 e9 2c 61 71 97 0f c0 05 0f c0 54 b5 c0 19 40
       -3.9489467231589694 6.438191723081904
0003d0 01 76 40 19 60 26 fc bf 2f 17 ce 56 3a 38 0c c0
       -1.7593689905546628 -3.527455022968659
0003e0 06 6a 37 c3 08 69 f7 bf 66 90 d7 c5 9b c2 ec bf
       -1.4631431222575215 -0.8987559188940508
0003f0 d5 8f e2 0d 16 5c 04 40 d9 9d ac c9 e4 95 15 c0
       2.544963940121287 -5.3963805686575705
000400 8b 51 e6 30 65 d0 0b c0 b8 92 1a e2 87 42 07 c0
       -3.476755506542934 -2.907485739170024
000410 01 98 f3 e3 25 ef 11 40 48 29 d0 13 07 ff 01 40
       4.483542978041442 2.249525217809751
000420 b2 74 b2 09 2b 87 17 c0 6e 7c e9 16 c7 c2 f1 bf
       -5.88200011398037 -1.1100531477930207
000430 14 dc 2b 47 fb 27 00 c0 f4 53 97 2d 02 30 f5 bf
       -2.019522243524543 -1.3242208271888076
000440 fe 05 eb 6b 39 92 11 40 c8 e6 64 ca 09 8a 0a c0
       4.392797170848551 -3.3174014865915957
000450 53 d6 f4 9d 0f b0 0c c0 8f 30 9c 4e 62 a5 05 c0
       -3.5859672870963464 -2.70575391210702
000460 85 1a 1e a6 59 87 05 40 c1 59 e1 ac 06 ec 1b c0
       2.6910889604508292 -6.9804942143004505
000470 9a 01 53 06 1c 65 07 40 73 81 69 6a e6 da 20 c0
       2.9243698591310023 -8.427539182070836
000480 0b fd 18 71 45 49 07 40 2a dc e1 d3 f3 9a 09 c0
       2.910776980948531 -3.200660376863671
000490 c9 1a f8 97 ba 75 05 40 b2 2e 69 68 99 21 20 c0
       2.6824848053541683 -8.065623534049653
0004a0 89 89 e0 c0 bb 6f 1b c0 3e 93 5e af 35 00 1a c0
       -6.859114659981409 -6.500204792163286
0004b0 8c 6c 68 0c fe 78 ea bf 23 22 ff c2 22 ce 05 c0
       -0.8272695772497101 -2.725652240191509
0004c0 1e 9a 6a ae 8b 08 03 c0 1f f2 07 78 db 66 f7 bf
       -2.379172670963512 -1.4626116455757552
0004d0 d1 19 88 65 41 3e 16 40 2a 0d af e3 97 5d ff bf
       5.560796343261658 -1.9603499311350085
0004e0 14 66 00 bf bf bb e2 bf 43 d2 d1 8f 89 0d f3 bf
       -0.5854185801028415 -1.1908050172761626
0004f0 9f 59 9c 47 22 35 ec bf 5e 1d b4 da 42 e2 09 c0
       -0.8814860724112811 -3.235479076978364
000500 85 19 68 a7 8e 1d 0b 40 6e 98 6e 32 03 d2 11 c0
       3.3894322470325187 -4.455090320587358
000510 36 c3 9c be 94 8b 09 40 92 6c bf 75 3b f7 15 c0
       3.19315480152036 -5.491437759216881
000520 d6 37 d0 c6 bf b5 12 c0 0b 00 1f aa 54 26 f5 bf
       -4.67748938222754 -1.3218580861430407
000530 c3 02 d1 46 39 3e 0f c0 84 da 72 67 0a c7 05 40
       -3.9053826839957266 2.7221878129888086
000540 7a 13 fb 92 b7 0d 0f c0 15 77 7a 4b e3 a3 0e c0
       -3.8816977961418475 -3.8300233742473986
000550 e1 25 26 53 87 01 12 c0 4e 2d a7 7e df 58 c8 3f
       -4.501492785647742 0.19021218952398516
000560 27 81 08 56 fc 54 14 c0 40 01 7d e2 c6 30 0a c0
       -5.082993835705827 -3.2738168424986327
000570 e6 c0 50 f8 7d 76 09 c0 a8 f8 0e 7a 09 cc 06 40
       -3.182857456173326 2.8496274505442507
000580 13 b1 2c 91 4a 8f b8 bf 15 17 bb b0 3e 94 0a c0
       -0.09593645138074107 -3.32238519736246
000590 25 c0 35 79 aa 21 f3 3f 2b 7c 11 73 c2 ac f3 3f
       1.1957192168010888 1.2296776289802078
0005a0 8f 97 dd 08 f6 95 0c c0 0f e3 a4 5d 1c 88 18 40
       -3.5732231800674934 6.132920706929112
0005b0 15 3e 98 e9 5b f3 07 c0 39 19 e7 c8 29 4e 14 c0
       -2.993827652891705 -5.076331271271834
0005c0 d6 fe 7d d6 63 e6 13 c0 6d cf c2 98 2c 9e f8 bf
       -4.974990226211693 -1.5386167494989096
0005d0 c8 7d 62 8e bc 0d 05 c0 b9 c0 ce 6f f4 e6 12 40
       -2.6317072986418886 4.725541827196303
0005e0 64 68 79 ea 7b c6 0a c0 85 51 1c 1f 36 a5 15 c0
       -3.346916038351127 -5.411339269736691
0005f0 fd c9 9b 5d 7e 22 0c c0 2b cc 2a 8f a4 8a 1c c0
       -3.516842585865787 -7.135393368708757
000600 ff 50 c8 b7 50 29 17 c0 6c 9f ab 9a 8d f0 0d c0
       -5.790346976853697 -3.7424575885415177
000610 e8 fa 19 f9 de 0c 1a c0 80 b3 52 6d 85 88 06 c0
       -6.512569324694347 -2.81666074188837
000620 5b 14 dc 61 77 a9 15 c0 f2 94 cb df df d0 21 40
       -5.415494469697559 8.907958024598404
000630 1f 68 c0 c5 63 a2 0e c0 26 e3 cc 98 4c 01 00 40
       -3.8292918633787987 2.0006343781973497
000640 11 54 10 fc 7e a4 16 40 2b 76 a9 3d 7e b3 15 c0
       5.660640657898527 -5.4252862581902646
000650 1b f2 31 e6 ef ac 1c c0 ef 12 8f 0d b0 80 ff bf
       -7.168883892820783 -1.9689178971904615
000660 13 b4 8f 16 4c 7d 0e c0 79 f0 20 80 41 a5 b1 bf
       -3.8111802828411867 -0.06892785432950345
000670 9b 35 92 61 cf 28 a3 3f 74 31 7c c0 eb 3f 09 40
       0.037420731220758806 3.1562113798046827
000680 ff b0 b7 14 50 48 0c c0 92 e3 72 2b c1 a2 e6 bf
       -3.53530899224836 -0.7073675011262017
000690 31 f6 77 13 8e 57 27 c0 11 dc 65 7c 6f 72 2a c0
       -11.671005829232941 -13.223506820138967
0006a0 3d c6 1a 53 5b 0b 14 40 1b db c1 15 0e f1 12 40
       5.011090563306024 4.735405292470001
0006b0 f9 3d 52 44 28 24 24 c0 77 b7 e2 ee ca 24 21 c0
       -10.07061971191341 -8.571860757041334
0006c0 78 0f 0f 97 14 57 29 c0 8f f7 8b 6d 12 17 14 40
       -12.67007896479457 5.0225312344245046
0006d0 07 ce 40 d7 28 16 25 c0 c4 ff 6c a6 c6 2b 32 c0
       -10.543280340824834 -18.170999909983735
0006e0 35 af 8b d8 d4 9f 0a c0 90 72 e9 8a 11 15 12 c0
       -3.3280426900509164 -4.520574732302194
0006f0 4f 93 56 9c 5f 37 15 c0 f6 77 49 8e e2 d4 18 40
       -5.3040756633607336 6.207895491823356
000700 d2 35 c4 9f 8b 3a f2 bf 9b b9 b3 f1 c5 4f f3 bf
       -1.1392933121563726 -1.2069758836256372
000710 0b 09 8c a4 8c b8 10 c0 25 fe 65 db 7e 07 11 c0
       -4.180224009558752 -4.25731985864653
000720 20 5f 90 63 66 4d e0 3f 38 eb 38 b6 b3 46 f5 3f
       0.509448236904948 1.329761230283749
000730 48 4a 19 70 fe b9 05 c0 8e 58 8b 94 f2 ca 13 c0
       -2.715817333003802 -4.948190995221138
000740 60 21 59 8b 0e 45 e3 bf 69 59 1a 6a 65 32 11 c0
       -0.6021797868388994 -4.299214990480643
000750 93 a9 fb 49 08 91 13 40 a0 bf 29 6b 69 ec 11 c0
       4.891633182511572 -4.480870890067223
000760 0a 35 56 b8 f2 ca be bf 3c 68 52 d8 a7 5e fe 3f
       -0.12028424263390405 1.8981092882227264
000770 ce 8b 5a 58 39 de 0d c0 5d bf dc 88 b4 0c 18 c0
       -3.7335078146584015 -6.012407434914931
000780 cd 2a b4 ca 38 56 04 c0 0e d1 ef f8 3c 27 1e c0
       -2.5421005092842734 -7.538318528783078
000790 25 fe fa 12 c4 d4 13 c0 8b b9 60 8a 10 e5 ff 3f
       -4.957779213494665 1.9934239774116544
0007a0 6d b6 db 26 b8 a0 1b c0 12 3c 4c 45 07 45 0a 40
       -6.906952483329957 3.283705273999211
0007b0 b8 ac fb ed 6a f1 01 c0 17 23 f1 e2 6a 2e 11 c0
       -2.242879733317377 -4.295329614608611
0007c0 b2 98 76 8e 8f 21 dc 3f a0 c3 68 af 52 7c 23 c0
       0.43954838669231855 -9.742818337954134
0007d0 af e2 27 48 a4 1b 16 c0 2f 98 9a e4 f1 2d 01 c0
       -5.526993873056809 -2.147434030502175
0007e0 3d 88 14 67 2f b8 e4 3f 60 73 e8 5b 01 ac 03 c0
       0.6474835408482772 -2.4589869671166724
0007f0 87 a7 65 ab 35 ce fc 3f 60 50 b6 dc be 5b fa bf
       1.8003441519926768 -1.6473988172120002

bias_2 f8 [1, 10]
000000 51 9d 7c 8d 9c 48 ea bf 12 94 69 33 fe f4 cd bf
       -0.8213637126363357 -0.23403909216281754
000010 14 d4 7e 5a 77 df ca bf ca 9f 73 35 30 fe d2 3f
       -0.20994464796754697 0.29676442356003163
000020 d9 0d 51 89 29 17 d5 bf cf 98 1c af 6f f0 bc bf
       -0.32953871164155896 -0.11304376626194144
000030 31 9c 09 5e be 30 d4 bf 6d 95 e0 10 1e 71 c0 bf
       -0.31547507460931273 -0.12845207046590748
000040 9b 6d 0c 35 4d bb de 3f 30 10 1c 39 4b 22 e7 3f
       0.4801819818546506 0.7229362597868256

loss_history f4 [130]
000000 08 00 23 3f cc 0b 9d 3e a6 ae 7e 3e 92 57 60 3e
       0.6367192 0.30673063 0.2487131 0.21908405
000010 4f a6 4d 3e 16 c9 41 3e a1 0b 35 3e 25 71 30 3e
       0.20082973 0.18924364 0.17680217 0.17230661
000020 d4 f6 28 3e 60 b4 25 3e af 0f 26 3e 18 76 1e 3e
       0.16500407 0.16182089 0.1621692 0.15474737
000030 a9 8f 20 3e 89 cc 16 3e 38 d6 19 3e a3 87 20 3e
       0.15679802 0.14726461 0.15023124 0.15676741
000040 0e fc 19 3e b2 40 1b 3e 81 18 16 3e 31 ba 13 3e
       0.15037557 0.15161398 0.14657785 0.14426495
000050 67 ed 18 3e 31 a7 17 3e 1e 79 1b 3e 31 e3 1a 3e
       0.14934312 0.14809872 0.15182921 0.15125729
000060 ea b8 14 3e 7a e0 15 3e a5 d1 0e 3e 33 2d 19 3e
       0.14523664 0.14636412 0.1394716 0.14958648
000070 16 20 16 3e 2e 81 16 3e d1 4f 1c 3e ec 0c 1a 3e
       0.14660677 0.14697716 0.15264823 0.15043992
000080 f9 83 19 3e 21 6a 25 3e fd af 1e 3e 40 dd 29 3e
       0.1499175 0.16153766 0.15496822 0.16588306
000090 97 a0 21 3e a0 84 24 3e 09 8b 1e 3e 36 8b 25 3e
       0.15783916 0.16066217 0.15482725 0.16166386
0000a0 a9 56 23 3e eb 31 2d 3e e3 c4 27 3e 7f 83 26 3e
       0.15951027 0.16913573 0.163837 0.162611
0000b0 41 55 2e 3e f6 c5 2c 3e 1e 2e 26 3e 71 2d 33 3e
       0.1702471 0.16872391 0.1622853 0.17497803
0000c0 be c8 36 3e c8 7f 31 3e b9 dc 33 3e ef 07 2d 3e
       0.17850015 0.17333901 0.17564668 0.16897558
0000d0 46 16 35 3e cb 57 36 3e 7c 41 31 3e 4b 6d 41 3e
       0.17684278 0.17806928 0.17310137 0.18889348
0000e0 bf 02 3d 3e 2f 91 33 3e 88 83 39 3e e1 47 3d 3e
       0.18458079 0.17535852 0.18116581 0.18484451
0000f0 66 71 33 3e ca cb 3f 3e 18 9e 3c 3e 74 53 4c 3e
       0.17523727 0.18730083 0.18419683 0.1995371
000100 6a 1a 40 3e 9a d8 3d 3e 68 fe 43 3e 88 d8 4e 3e
       0.18760076 0.18539658 0.19140017 0.20199788
000110 18 a2 42 3e 0a 2f 4e 3e be 8c 3e 3e 02 65 4e 3e
       0.19007146 0.20135131 0.18608376 0.20155719
000120 dc a0 55 3e a2 74 4a 3e de 59 53 3e 57 b4 4e 3e
       0.20862144 0.19771054 0.2063975 0.20185982
000130 db a0 58 3e 97 a1 4e 3e 15 40 55 3e 15 77 61 3e
       0.21155111 0.20178829 0.20825227 0.22018082
000140 55 5e 5a 3e 21 ea 63 3e ff 6e 53 3e 7e 9e 5e 3e
       0.21325047 0.22257282 0.2064781 0.21740147
000150 74 0e 60 3e 86 b7 69 3e 09 bd 69 3e d1 48 69 3e
       0.21880513 0.22823915 0.22826017 0.22781684
000160 d5 c1 61 3e 2f 03 6d 3e d3 26 69 3e 73 2f 6d 3e
       0.22046597 0.23145746 0.22768717 0.23162632
000170 9d 49 62 3e 2e 58 70 3e 87 96 6b 3e f3 e7 72 3e
       0.22098394 0.23471138 0.2300664 0.23721294
000180 3a 10 5f 3e b6 06 78 3e 48 cd 71 3e a7 86 77 3e
       0.21783534 0.2422131 0.23613465 0.2417246
000190 b5 eb 7a 3e da 48 6c 3e f7 b7 77 3e e8 30 7d 3e
       0.24503978 0.23074666 0.24191271 0.24725688
0001a0 b6 b8 77 3e be 55 80 3e 95 85 80 3e 00 e8 77 3e
       0.24191555 0.25065416 0.25101915 0.24209595
0001b0 48 1f 7b 3e 27 b2 82 3e 66 7d 80 3e 60 5d 7b 3e
       0.24523652 0.25526544 0.2509567 0.24547338
0001c0 13 7f 83 3e 88 0c 8d 3e 55 2d 8e 3e 97 c7 89 3e
       0.25682887 0.27548623 0.2776896 0.26910087
0001d0 0b 49 8c 3e 18 76 8f 3e 9b 3f 88 3e 22 d8 88 3e
       0.27399477 0.28019786 0.26611027 0.26727396
0001e0 87 13 86 3e 47 bf 85 3e 30 1e 85 3e 67 cb 90 3e
       0.26186773 0.26122496 0.25999594 0.28280184
0001f0 d7 95 8f 3e a7 0d 8b 3e 2e 63 95 3e 07 77 84 3e
       0.28044006 0.27158853 0.2917723 0.2587206
000200 a8 9d 89 3e 9e f5 91 3e
       0.26878095 0.28507704

accuracy_history f4 [130]
000000 8c a5 a0 42 fd 22 b6 42 ef ae b9 42 e5 57 bb 42
       80.32333 91.06834 92.84167 93.67167
000010 55 55 bc 42 0a 17 bd 42 1b e8 bd 42 29 1c be 42
       94.166664 94.545 94.95333 95.055
000020 89 88 be 42 3a ed be 42 1f c5 be 42 29 1c bf 42
       95.26667 95.46333 95.385 95.555
000030 cd 4c bf 42 5c cf bf 42 41 a7 bf 42 89 88 bf 42
       95.65 95.905 95.82667 95.76667
000040 52 b8 bf 42 52 b8 bf 42 1b e8 bf 42 a7 0d c0 42
       95.86 95.86 95.95333 96.026665
000050 44 c4 bf 42 85 eb bf 42 cd 8c bf 42 0e f4 bf 42
       95.88333 95.96 95.775 95.97667
000060 f6 28 c0 42 07 fa bf 42 0a 57 c0 42 b1 e4 bf 42
       96.08 95.988335 96.17 95.94666
000070 2c 39 c0 42 7e f1 bf 42 f6 e8 bf 42 11 11 c0 42
       96.111664 95.971664 95.955 96.03333
000080 33 f3 bf 42 4b be bf 42 85 eb bf 42 6a 83 bf 42
       95.975 95.871666 95.96 95.75667
000090 9a d9 bf 42 b5 c1 bf 42 e5 d7 bf 42 b5 c1 bf 42
       95.925 95.878334 95.92167 95.878334
0000a0 7b 94 bf 42 66 66 bf 42 bc 7b bf 42 74 9a bf 42
       95.79 95.7 95.74167 95.80167
0000b0 a4 70 bf 42 e5 57 bf 42 4b 7e bf 42 c9 2f bf 42
       95.72 95.67167 95.746666 95.59333
0000c0 11 11 bf 42 26 3f bf 42 03 1d bf 42 7e 31 bf 42
       95.53333 95.62334 95.55666 95.596664
0000d0 8f 02 bf 42 4f 1b bf 42 da 40 bf 42 6a c3 be 42
       95.505 95.55334 95.62666 95.38167
0000e0 8c e5 be 42 cd 4c bf 42 66 e6 be 42 f6 e8 be 42
       95.44833 95.65 95.45 95.455
0000f0 77 f7 be 42 03 dd be 42 8c a5 be 42 b5 81 be 42
       95.48333 95.43166 95.32333 95.253334
000100 9d 76 be 42 c9 2f bf 42 89 c8 be 42 41 e7 bd 42
       95.23167 95.59333 95.39167 94.95167
000110 3a 6d be 42 18 0b be 42 0a d7 be 42 52 78 be 42
       95.21333 95.02167 95.42 95.235
000120 66 e6 bd 42 77 37 be 42 60 ec bd 42 b1 24 be 42
       94.95 95.10833 94.96167 95.07166
000130 ab ea bd 42 4f db bd 42 82 ce bd 42 ae 47 bd 42
       94.958336 94.92834 94.903336 94.64
000140 f2 cb bd 42 e5 57 bd 42 33 b3 bd 42 4f 5b bd 42
       94.89833 94.67167 94.85 94.67834
000150 1b 68 bd 42 77 f7 bc 42 f6 a8 bc 42 cd 0c bd 42
       94.70333 94.48333 94.33 94.525
000160 c3 f5 bc 42 bf d8 bc 42 0e f4 bc 42 93 1f bd 42
       94.48 94.42333 94.47667 94.56167
000170 ab 2a bd 42 74 5a bc 42 33 b3 bc 42 59 b2 bc 42
       94.583336 94.17667 94.35 94.348335
000180 29 1c bd 42 3a ad bb 42 85 ab bc 42 ef ee bb 42
       94.555 93.83833 94.335 93.96667
000190 de 1d bc 42 66 66 bc 42 ab aa bb 42 74 1a bc 42
       94.058334 94.2 93.833336 94.05167
0001a0 6a c3 bb 42 22 a2 bb 42 3a 6d bb 42 a7 0d bc 42
       93.88167 93.816666 93.71333 94.026665
0001b0 ae c7 bb 42 0e 74 bb 42 03 5d bb 42 74 da bb 42
       93.89 93.72667 93.68166 93.92667
0001c0 f9 45 bb 42 48 e1 b9 42 29 9c ba 42 66 a6 ba 42
       93.636665 92.94 93.305 93.325
0001d0 7e f1 ba 42 63 49 ba 42 ef ae ba 42 b5 01 bb 42
       93.471664 93.14333 93.34167 93.503334
0001e0 ec 91 bb 42 cd cc ba 42 1b 28 bb 42 f6 a8 b9 42
       93.785 93.4 93.57833 92.83
0001f0 cd 0c ba 42 f9 c5 ba 42 3a 2d ba 42 33 b3 ba 42
       93.025 93.386665 93.08833 93.35
000200 60 6c ba 42 7b 54 b9 42
       93.21167 92.665
