checkpoints/model_epoch_0120.npz (npz, 385502 bytes, 10 tensors)

weight_0 f8 [784, 64]
000000 4b 12 e5 21 00 00 00 00 7f 7a 51 0e 00 00 00 00
       2.809556444e-315 1.18684844e-315
000010 53 cc fd 0d 00 00 00 00 4e b4 30 1a 00 00 00 00
       1.159753507e-315 2.170921987e-315
000020 3d 4c 6e 04 00 00 00 00 11 08 d1 1d 00 00 00 80
       3.67275264e-316 -2.47150585e-315
000030 c0 ab ec 0b 00 00 00 80 b5 a1 76 1f 00 00 00 80
       -9.8842694e-316 -2.60801613e-315
000040 e1 a6 b9 03 00 00 00 00 d8 a0 b1 21 00 00 00 80
       3.0878376e-316 -2.79289962e-315
000050 73 4b f2 21 00 00 00 00 1f 60 f0 02 00 00 00 80
       2.813838017e-315 -2.43612303e-316
000060 8d 1a 09 20 00 00 00 00 ed 4b f4 04 00 00 00 00
       2.65544244e-315 4.10662844e-316
000070 0c b9 1a 21 00 00 00 80 3d c3 92 08 00 00 00 80
       -2.74403781e-315 -7.1064409e-316
000080 d0 89 ce 17 00 00 00 00 9f 28 67 0e 00 00 00 80
       1.973355817e-315 -1.193868285e-315
000090 21 27 19 13 00 00 00 00 8b f0 96 02 00 00 00 00
       1.583063013e-315 2.1465379e-316
0000a0 68 d6 3a 12 00 00 00 00 11 3b 4d 14 00 00 00 80
       1.511079343e-315 -1.682815816e-315
0000b0 71 2a 27 14 00 00 00 00 97 74 cf 11 00 00 00 00
       1.670490736e-315 1.47631e-315
0000c0 21 94 72 04 00 00 00 00 c1 48 92 17 00 00 00 00
       3.68661355e-316 1.95384608e-315
0000d0 09 86 80 0f 00 00 00 80 1f 7e 9c 06 00 00 00 80
       -1.28497167e-315 -5.48013657e-316
0000e0 2f 7e 0a 00 00 00 00 00 80 35 ac 02 00 00 00 00
       3.397507e-318 2.21540617e-316
0000f0 19 d8 c1 21 00 00 00 00 5f c6 95 0a 00 00 00 00
       2.79815016e-315 8.77400346e-316
000100 22 6b 8b 03 00 00 00 80 d6 cb e2 08 00 00 00 00
       -2.93813814e-316 7.36558233e-316
000110 aa 54 11 03 00 00 00 00 8e ff cb 1c 00 00 00 80
       2.5428291e-316 -2.38698567e-315
000120 f5 33 42 07 00 00 00 00 27 5b a3 0d 00 00 00 80
       6.01669137e-316 -1.13046919e-315
000130 fd fe 97 18 00 00 00 80 73 d7 d3 21 00 00 00 00
       -2.038585985e-315 2.803977573e-315
000140 61 8b ea 0d 00 00 00 80 79 ec 04 1b 00 00 00 80
       -1.153519337e-315 -2.23963669e-315
000150 70 ee c1 0c 00 00 00 80 30 c8 57 0d 00 00 00 00
       -1.05747874e-315 1.10599899e-315
000160 68 7b 82 1e 00 00 00 00 45 6c f3 0e 00 00 00 80
       2.528962715e-315 -1.23928457e-315
000170 a3 2a 90 1e 00 00 00 00 5d 66 63 15 00 00 00 00
       2.53339363e-315 1.772884437e-315
000180 fa 22 84 0b 00 00 00 80 11 ac 09 15 00 00 00 00
       -9.545797e-316 1.74383142e-315
000190 d2 af e3 1f 00 00 00 80 7f 41 8e 0a 00 00 00 80
       -2.643327183e-315 -8.7496575e-316
0001a0 ef 69 e4 21 00 00 00 80 b6 d9 8b 03 00 00 00 80
       -2.8093435e-315 -2.93953674e-316
0001b0 d5 91 45 01 00 00 00 00 b8 07 5c 0e 00 00 00 80
       1.0541648e-316 -1.19026497e-315
0001c0 82 97 98 0a 00 00 00 80 51 b1 11 14 00 00 00 00
       -8.78312445e-316 1.66353793e-315
0001d0 25 98 da 22 00 00 00 00 f8 23 83 23 00 00 00 80
       2.8890545e-315 -2.943628217e-315
0001e0 9f 02 7c 01 00 00 00 80 10 78 ad 18 00 00 00 80
       -1.23043843e-316 -2.04553873e-315
0001f0 58 bc 18 02 00 00 00 00 f7 17 26 0d 00 00 00 80
       1.7379012e-316 -1.08991035e-315
000200 a4 17 a7 08 00 00 00 80 6e eb 14 11 00 00 00 00
       -7.1722666e-316 1.41591142e-315
000210 0c dd 2b 12 00 00 00 80 16 f1 ae 08 00 00 00 80
       -1.50623088e-315 -7.1976822e-316
000220 cb e4 52 1b 00 00 00 80 34 2b 88 1f 00 00 00 80
       -2.264882666e-315 -2.61369448e-315
000230 a0 a2 34 03 00 00 00 80 20 9c 83 0a 00 00 00 00
       -2.65714196e-316 8.71518677e-316
000240 f6 71 88 0b 00 00 00 00 b9 37 90 1a 00 00 00 80
       9.5597476e-316 -2.20184834e-315
000250 37 b1 38 1c 00 00 00 00 d4 5e 46 21 00 00 00 80
       2.339289327e-315 -2.7581705e-315
000260 26 e7 0a 23 00 00 00 80 22 a7 2b 16 00 00 00 00
       -2.904696387e-315 1.83772453e-315
000270 53 ff 3b 01 00 00 00 80 af 93 ee 1e 00 00 00 00
       -1.0231706e-316 2.563962834e-315
000280 b7 35 fc 05 00 00 00 00 53 6a 85 16 00 00 00 00
       4.9611554e-316 1.866788797e-315
000290 d7 db 04 10 00 00 00 80 e7 d5 18 22 00 00 00 00
       -1.32782059e-315 2.826317186e-315
0002a0 2e 1e bd 1e 00 00 00 80 45 da 81 01 00 00 00 80
       -2.54794846e-315 -1.2493555e-316
0002b0 4f c0 e8 15 00 00 00 80 42 92 65 06 00 00 00 80
       -1.816062386e-315 -5.3023063e-316
0002c0 e7 02 78 0d 00 00 00 00 43 fd c6 0e 00 00 00 00
       1.11643456e-315 1.224897366e-315
0002d0 d8 93 a8 10 00 00 00 80 d0 35 55 02 00 00 00 80
       -1.38083123e-315 -1.93371207e-316
0002e0 0b 15 37 08 00 00 00 00 26 df 96 14 00 00 00 80
       6.80958797e-316 -1.70666008e-315
0002f0 69 8f b1 1b 00 00 00 00 93 4a 12 1f 00 00 00 00
       2.295534805e-315 2.575526836e-315
000300 99 38 5a 21 00 00 00 80 60 c3 6a 02 00 00 00 00
       -2.76459796e-315 2.00349864e-316
000310 b9 cc 12 21 00 00 00 80 41 a9 f5 14 00 00 00 80
       -2.74147237e-315 -1.737352047e-315
000320 96 95 62 08 00 00 00 80 48 e3 a3 0a 00 00 00 80
       -6.95044387e-316 -8.81969983e-316
000330 e4 4d 9f 15 00 00 00 00 b2 73 29 0b 00 00 00 80
       1.792280936e-315 -9.25216824e-316
000340 48 9f e4 00 00 00 00 80 47 d1 86 1d 00 00 00 00
       -7.4025777e-317 2.44747603e-315
000350 d5 d0 36 1e 00 00 00 80 19 26 1c 15 00 00 00 00
       -2.504462657e-315 1.749814003e-315
000360 20 33 61 1f 00 00 00 80 66 af 21 15 00 00 00 00
       -2.601076655e-315 1.751606616e-315
000370 33 9b 8b 12 00 00 00 00 72 81 12 11 00 00 00 00
       1.537231518e-315 1.41512979e-315
000380 61 8a ce 16 00 00 00 80 d7 90 2b 16 00 00 00 00
       -1.890466073e-315 1.837696335e-315
000390 b5 27 03 22 00 00 00 80 56 b2 6c 01 00 00 00 80
       -2.819297254e-315 -1.18085434e-316
0003a0 e1 bb 96 1e 00 00 00 80 06 4c 2b 24 00 00 00 00
       -2.53552008e-315 2.998075743e-315
0003b0 f2 01 92 21 00 00 00 00 f3 88 a4 1e 00 00 00 00
       2.782661126e-315 2.539988733e-315
0003c0 7c a5 0d 04 00 00 00 00 e6 30 c1 1f 00 00 00 80
       3.3598043e-316 -2.63215776e-315
0003d0 45 51 8f 0f 00 00 00 00 a2 e5 66 17 00 00 00 00
       1.28976179e-315 1.939797703e-315
0003e0 65 8b fd 1a 00 00 00 00 ef 9a c9 20 00 00 00 80
       2.23724737e-315 -2.717772663e-315
0003f0 86 2d 87 12 00 00 00 00 59 57 8d 14 00 00 00 80
       1.535797635e-315 -1.7035742e-315
000400 68 8c ff 10 00 00 00 00 21 2c 59 04 00 00 00 80
       1.408991626e-315 -3.60435044e-316
000410 02 44 e1 0e 00 00 00 00 6d 16 fe 06 00 00 00 00
       1.23340541e-315 5.79614007e-316
000420 d7 93 ed 01 00 00 00 00 df 8a d0 08 00 00 00 80
       1.59815884e-316 -7.3064783e-316
000430 f0 88 a7 21 00 00 00 00 ef 93 c8 1d 00 00 00 80
       2.789631473e-315 -2.468768637e-315
000440 5f 74 7d 09 00 00 00 80 bb 8e 57 0a 00 00 00 00
       -7.8663519e-316 8.57254937e-316
000450 21 60 82 01 00 00 00 80 2c 32 04 02 00 00 00 80
       -1.25104857e-316 -1.6713954e-316
000460 c2 46 89 0a 00 00 00 80 9f f3 c9 09 00 00 00 00
       -8.7335345e-316 8.1140424e-316
000470 90 cb 34 05 00 00 00 80 0c 59 00 14 00 00 00 00
       -4.31546895e-316 1.65792184e-315
000480 19 7f 37 21 00 00 00 00 2e 88 b2 1e 00 00 00 80
       2.75335445e-315 -2.54452083e-315
000490 0a fb 1e 1b 00 00 00 00 77 ab 41 1d 00 00 00 00
       2.24807368e-315 2.425086633e-315
0004a0 33 a6 ca 0d 00 00 00 80 66 01 c7 00 00 00 00 00
       -1.14319195e-315 6.443615e-317
0004b0 5d 53 0d 1e 00 00 00 80 1f 13 94 0d 00 00 00 00
       -2.491028537e-315 1.12552122e-315
0004c0 79 02 a0 0b 00 00 00 00 bb 2a 75 13 00 00 00 80
       9.6360473e-316 -1.61285633e-315
0004d0 a5 d2 1d 21 00 00 00 00 47 0a 30 0b 00 00 00 00
       2.74504156e-315 9.27350027e-316
0004e0 49 ae c4 11 00 00 00 80 94 a4 90 06 00 00 00 80
       -1.472821276e-315 -5.44176807e-316
0004f0 15 a4 2f 04 00 00 00 00 80 73 b5 12 00 00 00 80
       3.46987545e-316 -1.55078052e-315
000500 2f 72 dd 01 00 00 00 80 15 11 ac 0f 00 00 00 80
       -1.5459266e-316 -1.29907054e-315
000510 ed b4 42 20 00 00 00 80 a6 72 7f 1d 00 00 00 80
       -2.67409377e-315 -2.445089805e-315
000520 76 84 63 19 00 00 00 00 1c ad 49 14 00 00 00 80
       2.10448435e-315 -1.681664895e-315
000530 a0 01 67 02 00 00 00 00 59 3c b8 10 00 00 00 80
       1.99133435e-316 -1.385901216e-315
000540 74 9c 7c 14 00 00 00 00 bb 84 d3 1e 00 00 00 00
       1.69815716e-315 2.55520157e-315
000550 58 a8 66 0d 00 00 00 00 73 ef c7 02 00 00 00 80
       1.11081558e-315 -2.3051816e-316
000560 d8 53 8f 22 00 00 00 80 d8 d3 81 14 00 00 00 80
       -2.8646838e-315 -1.699846175e-315
000570 bd bd 9d 06 00 00 00 00 5d 87 2c 07 00 00 00 00
       5.4841791e-316 5.9465123e-316
000580 57 0b ef 0d 00 00 00 80 68 ce 5a 0e 00 00 00 80
       -1.154976346e-315 -1.18986869e-315
000590 33 f2 fc 0b 00 00 00 80 43 2c 66 08 00 00 00 80
       -9.936967e-316 -6.96206335e-316
0005a0 50 4e 87 1e 00 00 00 80 7f 56 29 1c 00 00 00 80
       -2.530524634e-315 -2.334317723e-315
0005b0 66 ff 64 0d 00 00 00 80 52 c5 78 04 00 00 00 80
       -1.110278104e-315 -3.7066632e-316
0005c0 51 72 0a 00 00 00 00 00 aa 46 f2 11 00 00 00 80
       3.382497e-318 -1.487584595e-315
0005d0 b1 4c b0 0f 00 00 00 80 3d 05 4a 00 00 00 00 80
       -1.3004411e-315 -2.396715e-317
0005e0 c4 ef 6f 20 00 00 00 80 90 17 4e 04 00 00 00 00
       -2.68873878e-315 3.5684733e-316
0005f0 f7 19 16 09 00 00 00 00 d7 14 92 02 00 00 00 00
       7.53170385e-316 2.13080745e-316
000600 ff b1 f6 22 00 00 00 80 ef cd 47 19 00 00 00 80
       -2.898153343e-315 -2.09551113e-315
000610 1d 5c de 0f 00 00 00 80 d9 98 ab 1f 00 00 00 80
       -1.315354986e-315 -2.62516584e-315
000620 ea bb 0c 02 00 00 00 80 a6 c5 46 18 00 00 00 80
       -1.69904087e-316 -2.0122864e-315
000630 5f c8 8b 1b 00 00 00 80 3d 9f 8e 15 00 00 00 80
       -2.283302797e-315 -1.78687938e-315
000640 1f 51 07 08 00 00 00 00 c2 9b 3e 0c 00 00 00 80
       6.65492823e-316 -1.014957564e-315
000650 c0 1e 96 00 00 00 00 80 d8 21 51 1a 00 00 00 00
       -4.860752e-317 2.18142184e-315
000660 da c9 2b 1f 00 00 00 00 aa 72 44 05 00 00 00 00
       2.58378259e-315 4.3661511e-316
000670 83 db 69 0f 00 00 00 80 f1 cb 55 15 00 00 00 00
       -1.27763259e-315 1.76847984e-315
000680 56 ce f5 15 00 00 00 00 01 fa c1 17 00 00 00 80
       1.82028941e-315 -1.969288437e-315
000690 c0 97 a1 18 00 00 00 80 8e 06 f5 22 00 00 00 00
       -2.041693317e-315 2.89761271e-315
0006a0 80 20 5e 1a 00 00 00 00 41 5a 16 14 00 00 00 80
       2.18562942e-315 -1.665046765e-315
0006b0 c1 19 8b 1a 00 00 00 80 7a 6e dc 1c 00 00 00 00
       -2.20019148e-315 2.39230662e-315
0006c0 e1 17 e1 11 00 00 00 80 3e 72 57 0e 00 00 00 00
       -1.482020976e-315 1.18878075e-315
0006d0 48 bb 52 1d 00 00 00 00 7f c1 fe 01 00 00 00 00
       2.43061108e-315 1.65378075e-316
0006e0 de 47 0d 22 00 00 00 00 75 fb 79 1c 00 00 00 00
       2.82257584e-315 2.360429636e-315
0006f0 3a 4b c8 00 00 00 00 80 df a0 a0 0d 00 00 00 80
       -6.485332e-317 -1.129585997e-315
000700 a1 a4 ae 1c 00 00 00 00 81 08 1f 0c 00 00 00 80
       2.37748073e-315 -1.0047338e-315
000710 b9 b5 46 04 00 00 00 80 52 50 d8 05 00 00 00 00
       -3.54457047e-316 4.8449272e-316
000720 19 1c f3 00 00 00 00 80 ec a7 4f 19 00 00 00 00
       -7.8716718e-317 2.09805338e-315
000730 2d c5 22 21 00 00 00 80 31 f8 ef 08 00 00 00 80
       -2.74664348e-315 -7.40823615e-316
000740 f0 e5 31 01 00 00 00 80 3a 4f 6a 04 00 00 00 00
       -9.904704e-317 3.6598388e-316
000750 fa e6 a9 11 00 00 00 00 54 de ca 1e 00 00 00 00
       1.464150627e-315 2.552400774e-315
000760 e7 99 ee 1c 00 00 00 80 3e c7 00 12 00 00 00 80
       -2.39818978e-315 -1.492280294e-315
000770 52 52 06 07 00 00 00 00 19 c3 ef 0a 00 00 00 80
       5.8228009e-316 -9.06537383e-316
000780 fa 1a 6b 02 00 00 00 00 72 95 9e 22 00 00 00 00
       2.00460664e-316 2.869623636e-315
000790 a7 19 ed 10 00 00 00 00 61 f6 51 1a 00 00 00 80
       1.40301825e-315 -2.181690657e-315
0007a0 e7 4f 7a 18 00 00 00 00 1a e9 38 0e 00 00 00 00
       2.0289746e-315 1.178893565e-315
0007b0 ed ed 7b 1d 00 00 00 00 90 7b 23 07 00 00 00 00
       2.443950563e-315 5.91722187e-316
0007c0 ee 95 8d 0f 00 00 00 00 28 1c e1 0d 00 00 00 80
       1.289201053e-315 -1.150464544e-315
0007d0 3c 2e 83 15 00 00 00 00 df 2e db 18 00 00 00 80
       1.783174753e-315 -2.060340536e-315
0007e0 ce 95 f9 0e 00 00 00 80 6e a0 6a 03 00 00 00 00
       -1.241279847e-315 2.83196126e-316
0007f0 c0 d1 06 1e 00 00 00 00 4a e7 c9 0c 00 00 00 00
       2.488921856e-315 1.060060026e-315

bias_0 f8 [1, 64]
000000 11 f9 54 49 33 07 c1 bf 19 02 22 e0 a4 55 db bf
       -0.1330322368684809 -0.42710229766820046
000010 0f 9b 8a 93 e9 ef a7 bf e5 bc 32 97 dd 37 a8 bf
       -0.046752261410167965 -0.04730122061425294
000020 b2 59 2f 0b a6 59 d0 bf 2f 5b d9 c4 1c 91 e6 bf
       -0.25547171680718883 -0.7052139134128533
000030 60 22 91 46 9d 4e ac bf 76 04 ae 85 fb 40 e1 bf
       -0.055287279953124324 -0.5391824351246572
000040 27 94 9b 88 3d 63 dc bf ba 04 18 66 a7 54 ac 3f
       -0.44355715122793743 0.055333358013748904
000050 b3 e4 ec 6c 36 c8 d5 3f d4 cb b1 b0 3d c5 ca bf
       0.34034500729792255 -0.20914431693708357
000060 08 bb c6 fd 25 b0 e3 bf e1 49 24 a2 e0 43 c4 bf
       -0.6152524906700316 -0.15832145611837148
000070 a0 d6 12 99 e2 85 e2 bf 0d ff b0 31 9b 6d e5 bf
       -0.578843401882029 -0.6696296663794513
000080 a4 b3 70 13 15 d5 d2 3f 61 9e da 0b ba 52 db bf
       0.2942555131765465 -0.4269242397080913
000090 74 b0 bb cb a9 b5 d6 bf 39 1e 64 52 d1 e9 8d 3f
       -0.3548378457624104 0.014606128050686272
0000a0 e9 d4 35 e0 53 53 d8 bf 74 a2 15 74 bb 4b dc 3f
       -0.38008591552291066 0.4421223291051668
0000b0 e4 7c 33 ec 37 f1 cf bf f9 cc eb c2 ec 79 e2 bf
       -0.24954890282876996 -0.5773834044506706
0000c0 8f 4e fe ad 0e 69 d6 3f e3 3e ce cc 97 0d c2 bf
       0.35016219131032583 -0.14103982448840843
0000d0 63 4c f8 ab 8c 4d bc bf 3f 0b 0e 51 35 f2 d7 3f
       -0.11055831144794719 0.37415821948541245
0000e0 31 21 18 15 70 1d d9 3f c3 06 1b 07 ce b5 c8 bf
       0.3924217420576666 -0.19304824206306223
0000f0 1e 73 a3 da 51 d7 7f bf 9b 2b 83 75 6c 21 cd bf
       -0.007773704283150077 -0.22758250940236455
000100 0a 2d 20 61 09 3a e1 bf 09 17 76 b7 9f 11 7d 3f
       -0.538334550570114 0.007096885579249487
000110 8f 38 db 78 b3 f5 ce bf f1 be df 65 7e 20 e5 bf
       -0.24187320138156962 -0.6602165212370591
000120 19 b8 f8 89 d1 78 c8 bf 98 b8 08 5d f3 38 da bf
       -0.19118708836452994 -0.4097259911094482
000130 19 ef 77 3a 6d 20 d6 bf 67 2a 71 be 73 e7 af 3f
       -0.34572916707814866 0.062312714574166254
000140 c4 03 c1 f0 09 c3 c2 bf cf e2 4f fa fa 70 bb bf
       -0.14657711272778162 -0.10719269381651063
000150 60 2c 42 ce bf f4 9e bf f0 f9 ee 71 67 ad c9 bf
       -0.03023051926042475 -0.2006043726268696
000160 08 70 0b 35 76 43 e3 bf 6e f2 a6 da fa 2f 9a bf
       -0.6019850765255805 -0.025573653789012267
000170 76 f0 f7 c6 43 6b a1 3f a7 9e 66 10 e2 5c c9 3f
       0.03402149013342719 0.19814706612418329
000180 fc 69 5e c9 85 f9 e8 bf e3 f7 35 6c 8d b9 de bf
       -0.7804593022331683 -0.48007522170507694
000190 e8 70 fc 39 66 aa db bf 94 ff ec 0b 7a 3f cd 3f
       -0.43227534926133027 0.22849965650857185
0001a0 bd cb 9c 4c d3 ba bc bf a8 53 cc de 88 31 ce 3f
       -0.11222572918340652 0.23588667753997794
0001b0 fa 56 e2 2b 7a 2c d5 bf c3 0d 37 c7 45 4a e9 bf
       -0.3308396748119403 -0.7903164759558695
0001c0 c3 8f 67 10 b1 07 e2 bf 57 af e8 00 44 91 c8 3f
       -0.5634389229203339 0.19193315548306586
0001d0 d0 51 cb 24 a1 9a e2 bf bd da da 75 fe 64 de bf
       -0.5813756674420407 -0.47491418370502086
0001e0 0a 70 7c 74 8f 92 a0 3f 61 39 62 82 a3 aa 96 3f
       0.032368166894428965 0.02213531001376035
0001f0 d0 09 99 32 25 86 c9 3f e7 ef fe a5 19 f4 d3 bf
       0.19940628977390285 -0.3117736931851582

weight_1 f8 [64, 32]
000000 e7 a5 40 e4 0f b3 15 c0 b1 2f 18 5b 7e ab e3 3f
       -5.424865309186749 0.6146842745961206
000010 e2 7d 26 87 0b 86 1e c0 77 65 4f 64 2c 53 f4 bf
       -7.630903350567197 -1.2703060072293206
000020 b6 90 39 8e 98 3a 16 c0 5e d3 ac 12 5f e6 f7 bf
       -5.557222578300005 -1.4937430123802282
000030 62 70 7d bd 55 51 09 c0 89 82 1b e8 3d 1c fa 3f
       -3.164714317694277 1.6318949763009718
000040 0e 36 ee 7a 23 f4 fd bf 36 3a 8a 39 4c b3 0d c0
       -1.872104149052919 -3.712547730952134
000050 52 2a 30 96 1d ad c4 3f 68 de 51 85 3a ee ba bf
       0.16153306802182726 -0.1051975799072068
000060 3c 7e 9c 97 7f be f7 3f ae 7a 99 00 5a 51 f2 3f
       1.484008400184293 1.1448612235468931
000070 cc 30 b6 b3 a4 92 e4 3f 1d a4 56 0e ae 86 e5 3f
       0.6429008016580382 0.6726904182479562
000080 47 47 63 0f 38 33 fc bf 5d 5f 03 98 10 f5 15 c0
       -1.7625046349607645 -5.4893211128290575
000090 56 14 59 c4 e9 53 f1 3f 5b 52 d9 58 04 df 00 c0
       1.0829866094438976 -2.1088950101205177
0000a0 71 65 4e e1 83 38 f3 bf 80 c3 c5 74 24 7e f7 bf
       -1.201297645666582 -1.4682964860369054
0000b0 39 ae 5e 00 ce 77 13 c0 1e 7e f2 bf 16 0c f2 3f
       -4.8669967706478525 1.1279513833941404
0000c0 f2 28 89 f4 a5 12 13 c0 65 0e 52 44 56 f4 f4 3f
       -4.768211193915919 1.3096525830050265
0000d0 8d 6b f1 b5 91 d7 d1 bf 59 17 c6 54 8a f3 e7 3f
       -0.278782298735387 0.7484790473688278
0000e0 e8 c7 7b 89 90 6f fb bf ee f5 b3 4f 95 98 14 c0
       -1.7147374506425823 -5.149007077559402
0000f0 f7 69 9f 8b a4 e1 b7 3f 53 d5 bb 28 5c 0c df bf
       0.09328678520925125 -0.4851293943205139
000100 03 45 fa 8c 3d 6e d3 3f 55 9b 29 1a 6b c6 02 c0
       0.30360354201646106 -2.3468839687297227
000110 33 9a 05 d7 f0 ad 01 c0 ae 94 64 75 7a 3d 0a c0
       -2.209932021959753 -3.280018727428419
000120 61 47 22 6e 8b b7 b2 3f bc 0b 41 69 23 b6 12 c0
       0.07311316908660849 -4.677869457812388
000130 00 d3 9b 10 a1 c6 c8 3f 15 42 63 e3 2e 6d 06 c0
       0.19356168089839088 -2.8033120884576967
000140 d5 bf 79 21 b1 84 c0 3f f6 f8 03 af 14 4e d0 3f
       0.12904943594503374 0.2547656735549845
000150 e5 af a3 7e 57 45 cf bf fc d5 5e c5 0c 5e 20 c0
       -0.2443036430698832 -8.183691184832234
000160 6b 7d a0 a8 13 75 0a c0 29 71 a7 3d 6c 81 e3 3f
       -3.307166402242435 0.6095486835652412
000170 fe 21 af 5c f4 9a c4 3f 80 e3 00 ef 43 54 aa bf
       0.1609788372573035 -0.05142414371989101
000180 81 95 b2 3b cc d4 c7 3f 8e 6e 5c bc 4c 87 fc bf
       0.1861815730564267 -1.7830321653226835
000190 74 64 59 50 f2 e6 13 c0 22 d4 46 4f a6 45 11 c0
       -4.975533729034499 -4.318017233560598
0001a0 e7 3f 58 0f 03 78 e0 3f f1 f1 45 e3 9a 40 fa bf
       0.5146498965932523 -1.6407727125034592
0001b0 d9 7a ac 58 b3 f3 c0 bf b9 36 db 14 6d 54 10 c0
       -0.13243715123913694 -4.082447362785097
0001c0 02 e9 a0 da ef 8c d8 3f aa 57 c2 e5 e1 fc 0a c0
       0.3836021075291144 -3.373477740281449
0001d0 0f b6 d8 1b c3 b5 e0 bf a9 61 30 99 b7 92 11 c0
       -0.5221877616765499 -4.393278497293445
0001e0 9c 41 f4 1f df 1d f9 bf a7 0d 03 15 bb d8 ff bf
       -1.5697928665359546 -1.990412790372696
0001f0 d7 35 70 fb 81 8e 02 c0 bd 6e 76 78 40 f1 d6 bf
       -2.3195838588351125 -0.35847484363487664
000200 53 b0 4a f5 6e 8a 10 c0 e6 b6 de d5 50 dd c4 3f
       -4.13518889683117 0.16300402109975848
000210 04 15 95 d0 9b 73 14 c0 45 45 4f 39 66 0f f0 3f
       -5.11289907369542 1.0037595976503593
000220 a0 ca b0 6b 4e 81 0f c0 c8 3d a1 b8 27 b8 09 c0
       -3.938137856800793 -3.21491951219625
000230 91 2c 5c f0 80 6c e3 3f ed 9b 3c 0d a2 42 c3 3f
       0.6069950766117406 0.15047097822500125
000240 cf 99 3c c3 06 a0 b7 bf a6 aa bd 56 b2 27 d8 bf
       -0.09228555933496028 -0.37742289038457455
000250 cf c4 3b f1 5b dd 09 c0 90 dc 31 89 ab e0 c5 3f
       -3.2330855223050103 0.17091888617480722
000260 a6 f6 6c da 22 d6 e5 3f 4f e9 e9 29 1c bb d1 3f
       0.682389666187835 0.277045288974155
000270 ba 56 29 15 fa b0 15 c0 65 9c 1f d7 e8 a7 02 c0
       -5.422828989647025 -2.3319870764276396
000280 be 86 98 58 23 f0 f8 bf 5d 8a 26 c3 87 62 f5 bf
       -1.5586274586461708 -1.3365552542751609
000290 2d 33 02 dd 67 57 f1 3f 5f d8 2d 67 ba 03 e7 3f
       1.0838392861507586 0.7192050948349439
0002a0 88 5a 20 32 b6 e8 e4 bf 59 bc dd 13 39 c9 dd 3f
       -0.6534071902304541 0.4654066747670576
0002b0 1f b2 56 a0 a1 78 e1 bf 74 95 9f 11 47 13 06 c0
       -0.5459755069364894 -2.7594128968072997
0002c0 07 4b 5e 01 3a 42 d0 3f f8 86 08 4a 0a 80 01 c0
       0.2540421498644467 -2.187519625077467
0002d0 71 33 f3 80 55 21 fb bf 18 38 4e 96 14 9a fc bf
       -1.6956381833180922 -1.7876172896681108
0002e0 f5 85 37 97 38 89 15 c0 21 d2 ed 8b af 52 03 c0
       -5.384004938854095 -2.415373891062942
0002f0 33 5d 45 1c a4 b0 10 c0 f4 6d e4 d1 27 a6 bf bf
       -4.172501031621596 -0.12362908243488119
000300 82 2c 1e ff 16 a8 14 c0 c2 0f 0f 42 be 98 04 c0
       -5.164150224892298 -2.5745816384169027
000310 34 05 24 3f ec 3d 1f c0 c4 25 13 39 21 86 f4 bf
       -7.810471521924502 -1.2827465276226215
000320 e6 f8 98 b0 6a 15 f2 bf 32 38 98 f7 d8 21 16 c0
       -1.130228700479671 -5.533054226556532
000330 77 b7 66 22 07 29 07 c0 47 f7 9a 02 2f b0 0e c0
       -2.8950331389996182 -3.8360271647970055
000340 5e fa f8 5b 7a 9c d7 bf d8 f6 fe 71 9f 79 f8 bf
       -0.36892565709778136 -1.5296930745093302
000350 14 5b f2 f7 e4 61 ed 3f cb b2 55 62 29 55 18 c0
       0.9182000010212925 -6.083165680389992
000360 bb 1c df 06 2c 03 0b c0 41 b0 81 19 b1 07 14 c0
       -3.376548818286748 -5.007511518993909
000370 19 fb 4f e0 13 f2 e3 3f 27 be e7 84 32 27 ef bf
       0.6233004933454566 -0.9735348316007205
000380 a1 38 42 67 c1 89 f3 3f d5 e4 f7 1f 8e 6c 12 c0
       1.2211317094366125 -4.606010913377038
000390 e5 f8 38 86 bb 2c e9 bf 10 05 5b 8c 75 b0 c1 bf
       -0.7867105123075616 -0.13819760659502167
0003a0 b0 18 d7 1a 68 b1 0c c0 1a 8c 17 29 6a f9 04 40
       -3.586624345483038 2.6217845163641984
0003b0 86 7e 13 68 a2 b0 f8 bf 76 ce ee 70 09 4a bd bf
       -1.5431236329531273 -0.1144109631266533
0003c0 60 b4 f1 ba c7 b9 01 c0 e5 1b 41 54 01 ee 04 c0
       -2.21571298647045 -2.616213472592323
0003d0 60 0e 8a 16 1c af 05 c0 7f e2 4d 92 5a 41 fa bf
       -2.7105027924424547 -1.6409555163392324
0003e0 b9 b9 05 de bc c3 e6 3f e0 4d 6e c6 1e 18 12 c0
       0.7113937698721237 -4.523554897768435
0003f0 86 74 6e 28 3b c8 e6 3f 2c 50 70 c3 f6 99 ff bf
       0.7119422712018071 -1.9750888475728159
000400 ea b1 47 c6 21 c1 06 c0 9a 3a b3 9f 79 d6 06 c0
       -2.8443027010564395 -2.854724166543133
000410 75 2f 27 7f 74 e5 18 c0 3e ee 2f 8e 51 0e e2 bf
       -6.224077212111173 -0.5642478730291669
000420 10 cc 68 3b 4b bb 07 c0 ea 5a 08 22 69 54 1c c0
       -2.9664520875317137 -7.082432300338704
000430 ef 91 91 73 14 4f f1 3f 02 58 b5 8d 83 a1 07 c0
       1.0818066133880355 -2.9538641997305612
000440 a4 e2 01 87 48 fc ed 3f 2a 47 38 51 74 d1 08 c0
       0.9370463024962032 -3.1022726388263395
000450 ad 4e 41 f2 5a d3 15 40 dd 8d f5 c6 46 49 19 c0
       5.456401620136302 -6.321559056031643
000460 6a 1b 1b e3 21 11 0f c0 0b ab 3b 2a 3f 6e 16 c0
       -3.8833654158255984 -5.607662830249647
000470 2e 87 67 a6 15 8b 7f bf 13 78 ce 4c ad ec ff bf
       -0.007701000757579552 -1.995282459283321
000480 d1 83 8c 23 64 42 dc 3f 05 68 9c 8c 41 4d 13 c0
       0.4415521952778905 -4.825445363088879
000490 5a 96 e9 b1 17 58 f9 bf 19 c1 bf ca 3f 91 f7 bf
       -1.584006972284803 -1.472961227405966
0004a0 4f 26 d0 cb 8f 8e 09 c0 c3 97 96 bf 0e 13 ff 3f
       -3.1946102068803053 1.9421527370372906
0004b0 52 fc d0 3c 0e 0d e7 3f 8e 87 da 48 85 9e fa bf
       0.7203437030619944 -1.6637013288350064
0004c0 9c 92 e5 db 7a 91 f9 bf 6d 0e 1e c3 d9 ec 0d c0
       -1.5980175580708993 -3.7406497233912916
0004d0 22 7a 0d db cc 9b 16 c0 93 6b 87 1d 0f 50 f9 bf
       -5.652148649880958 -1.5820456651187882
0004e0 c8 8f 9c 5a 2a 2e e9 3f 5f 54 b5 42 a3 e0 02 c0
       0.7868854303128439 -2.359686394842853
0004f0 86 74 3f df 0f 9e f1 3f e9 ec 55 9d fc 84 0a c0
       1.101089355527877 -3.3149349490973816
000500 7b 9a d2 0a 34 a4 0b c0 89 cf 86 35 2b 98 13 40
       -3.455177387764079 4.89860232959098
000510 fd 9a 6d bf c0 30 10 c0 b9 10 ec 0d 8d 43 ec bf
       -4.047610274376663 -0.8832459709087949
000520 e4 3e aa a3 86 d7 10 c0 12 66 78 d3 e4 dd 09 40
       -4.21047454573247 3.233346607314851
000530 74 1a 7a 71 04 6c fa bf 12 e3 07 66 e9 4d 0e c0
       -1.6513714249319067 -3.788042828670208
000540 d6 f4 24 79 e0 8d db be 4b 06 99 8b 55 8e 08 c0
       -6.569434747580671e-06 -3.0694991022180935
000550 ed 75 84 6a dc 98 03 c0 c5 f6 cc fb f7 59 0c c0
       -2.4496391603158743 -3.5439300224232704
000560 e5 2c 70 ef a1 90 05 40 3c 4b 03 9a 3a 22 14 40
       2.6956213670833784 5.033426672411959
000570 8b 0b 8d 54 7b c9 01 40 7a 9a f4 d1 38 65 f8 bf
       2.2233797650855585 -1.5247123910318394
000580 d4 13 e4 77 0b e0 04 c0 dc 20 a1 01 b9 0a 13 c0
       -2.6093968740919795 -4.760471368274207
000590 9f 6d 04 42 7b ef fa bf ab 2d 4d 63 7a 7a 59 bf
       -1.6834671572495166 -0.0015550799555111665
0005a0 77 9a 7b 12 81 2a b7 3f 3f 39 49 f5 85 1a f2 bf
       0.09049231244316923 -1.131475408695749
0005b0 0d 3b 28 43 31 73 d4 bf 2b 4b f3 10 c9 47 08 c0
       -0.3195307880240968 -3.0350514721152613
0005c0 5f ce a3 ba f8 58 0f c0 c7 6e e7 84 b2 cf 14 40
       -3.9184431630363146 5.202829434037716
0005d0 24 a3 c3 0e 82 be 06 c0 2e ef 46 30 27 24 01 c0
       -2.843021502824188 -2.142652871289008
0005e0 30 be c2 36 b4 fd ee bf 47 7a fc f0 54 cb cc bf
       -0.9684697217507559 -0.22495519415766038
0005f0 c8 cf 87 10 71 0f 08 c0 99 09 14 94 74 ee 03 40
       -3.0075398723074365 2.4914332932105023
000600 05 28 b8 c2 83 6a 11 c0 8d 3a 12 ef 50 2c d3 3f
       -4.3540182518863775 0.29957984301373913
000610 8f 69 fa 6a 59 93 1e c0 57 67 eb 0a db a2 0d c0
       -7.643895789655644 -3.7045193532075404
000620 c3 01 fb 94 b5 77 0e c0 4e b8 31 87 b5 02 fd bf
       -3.808451808843729 -1.8131613999389802
000630 1f 2c 84 68 9b be 0c c0 e5 bb a7 d3 f3 4c c2 bf
       -3.5930698552451896 -0.14297340235449876
000640 c1 e0 a2 98 55 fb 01 c0 bb 00 05 81 28 1b 0b c0
       -2.247721855612412 -3.3882608489658117
000650 8e 06 c9 25 51 48 d5 3f ed e6 6d 72 1c 69 1a c0
       0.3325388783451694 -6.602647579152955
000660 39 3c 85 91 f9 d2 bb 3f 55 68 e3 1a 16 be c2 bf
       0.10868797114129415 -0.1464259749689655
000670 ab eb d0 b8 be 35 ff 3f 47 82 a7 a3 d1 32 d3 bf
       1.9506213397387266 -0.2999767397105057
000680 49 72 d0 f4 8e fb c8 3f a1 cc 0b 91 dd b3 17 c0
       0.19517695382900715 -5.925649896950888
000690 cc 32 d5 6e a5 74 f8 bf 6f 9a 8e 8c 77 49 0e c0
       -1.5284780816465853 -3.7858725529688892
0006a0 9c 11 fd 62 ac 32 e9 bf e3 85 37 c4 ff 61 c7 3f
       -0.7874357159967533 0.1826781948175685
0006b0 6d 92 a4 3f e9 df 12 c0 91 39 5b dc 32 e4 d2 3f
       -4.718663210315396 0.29517814177679563
0006c0 b0 e0 55 10 a3 f9 16 c0 e9 0c 42 bb aa bb e2 3f
       -5.743786101571615 0.5854085595496176
0006d0 82 d4 5f ae a4 24 ed bf 47 f2 b4 89 38 bc f2 bf
       -0.9107230573414571 -1.1709523562596063
0006e0 0a 21 89 37 35 ce d5 3f 6a 17 15 0f 79 97 13 c0
       0.3407109300938066 -4.897922740614243
0006f0 e5 0c 93 c5 8c da e3 3f 0a 03 15 9e 02 6b ae 3f
       0.6204284533381751 0.05941017322266447
000700 b6 88 ca 07 ac 5d 10 40 76 c0 19 f8 3f 64 02 c0
       4.091476556526848 -2.2989501364573313
000710 f5 2e de de ab 55 fe 3f 27 e9 a3 65 14 ee ef bf
       1.895915861680746 -0.9978124604379318
000720 2d c7 7d 8c 85 14 09 40 0b d6 ba b5 9d 74 00 c0
       3.13502034911007 -2.056941432728086
000730 64 1c 99 17 f9 ce f2 bf 0f 47 18 78 66 44 b3 bf
       -1.1755305215645189 -0.07526245529177465
000740 56 92 31 4d 8e 4a c5 bf a0 7f 5b 62 09 c7 98 bf
       -0.1663377644464556 -0.024196764591465247
000750 68 d3 a1 a5 3f 30 ea bf 95 51 da ad 8b a1 10 c0
       -0.8183897242548541 -4.157759396028628
000760 f7 00 26 b5 8d de e3 bf c2 26 dc b7 00 43 13 40
       -0.6209171808295925 4.815432427226996
000770 c9 7c 80 cc 63 8c 03 40 1e 2d af 98 61 e5 18 2e
       2.443549726172567 1.2515009671053018e-86
000780 8e 6e e0 2c 46 dd 0d 40 a8 97 24 eb c9 6b f5 bf
       3.7330440050116698 -1.3388156113883074
000790 1a d3 81 6b c0 61 c0 bf a9 1f 63 5a 75 09 f5 bf
       -0.1279831433236261 -1.3148091822385857
0007a0 4e 90 a4 01 7e 1c 13 40 20 55 0a 40 6c 62 f7 bf
       4.777824426335497 -1.461529016645109
0007b0 6b 85 33 2f be a6 b1 bf a8 c3 70 3f 1d cc 75 bf
       -0.0689505448567808 -0.005321611642146097
0007c0 d5 83 79 1b 23 da 07 c0 20 4d 45 c9 da 8d 04 c0
       -2.9815122744043756 -2.5692649578355855
0007d0 84 a6 e1 e5 36 2e fe bf bc 4d b0 88 20 0d 44 3e
       -1.8862828235382105 9.337103775949488e-09
0007e0 e5 bd 39 d3 dd 0d f3 bf e1 3d 86 aa d5 97 6a 3d
       -1.1908853770254322 7.55821475766979e-13
0007f0 91 f8 e8 43 a3 5e d5 bf f7 c7 7d e5 84 38 05 c0
       -0.3339012301620495 -2.6525972298632

bias_1 f8 [1, 32]
000000 95 7b 1b 4b d1 d8 f9 bf 0c c1 f1 a4 c7 bf f7 bf
       -1.6154339727288278 -1.4843212550295588
000010 d0 a5 56 08 60 61 c0 3f 2e c3 92 3d 72 ea ff bf
       0.12797165305282343 -1.9947378545004528
000020 77 41 9e df c2 c7 b9 3f 22 ba fd 26 b0 68 c0 3f
       0.1007043643896902 0.12819482711661673
000030 20 c0 2c d9 d7 1b 06 c0 c0 c7 d3 48 2f 3f f3 bf
       -2.763595291784455 -1.2029259533705812
000040 f0 f3 5c 60 66 7a 05 c0 24 6c 3d f5 8d 8c 05 c0
       -2.684765580021569 -2.6936301383371006
000050 51 82 ba 44 e2 5f 02 c0 56 5a 26 06 46 de b9 3f
       -2.296818291608624 0.10104787492887488
000060 d1 20 42 0f 7b 1a fe bf 51 dc 95 cc db 4e f3 bf
       -1.8814650150325642 -1.2067525855652728
000070 67 1c aa 3c 8a e7 00 c0 55 00 f1 12 73 73 fe bf
       -2.113056634847044 -1.9031859149836425
000080 29 be 93 3f bd 55 03 c0 e0 68 e8 20 f4 63 00 c0
       -2.416864868828061 -2.048805481998997
000090 8c 39 49 9b 09 e2 00 c0 7f 86 d6 a3 30 3e 02 c0
       -2.11036988560881 -2.2803662109225225
0000a0 00 9a 85 91 2f e6 f9 bf 46 07 af ba 20 51 03 c0
       -1.618697708554123 -2.4146132073082383
0000b0 b2 d6 c8 c1 c9 9c fd bf df 5d c9 76 8d 0e 03 c0
       -1.8507783479412123 -2.382105758686279
0000c0 14 ae 0c 81 83 ed fb bf 86 0e b5 b5 1b 89 fe bf
       -1.745486740207416 -1.9084736917438092
0000d0 fd a9 02 17 3b eb 02 c0 36 3e f1 da 63 bd fa bf
       -2.3648587987602228 -1.6712378075061571
0000e0 ae fe 82 7a aa a1 03 c0 0b 5a 90 4d e5 ff f4 bf
       -2.4539384433008626 -1.3124745397414042
0000f0 3f f2 95 bb ff 68 0a c0 1b eb c3 ce 3b 37 03 c0
       -3.3012690215239497 -2.4019695428409142

weight_2 f8 [32, 10]
000000 ac a7 46 36 4a 0a 11 40 d9 40 5c de 05 43 0f c0
       4.260048721373021 -3.9077260372069813
000010 8e 34 ca dc 4b d6 0d c0 e5 58 42 51 36 ab f2 bf
       -3.729636883660141 -1.1667998480020796
000020 d4 bc a9 82 65 c9 e4 bf 2b 01 5d 3c 38 d4 ff bf
       -0.6495845367443516 -1.9893114431325312
000030 6b 42 db e0 33 98 06 c0 d8 df d6 93 d3 4d f1 bf
       -2.824317700091617 -1.0815006041502695
000040 eb d7 15 25 0d 40 0c c0 8e 62 ed f7 d5 cf 0d 40
       -3.531275071839436 3.7264823312110087
000050 7e d1 1a 0f 6e 6c 14 c0 63 23 d7 fb 26 20 12 c0
       -5.105888591777669 -4.5313987112102465
000060 79 95 43 33 92 be dd bf 82 47 e1 1d 77 9e 01 c0
       -0.46475653654336885 -2.2023756346106333
000070 e4 2e 6f ce 30 af e9 bf 11 dc ea 05 61 ba b5 3f
       -0.8026355773849585 0.08487516779392502
000080 10 7d 64 01 e7 14 11 40 31 50 59 33 70 88 04 c0
       4.270412465818723 -2.566620255625843
000090 24 7b e9 99 8a c3 bc 3f 0d ed cd 22 fe c7 09 c0
       0.11235872514360473 -3.2226526946157095
0000a0 f6 22 f0 ed dd 8b f0 3f 5c 74 b4 c3 53 f0 25 c0
       1.0341471952871735 -10.969389072206631
0000b0 ae 4d c1 4e a4 34 13 c0 d7 d6 2f 8e c9 1d 09 c0
       -4.8014080338938765 -3.1395445926999446
0000c0 eb bf 0d c2 16 74 f2 3f 1f 8c 99 91 ce f2 12 c0
       1.153342016241363 -4.737116122242724
0000d0 9b ff fb 85 81 98 18 c0 d2 fd 70 e6 b4 f2 ff bf
       -6.148931592469945 -1.9967545510879643
0000e0 27 3c 01 11 b3 77 07 40 c3 ec 8b ac d8 bc 0a 40
       2.933447010851086 3.3422101478768993
0000f0 4d b8 66 51 51 2b 1d c0 b4 d7 1c 74 c2 d0 ba 3f
       -7.292302390951659 0.10474791846067327
000100 ec ec 80 0f 15 fe 27 c0 e2 77 1b 50 bd 90 fe 3f
       -11.996254429328893 1.910336792868741
000110 cd 90 f3 04 b7 08 f8 bf 70 38 c6 95 da b6 09 c0
       -1.50212766584541 -3.2142841054074367
000120 a4 9a d4 2f 23 b8 20 c0 66 ce 61 5d 18 aa 12 40
       -8.359643454268117 4.666108569235439
000130 05 ac cb 57 97 89 21 c0 8d 61 2b cc fe df 06 40
       -8.768732780086802 2.859372706483731
000140 61 b7 c8 32 c3 31 0c 40 82 75 c6 0b 56 b7 1f c0
       3.524298092604042 -7.929039176929452
000150 5f 3e 79 8a c7 07 06 40 c2 32 4d a8 bf 0e df bf
       2.7537985628367063 -0.4852751868791466
000160 88 ee 1a 68 8a 49 12 c0 78 52 7d bf 78 fd dc bf
       -4.571817042011055 -0.45297068309927324
000170 43 c4 4d a1 a2 ac 0e c0 d6 81 c7 df 8b fb 13 c0
       -3.834294567285299 -4.995650764991714
000180 2e 96 ca 34 44 1c 0d 40 92 75 ab 7f aa 36 1f c0
       3.6388019680332695 -7.80338477596287
000190 51 a3 da 75 d2 11 f1 bf 2a b8 d4 50 25 b2 18 c0
       -1.0668511012720112 -6.173970473273622
0001a0 0d 67 3f 27 4f 4b e8 3f 68 34 67 ad b2 9d 03 c0
       0.7591930166774731 -2.4520009562607363
0001b0 41 59 e1 06 1d 0d 05 c0 18 8a 7c aa a7 91 f9 bf
       -2.631403020622344 -1.5980602893474778
0001c0 88 16 c1 8b 84 44 08 40 d0 cb 9b d5 29 59 20 c0
       3.033455936269835 -8.174147296207508
0001d0 f6 83 ae 39 f6 a4 13 40 2c fb 98 19 f0 d7 1b c0
       4.911095525051669 -6.960876846277454
0001e0 8d a0 10 ee 09 e3 e2 bf a2 2d e7 55 1a df 10 c0
       -0.5902146959024478 -4.217873899683953
0001f0 b6 d0 76 fd 50 36 0e c0 7c 6c 25 9d 47 98 0f 40
       -3.7765216638454957 3.9493553425832584
000200 5e 3f cb cc 8f 80 17 c0 02 42 3f b6 fb 48 fc 3f
       -5.875548553376431 1.767818176176775
000210 b9 83 4b 8f ac 5c 10 c0 8f 2c 67 ef ba 13 0d c0
       -4.090502013191263 -3.634633894287226
000220 37 54 10 07 3e de 1c c0 8b f3 98 e7 85 a1 1a c0
       -7.217033491489068 -6.657737368307504
000230 3e 12 f7 b7 8e 8b 14 c0 a0 a2 aa 14 ee 5d 05 40
       -5.136286615805657 2.670864259202361
000240 c1 eb 98 30 78 7f e8 bf 73 c2 23 93 bf 1c 0f c0
       -0.7655602406660976 -3.8890372748649553
000250 c2 8a d4 17 08 d0 07 40 1b 0c 4f 1b c5 76 fd bf
       2.9765779363382032 -1.8414965693234595
000260 a0 94 48 12 d2 5e e6 bf 6f e3 40 ba 88 4e 12 c0
       -0.6990747792339285 -4.57669344922111
000270 0d 71 f4 d3 fb ff f1 3f 8f a1 8d 93 f6 2d f4 bf
       1.1249960212217645 -1.2612214816855134
000280 00 e3 dd 26 57 fe fc bf b2 c6 2a 67 2e 66 05 c0
       -1.8120948332054354 -2.674893194191861
000290 20 46 73 18 6b 2a 02 c0 e4 87 70 fe 0b 9f 19 40
       -2.270712080972558 6.405319190615021
0002a0 e1 4a f2 b5 3e 3c 09 c0 02 43 eb f9 03 6e f3 bf
       -3.154416486221962 -1.2143592607937426
0002b0 89 9c 6d 73 4e e4 fc bf 37 4a d6 a2 70 09 11 c0
       -1.8057388791001208 -4.259218735055177
0002c0 af 47 02 12 01 29 e8 bf c8 e1 b9 6e c0 8a 07 c0
       -0.7550053931938602 -2.9427498484112427
0002d0 31 82 b5 01 45 71 e8 bf 5f 1f 02 04 8e e1 00 c0
       -0.7638268502597098 -2.110134154619956
0002e0 43 a8 b9 91 b8 e3 01 c0 16 c8 2a b2 49 09 15 c0
       -2.236191881635962 -5.259070190297299
0002f0 49 21 7c 50 54 5f 11 c0 04 ff 83 1f 0c 75 14 40
       -4.343095071388526 5.114304058486372
000300 3d ae 66 fc aa b1 02 c0 22 a9 2e be 21 7c 04 40
       -2.336751911052288 2.5606112344732006
000310 d6 ca 5a 11 e5 d1 f5 bf 6c 6c ea 35 13 bf 10 c0
       -1.3637438466945944 -4.186596720154835
000320 75 4f 01 ca e8 7e 13 c0 9f 37 90 74 4e f9 04 40
       -4.87393489487646 2.6217316729079836
000330 dc 8f ba 38 24 3c 06 40 fc fc fa 97 a8 b0 06 40
       2.779365962212962 2.8362590669127012
000340 a3 2c 22 e2 75 2f 1b c0 14 39 5e b0 1e 00 f1 bf
       -6.796348126731718 -1.0625292672517093
000350 83 99 69 22 19 d4 12 c0 c9 ed 94 a3 ea f3 19 c0
       -4.70712713021783 -6.488199764218231
000360 08 8c e4 ef ec 91 11 c0 48 fe 56 0d 4e d2 1d c0
       -4.392505405735399 -7.45537587016549
000370 fb 14 b7 54 34 f8 1c c0 62 26 29 81 63 b2 13 40
       -7.242387126612125 4.924207704674332
000380 16 70 0c 92 61 95 03 c0 a3 8c ae e8 1b 1f 0b c0
       -2.4479400072141386 -3.3901899507778395
000390 31 cc 6b dd a8 85 0a c0 13 38 68 cf e9 4f ff bf
       -3.315263490535948 -1.957010088142401
0003a0 81 50 a9 75 ea 8e 0f c0 2d 5e 9d d4 94 25 08 c0
       -3.9447831337257075 -3.0183502779507507
0003b0 5e b9 73 e5 42 5a 15 40 79 b9 3a 8b 03 f8 1b c0
       5.338145814121473 -6.992201018771419
0003c0 22 d3 91 29 40 41 0d c0 d4 85 b5 52 eb f5 17 40
       -3.656860661280363 5.990155498818655
0003d0 3e b3 3e ab 59 8a fa bf 2f cd 99 1c 78 7d 0b c0
       -1.6587769212012087 -3.436264251178407
0003e0 d4 4a f6 fa ec 32 f4 bf 5f 8c 53 63 63 af e8 bf
       -1.2624330332952711 -0.771409696575926
0003f0 b3 3b db 12 e9 5c 04 40 3f 55 97 2e f9 bd 14 c0
       2.545366427722422 -5.185520866381295
000400 05 94 70 19 43 09 0a c0 31 e1 3c 0c 14 48 06 c0
       -3.2545225131493702 -2.7851944881514545
000410 23 ff 8d 85 1a 28 10 40 ff 61 71 65 4d 36 00 40
       4.039163672248637 2.0265148091532406
000420 64 d6 89 6e 82 d6 14 c0 21 01 55 3f ed 07 f0 bf
       -5.209481932795459 -1.001935241118254
000430 1c 2a 33 b7 d9 97 fb bf b6 2a 10 ce 04 30 f2 bf
       -1.724572864174326 -1.1367233323423256
000440 05 93 67 bf 18 a2 0f 40 8e 0a 43 8c ae bc 07 c0
       3.9541487649424902 -2.9671297986945495
000450 d5 90 0f f9 10 c7 09 c0 54 7d af 10 0a 37 03 c0
       -3.2222003419757166 -2.401874666553036
000460 33 35 9b 93 63 51 03 40 92 56 2e 27 a0 26 19 c0
       2.414740708517138 -6.287720310405023
000470 a9 5d e3 1c 2a 37 05 40 5a e6 ce 4d 32 fa 1d c0
       2.6519357926260523 -7.494332519295847
000480 f8 41 cc d7 fd ea 04 40 ec 46 27 e5 5f 7a 05 c0
       2.614741979523611 -2.684753217946186
000490 a9 bf 8c bd c4 67 03 40 b9 65 c8 66 8f 11 1c c0
       2.4256682213380896 -7.017148595792087
0004a0 1f 8e ef 33 d9 ce 18 c0 8f e0 6a 14 98 ae 15 c0
       -6.202000438209807 -5.42050201322867
0004b0 e1 91 12 4d b9 2c e7 bf 6d ab 41 d3 a7 6e 05 c0
       -0.7242094521830574 -2.6790310387054235
0004c0 c9 b3 dd 7b e5 ca 01 c0 66 f5 2c 4c 32 88 f5 bf
       -2.224070518210713 -1.3457510924921166
0004d0 05 d7 3f 8f 42 23 15 40 20 ab cf 54 f2 6a fb bf
       5.284433592101554 -1.7136100113809292
0004e0 47 d3 99 dc 0e 06 dc bf 56 84 46 f6 44 a3 f2 bf
       -0.437869754248187 -1.1648606891760855
0004f0 48 15 58 f8 dc 1d e9 bf 37 07 c4 c0 8f 20 08 c0
       -0.7848954058141908 -3.015899187071138
000500 fe 44 8e 19 2a 48 09 40 dc 5c 12 1c 0a dd 10 c0
       3.1602365490476805 -4.215858877774021
000510 0e 66 42 b0 66 88 07 40 11 3d 7b dd 72 8a 14 c0
       2.941602112795187 -5.135203800818332
000520 29 e4 db 19 08 59 11 c0 74 7e 66 60 af 53 f2 bf
       -4.33694496540651 -1.1454309239997231
000530 de 2b fc 07 07 8a 0a c0 bf bb a6 95 82 b3 03 40
       -3.3173962234336463 2.4626514140613547
000540 63 f7 4e d8 90 c8 0c c0 80 7b 7e 31 e9 c4 0b c0
       -3.5979325198267573 -3.4711479059910175
000550 48 c5 b2 67 64 89 11 c0 e0 80 4a d6 bc a5 c4 3f
       -4.384172077451986 0.16130791152409696
000560 9c 3b d1 38 29 27 13 c0 0b c4 93 b0 4a 90 09 c0
       -4.788243186731872 -3.1954549594015638
000570 44 e1 a4 9a be 65 06 c0 b8 7c b8 c3 bc 11 04 40
       -2.7996799546782842 2.508660821025469
000580 04 41 b3 e8 aa 28 a5 bf c6 56 d8 f3 e9 78 08 c0
       -0.04132589426592584 -3.0590399790188227
000590 18 52 f4 65 d9 13 f2 3f 14 49 40 b9 e6 81 f5 3f
       1.129845999011314 1.3442141758319552
0005a0 7d 5d fb dd e8 7e 0a c0 33 2c d9 8a 9b 84 16 40
       -3.3119675962768143 5.629499597077529
0005b0 5f f6 80 ab 16 11 05 c0 1d 7a dc c9 c2 8c 13 c0
       -2.6333440207225034 -4.887461809236382
0005c0 a5 92 2e b2 7d a4 12 c0 9e fa 79 1e 51 54 f7 bf
       -4.660635742275791 -1.4580851736533655
0005d0 90 cf 25 f7 68 6d 03 c0 2e 05 58 72 3c 1a 12 40
       -2.428422861901659 4.5256212106917655
0005e0 25 2c 09 88 18 61 08 c0 86 2f 67 c2 62 d5 14 c0
       -3.047410071163102 -5.2083845496634975
0005f0 7f 9d c7 73 ea 2b 0a c0 59 1f e4 f2 d1 e4 1a c0
       -3.2714432759564143 -6.723457141087999
000600 90 1c 5b c7 fd 5c 14 c0 3c 96 c9 56 aa 86 08 c0
       -5.090811839042672 -3.065754583384459
000610 65 63 39 93 12 3c 19 c0 36 1e 37 8d 46 78 05 c0
       -6.308664608361913 -2.6837283165403063
000620 b6 00 6c c1 4f 7b 14 c0 08 97 3a 89 e7 0a 20 40
       -5.120421430794684 8.021297729875656
000630 12 73 d3 3e f7 08 0c c0 c3 3a 44 78 e9 f4 00 40
       -3.504377833202292 2.119585933286858
000640 35 b7 d9 9e 6e 3a 14 40 05 17 1d 8c b3 72 15 c0
       5.057062608755406 -5.36201304366637
000650 7e 22 9e 38 86 3c 1a c0 8f 11 40 ce 01 a6 fe bf
       -6.559105763103274 -1.9155290657664386
000660 77 1f 6f 62 02 b3 0c c0 f9 bd b8 81 96 54 ac 3f
       -3.5874068918382664 0.05533285459057064
000670 3a 35 da b8 05 78 e0 3f 4f a1 92 33 d5 f6 05 40
       0.51465116600017 2.7455238370058974
000680 a4 b4 58 8a cb 4c 0a c0 c9 20 0e d7 1f 86 e2 bf
       -3.287497597534257 -0.5788726043984066
000690 8a a3 80 c6 ea 56 25 c0 9c d6 40 66 6a 9c 28 c0
       -10.669759944155675 -12.30549926320537
0006a0 87 fe b3 b0 fb 3e 12 40 a2 a4 51 5c 03 3a 11 40
       4.561506997095086 4.30665344475088
0006b0 8a 4e df 42 c5 83 22 c0 db 6d df 77 3d 2a 1e c0
       -9.257364358672266 -7.541250107776672
0006c0 00 00 3a b2 a5 3b 26 c0 89 b0 d5 96 05 2b 12 40
       -11.11649853666313 4.542013508598878
0006d0 6d a7 3b 6c 76 15 22 c0 e0 cc f7 21 6a 79 30 c0
       -9.041919119150146 -16.474275706289404
0006e0 63 cb af 87 82 dd 08 c0 80 97 81 a2 01 77 11 c0
       -3.108159122516939 -4.366217173728614
0006f0 f8 09 c1 d5 40 b8 12 c0 ca f4 32 b4 bf 11 16 40
       -4.6799348258086795 5.517332854852791
000700 c2 0c 21 0a 61 a8 eb bf 7c 36 0c 00 db 32 f1 bf
       -0.8643040845712664 -1.074915886103013
000710 b1 66 bf 15 cd 12 0f c0 01 7e 4d a2 fe 88 0f c0
       -3.8841802310024254 -3.941891925802111
000720 0c f0 d0 b9 7d e9 e4 3f 7e 70 1d 38 38 c1 f6 3f
       0.6535023335668497 1.4221727554313754
000730 7b 98 0f ed ff 82 03 c0 59 bc 4e f7 1c cd 12 c0
       -2.438964702642861 -4.700305809193275
000740 d2 0b 7e 1e c9 ac d7 bf 0e 55 c5 9b cc bb 0f c0
       -0.36992099740762996 -3.9666988534542105
000750 cc 49 28 14 7e 26 11 40 76 48 eb dc 51 c2 0e c0
       4.2875903272237785 -3.844882703714627
000760 ba 57 98 6c e2 c3 b3 3f 1c 95 22 fe 54 69 fe 3f
       0.07720770980117111 1.900715820994555
000770 06 c7 96 0f 83 e0 0b c0 df 87 de a0 1c c4 15 c0
       -3.4846249788178083 -5.441515458662223
000780 85 b7 2c df 4f 32 03 c0 74 3e 17 1d 02 7f 1c c0
       -2.3995664058228976 -7.124031500381182
000790 99 06 bc 13 70 0f 12 c0 3e 71 a8 b1 d6 12 fd 3f
       -4.515075977660353 1.8170992793812526
0007a0 17 f3 e0 80 14 1f 1a c0 d2 5a 93 0b e8 1b 07 40
       -6.530351651887734 2.888626184877787
0007b0 4b 50 1d 36 00 a1 fb bf 94 12 36 59 a4 39 0d c0
       -1.7268068422172458 -3.6531455011011733
0007c0 8c c4 50 fa 7b 69 e3 3f 41 8d 1a 20 e8 bd 21 c0
       0.6066265000319091 -8.8709116012966
0007d0 2c 03 92 47 fd 31 14 c0 7e 04 ef 9c 6f 48 00 c0
       -5.048817747389688 -2.0353691349451415
0007e0 de 1e 9c 13 be 09 e7 3f 68 61 30 7f cb 6f 02 c0
       0.7199392683987431 -2.3045873581542544
0007f0 e1 f2 b1 d9 08 ad fa 3f 10 d8 f5 51 cf f0 f6 bf
       1.667244768497021 -1.4337914659095112

bias_2 f8 [1, 10]
000000 56 15 a3 50 57 f2 e7 bf d4 b9 31 65 b3 45 c3 bf
       -0.7483326506559631 -0.15056459847569548
000010 58 ad 87 06 0b a7 cb bf 90 4f a3 a7 4e 32 c8 3f
       -0.21603524988982303 0.18903525529333054
000020 20 49 1f 9c ae e5 d9 bf df 99 fd ae 98 22 c8 bf
       -0.4046436810141518 -0.18855579895462335
000030 39 d1 e3 31 7d 65 cf bf 5a f0 55 0a da 27 cf bf
       -0.24528469978361914 -0.24340367798493184
000040 87 48 ab a9 5a 25 e3 3f a4 39 cf fd 86 c8 e8 3f
       0.5983098329400186 0.7744784314361834

loss_history f4 [120]
000000 08 00 23 3f cc 0b 9d 3e a6 ae 7e 3e 92 57 60 3e
       0.6367192 0.30673063 0.2487131 0.21908405
000010 4f a6 4d 3e 16 c9 41 3e a1 0b 35 3e 25 71 30 3e
       0.20082973 0.18924364 0.17680217 0.17230661
000020 d4 f6 28 3e 60 b4 25 3e af 0f 26 3e 18 76 1e 3e
       0.16500407 0.16182089 0.1621692 0.15474737
000030 a9 8f 20 3e 89 cc 16 3e 38 d6 19 3e a3 87 20 3e
       0.15679802 0.14726461 0.15023124 0.15676741
000040 0e fc 19 3e b2 40 1b 3e 81 18 16 3e 31 ba 13 3e
       0.15037557 0.15161398 0.14657785 0.14426495
000050 67 ed 18 3e 31 a7 17 3e 1e 79 1b 3e 31 e3 1a 3e
       0.14934312 0.14809872 0.15182921 0.15125729
000060 ea b8 14 3e 7a e0 15 3e a5 d1 0e 3e 33 2d 19 3e
       0.14523664 0.14636412 0.1394716 0.14958648
000070 16 20 16 3e 2e 81 16 3e d1 4f 1c 3e ec 0c 1a 3e
       0.14660677 0.14697716 0.15264823 0.15043992
000080 f9 83 19 3e 21 6a 25 3e fd af 1e 3e 40 dd 29 3e
       0.1499175 0.16153766 0.15496822 0.16588306
000090 97 a0 21 3e a0 84 24 3e 09 8b 1e 3e 36 8b 25 3e
       0.15783916 0.16066217 0.15482725 0.16166386
0000a0 a9 56 23 3e eb 31 2d 3e e3 c4 27 3e 7f 83 26 3e
       0.15951027 0.16913573 0.163837 0.162611
0000b0 41 55 2e 3e f6 c5 2c 3e 1e 2e 26 3e 71 2d 33 3e
       0.1702471 0.16872391 0.1622853 0.17497803
0000c0 be c8 36 3e c8 7f 31 3e b9 dc 33 3e ef 07 2d 3e
       0.17850015 0.17333901 0.17564668 0.16897558
0000d0 46 16 35 3e cb 57 36 3e 7c 41 31 3e 4b 6d 41 3e
       0.17684278 0.17806928 0.17310137 0.18889348
0000e0 bf 02 3d 3e 2f 91 33 3e 88 83 39 3e e1 47 3d 3e
       0.18458079 0.17535852 0.18116581 0.18484451
0000f0 66 71 33 3e ca cb 3f 3e 18 9e 3c 3e 74 53 4c 3e
       0.17523727 0.18730083 0.18419683 0.1995371
000100 6a 1a 40 3e 9a d8 3d 3e 68 fe 43 3e 88 d8 4e 3e
       0.18760076 0.18539658 0.19140017 0.20199788
000110 18 a2 42 3e 0a 2f 4e 3e be 8c 3e 3e 02 65 4e 3e
       0.19007146 0.20135131 0.18608376 0.20155719
000120 dc a0 55 3e a2 74 4a 3e de 59 53 3e 57 b4 4e 3e
       0.20862144 0.19771054 0.2063975 0.20185982
000130 db a0 58 3e 97 a1 4e 3e 15 40 55 3e 15 77 61 3e
       0.21155111 0.20178829 0.20825227 0.22018082
000140 55 5e 5a 3e 21 ea 63 3e ff 6e 53 3e 7e 9e 5e 3e
       0.21325047 0.22257282 0.2064781 0.21740147
000150 74 0e 60 3e 86 b7 69 3e 09 bd 69 3e d1 48 69 3e
       0.21880513 0.22823915 0.22826017 0.22781684
000160 d5 c1 61 3e 2f 03 6d 3e d3 26 69 3e 73 2f 6d 3e
       0.22046597 0.23145746 0.22768717 0.23162632
000170 9d 49 62 3e 2e 58 70 3e 87 96 6b 3e f3 e7 72 3e
       0.22098394 0.23471138 0.2300664 0.23721294
000180 3a 10 5f 3e b6 06 78 3e 48 cd 71 3e a7 86 77 3e
       0.21783534 0.2422131 0.23613465 0.2417246
000190 b5 eb 7a 3e da 48 6c 3e f7 b7 77 3e e8 30 7d 3e
       0.24503978 0.23074666 0.24191271 0.24725688
0001a0 b6 b8 77 3e be 55 80 3e 95 85 80 3e 00 e8 77 3e
       0.24191555 0.25065416 0.25101915 0.24209595
0001b0 48 1f 7b 3e 27 b2 82 3e 66 7d 80 3e 60 5d 7b 3e
       0.24523652 0.25526544 0.2509567 0.24547338
0001c0 13 7f 83 3e 88 0c 8d 3e 55 2d 8e 3e 97 c7 89 3e
       0.25682887 0.27548623 0.2776896 0.26910087
0001d0 0b 49 8c 3e 18 76 8f 3e 9b 3f 88 3e 22 d8 88 3e
       0.27399477 0.28019786 0.26611027 0.26727396

accuracy_history f4 [120]
000000 8c a5 a0 42 fd 22 b6 42 ef ae b9 42 e5 57 bb 42
       80.32333 91.06834 92.84167 93.67167
000010 55 55 bc 42 0a 17 bd 42 1b e8 bd 42 29 1c be 42
       94.166664 94.545 94.95333 95.055
000020 89 88 be 42 3a ed be 42 1f c5 be 42 29 1c bf 42
       95.26667 95.46333 95.385 95.555
000030 cd 4c bf 42 5c cf bf 42 41 a7 bf 42 89 88 bf 42
       95.65 95.905 95.82667 95.76667
000040 52 b8 bf 42 52 b8 bf 42 1b e8 bf 42 a7 0d c0 42
       95.86 95.86 95.95333 96.026665
000050 44 c4 bf 42 85 eb bf 42 cd 8c bf 42 0e f4 bf 42
       95.88333 95.96 95.775 95.97667
000060 f6 28 c0 42 07 fa bf 42 0a 57 c0 42 b1 e4 bf 42
       96.08 95.988335 96.17 95.94666
000070 2c 39 c0 42 7e f1 bf 42 f6 e8 bf 42 11 11 c0 42
       96.111664 95.971664 95.955 96.03333
000080 33 f3 bf 42 4b be bf 42 85 eb bf 42 6a 83 bf 42
       95.975 95.871666 95.96 95.75667
000090 9a d9 bf 42 b5 c1 bf 42 e5 d7 bf 42 b5 c1 bf 42
       95.925 95.878334 95.92167 95.878334
0000a0 7b 94 bf 42 66 66 bf 42 bc 7b bf 42 74 9a bf 42
       95.79 95.7 95.74167 95.80167
0000b0 a4 70 bf 42 e5 57 bf 42 4b 7e bf 42 c9 2f bf 42
       95.72 95.67167 95.746666 95.59333
0000c0 11 11 bf 42 26 3f bf 42 03 1d bf 42 7e 31 bf 42
       95.53333 95.62334 95.55666 95.596664
0000d0 8f 02 bf 42 4f 1b bf 42 da 40 bf 42 6a c3 be 42
       95.505 95.55334 95.62666 95.38167
0000e0 8c e5 be 42 cd 4c bf 42 66 e6 be 42 f6 e8 be 42
       95.44833 95.65 95.45 95.455
0000f0 77 f7 be 42 03 dd be 42 8c a5 be 42 b5 81 be 42
       95.48333 95.43166 95.32333 95.253334
000100 9d 76 be 42 c9 2f bf 42 89 c8 be 42 41 e7 bd 42
       95.23167 95.59333 95.39167 94.95167
000110 3a 6d be 42 18 0b be 42 0a d7 be 42 52 78 be 42
       95.21333 95.02167 95.42 95.235
000120 66 e6 bd 42 77 37 be 42 60 ec bd 42 b1 24 be 42
       94.95 95.10833 94.96167 95.07166
000130 ab ea bd 42 4f db bd 42 82 ce bd 42 ae 47 bd 42
       94.958336 94.92834 94.903336 94.64
000140 f2 cb bd 42 e5 57 bd 42 33 b3 bd 42 4f 5b bd 42
       94.89833 94.67167 94.85 94.67834
000150 1b 68 bd 42 77 f7 bc 42 f6 a8 bc 42 cd 0c bd 42
       94.70333 94.48333 94.33 94.525
000160 c3 f5 bc 42 bf d8 bc 42 0e f4 bc 42 93 1f bd 42
       94.48 94.42333 94.47667 94.56167
000170 ab 2a bd 42 74 5a bc 42 33 b3 bc 42 59 b2 bc 42
       94.583336 94.17667 94.35 94.348335
000180 29 1c bd 42 3a ad bb 42 85 ab bc 42 ef ee bb 42
       94.555 93.83833 94.335 93.96667
000190 de 1d bc 42 66 66 bc 42 ab aa bb 42 74 1a bc 42
       94.058334 94.2 93.833336 94.05167
0001a0 6a c3 bb 42 22 a2 bb 42 3a 6d bb 42 a7 0d bc 42
       93.88167 93.816666 93.71333 94.026665
0001b0 ae c7 bb 42 0e 74 bb 42 03 5d bb 42 74 da bb 42
       93.89 93.72667 93.68166 93.92667
0001c0 f9 45 bb 42 48 e1 b9 42 29 9c ba 42 66 a6 ba 42
       93.636665 92.94 93.305 93.325
0001d0 7e f1 ba 42 63 49 ba 42 ef ae ba 42 b5 01 bb 42
       93.471664 93.14333 93.34167 93.503334
